Ratio_oneone_wo_GRL/checkpoint_step_0001.pth (torch_old, 541547 bytes, 24 tensors)

momentum_buffer f4 [3]
00000000: 9770 2bbe cf5c 86bd b89b 023c
-0.16742168 -0.065606706 0.007971697

momentum_buffer f4 [3]
00000000: c1e0 44be 969c 9fbd e5ea 9d3d
-0.19226362 -0.07793538 0.07710818

momentum_buffer f4 [32, 3, 5, 5]
00000000: bbe9 bbbc 9ea8 ccbc 09d4 dbbc d039 e2bc
00000010: 1e2e ddbc 4540 bdbc 64ba cebc 1cfa e0bc
00000020: 3fcb e4bc 4d1d dfbc 8d3c ccbc e2b6 cfbc
00000030: 0f25 ddbc 4d5b debc 8ae6 d9bc d3f6 cabc
00000040: dd1a d2bc 0e64 dcbc cfd9 e2bc b2c4 e0bc
00000050: 472b bebc 9a23 d1bc 65ca ddbc fe47 e6bc
00000060: 2053 e6bc 527b 73bc 5db6 91bc 67e2 9dbc
00000070: 94dc a2bc 3fa1 9fbc c3fe 83bc 74f3 92bc
00000080: c622 a0bc 5c5e a9bc 5028 a3bc 6367 8abc
00000090: d652 90bc c753 9bbc 7690 9fbc c97c 9bbc
000000a0: c7e2 8abc cb74 96bc 8453 9bbc b1a4 a5bc
000000b0: 6239 a3bc 13e3 81bc bef8 8fbc 10c8 9bbc
000000c0: ed2a a8bc 9005 a8bc 7e42 f8ba bb4b 61bb
000000d0: e2fa b6bb 66ef c0bb d4a3 bebb 4665 09bb
000000e0: a342 7cbb 15db b1bb 3bd1 cfbb f62d bbbb
000000f0: d802 3fbb 7c50 84bb 33fb 90bb c747 b1bb
00000100: 2110 99bb 4311 53bb da48 80bb 9f10 acbb
00000110: 9534 c6bb 2cd6 b2bb c5cd 07bb 7456 7abb
00000120: c1ab a1bb 59f2 d2bb e26f ddbb 3c07 ae3b
00000130: cf7f bd3b 6c51 b83b 6cfc be3b 3774 b03b
00000140: a585 aa3b 372f cb3b 3e44 cc3b df8c af3b
00000150: fa98 a93b b372 a63b 86c3 c03b d3b7 b93b
00000160: 3829 af3b 69b9 ab3b 30ae 823b 4fa6 a23b
00000170: cef6 993b c279 8b3b dca5 a83b 4b90 733b
00000180: 3127 8c3b ae8a 8b3b 56f1 a63b 429e ae3b
00000190: 724d 31b9 f568 0a3a d9eb 093a 00d8 6db9
000001a0: 3022 bdb6 008e 9737 2fef 103a 9aeb 2c39
000001b0: 309e bbb7 5f1e b8b9 0854 edb8 ed57 b139
000001c0: f442 da38 ac3c beb9 d304 8eb9 8f8e 99b9
000001d0: 760d 35b9 f841 11ba 38ca 76b9 aaa4 40b9
000001e0: 0335 4aba 02e6 82ba 537c 75ba d4b2 83b9
000001f0: 6bb4 9039 0a17 373b 487b 3c3b 7f4b 4e3b
00000200: c3ba 1a3b 6298 083b d7b2 303b 2c67 593b
00000210: 393e 473b e0de f53a e3d5 c73a d712 443b
00000220: d0cd 3e3b 6ad2 133b b4ce fc3a 2147 063b
00000230: 378e 1f3b f87b 2a3b 1077 e93a f1cd 0f3b
00000240: 4a98 3d3b 4c65 113b 2680 143b aa54 113b
00000250: 3f4c 123b 8e5d 3c3b fc9e c33c bd54 c23c
00000260: c2e6 ad3c 68ec 9a3c 88b4 a73c 4e14 b63c
00000270: b81d be3c cb60 b33c 6347 983c 5dd5 a13c
00000280: edfe ad3c 6079 ae3c ab65 a53c 2d06 943c
00000290: 272e 993c 2b10 ae3c 8205 aa3c 475a 953c
000002a0: da2e 933c 21df 9f3c 8798 b73c c153 b23c
000002b0: e696 983c 2b6c 9c3c 2f39 b53c 555d 8d3c
000002c0: 6fe1 8a3c d63c 733c 7ab8 533c 3f08 723c
000002d0: aecd 863c ca73 893c 3697 7b3c 2d58 563c
000002e0: da8a 683c 1f32 7f3c fae9 723c 4a9a 5e3c
000002f0: b1c2 4d3c 1efe 523c d99b 833c 1f41 663c
00000300: 5459 4b3c ea26 503c 4043 643c c443 8c3c
00000310: 0c78 783c 62c9 463c dd83 623c 9f0b 8f3c
00000320: 9cdf d2bb 511c d0bb 9880 1bbc 0610 36bc
00000330: 327a 19bc 7eee f8bb 630b 02bc 61f9 06bc
00000340: 5d49 35bc 4069 23bc 0ede 10bc f845 12bc
00000350: 8470 23bc c429 39bc cc1a 30bc b66d 18bc
00000360: 40ad 24bc d675 3bbc 9714 37bc b287 16bc
00000370: 6854 f0bb 1c50 18bc 0690 4cbc 8bcf 34bc
00000380: 15ef f6bb 0652 b5bc 64a8 a6bc 5a5d 8abc
00000390: 2e20 8cbc 3fc7 9fbc 1088 babc 82a7 acbc
000003a0: b15a 93bc 2adf 9cbc 768d a2bc 2660 c0bc
000003b0: 9c39 bcbc 3812 abbc ddcb a0bc de00 9bbc
000003c0: 3fe7 c9bc 44d9 cbbc 9195 bbbc 68f2 a4bc
000003d0: 670d 93bc 5906 d0bc fad4 d1bc 7053 c6bc
000003e0: 9b97 aabc 2626 9dbc cc27 81bc 2a9f 64bc
000003f0: a5dd 26bc 87d8 2fbc 2658 5abc c887 83bc
-0.0229386 -0.024982747 -0.026834505 -0.027615458 -0.02699953 -0.023101935 -0.025235362 -0.027463011
-0.027928947 -0.027235651 -0.024931217 -0.02535576 -0.02699521 -0.027143145 -0.026599187 -0.024775898
-0.025647575 -0.026903179 -0.02769175 -0.027437542 -0.023213996 -0.025529671 -0.027074048 -0.0281105
-0.028115809 -0.014860945 -0.017787153 -0.019272996 -0.01988057 -0.019486068 -0.01611269 -0.017938353
-0.019547831 -0.020674877 -0.019916683 -0.016895002 -0.017617624 -0.018960847 -0.019478064 -0.0189804
-0.016953839 -0.018366238 -0.018960722 -0.020220133 -0.019924823 -0.015855348 -0.017574664 -0.019016296
-0.020528281 -0.020510465 -0.0018940715 -0.0034377414 -0.005584107 -0.0058879135 -0.0058178697 -0.0020964905
-0.0038491867 -0.005427728 -0.006342081 -0.005712266 -0.0029145982 -0.004037915 -0.0044244765 -0.005410168
-0.004671112 -0.0032206334 -0.0039149346 -0.005251005 -0.0060487487 -0.00545766 -0.0020722013 -0.0038198503
-0.0049338047 -0.0064375815 -0.0067577222 0.005310921 0.0057830582 0.0056249406 0.005828431 0.0053849476
0.00520392 0.006200697 0.006233721 0.0053573693 0.005175707 0.005079591 0.005882683 0.0056676655
0.00534549 0.0052406085 0.00398805 0.004963673 0.004698611 0.004256458 0.005146725 0.0037164863
0.004277133 0.0042584753 0.0050946875 0.0053289244 -0.00016908886 0.0005279922 0.00052612793 -0.00022682548
-5.636619e-06 1.8066727e-05 0.0005528805 0.00016490967 -2.2365799e-05 -0.00035117843 -0.00011316693 0.0003382558
0.00010407521 -0.00036284828 -0.00027087945 -0.00029288649 -0.0001726652 -0.0005541141 -0.0002353572 -0.00018371889
-0.0007713588 -0.000998676 -0.0009364534 -0.00025119504 0.00027600242 0.0027937316 0.0028760005 0.0031478105
0.0023609854 0.002084278 0.0026962066 0.0033173067 0.0030402078 0.0018758439 0.0015246238 0.0029918456
0.0029114373 0.0022555836 0.0019287677 0.0020489173 0.0024346241 0.0026013833 0.0017811973 0.002194282
0.0028929883 0.0022185622 0.002265939 0.0022175708 0.0022323278 0.0028742286 0.02387952 0.023722047
0.021228198 0.018911555 0.020471826 0.022226479 0.02320753 0.02189674 0.018588727 0.01975506
0.021239722 0.02129811 0.02019008 0.018069351 0.018698765 0.021247944 0.02075458 0.018231524
0.017966677 0.019515576 0.022411598 0.021768453 0.018626641 0.019094547 0.022121994 0.017256418
0.016953198 0.014846047 0.012922401 0.014772474 0.016455498 0.016778845 0.015355876 0.013082546
0.014193261 0.015575915 0.014826292 0.01358659 0.012558625 0.012877969 0.016065525 0.014053612
0.012411434 0.01270459 0.013932049 0.017122157 0.01516534 0.012132974 0.013825384 0.017461596
-0.0064353477 -0.006351032 -0.009491108 -0.011112219 -0.009367513 -0.00759679 -0.007937285 -0.0082381675
-0.011064854 -0.009973824 -0.008842004 -0.008927815 -0.009975556 -0.011301462 -0.010748576 -0.009303501
-0.010051072 -0.0114416685 -0.011174343 -0.009187626 -0.0073342808 -0.009296443 -0.01248551 -0.01103581
-0.007535825 -0.022133838 -0.020343967 -0.016890217 -0.017105188 -0.019504188 -0.022769958 -0.021075968
-0.017987581 -0.019149382 -0.019842844 -0.023483347 -0.022976689 -0.02088271 -0.01962846 -0.018921312
-0.0246464 -0.024883874 -0.022898467 -0.02013512 -0.017950727 -0.025393652 -0.02561425 -0.024209708
-0.020824244 -0.01918323 -0.015766047 -0.013953963 -0.01018468 -0.0107327765 -0.01332668 -0.016055956

momentum_buffer f4 [32]
00000000: 49ad 12bd ef11 83bb 0dbd 763c f54c dabc
00000010: 7241 59bb 64a5 803b f2ee 2bbb 2e74 37bc
00000020: 2417 7e3c c226 923c b103 e4bc b5fd 8fbd
00000030: 96ae 83bc a8c9 853c 825c d3bd f9a2 b4bd
00000040: dde9 a33c 2e67 16bd 9260 693c 13be 463c
00000050: 107f 23bd 2de5 f0bc d617 033d a200 20bd
00000060: 34d7 df3c 5e4b febc 340d 19bc 1c0c 123d
00000070: bc56 353c c6c8 ebbb a20c 03bc 1dc2 2c3d
-0.03580979 -0.0039999406 0.015059722 -0.026648024 -0.003315058 0.003925966 -0.0026234952 -0.011197133
0.015508447 0.017840747 -0.027833791 -0.07030813 -0.01607446 0.016331509 -0.10320379 -0.08820147
0.020008976 -0.036719494 0.014244216 0.012130278 -0.039916098 -0.029406155 0.032005154 -0.039063103
0.027324297 -0.031041797 -0.009341527 0.03565608 0.011068042 -0.007195565 -0.007998617 0.04217731

momentum_buffer f4 [32, 32, 3, 3]
00000000: c4ca 883a 1d65 a83a 43d3 073a cc70 ed3a
00000010: 4293 e53a 6d5d 333a 4706 663a 7584 493a
00000020: 66b0 0fb8 998d 57b9 e0da 5237 3351 523a
00000030: 7aac f5b9 9f93 5a39 4ddc 1eba a334 333a
00000040: 25e4 48ba 05f7 57ba a0dd 0bbb 68f8 c9ba
00000050: bafb ebba 7122 faba dd64 90ba 6023 c7ba
00000060: a568 20bb da66 7eba 5464 0eb9 5b01 8039
00000070: 3794 22ba de5e efb9 20d1 2c38 12a1 25ba
00000080: 408b ddba f848 c5b9 3ced f7b9 a931 e8b9
00000090: 4b9a cb39 3e25 edb9 802f aab6 2bf1 0c3a
000000a0: 4935 0939 7027 7537 3058 1a3a e8fc 9339
000000b0: 2cb7 2f3a 857a 8039 d266 13ba b5c4 f439
000000c0: 7cde 13b8 80bd c2b8 a19c 03ba 8e7f 9338
000000d0: fedc 60b9 6697 02ba 3b43 0a38 5dbe fab8
000000e0: e929 37b9 14f7 003a e0b5 7c39 85f4 093a
000000f0: 2119 8439 e42c 7f39 a2aa 8ab8 eaab adba
00000100: 0c7b d3ba 7a7f beba 2652 b9ba e5e5 a8ba
00000110: 4370 9fba a0fc ccb9 1a42 1ab9 1096 5ab9
00000120: a74e 103a 741f 98b9 75d1 24b9 ee15 2d3a
00000130: 06d1 b9b7 e8e4 21ba 3859 6638 e3cd af39
00000140: c896 843a 4249 8ab9 3353 acb9 70b8 f737
00000150: 0de2 3dba 38bb bcb9 8e33 0eba 905d 2eba
00000160: 380c 9ab8 5403 7eb9 2eff 9dba d96a 4139
00000170: bc34 2aba 31ae d1b9 bc8a fab7 df92 6eba
00000180: 0b40 b9ba 4c66 e9b9 5c4d c6ba 1f6b 7d3a
00000190: 42e8 9d3a 4198 213a 1b12 a73a db0b 2d3a
000001a0: e2cd bf39 60c4 783a e8ad 853a 4239 8f3a
000001b0: 83ab 9039 f14b f739 3092 0a39 8c6e 2b39
000001c0: e8b7 253a 98e7 5b39 429f 623a 607b 7c3a
000001d0: 2af7 873a 68b5 1b3a d47d 633a b812 50b8
000001e0: 4f7a 7839 9a44 c5b9 406a 89b7 72ed 9db8
000001f0: c0fe 1236 daa3 213a 79bc a03a 8601 103a
00000200: 4b87 8e39 9013 6c3a 02ad 4f3a 86f1 8a3a
00000210: 2aa6 683a aeb5 693a d72b 853a dd62 c43a
00000220: 9319 113a dedf 3a39 ce07 3e3a 13eb f039
00000230: 263d 33b9 02e2 323a 1467 893a 5ac0 2339
00000240: 312b 9238 423e b338 5a9a 95b9 d8e2 4f3a
00000250: 4b8c 15b8 f7c8 9b39 62c7 323a 0077 1637
00000260: 694f f839 3c9b 77ba 0d88 f7ba 302a f9ba
00000270: 6049 153a 9763 f2ba d0c3 0bbb 60f2 b4b9
00000280: 06d1 28ba 0abf 66ba 0472 d4b9 dd8f 7eb9
00000290: 8503 b4b9 6254 99b8 2ecf 333a 978b ddb9
000002a0: 1415 2339 6b15 d439 f2f4 483a 04d7 8fba
000002b0: f9c1 edba a248 94ba 1008 38bb 650c 0abb
000002c0: ca02 2cbb 03a9 08bb f768 daba 12e5 8dba
000002d0: 6bf1 14ba 80d5 d5b9 fc0c a3b7 088b cb39
000002e0: 0260 10b9 1aca 09ba 36d4 cbb8 ec92 54b9
000002f0: 6bf0 21ba 8215 9cb9 5548 11b9 8186 103a
00000300: ccf2 cfb9 f68f d237 2c01 10b9 026d 0dba
00000310: f858 1139 d583 0d3a 201f 7438 4dbd a2b5
00000320: d70a d7b9 8c18 9bb8 4f60 093a 74a5 89b9
00000330: a479 5eb9 c3fe c139 aa53 2739 3bfc 8eb9
00000340: 66da db39 807b d835 1ca7 233a 0205 b738
00000350: 80a7 6239 8dca 2a3a 60e2 c5b9 5430 26b8
00000360: ff39 96ba 3261 f1b9 4e45 6fb9 a8d4 44b9
00000370: 8e1d ec37 71b4 20ba 80ba 1536 3ce4 03b9
00000380: dc20 8bb9 5e1f 30ba 29dd ceba bccc 9eba
00000390: 44b9 a6ba 342e baba 0c1d 92ba e3a8 14bb
000003a0: 567e e4b9 b760 b6ba 358a b2b9 a7b3 ba39
000003b0: 988c 61ba 7e93 13b9 f0c0 383a 836f 013a
000003c0: 98f3 a4b9 7a80 84b8 2875 d6b9 1486 9bb9
000003d0: a4ad b6b8 6c30 21ba 0c87 8dba 6e51 45ba
000003e0: f4e3 fdb9 53cb 11ba 24b0 b7b8 f996 49ba
000003f0: 70c7 56ba b437 1d39 bd9e 0bba b28a 76ba
0.0010436405 0.0012847517 0.0005181322 0.0018115281 0.00175152 0.00068422296 0.0008774739 0.0007687279
-3.425814e-05 -0.00020556747 1.2567936e-05 0.0008022964 -0.00046858547 0.00020845093 -0.0006060049 0.00068361516
-0.0007663391 -0.0008238408 -0.0021341816 -0.0015409114 -0.0018004098 -0.0019083751 -0.0011016388 -0.0015193038
-0.0024476436 -0.0009704657 -0.0001357955 0.00024415072 -0.00062018953 -0.00045656314 4.120276e-05 -0.0006318252
-0.0016902462 -0.00037629134 -0.00047288265 -0.00044287488 0.00038834134 -0.0004523191 -5.0719245e-06 0.0005376513
0.00013085188 1.461232e-05 0.0005887775 0.00028226455 0.0006703015 0.00024505347 -0.00056229264 0.00046685865
-3.5254736e-05 -9.285938e-05 -0.0005020593 7.033265e-05 -0.0002144463 -0.00049816666 3.2964377e-05 -0.00011956387
-0.00017467853 0.000491963 0.00024100346 0.00052625715 0.00025195724 0.00024335418 -6.6121356e-05 -0.0013250087
-0.0016134693 -0.0014533841 -0.0014138862 -0.0012885897 -0.0012164194 -0.00039098132 -0.00014711209 -0.00020846003
0.0005504884 -0.00029015134 -0.00015718288 0.0006602694 -2.2151053e-05 -0.0006175772 5.4919365e-05 0.00033532
0.0010115737 -0.00026375992 -0.00032868385 2.953058e-05 -0.0007243462 -0.00035997643 -0.00054245524 -0.0006651515
-7.345568e-05 -0.00024224567 -0.0012054199 0.00018445718 -0.00064928434 -0.0003999337 -2.9866926e-05 -0.0009100865
-0.0014133466 -0.0004451744 -0.0015129256 0.00096671464 0.0012047368 0.000616435 0.0012746485 0.0006601193
0.00036583754 0.00094897114 0.0010198923 0.0010927098 0.00027593607 0.00047168092 0.00013215165 0.00016349013
0.00063216547 0.00020971743 0.0008644947 0.00096314214 0.0010373343 0.00059398124 0.00086781126 -4.9608498e-05
0.00023696687 -0.0003762588 -1.638115e-05 -7.530571e-05 2.190398e-06 0.00061660784 0.00122632 0.0005493391
0.00027185152 0.00090056006 0.00079222035 0.0010600544 0.0008874858 0.0008915317 0.001016016 0.0014983077
0.0005535122 0.0001782174 0.0007249088 0.0004595151 -0.0001709355 0.0006823839 0.001048299 0.00015616548
6.9698675e-05 8.5469816e-05 -0.00028534496 0.00079302257 -3.5655026e-05 0.00029713634 0.00068198715 8.968404e-06
0.0004736141 -0.0009445434 -0.0018885151 -0.0019009765 0.00056948327 -0.0018492815 -0.002132643 -0.0003451286
-0.00064398383 -0.0008802271 -0.0004052074 -0.00024276921 -0.00034334898 -7.311326e-05 0.000685918 -0.00042256407
0.00015552744 0.0004045175 0.0007665894 -0.0010974114 -0.0018139473 -0.001131315 -0.0028080977 -0.0021064517
-0.002624678 -0.0020852692 -0.0016663362 -0.0010825715 -0.0005681726 -0.00040785596 -1.943716e-05 0.00038822764
-0.00013768676 -0.0005256251 -9.719322e-05 -0.00020272628 -0.00061774877 -0.00029770663 -0.00013855223 0.00055132067
-0.00039663014 2.5100988e-05 -0.00013733347 -0.00053949666 0.00013861421 0.00053983676 5.820312e-05 -1.2125034e-06
-0.00041016072 -7.395548e-05 0.00052404864 -0.00026253948 -0.00021216884 0.0003700164 0.00015957528 -0.00027272277
0.00041933655 1.6129197e-06 0.0006242858 8.727053e-05 0.00021615438 0.0006515168 -0.0003774343 -3.9622493e-05
-0.0011461376 -0.00046039518 -0.00022818634 -0.00018771237 2.8147155e-05 -0.00061304035 2.2311287e-06 -0.00012578157
-0.00026536628 -0.0006718541 -0.0015782464 -0.0012115459 -0.0012720008 -0.0014204443 -0.0011147573 -0.0022683672
-0.00043581676 -0.0013914321 -0.00034053778 0.00035610536 -0.0008604019 -0.00014073958 0.0007047793 0.0004937576
-0.0003146201 -6.318181e-05 -0.0004090455 -0.000296638 -8.7107794e-05 -0.0006148878 -0.0010797693 -0.00075270876
-0.0004842576 -0.00055616087 -8.758929e-05 -0.0007690038 -0.00081931707 0.00014993438 -0.0005326083 -0.00094048225

momentum_buffer f4 [32]
00000000: 8f37 34ba a8b5 60bb d711 2dbd cf47 13bd
00000010: dc95 74bc 211f 81bd 1cff 5dbb 745e 013b
00000020: d1ae f3bc e326 d53b 7492 65bc 9c6a 9dbc
00000030: d25f e3bc 6a33 a53a a528 f3ba ac08 83b9
00000040: 3aa7 293b f6fa c53b a743 83bb 1732 833c
00000050: d4f4 a33c 50ff b4bd 2a9c 6d3c c43e 213b
00000060: 6988 ec3b 8f1d 3bbd 1b73 b0bb 558e 85bc
00000070: f05b 66bc 5a40 42bd 04dd 903c de44 9f3a
-0.0006874734 -0.0034287963 -0.04225334 -0.035957154 -0.014928307 -0.063047655 -0.003387398 0.0019740136
-0.029746445 0.00650488 -0.014011968 -0.019215874 -0.027755652 0.0012603824 -0.0018551542 -0.00024992728
0.0025887028 0.0060418798 -0.0040058675 0.016015096 0.020014204 -0.088377595 0.014502564 0.0024604062
0.00721841 -0.045682486 -0.0053848154 -0.01630322 -0.014060006 -0.04742465 0.017683513 0.0012151261

momentum_buffer f4 [64, 32, 3, 3]
00000000: 6d8d 12bc 2eb7 18bc 86f5 1cbc bd22 17bc
00000010: 6065 1bbc 981b 21bc 8b17 1dbc 8c94 1bbc
00000020: 1800 28bc baff 3d37 01ea 47b9 050c 0a3a
00000030: ce7d fc39 c02a 2cb9 4af9 0239 fc9d 1eb9
00000040: bf20 17b9 350f 9d39 8d7f adbc 7a09 b0bc
00000050: 9d5c a9bc 056c b1bc 9020 abbc 70bb a4bc
00000060: 7081 adbc 93da adbc 6444 a9bc e92e 3dbc
00000070: 5517 3dbc 2258 33bc 2614 35bc 969e 32bc
00000080: d6fe 34bc 9ae2 38bc 05e7 39bc 1743 3abc
00000090: 1647 27bb be38 2abb 3219 36bb 39e9 4fbb
000000a0: 3910 17bb b4a0 2fbb b378 44bb 2aef 32bb
000000b0: eebc 1ebb 6c80 93bc f3f0 93bc aeeb 94bc
000000c0: 5cea 96bc cf14 97bc 64d6 94bc 4e93 99bc
000000d0: a499 96bc 2a3c 91bc 486e 5239 5a4b 8fb8
000000e0: 08d9 c3b8 88b6 1fba c47a 6239 7127 2539
000000f0: 2ce6 c8b6 1ddc b6b9 d012 eeb9 3caa 0abb
00000100: 4596 12bb 3865 46bb 42ce 2dbb 6513 29bb
00000110: bc72 39bb 166d 1cbb 08c7 18bb 8b09 32bb
00000120: 06a8 54bc e820 59bc b4e4 4fbc 1084 42bc
00000130: e03a 45bc 8e59 48bc e6a8 47bc 1aaf 49bc
00000140: 7e82 4bbc c286 c8b9 7eac 25b9 d640 2f38
00000150: ac07 8bb9 78bb e937 4bfc 07ba 7bf5 afb9
00000160: 7bcb 81b9 a828 2eba 6744 47bc 8db6 4cbc
00000170: f177 4abc df6c 43bc fc7d 42bc 700a 45bc
00000180: d700 49bc 0a43 4bbc 3e5f 32bc 90b2 b0bb
00000190: 824e 9ebb 09ed bbbb 8a25 bdbb d38c abbb
000001a0: 32b9 b8bb 1f1d b8bb 79b4 c0bb d017 b8bb
000001b0: 8d94 54bc f053 4ebc 54b0 52bc dd70 3cbc
000001c0: 712b 3ebc bc9b 4abc ac9d 43bc e2f9 46bc
000001d0: 2649 46bc 91c6 cf39 59c0 3a39 b337 d139
000001e0: 706b d3b8 a909 a039 bd1c 57b9 68a8 bd38
000001f0: 1b38 5039 ed96 75b9 084d b039 908e 8439
00000200: 64f8 8338 0a54 e639 32ca f339 f84f d9b7
00000210: fe5e 0939 d8d1 efb7 aed8 063a 3a74 f4b9
00000220: 7443 ffb9 2f37 1bba ce74 08ba da8b a4b9
00000230: 1dfc 2bba 91cc 8939 747f c8b8 c0c0 3dba
00000240: 04e7 efba 065a fbba 5500 21bb c4f0 09bb
00000250: 4e8a cdba 0d02 e0ba d8b4 11bb d70c f3ba
00000260: bb24 11bb fac8 7fba 4e0b 03ba f4d7 26ba
00000270: 5364 80ba e20e e2b9 c019 57ba 6215 93ba
00000280: 8982 57ba f118 bfba 74e4 9dba 12d8 a0ba
00000290: 23d1 b7ba aa73 8aba e98b 98ba a318 00bb
000002a0: f9dc d7ba 9f77 d5ba 16b2 beba 625d 5fba
000002b0: c60b 38ba 70b7 19ba b560 8eba 807f d1b9
000002c0: 0031 6cb7 c059 2539 60c9 2c39 c0df ab38
000002d0: f08b eeba dba2 1dbb aada 06bb b604 b5ba
000002e0: 0ca0 d8ba a600 caba e255 c7ba a8b2 e8ba
000002f0: 86ba f4ba 50de d9bc 0b22 d3bc f14a d0bc
00000300: c1db d6bc 923a d1bc e64f d0bc d653 d5bc
00000310: afeb d6bc 036e d2bc cb8d d5bb ac7c e9bb
00000320: a39e ddbb f4b0 d7bb 20b5 dcbb ef45 e8bb
00000330: a801 dcbb 004d e1bb b6ac f0bb 8fee dbb9
00000340: a5e4 4b39 4490 e0b9 b4b3 3fba 5bd4 1b39
00000350: 9398 18b9 d664 b839 2a36 7fb7 aef5 1f3a
00000360: ba5e d0bb 64a7 c9bb 0113 c5bb 2bba c9bb
00000370: f46c d6bb 36b0 d6bb 683c c9bb 6062 c6bb
00000380: bb18 c0bb bd73 ccbc adae c6bc 170b c4bc
00000390: 94cc c6bc b38d c8bc f19a c8bc 5a42 c6bc
000003a0: b0dd c6bc cb10 c6bc f0fd aeba 0071 d6ba
000003b0: c074 e0ba 608b 5fba 274d 99ba 6c8f aeba
000003c0: c63d 0eba 9860 8bba 5075 89ba 39e1 bfba
000003d0: 871c c4ba 8781 05bb 6ec1 c3ba a26c a5ba
000003e0: c909 0bbb d0e9 e4ba 62e2 0ebb 3270 e3ba
000003f0: ae40 25ba ee40 37b9 0fce 95ba 0d52 94b9
-0.008944851 -0.009321017 -0.009580022 -0.009224591 -0.009484619 -0.009833239 -0.009588133 -0.009495866
-0.010253929 1.1324819e-05 -0.00019065292 0.0005266073 0.00048158917 -0.00016419124 0.00012490634 -0.00015126908
-0.00014412681 0.00029956704 -0.021178985 -0.021488894 -0.020674044 -0.021657953 -0.02088955 -0.020108908
-0.021179885 -0.021222388 -0.020662494 -0.011546829 -0.011541207 -0.0109463055 -0.011052167 -0.010902068
-0.011047086 -0.011284495 -0.011346583 -0.0113685345 -0.0025524548 -0.0025973762 -0.0027786014 -0.0031724705
-0.002305044 -0.0026798667 -0.002997917 -0.0027303197 -0.0024221498 -0.018005572 -0.01805923 -0.018178787
-0.018422298 -0.01844254 -0.018168636 -0.018746998 -0.018383808 -0.017728884 0.00020068244 -6.832807e-05
-9.33875e-05 -0.0006092568 0.00021598773 0.0001575032 -5.98726e-06 -0.00034877742 -0.00045408914 -0.0021158597
-0.00223674 -0.0030272733 -0.0026520644 -0.0025798914 -0.0028297147 -0.0023868731 -0.0023311991 -0.0027166333
-0.012979513 -0.013252474 -0.012688804 -0.0118723065 -0.012037963 -0.012228383 -0.012186265 -0.012309814
-0.0124212485 -0.00038247375 -0.00015799885 4.1783635e-05 -0.00026517862 2.7863061e-05 -0.0005187436 -0.00033561498
-0.00024756402 -0.00066436315 -0.0121623045 -0.012494695 -0.012357698 -0.011927812 -0.011870857 -0.012026414
-0.012268267 -0.01240612 -0.010886965 -0.00539238 -0.004831136 -0.005735044 -0.0057722973 -0.0052352934
-0.0056373114 -0.005618706 -0.005880889 -0.005618073 -0.01297487 -0.012593254 -0.012859423 -0.011501518
-0.011607037 -0.0123662315 -0.011939447 -0.012144538 -0.012102401 0.0003963006 0.00017809997 0.00039905086
-0.00010081276 0.00030524776 -0.00020514704 9.0435904e-05 0.00019857327 -0.00023421245 0.0003362673 0.0002528322
6.292833e-05 0.00043931633 0.0004649922 -2.5905654e-05 0.00013100725 -2.8588736e-05 0.0005143982 -0.00046625902
-0.00048687647 -0.0005921004 -0.00052053935 -0.00031384715 -0.00065607 0.0002628309 -9.560483e-05 -0.00072385
-0.0018303101 -0.0019176609 -0.0024566848 -0.0021048049 -0.0015681477 -0.0017090455 -0.0022233035 -0.0018543255
-0.0022147137 -0.0009757426 -0.0004998938 -0.0006364577 -0.0009795524 -0.00043117168 -0.0008205436 -0.0011221583
-0.00082210504 -0.0014579577 -0.0012046234 -0.0012271425 -0.001402412 -0.0010563035 -0.0011638376 -0.0019545935
-0.0016469053 -0.001628626 -0.0014548923 -0.000852069 -0.00070207973 -0.0005863821 -0.0010862561 -0.0003995858
-1.4078105e-05 0.0001576906 0.00016478216 8.195592e-05 -0.0018199664 -0.0024053368 -0.0020577111 -0.0013810608
-0.001652719 -0.001541157 -0.001520809 -0.0017753439 -0.0018671311 -0.026595265 -0.025773069 -0.02542636
-0.026227834 -0.025540624 -0.025428724 -0.026040953 -0.02623543 -0.025687223 -0.006517147 -0.0071254577
-0.0067632957 -0.0065823738 -0.006735459 -0.007088415 -0.0067140646 -0.006875634 -0.0073448075 -0.00041948675
0.00019444765 -0.00042832096 -0.00073128496 0.0001486106 -0.00014552688 0.00035170343 -1.52117955e-05 0.0006101978
-0.0063589485 -0.0061539877 -0.0060142283 -0.006156226 -0.00654375 -0.0065517677 -0.006141234 -0.0060542077
-0.005862323 -0.024957532 -0.024253214 -0.02393107 -0.024267472 -0.02448163 -0.024487944 -0.02420156
-0.02427563 -0.02417793 -0.0013350826 -0.0016360581 -0.0017124638 -0.00085275434 -0.0011695967 -0.001331789
-0.0005426075 -0.0010633646 -0.0010487232 -0.0014639265 -0.0014962115 -0.0020371394 -0.0014934966 -0.0012620876
-0.002121555 -0.0017464701 -0.0021802415 -0.0017352162 -0.00063038885 -0.00017476428 -0.0011429208 -0.00028289892

momentum_buffer f4 [64]
00000000: 069d 42bd a00e 723d 6031 27bd ce07 aeb9
00000010: 5309 593c 7d71 48bd a7a0 88bb 5c5b dcbd
00000020: ebd7 273a 7eaa e53c de34 433c 970d 113c
00000030: 9a56 aabc 7460 bcbd 975f e13c cc0e 2e3b
00000040: 4d4d 10bb 5524 e43b 02d6 9a3c 38f1 10bd
00000050: e661 a439 62ae 073b 5e48 f5bb 2e30 a2bd
00000060: 2a53 223b 852b 60bd f658 d1bc d6ed adbc
00000070: 24b0 b7ba acee 13bd 444c be3b f4f8 803b
00000080: 6c8a e83b cb1b 5a3c 8f6f 49bc ef01 853c
00000090: d397 3e3b ddc6 2fbb 0d6e 913c ae11 083d
000000a0: 4dfd 113a 3212 be3c 7f32 083b 2e0e 0ab9
000000b0: 8a2b 713d 8f6d a8ba ef30 623b b4e3 e739
000000c0: 8f87 733c 32e7 a8bb 625a 8a3c f380 b6ba
000000d0: fb26 aabd a7be a83b 5d57 b53c 2ab6 6ebd
000000e0: 6563 83bc f654 1fbc dceb 4db9 f8a6 cc3c
000000f0: dcee f53c 3802 ff3c 8b7f 303d ac05 c93c
-0.04751303 0.05909598 -0.040818572 -0.0003319368 0.013246852 -0.048936356 -0.004169542 -0.10759613
0.0006402719 0.028035399 0.01191446 0.008853338 -0.020793248 -0.091980845 0.027511401 0.0026559113
-0.002201873 0.006962339 0.018900875 -0.035386294 0.00031353458 0.0020703305 -0.0074854335 -0.07919346
0.0024768808 -0.054729003 -0.025555115 -0.021231573 -0.0014014286 -0.036116287 0.0058074314 0.0039359275
0.0070965793 0.01331229 -0.012294664 0.016236274 0.0029082194 -0.0026821413 0.017752672 0.033219986
0.0005569056 0.023202036 0.002078205 -0.00013165988 0.058879413 -0.0012850034 0.003451403 0.00044229405
0.014863863 -0.0051545138 0.016888801 -0.0013923928 -0.08308216 0.0051496807 0.022136385 -0.058279194
-0.016038606 -0.009724846 -0.00019638188 0.02498196 0.030021124 0.031128988 0.043090384 0.024538837

momentum_buffer f4 [64, 64, 3, 3]
00000000: f117 8cb9 5ccd 513a 8a20 cdb9 402d e6b8
00000010: 86a1 1139 662c f539 66c2 0bb8 82e0 3939
00000020: 4852 81b8 33f1 d139 94c1 8539 2fdf 6cb9
00000030: d884 6c38 b8d7 4037 cce3 2638 8018 4139
00000040: 5f66 0eb8 131c 1939 d87d 6039 163d d639
00000050: 6b2e 82b9 d8a5 9f38 77d2 83b9 a353 1139
00000060: f299 5db9 714e 3c38 5b98 f4b9 1a5b a9b9
00000070: 631e 1538 2e24 e738 e8d2 d0b8 5a58 17b9
00000080: 58a3 3738 a59e 91b9 4ef0 e9b8 0ace e139
00000090: 40e2 9cb9 1ada a638 8dc7 0fb9 4162 8d39
000000a0: 395d 0836 3096 e639 e34e 88b9 9e52 adb9
000000b0: 27d8 c5b8 7353 1839 2cca 2937 f010 9db9
000000c0: f438 d5b9 4a9c c3b8 b310 aa39 7619 d639
000000d0: b43a eeb7 4f22 62b9 10e3 053a d00c 1bb9
000000e0: 6833 7036 13ce ac39 ea7e 0fb8 4f76 19b9
000000f0: dc8f 08ba 5606 ae39 3f9d 61b9 9f8b 2838
00000100: 5611 83b8 f419 9d39 d45d cf39 6225 11b9
00000110: bad2 0139 6da0 8339 4e7a 73b9 8462 1c38
00000120: 113b a0b9 8378 a4b9 ea33 44b9 624a 7639
00000130: 78dc 7fb9 9a99 4539 c824 cab9 b914 4bb9
00000140: 91c9 7c38 12c0 04b9 5b7c ccb8 0d40 e039
00000150: ee9e 30b8 5a4b 243a 59a6 46b9 cb05 9438
00000160: e8ae 23ba a5fc 3739 0aad 9138 015a 33b9
00000170: 9905 64b9 2abb 1739 941a bdb9 50c6 e1b7
00000180: 5afc d039 4c64 e936 1c0b 54ba 5628 b4b9
00000190: 9d22 ea39 85c0 6839 044b 83b9 db8b dd38
000001a0: 749f 2737 032f 3bb9 9e9a 5e39 d4ce b739
000001b0: a2aa 1c3a efef bbb8 08d0 24b7 c1da 18ba
000001c0: 42e1 1939 b2b7 5eb9 4700 123a fdc7 9a38
000001d0: d933 7038 b167 e339 ca28 443a 20f9 9939
000001e0: f6ef 0a39 d2e2 3838 1ca2 1239 b740 beb9
000001f0: b266 b838 5477 e3b7 387f d836 afc8 a8b9
00000200: b058 133a 4e97 1d39 85e2 b6b9 cbf7 39b9
00000210: bef6 31b9 db88 a239 072e 3a39 7431 8739
00000220: 9bd4 a039 a8ac 13b7 df0b 7fb8 4a5c 2d38
00000230: c6b4 c937 3e33 c538 deb8 a0b8 6de3 62b9
00000240: 3366 20b8 1a00 c9b7 3cd1 f8b9 e752 64b9
00000250: a507 5039 081c e836 e8a8 6a38 f1ed 8539
00000260: 7efc ac37 a810 acb8 a605 d8b9 ce50 d0b6
00000270: 7721 bd38 28d2 a2b7 c8d1 f8b9 5bbe c338
00000280: 4083 8039 3f83 49b8 1976 02b9 8f97 1339
00000290: 67fa 4b3a c544 9739 a230 9837 01cf 88b9
000002a0: e5b9 38ba a1e0 4f39 8094 f039 e3ee d7b8
000002b0: 2392 6b39 09e7 efb9 c974 14b8 3712 7d3a
000002c0: a027 c837 a47e ea38 f712 5ab7 04c6 ad39
000002d0: 200b 56b9 1218 dcb6 b449 25b8 c3b2 9139
000002e0: a4ad 50ba d38b 3239 614d a2b9 281f 6b39
000002f0: c3d4 27b9 9b73 97b9 7d78 5b39 2b64 cb39
00000300: f6f8 4b39 bda0 eeb6 263a 0fba 7bf6 1bb8
00000310: be73 7739 b059 403a cf98 1839 fdfe b9b8
00000320: 247e 8cb8 d801 cdb9 4a31 cfb8 1c11 ccb8
00000330: 5f57 79b9 5952 72b8 3c05 ba39 ca04 8bb9
00000340: c75b aa39 18f9 3d3a 851c 123a ba28 383a
00000350: b692 de39 f19a 0639 c308 29b9 869d dfb9
00000360: ce72 c437 7de4 28b9 62c5 b139 5bf5 4a39
00000370: 8d36 f539 0322 27b8 a828 a639 bb58 5239
00000380: 1dbe 61ba e126 773a ba1c 5fb9 cae1 2339
00000390: 6c92 9239 1540 5cb9 7086 b839 3f1a 8738
000003a0: 26f2 c438 54d0 6338 325c d939 01c3 4e39
000003b0: b773 8a38 9d42 053a 8ba5 71b9 ba41 b939
000003c0: 0ff7 a0b9 d5ea 7439 ffa8 87b8 c0e1 de38
000003d0: 8e31 06b9 f32d a039 4af4 63b9 de89 bb38
000003e0: 129f a437 5b8a 12b9 1350 4db9 1589 87b8
000003f0: b4a7 4eba 8ec2 4e38 c115 ee39 326f 7bb9
-0.0002672072 0.0008003318 -0.0003912489 -0.00010975683 0.0001388845 0.0004676312 -3.332123e-05 0.0001772661
-6.1665254e-05 0.00040043294 0.00025511964 -0.00022589856 5.6390505e-05 1.1494318e-05 3.9789637e-05 0.00018415041
-3.395078e-05 0.00014601676 0.00021409185 0.00040862773 -0.00024830116 7.6126016e-05 -0.00025143076 0.00013859435
-0.00021133551 4.4895747e-05 -0.0004665282 -0.00032302068 3.5552668e-05 0.00011021677 -9.957497e-05 -0.00014433396
4.3782726e-05 -0.00027774755 -0.00011155066 0.00043068855 -0.00029923208 7.9561214e-05 -0.00013711881 0.0002696682
2.0319842e-06 0.00043980917 -0.00025998717 -0.00033058686 -9.4339535e-05 0.00014526937 1.0120257e-05 -0.00029957993
-0.0004066896 -9.327436e-05 0.0003243737 0.0004083623 -2.8399147e-05 -0.0002156582 0.00051073823 -0.00014786725
3.579271e-06 0.00032959934 -3.4212055e-05 -0.0001463529 -0.0005209425 0.00033192587 -0.00021516251 4.0184354e-05
-6.249796e-05 0.0002996471 0.00039552024 -0.00013842204 0.000123809 0.00025105794 -0.00023219848 3.7285048e-05
-0.00030561586 -0.00031370306 -0.00018711356 0.00023488098 -0.00024400826 0.00018844605 -0.00038555847 -0.00019367308
6.0269205e-05 -0.00012660053 -9.750641e-05 0.0004277233 -4.2109685e-05 0.0006267332 -0.00018944721 7.058269e-05
-0.00062440196 0.00017546357 6.94637e-05 -0.000171043 -0.0002174586 0.00014470206 -0.0003606869 -2.6914437e-05
0.00039860868 6.955617e-06 -0.00080888136 -0.00034362328 0.00044657747 0.00022196963 -0.00025042158 0.00010564151
9.991101e-06 -0.00017851223 0.00021229169 0.0003505858 0.0005976354 -8.961546e-05 -9.823598e-06 -0.0005830937
0.00014675132 -0.00021240002 0.00055694993 7.380543e-05 5.7268746e-05 0.0004337407 0.00074828847 0.00029368047
0.00013250098 4.408026e-05 0.00013984035 -0.0003628784 8.792932e-05 -2.7116075e-05 6.452112e-06 -0.00032192978
0.00056208204 0.00015029052 -0.00034882515 -0.00017735285 -0.00016971954 0.00031001013 0.00017755489 0.00025786052
0.00030675982 -8.802082e-06 -6.0807793e-05 4.1332365e-05 2.4045246e-05 9.4032366e-05 -7.663829e-05 -0.00021637762
-3.8242153e-05 -2.3961114e-05 -0.00047458138 -0.00021774658 0.00019839274 6.917402e-06 5.5947254e-05 0.00025545017
2.0621574e-05 -8.2047016e-05 -0.0004120294 -6.20829e-06 9.0184556e-05 -1.9409767e-05 -0.00047458545 9.333781e-05
0.0002451185 -4.8044367e-05 -0.00012441761 0.00014075472 0.00077811483 0.00028852202 1.8142458e-05 -0.0002609417
-0.00070467434 0.00019824739 0.00045887008 -0.00010296495 0.00022465787 -0.00045757767 -3.5394714e-05 0.00096538983
2.386031e-05 0.00011181578 -1.2998228e-05 0.00033144664 -0.00020412775 -6.559313e-06 -3.9407707e-05 0.00027789743
-0.0007960445 0.00017027491 -0.000309567 0.00022422953 -0.00016005621 -0.00028887097 0.00020930353 0.00038793808
0.00019452334 -7.111665e-06 -0.0005463682 -3.7184433e-05 0.00023598873 0.0007337583 0.00014552775 -8.868983e-05
-6.699216e-05 -0.0003910202 -9.87971e-05 -9.730665e-05 -0.00023779039 -5.777399e-05 0.00035480584 -0.00026515714
0.00032493306 0.00072468957 0.0005573708 0.00070251117 0.00042452448 0.00012836956 -0.0001612036 -0.0004265124
2.341848e-05 -0.00016106847 0.00033907132 0.00019355623 0.00046770685 -3.984758e-05 0.0003169228 0.00020060215
-0.0008611398 0.00094280957 -0.00021277639 0.00015629004 0.00027956383 -0.00021004707 0.0003519538 6.44219e-05
9.391112e-05 5.4315038e-05 0.00041458156 0.00019718336 6.601906e-05 0.00050834735 -0.0002304522 0.0003533492
-0.0003070165 0.00023357135 -6.4687796e-05 0.00010627834 -0.00012797696 0.00030551813 -0.00021739412 8.9425346e-05
1.9624396e-05 -0.00013975186 -0.00019580153 -6.462835e-05 -0.0007883266 4.929542e-05 0.00045411105 -0.00023978649

momentum_buffer f4 [64]
00000000: 438b ae3a 5b0d 353c b0c5 0c3d bed8 e8bb
00000010: 79a8 8abc 8ab2 00bd ad6b ba3b 99af dbbb
00000020: f534 3d3c f23e 593d 54ba 9bbd 789e 8bbc
00000030: bf28 323d 64fa 3b3b 05fc dc3c b7f8 3abb
00000040: f2db 3abd ad74 13bc 83a8 83bb feb2 edbc
00000050: e07c 133d 0118 c23b a704 423b a093 b5bd
00000060: 12a1 dcbc 58b6 ce3c a585 d33c 327d c73c
00000070: 66c3 d03c 715d 5d3d 558b 00bc 1708 e6b8
00000080: ed03 9d3c 7db1 98bd de20 cf3c 7e2b c43b
00000090: b75a 1d3d 7c59 65bd f6f3 673c a676 b6bd
000000a0: 5e66 573b 3cef ea3b 3445 a7b9 c9e5 15bd
000000b0: 98c5 633d 9a06 243d a83a 273d 8cd6 81bd
000000c0: 9aaf c33c 20b4 79bd b3c2 1f3b 536c ae3b
000000d0: 1aba c73b 6f8e 553d 242f 833b 01a7 c8bd
000000e0: bc0a b53c 485a 163b 9c75 1a3d 700a b53c
000000f0: 616b 52bb 04e5 c939 db14 e0bc d47e 483b
0.001331665 0.0110505475 0.034368217 -0.007105916 -0.016926037 -0.031420268 0.0056891055 -0.0067042825
0.0115482705 0.053038545 -0.07603899 -0.017043337 0.04349589 0.002868318 0.026975641 -0.0028529593
-0.045619912 -0.008999986 -0.004017891 -0.029016014 0.036007762 0.0059232716 0.0029604824 -0.08866048
-0.026932273 0.025233433 0.025820563 0.02435169 0.025483798 0.05404419 -0.007845719 -0.000109687615
0.019166911 -0.07455728 0.025284227 0.00598663 0.03841659 -0.055993542 0.014157286 -0.08909349
0.0032867412 0.0071696322 -0.00031904283 -0.036596093 0.055608362 0.04004536 0.040827423 -0.0633975
0.023887444 -0.060962796 0.0024377524 0.005322972 0.006095183 0.05213779 0.0040034223 -0.097974785
0.022099845 0.0022941995 0.037709817 0.022099704 -0.003210746 0.00038508337 -0.027353695 0.0030593174

momentum_buffer f4 [1, 64]
00000000: 48bf d0ba 90ac 743d 6b74 e4bd ba4e 0bbc
00000010: 43cb 9abd 32ae 38be 4d87 92bd 709b 3a3b
00000020: 8bae 913c b350 1a3d 1a14 4fbe 88c3 c3bc
00000030: e5c2 b33d a96a 40bd 3402 823d d97a 12bc
00000040: 4a79 94be 66de 04bd ee77 a8bd 934e 12bd
00000050: b3d1 06be d1b7 5bbd af07 803d 5809 60be
00000060: 30f4 20bd dfe8 b1bd 3193 11bc d961 2e3d
00000070: 5efc e2bc 2f16 82bd 04ec 28bc a421 66b9
00000080: 2433 afbd 379b 21be 2823 423d a09c dcbb
00000090: aebb aebd 25ff 6ebe 4c8d 87bc 1a23 4ebe
000000a0: 901f 83bb f8c5 ff3d d47c 8bb6 8d6d 63bd
000000b0: 89c2 b9bb 7682 083e ba18 3cbd 7004 00be
000000c0: 8c03 14bd a3e7 aebe 05d1 bdbb 1ae2 45bc
000000d0: 3300 46bc 90e9 28bc b38d 8dbb a6a7 91be
000000e0: 706f 8fb9 9e9a 91bb 8eff 933d dcdf 6abe
000000f0: 09a3 753c 88b0 1d3a 129a 85bc 864b 90bb
-0.0015926147 0.05973488 -0.111550175 -0.008502657 -0.075583 -0.180352 -0.07154713 0.0028473996
0.017783424 0.037674617 -0.20222512 -0.023896948 0.087774076 -0.04697672 0.063480765 -0.008940422
-0.28998786 -0.03243866 -0.08226 -0.035719465 -0.13165931 -0.053642098 0.062514655 -0.21878564
-0.039295375 -0.08686995 -0.008885191 0.042573784 -0.027708229 -0.063518874 -0.010310177 -0.00021947041
-0.08554676 -0.15781866 0.04739681 -0.0067325383 -0.08531891 -0.23339517 -0.016546868 -0.20130578
-0.0040015653 0.124889314 -4.1570547e-06 -0.055524398 -0.0056689424 0.13331017 -0.04592202 -0.12501693
-0.036136195 -0.341611 -0.0057927393 -0.012077833 -0.012085008 -0.010309592 -0.0043198704 -0.28448218
-0.00027358113 -0.0044434806 0.072264776 -0.22936958 0.014992484 0.000601538 -0.016308818 -0.0044035343

bn0.weight f4 [3]
00000000: b4b5 803f 1677 803f cff3 7e3f
1.0055451 1.0036342 0.9959077

bn0.bias f4 [3]
00000000: cd10 3c3b 67da 8c3b b018 c43a
0.0028696537 0.0042984965 0.0014960971

bn0.running_mean f4 [3]
00000000: 9374 f83e 3407 e53e 1576 d03e
0.4852644 0.44732058 0.4071509

bn0.running_var f4 [3]
00000000: 61e9 843d 6b95 763d 4953 7a3d
0.06489826 0.06020109 0.061114583

conv1.weight f4 [32, 3, 5, 5]
00000000: 9194 80bd 8277 ff3c 3b81 6bba 870e febc
00000010: 3a7a da3c 5b14 803d 065b 0e3d 1301 c93c
00000020: a820 aa3c 0166 e23d 7a42 c1bc d787 283b
00000030: 6385 7cbd 2c4b a73c b932 3ebd 8dc4 823c
00000040: c1e1 a03d e99d ae3c 6cf4 7c3d 1e6b 9f3c
00000050: 1ce7 283d d2f0 8a3c 765b 53bb af9f ce3c
00000060: cb27 8e3d bb8e 4e3d ab5f 19bd 82c2 bb3c
00000070: 0ba9 e33c 4dd0 de3c dab2 adbd 2a72 73bd
00000080: 2e5f a63d 6be2 70bd 47da 053d 2b36 2e3d
00000090: 8c5f 63bc e359 003a 2c46 ec3b b6a6 a5bd
000000a0: 3ed0 e73c 86d7 02bd 660c 823d 662f 973c
000000b0: 6130 8cbc 835e 52bd 544b 3f3d 311c 993d
000000c0: a895 c63c 8bdd a63d 8ed0 9dbd cc33 a03d
000000d0: 9544 90bc 9e35 2a3d 67c0 01bd d3a0 10bc
000000e0: a06e a0bc 0e58 c73d e07c 19bb 0316 823d
000000f0: 7c9f c13d cdda efbd 6c88 433d f048 0fbd
00000100: d73c 47bd 8a04 bc3c 92ec a03c f3a9 a2bd
00000110: 7665 8dbc 1828 453d 2e90 38bd 968e 1dbd
00000120: de0d 913c 11ca 57bc 0cd6 5e3c 6855 1e3c
00000130: a6b6 d1bc 06a6 90bd 953a 4f3d de72 5c3a
00000140: fe60 f43b e278 803c 2e5d 823c f028 77bc
00000150: 5ff8 6c3d a260 74bc 82c9 1ebd 4eca 773c
00000160: 1aa5 6f3a f469 98ba 9c09 dcbd b916 043c
00000170: 897e 9e3d 43f6 e8bd e9fe 55bd e3b2 953c
00000180: 3c79 503b 886f 98bc 60df 7d3d 70d2 34bc
00000190: e5c4 50bd 8c24 233d 63b9 883d d930 58bc
000001a0: 752b 183d 0fd3 8d3b 9819 1dbc 9fc8 4fbd
000001b0: e702 823d 443f a43d 9f8d 06bd 9fdc 93bd
000001c0: a003 b33c c6d8 f7bb bb73 993b 5985 e83c
000001d0: c5cb 8b3c 090a ca3d e244 8f3d 26a4 83bd
000001e0: a84c 503d 7ee1 afbd e92c 95bd 1019 94bc
000001f0: c4bf 4dbd 026b f43b 608a fabc f65c 9c3d
00000200: 71ad 3d3c a255 adbc a045 b7bb 8c4b fdbb
00000210: 6ab4 c9ba e1d3 5ebd 6b06 8bbc 4b29 573d
00000220: 96ee b8bd e2a5 5dbd f155 4bbc 7a08 213d
00000230: 01ef 543c 6676 e03c 64b5 4c3d 5c4b a83d
00000240: 7de4 dd3d 543f 6d3d a6c4 b63a 65b2 a03c
00000250: efb3 0fbd e488 d2bc 5757 7b3d 683e 093d
00000260: d0b7 ca3c 1066 33bd fd1b 55bc a561 5cbd
00000270: c630 5a3d 5dcc ae3d e1e9 5abd a15a a23c
00000280: 0da5 ccbc 7778 413c 7d2d 3d3d 4e95 16bd
00000290: b7dd a7bb 6a50 2dbd 227b 3f3d aa1d 46bd
000002a0: 6e4d 46bd a95d 28bd 122c 82bd f861 b53d
000002b0: 620c a43c dd7d 4bbc f95b fb3c 4167 9cbb
000002c0: 4db3 92bc 3f2b 51bc 9fe7 60bd 8b6a e4bb
000002d0: 86e2 583c 3fad 5d3d 2c51 4b3b bca5 2d3c
000002e0: 68d8 ea3c 2bc2 573c 644b ffbc 00f8 a6bd
000002f0: 410b 6bbc 9084 aabd 5715 813d 88ff 81bd
00000300: c788 2dbd e950 31bc 0b49 e8bd 099e 4a3b
00000310: 7800 d9bc 0f2d 04be 5b88 9fba 912d d13d
00000320: dfc8 8b3c b955 bb3d 9acf 8bbd cb12 6cbd
00000330: ffda 89bc f5fc d2ba 68b7 c3bd ade8 b53d
00000340: 9308 19bd f6e7 32bc b1f8 ebbc b308 f83c
00000350: b81c af3a a0fe ddbc 6a9c 3abd 86a7 04be
00000360: 117f 26bd 547c 1e3c dcd6 89ba eb99 3e3d
00000370: 3ebc 463c e3a9 0cbd cdfa 27be 5713 d0bd
00000380: a530 b9bc 4075 66bc d27a db3b 3d15 3ebd
00000390: cdf8 4cbd 9fa6 21bb a5f2 61bd 1f25 7d3c
000003a0: f64d 263d 34c3 9dbc 5eae a1bc a191 6cbd
000003b0: a113 dbbc e461 84bd fac4 1c3e 4924 5dbd
000003c0: 7d2f 953d e915 2a3d e356 f63b cea1 15bc
000003d0: 7108 9b3a 577b 253d 3ce9 163d 77b6 d33b
000003e0: 5b68 513d dc34 14bd 1106 5d3b 8ded 53bc
000003f0: 29fc 24bc 6830 6ebd e129 ae3c c76c 543d
-0.06278337 0.031184915 -0.00089837954 -0.031012787 0.02666961 0.062538825 0.034754775 0.024536645
0.020767525 0.11054612 -0.023591269 0.0025715732 -0.061650645 0.020421587 -0.04643509 0.015962863
0.07855559 0.021315532 0.061756536 0.019460257 0.041236028 0.016960535 -0.003225056 0.025222627
0.06941184 0.050429087 -0.03744475 0.022919897 0.027790567 0.027198935 -0.08481379 -0.059435047
0.08123623 -0.05880968 0.03267887 0.042532127 -0.013877761 0.00048962067 0.0072105136 -0.08088438
0.02829754 -0.03194382 0.06350021 0.018455219 -0.017112913 -0.051359665 0.046702698 0.0747608
0.024241284 0.08147725 -0.07705794 0.078223795 -0.017610827 0.04155504 -0.03167763 -0.008827406
-0.019584 0.09733592 -0.0023420379 0.06351855 0.09454247 -0.11711655 0.047737524 -0.034981668
-0.048642006 0.022951383 0.019644056 -0.079425715 -0.017260294 0.04813394 -0.045059375 -0.03846606
0.017706808 -0.013170735 0.013600837 0.009663917 -0.025599789 -0.070629165 0.050592978 0.00084094505
0.0074578514 0.015682641 0.015913572 -0.015085444 0.057854053 -0.014915617 -0.03876639 0.015123917
0.00091417285 -0.0011628256 -0.1074402 0.008062058 0.077389784 -0.11375096 -0.052245054 0.018273776
0.0031810543 -0.01860787 0.061980605 -0.0110365 -0.050969023 0.039829776 0.06675985 -0.01319524
0.03715082 0.0043281387 -0.009588622 -0.050728437 0.0634821 0.080198795 -0.032849904 -0.072198145
0.021852314 -0.007563683 0.0046829856 0.028383898 0.017064938 0.09865195 0.0699556 -0.06427793
0.050854355 -0.08587931 -0.072839566 -0.018078357 -0.05023171 0.0074590454 -0.03058356 0.076349184
0.011576996 -0.021158997 -0.0055930167 -0.007729953 -0.0015388851 -0.054401282 -0.016970834 0.052529614
-0.09029882 -0.054113276 -0.012410627 0.039314725 0.012996436 0.027400207 0.049977675 0.08217499
0.10834596 0.057921723 0.0013944104 0.019616315 -0.035083707 -0.02570004 0.06136259 0.03350678
0.024745852 -0.043798506 -0.013007161 -0.05380406 0.05326917 0.08535073 -0.0534457 0.019818606
-0.024981046 0.011808506 0.04618596 -0.03676348 -0.005122866 -0.042313017 0.046748288 -0.048368134
-0.048413686 -0.041104946 -0.06356062 0.08856577 0.020025436 -0.012420145 0.030683504 -0.004773051
-0.017907763 -0.012766658 -0.05490839 -0.0069707087 0.013237601 0.0541203 0.0031023724 0.010598596
0.028667644 0.013168852 -0.031163879 -0.08152771 -0.014345945 -0.083260655 0.063028984 -0.06347567
-0.04236677 -0.010822513 -0.11342057 0.003091695 -0.026489481 -0.12907813 -0.0012171374 0.10213769
0.017063556 0.0914721 -0.06826706 -0.05763511 -0.016828058 -0.0016097116 -0.09556466 0.0888227
-0.037361693 -0.010919562 -0.028805109 0.030277586 0.0013359999 -0.027098954 -0.045559324 -0.1295453
-0.040648524 0.009673197 -0.0010516304 0.046533506 0.012129841 -0.034341704 -0.16404267 -0.10159939
-0.022606203 -0.0140660405 0.006697991 -0.046406973 -0.050041962 -0.0024665964 -0.055163044 0.015450745
0.040601693 -0.01925812 -0.019736465 -0.05775607 -0.026742758 -0.06463984 0.15309516 -0.053989682
0.07284448 0.0415248 0.007517682 -0.0091328155 0.0011828077 0.04040083 0.036843523 0.0064609605
0.05112491 -0.036183223 0.003372554 -0.0129350545 -0.010069885 -0.058151633 0.021260204 0.05186155

conv1.bias f4 [32]
00000000: f4e3 32bd 0857 033d 3581 d33d 46ac f73c
00000010: 0761 d5bd 3e52 82bd 556f b5bd a941 2e3d
00000020: 042a d73d 8b25 1dbd 460d ee3a 1097 72bd
00000030: 5486 bb3c f4fa e83c bba0 9d3c c426 00bd
00000040: 2b10 b4bd c5e3 893d 7155 e73d 5b8c 163d
00000050: d63a 1bbd f568 ffbc b203 3d3d 346b f33d
00000060: d9a1 033d 7ab0 b13c f6c8 4fbd 4517 ac3d
00000070: aab3 ff3c 9fc4 c3bd bf36 b5bd 60db db3d
-0.043674424 0.03206542 0.10327379 0.030233514 -0.10418897 -0.06363343 -0.088591255 0.042543087
0.10506061 -0.038365882 0.0018161915 -0.059226096 0.022891201 0.028439976 0.019241681 -0.03128697
-0.08792146 0.06732897 0.112955935 0.036754947 -0.037897907 -0.031177977 0.046146102 0.11885682
0.03213677 0.021690596 -0.05072876 0.08402876 0.0312136 -0.09558987 -0.088483326 0.10735202

conv2.weight f4 [32, 32, 3, 3]
00000000: 8c65 02bd 0af4 433d d188 5cbd 14c7 c03d
00000010: 133c 0d3e 0017 bd39 2dbb 9ebd 912e c8bc
00000020: c9db d0bd 68d1 14bc 22f4 a43b ff0b 313e
00000030: a922 3abd ecd5 873d 4189 b5bd c529 333e
00000040: 1d4f fbbd 3541 febd de54 1d3c a667 783d
00000050: cbbc 623c ad38 c63d 4645 153e 5b85 3e3c
00000060: c5f2 0cbe cead 0e3c 7acd bf3d b65e 0d3e
00000070: 2393 a5bc 79dd 793d 24d6 c73d d9da 19bd
00000080: dcbd 41be 8da5 203d 050f b7bb aad6 6b3d
00000090: e8b7 483d a670 07be bba4 f6bc ec50 a93d
000000a0: 42c6 17bc 9f5e f2bc 9355 993d c31d 5b3b
000000b0: ee9d 963d 9967 003d b026 0fbe 11d1 be3d
000000c0: d704 d1ba 28a3 d2bc e41b a8bd 1f8e 5c3d
000000d0: 3ec2 67bc 3b25 60bd 0ff6 dbbc 7728 48bd
000000e0: 9746 81bd 7c81 9b3d 6b52 893c 60d0 8b3d
000000f0: 84ae 053d 9cc1 0b3c 416a 6cbd 2afa 2bbc
00000100: c3b1 cebd eaa7 a2bd b816 963c ef31 a4bc
00000110: 8586 1fbd 4b41 2b3e 6364 f03d a57a 2e3d
00000120: 5725 a73b 9c18 f2bd fff8 92bd 4388 dd3c
00000130: 92ac bdbd 1f4d 41be b499 cabd a7b4 4ebd
00000140: c55e ef3d 05ee 5cbc b93a 49bd 781b cc3c
00000150: 674f 70bd 0c2f 16bd 6631 b7bd d686 32bd
00000160: 6624 99bb f4b4 96bd d8d8 04be ccb0 103e
00000170: 6534 6d3b 60a1 e93c e999 df3d 1c05 16bd
00000180: b824 27be 5b97 2d3d 44c4 0fbe 7432 7dbc
00000190: 5d00 823d 155e d43b b2c8 f83c c272 50bd
000001a0: a186 dfbc e278 dabb d570 613d 2356 183e
000001b0: 2227 76bd baba 69bd 1cfc febd 711e 2abd
000001c0: 201a e73a 919b d8bd df5d 8b3d 3ba7 b33c
000001d0: b58b dbbb be68 2f3d 93c0 cc3d 239b 85bd
000001e0: 6b13 1c3d 9891 cfbd bd0e 79bc b35a 8e3c
000001f0: d398 41bc a2ba de3d f709 aa3d 1d1a c6bc
00000200: cdff 38bd b7e5 95bc 005b 6d3a e962 cb3d
00000210: c004 54bd 097d 65ba 39da a83d b058 bd3d
00000220: 67ff 60bd 2cb0 b7bd bbd1 a1bd 67c3 88bd
00000230: cd65 04be fee7 9ebd 2ea5 9f3d b80d f2bc
00000240: b4c9 72bc 3cd3 943a c33d 8bbd 42ed ee3d
00000250: cdbd 30bd 7de2 133d fb65 9d3d 5e97 6bbd
00000260: 84ce 7c3d ed73 663c 7abf e4bd 9e0a 77bd
00000270: 07bf 983e ab31 14be 86c7 05be 1a10 bf3d
00000280: c383 683c ccb3 123d d1de 54bd ee5f 3fbd
00000290: 6b00 70bd d910 9e3c 8d34 e23d 7e3c dbbd
000002a0: 4090 013d c35f 633b d9ea a53d bef0 c13d
000002b0: cb3e 96bd f5e0 8f3d 1d01 12be ed36 7bbd
000002c0: ea16 3fbe 8d45 fabc 460d 3fbd ad62 b63a
000002d0: f5dd 81bd 541c d6bc 0536 7c3d 1bb9 2a3e
000002e0: 3c8b 833d 3dcb 03bc 1942 bc3d 95c0 703d
000002f0: 0c8a edbc 180d aebb 0c14 653c b210 2c3e
00000300: d158 5bbd 8e3d 1a3c e904 aabb 2ad4 0abe
00000310: 0975 b9bc 5835 b03d d8c1 04bd 783b 1ebd
00000320: ea25 debd 736c 6abd 0f5b 8e3d 2cf0 91bd
00000330: fe7c 82bd 3814 833d 8aa9 223d 47fe c9bc
00000340: 92a7 c83d 8454 453c 6ee5 063e e973 fe3c
00000350: a176 7d3d 53b6 e13d ebda 94bd 2350 9d3c
00000360: 9a90 68be 7f34 bbbd a5c0 63bd 67b5 f4bc
00000370: 2f5a c0bb 925c 19be d1e0 37bc 1180 70bd
00000380: 2a67 d5bd d6fe 973d db02 a8bd fe79 a43d
00000390: 1804 b93b 8270 02bd df13 f13d 225f 13be
000003a0: 70a6 2a3e c4e4 053d 8cb7 b03b e51b 0b3e
000003b0: 943e c4bd c797 663d 8a3d 423e 31b3 213e
000003c0: 9e62 2b3c 3b14 8e3c 4b9e 2ebd db95 9b3d
000003d0: a25a a33d e55c 10bb 4871 86bc 6ca9 a0bb
000003e0: fa03 623d 6ced dc3d c65e 023e e8a1 fdbc
000003f0: bc46 e0bc 4069 1c3e b4e6 1f3d 0374 143d
-0.031835124 0.047840156 -0.053841416 0.09412971 0.13792448 0.00036066025 -0.07750545 -0.024436267
-0.10198171 -0.009083129 0.0050339857 0.17289732 -0.04544321 0.06632599 -0.0886407 0.17496403
-0.12270949 -0.12414781 0.009602753 0.06064572 0.013838957 0.09678779 0.14577207 0.011628474
-0.13764484 0.00870843 0.093653634 0.1380566 -0.020211762 0.06100223 0.09757641 -0.037562225
-0.18920082 0.03922038 -0.0055865073 0.057577766 0.04900351 -0.13226566 -0.030107846 0.08267388
-0.009263577 -0.029586134 0.07487025 0.0033434487 0.073543414 0.0313488 -0.13979602 0.0931722
-0.0015946877 -0.025712565 -0.08208445 0.053846475 -0.014145432 -0.054723006 -0.026850728 -0.048866715
-0.06312292 0.075930566 0.016762933 0.06826854 0.032637134 0.008530047 -0.05771852 -0.0104966555
-0.10092499 -0.07942183 0.01832138 -0.020043341 -0.038946647 0.16724126 0.11737897 0.04259743
0.005100887 -0.118211 -0.071763985 0.027042514 -0.09261431 -0.18877076 -0.09892598 -0.050465252
0.11687998 -0.013484483 -0.049128268 0.024915442 -0.058669474 -0.03666596 -0.08944969 -0.04358562
-0.0046735285 -0.07358733 -0.12973344 0.14129943 0.003619456 0.028519332 0.10918028 -0.036625966
-0.16322601 0.042380672 -0.14039713 -0.0154539235 0.063477255 0.006480942 0.030369136 -0.05089069
-0.027285876 -0.0066672424 0.055039246 0.14876609 -0.060095914 -0.057062842 -0.1245043 -0.041532937
0.0017631687 -0.10576547 0.06805014 0.021930328 -0.006700004 0.0428245 0.09997668 -0.065237306
0.038104456 -0.10135192 -0.015201268 0.017377233 -0.011816221 0.10875441 0.08302682 -0.024182374
-0.045165826 -0.018298013 0.00090543926 0.09930975 -0.051762342 -0.00087542884 0.08244748 0.092454314
-0.05493107 -0.08969149 -0.07901331 -0.06677895 -0.12929459 -0.07759093 0.077951774 -0.029547557
-0.014818598 0.0011354457 -0.067988895 0.11666347 -0.043149758 0.036104668 0.07685467 -0.057517402
0.061720386 0.014065725 -0.11169334 -0.06031286 0.29833242 -0.14472072 -0.13064393 0.09329243
0.014191571 0.035816 -0.051970307 -0.046722345 -0.05859415 0.019295143 0.110451795 -0.10704897
0.03163171 0.003469453 0.08101434 0.09469746 -0.073361956 0.07025329 -0.14258237 -0.06133168
-0.18661085 -0.030550743 -0.046643518 0.0013914906 -0.06341163 -0.026136555 0.061574955 0.16672175
0.06423041 -0.008044061 0.091922946 0.05877741 -0.02899649 -0.0053116195 0.01398183 0.16803244
-0.0535515 0.00941409 -0.0051885736 -0.13557497 -0.022638815 0.086039245 -0.032411426 -0.038630933
-0.10847075 -0.05723233 0.06950962 -0.07125887 -0.063714966 0.06400341 0.039712466 -0.024657382
0.097975865 0.012044076 0.13173458 0.03106113 0.06188071 0.11021104 -0.07268318 0.019203251
-0.22711411 -0.09140872 -0.055603642 -0.029871656 -0.0058701257 -0.14976719 -0.011223034 -0.058715884
-0.104200676 0.07421653 -0.0820367 0.08031081 0.00564624 -0.031845577 0.11771368 -0.14391759
0.16665053 0.03268887 0.0053929742 0.1358486 -0.09582248 0.05629709 0.18968788 0.15791012
0.010460524 0.017343631 -0.04263143 0.07596942 0.07976271 -0.0022028026 -0.016411439 -0.004903009
0.055179574 0.10787472 0.12731466 -0.030960992 -0.027377479 0.15274525 0.039038375 0.03624345

conv2.bias f4 [32]
00000000: 592f 973c 48c9 9fbc 02aa 0abd 2b24 05bd
00000010: 0559 25bd 29ee b53b 4db3 b0bc 7166 233d
00000020: cb65 4a3d f493 ebbc 577a 483d 251f 9b3c
00000030: b88e 553d 3a74 753c b449 cebc 91c1 acbc
00000040: c163 1b3d a091 d93c 7601 043d 04db dcbc
00000050: f378 5f3d 9d00 7e3d ab3e d63c b140 43bd
00000060: dc7f 9abc e4cf ef3c a8f4 c1bc 4129 0d3d
00000070: 0a4b 673d 31ca a03c be07 563c 9ef0 b9bc
0.018455194 -0.019505158 -0.03385354 -0.032505196 -0.0403681 0.0055520725 -0.021569872 0.039892618
0.049413484 -0.028757073 0.048944797 0.01893575 0.05213806 0.014981324 -0.025181629 -0.021088393
0.03793693 0.026558697 0.032227956 -0.026959904 0.054558706 0.062012304 0.02615293 -0.047669116
-0.018859796 0.029273935 -0.023676232 0.03446317 0.056468047 0.019627662 0.013063369 -0.022697743
