Ratio_oneone_wo_GRL/checkpoint_step_0000.pth (torch_old, 541547 bytes, 24 tensors)

momentum_buffer f4 [3]
00000000: ffb1 10bd 7e8c f4bc 7c14 f23c
-0.035326 -0.029852148 0.029550783

momentum_buffer f4 [3]
00000000: 73c9 e0bc fe7b e5bc 121c bfbb
-0.027439808 -0.028013226 -0.0058322037

momentum_buffer f4 [32, 3, 5, 5]
00000000: ecd1 ebbb f15b f3bb 7d8c 01bc f4b4 04bc
00000010: 7847 f7bb 4026 d8bb 1174 edbb f347 01bc
00000020: d136 02bc 3a87 eebb 0086 f2bb c414 e9bb
00000030: e6c9 fabb 7838 f3bb 9cb1 edbb 4da3 e6bb
00000040: b63c e0bb 149d edbb 9181 f4bb 583c f4bb
00000050: e415 c8bb 212a e1bb d105 f2bb f38e fdbb
00000060: 7e1d f9bb 94fa 67bb bfc6 94bb 5ddd 93bb
00000070: 694c 92bb 287a 86bb dfe1 87bb 0a95 8fbb
00000080: b754 8bbb 948e a1bb 4c9a 88bb f61b 7dbb
00000090: 4591 79bb e10f 81bb 6a92 84bb 7277 80bb
000000a0: fc9c 72bb cb43 82bb 0c5b 6dbb 02c8 8bbb
000000b0: 38c6 89bb 1322 53bb 6e6b 57bb 8c22 6cbb
000000c0: c1bc 8fbb 1880 89bb a4ba 1b3b 02bd 383b
000000d0: cb04 143b 4568 2d3b dfcd 2e3b 679e 363b
000000e0: 67dd 2c3b 8b8c 3b3b 18a5 203b a030 4b3b
000000f0: 6560 453b e98b 2a3b 3a61 623b 2e6e 413b
00000100: fec8 5f3b ffb6 3c3b a580 533b 3131 3a3b
00000110: 5644 353b d848 553b fb2a 5e3b c72f 513b
00000120: 1373 533b a298 273b 95cd 243b aa74 dcba
00000130: 0cc6 82ba 2bb5 63ba fc8b 2539 668d 9139
00000140: 755f 10bb 7a4b 9eba 9665 63ba ef71 3fba
00000150: b888 a9b8 f25a 27bb 7634 e8ba d248 b9ba
00000160: b2bb 8eba 6185 29ba a13c 66bb 9d6c 14bb
00000170: a043 fdba 41a4 17bb 9b20 b9ba dcf1 53bb
00000180: dedd 2ebb 2648 2abb 3408 e1ba 6526 b9ba
00000190: 8862 b1bb de4e 8dbb 76a4 80bb f009 7dbb
000001a0: 9ca1 4ebb c08b b7bb 7fb8 a0bb 7ce5 9fbb
000001b0: 8388 83bb e04b 69bb 75d4 c3bb 61e9 b1bb
000001c0: a62c a3bb d600 9cbb e020 89bb 4b7c c4bb
000001d0: 86c8 b4bb e5ac aabb 22ee 9dbb ef80 9fbb
000001e0: 8952 c4bb 2f4e c9bb f8ea c2bb d93c abbb
000001f0: 84eb 9abb fd56 9fbb 086d 94bb 645e 80bb
00000200: 5c9d 80bb b5bc 72bb 62a3 acbb 62ed 97bb
00000210: f33e 95bb 936b 9abb ab3f 8cbb 158a aabb
00000220: 5af1 adbb e6e1 aebb 5ecd a3bb 353e 8fbb
00000230: 71fa b2bb 20d4 a3bb d68c a9bb ee57 9abb
00000240: 71f6 85bb 8ded a9bb 9d10 a7bb 6a8f a5bb
00000250: 55da a5bb dc6e 92bb 6a13 013d b8c7 003d
00000260: e0f4 ef3c 62b2 dc3c 5440 e33c da29 f73c
00000270: 8c57 fe3c 5e5a f33c b96f d83c 8277 dc3c
00000280: d9b2 f13c 81d7 f13c b5ac e73c 0cba d33c
00000290: f165 d33c 9f5b f03c 7bfd ec3c 2fda d83c
000002a0: 6108 d23c 03d4 d73c d6ad f43c 280f f13c
000002b0: 493e da3c ce7e d83c 64d7 e83c 546e c03c
000002c0: 2875 bf3c d27d b03c 4dd0 a03c bba5 aa3c
000002d0: 5537 ba3c b750 bd3c c231 b13c 5d1f 9f3c
000002e0: 1698 a33c df73 b33c c9a4 ae3c 7a88 a33c
000002f0: bc0d 993c c331 973c 8069 b43c 9686 a63c
00000300: 19d6 993c 2852 983c 8194 9c3c e9d0 b63c
00000310: 6f58 aa3c ddb6 943c 83ca 9d3c bc1e b43c
00000320: e89a 443b 2338 5f3b d0dd 6b3a e0de e6b9
00000330: f8bf 663a 9a86 fb3a 78b9 ea3a 14e1 e83a
00000340: ec1b 3bba c0cd 4a38 2c57 583a a873 8c3a
00000350: 405c 7d39 5ca2 90ba 3c3a 6fba e054 d338
00000360: 601e 0eb9 bca4 8fba 3c9d 92ba 38d5 9739
00000370: 5ec7 b33a 6085 8838 580d 1cbb a883 aeba
00000380: ce93 b43a 1ad6 a3bb 2ad7 b3bb 1fca bcbb
00000390: 5273 c9bb fe30 c0bb 2cb1 8dbb 38e3 8cbb
000003a0: 6c12 89bb ac6a a6bb d86c abbb 0ee2 6bbb
000003b0: 84d6 68bb 8c0d 79bb 5556 56bb 56fb 97bb
000003c0: 2185 2dbb bb4f 36bb 7a3b 41bb 2806 6dbb
000003d0: 526d 81bb 0a75 52bb a220 45bb c259 35bb
000003e0: fe25 3ebb 5321 80bb 9a31 5fbb 4448 8dbb
000003f0: ae07 99bb 6324 b3bb 87b6 aabb 4e44 1bbb
-0.0071966555 -0.0074267318 -0.00790703 -0.008099783 -0.0075463615 -0.0065963566 -0.007246502 -0.007890689
-0.00794764 -0.007279304 -0.007401228 -0.007113071 -0.0076534627 -0.007422503 -0.0072538387 -0.00703851
-0.006843175 -0.007251391 -0.0074617346 -0.0074534826 -0.006106125 -0.0068714772 -0.0073859473 -0.007737988
-0.0076023927 -0.003539716 -0.004540294 -0.0045124725 -0.004464675 -0.0041039176 -0.004146799 -0.0043817805
-0.004252042 -0.0049303267 -0.0041687842 -0.0038621402 -0.0038080972 -0.0039386605 -0.004045774 -0.003920489
-0.003701984 -0.0039753667 -0.0036217598 -0.004265786 -0.0042045377 -0.0032216355 -0.003287043 -0.0036031334
-0.004386515 -0.004196178 0.002376237 0.002818883 0.0022585865 0.0026459855 0.0026673002 0.0027865411
0.0026377083 0.0028617706 0.0024512466 0.0031004325 0.003011727 0.0026023334 0.0034542815 0.0029515135
0.00341469 0.0028795598 0.0032272723 0.0028410668 0.002765914 0.003254464 0.003390013 0.0031919347
0.0032264635 0.0025573154 0.002514695 -0.0016819437 -0.0009977235 -0.0008686359 0.00015787774 0.00027761905
-0.0022029553 -0.0012076937 -0.00086745 -0.0007303049 -8.084014e-05 -0.0025536385 -0.001771583 -0.0014136082
-0.0010889678 -0.00064667134 -0.0035131352 -0.0022647746 -0.0019322522 -0.0023138674 -0.0014124097 -0.0032340204
-0.0026682536 -0.0025982945 -0.0017168582 -0.0014125822 -0.005413357 -0.00431238 -0.0039258553 -0.003861066
-0.0031529432 -0.0056013763 -0.004904806 -0.0048796516 -0.004014076 -0.0035598204 -0.0059762546 -0.0054294323
-0.0049796877 -0.004760842 -0.004184827 -0.005996262 -0.0055170683 -0.005208599 -0.0048196474 -0.004867665
-0.0059912843 -0.0061433534 -0.0059484206 -0.0052257595 -0.0047277827 -0.0048626647 -0.004529599 -0.0039175022
-0.0039250087 -0.0037038748 -0.0052685 -0.0046364525 -0.0045546233 -0.004712531 -0.0042800508 -0.005204449
-0.0053083124 -0.005336988 -0.004998847 -0.0043714293 -0.005461984 -0.0049996525 -0.0051742597 -0.004710189
-0.004088216 -0.005185789 -0.005098416 -0.0050524967 -0.0050614276 -0.004468782 0.031512655 0.031440467
0.02929157 0.026940528 0.027740635 0.030171324 0.031047605 0.029706176 0.026420461 0.026912455
0.029504227 0.029521706 0.028280595 0.02584555 0.025805445 0.029340563 0.028929463 0.026471226
0.025638761 0.026346212 0.029868048 0.029426172 0.026641028 0.026427653 0.028423019 0.023490109
0.023371294 0.02154437 0.019630576 0.02083098 0.022731462 0.023109777 0.021630172 0.019424135
0.019969981 0.021905838 0.02131881 0.019962538 0.018683307 0.018456345 0.022022963 0.020327847
0.018778848 0.018593863 0.01911378 0.022316413 0.020794122 0.018153602 0.019261604 0.021987312
0.0029999558 0.003406056 0.0008997591 -0.00044035073 0.0008802409 0.0019189895 0.0017908057 0.0017767274
-0.00071376446 4.8352173e-05 0.0008252736 0.0010715621 0.00024162326 -0.0011034715 -0.0009125804 0.00010077073
-0.00013553491 -0.0010959129 -0.0011185776 0.00028959825 0.0013716032 6.5098284e-05 -0.0023811664 -0.0013314383
0.0013776959 -0.004999888 -0.005488296 -0.0057613994 -0.0061477805 -0.0058652153 -0.004324099 -0.0042995475
-0.0041831043 -0.0050786342 -0.005231481 -0.0035992893 -0.0035528252 -0.003800246 -0.0032705266 -0.004638116
-0.0026477056 -0.002781852 -0.0029484914 -0.0036167 -0.0039497996 -0.0032113218 -0.0030079265 -0.0027671908
-0.0029014344 -0.0039102226 -0.0034056664 -0.0043115932 -0.004670105 -0.005466984 -0.0052097472 -0.0023691836

momentum_buffer f4 [32]
00000000: f15e 68bc 4266 20bb d6a3 803b da08 313c
00000010: a120 ba3a df30 8d3b 0510 5b3b 923d 7c3c
00000020: 0a76 f43b c901 d23b 6a9c 13bc 1e55 17bb
00000030: 5db7 bcbc 745b fd3b d32e 2cbd 84df 2fbd
00000040: f78b 86bb 9f8a e63a cf97 ff3b f65a 0d3b
00000050: 182c 24bc 2f11 da3c b39c 563c ff2b d5bc
00000060: 9604 2a3c 2d85 29bc 4efb b63a 65cd 823b
00000070: 8248 523c 7e5c bdbb b277 07bb 45dc 473c
-0.014182792 -0.0024475013 0.0039257808 0.010805333 0.0014200398 0.0043088044 0.0033426296 0.015395539
0.0074603604 0.006408904 -0.00900946 -0.0023091505 -0.023036653 0.0077318493 -0.042036843 -0.04293777
-0.0041060406 0.001758892 0.0078000794 0.002156911 -0.010020278 0.026619522 0.013098883 -0.026021956
0.01037707 -0.010346693 0.0013960393 0.00399177 0.01283467 -0.005778848 -0.002067071 0.012198512

momentum_buffer f4 [32, 32, 3, 3]
00000000: c70e 503a ef42 9c3a 970b 213a 5117 d03a
00000010: 8ebc db3a 45dc 4b3a 0330 343a 8357 393a
00000020: 1b9c 3d38 e588 58b8 3eb2 4c39 d8aa 893a
00000030: 643a afb9 22b9 c539 9af6 ccb9 768d 5e3a
00000040: f5c5 1cba 4a57 22ba a2e3 75bb f2e7 59bb
00000050: 3ba5 73bb d69b 61bb 1236 35bb 74fd 57bb
00000060: 64fc 80bb bff0 25bb cde7 e5ba f5d6 583a
00000070: 10ba 27b9 e494 edb7 7e06 263a 256b 0ab9
00000080: 3ae4 a2ba ef4f 8b39 7b3c e238 304a a838
00000090: 88e2 14bb 689a 42bb f37a 22bb fca3 11bb
000000a0: 5e5a 21bb 3aa2 24bb f335 0fbb 119f 18bb
000000b0: 0f41 f2ba c62e 9e39 092d f5b9 00cd 1a3a
000000c0: 9b18 9f37 72cc c3b7 c5b6 e2b9 7c10 8d38
000000d0: 9ed7 5bb9 8ca3 efb9 0222 f0b7 2e2f 84b9
000000e0: 1491 a1b9 a4ce dc39 3022 f938 93f6 cd39
000000f0: e31c 3a39 c1af 1b39 b839 3ab9 da05 87bb
00000100: fec0 91bb cf48 90bb 74e4 89bb 2ac2 86bb
00000110: f907 87bb 7fb7 50bb 8946 3fbb d3f0 45bb
00000120: 2117 423a 82ae 80b9 a67e aeb7 a6f3 483a
00000130: e89b 24b8 96ac 0bba c07d 2339 fd37 bb39
00000140: 9bca 903a 0aa6 0fbb 44c2 1dbb d16f 0cbb
00000150: b3d6 2dbb 0018 1ebb dfd3 30bb 9d6d 31bb
00000160: 75b0 0ebb 39ba 1ebb 40b8 fcb9 3d9c 743a
00000170: cdc3 2839 f22a bf39 bbf7 3b3a 9319 e6b8
00000180: 934f 22ba 15cc b139 5ef9 31ba c902 813a
00000190: 8374 b03a 678f 673a dd0f b53a 3a2b 633a
000001a0: aaec 273a 2c24 993a e599 aa3a 3646 bb3a
000001b0: 6fa4 81bb 7389 74bb 4547 85bb 3b61 88bb
000001c0: dd47 70bb 769e 84bb 9c85 69bb 53bf 60bb
000001d0: e186 56bb fe11 17bb dd97 07bb f04e 41bb
000001e0: 18f3 34bb f070 5dbb 2e95 42bb e018 4ebb
000001f0: da70 46bb 9288 17bb c926 a83a 6f7c 353a
00000200: 840c 0c3a 4b3e 783a 8f68 703a 4992 aa3a
00000210: c72f 883a cd65 8e3a 39e5 a93a 759d 8d3a
00000220: bde0 b139 72f3 cf38 b2d7 8539 2461 4639
00000230: f978 9cb9 6ef7 5e39 477b 463a f78c a537
00000240: d23b 9539 e663 7339 6036 60b8 210f 853a
00000250: 5cbd 2039 6e73 113a 0c6e 753a 1354 8039
00000260: 00dc 3f3a b02e ef3a fa36 353a a4f0 fd39
00000270: 9fe4 613b 189e 5e3a c0ff 9e39 89a2 313b
00000280: 9ae1 173b 636f ed3a eb3c 96ba 783c 98ba
00000290: 9a1c aaba e013 57ba c6c8 4eb9 305f acba
000002a0: 6ae0 0fba a848 d2b9 8598 49b8 259c a0bb
000002b0: 247f b6bb 3836 a3bb 1939 d9bb ea79 c0bb
000002c0: 0a64 d4bb b548 c5bb d3fe b4bb 1d66 a3bb
000002d0: 6d9f 9fba 1596 8cba 3822 36ba 28fe 9fb9
000002e0: 8681 65ba cee0 a4ba 7248 55ba a444 76ba
000002f0: 37b6 acba fd29 613a da32 813a 20ed e03a
00000300: 6aac 5f3a 817e a63a f789 993a f4ec 6e3a
00000310: fa32 d43a 274b 053b 763d 0a39 d981 ca38
00000320: 1f52 85b9 c0fe feb5 63c3 233a 4852 22b9
00000330: 77b2 1bb9 f99a de39 38c2 5f39 64db f7b9
00000340: e48c 9b39 90cd e635 cf55 d739 3052 2cb8
00000350: 1282 5e39 832b 023a c82d f7b9 9def 3fb7
00000360: fea6 86ba 2415 cdb9 8972 57b9 5283 ebb8
00000370: 6250 a638 8308 1eba 02f2 0139 e681 79b7
00000380: 052e 5db9 1df3 a33a d20d 7239 fa7a f939
00000390: edfb 273a 8825 d439 adab 143a 5a81 70b9
000003a0: 7cd6 cb3a 8428 0d3a f547 c938 27b2 453a
000003b0: 9c2f feb9 42fc 9539 2ea8 953a 8cd7 723a
000003c0: e22d 1d39 66c5 f039 a899 d038 9f3e 3dbb
000003d0: 6d68 32bb 120b 59bb 1ed5 74bb 1319 61bb
000003e0: f0f7 51bb dc45 57bb 9479 38bb b740 64bb
000003f0: 5b2f 8ebb cb08 50bb 2180 7dbb 0c6b 95bb
0.00079367723 0.0011921803 0.00061433896 0.001587609 0.0016764568 0.0007776658 0.00068736094 0.000707023
4.5206496e-05 -5.1625906e-05 0.00019521356 0.0010503186 -0.00033422105 0.00037712703 -0.00039093645 0.0008489707
-0.00059804256 -0.00061928167 -0.0037519713 -0.0033249822 -0.0037177342 -0.003442516 -0.0027650637 -0.0032957466
-0.0039363373 -0.0025320498 -0.0017540395 0.0008271777 -0.00015995675 -2.8321934e-05 0.0006333365 -0.0001320062
-0.0012427636 0.000265717 0.00010787785 8.024683e-05 -0.002271803 -0.0029694084 -0.0024792522 -0.0022222986
-0.0024620513 -0.0025121109 -0.0021852225 -0.002328817 -0.0018482524 0.00030170957 -0.00046763595 0.0005905181
1.8965735e-05 -2.3341014e-05 -0.00043242253 6.7264744e-05 -0.00020965791 -0.00045707484 -2.8626066e-05 -0.00025212154
-0.00030816405 0.0004211563 0.00011879613 0.0003928436 0.00017749103 0.00014847425 -0.00017759844 -0.0041205706
-0.0044480553 -0.0044032107 -0.004208142 -0.0041125016 -0.0041208235 -0.0031847653 -0.002918633 -0.0030203357
0.0007403959 -0.0002454408 -2.0801392e-05 0.0007665701 -3.9245846e-05 -0.00053281465 0.00015591737 0.00035709134
0.0011046709 -0.0021919035 -0.002407209 -0.0021428952 -0.0026525676 -0.0024123192 -0.0026981754 -0.0027073391
-0.0021772657 -0.0024219884 -0.00048202462 0.00093311426 0.0001609467 0.00036462356 0.00071703986 -0.00010972018
-0.0006191667 0.00033912124 -0.0006789173 0.0009842749 0.0013462458 0.00088333193 0.0013813932 0.0008665804
0.000640581 0.0011683754 0.0013015835 0.0014287892 -0.0039563696 -0.0037313371 -0.004067334 -0.0041619814
-0.0036663928 -0.0040472103 -0.0035632616 -0.0034293726 -0.0032734203 -0.0023051496 -0.0020689883 -0.0029496513
-0.0027610715 -0.003378924 -0.0029690969 -0.0031447932 -0.0030279667 -0.0023122174 0.0012828942 0.0006923144
0.0005342441 0.00094697316 0.0009170854 0.0013013567 0.0010390215 0.0010864079 0.001296199 0.0010804372
0.00033927514 9.9158744e-05 0.00025528442 0.00018918939 -0.0002984477 0.00021263745 0.00075714703 1.9735175e-05
0.00028464064 0.00023211501 -5.3456402e-05 0.0010151603 0.00015329331 0.00055485114 0.00093624066 0.00024476703
0.00073188543 0.0018248167 0.0006912794 0.00048435212 0.0034468544 0.0008492186 0.00030326657 0.0027104935
0.002317524 0.0018114861 -0.0011462247 -0.0011614701 -0.0012978495 -0.0008204561 -0.00019720485 -0.0013150927
-0.00054884574 -0.00040108454 -4.806418e-05 -0.0049014264 -0.0055693556 -0.0049808286 -0.006629121 -0.0058739083
-0.006481652 -0.0060206302 -0.0055235415 -0.004986538 -0.001217825 -0.001072588 -0.0006947848 -0.00030516204
-0.0008754957 -0.0012579204 -0.00081361004 -0.00093943835 -0.0013176863 0.00085893256 0.0009857074 0.0017160513
0.00085324666 0.0012702496 0.001171409 0.0009114288 0.0016189509 0.0020338984 0.00013183602 9.6562966e-05
-0.00025428922 -1.8998617e-06 0.00062470714 -0.00015480176 -0.00014848435 0.00042458603 0.0002133929 -0.0004727497
0.00029668876 1.7196162e-06 0.00041071928 -4.108454e-05 0.00021220025 0.000496559 -0.0004714562 -1.14402765e-05
-0.0010273156 -0.00039116398 -0.00020546665 -0.000112301335 7.930469e-05 -0.000602849 0.00012392554 -1.4871801e-05
-0.00021093346 0.0012508366 0.00023084067 0.00047584606 0.00064080843 0.00040463754 0.00056713336 -0.00022936371
0.0015551592 0.00053847604 9.59783e-05 0.00075415004 -0.00048482127 0.0002860744 0.0011417919 0.00092636864
0.0001498978 0.0004592344 9.9468336e-05 -0.0028876436 -0.0027222887 -0.003311817 -0.0037358473 -0.003434722
-0.0032038651 -0.0032848036 -0.0028148638 -0.0034828612 -0.0043391413 -0.0031743522 -0.0038681107 -0.00455988

momentum_buffer f4 [32]
00000000: 8e2f a239 ed68 26bb 0852 1b3b 18af cabc
00000010: 332c d2bb e255 cebc 8372 37bb 2895 c7bb
00000020: 839c b1bc 6239 473c 55f9 1a3c 88a2 c8bc
00000030: af5c 3abd 76e3 6e3a e4f0 ddb9 c2c6 203b
00000040: 7314 3f3c 1b07 853c 0027 d7ba e0b5 b13b
00000050: b16a ac3c 701e 11bd 26e4 243d 78de c63b
00000060: fee1 c53c 6ad6 c3ba d73f 55bc ae65 93bb
00000070: 3a3a 9abb 75c1 dfbb c7ff 003c 902a 9f3a
0.0003093448 -0.002539213 0.0023700017 -0.024741694 -0.0064139604 -0.025187436 -0.0027991838 -0.006090779
-0.021681076 0.012159677 0.009458859 -0.024491563 -0.045498546 0.0009112874 -0.00042331882 0.0024532531
0.01166259 0.01623874 -0.0016414821 0.0054232925 0.021046968 -0.035429418 0.04025664 0.006069001
0.024155613 -0.001494122 -0.013015709 -0.004498205 -0.004706648 -0.006828482 0.007873482 0.0012143422

momentum_buffer f4 [64, 32, 3, 3]
00000000: e657 c0bb 7aa4 c9bb b72a cebb 6da9 c1bb
00000010: 671a c8bb dc1a cfbb 5e67 d0bb 2e33 cbbb
00000020: 24c7 dfbb bfa2 9436 ccba 5bb9 ca8e 033a
00000030: 1ed5 f339 2ef9 47b9 7996 b838 6121 32b9
00000040: 0193 39b9 f115 8839 723f 88bc 9f9f 8abc
00000050: 4767 84bc 8af6 8abc 4f44 84bc 00a6 7cbc
00000060: 92fe 88bc 0e27 89bc 40ee 84bc 2ea2 16bc
00000070: b352 16bc 4b4b 0dbc f87d 0ebc 0502 0cbc
00000080: 2627 0ebc e5b8 11bc 1546 12bc 045c 12bc
00000090: f76e 39ba 9ada 3cba d065 79ba 6ef5 abba
000000a0: 9d7b d5b9 53d8 59ba 8702 a1ba af90 71ba
000000b0: 2e31 2fba 4554 eebb 1725 ecbb 4309 eebb
000000c0: 22f5 fdbb fb1a fbbb e5c6 f0bb ec90 05bc
000000d0: 6d69 fbbb 4baf e4bb 1e8a 3739 0dfa cbb8
000000e0: 8868 0db9 eb04 21ba 1c55 5e39 72a6 1339
000000f0: 9e43 30b7 75e8 b8b9 3e08 f8b9 dfc8 08bb
00000100: bc42 0ebb ce47 42bb 1cb5 2ebb 7e8e 27bb
00000110: 7643 39bb 81b9 1fbb b87b 1bbb 253d 36bb
00000120: 203c 20bc dbd8 22bc 0127 1abc 69ab 0fbc
00000130: 3e81 10bc 598c 14bc cfc6 15bc 19cf 15bc
00000140: e3c9 17bc c562 08ba 9ea7 97b9 665a 86b8
00000150: 198b d4b9 646e d4b8 f958 26ba 91d2 d4b9
00000160: c84b aab9 54a8 3fba a1bf 0fbc 7648 15bc
00000170: 8400 13bc b875 0cbc 342f 0cbc 192e 0ebc
00000180: 697d 11bc 88f8 13bc 6754 f4bb b779 b1bb
00000190: c185 9fbb 4b52 bebb b9ba bebb c61f aebb
000001a0: 72b8 bbbb 098c babb 3f50 c3bb 88d2 babb
000001b0: bb23 9ebc 377e 9cbc 0d4e a0bc 9cae 92bc
000001c0: 9a01 95bc 437d 9cbc f004 96bc ba05 99bc
000001d0: c4c2 99bc 09fb d339 93d3 4e39 9c03 d039
000001e0: 24e9 c3b8 5e76 a939 99b3 58b9 f281 cf38
000001f0: c13c 6539 b459 75b9 8f96 82ba 6eaa 91ba
00000200: 2594 a9ba 037e 62ba 6f4c 67ba 2638 b5ba
00000210: a1ac 9eba e6f0 bbba f8bf 6dba cac4 15ba
00000220: 7178 16ba 71fb 32ba 1d4f 1fba 2b4a c6b9
00000230: e1e9 3dba fc92 4839 e733 16b9 4135 4bba
00000240: 71cb d7ba 3e60 dcba f3c4 0fbb 2764 e5ba
00000250: fc27 98ba c2a8 a6ba 4cdd ffba 0510 cbba
00000260: 1c3e f8ba 4c24 d9ba 7afa 98ba d80f abba
00000270: f7b0 d1ba 17dd 85ba c512 b8ba 9ad4 e2ba
00000280: a8db b6ba 9a73 06bb 34b0 0dba 5523 16ba
00000290: 5f45 3dba 6a46 bfb9 1cd6 f9b9 6537 a2ba
000002a0: 23e8 7eba 4380 78ba 0d30 45ba 7231 e4bb
000002b0: fca6 ddbb d2ba dfbb 66ed f2bb d0a4 dabb
000002c0: c752 d3bb d431 cdbb c3b1 c9bb 4503 d2bb
000002d0: 26a2 87bb 2195 97bb 354a 8cbb 5927 6ebb
000002e0: bfdf 78bb 3443 73bb e8ae 7dbb 8cb0 83bb
000002f0: 26f0 87bb 59f1 62bc 24b3 53bc 63a9 4ebc
00000300: 294f 5dbc fd9e 4fbc ecd4 4ebc 6444 5cbc
00000310: b514 5dbc 80c3 54bc 8a76 ebbb c665 00bc
00000320: 0e09 f4bb a25a ecbb 5681 f3bb 26b1 fcbb
00000330: 0887 f0bb 20f4 f7bb 1650 02bc 3963 0aba
00000340: 8cbd cb38 f4f4 0bba b6e4 4fba 318a cb38
00000350: 6db2 5bb9 7a59 8b39 395f c6b8 c281 083a
00000360: acd8 31bc 7440 2ebc 73e3 2abc 88e6 2dbc
00000370: d6df 33bc 3a12 33bc 564e 2fbc 971a 2ebc
00000380: 9231 2abc 1f27 7dbc 93dc 6fbc f55c 69bc
00000390: 1f88 73bc 6a8f 75bc 4a53 74bc fa46 72bc
000003a0: bbbe 71bc f1fd 6ebc bb66 8cbb 6dca 94bb
000003b0: 51ed 97bb 1788 7bbb 8009 87bb e2c7 8dbb
000003c0: c949 71bb f9da 88bb 4646 8abb 1486 3aba
000003d0: 68bf 42ba 4762 a3ba 51c0 45ba 96be 09ba
000003e0: 9c5d b0ba 0279 85ba 8d26 bfba 5272 7fba
000003f0: 8659 20bb b503 06bb 9dbf 44bb 4736 02bb
-0.0058698533 -0.0061536403 -0.006291713 -0.0059100897 -0.006106663 -0.0063203406 -0.0063599786 -0.0062011695
-0.0068291593 4.42969e-06 -0.00020955055 0.00050185306 0.00046507356 -0.00019070946 8.8018314e-05 -0.00016987837
-0.00017697738 0.0002595629 -0.016631816 -0.016921816 -0.016162528 -0.016963262 -0.016145853 -0.015420437
-0.016722951 -0.016742256 -0.016226888 -0.00919394 -0.0091749905 -0.008623908 -0.0086970255 -0.008545403
-0.008676326 -0.00889418 -0.008927842 -0.008933071 -0.0007073725 -0.0007204205 -0.00095137674 -0.0013119408
-0.00040718625 -0.0008310128 -0.0012284078 -0.000921498 -0.00066830486 -0.0072732293 -0.00720657 -0.0072642877
-0.0077501694 -0.0076631284 -0.007347929 -0.008152228 -0.00767248 -0.0069789044 0.00017503693 -9.72637e-05
-0.00013485749 -0.00061423954 0.00021203276 0.00014081018 -1.0506161e-05 -0.0003526841 -0.00047308387 -0.0020871682
-0.0021707257 -0.002964485 -0.0026658243 -0.002556711 -0.002826897 -0.0024372044 -0.0023724865 -0.002780744
-0.00977996 -0.009939398 -0.009408713 -0.008768895 -0.008819876 -0.009066665 -0.009141638 -0.009143614
-0.009264442 -0.0005202706 -0.0002892585 -6.406456e-05 -0.00040539427 -0.000101295096 -0.00063456554 -0.00040592675
-0.00032481388 -0.00073111546 -0.008773715 -0.009111514 -0.008972291 -0.008572988 -0.008556176 -0.008677983
-0.008879998 -0.009031422 -0.0074563506 -0.005416121 -0.0048682396 -0.00580815 -0.005820599 -0.0053138463
-0.0057287747 -0.005692963 -0.005960494 -0.005701367 -0.019304147 -0.019103153 -0.019568468 -0.017905526
-0.01818924 -0.019102698 -0.018312901 -0.018679488 -0.01876963 0.00040432092 0.00019724508 0.0003967554
-9.3417504e-05 0.00032322382 -0.0002066627 9.8947334e-05 0.00021861774 -0.00023398438 -0.0009963083 -0.0011113414
-0.0012937827 -0.0008639993 -0.000882334 -0.0013825938 -0.0012105891 -0.0014338761 -0.0009069438 -0.0005713223
-0.0005739993 -0.0006827629 -0.00060771574 -0.00037820762 -0.00072446285 0.00019128242 -0.0001432445 -0.0007751771
-0.0016463829 -0.001681335 -0.002193746 -0.0017501161 -0.0011608596 -0.0012715089 -0.0019520908 -0.0015492445
-0.0018939408 -0.0016566603 -0.0011671328 -0.0013050986 -0.0015998174 -0.0010212985 -0.001404368 -0.0017305792
-0.0013950961 -0.0020515681 -0.00054049795 -0.0005727311 -0.0007220115 -0.0003648282 -0.00047652505 -0.0012376128
-0.0009723922 -0.00094795617 -0.0007522114 -0.006963902 -0.006764291 -0.0068276906 -0.007413554 -0.006672479
-0.006449077 -0.0062620435 -0.006155224 -0.006409081 -0.0041392026 -0.004625932 -0.004281307 -0.003633937
-0.003797516 -0.0037118914 -0.0038708989 -0.0040188488 -0.004148501 -0.013851487 -0.012921128 -0.012613627
-0.013507643 -0.012672183 -0.012624007 -0.01344404 -0.0134937065 -0.012986064 -0.007185762 -0.007836765
-0.0074473685 -0.0072129527 -0.0074311895 -0.0077115474 -0.0073403157 -0.0075669438 -0.007953664 -0.00052790676
9.7151e-05 -0.000533893 -0.0007930504 9.7055345e-05 -0.00020951936 0.0002657881 -9.459112e-05 0.00052073237
-0.010854881 -0.010635484 -0.010430205 -0.010614045 -0.01097866 -0.0109296385 -0.010699829 -0.010626457
-0.010387795 -0.015451222 -0.014639991 -0.014243354 -0.014863997 -0.014987806 -0.014912436 -0.01478743
-0.014754946 -0.014586912 -0.0042847074 -0.0045407326 -0.0046364446 -0.0038380676 -0.0041210055 -0.0043268064
-0.003681766 -0.004176494 -0.004219803 -0.0007115316 -0.00074290344 -0.0012465202 -0.0007543611 -0.0005254535
-0.0013455632 -0.0010183158 -0.0014583633 -0.0009744513 -0.0024467423 -0.0020448987 -0.0030021437 -0.0019868778

momentum_buffer f4 [64]
00000000: 88d3 1cbd 688d 5d3d 6de3 a2bc 62ab 6ab8
00000010: 71b8 d43c 6a4f ebbc 1c65 313a 64ac a1bd
00000020: 36df a539 79a8 343d 5767 763c 908f d43c
00000030: f69b c4bc 77a4 89bd 1362 3a3d 4594 e1ba
00000040: 2957 773a eb4b 293c 3d73 293d 3f8f 0ebd
00000050: 35c9 3a39 c51d 293b 7fbd de3a dc9e 47bd
00000060: e2d6 523c 2449 b5bc 3c58 92bc 821c 75bc
00000070: 8c8b c5bb 2910 31bd f5a4 be3b 068a ba3b
00000080: 684b a43b 9006 8f3c 2b67 05bc a1bc 4f3c
00000090: a839 cb39 280e b43c 4907 ff3b 6ae8 3d3d
000000a0: b39d 7c3b 35b6 ad3c cf94 753b 2cc7 193a
000000b0: cd76 c63d ae9a 92ba bb9e b23b a3b3 fa3b
000000c0: b62d e03a fa4a c9bb 305f 523c a0b1 08bb
000000d0: c493 68bd 6e88 293c 6705 393c 2470 46bd
000000e0: 8bd9 66bc 71b6 8ebb 3702 4db9 6287 c23c
000000f0: 40b8 be3c 6896 f33c b66b ad3d 217a 693c
-0.03828767 0.054089934 -0.019883836 -5.594956e-05 0.025966855 -0.028724391 0.00067670806 -0.07894209
0.00031637558 0.04410598 0.015039287 0.025947362 -0.02400015 -0.06720822 0.045503687 -0.0017210325
0.000943529 0.010333042 0.041369665 -0.03480458 0.00017813298 0.0025805098 0.001699373 -0.048735484
0.012868615 -0.022129603 -0.017864339 -0.01496041 -0.006028598 -0.043228302 0.0058180043 0.005692723
0.005013872 0.017459184 -0.008142273 0.01267925 0.00038762134 0.021979406 0.007782851 0.046364225
0.0038546144 0.021205047 0.003747273 0.0005866166 0.09690628 -0.0011185014 0.005451051 0.007650809
0.0017103467 -0.006142971 0.012840077 -0.0020857826 -0.056781545 0.010347469 0.011292792 -0.04844679
-0.014089952 -0.004355245 -0.00019551149 0.023746196 0.023281217 0.029734805 0.0846781 0.014250309

momentum_buffer f4 [64, 64, 3, 3]
00000000: 2c18 a1b9 4f42 4f3a d839 b3b9 f461 1bb9
00000010: ba44 0b39 6aec 083a 6ca0 76b7 1778 6739
00000020: 2e56 1e38 5c9f c039 ae8e 6539 87cc 41b9
00000030: 72a3 1938 5286 15b7 ec56 b538 0b19 6539
00000040: 08fb 93b6 c745 7839 9ae6 4539 553f c339
00000050: 66de 91b9 f744 9b38 6cba 86b9 27c3 1139
00000060: 5f16 63b9 a40c 1738 d9aa f4b9 fece a8b9
00000070: a76a 1638 a4ae e738 e627 d1b8 c04a 17b9
00000080: c5a9 3638 6f5f 91b9 fa55 e9b8 87dc e139
00000090: 6543 93b9 a09d cc38 caf1 d7b8 2c18 9a39
000000a0: 0e02 1538 623a 003a 2412 7fb9 cdaa a4b9
000000b0: 67e5 99b8 b015 8638 e3cc 15b8 784a 8db9
000000c0: fe58 fbb9 6954 0ab9 cfa8 c039 3049 c939
000000d0: 5d80 bdb7 f3bf 0fb9 5eaf 073a e6ec 0ab9
000000e0: ae4c 3638 f905 a039 5284 25b8 8f28 dfb8
000000f0: 053e 03ba 1346 c639 8fae 00b9 d87d 3638
00000100: 117f 01b8 2ee2 af39 95b5 c339 c4b1 05b9
00000110: a8da 1a39 77b3 6739 346d 7ab9 389b 3c38
00000120: 9c91 9eb9 a90a a0b9 6189 3ab9 ff2c 7a39
00000130: 9c9b 77b9 5df8 4c39 9a95 c7b9 b2d4 41b9
00000140: 8626 8838 e0ce 12b9 102e eeb8 dc77 e439
00000150: 3e4a 5cb8 7fbb 213a 9341 31b9 f829 7b38
00000160: c5ba 23ba 131f 5739 5671 a337 b358 5bb9
00000170: d573 51b9 ad51 d338 1880 d2b9 af8e a7b7
00000180: 09d6 d239 aaa3 9137 9520 46ba 44ec c7b9
00000190: 47e4 db39 2305 6d39 e111 99b9 ec94 9338
000001a0: 601e 2335 bff7 60b9 5efa 3f39 babd b439
000001b0: 25ae 1b3a 1dff c1b8 e97a 6db7 a1a0 19ba
000001c0: aeb0 1639 01d3 62b9 ec1b 113a c204 9338
000001d0: e818 6638 ac6b 9a39 7ca2 333a 819c a539
000001e0: 380d c436 004d 44b7 7c90 3a39 f884 ceb9
000001f0: 1c3a 0839 3275 e538 db37 da37 2710 a3b9
00000200: 869d 183a 1093 2b39 5588 afb9 21cd 22b9
00000210: 974c 29b9 5bbc a839 b182 4b39 a4c6 5a39
00000220: 0fea 9a39 3f26 be37 0ffd b4b8 9706 5e38
00000230: 0b6f 9738 035d f738 f859 21b7 5c71 03b9
00000240: eba5 7fb7 bc17 e737 593c e0b9 b2c6 55b9
00000250: 1c3d 7a39 358e 5038 79aa 8f38 c234 9539
00000260: 32da 5638 1a7b aab8 65bf d4b9 63fc 00b6
00000270: 15ed bd38 2147 75b7 159e f6b9 80a8 c438
00000280: 7cdd 8239 2407 36b8 9b68 fdb8 08b1 1e39
00000290: 23fc 503a 1d7d 9b39 2879 f937 f26b 83b9
000002a0: d788 37ba 0c5b 5839 1a77 f339 454b 20b9
000002b0: 048b 6139 38dd eeb9 ec5e dfb8 0baf 753a
000002c0: f103 b337 a299 8d38 6a67 04b8 17cf a639
000002d0: 685d 55b9 96bf c0b6 aa9c 23b8 66f4 9139
000002e0: 4a6e 50ba c862 3339 aa40 a2b9 4aa3 6b39
000002f0: a39d 27b9 83ed 96b9 83ff 6139 2f97 cd39
00000300: 354d 4d39 9868 df34 6617 0eba 19e8 18b8
00000310: 892e 8039 93f5 413a 0664 0a39 5d46 d0b8
00000320: 465b 91b8 cd4a deb9 4da5 05b9 7287 e8b8
00000330: 0945 7cb9 f3e9 75b8 99d0 c339 fffa a0b9
00000340: 7e89 9b39 9fc9 393a b8b2 0d3a 78dc 383a
00000350: 4486 e439 f02a 9638 95f3 56b9 fb84 efb9
00000360: 7238 2f38 daf7 e9b8 15f7 c439 9534 7139
00000370: 4507 0c3a d275 8e36 3159 ac39 2df7 7839
00000380: 97c9 5eba ed10 653a 2cfd 80b9 7640 4c39
00000390: 1854 7739 b443 66b9 d6d3 d639 3208 3f38
000003a0: 4e2f e038 fbf7 1539 6411 d839 7a82 4c39
000003b0: a2b5 8638 ca07 083a fb3e 66b9 320a be39
000003c0: de88 a0b9 01c0 7539 f3ca 86b8 24f6 f038
000003d0: 6afc 01b9 72c4 a639 4e25 53b9 0d87 da38
000003e0: 8ea0 2a38 ae64 fab8 5c6c 35b9 4c41 23b8
000003f0: 16cd 4eba 7ee2 6838 16b2 f539 7936 75b9
-0.00030726322 0.0007906304 -0.00034184637 -0.00014818442 0.00013281676 0.0005223217 -1.4700094e-05 0.00022074614
3.7750397e-05 0.00036739826 0.00021892294 -0.00018482107 3.6630263e-05 -8.912366e-06 8.646943e-05 0.00021848471
-4.4101653e-06 0.00023677117 0.0001887329 0.00037240484 -0.00027822255 7.403822e-05 -0.00025697367 0.00013900978
-0.00021656741 3.6012978e-05 -0.00046666598 -0.00032197678 3.5862115e-05 0.00011047468 -9.973328e-05 -0.00014428329
4.355029e-05 -0.0002772766 -0.0001112632 0.0004307965 -0.00028088238 9.756838e-05 -0.000102970356 0.00029391178
3.5526282e-05 0.0004891512 -0.00024325453 -0.00031407774 -7.338338e-05 6.3936575e-05 -3.5715184e-05 -0.000269491
-0.00047940755 -0.00013192151 0.00036746866 0.00038392236 -2.259033e-05 -0.0001370905 0.0005175973 -0.00013248957
4.3463595e-05 0.00030522028 -3.94623e-05 -0.00010641023 -0.0005006495 0.00037817712 -0.0001227206 4.3509383e-05
-3.0874337e-05 0.00033547118 0.00037328587 -0.00012750091 0.0001476804 0.00022096733 -0.00023882539 4.496725e-05
-0.00030244596 -0.0003052552 -0.0001778952 0.0002385862 -0.00023613725 0.00019547479 -0.000380677 -0.0001848515
6.492161e-05 -0.00014000712 -0.00011357304 0.0004357685 -5.252123e-05 0.00061696017 -0.00016904464 5.988215e-05
-0.00062457874 0.00020515574 1.948389e-05 -0.0002091851 -0.00019974944 0.00010076477 -0.0004014976 -1.9974394e-05
0.0004021379 1.7361559e-05 -0.00075579557 -0.0003813227 0.00041941015 0.00022603995 -0.00029195755 7.037245e-05
6.0766433e-07 -0.00021454597 0.00018308448 0.00034473633 0.00059387303 -9.250476e-05 -1.4154918e-05 -0.00058604224
0.00014370933 -0.00021631645 0.0005535472 7.0103924e-05 5.485947e-05 0.0002945339 0.000685252 0.00031587857
5.842794e-06 -1.1700438e-05 0.00017792167 -0.0003939045 0.00012991618 0.000109414 2.6013635e-05 -0.00031101817
0.00058218127 0.00016362616 -0.00033480176 -0.0001552594 -0.00016145628 0.00032183793 0.00019408275 0.000208641
0.00029547556 2.2667575e-05 -8.630205e-05 5.2935062e-05 7.2209245e-05 0.000117952026 -9.617295e-06 -0.00012535363
-1.5237815e-05 2.7548398e-05 -0.00042769572 -0.00020387283 0.00023864623 4.9723505e-05 6.8505244e-05 0.00028458802
5.1224786e-05 -8.129161e-05 -0.0004057839 -1.9220395e-06 9.056382e-05 -1.4619699e-05 -0.00047038557 9.377394e-05
0.0002496055 -4.339883e-05 -0.000120834644 0.00015134003 0.00079721416 0.0002965712 2.973953e-05 -0.00025066693
-0.0007001287 0.00020633283 0.0004643731 -0.00015286829 0.0002150946 -0.00045559718 -0.00010651149 0.0009372092
2.1340298e-05 6.75202e-05 -3.1567564e-05 0.0003181628 -0.0002034806 -5.7443494e-06 -3.9008133e-05 0.00027838646
-0.00079510047 0.00017107569 -0.00030947226 0.00022472176 -0.00015985085 -0.0002878719 0.00021552858 0.00039213288
0.00019579085 4.161309e-07 -0.0005420357 -3.645578e-05 0.00024448734 0.0007398959 0.00013197967 -9.931319e-05
-6.93114e-05 -0.0004239887 -0.00012745448 -0.00011087851 -0.0002405831 -5.8630434e-05 0.00037348716 -0.00030704585
0.00029666343 0.0007087234 0.00054053543 0.00070518954 0.00043587585 7.160555e-05 -0.00020499372 -0.0004568471
4.177582e-05 -0.00011156472 0.00037568124 0.0002300314 0.00053416594 4.245646e-06 0.0003287285 0.00023743203
-0.0008498667 0.0008738179 -0.0002460269 0.0001947897 0.00023587083 -0.0002195973 0.0004097509 4.554558e-05
0.000106899635 0.00014302127 0.00041211687 0.00019503562 6.42345e-05 0.0005189149 -0.00021957971 0.0003624722
-0.00030619552 0.00023436548 -6.42742e-05 0.00011489939 -0.0001239643 0.0003180835 -0.00020136425 0.00010420205
4.0680687e-05 -0.00011939682 -0.00017301872 -3.892304e-05 -0.00078888366 5.5524048e-05 0.00046862726 -0.00023385313

momentum_buffer f4 [64]
00000000: 4298 bf3a c4be 703c dc85 403d 7910 ac3b
00000010: 171e 8abc dcdd e1bc 0701 d53b 17df 1dbc
00000020: f6a3 6a3c 9fb7 863d dcd0 87bd 2609 53bc
00000030: 24ec 6f3d 4354 833b bdad f73c a87b 38bb
00000040: 06ab 27bd 8fb6 1dbc f65c f3ba 8295 b3bc
00000050: 0c0f 393d d9ad 043c b09c 38bc 6244 c8bd
00000060: e0a3 d0bc 9034 193d eda4 023d a235 ed3c
00000070: d0b0 093d 175c 8b3d fa70 48bc 68a4 e0b8
00000080: af50 ce3c b4bb 8abd bb3e e43c 5618 723c
00000090: 599d 5c3d 72ff 60bd dcc9 8a3c 7205 a7bd
000000a0: 83f0 8a3b 5e54 b4bb 75db b5ba 7de8 11bd
000000b0: 2388 973d 29ad 273d c789 8b3d e552 59bd
000000c0: e685 1e3d 2e3e 6abd e0bc b33b b78b b93b
000000d0: 1bb5 693c 7222 803d dddd 493c fbc4 cbbd
000000e0: 5f61 043d a076 b73b 80b3 563d 6dd9 143d
000000f0: 418b a33b fea8 4cbb cf81 1bbd 2c01 313c
0.001461752 0.01469392 0.04700266 0.005250987 -0.016860051 -0.027571611 0.0065003666 -0.009635708
0.014321318 0.06577992 -0.06631634 -0.012880599 0.05857481 0.0040078475 0.030234212 -0.0028149877
-0.040934585 -0.009626045 -0.0018567133 -0.021921877 0.045180365 0.008098089 -0.011267826 -0.09778668
-0.025468767 0.037403643 0.031895567 0.028956238 0.033615887 0.06804674 -0.012233967 -0.000107117754
0.025184957 -0.06774083 0.027861943 0.01477631 0.053860996 -0.05493111 0.016941957 -0.081553355
0.004240097 -0.0055032214 -0.0013874607 -0.03562211 0.07399013 0.040936623 0.06813388 -0.05305757
0.038701914 -0.057188205 0.005485162 0.0056624073 0.01426437 0.0625657 0.012320963 -0.099496804
0.032319423 0.005598858 0.05241728 0.036340166 0.0049909656 -0.0031228657 -0.037965592 0.010803502

momentum_buffer f4 [1, 64]
00000000: 8534 b2ba 0300 213d 9a97 0bbe d145 a43a
00000010: 9e35 d7bd 0be2 13be c282 36bd 6a85 183c
00000020: b28f 60bc f7d7 b5bc 9440 f2bd ef15 55bc
00000030: 1173 5a3c 5385 28bd 00c3 6d3d de9e aaba
00000040: f941 73be 1220 aabc b5f0 b9bd 71bc 88bc
00000050: 900f cebd 3df9 50bd 71d8 253d ea4d 02be
00000060: f031 fbbc 0aee b9bd 66dc d2bc 0033 013c
00000070: 7234 25bd c09b 12be cc6b 95bc 86de 2db9
00000080: aabc 9dbd 16b0 3abd 253b bcbc 3d4a 72bc
00000090: 01cf dabd 1874 1cbe 0e1b 8ebc d670 15be
000000a0: 47a7 47bb 5efc 783d 157e abba 3dab 43bd
000000b0: 6341 b0bd 6eb9 713d 0e0f bbbd 392f 88bd
000000c0: 4085 89bd 8b77 78be 06b0 6cbc 2bb3 5abc
000000d0: ed4b 01bd 34ca 82bd 7bc4 76bc 6f39 44be
000000e0: 69ad fdbc 6c82 31bc 6168 343d c417 46be
000000f0: ccce 1b3c f4c2 8eba d631 703b ae33 91bc
-0.0013595974 0.03930665 -0.1363205 0.0012533014 -0.105082735 -0.14441697 -0.044558294 0.009309152
-0.013706135 -0.022197707 -0.118287235 -0.013005718 0.013333098 -0.041142773 0.058047295 -0.0013017317
-0.23755635 -0.020767245 -0.09079114 -0.016691418 -0.10061562 -0.051018942 0.040489618 -0.12725034
-0.03066346 -0.090786055 -0.02573986 0.0078856945 -0.04033322 -0.14317226 -0.018239878 -0.00016581462
-0.077020004 -0.045578085 -0.022977421 -0.014788208 -0.10684014 -0.15278661 -0.017346885 -0.14593825
-0.0030464695 0.06078755 -0.001308384 -0.047770727 -0.086062215 0.05901473 -0.09133731 -0.06649632
-0.067148685 -0.24264352 -0.014446264 -0.013348381 -0.03156655 -0.063862234 -0.015061493 -0.19162534
-0.030966477 -0.010834318 0.044044856 -0.19345003 0.009509753 -0.0010891841 0.0036650798 -0.017724838

bn0.weight f4 [3]
00000000: 415f 7f3f 73f7 7f3f 5b37 7f3f
0.9975472 0.9998695 0.9969384

bn0.bias f4 [3]
00000000: 55b2 85bb a839 ad3a eed6 8a3b
-0.0040800967 0.0013216035 0.0042370474

bn0.running_mean f4 [3]
00000000: 9374 f83e 3407 e53e 1576 d03e
0.4852644 0.44732058 0.4071509

bn0.running_var f4 [3]
00000000: 61e9 843d 6b95 763d 4953 7a3d
0.06489826 0.06020109 0.061114583

conv1.weight f4 [32, 3, 5, 5]
00000000: 79dd 82bd eab2 f53c 215a 0ebb ec63 04bd
00000010: 9a15 d03c 95b0 7b3d 817d 093d 7479 be3c
00000020: 8271 9f3c 95d2 df3d fff2 cabc b0c2 b53a
00000030: 8fd7 80bd 4702 9d3c ae3f 43bd d778 723c
00000040: 2b75 9e3d 0a72 a43c 75bb 773d 130a 953c
00000050: 617c 243d 863f 813c d7c6 92bb 8cf7 c33c
00000060: 3d80 8b3d 89ec 4b3d e391 1cbd 28fd b43c
00000070: 2ebb dc3c 0f16 d83c 7b24 afbd 119d 76bd
00000080: 3db3 a43d fc7f 74bd 0873 023d cd47 2b3d
00000090: 4171 6fbc 19bf 99b9 8eef d13b 7e42 a7bd
000000a0: fdfc e13c 89fd 05bd 5f78 803d 4853 903c
000000b0: fff4 92bc 2a12 55bd 685d 3c3d 0687 973d
000000c0: 2798 bf3c 0322 a53d d2bf 9dbd 6334 a03d
000000d0: 3206 91bc ddd9 293d 711c 02bd a5da 0fbc
000000e0: 528d a0bc 053c c73d 3c35 20bb 7af6 813d
000000f0: a3b0 c13d 8ce5 efbd 2c8d 433d 267d 0fbd
00000100: 1e47 47bd b526 bc3c ebfe a03c 69c4 a2bd
00000110: 9e0c 8ebc f9fc 443d f546 38bd bf86 1dbd
00000120: 7ed7 903c b178 59bc 00ee 5c3c 7940 203c
00000130: 0866 d0bc 6d54 90bd 8813 503d 60fb 873a
00000140: 7c74 f73b 27d4 813c a9d1 833c 5a90 74bc
00000150: b7b6 6d3d 3b25 73bc 7c3d 1ebd 1d1a 7a3c
00000160: d918 8b3a 9c41 83ba ae06 dcbd b298 053c
00000170: 6bb1 9e3d a1d4 e8bd 7d7c 55bd afcf 953c
00000180: 550c 543b 83fd 97bc c456 7e3d 79c0 32bc
00000190: 6f99 51bd 5a98 223d e678 883d 2791 5abc
000001a0: bfb7 173d 1b3b 873b 13ae 1fbc 4e7e 50bd
000001b0: 59b9 813d ebf9 a33d c474 07bd 743d 94bd
000001c0: b093 b13c 84bc fdbb 3360 943b 84b5 e63c
000001d0: fa2e 8a3c c6a1 c93d 16e9 8e3d a404 84bd
000001e0: 9657 4f3d 0865 b0bd c1ad 95bd 2eba 95bc
000001f0: 9d71 4ebd 1bc1 f03b 1258 fbbc 0a38 9c3d
00000200: 4719 3c3c 1624 aebc 6a85 bbbb 7415 00bc
00000210: 1d9d d6ba 3c66 5fbd df1a 8cbc 7fb1 563d
00000220: 0330 b9bd 3f43 5ebd 47ac 4dbc 0192 203d
00000230: 3ca8 523c 0586 df3c f215 4c3d 690c a83d
00000240: 64bb dd3d 67b7 6c3d d0fd a53a 519b 9f3c
00000250: d144 10bd de5c d3bc 4f1f 833d ac1d 143d
00000260: 1053 df3c c7b2 29bd 7c12 2dbc 82d7 51bd
00000270: dbfc 643d e809 b43d ec4f 51bd 1d05 b63c
00000280: 4eea b7bc faef 6a3c fa47 473d 6411 0dbd
00000290: 1668 36bb 13ef 22bd b9c4 493d 8e74 3cbd
000002a0: bbc8 3cbd c997 1ebd e3c1 79bd 43a0 ba3d
000002b0: 5d8e b73c ac7e 24bc a40c 083d 045e 36bb
000002c0: 2787 82bc 27b3 32bc 54c5 59bd 8623 a8bb
000002d0: 0ef2 783c c5c4 653d 8e7b a33b 8e4d 4a3c
000002e0: 719a f93c 1c1e 773c f60c f0bc 1050 a3bd
000002f0: 92d1 4ebc b300 a7bd 3712 853d 408c 7cbd
00000300: fd72 26bd 5ee1 14bc f9a6 e4bd 6563 a63b
00000310: 60ae c9bc 4070 02be 75ea 143a c23c d53d
00000320: 2b43 8f3c 463d bc3d 3044 8bbd 1455 6bbd
00000330: 2d8b 87bc e516 a3ba a805 c3bd 1fa0 b63d
00000340: 8e4a 18bd e7ea 2ebc 4381 e9bc 6982 fa3c
00000350: 9087 d03a 6785 dcbc 00cb 39bd f060 04be
00000360: f482 25bd 1b7f 213c 6a7f 60ba cbd1 3f3d
00000370: a6ee 4c3c 608f 0bbd 07e1 27be 17b7 cfbd
00000380: b72a b6bc cff9 7abc 4395 b33b edbb 42bd
00000390: 19be 51bd 8ec8 72bb e115 67bd 597f 693c
000003a0: ffbf 213d 2c87 a7bc a2bd abbc b4b2 71bd
000003b0: 592e e5bc 57d2 86bd 2a9c 1b3e 39f2 61bd
000003c0: 3ea3 923d fee7 243d dd54 ce3b 18a8 28bc
000003d0: 1c4f 9938 d630 203d b198 113d 1996 aa3b
000003e0: 95b1 4c3d d3e4 18bd 32cf 243b 6095 61bc
000003f0: 4510 31bc f66e 71bd f407 a73c 0c06 513d
-0.06389899 0.02999254 -0.0021721201 -0.032321855 0.025400925 0.0614477 0.033566955 0.023251273
0.019463304 0.10928837 -0.024774073 0.0013867225 -0.062911145 0.019166125 -0.04766815 0.014799318
0.07737192 0.02007391 0.060481507 0.01819328 0.04015768 0.01577736 -0.00447927 0.02392175
0.06811569 0.049786124 -0.038225066 0.02209337 0.026944723 0.026377706 -0.0855188 -0.060208384
0.080419995 -0.059692368 0.031847984 0.04181652 -0.014614404 -0.00029324813 0.006406731 -0.08166979
0.027586455 -0.032712493 0.06272959 0.017617837 -0.017939089 -0.052019276 0.045987517 0.073988006
0.023387982 0.08063128 -0.077026024 0.07822492 -0.01770315 0.041467536 -0.031765405 -0.008780156
-0.019598637 0.09728245 -0.0024445793 0.0634584 0.09457519 -0.117137045 0.047742054 -0.03503146
-0.048651807 0.022967676 0.019652804 -0.079476185 -0.01734 0.048092816 -0.044989545 -0.038458582
0.01768088 -0.013273404 0.013484478 0.0097809965 -0.025439277 -0.07047353 0.050799876 0.0010374598
0.007551728 0.015848232 0.016091185 -0.014926994 0.05803558 -0.014840419 -0.038632855 0.015265015
0.0010612264 -0.001001406 -0.107434615 0.008154081 0.077486835 -0.11368681 -0.052120674 0.018287508
0.0032355983 -0.018553501 0.062094465 -0.010910147 -0.051171716 0.039696075 0.066636845 -0.013340271
0.03704047 0.004126919 -0.009746092 -0.050901704 0.063341804 0.080066524 -0.03307034 -0.07238284
0.021676868 -0.00774342 0.0045280694 0.028162725 0.016868103 0.09845309 0.06978051 -0.06446198
0.050620638 -0.0861302 -0.073085316 -0.018277254 -0.05040132 0.0073472387 -0.030681644 0.07627876
0.011480636 -0.021257441 -0.0057226913 -0.007817615 -0.0016373728 -0.054540858 -0.017102657 0.052415367
-0.09042361 -0.05426335 -0.012553281 0.03920174 0.012857493 0.027285585 0.049825616 0.08205492
0.108267576 0.057792094 0.0012664143 0.01948324 -0.03522188 -0.025801118 0.06402456 0.03616111
0.027261287 -0.04143026 -0.010563489 -0.051230915 0.055905204 0.08790952 -0.05110161 0.022219235
-0.022450592 0.014339441 0.048652627 -0.034440413 -0.0027833036 -0.03977878 0.049259875 -0.046009593
-0.04608987 -0.038718972 -0.06097592 0.09112599 0.022406751 -0.010039967 0.03321518 -0.0027827034
-0.015933586 -0.010906971 -0.053166702 -0.005131188 0.015194429 0.056095857 0.004989094 0.012347592
0.030469151 0.015082862 -0.029303055 -0.07974255 -0.012623208 -0.0815443 0.06497615 -0.06165719
-0.040637005 -0.009086935 -0.1116466 0.0050777667 -0.024619281 -0.12738132 0.0005680689 0.10411979
0.017488083 0.091913745 -0.06800115 -0.057454184 -0.016545856 -0.0012442736 -0.09522563 0.089172594
-0.037180476 -0.010676122 -0.02850402 0.030579763 0.0015909541 -0.02691908 -0.04535961 -0.12927604
-0.04040809 0.009856964 -0.0008563908 0.046830934 0.01250807 -0.03407228 -0.16394435 -0.101423435
-0.022237165 -0.015318348 0.00548044 -0.0475425 -0.051206682 -0.003704581 -0.05641735 0.014251553
0.039489742 -0.020450197 -0.020964447 -0.059008315 -0.027976202 -0.06583088 0.1519629 -0.055162642
0.07160042 0.040260307 0.0062967376 -0.010293983 7.310344e-05 0.039109074 0.03554601 0.0052058813
0.049974043 -0.0373276 0.0025147912 -0.013768524 -0.010807102 -0.05894371 0.020389535 0.051031157

conv1.bias f4 [32]
00000000: ae1d 3abd 2080 023d 76e3 d33d 815d f43c
00000010: 9ada d4bd 4fe6 81bd 893f b5bd f529 2f3d
00000020: d0b5 d83d 4926 1cbd 719a 0a3a edf1 7cbd
00000030: d7c5 af3c 38e9 ef3c 0d0a 653c 46f4 13bd
00000040: 26ac b2bd d3ac 873d 33da e83d 6775 163d
00000050: 1801 21bd 62e4 ffbc 0523 443d 0bf5 ee3d
00000060: 34ef 083d 2097 a83c e9d3 4fbd 3c52 ae3d
00000070: 8d6f 033d 13a0 c4bd bc19 b6bd 4b53 df3d
-0.04543846 0.03186047 0.10346119 0.029829742 -0.103932574 -0.06342756 -0.08850009 0.042764623
0.10581553 -0.03812245 0.0005287296 -0.061754156 0.021456642 0.029286012 0.013979447 -0.03612163
-0.08724241 0.066247605 0.11369743 0.036733057 -0.039307684 -0.031236831 0.04788496 0.11667832
0.033431247 0.020579875 -0.050739203 0.08511779 0.032088805 -0.09600844 -0.08891627 0.10904559

conv2.weight f4 [32, 32, 3, 3]
00000000: aa26 02bd d64b 443d 7263 5cbd d904 c13d
00000010: 3c5b 0d3e 5933 d639 31a1 9ebd 71cc c7bc
00000020: d5de d0bd 03eb 14bc 254c a53b 631f 313e
00000030: 323e 3abd 71e3 873d 2b9a b5bd aa39 333e
00000040: 5668 fbbd 165b febd eaa7 1a3c 4ce6 773d
00000050: 715d 603c 6eee c53d 5a2f 153e 9199 3c3c
00000060: 9a22 0dbe 097f 0d3c 3cc8 bf3d a46c 0d3e
00000070: 61b7 a5bc f1d7 793d 77ea c73d cbeb 19bd
00000080: 37d7 41be f7af 203d a518 b7bb 9ed6 6b3d
00000090: b488 483d 9f8b 07be fe2c f7bc 643d a93d
000000a0: 0fc7 18bc eee4 f2bc 2d43 993d 4eb9 573b
000000b0: a095 963d 9b7e 003d 9930 0fbe 7fe7 be3d
000000c0: 49da d0ba fda8 d2bc 372c a8bd 6e97 5c3d
000000d0: 37f6 67bc 5e45 60bd 64f0 dbbc 0d35 48bd
000000e0: c24f 81bd 5c95 9b3d 1274 893c e3e2 8b3d
000000f0: bac3 053d db09 0c3c 9d72 6cbd 9568 2ebc
00000100: 8d0b cfbd a2fc a2bd 74d4 943c 8e5f a5bc
00000110: 2019 20bd d52c 2b3e 2146 f03d 9039 2e3d
00000120: c8db a83b 2621 f2bd 0afb 92bd a305 de3c
00000130: 5dab bdbd 7f57 41be 2792 cabd de93 4ebd
00000140: a58a ef3d e308 5ebc e18c 49bd 98a8 cb3c
00000150: 0fb8 70bd 0380 16bd 1a63 b7bd 39ef 32bd
00000160: 0402 9bbb e8da 96bd 69e9 04be b5bb 103e
00000170: 3815 6c3b c69d e93c 38a7 df3d c02b 16bd
00000180: 9238 27be c192 2d3d 5cd9 0fbe bc27 7cbc
00000190: 9a2d 823d 6cf7 d53b d082 f93c 6641 50bd
000001a0: e547 dfbc 8536 d8bb b5c1 613d ff6c 183e
000001b0: 268f 76bd 4211 6abd 1c34 ffbd cc90 2abd
000001c0: 8cbc dd3a 1fd0 d8bd 133e 8b3d e03d b33c
000001d0: 14e1 dcbb 0349 2f3d 72ba cc3d bcc4 85bd
000001e0: 6fd6 1b3d 64c8 cfbd b84f 7abc 53ad 8d3c
000001f0: f3d6 42bc 99ac de3d a937 aa3d 6dc5 c5bc
00000200: 5ee4 38bd 5565 95bc 293e 7c3a a98e cb3d
00000210: 33c2 53bd 3b1e 54ba db04 a93d 9f86 bd3d
00000220: bee4 60bd 87ad b7bd 27c3 a1bd ceba 88bd
00000230: a76b 04be 10db 9ebd b9c4 9f3d 090a f2bc
00000240: e592 72bc 095b 963a a244 8bbd 9a10 ef3d
00000250: aab9 30bd 2403 143d f585 9d3d d68d 6bbd
00000260: 3cfd 7c3d bf29 673c 54d1 e4bd fe36 77bd
00000270: 3cd4 983e de38 14be e6d6 05be 5744 bf3d
00000280: 04ae 693c bae0 123d f805 55bd af81 3fbd
00000290: 0e2c 70bd 28f9 9d3c 5349 e23d d953 dbbd
000002a0: 4f97 013d 84b4 643b 6503 a63d ed9b c13d
000002b0: 26ae 96bd 9c8b 8f3d e74c 12be 0e2a 7cbd
000002c0: f15d 3fbe 7b3b fcbc 0be2 3fbd 00bb a13a
000002d0: 40fa 81bd 8f74 d6bc 6b28 7c3d 00be 2a3e
000002e0: 707f 833d 07a1 04bc ad38 bc3d 0ea4 703d
000002f0: 3101 eebc 51a2 adbb 0977 653c 1a25 2c3e
00000300: 6150 5bbd e0e0 1a3c 5709 a9bb 58d3 0abe
00000310: 3c03 b9bc 4762 b03d f1b9 04bd 8f37 1ebd
00000320: 6a32 debd 6e6f 6abd de71 8e3d f4f7 91bd
00000330: 5783 82bd 7824 833d 3fba 223d 881d cabc
00000340: 9cbb c83d 6489 453c c8f2 063e ff8e fe3c
00000350: bb93 7d3d 5cd3 e13d b9e5 94bd 9264 9d3c
00000360: 93a4 68be 5742 bbbd 73cc 63bd 40c0 f4bc
00000370: 3d06 c0bb ff66 19be 7ab9 37bc 5780 70bd
00000380: 4b6e d5bd 1317 983d 6d11 a8bd e077 a43d
00000390: 9c0d b93b b37f 02bd 9315 f13d 1271 13be
000003a0: 8fb7 2a3e bcdb 053d 4aa3 b03b 5c28 0b3e
000003b0: c955 c4bd bca5 663d 4a51 423e c9c2 213e
000003c0: 7965 2b3c f23d 8e3c 26a5 2ebd f26d 9b3d
000003d0: 7739 a33d 9525 17bb 268d 87bc 4354 a4bb
000003e0: d8a3 613d 0fba dc3d 6f4e 023e 038c febc
000003f0: 6874 e1bc ad58 1c3e 8170 1f3d 90d1 133d
-0.031775154 0.047923885 -0.053805776 0.09424753 0.13804334 0.00040855518 -0.077455886 -0.024389477
-0.10198752 -0.009089234 0.0050444775 0.1729713 -0.04546947 0.06635178 -0.08867296 0.17502466
-0.1227576 -0.12419717 0.009439448 0.060522363 0.013694153 0.096646175 0.14568844 0.011511222
-0.1378273 0.008636245 0.093643636 0.13810974 -0.020229043 0.060996953 0.097615175 -0.037578385
-0.18929754 0.039230313 -0.0055876547 0.05757772 0.048958495 -0.13236855 -0.030172821 0.082636625
-0.009324803 -0.029650178 0.07483516 0.0032916847 0.073527575 0.03137074 -0.13983382 0.09321498
-0.0015934195 -0.025715346 -0.08211558 0.053855352 -0.014157823 -0.054753654 -0.026848026 -0.04887872
-0.06314041 0.075968474 0.01677898 0.068303846 0.032657363 0.008547272 -0.05772649 -0.0106450515
-0.10109625 -0.07958342 0.018167712 -0.020187166 -0.03908646 0.16716321 0.11732126 0.042535365
0.005153153 -0.11822729 -0.07176788 0.027102297 -0.092612006 -0.18881033 -0.098911576 -0.050433986
0.11696366 -0.013551923 -0.04920662 0.024860665 -0.058769282 -0.036743175 -0.08954449 -0.04368517
-0.004730465 -0.07365972 -0.12979664 0.14134105 0.003602339 0.028517615 0.10920566 -0.036662817
-0.16330174 0.042376284 -0.1404776 -0.015390333 0.06356354 0.006529739 0.030457884 -0.05084362
-0.027255962 -0.006598296 0.055116374 0.14885329 -0.06019511 -0.057145365 -0.12461111 -0.041641995
0.0016917153 -0.10586571 0.06798949 0.02188009 -0.0067406986 0.04279424 0.09996499 -0.06531665
0.038046297 -0.10145643 -0.0152777955 0.017294561 -0.011892068 0.10872764 0.083113976 -0.024141992
-0.045139663 -0.018236795 0.00096222997 0.0993932 -0.051698875 -0.0008091663 0.08252879 0.092541926
-0.054905646 -0.089686446 -0.078985505 -0.06676255 -0.12931691 -0.077566266 0.07801194 -0.0295458
-0.01480553 0.0011471222 -0.068002 0.11673088 -0.043145813 0.036135808 0.07691566 -0.057508312
0.06176494 0.014109074 -0.11172739 -0.06035518 0.29849422 -0.14474818 -0.13070258 0.09339207
0.01426268 0.035858847 -0.052007645 -0.046754535 -0.058635764 0.019283846 0.11049142 -0.10709352
0.03163844 0.0034897635 0.08106116 0.094535686 -0.07357435 0.0700905 -0.14287148 -0.061563544
-0.1868818 -0.030790081 -0.04684643 0.0012339056 -0.063465595 -0.026178626 0.061561983 0.16674042
0.06420791 -0.008095033 0.091904975 0.058750205 -0.029053302 -0.0052988906 0.014005431 0.16811028
-0.053543452 0.009453028 -0.005158584 -0.13557184 -0.02258455 0.08612495 -0.03240389 -0.038627204
-0.108494595 -0.057235174 0.06955312 -0.071273714 -0.06372707 0.0640344 0.0397284 -0.024672285
0.09801409 0.012056682 0.13178551 0.031074045 0.061908465 0.11026642 -0.072703786 0.019212995
-0.2271903 -0.09143513 -0.0556149 -0.029876828 -0.0058601187 -0.14980696 -0.011213655 -0.058716144
-0.10421427 0.07426276 -0.08206449 0.08030677 0.0056473743 -0.031860065 0.11771693 -0.14398602
0.16671585 0.03268026 0.0053905593 0.13589615 -0.09586675 0.0563104 0.18976322 0.15796961
0.010461205 0.017363522 -0.042637967 0.0758933 0.07969945 -0.0023063172 -0.016546797 -0.0050149276
0.055087894 0.10777675 0.12725233 -0.031072622 -0.027521327 0.15268202 0.03892565 0.036088526

conv2.bias f4 [32]
00000000: 5185 973c ef09 a1bc 5953 11bd c145 0ebd
00000010: 5619 28bd 5be7 153b 1482 b2bc 7d90 223d
00000020: 1bb2 423d 1aff e5bc 0c51 493d 5e28 8e3c
00000030: f730 4b3d c5c4 763c c406 cfbc 2b4f acbc
00000040: 3e40 1d3d 9d19 e03c c912 033d 1b60 dbbc
00000050: 13ed 643d b32f 6d3d 3da4 e73c 8c0e 42bd
00000060: 107d 93bc 16b9 e13c 31bc c6bc 981d 0a3d
00000070: 95b1 643d fffa 913c d13f 5f3c 3b09 b9bc
0.018496187 -0.019658057 -0.035479877 -0.03473449 -0.041039787 0.0022873494 -0.021790542 0.039688576
0.047533136 -0.028075743 0.049149558 0.017353233 0.049607243 0.015061562 -0.02527178 -0.021033844
0.038391344 0.027355963 0.032000337 -0.026779225 0.055890154 0.057906818 0.028276557 -0.047377154
-0.01800397 0.027554076 -0.024259659 0.03371963 0.055833418 0.01781988 0.013626055 -0.02258741
