unlearn_0.02/checkpoint_step_0240.pth (torch_old, 541510 bytes, 24 tensors)

momentum_buffer f4 [3]
0.3419126 -0.24797599 -0.16442432
00000000: 2b0f af3e 6bed 7dbe d95e 28be

momentum_buffer f4 [3]
0.05209786 -0.08796285 0.1284775
00000000: 9164 553d de25 b4bd 9b8f 033e

momentum_buffer f4 [32, 3, 5, 5]
-0.19563794 -0.19895424 -0.19341098 -0.18183872 -0.18201236 -0.2089904 -0.21481359 -0.2081717
-0.19272648 -0.1906871 -0.21685663 -0.22214487 -0.21194933 -0.19530621 -0.19375001 -0.21885298
-0.22180174 -0.21015073 -0.19253366 -0.19259623 -0.2161717 -0.21895857 -0.20838705 -0.19437207
-0.19701488 -0.14822097 -0.15045556 -0.14502263 -0.13344751 -0.13349107 -0.16378541 -0.16770002
-0.16090171 -0.14572845 -0.14303109 -0.17360382 -0.17775148 -0.16662942 -0.14977151 -0.14789324
-0.17617232 -0.1789975 -0.16650063 -0.14929757 -0.14827958 -0.17260349 -0.1758103 -0.16505468
-0.15161772 -0.15296896 -0.1904546 -0.19242364 -0.18695596 -0.17590311 -0.17584747 -0.2058405
-0.21110457 -0.20399968 -0.18891379 -0.18638341 -0.21736279 -0.22119613 -0.21153879 -0.19463716
-0.1919416 -0.22160193 -0.22445591 -0.21241665 -0.1948068 -0.19346783 -0.21869276 -0.22209531
-0.21146876 -0.197771 -0.19899887 0.048095006 0.056372654 0.07449073 0.088236436 0.097167745
0.040204294 0.050666142 0.070690304 0.092003435 0.10630288 0.030615479 0.048289467 0.076856405
0.101113155 0.11233512 0.024788527 0.047913037 0.08044911 0.10201442 0.1088859 0.033521716
0.05009854 0.07626856 0.09582333 0.102684654 0.008923234 0.014830666 0.031211043 0.04636738
0.05551965 0.00033967022 0.008789273 0.027575709 0.050206613 0.064954214 -0.010052255 0.0061026863
0.034246605 0.05957819 0.0719308 -0.014872649 0.0067347283 0.03886503 0.061733514 0.0688668
-0.0052667432 0.01087699 0.0364576 0.057289485 0.06354485 0.052165437 0.05680318 0.07340233
0.08828547 0.09716151 0.043877717 0.051516384 0.069762 0.0923777 0.10727567 0.03465525
0.049967896 0.07678892 0.102707475 0.11588694 0.02922429 0.0512915 0.083047174 0.105492905
0.11346277 0.03947854 0.05629499 0.08252731 0.10302114 0.10919444 0.11318874 0.11211181
0.11353574 0.11527616 0.11775324 0.11648677 0.11845945 0.122782975 0.12540685 0.124917395
0.11662679 0.12082152 0.12503904 0.12696682 0.12531537 0.1190846 0.12244397 0.1235834
0.12492747 0.124845676 0.11511788 0.11814659 0.120259814 0.12232408 0.123310864 0.095366575
0.09401159 0.09466845 0.097882494 0.100386776 0.099287964 0.10014059 0.10456357 0.10789633
0.10733923 0.09881056 0.10275834 0.10773682 0.10938854 0.10796664 0.10199571 0.10407697
0.1060081 0.106949955 0.10743359 0.09770489 0.09989788 0.10281681 0.1049445 0.106155574
0.11479827 0.112176605 0.11376735 0.11661722 0.11980243 0.11838453 0.11946562 0.12434145
0.12710413 0.12721755 0.118293874 0.12218608 0.12808855 0.12923534 0.12838306 0.12119797
0.12409549 0.12590593 0.12718612 0.12762538 0.11731839 0.1193008 0.12205667 0.12533292
0.12619333 0.13211341 0.13112946 0.13009098 0.1250728 0.11537329 0.14609535 0.1469379
0.14047275 0.12779905 0.11675239 0.14646825 0.14863993 0.14706345 0.13554683 0.12796187
0.14345421 0.14551657 0.14752819 0.14298503 0.14325002 0.14331585 0.14296424 0.14443085
0.14633684 0.15662397 0.105582565 0.10486863 0.103833824 0.09805988 0.08799043 0.11983728
00000000: 5055 48be a9ba 4bbe 870d 46be ee33 3abe
00000010: 7361 3abe 9401 56be 18f8 5bbe f62a 55be
00000020: 175a 45be 7b43 43be aa0f 5ebe f279 63be
00000030: 3f09 59be 5afe 47be 6766 46be ff1a 60be
00000040: ff1f 63be c131 57be 8b27 45be f237 45be
00000050: 1d5c 5dbe ad36 60be 6a63 55be 7909 47be
00000060: 45be 49be 3dc7 17be 0611 1abe d080 14be
00000070: 77a6 08be e2b1 08be 5db7 27be 8eb9 2bbe
00000080: 6bc3 24be d739 15be be76 12be 33c5 31be
00000090: 7c04 36be e7a0 2abe b45d 19be 5371 17be
000000a0: 8466 34be 1f4b 37be 247f 2abe 76e1 18be
000000b0: 9ad6 17be f8be 30be 9e07 34be 1804 29be
000000c0: ad41 1bbe e5a3 1cbe 8806 43be b40a 45be
000000d0: 6271 3fbe f21f 34be 5c11 34be dac7 52be
000000e0: cc2b 58be 4be5 50be 9e72 41be 4bdb 3ebe
000000f0: 5a94 5ebe 3d81 62be a09d 58be f74e 47be
00000100: 578c 44be 9eeb 62be c5d7 65be c083 59be
00000110: 6f7b 47be 6e1c 46be fff0 5fbe f46c 63be
00000120: 448b 58be 7b84 4abe 5cc6 4bbe 45ff 443d
00000130: 03e7 663d 998e 983d 4eb5 b43d e2ff c63d
00000140: 42ad 243d 4d87 4f3d 14c6 903d 4c6c bc3d
00000150: 53b5 d93d 50cd fa3c 2dcb 453d e466 9d3d
00000160: 6a14 cf3d f50f e63d 4f11 cb3c 7640 443d
00000170: 81c2 a43d f0ec d03d 92ff de3d 114e 093d
00000180: 2034 4d3d b132 9c3d 063f c43d 554c d23d
00000190: c232 123c 52fc 723c 4dae ff3c b9eb 3d3d
000001a0: 9368 633d c415 b239 e200 103c 74e6 e13c
000001b0: 73a5 4d3d b706 853d 37b2 24bc 0bf9 c73b
000001c0: 2b46 0c3d 4308 743d 7550 933d 69ac 73bc
000001d0: ffae dc3b f030 1f3d 48dc 7c3d 090a 8d3d
000001e0: a594 acbb 6735 323c 9054 153d 61a8 6a3d
000001f0: cd23 823d 6dab 553d 74aa 683d f653 963d
00000200: 03cf b43d 9dfc c63d 1fb9 333d d802 533d
00000210: 61df 8e3d 8530 bd3d 59b3 db3d aaf2 0d3d
00000220: 23ab 4c3d 8243 9d3d 4c58 d23d 2256 ed3d
00000230: c767 ef3c 0917 523d a314 aa3d aa0c d83d
00000240: 2b5f e83d 40b4 213d 9395 663d 1404 a93d
00000250: bffc d23d 56a1 df3d 80cf e73d e09a e53d
00000260: 6d85 e83d e815 ec3d 9c28 f13d 9e90 ee3d
00000270: de9a f23d a475 fb3d a76a 003e b1d4 ff3d
00000280: 07da ee3d 4671 f73d 3c0a 003e 9703 023e
00000290: ac52 003e a0e2 f33d e7c3 fa3d 4b19 fd3d
000002a0: f9d9 ff3d 17af ff3d ecc2 eb3d d7f6 f13d
000002b0: c74a f63d 0c85 fa3d 688a fc3d 8d4f c33d
000002c0: 2689 c03d 88e1 c13d 9e76 c83d 9597 cd3d
000002d0: 7d57 cb3d 8216 cd3d 6d25 d63d c0f8 dc3d
000002e0: acd4 db3d 315d ca3d f772 d23d 1fa5 dc3d
000002f0: 1907 e03d 9d1d dd3d 20e3 d03d 4e26 d53d
00000300: c61a d93d 9408 db3d 2406 dc3d 8019 c83d
00000310: 4297 cc3d 9f91 d23d 24ed d63d 1868 d93d
00000320: 5b1b eb3d d9bc e53d dbfe e83d 02d5 ee3d
00000330: fa5a f53d 9773 f23d 64aa f43d bba6 fe3d
00000340: 9627 023e 5145 023e 0f44 f23d b23c fa3d
00000350: a529 033e 4556 043e d976 033e a436 f83d
00000360: c725 fe3d 7ced 003e 143d 023e 3ab0 023e
00000370: a044 f03d fa53 f43d d9f8 f93d 4657 003e
00000380: d338 013e bd48 073e cd46 063e 9236 053e
00000390: 1613 003e d548 ec3d 059a 153e e476 163e
000003a0: 17d8 0f3e c1dd 023e e11b ef3d c6fb 153e
000003b0: 1135 183e cd97 163e cacc 0a3e 7008 033e
000003c0: a9e5 123e 4c02 153e a111 173e ab6a 123e
000003d0: 22b0 123e 64c1 123e 3865 123e aee5 133e
000003e0: 53d9 153e 0962 203e ac3b d83d 5dc5 d63d
000003f0: d4a6 d43d 9ed3 c83d 5434 b43d 3f6d f53d

momentum_buffer f4 [32]
-0.18191023 0.22651221 0.08183078 0.13010558 0.020886758 0.42940223 0.6603298 -0.012974532
-0.23426783 -0.11884517 -0.19542821 0.0010167717 0.046277724 -0.377449 -0.05743537 -0.16948605
0.086270064 0.049707584 -0.17798558 0.44717872 0.35817534 0.093067095 0.15077733 0.2397535
-0.18336496 -0.04464347 -0.09980461 -0.048685007 -0.056742635 -0.21139558 -0.29432216 0.10016419
00000000: ad46 3abe d1f2 673e e596 a73d 663a 053e
00000010: b51a ab3c 9cda db3e 600b 293f 2293 54bc
00000020: e8e3 6fbe 1965 f3bd 551e 48be 3245 853a
00000030: b68d 3d3d ff40 c1be 5a41 6bbd c08d 2dbe
00000040: 5cae b03d 2e9a 4b3d da41 36be 9cf4 e43e
00000050: c262 b73e f699 be3d 5f65 1a3e f181 753e
00000060: 06c4 3bbe 12dc 36bd 5c66 ccbd ee69 47bd
00000070: f76a 68bd 1578 58be 65b1 96be e222 cd3d

momentum_buffer f4 [32, 32, 3, 3]
-0.09548459 -0.0956695 -0.09548002 -0.09608808 -0.09716986 -0.095605284 -0.09570336 -0.09697603
-0.096399695 -0.032657914 -0.03265812 -0.03159359 -0.032847248 -0.03260751 -0.031725265 -0.034068376
-0.033196773 -0.0316379 -0.04285845 -0.04263294 -0.042792622 -0.043730725 -0.042825773 -0.04317206
-0.042762067 -0.04332567 -0.04306508 -0.0042583584 -0.004390913 -0.0041849446 -0.0036076778 -0.0046074395
-0.0035946681 -0.003890242 -0.0044111507 -0.0036698643 -0.03606972 -0.036071487 -0.035923142 -0.035983827
-0.03572429 -0.035918865 -0.036160458 -0.03594196 -0.035536177 -0.013485821 -0.013881572 -0.013580158
-0.013137464 -0.013435063 -0.013076025 -0.01201589 -0.013058822 -0.013652771 -0.02459539 -0.023790512
-0.023474267 -0.023968065 -0.024294842 -0.023985537 -0.0233452 -0.024806721 -0.023804197 -0.06311064
-0.061680563 -0.06059765 -0.063077524 -0.06270078 -0.0611589 -0.062444463 -0.06200234 -0.061081853
-0.027336165 -0.02649524 -0.02627655 -0.02755301 -0.027295643 -0.02684614 -0.027478829 -0.026603594
-0.026722219 -0.035890106 -0.035977237 -0.03402942 -0.035462018 -0.03663809 -0.03506845 -0.03606537
-0.03630678 -0.035400666 -0.02203721 -0.021877268 -0.021222237 -0.022185253 -0.021586476 -0.020687323
-0.020991432 -0.020862825 -0.019231323 -0.014841326 -0.014351635 -0.014877616 -0.014920296 -0.014938305
-0.014068145 -0.015280915 -0.01481658 -0.014317997 -0.018736817 -0.01937411 -0.018470297 -0.019704245
-0.018606441 -0.018295227 -0.01978203 -0.018996295 -0.019009236 -0.03764072 -0.037275545 -0.03641913
-0.036134694 -0.035950847 -0.03528255 -0.0349123 -0.0345981 -0.033888217 -0.061007768 -0.062735125
-0.06084265 -0.06191443 -0.06318417 -0.06259872 -0.062766165 -0.063905574 -0.0633674 -0.02844634
-0.028039265 -0.026257174 -0.028713213 -0.027677465 -0.02751863 -0.029444654 -0.028444871 -0.027688546
-0.08519873 -0.08497778 -0.083314635 -0.08675224 -0.086448476 -0.08534196 -0.087027654 -0.08622544
-0.08500036 0.0031303687 0.0024285964 0.0026794346 0.0029370855 0.0025580593 0.0028315943 0.0030069107
0.003029131 0.0028776757 -0.017292239 -0.018167797 -0.017309006 -0.018274892 -0.017788578 -0.017795315
-0.017559951 -0.017389618 -0.017545806 -0.034625765 -0.03558711 -0.03538219 -0.035130925 -0.035731833
-0.034769077 -0.03368739 -0.034898147 -0.033390634 -0.014216376 -0.014522296 -0.0134387445 -0.014546868
-0.013821392 -0.013038824 -0.01361986 -0.012721794 -0.012498604 -0.06569346 -0.06488068 -0.06390697
-0.067028254 -0.066495284 -0.06438588 -0.06657585 -0.066228226 -0.06533713 -0.02429103 -0.023395717
-0.023458187 -0.024468856 -0.023447867 -0.02212266 -0.024880243 -0.023626694 -0.022734711 -0.031198787
-0.030945709 -0.029056225 -0.031229027 -0.030582234 -0.028406296 -0.030479442 -0.02942932 -0.029092038
-0.050058253 -0.051037636 -0.049613267 -0.0500422 -0.050807398 -0.049996756 -0.04950607 -0.049250197
-0.047989056 -0.15560202 -0.1546185 -0.15217541 -0.15689193 -0.15475695 -0.15272933 -0.1566708
-0.15535991 -0.15393396 -0.01988599 -0.020011991 -0.019232195 -0.01973241 -0.018964665 -0.019356022
-0.019512182 -0.019551793 -0.01915385 -0.06267886 -0.063296184 -0.062358078 -0.064548366 -0.0645378
-0.06373596 -0.063725345 -0.063415006 -0.06295124 -0.04185562 -0.0424876 -0.041554205 -0.04302067
00000000: 6d8d c3bd 5fee c3bd 078b c3bd d4c9 c4bd
00000010: fe00 c7bd b4cc c3bd 2000 c4bd 5e9b c6bd
00000020: 346d c5bd 4ec4 05bd 85c4 05bd 4868 01bd
00000030: d68a 06bd 748f 05bd 5af2 01bd 488b 0bbd
00000040: 57f9 07bd be96 01bd 588c 2fbd e19f 2ebd
00000050: 5147 2fbd fd1e 33bd 146a 2fbd 30d5 30bd
00000060: 4727 2fbd 4276 31bd 0265 30bd b389 8bbb
00000070: a6e1 8fbb dc21 89bb ca6e 6cbb 01fa 96bb
00000080: 8694 6bbb 6ef3 7ebb 6a8b 90bb 1b82 70bb
00000090: d8bd 13bd b2bf 13bd 2524 13bd c763 13bd
000000a0: a253 12bd a91f 13bd fd1c 14bd e037 13bd
000000b0: 628e 11bd a2f3 5cbc 886f 63bc 507f 5ebc
000000c0: 853e 57bc bd1e 5cbc d33c 56bc 4cde 44bc
000000d0: abf4 55bc dfaf 5fbc 457c c9bc 52e4 c2bc
000000e0: 1b4d c0bc ad58 c4bc fa05 c7bc 517d c4bc
000000f0: 6f3e bfbc 7737 cbbc 0501 c3bc 2740 81bd
00000100: c2a4 7cbd 3e35 78bd ca2e 81bd 4469 80bd
00000110: c181 7abd c4c5 7fbd 2af6 7dbd f730 7abd
00000120: 18f0 dfbc 8c0c d9bc eb41 d7bc dab6 e1bc
00000130: 1d9b dfbc 70ec dbbc 481b e1bc c8ef d9bc
00000140: 8ee8 dabc 8101 13bd de5c 13bd 6f62 0bbd
00000150: 9f40 11bd d211 16bd efa3 0fbd 48b9 13bd
00000160: 6bb6 14bd 4a00 11bd 6187 b4bc f537 b3bc
00000170: 42da adbc d9bd b5bc 1fd6 b0bc 7678 a9bc
00000180: 39f6 abbc 84e8 aabc 028b 9dbc 0829 73bc
00000190: 1f23 6bbc 3fc1 73bc 4274 74bc cbbf 74bc
000001a0: 147e 66bc ce5c 7abc 3ec1 72bc 0896 6abc
000001b0: f47d 99bc 74b6 9ebc 054f 97bc cc6a a1bc
000001c0: 896c 98bc dfdf 95bc ec0d a2bc 1e9e 9bbc
000001d0: 42b9 9bbc 282d 1abd 3eae 18bd 3a2c 15bd
000001e0: f901 14bd 3241 13bd 6f84 10bd 3300 0fbd
000001f0: bdb6 0dbd 5fce 0abd 48e3 79bd 467b 80bd
00000200: 2436 79bd fc99 7dbd b466 81bd c233 80bd
00000210: 8c8b 80bd ede0 82bd c4c6 81bd 4c08 e9bc
00000220: 9ab2 e5bc 4919 d7bc f937 ebbc dabb e2bc
00000230: c06e e1bc ea35 f1bc 3805 e9bc 17d3 e2bc
00000240: ac7c aebd d508 aebd dda0 aabd 29ab b1bd
00000250: e60b b1bd c4c7 aebd 8e3b b2bd f796 b0bd
00000260: ab14 aebd df26 4d3b 1629 1f3b 7499 2f3b
00000270: 1e7c 403b 1da5 273b 4592 393b 970f 453b
00000280: 6384 463b 6397 3c3b 74a8 8dbc a2d4 94bc
00000290: 9ecb 8dbc 3ab5 95bc 5ab9 91bc 7bc7 91bc
000002a0: e3d9 8fbc ac74 8ebc 39bc 8fbc bfd3 0dbd
000002b0: cac3 11bd eaec 10bd 72e5 0fbd 8b5b 12bd
000002c0: 056a 0ebd cafb 09bd 5cf1 0ebd 9ec4 08bd
000002d0: cdeb 68bc edee 6dbc 2e2e 5cbc fd55 6ebc
000002e0: 1f73 62bc cba0 55bc d525 5fbc 126f 50bc
000002f0: f2c6 4cbc 4b8a 86bd 29e0 84bd a8e1 82bd
00000300: 1c46 89bd ae2e 88bd bfdc 83bd eb58 88bd
00000310: aaa2 87bd 79cf 85bd fbfd c6bc 60a8 bfbc
00000320: 622b c0bc e972 c8bc be15 c0bc 953a b5bc
00000330: a7d1 cbbc c58c c1bc 253e babc 9994 ffbc
00000340: db81 fdbc 5207 eebc 04d4 ffbc 9887 fabc
00000350: 52b4 e8bc 06b0 f9bc c215 f1bc 6d52 eebc
00000360: e209 4dbd d70c 51bd 4837 4bbd 0df9 4cbd
00000370: 6b1b 50bd 66c9 4cbd e0c6 4abd 93ba 49bd
00000380: 2c90 44bd 2356 1fbe 5054 1ebe dfd3 1bbe
00000390: 47a8 20be 9b78 1ebe 1465 1cbe 4f6e 20be
000003a0: ab16 1fbe dda0 1dbe f2e7 a2bc 30f0 a3bc
000003b0: d68c 9dbc dda5 a1bc c95b 9bbc 8590 9ebc
000003c0: 03d8 9fbc 152b a0bc 89e8 9cbc c65d 80bd
000003d0: 6ea1 81bd 2f6b 7fbd ef31 84bd 652c 84bd
000003e0: 0088 82bd 6f82 82bd badf 81bd 94ec 80bd
000003f0: cc70 2bbd 7a07 2ebd be34 2abd 7136 30bd

momentum_buffer f4 [32]
-0.14667597 -0.00024096586 0.09686263 -0.22287466 -0.034132272 -0.027878622 -0.044190556 0.022286445
-0.008719687 8.425095e-05 0.016450407 -0.028532384 -0.022375321 -0.13245167 -0.13007358 0.026932526
0.30840468 0.0047605676 0.18195893 -0.048262805 0.009705848 -0.20277146 -0.0075410176 0.39213243
-0.060343716 0.008583751 -0.042040765 0.061722606 0.040183194 0.12620336 -0.041978 0.09583002
00000000: 3a32 16be c8ab 7cb9 ea5f c63d 4139 64be
00000010: 48ce 0bbd b561 e4bc 2801 35bd 1092 b63c
00000020: 05dd 0ebc e2af b038 01c3 863c bfbc e9bc
00000030: 734c b7bc 69a1 07be 0232 05be 9aa1 dc3c
00000040: 38e7 9d3e 89fe 9b3b 7153 3a3e 38af 45bd
00000050: 4705 1f3c 52a3 4fbe a41a f7bb 95c5 c83e
00000060: f92a 77bd dca2 0c3c f032 2cbd d8d0 7c3d
00000070: 2297 243d 743b 013e 20f1 2bbd 8842 c43d

momentum_buffer f4 [64, 32, 3, 3]
-0.010461252 -0.010404612 -0.010841389 -0.010252283 -0.010587208 -0.010358047 -0.009952852 -0.0107103465
-0.011053934 -0.00021108866 0.0001565035 0.0001273126 0.00021362185 0.00018201386 -0.00014914638 4.656548e-05
-0.0002761246 0.00014689611 -0.0006753266 -0.0017608218 -0.0024208855 -0.00083594775 -0.0011930953 -0.0021609347
-0.0010946109 -0.002276292 -0.0024787248 -0.01614084 -0.018101968 -0.018151395 -0.017457753 -0.017929988
-0.018605728 -0.017591253 -0.019272946 -0.019363333 -0.009454918 -0.009614808 -0.010074795 -0.009339989
-0.010303407 -0.010755562 -0.00947862 -0.01014044 -0.010935255 -0.017920198 -0.017588798 -0.018020133
-0.018117048 -0.018612249 -0.01802839 -0.018435998 -0.018874906 -0.019225484 -0.021178512 -0.021340692
-0.02177724 -0.021934995 -0.022195188 -0.02201723 -0.021841498 -0.021474464 -0.022386182 -0.016964745
-0.01659195 -0.01685809 -0.017189192 -0.01765034 -0.017102044 -0.016966332 -0.017645312 -0.017294249
-3.0449326e-05 -0.00044999318 6.402308e-05 6.477566e-05 8.46822e-05 -0.0001124456 -0.00011719827 -6.338119e-05
-0.0004660467 -0.00016590639 0.00025226088 0.00018718057 -0.00016105076 0.00038462272 5.9230733e-05 8.399088e-05
7.700861e-05 0.00028397195 0.00012642934 -0.00050361373 -0.0005777252 -5.6708814e-08 -0.00041110153 -0.00042141156
-0.00045346442 -0.00088554836 -0.00011183524 -0.005858556 -0.005961648 -0.00547248 -0.0062413258 -0.0065558297
-0.0066035422 -0.0054084053 -0.005778319 -0.0063271844 -0.013344068 -0.0129922405 -0.012343126 -0.013343311
-0.0128995385 -0.013361484 -0.013403184 -0.013643878 -0.013549627 -0.01191769 -0.011800933 -0.011222158
-0.012222939 -0.012100263 -0.012183588 -0.011486836 -0.011619343 -0.011551438 -0.006954236 -0.0073522367
-0.0068126405 -0.0071717235 -0.007957698 -0.0074668955 -0.0071271155 -0.007577734 -0.007226493 -0.0013519265
-0.00039495586 -0.00011489136 -0.0014275312 -0.0009241316 -0.00013962577 -0.0011907401 -0.0002505454 -0.0001514541
-0.0072041173 -0.0075147054 -0.007410088 -0.0072354255 -0.007591005 -0.007336721 -0.0071363803 -0.0077059316
-0.007952614 -0.00012339823 -0.000255803 0.00023121279 0.00030425427 -1.9028785e-05 6.204961e-05 0.00017515307
-3.7355727e-05 0.00014719578 -0.022561716 -0.022375444 -0.023146817 -0.02319263 -0.023584098 -0.02431088
-0.02377476 -0.023630638 -0.024621144 -0.038119882 -0.038971107 -0.039014973 -0.038852233 -0.039150935
-0.040424295 -0.03960264 -0.039967798 -0.04032755 -0.024340058 -0.024602626 -0.024430776 -0.02589715
-0.025968319 -0.025777487 -0.026074389 -0.026440326 -0.025358388 -0.010685806 -0.010750175 -0.011201849
-0.010310986 -0.01143587 -0.011183594 -0.010109242 -0.010568501 -0.011261468 -0.0017442191 -0.0016648591
-0.001287909 -0.001341982 -0.0013976251 -0.0011749573 -0.0010315487 -0.0016687955 -0.0011780432 -0.011463989
-0.011544315 -0.011490202 -0.011697785 -0.01154232 -0.011415437 -0.012110379 -0.012097159 -0.011957136
-0.039974608 -0.04130945 -0.0414568 -0.04127343 -0.042093992 -0.042226207 -0.04169656 -0.042637102
-0.042700533 -0.0018426563 -0.0020347387 -0.002599212 -0.0017582319 -0.0026358902 -0.002168392 -0.0020015158
-0.0025900514 -0.00227809 -0.0041224225 -0.0035867544 -0.0044585266 -0.004082528 -0.0044931006 -0.0045184386
-0.0036252143 -0.0047067655 -0.004167157 -0.0009074855 -0.0015112543 -0.0017714108 -0.00081040844 -0.0012538377
-0.0017135605 -0.00096146815 -0.0010927139 -0.0025389874 -0.002914363 -0.002047342 -0.0028511705 -0.003003027
00000000: ac65 2bbc 1b78 2abc 15a0 31bc 31f9 27bc
00000010: f875 2dbc ccb4 29bc 4911 23bc 737a 2fbc
00000020: 8f1b 35bc ae57 5db9 171b 2439 377f 0539
00000030: aeff 5f39 f9da 3e39 2d64 1cb9 4e4f 4338
00000040: d1c4 90b9 2008 1a39 6708 31ba 60cb e6ba
00000050: b8a7 1ebb 8123 5bba a361 9cba 789e 0dbb
00000060: 0c79 8fba d82d 15bb 1a72 22bb cb39 84bc
00000070: 944a 94bc 3cb2 94bc 9003 8fbc e9e1 92bc
00000080: 0a6b 98bc 881b 90bc 4ce2 9dbc da9f 9ebc
00000090: cde8 1abc 6d87 1dbc c110 25bc c106 19bc
000000a0: 9fcf 28bc 1938 30bc 374c 1bbc 1724 26bc
000000b0: c929 33bc 61cd 92bc 6216 90bc f59e 93bc
000000c0: 346a 94bc b778 98bc 46b0 93bc 1707 97bc
000000d0: 8c9f 9abc c37e 9dbc 8f7e adbc add2 aebc
000000e0: 2f66 b2bc 05b1 b3bc afd2 b5bc 7a5d b4bc
000000f0: f1ec b2bc 37eb afbc 3a63 b7bc a6f9 8abc
00000100: d7eb 87bc fa19 8abc 59d0 8cbc 7297 90bc
00000110: 9619 8cbc fafc 8abc e78c 90bc abac 8dbc
00000120: 6e6d ffb7 10ed ebb9 2144 8638 2bd8 8738
00000130: 6997 b138 c6d0 ebb8 58c8 f5b8 84eb 84b8
00000140: bb57 f4b9 28f7 2db9 e241 8439 e745 4439
00000150: bcdf 28b9 30a7 c939 846e 7838 4324 b038
00000160: af7f a138 12e2 9439 1e92 0439 f204 04ba
00000170: 7b72 17ba 0090 73b3 1d89 d7b9 e7f0 dcb9
00000180: f7be edb9 2524 68ba 1689 eab8 21f9 bfbb
00000190: ee59 c3bb 7d52 b3bb 0984 ccbb 49d2 d6bb
000001a0: 8762 d8bb fe38 b1bb 0e58 bdbb 4554 cfbb
000001b0: 14a1 5abc 68dd 54bc d33a 4abc e79d 5abc
000001c0: 9658 53bc 20ea 5abc 0799 5bbc 928a 5fbc
000001d0: 41ff 5dbc 6a42 43bc b358 41bc 24dd 37bc
000001e0: b942 48bc 2e40 46bc ac9d 47bc 4833 3cbc
000001f0: 0f5f 3ebc 3e42 3dbc 5ce0 e3bb 08eb f0bb
00000200: 923c dfbb c700 ebbb 0161 02bc dcac f4bb
00000210: 948a e9bb a44e f8bb 38cc ecbb 2033 b1ba
00000220: 1412 cfb9 d4f1 f0b8 001c bbba 6c41 72ba
00000230: 8268 12b9 9c12 9cba a25b 83b9 a7cf 1eb9
00000240: 8410 ecbb eb3d f6bb 53d0 f2bb 2617 edbb
00000250: f7bd f8bb e068 f0bb 4cd8 e9bb 0a82 fcbb
00000260: ae4b 02bc 7664 01b9 4c1d 86b9 b671 7239
00000270: 5184 9f39 01a0 9fb7 a120 8238 4ba9 3739
00000280: 68ae 1cb8 9158 1a39 59d3 b8bc b54c b7bc
00000290: 659e bdbc 78fe bdbc 7033 c1bc 9c27 c7bc
000002a0: 49c3 c2bc 0a95 c1bc 48b2 c9bc 9823 1cbd
000002b0: 2ba0 1fbd 2ace 1fbd 8523 1fbd bb5c 20bd
000002c0: f293 25bd 6136 22bd 46b5 23bd 802e 25bd
000002d0: cd64 c7bc 728b c9bc 0d23 c8bc 4326 d4bc
000002e0: 83bb d4bc 4f2b d3bc f599 d5bc 6299 d8bc
000002f0: 65bc cfbc 8513 2fbc 8121 30bc f687 37bc
00000300: 69ef 28bc 845d 3bbc 653b 37bc 3ca1 25bc
00000310: 8227 2dbc 0582 38bc 489e e4ba 6737 daba
00000320: 0ecf a8ba 72e5 afba 8430 b7ba 0601 9aba
00000330: 0835 87ba 7cbb daba 9268 9aba 74d3 3bbc
00000340: 5e24 3dbc 6641 3cbc 11a8 3fbc 001c 3dbc
00000350: d007 3bbc 9c6a 46bc 2a33 46bc dde7 43bc
00000360: 6abc 23bd 1934 29bd 9bce 29bd 540e 29bd
00000370: c06a 2cbd 63f5 2cbd 03ca 2abd 3ea4 2ebd
00000380: c1e6 2ebd 4985 f1ba 4059 05bb 8b57 2abb
00000390: 7974 e6ba e6be 2cbb 951b 0ebb dd2b 03bb
000003a0: dabd 29bb 024c 15bb 6315 87bb c10f 6bbb
000003b0: d518 92bb bac6 85bb dc3a 93bb 690f 94bb
000003c0: 0195 6dbb 363b 9abb a68c 88bb 52e4 6dba
000003d0: 4815 c6ba af2e e8ba 9771 54ba d057 a4ba
000003e0: 8d99 e0ba 090b 7cba 6539 8fba 2465 26bb
000003f0: e6fe 3ebb b32c 06bb b4da 3abb 6fce 44bb

momentum_buffer f4 [64]
-0.027704349 0.0042986204 -0.072231844 -0.081527606 2.0988806e-05 -0.00016637739 -0.025591144 -0.01884173
-4.0995226e-05 0.08328473 -0.017326731 -0.011897575 0.00023593643 -0.0017017548 -0.00027069318 -0.009915034
-0.03724065 0.028276391 -0.00025184365 0.04737057 -0.024656516 -0.004563524 -0.00850524 0.022282764
0.05127718 0.003103246 -0.09740008 0.0050864057 0.013448688 0.015138913 -0.0023219904 0.00025958213
0.024749093 0.013464651 0.021033118 -0.0003634342 -0.01234987 -0.00018199472 0.070434965 0.0125124585
0.027618432 -0.001298054 0.0050494154 -0.0031191118 0.03207661 -0.0017307954 0.057242565 0.028806644
-0.02272528 -0.0035613119 0.000350173 -0.040373705 0.09360766 -0.008816578 0.089808635 -0.04286943
0.006360565 -0.08387406 0.00030882933 0.0056496942 0.01968976 0.009803072 -0.010582193 0.054841872
00000000: 3bf4 e2bc 71db 8c3b 4aee 93bd f2f7 a6bd
00000010: 1e11 b037 9775 2eb9 85a4 d1bc f959 9abc
00000020: 4af2 2bb8 2f91 aa3d caf0 8dbc 0cee 42bc
00000030: b465 7739 6a0d dfba d3eb 8db9 ab72 22bc
00000040: a789 18bd e4a3 e73c e209 84b9 a507 423d
00000050: 76fc c9bc 9d89 95bb 9059 0bbc 588a b63c
00000060: 0508 523d d45f 4b3b b179 c7bd ddab a63b
00000070: e357 5c3c 3409 783c 892c 18bb 8618 8839
00000080: 9cbe ca3c d79a 5c3c a54d ac3c 508b beb9
00000090: 1c57 4abc d6d5 3eb9 3540 903d 0e01 4d3c
000000a0: 0d40 e23c 7723 aaba 9175 a53b 036a 4cbb
000000b0: c362 033d dbdb e2ba 2e77 6a3d e9fb eb3c
000000c0: 5e2a babc e664 69bb 6d97 b739 e65e 25bd
000000d0: 5fb5 bf3d 6973 10bc 97ed b73d db97 2fbd
000000e0: 496c d03b 2ac6 abbd 5fea a139 1221 b93b
000000f0: 6b4c a13c 109d 203c ef60 2dbc dfa1 603d

momentum_buffer f4 [64, 64, 3, 3]
-0.0020495635 -0.0021019983 -0.0018112422 -0.0017757579 -0.0021040891 -0.002207009 -0.0014532709 -0.002256915
-0.0022914258 -0.00045635697 -0.00023779934 -0.00023799464 -0.000280773 -0.00029898924 -0.000605412 -1.1583921e-05
-0.00032809033 -0.0003438485 -0.009777958 -0.010163158 -0.009332007 -0.009585405 -0.01038601 -0.010070717
-0.010106977 -0.009925199 -0.010005087 -0.0071235234 -0.00791809 -0.0073217484 -0.007390566 -0.0071982793
-0.007127488 -0.0067076557 -0.007045294 -0.00734864 -7.368921e-05 0.00060031627 -9.20928e-06 -0.00034321658
4.909949e-07 -0.00035254052 4.406999e-05 -0.0001127556 0.00038958012 3.2759635e-05 4.58008e-06 -6.2972096e-05
0.00020908914 0.0002392374 0.00013467745 -0.0003254149 -0.00045774976 -0.00024915845 -0.0051840823 -0.006113035
-0.0053312415 -0.0058408626 -0.0058372016 -0.005695046 -0.005682704 -0.0056388746 -0.0057675745 -0.0022700352
-0.0025264244 -0.0027606303 -0.0021640495 -0.002835582 -0.0026810768 -0.0030796407 -0.0028178843 -0.00220023
-0.0024138466 -0.002224365 -0.002509956 -0.0024823856 -0.0024155825 -0.002125098 -0.0027110684 -0.0020217616
-0.002037662 -0.002355709 -0.0023945244 -0.0022751961 -0.0019893316 -0.0025934363 -0.0019375217 -0.0018709376
-0.0018357548 -0.0028828739 -0.0031329317 -0.0028127797 -0.0032811174 -0.0031713091 -0.003158442 -0.0034659982
-0.003520408 -0.003128672 -0.003509926 -0.0023923246 -0.0021376798 -0.0024847968 -0.002651435 -0.003003326
-0.0025896996 -0.0023238605 -0.0027475527 -0.0026184348 -0.0007033197 -0.00018744024 -0.0002772514 -0.00045386056
-5.2281306e-05 -0.00021389396 0.00033030644 -4.2387677e-05 -0.0003810381 9.3185765e-05 -0.00038304622 0.00027292097
-3.5003777e-05 -0.00013492306 -0.00027824513 -0.0004161026 -8.9965244e-05 -6.434685e-05 0.00046679744 0.00020013787
-0.00014562822 -0.0003340421 -0.00012011233 -0.00019208179 0.00011888862 0.00088661874 -0.0002783491 -0.001093931
-0.0017213845 -0.0015346431 -0.0015231349 -0.0020234264 -0.0018169763 -0.0013444771 -0.0018060813 -0.0013541067
-0.0040357946 -0.0042872555 -0.004434437 -0.0037935614 -0.004661873 -0.0039916323 -0.004513046 -0.0042938855
-0.0047364533 -0.0009968304 -0.0009961006 -0.000977925 -0.0008870529 -0.0010026105 -0.000708915 -0.0006631935
-0.0015362375 -0.0009793954 -7.74921e-05 -0.0007432146 -0.00016017062 -5.3509274e-07 -0.00013093451 1.0711361e-05
-0.00033429096 0.0003620449 0.00015166911 -0.0018848529 -0.0019202837 -0.0018546227 -0.0016808233 -0.0021278805
-0.0017381356 -0.0017709224 -0.0019073137 -0.0021887422 -0.0025833738 -0.0024692162 -0.0030774346 -0.0031329547
-0.003110569 -0.003003856 -0.002881428 -0.0029113553 -0.002829529 -0.00031936058 -0.0005701986 -0.00018096995
-0.0006198216 -0.00051889673 -0.00051487994 -0.00025439935 -0.0006453101 -0.00016331692 -0.0028433283 -0.0028672968
-0.002942925 -0.0033560034 -0.0031708663 -0.0033176302 -0.0030389575 -0.0034348576 -0.0030528517 -0.0026438728
-0.002635818 -0.0028686468 -0.0023577844 -0.0022548852 -0.0026799368 -0.0021090975 -0.0026952534 -0.0026429216
-0.0036503153 -0.00358609 -0.0038296208 -0.0037317483 -0.0037656268 -0.0036488734 -0.003654303 -0.004246513
-0.004036871 -0.00056138705 -0.000673371 -0.00029411103 -0.00015294921 -0.0005614216 0.00023399257 -0.0002118581
0.00010928778 -0.00020233542 -0.0066888547 -0.00711654 -0.0067883637 -0.0067349114 -0.006777338 -0.007115967
-0.0066244025 -0.0068276995 -0.007386851 -0.00032762962 -0.00042110856 -0.00047547888 -0.00068375265 -0.0003013393
-0.0005371527 -0.0005618335 -0.00034659522 -0.0007349051 -0.0008541064 -0.0003610386 -0.0007170888 -0.00070276693
00000000: f851 06bb aec1 09bb 3467 edba 8cc0 e8ba
00000010: c2e4 09bb 77a3 10bb ae7b beba c0e8 13bb
00000020: bf2b 16bb 3243 efb9 c659 79b9 338e 79b9
00000030: b734 93b9 a8c1 9cb9 83b4 1eba 9058 42b7
00000040: 8a03 acb9 9046 b4b9 ba33 20bc 6083 26bc
00000050: 46e5 18bc 1a0c 1dbc 152a 2abc a6ff 24bc
00000060: bc97 25bc 4d9d 22bc 60ec 23bc 726c e9bb
00000070: e0ba 01bc 47eb efbb 902c f2bb 8bdf ebbb
00000080: b48d e9bb e5cb dbbb 36dc e6bb dccc f0bb
00000090: 9889 9ab8 8b5e 1d3a 8e81 1ab7 c0f1 b3b9
000000a0: eacc 0335 30d5 b8b9 cbd7 3838 3477 ecb8
000000b0: 8f40 cc39 6467 0938 96ae 9936 e30f 84b8
000000c0: f03e 5b39 cddb 7a39 3438 0d39 739c aab9
000000d0: 22fe efb9 7ba1 82b9 3cdf a9bb db4f c8bb
000000e0: b2b1 aebb b564 bfbb ff45 bfbb 829d babb
000000f0: fa35 babb 4fc6 b8bb ecfd bcbb dfc4 14bb
00000100: 5e92 25bb b1eb 34bb bad2 0dbb 2cd5 39bb
00000110: 01b5 2fbb ccd3 49bb 41ac 38bb bc31 10bb
00000120: a031 1ebb a7c6 11bb 137e 24bb 85af 22bb
00000130: c04e 1ebb 3a45 0bbb 2eac 31bb 887f 04bb
00000140: 4c8a 05bb 3d62 1abb 74ed 1cbb 751b 15bb
00000150: 725f 02bb a4f6 29bb 71f4 fdba 403a f5ba
00000160: b69d f0ba 99ee 3cbb df51 4dbb 9d56 38bb
00000170: 0408 57bb bdd5 4fbb ddfd 4ebb cd25 63bb
00000180: a5b6 66bb 680a 4dbb c906 66bb 8cc8 1cbb
00000190: 5118 0cbb f9d7 22bb b3c3 2dbb 73d3 44bb
000001a0: f3b7 29bb e94b 18bb 4910 34bb 0c9a 2bbb
000001b0: fc5e 38ba 9b8b 44b9 0e5c 91b9 22f4 edb9
000001c0: a048 5bb8 b948 60b9 fb2c ad39 6cc9 31b8
000001d0: 11c6 c7b9 ba6c c338 98d3 c8b9 d516 8f39
000001e0: 05d1 12b8 227a 0db9 6ee1 91b9 5828 dab9
000001f0: b9ab bcb8 f4f1 86b8 7ebc f439 1adc 5139
00000200: c7b3 18b9 5f22 afb9 d1e4 fbb8 9069 49b9
00000210: d853 f938 fa6b 683a 62ef 91b9 3c62 8fba
00000220: 14a0 e1ba 1426 c9ba eda3 c7ba 769b 04bb
00000230: 9c27 eeba 2a39 b0ba 08ba ecba 487c b1ba
00000240: b33e 84bb 1b7c 8cbb c14e 91bb 669d 78bb
00000250: a0c2 98bb 3dcc 82bb 2ce2 93bb b9b3 8cbb
00000260: 4034 9bbb 14a8 82ba 978f 82ba b82d 80ba
00000270: 1d89 68ba 076a 83ba 7bd6 39ba 2ada 2dba
00000280: 945b c9ba 0e5f 80ba 4183 a2b8 4ad4 42ba
00000290: 79f3 27b9 4ba3 0fb5 774b 09b9 f2b4 3337
000002a0: c643 afb9 d8d0 bd39 5e09 1f39 2b0d f7ba
000002b0: 07b2 fbba d016 f3ba 124f dcba e973 0bbb
000002c0: 27d2 e3ba 4c1e e8ba d4fe f9ba 0071 0fbb
000002d0: d24d 29bb 93d2 21bb c9ae 49bb 4252 4dbb
000002e0: b0da 4bbb 57dc 44bb 57d6 3cbb 70cc 3ebb
000002f0: 9f6f 39bb da6f a7b9 6179 15ba c0c2 3db9
00000300: 867b 22ba 9206 08ba 02f9 06ba e760 85b9
00000310: 072a 29ba 0d40 2bb9 2257 3abb 42e9 3bbb
00000320: 17de 40bb 65f0 5bbb 4fce 4fbb 996c 59bb
00000330: 3f29 47bb 591b 61bb 5a12 48bb d344 2dbb
00000340: b0bd 2cbb e8ff 3bbb 0f85 1abb b2c6 13bb
00000350: e1a1 2fbb c938 0abb d9a2 30bb de34 2dbb
00000360: 213a 6fbb 9b04 6bbb 60fa 7abb 5990 74bb
00000370: bcc8 76bb f021 6fbb 087d 6fbb 5526 8bbb
00000380: ba47 84bb 0c2a 13ba 2a85 30ba ea32 9ab9
00000390: fe60 20b9 5e2c 13ba e75b 7539 3a26 5eb9
000003a0: 6e31 e538 002a 54b9 2e2e dbbb dd31 e9bb
000003b0: ec70 debb 88b0 dcbb 6f14 debb 0f2d e9bb
000003c0: 8411 d9bb e5ba dfbb 660d f2bb b4c5 abb9
000003d0: 3cc8 dcb9 b249 f9b9 dd3d 33ba 14fd 9db9
000003e0: b5cf 0cba 0248 13ba 39b7 b5b9 a5a6 40ba
000003f0: 1ce6 5fba c849 bdb9 04fb 3bba e439 38ba

momentum_buffer f4 [64]
-0.007082438 -0.022824604 -0.004376404 0.02900142 -0.026411192 0.0059274663 0.0049732975 -0.00476327
0.006523608 0.0021250783 -0.012035175 0.012212009 -0.00375375 -0.016293518 -9.428161e-05 -0.004751209
0.023746852 2.1611599e-05 0.00052126957 0.00023765488 0.01703538 0.00012875734 -0.03811623 -0.016705843
0.0120519055 -0.013665398 -0.002974196 0.0059026266 0.003005779 0.0035306602 0.002821765 0.00303939
0.013192457 0.00029151255 0.010609682 -0.000111666894 7.821084e-05 -0.00018162101 -0.02266109 0.00092223764
0.010706316 0.004694123 0.021134103 -0.000112608795 0.021164026 -0.0039790347 -0.002782005 0.029853087
0.018304802 -0.00895403 0.009094189 0.014669833 -0.00036034276 -0.00013751982 -0.00018443081 0.00018909397
-0.0001070112 -0.024523128 0.0006152719 0.0013957901 0.004579328 0.039046507 -0.00015720646 -0.00038227657
00000000: cc13 e8bb aafa babc f067 8fbb 6394 ed3c
00000010: 495c d8bc 313b c23b 0bf7 a23b 3415 9cbb
00000020: fec3 d53b e644 0b3b 2f2f 45bc e114 483c
00000030: 7901 76bb fc79 85bc 0eb9 c5b8 08b0 9bbb
00000040: c288 c23c 8e4a b537 cfa5 083a ff32 7939
00000050: c88d 8b3c 0903 0739 c41f 1cbd b1da 88bc
00000060: 5b75 453c d5e4 5fbc bbea 42bb d26a c13b
00000070: 9bfc 443b a662 673b 5ced 383b 8130 473b
00000080: 2d25 583c 27d6 9839 3bd4 2d3c b52e eab8
00000090: 2005 a438 8571 3eb9 c0a3 b9bc 52c2 713a
000000a0: 8b69 2f3c 28d1 993b 6d21 ad3c 6328 ecb8
000000b0: 2e60 ad3c 9062 82bb 4c52 36bb 768e f43c
000000c0: f4f3 953c edb3 12bc cbff 143c bd59 703c
000000d0: 63ec bcb9 3233 10b9 c563 41b9 8747 4639
000000e0: 336b e0b8 bae4 c8bc 334a 213a f2f2 b63a
000000f0: 300e 963b 3bef 1f3d cad7 24b9 4b6c c8b9

momentum_buffer f4 [1, 64]
0.050381668 0.21678264 0.013459802 0.056395955 0.24516806 0.014808492 0.06527189 0.061984077
0.03450323 0.0030790307 0.082013324 0.034408636 0.036611043 0.17042679 0.000370952 0.033221994
0.0644781 -0.00027093044 0.010112535 0.0019515293 0.032544192 0.0005435952 0.30497295 0.11979813
0.046283804 0.17994711 0.010113738 0.013328563 0.038994435 0.009235179 0.036782257 0.007436794
0.040771324 0.0009813929 0.030001268 0.036386847 0.0007235049 -0.00046324648 0.20947239 0.003550852
0.03164498 0.009964195 0.04170639 0.00041664872 0.05187657 0.0321296 0.01953426 0.08233003
0.042510968 0.084250525 0.044223405 0.03392418 0.0017980488 0.0004161118 0.00016021352 0.0056507187
-0.0004816702 0.16006528 0.0017634653 0.0036885382 0.08964679 0.115221396 -0.00025466183 0.0014785487
00000000: 025d 4e3d 45fc 5d3e 8086 5c3c 72ff 663d
00000010: 560d 7b3e 519f 723c 45ad 853d 04e3 7d3d
00000020: 4253 0d3d 90c9 493b 9af6 a73d 12f0 0c3d
00000030: 76f5 153d 5c84 2e3e 567c c239 c913 083d
00000040: 180d 843d ab0b 8eb9 0caf 253c 75ca ff3a
00000050: 0f4d 053d 0e80 0e3a 6a25 9c3e b958 f53d
00000060: 1694 3d3d 0e44 383e 17b4 253c 0c60 5a3c
00000070: a1b8 1f3d 264f 173c fea8 163d 5ab0 f33b
00000080: d5ff 263d 15a2 803a 38c5 f53c 600a 153d
00000090: 98a9 3d3a e4df f2b9 ee7f 563e 69b5 683b
000000a0: 2b9e 013d dd40 233c 52d4 2a3d a571 da39
000000b0: 877c 543d 549a 033d 5006 a03c a69c a83d
000000c0: fb1f 2e3d 8a8b ac3d 9a23 353d 15f4 0a3d
000000d0: 82ac eb3a 9529 da39 fdfe 2739 aa29 b93b
000000e0: ae88 fcb9 27e8 233e 1424 e73a 67bb 713b
000000f0: bc98 b73d 32f9 eb3d 2284 85b9 ddcb c13a

bn0.weight f4 [3]
1.1257688 1.0430317 1.0761749
00000000: 3119 903f 1082 853f 19c0 893f

bn0.bias f4 [3]
0.12449133 -0.056746546 0.13434537
00000000: 4ff5 fe3d 116f 68bd d591 093e

bn0.running_mean f4 [3]
0.4850255 0.4463689 0.40621284
00000000: 4355 f83e 778a e43e 21fb cf3e

bn0.running_var f4 [3]
0.06561088 0.061007652 0.060977504
00000000: ff5e 863d 29e3 793d 8cc3 793d

conv1.weight f4 [32, 3, 5, 5]
-0.024580412 -0.015159924 0.03498164 -0.02968775 -0.049022157 -0.01241745 -0.024575204 0.027357012
0.052093197 -0.010927998 0.08072701 -0.042034864 0.0142706465 -0.016841412 0.03749138 0.0010912828
-0.03308832 -0.030934237 -0.025739051 -0.06577905 -0.042543452 0.08399024 0.0010235267 0.019285949
-0.015055463 0.035882518 0.035320796 -0.06629135 -0.04724141 -0.0007260089 -0.088814415 0.11433953
0.01754019 -0.0348785 -0.007290851 0.006575157 0.0016569006 0.07197495 0.0020641463 0.007602972
0.07440521 -0.014496714 0.037128214 -0.0876489 -0.010464288 0.01978234 0.043335192 -0.010268343
-0.062318407 0.08358332 -0.031802375 -0.0303878 -0.024368938 -0.028384263 0.010233026 0.10182679
-0.0065556658 0.053405136 0.046870045 0.01148761 0.06744411 0.14184311 -0.0023612487 -0.03947544
0.07426928 0.0519325 0.011536147 0.05766078 -0.020628363 -0.004230421 0.06844113 0.09728678
0.08362643 0.027697105 0.08595207 -0.03040431 0.006993849 0.05720236 -0.05508814 0.039145127
-0.054349348 0.0008186609 -0.029820288 -1.2247899e-05 0.10143648 -0.06801606 -0.026448447 0.022144305
0.057595223 0.03958745 -0.1145378 -0.02064595 0.034607418 0.051135387 0.0638977 -0.013521976
-0.09673528 -0.05719646 -0.022455866 0.10691026 -0.0051900973 -0.015540064 -0.025359506 -0.0049823923
0.012635245 0.013855803 0.037182722 -0.05484344 -0.0032572418 -0.0012964611 -0.07578936 -0.027746283
0.027843645 -0.0054286667 0.01683255 -0.048941206 -0.0087001175 0.022216091 0.03527487 -0.028640984
-0.06901638 -0.049577672 -0.035035904 0.08055804 0.015738329 0.04954856 -0.13310541 0.033533808
0.06323681 0.050910518 -0.0064689415 -0.040676087 -0.08590328 0.04064776 0.045342278 -0.015224133
-0.027131636 -0.06924133 0.06736997 0.14230742 -0.123022616 0.0046373545 0.036551002 0.01723673
0.005036217 -0.01633588 0.028171124 0.10955273 0.12239642 -0.039874576 -0.0013997791 -0.047098283
0.022813397 -0.07336525 -0.0068989685 -0.065198675 -0.04481434 0.0299345 0.067860104 0.021417353
-0.041747596 0.006632819 -0.038368948 0.08469293 -0.018239353 0.021703979 0.07543838 -0.024175514
0.06188792 0.024643736 -0.035522956 0.02410291 -0.021484323 -0.0047554253 0.044126358 -0.015212017
0.04151588 -0.0770961 -0.00073893694 0.0188629 0.08531495 -0.030145492 -0.010579108 0.06656083
0.0050533595 -0.06253464 -0.0037354906 0.01659988 0.01324262 -0.03574357 0.09931871 -0.008215441
-0.015208904 -0.06463662 -0.0045472477 -0.02215267 -0.017343057 0.049776684 -0.0058838637 0.05688957
0.084726095 -0.060379907 -0.03001932 -0.038964055 0.097669765 0.032414496 -0.012587182 0.049174022
-0.0015692853 0.04364146 -0.06174512 -0.016221806 0.12736905 -0.007109336 0.037888058 0.030673504
0.087379165 -0.0088930195 -0.034565926 0.0042663864 -0.00048712894 -0.021913642 -0.06629206 0.042428426
0.0030569823 0.02948684 -0.027261315 -0.019502047 -0.006976103 -0.05513048 0.020762933 0.06625524
-0.08403156 -0.046819538 -0.058235034 -0.041931283 -0.026411517 -0.04895303 0.017964374 0.027473165
0.055813316 -0.0032137793 -0.008730684 0.027778486 0.07931572 -0.017721795 -0.0334516 -0.032442585
-0.10365827 0.18958531 -0.030957421 -0.031428 0.0039162026 0.01656301 0.01652519 0.07746926
00000000: dc5c c9bc 5461 78bc e848 0f3d b933 f3bc
00000010: 75cb 48bd 8f72 4bbc f051 c9bc d01b e03c
00000020: ad5f 553d 590b 33bc 3454 a53d c02c 2cbd
00000030: 6ecf 693c 00f7 89bc 9090 193d 6009 8f3a
00000040: 9e87 07bd cc69 fdbc b4da d2bc 2bb7 86bd
00000050: 0b42 2ebd 1303 ac3d db27 863a 91fd 9d3c
00000060: 30ab 76bc 8cf9 123d 8aac 103d c2c3 87bd
00000070: 3580 41bd a251 3eba 55e4 b5bd d82a ea3d
00000080: 72b0 8f3c c2dc 0ebd 17e8 eebb 6a74 d73b
00000090: 5c2c d93a 9a67 933d a146 073b 5a22 f93b
000000a0: c261 983d a083 6dbc c113 183d 4481 b3bd
000000b0: 6872 2bbc 930e a23c 3e80 313d 8d3c 28bc
000000c0: 9641 7fbd bb2d ab3d 3543 02bd d6ef f8bc
000000d0: 5ea1 c7bc 1d86 e8bc 6ca8 273c 908a d03d
000000e0: e9d0 d6bb 58bf 5a3d cefa 3f3d 8736 3c3c
000000f0: 2320 8a3d 523f 113e 2ebf 1abb 00b1 21bd
00000100: 7e1a 983d 2cb7 543d 1c02 3d3c b62d 6c3d
00000110: d0fc a8bc 589f 8abb dd2a 8c3d 4b3e c73d
00000120: 5544 ab3d 0ae5 e23c a407 b03d 7612 f9bc
00000130: a82c e53b 064d 6a3d 1aa4 61bd a456 203d
00000140: 6c9d 5ebd 679b 563a ad49 f4bc 537c 4db7
00000150: eebd cf3d 014c 8bbd 6aaa d8bc f967 b53c
00000160: f8e8 6b3d 7326 223d cb92 eabd b221 a9bc
00000170: 82c0 0d3d 5773 513d ccdc 823d 478b 5dbc
00000180: 251d c6bd d646 6abd 5df5 b7bc c4f3 da3d
00000190: b111 aabb c19b 7ebc bdbe cfbc 5643 a3bb
000001a0: 0f04 4f3c 7303 633c e94c 183d 84a3 60bd
000001b0: 7377 55bb 04ee a9ba 7437 9bbd 2c4c e3bc
000001c0: 5b18 e43c f5e2 b1bb 6ae4 893c 9376 48bd
000001d0: f08a 0ebc 85fe b53c 627c 103d 7fa0 eabc
000001e0: 7658 8dbd f511 4bbd cf81 0fbd 9dfb a43d
000001f0: abed 803c 6ef3 4a3d c94c 08be bf5a 093d
00000200: 4d82 813d 8c87 503d 6af9 d3bb f89b 26bd
00000210: 0fee afbd 447e 263d d3b8 393d a46e 79bc
00000220: 2a43 debc 66ce 8dbd 44f9 893d 09b9 113e
00000230: 48f3 fbbd f3f4 973b 81b6 153d 0b34 8d3c
00000240: da06 a53b d3d2 85bc 21c7 e63c 2f5d e03d
00000250: f9aa fa3d 8653 23bd cb78 b7ba 21ea 40bd
00000260: 29e3 ba3c 8540 96bd be10 e2bb e286 85bd
00000270: 3e8f 37bd 3239 f53c 3dfa 8a3d 7273 af3c
00000280: 87ff 2abd 1e58 d93b c228 1dbd 7d73 ad3d
00000290: b26a 95bc 8bcc b13c 707f 9a3d ba0b c6bc
000002a0: 307e 7d3d a9e1 c93c 8580 11bd 7773 c53c
000002b0: e4ff afbc 66d3 9bbb d7bd 343d d33b 79bc
000002c0: 8e0c 2a3d 8fe4 9dbd 38b5 41ba 5e86 9a3c
000002d0: 9bb9 ae3d aef3 f6bc ff53 2dbc 0b51 883d
000002e0: a796 a53b 2912 80bd 22cf 74bb 79fc 873c
000002f0: 93f7 583c da67 12bd 9c67 cb3d 0f9a 06bc
00000300: c42e 79bc 3460 84bd 1401 95bb 8479 b5bc
00000310: 0713 8ebc a3e2 4b3d 6dcd c0bb 0a05 693d
00000320: e084 ad3d ec50 77bd 14eb f5bc c698 1fbd
00000330: 1607 c83d 10c5 043d 783a 4ebc b36a 493d
00000340: 7ab0 cdba 63c1 323d 73e8 7cbd 98e3 84bc
00000350: 086d 023e 6ff5 e8bb 8230 1b3d 0047 fb3c
00000360: d9f3 b23d 07b4 11bc 0095 0dbd 0bcd 8b3b
00000370: 5765 ffb9 3d84 b3bc 22c4 87bd 6ec9 2d3d
00000380: a757 483b 638e f13c 1f53 dfbc c2c2 9fbc
00000390: cb97 e4bb 80d0 61bd 0717 aa3c d4b0 873d
000003a0: bd18 acbd d8c5 3fbd dc87 6ebd 23c0 2bbd
000003b0: f75c d8bc f982 48bd 062a 933c 670f e13c
000003c0: 819c 643d 459e 52bb 250b 0fbc b58f e33c
000003d0: 4870 a23d 4c2d 91bc 8b04 09bd 84e2 04bd
000003e0: c94a d4bd a722 423e 6b9a fdbc a6ba 00bd
000003f0: 7d53 803b 26af 873c d65f 873c 34a8 9e3d

conv1.bias f4 [32]
0.102661274 0.0036531666 -0.027301045 -0.041707963 0.008000847 -0.082430646 0.061877813 -0.024012858
-0.01365659 0.11946038 -0.08732489 -0.11951553 -0.10472403 -0.042604577 -0.0105436575 0.048932288
0.08223484 -0.0039976793 -0.060822252 0.08025439 -0.07778921 -0.108935185 -0.101182885 -0.105780266
0.07613301 0.0282633 -0.07411297 0.043301545 0.019985842 0.09213234 -0.019175872 0.08967487
00000000: 1340 d23d f769 6f3b 71a6 dfbc f8d5 2abd
00000010: fc15 033c 66d1 a8bd 9773 7d3d 9db6 c4bc
00000020: e4bf 5fbc a5a7 f43d 64d7 b2bd 8fc4 f4bd
00000030: 8d79 d6bd 2382 2ebd 4ebf 2cbc 396d 483d
00000040: bd6a a83d f7fe 82bb c120 79bd 6a5c a43d
00000050: f34f 9fbd 6919 dfbd f938 cfbd 53a3 d8bd
00000060: a0eb 9b3d 7088 e73c 8ac8 97bd f65c 313d
00000070: 59b9 a33c e1af bc3d b816 9dbc 75a7 b73d

conv2.weight f4 [32, 32, 3, 3]
0.077116996 0.050363056 -0.19342251 0.03885217 -0.069595754 0.033022776 0.07308644 0.041471824
0.05075603 -0.068814725 -0.060543608 0.023752635 0.0064652367 0.0191248 -0.09917827 -0.19001
-0.045619063 -0.11788463 0.02430328 0.014179984 -0.03813974 -0.1185912 0.022767223 -0.08091167
0.07210546 -0.045843683 -0.05892542 0.02357661 -0.03289482 -0.013570934 0.13484035 -0.0690561
0.10840617 0.040495563 -0.077314034 0.07991147 -0.01381106 -0.003875488 0.04968853 -0.003809722
0.027998392 0.0115456 -0.049074776 -0.046290558 0.006405407 -0.013858736 -0.0151176695 0.03632852
-0.046586264 -0.064966545 0.04233259 0.140588 -0.07284341 -0.17499506 -0.1920225 -0.005855474
0.025968384 0.009373314 -0.055814594 -0.044979323 0.15327501 -0.15084834 0.04253901 -0.02680304
0.07144145 0.12787683 -0.013983144 0.014788305 0.13249704 -0.0462426 0.06914713 0.14167564
-0.083246626 0.08351141 0.029279146 -0.007930861 0.055768333 0.102307506 -0.09156775 0.08303454
0.025620017 0.009989412 0.07591949 0.14778836 0.18284419 0.015891604 0.053728208 0.021929407
0.027695425 -0.07957982 0.046921052 0.07830524 -0.033864334 -0.08534579 -0.0025946763 -0.04106577
-0.006457596 -0.0059320237 0.14838348 -0.03689668 0.015375617 -0.17600755 0.051978096 -0.015800577
0.05334781 0.017344369 0.045861978 0.035141844 0.113855705 -0.08402177 0.069387704 -0.024676522
0.095434755 0.037473395 -0.052728653 -0.0012804312 -0.19556363 -0.04182615 0.0004921756 -0.013082927
0.024497438 -0.019242698 -0.057868768 -0.09190024 -0.0841442 -0.062038045 -0.01062617 -0.14582732
0.12753016 0.14129207 0.091942854 0.057841413 0.07919668 0.037713226 -0.025414629 -0.022084033
0.027417138 0.05582095 -0.036368415 0.13287942 -0.077761486 -0.21064521 -0.07308632 -0.15694137
-0.00094441074 0.07523788 0.063222446 0.07066694 0.12982833 -0.06291215 -0.022357594 0.0790933
-0.052761927 0.01868267 -0.11032121 -0.028734576 -0.078156464 -0.13321471 -0.052663367 -0.079583116
-0.06829724 -0.06399793 0.037104975 -0.094355196 -0.012337885 -0.061387982 0.06305989 -0.018109806
0.0017428389 0.041477036 -0.08765394 -0.03320193 -0.080111355 -0.1610097 -0.11585162 -0.08916256
-0.026689362 0.03611402 -0.07290557 0.10282453 -0.036576558 -0.023842473 -0.031517163 -0.17725256
0.05597071 0.005705826 -0.046020888 0.18273467 0.06299133 0.13159166 0.094409294 0.1257693
-0.04497568 -0.103577256 0.13945714 0.04818991 0.018775953 0.013893261 -0.09166033 -0.035358
-0.10008925 -0.059044346 0.015159367 0.11737667 -0.12953301 0.013286733 -0.0012378129 0.04293775
0.033964302 -0.021693954 -0.15925765 -0.002048315 0.08627493 -0.16387978 0.041833874 -0.14553784
0.08324203 -0.046316423 0.100621484 0.11059689 -0.046427786 -0.017502647 -0.054611187 -0.027611226
0.08646169 0.050375942 -0.16921286 0.11675967 -0.053115543 -0.028087342 0.12992094 -0.05011243
-0.030891908 -0.021978524 -0.0003367836 0.017532932 0.08068801 0.023296306 0.1883923 0.017851194
-0.06811969 -0.06951035 -0.06804522 0.0066425125 -0.08249652 -0.06529943 -0.039617512 -0.009914832
-0.049523544 0.17352574 0.22954845 0.11633317 0.14204781 0.010763459 0.110981025 0.07016272
00000000: 84ef 9d3d 7e49 4e3d 8d10 46be 7423 1f3d
00000010: 3888 8ebd e442 073d 58ae 953d 5cde 293d
00000020: 8ee5 4f3d bcee 8cbd 93fc 77bd e394 c23c
00000030: 56da d33b 9dab 9c3c fa1d cbbd fb91 42be
00000040: 0edb 3abd 7f6d f1bd ac17 c73c 2a53 683c
00000050: 6a38 1cbd f1df f2bd 5482 ba3c 05b5 a5bd
00000060: 07ac 933d 96c6 3bbd c85b 71bd bc23 c13c
00000070: b8bc 06bd 9f58 5ebc 9713 0a3e 496d 8dbd
00000080: 0e04 de3d adde 253d d256 9ebd a0a8 a33d
00000090: c947 62bc e6fb 7dbb 3386 4b3d 87ac 79bb
000000a0: e25c e53c c229 3d3c a202 49bd 2b9b 3dbd
000000b0: 73e4 d13b c00f 63bc 1ab0 77bc 37cd 143d
000000c0: 3dd1 3ebd 2e0d 85bd f064 2d3d 4df6 0f3e
000000d0: ed2e 95bd e831 33be 8ca1 44be 47df bfbb
000000e0: a6bb d43c 8792 193c d89d 64bd 3d3c 38bd
000000f0: 20f4 1c3e fd77 1abe 633d 2e3d 0d92 dbbc
00000100: e54f 923d 25f2 023e 8f19 65bc a64a 723c
00000110: 4ead 073e e168 3dbd 039d 8d3d 6b13 113e
00000120: 357d aabd 0808 ab3d d2da ef3c 71f0 01bc
00000130: 566d 643d 9986 d13d df87 bbbd 030e aa3d
00000140: 12e1 d13c a1aa 233c ad7b 9b3d d555 173e
00000150: 823b 3b3e 1c2f 823c 1c12 5c3d 4da5 b33c
00000160: 84e1 e23c bffa a2bd 4a30 403d 7f5e a03d
00000170: 54b5 0abd c6c9 aebd 720b 2abb 9534 28bd
00000180: 3e9a d3bb 6c61 c2bb d7f1 173e f920 17bd
00000190: 03ea 7b3c 533b 34be fce6 543d 3670 81bc
000001a0: 3c83 5a3d c715 8e3c c5d9 3b3d e5f0 0f3d
000001b0: 2e2d e93d 9b13 acbd 241b 8e3d 6b26 cabc
000001c0: 4c73 c33d b47d 193d 00fa 57bd 24d4 a7ba
000001d0: d541 48be e651 2bbd 5805 013a c659 56bc
000001e0: daae c83c dda2 9dbc cd07 6dbd 3136 bcbd
000001f0: cb53 acbd 9b1b 7ebd 6319 2ebc c253 15be
00000200: 4497 023e deae 103e 894c bc3d 1eeb 6c3d
00000210: de31 a23d 2f79 1a3d 5732 d0bc 93e9 b4bc
00000220: e899 e03c 82a4 643d 0cf7 14bd 8b11 083e
00000230: 6a41 9fbd 61b3 57be 48ae 95bd 3db5 20be
00000240: 5592 77ba 5116 9a3d c57a 813d d4b9 903d
00000250: b8f1 043e 16d8 80bd 4627 b7bc abfb a13d
00000260: e41c 58bd 660c 993c 16f0 e1bd c664 ebbc
00000270: 7f10 a0bd 7069 08be 8bb5 57bd 79fc a2bd
00000280: 6cdf 8bbd 5911 83bd 63fb 173d 4c3d c1bd
00000290: d724 4abc f771 7bbd 8b25 813d 045b 94bc
000002a0: f86f e43a d3e3 293d e983 b3bd bffe 07bd
000002b0: 6c11 a4bd badf 24be 9d43 edbd dc9a b6bd
000002c0: a6a3 dabc 4bec 133d 844f 95bd ab95 d23d
000002d0: 4dd1 15bd 4a51 c3bc 2418 01bd b281 35be
000002e0: 8b41 653d f0f7 ba3b 6680 3cbd cc1e 3b3e
000002f0: 9901 813d f7bf 063e a959 c13d abc9 003e
00000300: 6b38 38bd 5020 d4bd dacd 0e3e c862 453d
00000310: 07d0 993c 8fa0 633c 69b8 bbbd 8dd3 10bd
00000320: 98fb ccbd 7cd8 71bd fe5e 783c 2e63 f03d
00000330: 4da4 04be 99b0 593c 1c3e a2ba 7fdf 2f3d
00000340: 271e 0b3d 85b7 b1bc 7014 23be 063d 06bb
00000350: e9b0 b03d 1ad0 27be ff59 2b3d df07 15be
00000360: cc7a aa3d 4ab6 3dbd a312 ce3d 9f80 e23d
00000370: 102b 3ebd b661 8fbc fbaf 5fbd f030 e2bc
00000380: d412 b13d 0157 4e3d 2346 2dbe b21f ef3d
00000390: af8f 59bd 6d17 e6bc ff09 053e b142 4dbd
000003a0: 0711 fdbc 4e0c b4bc 5492 b0b9 39a1 8f3c
000003b0: c13f a53d e5d7 be3c e9e9 403e ab3c 923c
000003c0: 5682 8bbd 715b 8ebd 4b5b 8bbd 6fa9 d93b
000003d0: eff3 a8bd b5bb 85bd f945 22bd d271 22bc
000003e0: 33d9 4abd bbb0 313e c00e 6b3e 1640 ee3d
000003f0: fb74 113e 3859 303c 054a e33d 79b1 8f3d

conv2.bias f4 [32]
0.030342404 -0.04260395 -0.020760026 -0.021454979 -0.05103826 -0.03867598 -0.029022856 -0.051624313
-0.0022483952 -0.039637208 0.02633413 0.015160026 0.037758876 0.0111739505 0.050948218 -0.011370865
-0.061602965 0.027651541 0.012042915 -0.009048884 -0.025774606 -0.02856765 0.0064606373 -0.09601506
0.03404879 0.010598112 0.055666156 -0.036068343 0.039935835 -0.045806397 -0.044502676 -0.05736088
00000000: a290 f83c 7b81 2ebd ee10 aabc 5ac2 afbc
00000010: 7f0d 51bd b46a 1ebd 57c1 edbc 0474 53bd
00000020: d059 13bb a05a 22bd acba d73c c261 783c
00000030: 0da9 1a3d f212 373c 14af 503d dd4c 3abc
00000040: 6453 7cbd 7c85 e23c a64f 453c c541 14bc
00000050: 4425 d3bc b406 eabc c1b3 d33b 8ba3 c4bd
00000060: be76 0b3d b4a3 2d3c 3202 643d 66bc 13bd
00000070: c293 233d 7d9f 3bbd 7048 36bd 3ef3 6abd
