unlearn_0.02/checkpoint_step_0150.pth (torch_old, 541510 bytes, 24 tensors)

momentum_buffer f4 [3]
-0.06993783 0.018850375 -0.072907485
00000000: 913b 8fbd 1a6c 9a3c 8550 95bd

momentum_buffer f4 [3]
-0.10435439 0.17347303 -0.066304214
00000000: c1b7 d5bd eaa2 313e 81ca 87bd

momentum_buffer f4 [32, 3, 5, 5]
0.09470286 0.09493364 0.10030279 0.09992107 0.089351445 0.102652855 0.10284716 0.10811734
0.10741829 0.09513296 0.11009221 0.10706688 0.110429704 0.108234465 0.09960628 0.111239016
0.10857368 0.1108818 0.10853713 0.10175172 0.10859982 0.10915528 0.109570764 0.109718926
0.102991626 0.07463451 0.07368098 0.07732659 0.07681353 0.06596762 0.08162923 0.0820543
0.08569151 0.084063515 0.07144919 0.088884026 0.08584304 0.088522844 0.08556339 0.07575917
0.090631224 0.08714909 0.08882793 0.08514149 0.0780201 0.08872405 0.08811778 0.087944224
0.08697959 0.0804188 0.10143944 0.10100071 0.104923554 0.103639 0.09309432 0.111758575
0.11125822 0.11523492 0.112818494 0.09970839 0.11915682 0.11726263 0.11815103 0.11394269
0.104257986 0.11963668 0.1172624 0.11817724 0.11329475 0.10553509 0.11697029 0.117722526
0.117496945 0.11541884 0.10809396 -0.021600379 -0.021965703 -0.022935603 -0.029736694 -0.043530427
-0.015795154 -0.019125942 -0.022682237 -0.03299948 -0.04678513 -0.01309047 -0.02041962 -0.027580734
-0.03866993 -0.05027147 -0.014521247 -0.02439515 -0.03424723 -0.042407244 -0.049366932 -0.018840816
-0.030807616 -0.04010818 -0.045343462 -0.04806827 -0.017992483 -0.019244421 -0.020713307 -0.025673049
-0.038389254 -0.012501047 -0.01661563 -0.020743499 -0.029754631 -0.042480737 -0.00996176 -0.017680354
-0.025186758 -0.03569799 -0.04558434 -0.010274006 -0.020911828 -0.031623166 -0.03921046 -0.044969913
-0.014251437 -0.02626627 -0.036671773 -0.041034233 -0.0432512 -0.07240484 -0.074878305 -0.07762295
-0.084548175 -0.09851773 -0.06498747 -0.07030554 -0.07748436 -0.08949238 -0.1039951 -0.060767375
-0.070559666 -0.08268934 -0.096187964 -0.1073923 -0.06119183 -0.073582135 -0.08847596 -0.09945357
-0.10572901 -0.065056615 -0.07884237 -0.09219305 -0.09912445 -0.10188905 -0.047573272 -0.04837788
-0.05120132 -0.054620374 -0.057240475 -0.049195446 -0.05115818 -0.05709439 -0.059539042 -0.059698526
-0.049162187 -0.054192174 -0.05971484 -0.059695818 -0.05921714 -0.050882548 -0.055977084 -0.058472153
-0.058162287 -0.05924585 -0.050895054 -0.054906055 -0.05677383 -0.057486333 -0.058505002 -0.04228962
-0.043155063 -0.046580013 -0.04881019 -0.05126482 -0.042627804 -0.04575159 -0.051496644 -0.053377513
-0.053342447 -0.043407295 -0.048833065 -0.05362927 -0.05391321 -0.05289819 -0.044458713 -0.050865
-0.05271431 -0.05276277 -0.05296293 -0.044749074 -0.04961909 -0.050834157 -0.05164094 -0.05215887
-0.05858346 -0.060386628 -0.06347183 -0.06648338 -0.06877254 -0.06012386 -0.06320617 -0.06949556
-0.07236074 -0.07189124 -0.06046571 -0.06646597 -0.071418114 -0.07247651 -0.0709413 -0.061628643
-0.06763748 -0.070347235 -0.07033635 -0.070658155 -0.06085189 -0.06603688 -0.06815287 -0.06824516
-0.06936503 -0.09257206 -0.092731886 -0.08927604 -0.08383935 -0.07697576 -0.09296752 -0.09774427
-0.095649116 -0.08875658 -0.07936377 -0.09109062 -0.097498134 -0.09996162 -0.09194797 -0.082497425
-0.09148951 -0.09608447 -0.09870559 -0.09200406 -0.089140885 -0.09164831 -0.095166534 -0.09335313
-0.09183677 -0.098400444 -0.061789006 -0.0615691 -0.057432264 -0.05144855 -0.0438038 -0.061858937
00000000: 93f3 c13d 916c c23d 8d6b cd3d 6ba3 cc3d
00000010: e4fd b63d a93b d23d 88a1 d23d a06c dd3d
00000020: 1ffe db3d 12d5 c23d 0678 e13d e145 db3d
00000030: f828 e23d 08aa dd3d 61fe cb3d 48d1 e33d
00000040: e15b de3d ff15 e33d b748 de3d 3563 d03d
00000050: 9569 de3d ce8c df3d a366 e03d 51b4 e03d
00000060: 46ed d23d fad9 983d 0ee6 963d 675d 9e3d
00000070: 6950 9d3d 081a 873d 3a2d a73d 160c a83d
00000080: 087f af3d 7e29 ac3d f453 923d d408 b63d
00000090: 7ace af3d 774b b53d dc3b af3d a027 9b3d
000000a0: dd9c b93d 397b b23d 6beb b53d a95e ae3d
000000b0: 01c9 9f3d f4b4 b53d 1877 b43d 1a1c b43d
000000c0: 5b22 b23d 9db2 a43d 7bbf cf3d 76d9 ce3d
000000d0: 29e2 d63d af40 d43d 3ca8 be3d aee1 e43d
000000e0: 5adb e33d 4900 ec3d 620d e73d ea33 cc3d
000000f0: 7e08 f43d 6427 f03d 2bf9 f13d c95a e93d
00000100: 3685 d53d 1304 f53d 4527 f03d e906 f23d
00000110: 1407 e83d c822 d83d 1f8e ef3d 8218 f13d
00000120: 3da2 f03d b660 ec3d 5e60 dd3d 47f3 b0bc
00000130: 6bf1 b3bc 72e3 bbbc 5e9a f3bc f64c 32bd
00000140: d764 81bc 02ae 9cbc 19d0 b9bc 762a 07bd
00000150: c4a1 3fbd 6979 56bc 0c47 a7bc fef0 e1bc
00000160: 5c64 1ebd 75e9 4dbd 86ea 6dbc 56d8 c7bc
00000170: d346 0cbd 38b3 2dbd fb34 4abd 0e58 9abc
00000180: 4160 fcbc 7a48 24bd 11ba 39bd 3ce3 44bd
00000190: f964 93bc 7aa6 9dbc f4ae a9bc 4950 d2bc
000001a0: 0d3e 1dbd 31d1 4cbc 801d 88bc 45ee a9bc
000001b0: fcbf f3bc 4800 2ebd a636 23bc 64d6 90bc
000001c0: 7654 cebc 0e38 12bd a5b6 3abd 4e54 28bc
000001d0: 484f abbc 4b87 01bd 269b 20bd 5f32 38bd
000001e0: dc7e 69bc 5c2c d7bc 2435 16bd 8313 28bd
000001f0: 2c28 31bd fd48 94bd cc59 99bd c8f8 9ebd
00000200: 9827 adbd aac3 c9bd 2718 85bd 5afc 8fbd
00000210: 1fb0 9ebd c847 b7bd 62fb d4bd 36e7 78bd
00000220: 9681 90bd 0759 a9bd 32fe c4bd 7ff0 dbbd
00000230: 49a4 7abd 3bb2 96bd e232 b5bd 50ae cbbd
00000240: 7488 d8bd 673c 85bd 1c78 a1bd b6cf bcbd
00000250: c201 cbbd 35ab d0bd 31dc 42bd e227 46bd
00000260: 7ab8 51bd 9db9 5fbd fd74 6abd 2a81 49bd
00000270: 3d8b 51bd cfdb 69bd 36df 73bd 7186 74bd
00000280: 4a5e 49bd 9df8 5dbd 8c97 74bd 9a83 74bd
00000290: ac8d 72bd 386a 50bd 3a48 65bd 7f80 6fbd
000002a0: 943b 6ebd c7ab 72bd 5577 50bd 2ce5 60bd
000002b0: ad8b 68bd ca76 6bbd f1a2 6fbd e137 2dbd
000002c0: 5dc3 30bd afca 3ebd 32ed 47bd 0ffb 51bd
000002d0: 7e9a 2ebd 0566 3bbd 25ee 52bd 61a2 5abd
000002e0: 9c7d 5abd d9cb 31bd 2e05 48bd 5eaa 5bbd
000002f0: 19d4 5cbd c6ab 58bd 571a 36bd d157 50bd
00000300: f6ea 57bd c61d 58bd a8ef 58bd ce4a 37bd
00000310: 633d 4bbd 7a37 50bd 7385 53bd 8aa4 55bd
00000320: 36f5 6fbd f857 77bd 85fd 81bd 7028 88bd
00000330: 9ed8 8cbd 7044 76bd 3d72 81bd b053 8ebd
00000340: de31 94bd b73b 93bd e4aa 77bd 4f1f 88bd
00000350: a943 92bd 916e 94bd ac49 91bd 516e 7cbd
00000360: 8585 8abd 3612 90bd 810c 90bd 39b5 90bd
00000370: d53f 79bd 583e 87bd bb93 8bbd 1ec4 8bbd
00000380: 410f 8ebd 6c96 bdbd 37ea bdbd 5bd6 b6bd
00000390: f7b3 abbd 78a5 9dbd c165 bebd 262e c8bd
000003a0: afe3 c3bd 03c6 b5bd 7989 a2bd b88d babd
000003b0: 1aad c7bd aeb8 ccbd 384f bcbd 69f4 a8bd
000003c0: da5e bbbd efc7 c4bd 2826 cabd a06c bcbd
000003d0: 7f8f b6bd 1cb2 bbbd ace6 c2bd ed2f bfbd
000003e0: eb14 bcbd 2c86 c9bd 7816 7dbd e12f 7cbd
000003f0: 183e 6bbd b7bb 52bd 9d6b 33bd cc5f 7dbd

momentum_buffer f4 [32]
0.102479674 -0.14383015 -0.045581207 -0.04914913 -0.011411857 -0.2342113 -0.32793954 0.012090496
0.11000044 0.058009055 0.05532236 -0.0069634872 -0.017903704 0.11129252 0.016140165 0.08770977
-0.0356867 0.059591312 0.04784344 -0.1578026 -0.18416825 -0.059113722 -0.06832645 -0.11597096
0.06656687 0.022878561 0.016677003 0.008138956 0.018116489 0.09988128 0.16892378 -0.033429116
00000000: dde0 d13d 3648 13be 5cb3 3abd 9950 49bd
00000010: ccf8 3abc 16d5 6fbe b1e7 a7be 3717 463c
00000020: e947 e13d e79a 6d3d b399 623d f72d e4bb
00000030: caaa 92bc 55ed e33d 6138 843c 2ea1 b33d
00000040: 382c 12bd 0516 743d 7cf7 433d 0197 21be
00000050: 9a96 3cbe 3b21 72bd bdee 8bbd 2f82 edbd
00000060: 3654 883d d26b bb3c 369e 883c 4159 053c
00000070: 0869 943c 8e8e cc3d 5bfa 2c3e f8ec 08bd

momentum_buffer f4 [32, 32, 3, 3]
0.058400318 0.057656042 0.057034645 0.058741927 0.05750976 0.059176244 0.05820104 0.057479575
0.058922224 0.020180421 0.020312179 0.021255737 0.020171637 0.020846045 0.021138791 0.019484121
0.021223145 0.021770705 0.024820108 0.024620354 0.023971658 0.024245108 0.02509095 0.024443896
0.024958348 0.024813559 0.024861572 0.002205601 0.0020705054 0.002249048 0.0024648495 0.0016516483
0.0027468004 0.0017263558 0.0013669992 0.002382183 0.017255262 0.017127013 0.016881209 0.017036153
0.017181763 0.017018428 0.016370036 0.016697483 0.01725579 0.008355088 0.008336761 0.009035617
0.00786437 0.0073946463 0.008662541 0.008737415 0.007089517 0.007347886 0.013661761 0.014599066
0.015171542 0.01432264 0.013813561 0.014437307 0.014804309 0.012933745 0.014490029 0.028633023
0.029634241 0.030238517 0.028855393 0.029571751 0.030653363 0.028415853 0.02931107 0.030398676
0.0052043255 0.0065436773 0.007346007 0.0047395644 0.005585789 0.0068995818 0.0038550964 0.0052465694
0.0059198155 0.0056678476 0.0061767576 0.008078149 0.0059596435 0.0050451066 0.0066118273 0.0047290176
0.0042385734 0.0049423473 -0.0011010432 -0.001012993 -0.00093634013 -0.0019748458 -0.0017088337 -0.0012446248
-0.0015125693 -0.0017431454 -0.0002872691 -0.00024813844 7.996945e-05 -0.00047080123 -5.1415132e-05 -0.00033669642
0.0003639183 -0.00044563747 -0.000369474 -0.00011113796 0.0100027565 0.009129697 0.009881246 0.00904305
0.010098563 0.0100388555 0.008711487 0.009731818 0.00910323 0.0019232586 0.0021595987 0.002763053
0.0019855357 0.0017228645 0.002332933 0.0016387884 0.001529969 0.0025102654 0.0018317656 0.0012844615
0.0035062924 0.0018885152 0.0019890585 0.002922482 0.0014934924 0.0018897302 0.002599791 0.004926228
0.0056235874 0.007429016 0.0037157417 0.004707072 0.005366859 0.0017697013 0.0022461487 0.0034660576
0.008110975 0.008801439 0.0100541115 0.007943437 0.0084728915 0.008403911 0.006909791 0.007418597
0.0072659682 -0.004058726 -0.0047193337 -0.00419175 -0.004580841 -0.0048904284 -0.004287471 -0.0045910925
-0.0045580636 -0.0043483055 1.4770883e-05 -0.0006584898 0.00034050844 -0.0006380159 -3.2006086e-05 1.8708479e-05
-0.0003465847 -0.0003270717 -0.0005997458 0.0047532795 0.0043228436 0.0045412104 0.0042832866 0.0041598086
0.005245966 0.005297968 0.0045702565 0.006180239 0.0056115715 0.0055938447 0.007008911 0.004505305
0.0054644616 0.006874651 0.0049116365 0.005760328 0.00682368 0.03057846 0.03081375 0.031272918
0.030296518 0.030529251 0.03238254 0.0309184 0.031430393 0.032312825 0.011682957 0.012452326
0.012167371 0.0119055575 0.0129587455 0.01375196 0.011881231 0.013480342 0.013632856 0.013070892
0.013780606 0.016469963 0.011479293 0.01277583 0.01648204 0.01112022 0.012127403 0.014535229
0.0052555487 0.0047910977 0.006177154 0.005028239 0.004319975 0.0049643954 0.0041683847 0.004336372
0.0052368636 0.076318055 0.0758488 0.07690185 0.07752578 0.07856169 0.07963941 0.07792407
0.07942296 0.080401696 -0.0033421868 -0.0034717715 -0.0030527455 -0.0033333728 -0.002771611 -0.003632675
-0.0038084069 -0.0041113435 -0.0041347607 0.001575608 0.0014057687 0.0022614126 0.0010817596 0.0014258148
0.0018123685 0.0021048025 0.0024695604 0.002278471 0.0025601191 0.0024822634 0.003858492 0.0017629927
00000000: 2c35 6f3d be28 6c3d 299d 693d 609b 703d
00000010: 5b8f 6b3d ca62 723d 3764 6e3d b46f 6b3d
00000020: 6e58 713d 6951 a53c ba65 a63c 8320 ae3c
00000030: fd3e a53c 53c5 aa3c 422b ad3c 2a9d 9f3c
00000040: 29dc ad3c 7a58 b23c 8a53 cb3c a0b0 c93c
00000050: 3660 c43c ad9d c63c 898b cd3c 913e c83c
00000060: 7375 cc3c ce45 cb3c 7faa cb3c d88b 103b
00000070: 51b1 073b c464 133b 5089 213b 1f7c d83a
00000080: aa03 343b e346 e23a e22c b33a 661e 1c3b
00000090: e85a 8d3c f34d 8c3c 764a 8a3c 678f 8b3c
000000a0: c5c0 8c3c 3b6a 8b3c 741a 863c 29c9 883c
000000b0: 045c 8d3c c7e3 083c e996 083c 200a 143c
000000c0: 8fd9 003c ca4e f23b 55ed 0d3c 6027 0f3c
000000d0: 2e4f e83b 89c6 f03b 94d5 5f3c ec30 6f3c
000000e0: 0f92 783c 82a9 6a3c 4652 623c 748a 6c3c
000000f0: c68d 723c 0fe8 533c 9667 6d3c cd8f ea3c
00000100: 82c3 f23c c4b6 f73c 2562 ec3c 7540 f23c
00000110: c31c fb3c 5dc8 e83c c51d f03c a506 f93c
00000120: 0c89 aa3b 586c d63b c6b6 f03b 594e 9b3b
00000130: ff08 b73b e315 e23b c9a5 7c3b 6aeb ab3b
00000140: 03fb c13b 5ab9 b93b 6666 ca3b 365a 043c
00000150: 1d49 c33b 6c51 a53b 07a8 d83b e0f5 9a3b
00000160: bbe3 8a3b 6af3 a13b e150 90ba 68c6 84ba
00000170: b974 75ba 6a6c 01bb f2fa dfba ae22 a3ba
00000180: 6741 c6ba 417a e4ba 9b9c 96b9 9418 82b9
00000190: 46b5 a738 dfd5 f6b9 94a6 57b8 a186 b0b9
000001a0: 4acc be39 73a4 e9b9 f6b5 c1b9 bd12 e9b8
000001b0: 9ae2 233c ba94 153c f3e4 213c 4d29 143c
000001c0: 7174 253c 037a 243c a0ba 0e3c 3472 1f3c
000001d0: b725 153c da15 fc3a 0e88 0d3b 5614 353b
000001e0: c31f 023b bdd1 e13a 1fe4 183b 9dcc d63a
000001f0: 3e89 c83a 4483 243b db17 f03a 605b a83a
00000200: d3c9 653b 0e88 f73a dd5a 023b 1d87 3f3b
00000210: 4ac1 c33a d3b0 f73a 4161 2a3b 326c a13b
00000220: 1246 b83b 1a6f f33b cd83 733b c83d 9a3b
00000230: 7adc af3b 52f5 e73a 1f34 133b cc26 633b
00000240: e5e3 043c e933 103c 00ba 243c 3125 023c
00000250: e2d1 0a3c 8fb0 093c 876b e23b b417 f33b
00000260: 5c17 ee3b 10ff 84bb a4a4 9abb f35a 89bb
00000270: e11a 96bb e33f a0bb ea7d 8cbb e070 96bb
00000280: cf5b 95bb 3b7c 8ebb 76d0 7737 819e 2cba
00000290: 4586 b239 8640 27ba 463e 06b8 27f0 9c37
000002a0: d0b5 b5b9 d27a abb9 4238 1dba 66c1 9b3b
000002b0: a4a6 8d3b 6fce 943b d05a 8c3b 014f 883b
000002c0: 5ae6 ab3b 949a ad3b 17c2 953b 9a83 ca3b
000002d0: 46e1 b73b 924c b73b 02ab e53b 3da1 933b
000002e0: 3a0f b33b c144 e13b cbf1 a03b 22c1 bc3b
000002f0: 2d99 df3b ae7f fa3c 1e6d fc3c 0818 003d
00000300: 6730 f83c 7b18 fa3c 8ea3 043d 9648 fd3c
00000310: 28bd 003d 745a 043d e069 3f3c d704 4c3c
00000320: a759 473c 870f 433c eb50 543c e74f 613c
00000330: 7fa9 423c a7dc 5c3c 585c 5f3c 4b27 563c
00000340: 0dc8 613c 04ec 863c a513 3c3c b751 513c
00000350: 5805 873c 9531 363c 04b2 463c 2b25 6e3c
00000360: bd36 ac3b a4fe 9c3b b969 ca3b edc3 a43b
00000370: 948e 8d3b 5eac a23b f296 883b 2018 8e3b
00000380: ff99 ab3b a44c 9c3d 9e56 9b3d b87e 9d3d
00000390: d6c5 9e3d f4e4 a03d fd19 a33d a896 9f3d
000003a0: 81a8 a23d a5a9 a43d 9708 5bbb a986 63bb
000003b0: 9210 48bb b774 5abb eba3 35bb 2c12 6ebb
000003c0: 7796 79bb 73b8 86bb e37c 87bb a284 ce3a
000003d0: c541 b83a 3534 143b d4c9 8d3a 68e2 ba3a
000003e0: ff8c ed3a baf0 093b 59d8 213b 6652 153b
000003f0: acc7 273b 78ad 223b c1de 7c3b 3814 e73a

momentum_buffer f4 [32]
0.06597839 -0.00023104646 -0.03854636 0.09976917 0.016652554 0.007120547 0.031106453 -0.010472786
-0.00136214 -8.6106855e-05 5.2639283e-05 0.012620568 0.014370822 0.083582565 0.056647066 -0.011155428
-0.15438233 0.0035672951 -0.08926168 0.01612941 -0.005008962 0.08878217 0.00907175 -0.18429577
0.040899366 -0.007322345 0.022257457 -0.027930293 -0.017080603 -0.054276925 0.018089604 -0.05690947
00000000: ae1f 873d 1045 72b9 cae2 1dbd c753 cc3d
00000010: f06a 883c 7a53 e93b f6d2 fe3c 0c96 2bbc
00000020: d689 b2ba 4494 b4b8 00c9 5c38 80c6 4e3c
00000030: 9973 6b3c 562d ab3d c106 683d 42c5 36bc
00000040: 6716 1ebe 48c9 693b d4ce b6bd d321 843c
00000050: 3822 a4bb 6dd3 b53d ada1 143c 08b8 3cbe
00000060: 1886 273d 48f0 efbb 4555 b63c 12ce e4bc
00000070: 9fec 8bbc 7b51 5ebd a630 943c e819 69bd

momentum_buffer f4 [64, 32, 3, 3]
0.0049110693 0.0049836184 0.0045396155 0.004347465 0.0038577688 0.0043131323 0.00428045 0.0036300241
0.0035872732 -0.00021172602 0.00015659576 0.0001260088 0.00021391004 0.00018237281 -0.0001495835 4.9758637e-05
-0.00027236016 0.00015003569 0.00043822709 -0.00032237204 7.603358e-05 0.00017357402 0.00041876064 0.0005742846
0.00023103721 -0.00012299363 0.0007086899 0.008216912 0.0072444812 0.008001066 0.0073504597 0.008141763
0.00852487 0.0075069056 0.0073763663 0.008196181 0.0036967164 0.004286261 0.004474062 0.0042587845
0.004139544 0.004235493 0.0048909467 0.0050199763 0.0046176827 0.009690375 0.0101627195 0.009655827
0.009098032 0.008871587 0.0098745935 0.009176791 0.0094050765 0.009497489 0.011702591 0.012190411
0.011913834 0.0115669295 0.011877539 0.012164411 0.011702068 0.012519554 0.011616507 0.00949759
0.01069439 0.00978256 0.009954072 0.010214109 0.010082825 0.010181788 0.0102224825 0.009724333
-3.4627014e-06 -0.00045110093 4.8862014e-05 6.8522204e-05 5.8100137e-05 -0.00015346207 -9.9500794e-05 -8.328596e-05
-0.0005072815 -0.00016501898 0.00026245526 0.00018930637 -0.00016246426 0.00039416758 6.0699567e-05 8.428267e-05
8.5017564e-05 0.0002832215 0.00035711643 -0.00021097106 -0.0003140215 7.6299686e-05 -0.00027000144 -0.00028539464
-0.000304279 -0.0006882192 0.0001050237 0.0032951494 0.0035178347 0.0041832314 0.0034555022 0.00339057
0.0035188382 0.0037409505 0.0036312132 0.0032541403 0.0066625625 0.007087705 0.007931958 0.007307236
0.0076568048 0.0073119905 0.00795789 0.007539221 0.0076688454 0.0049968255 0.005467972 0.005596767
0.005375472 0.005648907 0.004994522 0.0046768994 0.004703883 0.0043916837 0.0021898765 0.0022054175
0.0023168242 0.0021755577 0.0018829457 0.0021716177 0.0014607655 0.0016910419 0.0018367461 0.0012705253
0.0019206501 0.0015105347 0.0014677044 0.0014571357 0.0016095674 0.00089119136 0.0014187774 0.00091368053
0.0071002953 0.0069945506 0.007032 0.0066277403 0.006775096 0.0071157385 0.007137946 0.007318803
0.0075237737 -0.00013039802 -0.0002633342 0.00018640683 0.00027979468 -3.7995072e-05 7.6186893e-06 0.00012121887
-6.120121e-05 8.1181715e-05 0.015268177 0.016261527 0.016867213 0.016255673 0.016615607 0.017173918
0.015779046 0.016541954 0.016649816 0.019965177 0.020314408 0.020978024 0.020727968 0.021464728
0.020676669 0.020267317 0.020858608 0.020786716 0.015681986 0.016164916 0.015189232 0.0151799135
0.015648477 0.014433892 0.014735174 0.014702578 0.014299543 0.004212707 0.0042308304 0.004153888
0.0039543705 0.0028195411 0.003671339 0.0035798016 0.0032884018 0.0033349106 0.0011146413 0.0012660587
0.0015535096 0.001471338 0.0014663875 0.0015711115 0.001902006 0.0012959186 0.0016648746 0.009074331
0.00880923 0.008508564 0.008926271 0.0089853825 0.008775766 0.009016816 0.008865988 0.0087771425
0.021718252 0.022339346 0.022049176 0.021905186 0.022960532 0.022390302 0.022171866 0.022942612
0.022148998 7.500027e-05 0.00063942885 0.00024120754 0.00024610903 0.0002308247 0.0009796154 0.00033342867
0.00069693074 0.0010900338 0.001331228 0.0018793006 0.0011040502 0.0015685866 0.0011655496 0.0012181116
0.0014908907 0.00040035008 0.0010118106 0.0016716798 0.0013385569 0.0017278454 0.0016718585 0.0018229854
0.002059159 0.0019340147 0.0025590686 0.0020124824 0.0017750635 0.0020071547 0.00054263964 0.0013585445
00000000: 09ed a03b 9f4d a33b 0ec1 943b 2e75 8e3b
00000010: 9fd2 7c3b 2d55 8d3b 0443 8c3b b3e5 6d3b
00000020: 7518 6b3b c502 5eb9 db33 2439 3b21 0439
00000030: 0a4d 6039 543b 3f39 84d9 1cb9 eeb3 5038
00000040: 90cb 8eb9 e652 1d39 d8c1 e539 0b04 a9b9
00000050: 3874 9f38 6c01 3639 1a8d db39 968b 163a
00000060: 9442 7239 daf7 00b9 60c7 393a 3aa0 063c
00000070: 1d63 ed3b e716 033c 20dc f03b 0765 053c
00000080: e5ab 0b3c 7dfc f53b 72b5 f13b 4649 063c
00000090: 9c44 723b c373 8c3b 279b 923b 468d 8b3b
000000a0: 03a5 873b e4c9 8a3b 3c44 a03b 9d7e a43b
000000b0: ee4f 973b 61c4 1e3c 8981 263c 7933 1e3c
000000c0: e90f 153c 225a 113c 0cc9 213c 405a 163c
000000d0: c017 1a3c 5b9b 1b3c 39bc 3f3c 4aba 473c
000000e0: 3e32 433c 3883 3d3c 029a 423c 3d4d 473c
000000f0: 08ba 3f3c d11e 4d3c 2953 3e3c c89b 1b3c
00000100: 8637 2f3c 0847 203c 6716 233c 1459 273c
00000110: 6f32 253c 84d1 263c 337c 273c cf52 1f3c
00000120: c260 68b6 be81 ecb9 30f1 4c38 94b3 8f38
00000130: 8cb0 7338 a9ea 20b9 15ab d0b8 cfa9 aeb8
00000140: 16fb 04ba f208 2db9 269a 8939 8b80 4639
00000150: 2b5b 2ab9 47a8 ce39 aa97 7e38 eac0 b038
00000160: 754b b238 597d 9439 5b3b bb39 1d38 5db9
00000170: 41a3 a4b9 1503 a038 fb8e 8db9 05a1 95b9
00000180: a387 9fb9 9c69 34ba 2b40 dc38 6ff3 573b
00000190: 798b 663b 7d13 893b b575 623b 5334 5e3b
000001a0: 4f9c 663b bc2a 753b a6f9 6d3b 6a43 553b
000001b0: a051 da3b fb3f e83b 0bf5 013c 8a71 ef3b
000001c0: efe5 fa3b 6c99 ef3b cf61 023c 920b f73b
000001d0: f04a fb3b 69bc a33b ac2c b33b 1665 b73b
000001e0: ba24 b03b 771a b93b 16a9 a33b ad40 993b
000001f0: 0823 9a3b 1de8 8f3b 0884 0f3b c488 103b
00000200: dcd5 173b cd93 0e3b 2ccd f63a b351 0e3b
00000210: 2877 bf3a f3a5 dd3a f9be f03a c187 a63a
00000220: 53be fb3a 22fd c53a fd5f c03a 5cfd be3a
00000230: 1ff8 d23a d79e 693a 45f6 b93a 1084 6f3a
00000240: 98a9 e83b 8b32 e53b b16c e63b 842d d93b
00000250: a001 de3b 242b e93b 6ee5 e93b 92d2 ef3b
00000260: fd89 f63b 74bb 08b9 1e10 8ab9 3476 4339
00000270: 68b1 9239 e65c 1fb8 0ba4 ff36 e336 fe38
00000280: 2659 80b8 1a40 aa38 6027 7a3c e536 853c
00000290: 1c2d 8a3c 9e2a 853c 741d 883c 51b0 8c3c
000002a0: 0f43 813c fe82 873c 3265 883c 038e a33c
000002b0: 676a a63c 1bda ab3c b3cd a93c ccd6 af3c
000002c0: 1e62 a93c a507 a63c acdf aa3c e748 aa3c
000002d0: 8277 803c 496c 843c 42dc 783c 2cb5 783c
000002e0: 3c31 803c 227c 6c3c cd6b 713c 15e3 703c
000002f0: a148 6a3c bf0a 8a3b c7a2 8a3b 571d 883b
00000300: aa93 813b 0dc8 383b d99a 703b 1b9b 6a3b
00000310: 3a82 573b 848e 5a3b 2819 923a e1f1 a53a
00000320: 229f cb3a e9d9 c03a cd33 c03a c1ed cd3a
00000330: bb4c f93a d0db a93a ec37 da3a 81ac 143c
00000340: 9754 103c 8167 0b3c 7f3f 123c 6d37 133c
00000350: 3bc8 0f3c 44bb 133c a642 113c 01ce 0f3c
00000360: 7aea b13c 0101 b73c 79a0 b43c 8172 b33c
00000370: ba17 bc3c de6b b73c c6a1 b53c 25f2 bb3c
00000380: d171 b53c 7749 9d38 589f 273a a8ec 7c39
00000390: 3208 8139 8909 7239 7066 803a 0ad0 ae39
000003a0: 3bb2 363a 77df 8e3a 997c ae3a dd52 f63a
000003b0: c7b5 903a 0899 cd3a 5bc5 983a 0ba9 9f3a
000003c0: fe69 c33a 14e6 d139 bb9e 843a 441c db3a
000003d0: 8472 af3a df78 e23a 4322 db3a 3df1 ee3a
000003e0: f5f2 063b c47e fd3a 0cb6 273b dae3 033b
000003f0: 3fa9 e83a 788a 033b ee3f 0e3a 3011 b23a

momentum_buffer f4 [64]
0.016783055 -0.002442306 0.03149369 0.037607238 5.7706824e-05 -0.00016530952 0.009425715 0.0066799833
0.0012402707 -0.04063622 0.0057025207 0.005001594 0.0005113019 0.0012104132 -0.00025133297 0.004108587
0.01776241 -0.02076709 -0.000248455 -0.02547272 0.01346106 0.0010607978 0.0026816865 -0.011354164
-0.023882663 -0.001152082 0.04341539 -0.00150283 -0.008056928 -0.006021201 -8.838639e-06 -0.00012326954
-0.013812194 -0.008171847 -0.010506869 0.00027800852 0.002536255 6.7074143e-07 -0.036784887 -0.008589646
-0.011315567 0.0012563256 -0.0027188256 0.0013618316 -0.015749611 0.0019744902 -0.028225275 -0.013935775
0.008441409 0.0014687282 -0.000101851096 0.019111024 -0.046635155 0.0029740047 -0.04307489 0.023382122
-0.002582222 0.036257632 -0.0005183061 -0.0013151293 -0.011008258 -0.0029334708 0.0044710003 -0.025601974
00000000: 9e7c 893c 180f 20bb 87ff 003d 0c0a 1a3d
00000010: 3b0a 7238 f056 2db9 506e 1a3c c3e3 da3b
00000020: 9490 a23a 2a72 26bd 36dc ba3b 69e4 a33b
00000030: e408 063a baa6 9e3a 57c5 83b9 53a1 863b
00000040: 7982 913c bf1f aabc 1143 82b9 2aac d0bc
00000050: c78b 5c3c 780a 8b3a 3cbf 2f3b d106 3abc
00000060: 93a5 c3bc 7501 97ba 56d4 313d 9bfa c4ba
00000070: 3501 04bc 7f4d c5bb aa49 14b7 ea41 01b9
00000080: 8a4c 62bc 36e3 05bc 0125 2cbc acc1 9139
00000090: 4c37 263b 000d 3435 c0ab 16bd 96bb 0cbc
000000a0: ee64 39bc 4bab a43a 532e 32bb 7c7f b23a
000000b0: 5405 81bc 7366 013b b138 e7bc e052 64bc
000000c0: d64d 0a3c 5782 c03a e498 d5b8 b98e 9c3c
000000d0: 8104 3fbd 85e7 423b 4c6f 30bd dd8b bf3c
000000e0: 7f3a 29bb e282 143d efde 07ba 6b60 acba
000000f0: fb5b 34bc 793f 40bb 7881 923b 3bbb d1bc

momentum_buffer f4 [64, 64, 3, 3]
-3.2705884e-05 3.9315684e-05 0.00037749356 0.00032430587 9.8913195e-05 -1.0999793e-05 0.0005276653 -0.00014955629
-0.00019311046 2.400056e-05 0.00021536568 0.00020906248 0.0002206167 0.00019519443 -0.00013279884 0.00047655377
0.0001730267 0.00014271644 0.0002447511 0.00055725273 0.0013791536 0.0007553639 0.00052458054 0.0007029986
-7.44509e-05 0.0006772101 0.00044605654 0.00010838839 -0.00021700993 0.0004506039 -7.644727e-05 0.0006060879
0.0007440368 0.0003516296 0.00041115255 0.00018058432 -7.151701e-05 0.0006028862 -6.5115164e-06 -0.00034176197
2.3564626e-06 -0.00034898572 4.589532e-05 -0.000109790315 0.0003927704 3.2789452e-05 4.597734e-06 -6.298751e-05
0.00020910482 0.00023928846 0.00013469475 -0.00032541997 -0.00045775235 -0.0002491582 0.00094276527 0.0003192983
0.0012828547 0.00036673492 0.00064356474 0.00094619876 0.000322329 0.00064352114 0.0006445896 0.00028061098
0.00014394715 -0.000113668844 0.0005260936 -5.4591997e-05 3.3817356e-05 -0.00053034205 -0.00013212099 0.00047786307
9.2475035e-05 0.00038709844 0.00021758374 2.6209915e-05 0.00021692303 0.0006259816 -0.000236565 0.0005721092
0.0006372793 3.891382e-05 3.728844e-05 0.00048559115 0.00044886264 -7.0994676e-05 0.0008939733 0.00063977455
0.00079354196 -5.189943e-05 1.8813464e-05 0.00068189687 0.000276252 4.634251e-05 0.00038623618 0.00011164343
-0.0003357507 0.00035580806 -2.5548978e-05 -7.727002e-05 0.0004038349 7.184216e-05 -0.00018182653 -0.00031075306
0.00013366358 9.639053e-05 -0.00013009385 6.182182e-05 -0.00049695297 5.7909256e-05 7.151666e-07 -0.00022129316
0.00021636074 8.274673e-05 0.00056172896 0.00022204206 -8.9967485e-05 0.00017329727 -0.00028746773 0.00033822865
5.0642884e-05 -4.1841176e-05 -0.00021879707 -0.00032666035 3.1449995e-06 -1.1155147e-05 0.0004670318 0.00020057675
-0.0001454415 -0.0003340785 -0.00011987419 -0.00019192693 0.00011890249 0.0008866477 -0.00027823664 0.00024820774
-0.00024799712 -2.9603392e-05 -0.00015007693 -0.0005071915 -0.00024698742 4.734919e-05 -0.00027854214 0.00021675277
0.00028886975 0.00018021042 0.0002752951 0.0006555103 -2.6251833e-05 0.0008514919 -0.00024148283 0.00018780846
-5.1638977e-05 0.0001979043 0.00011893219 0.00021997269 0.00030174927 0.00012474965 0.00052897946 0.0005621428
-0.00039922795 0.00014753021 -7.752802e-05 -0.0007432637 -0.0001602996 -5.9528764e-07 -0.0001309649 1.0711041e-05
-0.00033429937 0.0003619449 0.00015167442 8.384961e-06 4.942699e-05 0.0001711737 0.00022862524 -0.00016030051
0.00035460238 0.00017219741 0.00010755704 -0.00011070561 0.00039493546 0.00065808947 7.22254e-05 -0.00011474203
9.4288145e-05 0.00024958074 4.60256e-05 0.00021799798 0.00035615973 0.00016804601 -2.7866288e-05 0.000339968
-0.00011519207 3.235384e-05 2.0291607e-05 0.00023033975 -0.00013043068 0.0003369618 -0.00011702918 8.5377455e-05
0.0001256444 -0.00047936756 -5.3622753e-05 -8.1950995e-05 -0.00015774151 -0.00033757786 0.00016439133 -0.00010559535
8.514684e-05 3.1060223e-05 0.00025224072 0.00053619884 0.00029306102 0.00057623314 0.00015655352 0.00033645405
0.00042891793 0.0006711189 0.000783467 0.00033893116 0.0005415247 0.0010961755 0.0004136851 7.370753e-05
0.0006481327 -0.00020991334 -0.0002950861 0.00014764539 0.00020612097 -0.00016914462 0.00067966257 0.0001338722
0.0004998763 0.00022290219 0.0001850045 0.00020215714 0.0006582285 0.0003645751 0.0007268388 0.000485268
0.00029787736 0.0004863335 -2.780158e-05 0.00034291297 0.0002342474 0.00015010653 6.6466637e-06 0.0003770985
8.325063e-05 0.00010884368 0.00033191268 -0.00013414027 -0.00014955562 0.0004052265 3.078433e-05 -2.80369e-06
00000000: ad2d 09b8 e5e6 2438 54ea c539 9907 aa39
00000010: 9e6f cf38 c08b 38b7 0553 0a3a 36d2 1cb9
00000020: b27d 4ab9 cf54 c937 c9d3 6139 c837 5b39
00000030: 5855 6739 1bad 4c39 eb3f 0bb9 f7d9 f939
00000040: 806e 3539 27a6 1539 f051 8039 9914 123a
00000050: b7c4 b43a 9d03 463a 0184 093a 7049 383a
00000060: 8622 9cb8 cd86 313a b2dc e939 934e e338
00000070: 298d 63b9 083f ec39 5152 a0b8 dfe1 1e3a
00000080: 770b 433a ed5a b839 f68f d739 3c5b 3d39
00000090: 67fb 95b8 020b 1e3a 807d dab6 842e b3b9
000000a0: b823 1e36 12f8 b6b9 ba7f 4038 3a3f e6b8
000000b0: c0ec cd39 6887 0938 3c46 9a36 2918 84b8
000000c0: 2643 5b39 82e9 7a39 d93c 0d39 219d aab9
000000d0: 7bfe efb9 73a1 82b9 e823 773a 7e67 a739
000000e0: 7625 a83a 5446 c039 e6b4 283a 530a 783a
000000f0: 44fe a839 f9b1 283a adf9 283a f81e 9339
00000100: 85f0 1639 7f61 eeb8 8be9 093a b6f9 64b8
00000110: 1cd7 0d38 a706 0bba f589 0ab9 b289 fa39
00000120: 28ef c138 79f3 ca39 3127 6439 5ddd db37
00000130: d575 6339 ea18 243a 6f0e 78b9 99f9 153a
00000140: 170f 273a 6537 2338 2866 1c38 f196 fe39
00000150: 5355 eb39 fae2 94b8 8859 6a3a 8bb6 273a
00000160: b305 503a 97ae 59b8 9bd1 9d37 53c1 323a
00000170: ead5 9039 e45f 4238 be7f ca39 1c22 ea38
00000180: b207 b0b9 c08b ba39 0352 d6b7 070c a2b8
00000190: ceb9 d339 f7a9 9638 b0a8 3eb9 92ec a2b9
000001a0: 0b28 0c39 4625 ca38 cd69 08b9 56a6 8138
000001b0: f345 02ba 97e3 7238 e0f9 3f35 ee0a 68b9
000001c0: e5de 6239 5088 ad38 fe40 133a f6d3 6839
000001d0: edac bcb8 22b7 3539 44b7 96b9 4854 b139
000001e0: 6269 5438 9f7e 2fb8 e46c 65b9 9c43 abb9
000001f0: ae0e 5336 fe26 3bb7 f2db f439 e951 5239
00000200: a881 18b9 4227 afb9 f764 fbb8 fe3f 49b9
00000210: 4a5b f938 eb6d 683a 4ae0 91b9 e121 8239
00000220: 9c05 82b9 cd54 f8b7 f85d 1db9 0cf5 04ba
00000230: 177e 81b9 ce98 4638 4b09 92b9 2148 6339
00000240: 7173 9739 def6 3c39 7c55 9039 8dd6 2b3a
00000250: 6237 dcb7 a736 5f3a 8e36 7db9 73ee 4439
00000260: ee96 58b8 8884 4f39 3c6b f938 78a8 6639
00000270: 1a34 9e39 3bcf 0239 36ab 0a3a c45c 133a
00000280: 784f d1b9 57b2 1a39 8a96 a2b8 95d7 42ba
00000290: 1916 28b9 dbcb 1fb5 9f53 09b9 92b3 3337
000002a0: e744 afb9 6cc3 bd39 cb0a 1f39 22ad 0c37
000002b0: d44f 4f38 177d 3339 1fbb 6f39 5716 28b9
000002c0: ede9 b939 e48f 3439 3f90 e138 9f2a e8b8
000002d0: 570f cf39 a383 2c3a b777 9738 a9a1 f0b8
000002e0: 90bc c538 29da 8239 9d0b 4138 6396 6439
000002f0: f3ba ba39 8235 3039 66c2 e9b7 bc3d b239
00000300: 4693 f1b8 acb3 0738 e537 aa37 5b87 7139
00000310: 38c4 08b9 3faa b039 906d f5b8 ac0c b338
00000320: 69bf 0339 a053 fbb9 fee8 60b8 1bdd abb8
00000330: 6a67 25b9 effc b0b9 7660 2c39 1273 ddb8
00000340: dd90 b238 a946 0238 2d3f 8439 b28f 0c3a
00000350: fca5 9939 5a0e 173a 8428 2439 1966 b039
00000360: 64e0 e039 07ee 2f3a 9561 4d3a 92b2 b139
00000370: 1cf5 0d3a 8cad 8f3a e0e3 d839 6e93 9a38
00000380: 73e7 293a 2f1c 5cb9 c9b5 9ab9 42d1 1a39
00000390: 2d22 5839 6a5c 31b9 622b 323a 0c60 0c39
000003a0: 210a 033a daba 6939 c4fd 4139 25fa 5339
000003b0: f88c 2c3a 7124 bf39 5489 3e3a 926b fe39
000003c0: 6c2c 9c39 94fa fe39 7037 e9b7 00c9 b339
000003d0: 4fa0 7539 ea65 1d39 6806 df36 4eb5 c539
000003e0: d796 ae38 0143 e438 9104 ae39 01a8 0cb9
000003f0: 08d2 1cb9 9574 d439 6c1e 0138 0727 3cb6

momentum_buffer f4 [64]
0.001276027 0.010986745 0.00066652417 -0.014400773 0.012253274 -0.0038792333 -0.0029383728 0.0014668173
-0.0033681707 -0.0014236928 0.004628557 -0.007362686 0.0006434629 0.0074003055 -0.00017206048 0.001572475
-0.012228976 2.1740372e-05 -0.00044277598 -0.00011991022 -0.009603961 4.1407046e-05 0.017289605 0.007687244
-0.0065063876 0.0062576053 0.0005711855 -0.0029947301 -0.001435731 -0.0021035904 -0.001330146 -0.0019527456
-0.006906768 1.3178689e-05 -0.00720638 -9.859514e-05 0.00021581576 -6.5298096e-05 0.009758239 -0.0010201356
-0.005359305 -0.0033530146 -0.010905797 -0.00022495404 -0.010176105 0.0017280588 0.0008041733 -0.014628336
-0.009720747 0.002720163 -0.004375635 -0.007355028 0.00056570355 -1.641249e-05 -0.00019708432 -0.00028923468
2.759593e-05 0.008761977 -0.0005446653 -0.00050386606 -0.0020318807 -0.018309543 -8.8254914e-05 3.0290346e-05
00000000: 5c40 a73a c001 343c aeb9 2e3a 38f1 6bbc
00000010: f5c1 483c bc3a 7ebb b791 40bb 3942 c03a
00000020: 87bc 5cbb 349b baba 26ab 973b b042 f1bb
00000030: 10ae 283a 437e f23b 226b 34b9 811b ce3a
00000040: 0b5c 48bc 185f b637 6324 e8b9 4f78 fbb8
00000050: ef59 1dbc 7aac 2d38 eea2 8d3c 47e5 fb3b
00000060: 8933 d5bb 990c cd3b 9cbb 153a 3c43 44bb
00000070: 232f bcba 64dc 09bb 4b58 aeba 45f3 ffba
00000080: 2b52 e2bb 0a1a 5d37 7f23 ecbb ddc4 ceb8
00000090: 9a4c 6239 a6f0 88b8 05e1 1f3c 12b6 85ba
000000a0: 1c9d afbb 40be 5bbb 3aae 32bc a4e1 6bb9
000000b0: aeb9 26bc 0880 e23a 28cf 523a b0ab 6fbc
000000c0: c543 1fbc c344 323b 7d61 8fbb 7202 f1bb
000000d0: b94b 143a 8ead 89b7 6ba8 4eb9 6ca4 97b9
000000e0: cf7d e737 658e 0f3c dfc7 0eba e115 04ba
000000f0: 4d29 05bb e5fd 95bc 7f15 b9b8 0618 fe37

momentum_buffer f4 [1, 64]
-2.2467211e-05 -0.046418525 -0.0016488899 -0.054883596 -0.057369754 -0.011184708 -0.037905283 -0.0052812193
-0.01178055 -0.0016253352 -0.008560605 -0.01278219 0.0010687577 -0.038115386 0.00012609512 -0.0004970832
-0.056446258 -0.0002710856 -0.008225116 -0.00052042806 -0.026800314 0.00048575876 -0.03701448 -0.029099815
-0.05050893 -0.050454225 -0.002989519 -0.0063828216 -0.0149567695 -0.0078093214 -0.017694462 -0.0035295535
-0.03578887 0.00013697142 -0.019084828 -0.013573258 -0.00066613127 -0.0005734513 -0.036471535 -0.0018526572
-0.027337993 -0.0017510148 -0.039938495 0.00015299373 -0.049869847 -0.011290934 -0.0001969494 -0.07651471
-0.028993465 -0.0031982814 -0.027665643 -0.03449907 -0.0025917527 -0.0002603145 0.000105818406 -0.004189524
-0.0014099 -0.00983015 -0.0015897464 -0.00088271184 -0.034782074 -0.094584905 -0.0003352833 -0.0004973303
00000000: f877 bcb7 5a21 3ebd 901f d8ba 9fcd 60bd
00000010: 8cfc 6abd 1140 37bc 9242 1bbd 140e adbb
00000020: 3503 41bc 3309 d5ba c841 0cbc 646c 51bc
00000030: 8f15 8c3a e11e 1cbd 6738 0439 b04e 02ba
00000040: 3134 67bd 7e20 8eb9 a3c2 06bc 566d 08ba
00000050: 558c dbbc 70ad fe39 7f9c 17bd bc62 eebc
00000060: 74e2 4ebd 17a9 4ebd ceeb 43bb fd26 d1bb
00000070: 3d0d 75bc 56e5 ffbb faf3 90bc 1550 67bb
00000080: 5a97 12bd fc9f 0f39 c957 9cbc 5f62 5ebc
00000090: 509f 2eba aa53 16ba 2d63 15bd dcd4 f2ba
000000a0: edf3 dfbc 4f82 e5ba 8c96 23bd f16c 2039
000000b0: 5344 4cbd 9cfd 38bc 3484 4eb9 bfb3 9cbd
000000c0: b483 edbc 429a 51bb 0fa3 e2bc e64e 0dbd
000000d0: 65da 29bb d27a 88b9 d3ea dd38 4648 89bb
000000e0: 65cc b8ba a30e 21bc 0a5f d0ba ca65 67ba
000000f0: a677 0ebd bbb5 c1bd f6c8 afb9 455f 02ba

bn0.weight f4 [3]
1.1256759 1.0429555 1.0760627
00000000: 2616 903f 917f 853f 6cbc 893f

bn0.bias f4 [3]
0.124433406 -0.056749072 0.13439798
00000000: f1d6 fe3d b771 68bd a09f 093e

bn0.running_mean f4 [3]
0.49160942 0.45209023 0.41382033
00000000: 3bb4 fb3e 5f78 e73e 42e0 d33e

bn0.running_var f4 [3]
0.06514843 0.06094824 0.060779244
00000000: 8a6c 853d dda4 793d a8f3 783d

conv1.weight f4 [32, 3, 5, 5]
-0.024576833 -0.015163501 0.03499113 -0.029666321 -0.04901872 -0.01240915 -0.02457533 0.027372105
0.05212336 -0.01091754 0.08074226 -0.042031575 0.014291903 -0.016806003 0.03751418 0.0011109945
-0.033076752 -0.030904712 -0.025695795 -0.06574918 -0.04252033 0.084010854 0.0010550782 0.01933216
-0.015023278 0.03588534 0.035317387 -0.066284336 -0.0472213 -0.00072354235 -0.088816166 0.114334285
0.01754827 -0.03485668 -0.007286589 0.006573801 0.0016457997 0.07198372 0.0020880725 0.0076141097
0.07440698 -0.014504235 0.03714148 -0.08762305 -0.010447951 0.019788472 0.043337107 -0.010254143
-0.06229035 0.083601736 -0.031825442 -0.030416373 -0.024385197 -0.02838965 0.010208679 0.10180422
-0.0065871277 0.05338972 0.046866894 0.011463999 0.06741761 0.14181095 -0.0023805127 -0.03948161
0.07425223 0.051904034 0.011499997 0.057644416 -0.02063377 -0.004247357 0.06841462 0.097257614
0.08360939 0.027692342 0.08593619 -0.030402644 0.0069996957 0.05721979 -0.055076465 0.03913921
-0.054343123 0.0008254283 -0.029808402 -7.894821e-06 0.101427816 -0.06801535 -0.0264438 0.022155687
0.057598256 0.039577056 -0.114543945 -0.020648204 0.034611892 0.051133998 0.06388429 -0.013523817
-0.096746616 -0.05720765 -0.02246759 0.10689564 -0.0051968344 -0.015542906 -0.025348712 -0.0049689584
0.012634224 0.013849361 0.037178557 -0.05483767 -0.003249598 -0.0012976706 -0.07580453 -0.027755186
0.027849732 -0.0054211654 0.016834134 -0.04896201 -0.00871453 0.022216642 0.035280067 -0.028641766
-0.06903109 -0.049596637 -0.0350476 0.08055644 0.015735859 0.04954642 -0.13310678 0.033545572
0.063247666 0.05090563 -0.0064681945 -0.04067536 -0.085897475 0.040652454 0.04533737 -0.015228532
-0.027132088 -0.06923523 0.06737584 0.14230858 -0.12303389 0.0046333172 0.03655643 0.017243093
0.0050388454 -0.01633846 0.028164795 0.109551385 0.12240222 -0.039868467 -0.0013867359 -0.04708586
0.022825483 -0.0733594 -0.0068967417 -0.06518652 -0.04480212 0.029941687 0.067865 0.02142109
-0.041735545 0.006640582 -0.03836627 0.08469849 -0.018234454 0.021713408 0.075442284 -0.024171896
0.061894912 0.024648622 -0.035519037 0.024103414 -0.021481534 -0.0047502406 0.044130694 -0.015208717
0.041520007 -0.07709555 -0.00073923205 0.018859195 0.08532242 -0.030140912 -0.010579504 0.06656043
0.0050524347 -0.062529035 -0.003733856 0.016598698 0.013243543 -0.035742477 0.09932482 -0.008217386
-0.015209342 -0.0646353 -0.004545431 -0.022152675 -0.01734788 0.049776427 -0.0058820103 0.05689128
0.0847254 -0.060384206 -0.030025793 -0.038974058 0.09765856 0.032415975 -0.012588142 0.049166918
-0.0015796239 0.043632668 -0.06174322 -0.016225666 0.12736315 -0.0071161883 0.037883665 0.03067592
0.08737562 -0.0088982275 -0.034569424 0.0042627025 -0.0004874586 -0.021920491 -0.06629742 0.042427465
0.0030541692 0.029473146 -0.027271578 -0.019504253 -0.006976613 -0.055126823 0.02075913 0.06624787
-0.08404088 -0.046831504 -0.058239374 -0.041941248 -0.0264269 -0.048972245 0.017945537 0.027463352
0.05579627 -0.003234936 -0.008752546 0.027759241 0.079294436 -0.017740915 -0.03347498 -0.032461517
-0.103681184 0.18955289 -0.030952852 -0.031420253 0.0039313175 0.016577482 0.016542826 0.0774872
00000000: 5b55 c9bc 5570 78bc dc52 0f3d c906 f3bc
00000010: dac7 48bd bf4f 4bbc 3452 c9bc 773b e03c
00000020: 4e7f 553d 7bdf 32bc 335c a53d 4d29 2cbd
00000030: 9628 6a3c beac 89bc 78a8 193d ca9e 913a
00000040: 7d7b 07bd e12b fdbc fd7f d2bc 82a7 86bd
00000050: cc29 2ebd e20d ac3d 8d4a 8a3a 7a5e 9e3c
00000060: 3224 76bc 82fc 123d f7a8 103d 15c0 87bd
00000070: 1f6b 41bd 1bac 3dba 40e5 b5bd 1828 ea3d
00000080: 64c1 8f3c e1c5 0ebd 57c4 eebb 0a69 d73b
00000090: e0b7 d73a 336c 933d 0bd8 083b c87f f93b
000000a0: b062 983d 2ca3 6dbc aa21 183d b773 b3bd
000000b0: e22d 2bbc 6f1b a23c 4082 313d fe00 28bc
000000c0: 2b24 7fbd 6337 ab3d 655b 02bd c22b f9bc
000000d0: 77c3 c7bc 6991 e8bc 4e42 273c bb7e d03d
000000e0: d5d8 d7bb 2eaf 5a3d 80f7 3f3d 7fd3 3b3c
000000f0: 3e12 8a3d e436 113e 6002 1cbb 78b7 21bd
00000100: 8e11 983d 5399 543d 7c6a 3c3c 8d1c 6c3d
00000110: 2708 a9bc 6a2d 8bbb f71c 8c3d 002f c73d
00000120: 663b ab3d 0ddb e23c 50ff af3d f70e f9bc
00000130: b45d e53b 4c5f 6a3d dc97 61bd 7050 203d
00000140: e596 5ebd 8e61 583a c030 f4bc ff73 04b7
00000150: 63b9 cf3d a24b 8bbd aba0 d8bc d87f b53c
00000160: 26ec 6b3d 8d1b 223d 0496 eabd 6c26 a9bc
00000170: 33c5 0d3d e271 513d c4d5 823d 0093 5dbc
00000180: 1723 c6bd 9252 6abd f40d b8bc 1aec da3d
00000190: 354a aabb aca7 7ebc 1aa8 cfbc a5d2 a2bb
000001a0: c7ff 4e3c 6ee8 623c 8b48 183d 779d 60bd
000001b0: 35f7 54bb 9a16 aaba 683f 9bbd d85e e3bc
000001c0: 1f25 e43c 08a4 b1bb bde7 893c 638c 48bd
000001d0: 63c7 0ebc adff b53c d581 103d 23a2 eabc
000001e0: 2c60 8dbd d825 4bbd 128e 0fbd c6fa a43d
000001f0: 7de8 803c 30f1 4a3d 254d 08be 1567 093d
00000200: fe87 813d 6c82 503d 26f3 d3bb 359b 26bd
00000210: 04eb afbd 3083 263d aeb3 393d 1881 79bc
00000220: 1d44 debc 33cb 8dbd 58fc 893d 57b9 113e
00000230: 31f9 fbbd 15d3 973b 32bc 153d 6341 8d3c
00000240: e61c a53b 3cd8 85bc dbb9 e63c 7a5c e03d
00000250: 04ae fa3d 1e4d 23bd 23c3 b5ba 1add 40bd
00000260: 82fc ba3c 743d 96bd 10fe e1bb 8380 85bd
00000270: 6e82 37bd 4548 f53c cefc 8a3d 487b af3c
00000280: e4f2 2abd 3d99 d93b f325 1dbd 6776 ad3d
00000290: 6c60 95bc 51e0 b13c 7c81 9a3d 2404 c6bc
000002a0: 8585 7d3d e8eb c93c 697c 11bd 8674 c53c
000002b0: 0bfa afbc e8a7 9bbb 63c2 343d fc2d 79bc
000002c0: e210 2a3d 46e4 9dbd 06c9 41ba 997e 9a3c
000002d0: 85bd ae3d 13ea f6bc a855 2dbc d650 883d
000002e0: e58e a53b 390f 80bd b5b3 74bb fef9 873c
000002f0: 72fb 583c b466 12bd d06a cb3d 37a2 06bc
00000300: 9b30 79bc 835f 84bd d7f1 94bb 8779 b5bc
00000310: 241d 8ebc 5ee2 4b3d e1bd c0bb d506 693d
00000320: 8384 ad3d 6e55 77bd a7f8 f5bc 43a3 1fbd
00000330: 3601 c83d 9dc6 043d 7f3e 4ebc 4063 493d
00000340: 620b cfba 2bb8 323d 75e6 7cbd b0eb 84bc
00000350: 7c6b 023e ea2e e9bb e72b 1b3d 114c fb3c
00000360: fdf1 b23d dfc9 11bc ab98 0dbd 24ae 8b3b
00000370: 9691 ffb9 9a92 b3bc f1c6 87bd 6cc8 2d3d
00000380: 7528 483b ab71 f13c a568 dfbc 62c7 9fbc
00000390: 129c e4bb aacc 61bd 0d0f aa3c f7ac 873d
000003a0: a01d acbd 64d2 3fbd 698c 6ebd 96ca 2bbd
000003b0: 3a7d d8bc 1f97 48bd 8502 933c d3fa e03c
000003c0: a18a 643d 3801 54bb d766 0fbc 5967 e33c
000003d0: 1f65 a23d 6555 91bc 101d 09bd 5ef6 04bd
000003e0: cd56 d4bd 271a 423e d690 fdbc 86b2 00bd
000003f0: 48d2 803b 80cd 873c d284 873c 9cb1 9e3d

conv1.bias f4 [32]
0.10262935 0.0036036617 -0.027327254 -0.041710548 0.007983503 -0.082464196 0.061804436 -0.023995558
-0.013642696 0.11943377 -0.087350816 -0.11952509 -0.10472362 -0.04266668 -0.010544227 0.048931353
0.0822388 -0.0040437975 -0.060848013 0.080159046 -0.07784847 -0.108966015 -0.10118475 -0.10579541
0.07611023 0.028267315 -0.07411722 0.043293603 0.019958144 0.09215851 -0.019125236 0.08967906
00000000: 562f d23d 692b 6c3b 68dd dfbc aed8 2abd
00000010: 3dcd 023c fde2 a8bd a626 7d3d 5592 c4bc
00000020: 9d85 5fbc b199 f43d fce4 b2bd 92c9 f4bd
00000030: 5679 d6bd 42c3 2ebd b2c1 2cbc 3e6c 483d
00000040: d16c a83d d581 84bb c43b 79bd 6d2a a43d
00000050: 056f 9fbd 9329 dfbd f339 cfbd 44ab d8bd
00000060: aedf 9b3d db90 e73c c5ca 97bd a254 313d
00000070: 437f a33c 9abd bc3d 87ac 9cbc a8a9 b73d

conv2.weight f4 [32, 32, 3, 3]
0.07712079 0.05036407 -0.19342506 0.03885494 -0.06959787 0.0330247 0.07308865 0.04147012
0.050756443 -0.06881702 -0.060545526 0.023754293 0.0064617083 0.01912364 -0.099178165 -0.19001485
-0.04562104 -0.11788386 0.024305556 0.014182053 -0.038139004 -0.11859149 0.022769766 -0.08091116
0.07210782 -0.045842666 -0.058923855 0.023579609 -0.032892235 -0.013566787 0.13484123 -0.06905458
0.10841027 0.040498123 -0.07731286 0.079914905 -0.013811813 -0.0038769979 0.04968724 -0.00381078
0.02799786 0.011544822 -0.049077764 -0.04629261 0.0064052343 -0.013854105 -0.015114653 0.036331385
-0.046583615 -0.06496529 0.04233563 0.14059226 -0.072842635 -0.1749946 -0.19201954 -0.005848887
0.025975604 0.0093798125 -0.055810172 -0.04497405 0.15328133 -0.15084699 0.04254511 -0.02680798
0.07144027 0.12787834 -0.0139880655 0.014785261 0.13249823 -0.04624769 0.06914452 0.14167634
-0.083250836 0.083509974 0.029278347 -0.0079366295 0.055764195 0.10230576 -0.09157423 0.08303114
0.02561605 0.009985686 0.075916424 0.14778979 0.18284276 0.015884701 0.053725217 0.021922162
0.027686844 -0.07958691 0.04691441 0.07829985 -0.03387115 -0.08535309 -0.0026043253 -0.04107281
-0.0064662183 -0.0059413933 0.14837979 -0.036897223 0.015375976 -0.17600878 0.051977694 -0.015802301
0.053348493 0.01734159 0.045860637 0.035141014 0.11385719 -0.08402251 0.069389015 -0.024678767
0.09543616 0.037474453 -0.05273144 -0.0012806001 -0.1955646 -0.04184369 0.00047404677 -0.0130996015
0.024481203 -0.019260177 -0.057885088 -0.09191434 -0.08415876 -0.06205403 -0.010630782 -0.14583291
0.12752993 0.14128804 0.09193791 0.05783814 0.07918929 0.03770597 -0.025420647 -0.022085194
0.027416488 0.05582402 -0.036373116 0.1328782 -0.07776413 -0.21065257 -0.0730939 -0.1569468
-0.0009485614 0.0752369 0.06322521 0.070660554 0.12982471 -0.062916316 -0.022368748 0.07908537
-0.052769657 0.018688766 -0.11031697 -0.028729264 -0.07815161 -0.13321343 -0.052658465 -0.07957834
-0.06829233 -0.06399315 0.03709987 -0.094361395 -0.012344139 -0.061395094 0.06305545 -0.018116843
0.0017341846 0.041470826 -0.08766037 -0.033193473 -0.0801047 -0.16100445 -0.11584443 -0.08915527
-0.026678108 0.036126312 -0.07289639 0.1028383 -0.036573555 -0.023840388 -0.03151397 -0.17725188
0.05597294 0.005710504 -0.046019085 0.1827379 0.06299541 0.13158786 0.09440624 0.12576725
-0.044982113 -0.1035829 0.13945694 0.04818558 0.018772533 0.013891737 -0.0916628 -0.03535897
-0.100090176 -0.059047975 0.015159201 0.11737933 -0.12953612 0.013286895 -0.0012357704 0.04293974
0.03396462 -0.021689335 -0.15925857 -0.002049642 0.08627876 -0.16388118 0.041832898 -0.14553733
0.083232805 -0.046328638 0.100613065 0.11058756 -0.04644043 -0.017513976 -0.054624327 -0.027623663
0.08645243 0.050366435 -0.16922256 0.11675365 -0.05312458 -0.028092243 0.12992167 -0.05011997
-0.030895578 -0.021978976 -0.0003444727 0.017525349 0.08068377 0.023289025 0.18838862 0.017843556
-0.0681259 -0.06951702 -0.06805155 0.00663665 -0.08250235 -0.06530284 -0.039626062 -0.009921709
-0.049529154 0.17352192 0.22954614 0.116329394 0.14204487 0.010758033 0.1109789 0.07015712
00000000: 81f1 9d3d 8e4a 4e3d 3811 46be 5c26 1f3d
00000010: 5489 8ebd e844 073d 81af 953d 93dc 293d
00000020: fde5 4f3d f0ef 8cbd 96fe 77bd 5d98 c23c
00000030: bdbc d33b 2ea9 9c3c ec1d cbbd 4193 42be
00000040: 21dd 3abd 186d f1bd 721c c73c d75b 683c
00000050: a537 1cbd 18e0 f2bd a987 ba3c c0b4 a5bd
00000060: 44ad 933d 85c5 3bbd 245a 71bd 062a c13c
00000070: 02ba 06bd 3b47 5ebc d213 0a3e 7d6c 8dbd
00000080: 3406 de3d 5ce1 253d 3456 9ebd 6daa a33d
00000090: f14a 62bc 3b15 7ebb d984 4b3d 47be 79bb
000000a0: c55b e53c 7e26 3d3c c405 49bd 529d 3dbd
000000b0: 00e3 d13b 54fc 62bc 73a3 77bc 38d0 143d
000000c0: 76ce 3ebd 860c 85bd 2068 2d3d 6bf7 0f3e
000000d0: 852e 95bd c931 33be c5a0 44be 05a8 bfbb
000000e0: caca d43c c9ad 193c 3599 64bd b636 38bd
000000f0: c8f5 1c3e a277 1abe c843 2e3d 699c dbbc
00000100: 474f 923d 8af2 023e 332e 65bc e13d 723c
00000110: 9ead 073e 386e 3dbd a49b 8d3d 9a13 113e
00000120: 6a7f aabd 4707 ab3d 25d9 ef3c a308 02bc
00000130: ff68 643d af85 d13d 458b bbbd 3b0c aa3d
00000140: c0d8 d13c 019b 233c 127a 9b3d 3556 173e
00000150: 223b 3b3e a220 823c f90e 5c3d 1b96 b33c
00000160: 85cf e23c 76fe a2bd 5329 403d ac5b a03d
00000170: 7abc 0abd 9acd aebd 54ad 2abb f63b 28bd
00000180: 92e2 d3bb 05b0 c2bb dff0 173e 8b21 17bd
00000190: 85eb 7b3c a53b 34be 90e6 543d d473 81bc
000001a0: f383 5a3d f30f 8e3c 5dd8 3b3d 06f0 0f3d
000001b0: f52d e93d fe13 acbd d41b 8e3d 202b cabc
000001c0: 0974 c33d d07e 193d ecfc 57bd cfd9 a7ba
000001d0: 1642 48be 4a64 2bbd 7b89 f839 b69f 56bc
000001e0: ce8c c83c 85c7 9dbc ea18 6dbd 963d bcbd
000001f0: 6e5b acbd 5e2c 7ebd bb2c 2ebc 3955 15be
00000200: 3597 023e d0ad 103e f149 bc3d afe7 6c3d
00000210: ff2d a23d 9371 1a3d f63e d0bc 02ec b4bc
00000220: 8b98 e03c baa7 643d fafb 14bd 3911 083e
00000230: cd42 9fbd 4fb5 57be 41b2 95bd a9b6 20be
00000240: e1a8 78ba ce15 9a3d 387c 813d 7bb6 903d
00000250: c5f0 043e 45da 80bd aa3e b7bc 83f7 a13d
00000260: ff24 58bd 2f19 993c dded e1bd a259 ebbc
00000270: f40d a0bd 1a69 08be 67b0 57bd f8f9 a2bd
00000280: d9dc 8bbd d70e 83bd 09f6 173d 8c40 c1bd
00000290: 123f 4abc 6c79 7bbd 3723 813d c669 94bc
000002a0: 944d e33a 50dd 293d 4887 b3bd e1f5 07bd
000002b0: ef0d a4bd 5ade 24be d83f edbd 0a97 b6bd
000002c0: 0c8c dabc 2ff9 133d b44a 95bd e39c d23d
000002d0: 27ce 15bd eb4c c3bc cb14 01bd 8481 35be
000002e0: e243 653d 2e1f bb3b 827e 3cbd a51f 3b3e
000002f0: bd03 813d f8be 063e 0f58 c13d 21c9 003e
00000300: 2a3f 38bd 4523 d4bd cdcd 0e3e 3e5e 453d
00000310: dbc8 993c 2b9a 633c b5b9 bbbd 91d4 10bd
00000320: 14fc ccbd 4adc 71bd 4c5e 783c 9364 f03d
00000330: 1ea5 04be 47b1 593c 93f9 a1ba 95e1 2f3d
00000340: 7c1e 0b3d d5ad b1bc ae14 23be 4953 06bb
00000350: ebb2 b03d 78d0 27be f958 2b3d bd07 15be
00000360: f675 aa3d 19c3 3dbd 390e ce3d bb7b e23d
00000370: 5238 3ebd 7879 8fbc c2bd 5fbd 054b e2bc
00000380: f90d b13d 094d 4e3d ae48 2dbe 8a1c ef3d
00000390: 2999 59bd b421 e6bc 300a 053e 994a 4dbd
000003a0: b918 fdbc 410d b4bc 589a b4b9 5291 8f3c
000003b0: 883d a53d a0c8 be3c f2e8 403e a62c 923c
000003c0: 9885 8bbd f05e 8ebd 9c5e 8bbd 4178 d93b
000003d0: fef6 a8bd 7fbd 85bd f04e 22bd aa8e 22bc
000003e0: 15df 4abd bbaf 313e 250e 6b3e 1b3e ee3d
000003f0: 3674 113e 7642 303c e848 e33d 89ae 8f3d

conv2.bias f4 [32]
0.03034556 -0.04260395 -0.020758219 -0.021451406 -0.051030528 -0.03868592 -0.0290103 -0.05162776
-0.0022451011 -0.039637208 0.026342077 0.015167628 0.03776243 0.011191728 0.050957903 -0.011361434
-0.061644923 0.027661668 0.012018005 -0.009062345 -0.02577682 -0.028565727 0.0064678034 -0.09602722
0.034059122 0.0105948 0.055669546 -0.03606994 0.0399409 -0.04580464 -0.04451138 -0.057391647
00000000: 4097 f83c 7b81 2ebd 240d aabc dcba afbc
00000010: 6305 51bd 2175 1ebd 02a7 edbc a177 53bd
00000020: 8c22 13bb a05a 22bd 57cb d73c a581 783c
00000030: c7ac 1a3d 825d 373c 3cb9 503d 4f25 3abc
00000040: 637f 7cbd b99a e23c 2be7 443c 3b7a 14bc
00000050: e929 d3bc ac02 eabc deef d33b eba9 c4bd
00000060: 9481 0b3d d095 2d3c c005 643d 13be 13bd
00000070: 1299 233d a59d 3bbd 9151 36bd 8113 6bbd
