unlearn_0.02/checkpoint_step_0320.pth (torch_old, 541511 bytes, 24 tensors)

momentum_buffer f4 [3]
0.23214504 -0.21214388 0.0916047
00000000: 6eb7 6d3e 3f3c 59be 3f9b bb3d

momentum_buffer f4 [3]
-0.1353004 0.14875579 -0.08369896
00000000: 308c 0abe 7053 183e 5c6a abbd

momentum_buffer f4 [32, 3, 5, 5]
-0.13168018 -0.13212043 -0.122142054 -0.11123464 -0.11331118 -0.13958801 -0.14248054 -0.13287885
-0.12110133 -0.12211099 -0.14351106 -0.14546137 -0.13362734 -0.12092387 -0.121996805 -0.14245103
-0.14377627 -0.13104823 -0.11637587 -0.11679814 -0.13982369 -0.14389354 -0.13366711 -0.11970287
-0.11954019 -0.13370985 -0.13398114 -0.12422163 -0.11291167 -0.11538147 -0.14449319 -0.14645468
-0.13698724 -0.12495213 -0.12580326 -0.15111728 -0.15315421 -0.14086118 -0.12749395 -0.1285656
-0.150863 -0.15314955 -0.13998894 -0.12542537 -0.12508632 -0.14824688 -0.15330678 -0.14293909
-0.1290995 -0.12827474 -0.13494547 -0.13400745 -0.12355266 -0.11349846 -0.11619093 -0.14647576
-0.14869307 -0.13784404 -0.12638311 -0.12762031 -0.15588948 -0.1565219 -0.14433165 -0.1309845
-0.13117479 -0.15776782 -0.1593054 -0.1454228 -0.13043705 -0.12944672 -0.1558035 -0.1606452
-0.14954442 -0.13545011 -0.13376258 0.09658797 0.103758216 0.11786433 0.12641503 0.12632513
0.095426254 0.102548935 0.11328691 0.12447727 0.12756473 0.09127312 0.102129616 0.11583531
0.1262618 0.12772407 0.08520604 0.09731929 0.114524 0.12463456 0.12472099 0.088441506
0.09336254 0.10704511 0.12026988 0.123914495 0.12522306 0.13286947 0.14794882 0.15848687
0.1585905 0.12251124 0.13097546 0.14390121 0.15768886 0.16156676 0.11730765 0.13004476
0.14717217 0.16080014 0.16440372 0.11283056 0.12656467 0.14719895 0.16095291 0.16264074
0.117837064 0.12489492 0.14154878 0.15820615 0.16232704 0.11012188 0.11604592 0.13041057
0.13954802 0.13846421 0.10838933 0.11535771 0.12659794 0.13952515 0.14268996 0.10486506
0.116404586 0.13116236 0.14454387 0.14797296 0.10106231 0.1153514 0.13455425 0.14698292
0.14806464 0.107536845 0.1156416 0.131953 0.14709295 0.1497033 0.07599915 0.07683436
0.078066126 0.07842046 0.079397894 0.07832453 0.080375105 0.08210368 0.083597764 0.083729066
0.078594856 0.08051656 0.08218859 0.08481801 0.084953755 0.07935611 0.08051559 0.0810171
0.08386363 0.084980845 0.07548522 0.077352114 0.07933539 0.081867166 0.08354712 0.0756885
0.07659473 0.07696809 0.07894179 0.08008802 0.07962145 0.080747776 0.08233058 0.08460908
0.084931605 0.07944238 0.08140612 0.0835564 0.0858522 0.08636152 0.08085974 0.08117949
0.0822917 0.08469186 0.08637112 0.07689076 0.07839501 0.0810532 0.08349083 0.08536289
0.07632158 0.0753716 0.0756319 0.07673084 0.078099996 0.0796202 0.08061389 0.08165124
0.08263325 0.082956165 0.07999567 0.08167573 0.08373001 0.08452899 0.08481423 0.081371285
0.082160704 0.08194274 0.08364231 0.08458336 0.07803697 0.07870455 0.07994832 0.082669206
0.08348143 0.10285718 0.10020006 0.10028286 0.10031019 0.09043094 0.11693246 0.11706607
0.1079507 0.09953593 0.08805326 0.109982684 0.11361704 0.11197522 0.10435619 0.094168626
0.104436904 0.10570709 0.109042756 0.110749856 0.10843173 0.10601069 0.10312253 0.101774186
0.10697108 0.11993601 0.117609814 0.117479905 0.11847644 0.11687204 0.104666434 0.13425303
00000000: 2bd7 06be 944a 07be 9d25 fabd fdce e3bd
00000010: b10f e8bd 29f0 0ebe 6be6 11be 6511 08be
00000020: f903 f8bd 5415 fabd 90f4 12be d3f3 14be
00000030: 9bd5 08be efa6 f7bd 76d9 f9bd afde 11be
00000040: 163a 13be 8231 06be 7956 eebd dd33 efbd
00000050: f12d 0fbe d458 13be 08e0 08be c726 f5bd
00000060: 7dd1 f4bd 3ceb 08be 5a32 09be e967 febd
00000070: 3c3e e7bd 1f4d ecbd 06f6 13be 37f8 15be
00000080: 6246 0cbe e7e6 ffbd 92d2 00be 7dbe 1abe
00000090: 75d4 1cbe ea3d 10be c68d 02be b3a6 03be
000000a0: d57b 1abe 3cd3 1cbe 4359 0fbe 826f 00be
000000b0: a116 00be 08ce 17be 74fc 1cbe a05e 12be
000000c0: a932 04be 745a 03be 252f 0abe 4039 09be
000000d0: 2d09 fdbd e171 e8bd 83f5 edbd befd 15be
000000e0: ff42 18be fd26 0dbe 936a 01be e6ae 02be
000000f0: 7ea1 1fbe 4747 20be adcb 13be cd20 06be
00000100: af52 06be e38d 21be f420 23be b7e9 14be
00000110: 4a91 05be ae8d 04be f48a 1fbe 2d80 24be
00000120: 2c22 19be 6fb3 0abe 0ff9 08be eacf c53d
00000130: 307f d43d db62 f13d f172 013e 605b 013e
00000140: d76e c33d 2d05 d23d f802 e83d f0ed fe3d
00000150: 54a0 023e 67ed ba3d 5529 d13d 103b ed3d
00000160: c64a 013e 19ca 023e 8180 ae3d 564f c73d
00000170: 8f8b ea3d 6740 ff3d b86d ff3d d220 b53d
00000180: dc34 bf3d 773a db3d 0e50 f63d e2c6 fd3d
00000190: 793a 003e ef0e 083e e57f 173e 624a 223e
000001a0: 8c65 223e 2ce7 fa3d 6e1e 063e d75a 133e
000001b0: 3079 213e c271 253e fe3e f03d 742a 053e
000001c0: 4db4 163e cba8 243e 7359 283e b513 e73d
000001d0: 2b9a 013e 52bb 163e d7d0 243e 4b8b 263e
000001e0: 8f54 f13d e8c8 ff3d 2af2 103e cb00 223e
000001f0: 0f39 263e 9587 e13d 7ca9 ed3d 598a 053e
00000200: ade5 0e3e 90c9 0d3e 3afb dd3d aa40 ec3d
00000210: e4a2 013e aedf 0e3e 511d 123e 7ec3 d63d
00000220: 8765 ee3d 6d4f 063e 4f03 143e 3986 173e
00000230: c2f9 ce3d 5b3d ec3d 97c8 093e b182 163e
00000240: 429e 173e 473c dc3d 81d5 ec3d b01e 073e
00000250: 899f 163e d24b 193e 71a5 9b3d 555b 9d3d
00000260: 22e1 9f3d e89a a03d 5d9b a23d 9c68 a03d
00000270: b49b a43d f925 a83d 4e35 ab3d 257a ab3d
00000280: 57f6 a03d dee5 a43d 7e52 a83d 11b5 ad3d
00000290: 3cfc ad3d 7585 a23d 5ce5 a43d 4bec a53d
000002a0: b2c0 ab3d 700a ae3d ff97 9a3d c96a 9e3d
000002b0: 987a a23d f9a9 a73d c11a ab3d 9302 9b3d
000002c0: b3dd 9c3d 72a1 9d3d 3cac a13d 3005 a43d
000002d0: 9210 a33d 175f a53d ef9c a83d 8647 ad3d
000002e0: 9ff0 ad3d b0b2 a23d 40b8 a63d 9e1f ab3d
000002f0: 47d3 af3d 4fde b03d cb99 a53d 6f41 a63d
00000300: 8d88 a83d ed72 ad3d 57e3 b03d e778 9d3d
00000310: 908d a03d 38ff a53d 3efd aa3d bdd2 ae3d
00000320: 7d4e 9c3d 6d5c 9a3d e6e4 9a3d 0f25 9d3d
00000330: e4f2 9f3d ea0f a33d e518 a53d c438 a73d
00000340: 9f3b a93d ece4 a93d c5d4 a33d 9b45 a73d
00000350: a47a ab3d 891d ad3d 15b3 ad3d fda5 a63d
00000360: df43 a83d 98d1 a73d a94c ab3d 0a3a ad3d
00000370: d9d1 9f3d da2f a13d f2bb a33d 794e a93d
00000380: 50f8 aa3d c9a6 d23d b035 cd3d 1a61 cd3d
00000390: 6e6f cd3d db33 b93d 497a ef3d 56c0 ef3d
000003a0: 4215 dd3d 7ed9 cb3d 4555 b43d 9a3e e13d
000003b0: 0db0 e83d 4453 e53d b3b8 d53d 7bdb c03d
000003c0: 04e3 d53d f57c d83d cf51 df3d d2d0 e23d
000003d0: 7411 de3d 221c d93d e831 d33d fc6e d03d
000003e0: a713 db3d 03a1 f53d 6add f03d 4e99 f03d
000003f0: c7a3 f23d 9c5a ef3d 5b5b d63d a079 093e

momentum_buffer f4 [32]
-0.105172865 0.05379966 0.034648657 0.15781127 0.0028950097 0.28682297 0.26979035 -0.0068172226
-0.03504067 -0.015524775 -0.061673276 0.00046235105 0.017848464 -0.12142377 -0.024529632 -0.07928866
0.046651732 0.33373776 -0.07759485 0.20162128 0.2082667 0.06699784 0.08183142 0.14700933
-0.043977562 -0.043250863 -0.03517813 -0.02973758 -0.0055065826 -0.04365219 -0.2334295 0.04963272
00000000: df64 d7bd 085d 5c3d c0eb 0d3d 4799 213e
00000010: 34ba 3d3b 76da 923e f621 8a3e 0263 dfbb
00000020: ce86 0fbd a05b 7ebc 1e9d 7cbd b567 f239
00000030: f136 923c 07ad f8bd 5ef2 c8bc 1862 a2bd
00000040: e315 3f3d addf aa3e 0cea 9ebd cf75 4e3e
00000050: de43 553e 2a36 893d 3b97 a73d 9d89 163e
00000060: d121 34bd d127 31bd f116 10bd 3a9c f3bc
00000070: 9070 b4bb a4cc 32bd 2508 6fbe ae4b 4b3d

momentum_buffer f4 [32, 32, 3, 3]
-0.05952864 -0.05995226 -0.06018864 -0.06117133 -0.06250661 -0.061110187 -0.06149374 -0.0625606
-0.061982367 -0.014424833 -0.013847004 -0.014556643 -0.014964998 -0.01416915 -0.014830898 -0.016402211
-0.014655916 -0.0148204 -0.027487617 -0.027438622 -0.028222542 -0.0288546 -0.02808896 -0.028967602
-0.028276082 -0.02878238 -0.029062465 -0.006769596 -0.0068534673 -0.0067619886 -0.0064588943 -0.007362205
-0.00649184 -0.006798181 -0.007329708 -0.006652906 -0.022680197 -0.022731408 -0.0234353 -0.02300018
-0.022684105 -0.02363996 -0.023752453 -0.023402598 -0.023558538 -0.008682662 -0.009031534 -0.009124717
-0.008520644 -0.008739181 -0.008881154 -0.008029008 -0.008991116 -0.009898275 -0.011095288 -0.01026898
-0.010171862 -0.010483397 -0.010628777 -0.010535839 -0.009965023 -0.011320851 -0.010263351 -0.04821067
-0.0472845 -0.046591274 -0.04888608 -0.04881566 -0.04776283 -0.048761632 -0.04860156 -0.047991127
-0.008813418 -0.0078039602 -0.0075472915 -0.008669613 -0.008349995 -0.007830939 -0.008486763 -0.007366141
-0.0075624953 -0.02448733 -0.0243662 -0.022741111 -0.023944117 -0.025172703 -0.024014123 -0.024640717
-0.024858346 -0.024504248 -0.014872416 -0.014738338 -0.014373795 -0.014956074 -0.014662483 -0.014054817
-0.013788226 -0.014042549 -0.012938807 -0.0050215134 -0.0046217954 -0.005202737 -0.0050523803 -0.0052294065
-0.0044735647 -0.0054815686 -0.0051893992 -0.004893155 -0.011519878 -0.0121715125 -0.012223086 -0.012881499
-0.011737105 -0.012369188 -0.013128612 -0.012202854 -0.013179938 -0.02047157 -0.020123089 -0.019657966
-0.01891331 -0.019097323 -0.018821733 -0.018275265 -0.018538484 -0.018515678 -0.023246082 -0.024471786
-0.023462867 -0.023539785 -0.024345702 -0.024633972 -0.023820657 -0.024455346 -0.024789521 -0.019439522
-0.01900579 -0.017693426 -0.020159453 -0.019220483 -0.01948532 -0.021350352 -0.020479498 -0.02027563
-0.025055882 -0.024736907 -0.02330132 -0.025982562 -0.025576273 -0.024946772 -0.026396574 -0.025768537
-0.024984775 -0.012792642 -0.0133434925 -0.012870143 -0.013278516 -0.013531281 -0.013078523 -0.013304225
-0.013162457 -0.013125476 -0.011651524 -0.012431383 -0.0116354395 -0.012080853 -0.0115339635 -0.01152997
-0.011584786 -0.011281697 -0.011598793 -0.029403243 -0.030106867 -0.03010024 -0.029396689 -0.029774647
-0.029087048 -0.027771128 -0.0288619 -0.027677217 -0.008227036 -0.008620836 -0.008074408 -0.008705702
-0.008050922 -0.008019122 -0.0079846075 -0.007277072 -0.007715134 -0.044040967 -0.043698967 -0.04352207
-0.045737326 -0.045619674 -0.04416262 -0.04582503 -0.045637224 -0.045314208 -0.016946992 -0.015848473
-0.016783198 -0.017406426 -0.016154489 -0.015665963 -0.017900253 -0.016343545 -0.0163669 -0.018026045
-0.017504677 -0.016409272 -0.018465644 -0.017680475 -0.016491614 -0.01792099 -0.017074957 -0.01787783
-0.015456867 -0.016184434 -0.015306398 -0.0147114685 -0.015335531 -0.014834257 -0.014712186 -0.0143233035
-0.013491485 -0.106364995 -0.106536284 -0.105583504 -0.10875301 -0.1077641 -0.106798664 -0.109669335
-0.10910365 -0.10859934 -0.017523305 -0.017691456 -0.017100932 -0.017233532 -0.016546182 -0.017110173
-0.017169433 -0.017295163 -0.017128216 -0.029327814 -0.029698377 -0.028702116 -0.030284956 -0.030070772
-0.029408447 -0.028845815 -0.028441506 -0.028122704 -0.0059432425 -0.006359862 -0.005476558 -0.0062316055
00000000: 4ed4 73bd 8090 75bd 5d88 76bd ca8e 7abd
00000010: 7703 80bd ad4e 7abd dce0 7bbd c61f 80bd
00000020: 39e1 7dbd 2256 6cbc 8bde 62bc fc7e 6ebc
00000030: c02f 75bc b925 68bc 4bfd 72bc ee5d 86bc
00000040: 5e1f 70bc 43d1 72bc b62d e1bc f6c6 e0bc
00000050: f632 e7bc 7b60 ecbc d21a e6bc 774d edbc
00000060: 3ea3 e7bc 07c9 ebbc 6814 eebc 7dd3 ddbb
00000070: 0d93 e0bb ac93 ddbb 22a5 d3bb a73e f1bb
00000080: 80b9 d4bb 47c3 debb 0c2e f0bb 9f00 dabb
00000090: d2cb b9bc 3837 babc 63fb bfbc e06a bcbc
000000a0: 04d4 b9bc 97a8 c1bc 8194 c2bc ceb6 bfbc
000000b0: d6fd c0bc b941 0ebc 00f9 13bc d67f 15bc
000000c0: 2c9a 0bbc c82e 0fbc 4282 11bc 1a8c 03bc
000000d0: 794f 13bc 602c 22bc 03c9 35bc 393f 28bc
000000e0: e2a7 26bc 8ec2 2bbc 5224 2ebc 839e 2cbc
000000f0: 5644 23bc 177b 39bc 9d27 28bc 8d78 45bd
00000100: 64ad 41bd 7ed6 3ebd c53c 48bd eef2 47bd
00000110: f5a2 43bd 47ba 47bd 6e12 47bd 5892 44bd
00000120: 2866 10bc 5db8 ffbb 454f f7bb fe0a 0ebc
00000130: 6bce 08bc 574d 00bc 100c 0bbc ab5f f1bb
00000140: cfce f7bb a799 c8bc a09b c7bc 914b babc
00000150: 7426 c4bc fc36 cebc 44b9 c4bc 54db c9bc
00000160: bba3 cbbc 22bd c8bc 6fab 73bc 1279 71bc
00000170: 1180 6bbc 520a 75bc e93a 70bc 2d46 66bc
00000180: 03e8 61bc b812 66bc 4afd 53bc 828b a4bb
00000190: 6e72 97bb b97b aabb 708e a5bb 715b abbb
000001a0: fb96 92bb bb9e b3bb d60b aabb c256 a0bb
000001b0: dfbd 3cbc 066b 47bc 5743 48bc ec0c 53bc
000001c0: fd4c 40bc 22a8 4abc 6419 57bc 7bee 47bc
000001d0: abf0 57bc feb3 a7bc 2dd9 a4bc be09 a1bc
000001e0: 16f0 9abc fd71 9cbc 0930 9abc 02b6 95bc
000001f0: 05de 97bc 31ae 97bc 916e bebc 0e79 c8bc
00000200: 3335 c0bc 82d6 c0bc a370 c7bc 2fcd c9bc
00000210: 8a23 c3bc 9456 c8bc 6513 cbbc a23f 9fbc
00000220: 08b2 9bbc cef1 90bc 7025 a5bc 4674 9dbc
00000230: ae9f 9fbc efe6 aebc 9fc4 a7bc 1419 a6bc
00000240: fe41 cdbc 0ea5 cabc 69e2 bebc 62d9 d4bc
00000250: 5585 d1bc 2c5d ccbc a13d d8bc 8a18 d3bc
00000260: dfac ccbc 3b98 51bc aa9e 5abc 4bdd 52bc
00000270: 228e 59bc 4eb2 5dbc 4d47 56bc f7f9 59bc
00000280: 59a7 57bc 3d0c 57bc 09e6 3ebc 00ad 4bbc
00000290: 92a2 3ebc c5ee 45bc f3f8 3cbc 33e8 3cbc
000002a0: 1dce 3dbc ded6 38bc dd08 3ebc 12df f0bc
000002b0: ada2 f6bc c794 f6bc 53d1 f0bc f6e9 f3bc
000002c0: f647 eebc 4780 e3bc cb6f ecbc 55bb e2bc
000002d0: b1ca 06bc 683e 0dbc 864a 04bc 5ca2 0ebc
000002e0: 04e8 03bc a362 03bc dfd1 02bc 8174 eebb
000002f0: 3ccf fcbb 4d64 34bd b0fd 32bd 3344 32bd
00000300: 1057 3bbd b2db 3abd dde3 34bd 07b3 3bbd
00000310: 19ee 3abd 649b 39bd 6bd4 8abc a8d4 81bc
00000320: eb7c 89bc ec97 8ebc 6b56 84bc e855 80bc
00000330: 8da3 92bc e6e2 85bc e113 86bc 5bab 93bc
00000340: f865 8fbc bd6c 86bc 4345 97bc a5d6 90bc
00000350: 6c19 87bc 0acf 92bc c8e0 8bbc 8774 92bc
00000360: cd3e 7dbc 3895 84bc b0c7 7abc 5f08 71bc
00000370: e141 7bbc 620b 73bc 610b 71bc 4aac 6abc
00000380: 640b 5dbc e4d5 d9bd b22f dabd 2a3c d8bd
00000390: e6b9 debd 6db3 dcbd 42b9 dabd 519a e0bd
000003a0: bc71 dfbd 5569 debd 098d 8fbc aced 90bc
000003b0: 4117 8cbc 562d 8dbc dc8b 87bc a22a 8cbc
000003c0: e9a6 8cbc 96ae 8dbc 7950 8cbc e240 f0bc
000003d0: 034a f3bc b320 ebbc 2818 f8bc fb56 f6bc
000003e0: fce9 f0bc 0f4e ecbc 29fe e8bc 9661 e6bc
000003f0: 88bf c2bb 6466 d0bb b374 b3bb 7f32 ccbb

momentum_buffer f4 [32]
-0.054565072 -0.00021442326 0.052542724 -0.07755924 -0.011954714 -0.004264438 -0.030214163 0.009831548
0.0063916678 -2.3872637e-05 0.009525383 -0.016621545 -0.012188242 -0.05904051 -0.064273514 -8.886185e-05
0.1299442 0.00475227 0.07834134 -0.015477124 0.0057979315 -0.081445284 -0.004883717 0.18321088
-0.035165668 0.0042300774 -0.016369274 0.070255436 0.0167726 0.05396861 -0.022371389 0.04010564
00000000: a07f 5fbd ced6 60b9 0a37 573d 61d7 9ebd
00000010: b4dd 43bc b3bc 8bbb b183 f7bc 8014 213c
00000020: 3271 d13b 1942 c8b7 5a10 1c3c e829 88bc
00000030: 31b1 47bc 76d4 71bd d5a1 83bd 585b bab8
00000040: 1810 053e eeb8 9b3b 6d71 a03d c393 7dbc
00000050: 93fc bd3b c9cc a6bd 9607 a0bb a29b 3b3e
00000060: e009 10bd 769c 8a3b db18 86bc 15e2 8f3d
00000070: b166 893c 300e 5d3d 3444 b7bc d045 243d

momentum_buffer f4 [64, 32, 3, 3]
-0.008137721 -0.008157128 -0.008262392 -0.008001798 -0.008433582 -0.0077941925 -0.007873702 -0.008635085
-0.0085243285 -0.00021173438 0.00015669873 0.00012648584 0.00021367229 0.00018156531 -0.00014909857 4.7451365e-05
-0.0002743557 0.00014720342 -0.0045699957 -0.0056426516 -0.006244973 -0.004747587 -0.005143266 -0.006054819
-0.0046252734 -0.0059098136 -0.0061811698 -0.01032762 -0.012106149 -0.011752716 -0.011473076 -0.011751683
-0.011863263 -0.011503975 -0.01282081 -0.012401399 -0.008096008 -0.00816074 -0.008496979 -0.007866071
-0.0087087685 -0.009020716 -0.007827318 -0.00843431 -0.009083423 -0.016360188 -0.016014744 -0.016361734
-0.016557934 -0.01706546 -0.01626227 -0.016863087 -0.017078701 -0.017218834 -0.01587043 -0.016137267
-0.016800899 -0.016632468 -0.017041152 -0.01706586 -0.016667688 -0.016494013 -0.017638726 -0.012793954
-0.012191976 -0.01290255 -0.013046386 -0.013298994 -0.013253925 -0.012953901 -0.013348341 -0.013505965
-2.2961802e-05 -0.0004659912 4.971037e-05 4.2229825e-05 4.178117e-05 -0.00014587924 -0.000104903454 -7.129312e-05
-0.00047159984 -0.00016518147 0.00025963425 0.00019155275 -0.0001653664 0.0003909163 5.9273207e-05 8.2888124e-05
8.221108e-05 0.00028490278 -0.00015179854 -0.0007750903 -0.0007837394 -0.00034371568 -0.0007299124 -0.00068811234
-0.0007955666 -0.0012153804 -0.00039543837 -0.0043377685 -0.0044324473 -0.0038466828 -0.004736221 -0.00504741
-0.005021904 -0.0039262455 -0.004313768 -0.0047703115 -0.010285046 -0.010025933 -0.009300357 -0.010218723
-0.009980557 -0.010178535 -0.010209099 -0.010610574 -0.010374104 -0.0073904754 -0.0070040566 -0.0066794874
-0.0076878904 -0.0074348575 -0.007726446 -0.0072658933 -0.0072014024 -0.0072911875 -0.008995342 -0.009223481
-0.008623762 -0.009142302 -0.009792154 -0.009212258 -0.008813283 -0.008983033 -0.008675143 -0.0007581209
0.00018327049 0.00036233227 -0.00093150436 -0.00059505465 0.00017340656 -0.0008502573 3.0058198e-05 6.9555914e-05
-0.0059825294 -0.0061612343 -0.0060611037 -0.006365578 -0.0064156884 -0.00620637 -0.006169803 -0.006489231
-0.006553746 -0.00027035075 -0.00037090958 8.903393e-05 0.00015264757 -0.00014674246 -8.0680016e-05 1.2045165e-05
-0.00017317859 -1.4045984e-05 -0.01755975 -0.017798327 -0.018361552 -0.01807489 -0.018821912 -0.01945444
-0.018640628 -0.018923111 -0.019767009 -0.03158245 -0.032344747 -0.03232367 -0.032086004 -0.032478087
-0.033708196 -0.032988217 -0.033460557 -0.03381619 -0.018728197 -0.018885525 -0.018773703 -0.02021917
-0.02018673 -0.020109707 -0.020397523 -0.020739488 -0.019785184 -0.0113024535 -0.01130986 -0.011591989
-0.010780444 -0.01189863 -0.011315549 -0.010679042 -0.01105625 -0.011446649 -0.0014805838 -0.0013078116
-0.0009961755 -0.001046128 -0.0010841222 -0.00088142155 -0.0007910732 -0.0013679795 -0.0009489551 -0.012182406
-0.012217781 -0.012240165 -0.012674626 -0.0123855695 -0.012333072 -0.013015075 -0.012948006 -0.012897667
-0.03204141 -0.03307007 -0.033278983 -0.033263586 -0.033827957 -0.03401663 -0.033631075 -0.03434713
-0.03455788 -0.0019733813 -0.002139248 -0.0024290106 -0.0019249968 -0.002660299 -0.0020014108 -0.0021151553
-0.0025520357 -0.00200313 -0.002726324 -0.002041419 -0.0029610523 -0.0027304464 -0.002995219 -0.0030984294
-0.002364525 -0.003316615 -0.0028032684 -0.00367327 -0.0042517395 -0.0046785558 -0.003788062 -0.0041181142
-0.0048419405 -0.0039022462 -0.0039812448 -0.0056429547 -0.0038868585 -0.0030994206 -0.0037330042 -0.004315075
00000000: 1354 05bc 79a5 05bc fc5e 07bc f919 03bc
00000010: 022d 0abc 6d66 ffbb b300 01bc 2c7a 0dbc
00000020: a0a9 0bbc 0405 5eb9 7f4f 2439 49a1 0439
00000030: 380d 6039 9162 3e39 5857 1cb9 8406 4738
00000040: 66d7 8fb9 9e5a 1a39 e7bf 95bb fee5 b8bb
00000050: a1a2 ccbb a591 9bbb d888 a8bb 8167 c6bb
00000060: 9b8f 97bb 1ca7 c1bb 698b cabb 2e35 29bc
00000070: df58 46bc 778e 40bc 92f9 3bbc 228a 40bc
00000080: 225e 42bc 2b7b 3cbc 600e 52bc 3d2f 4bbc
00000090: 1ea5 04bc a0b4 05bc ea36 0bbc b1e0 00bc
000000a0: 39af 0ebc a0cb 13bc 273e 00bc 0f30 0abc
000000b0: a3d2 14bc cd05 86bc 5a31 83bc 0b09 86bc
000000c0: 81a4 87bc ddcc 8bbc 7438 85bc 7524 8abc
000000d0: a2e8 8bbc 830e 8dbc b402 82bc 4d32 84bc
000000e0: 0aa2 89bc d040 88bc e399 8bbc b4cd 8bbc
000000f0: ad8a 88bc 741e 87bc 177f 90bc bc9d 51bc
00000100: dbc0 47bc 3865 53bc 82c0 55bc 06e4 59bc
00000110: fe26 59bc 993c 54bc 00b3 5abc 1f48 5dbc
00000120: 189e c0b7 4850 f4b9 1a80 5038 ee1f 3138
00000130: 313e 2f38 29f7 18b9 9dff dbb8 3483 95b8
00000140: 0f41 f7b9 9034 2db9 851f 8839 8ddb 4839
00000150: 3466 2db9 e6f3 cc39 1f9c 7838 39d4 ad38
00000160: bd68 ac38 015f 9539 1c2c 1fb9 6e2f 4bba
00000170: dc73 4dba bd34 b4b9 9857 3fba 7062 34ba
00000180: 928d 50ba 664d 9fba d752 cfb9 d723 8ebb
00000190: 103e 91bb a118 7cbb 4d32 9bbb be64 a5bb
000001a0: c98e a4bb bca7 80bb 825a 8dbb 4650 9cbb
000001b0: 9c82 28bc d043 24bc 8660 18bc 6e6c 27bc
000001c0: 7d85 23bc dfc3 26bc 1144 27bc f9d7 2dbc
000001d0: 25f8 29bc cd2b f2bb 4982 e5bb 9adf dabb
000001e0: b3ea fbbb 1ba0 f3bb 202e fdbb bb16 eebb
000001f0: bef9 ebbb eaea eebb 3361 13bc 151e 17bc
00000200: ae4a 0dbc 98c9 15bc 456f 20bc 03ef 16bc
00000210: 9765 10bc 922d 13bc 3022 0ebc a2bc 46ba
00000220: 4c2c 4039 6af7 bd39 3330 74ba 71fd 1bba
00000230: 78d4 3539 cde3 5eba 7d25 fc37 8cde 9138
00000240: 1809 c4bb 2ee4 c9bb 399c c6bb 5796 d0bb
00000250: b23a d2bb ce5e cbbb 0f2c cabb 9da3 d4bb
00000260: cec0 d6bb ddbd 8db9 a476 c2b9 bab7 ba38
00000270: 0510 2039 e1de 19b9 c132 a9b8 9715 4a37
00000280: 4697 35b9 0ba7 6bb7 77d9 8fbc cccd 91bc
00000290: f76a 96bc cb11 94bc 6930 9abc eb5e 9fbc
000002a0: 3bb4 98bc a404 9bbc 6cee a1bc 995c 01bd
000002b0: ed7b 04bd d365 04bd 9d6c 03bd be07 05bd
000002c0: 9b11 0abd a71e 07bd f00d 09bd d882 0abd
000002d0: e06b 99bc d1b5 9abc 4fcb 99bc aca2 a5bc
000002e0: a45e a5bc 1dbd a4bc b518 a7bc dce5 a9bc
000002f0: 8a14 a2bc ed2d 39bc fe4c 39bc 53ec 3dbc
00000300: 76a0 30bc 79f2 42bc da64 39bc 26f7 2ebc
00000310: 4625 35bc ba8a 3bbc 2610 c2ba e06a abba
00000320: 1a92 82ba 3b1e 89ba 1b19 8eba 330f 67ba
00000330: 0660 4fba c64d b3ba 4cc3 78ba b798 47bc
00000340: 162d 48bc f98a 48bc 3ca9 4fbc d8ec 4abc
00000350: a710 4abc 2e3d 55bc e023 54bc bc50 53bc
00000360: db3d 03bd 7b74 07bd 8b4f 08bd 663f 08bd
00000370: 2f8f 0abd 0655 0bbd bdc0 09bd 94af 0cbd
00000380: 908c 0dbd d853 01bb a032 0cbb 0930 1fbb
00000390: 2d50 fcba 6958 2ebb 1a2a 03bb 6b9e 0abb
000003a0: 0e40 27bb f246 03bb 20ac 32bb 54c9 05bb
000003b0: 370e 42bb 4af1 32bb 704b 44bb 050f 4bbb
000003c0: 26f6 1abb 915b 59bb 0ab7 37bb 3fbb 70bb
000003d0: 2d52 8bbb 924e 99bb 2241 78bb 3ff1 86bb
000003e0: 24a9 9ebb d4bc 7fbb 1a75 82bb 89e8 b8bb
000003f0: aaba 7ebb a61f 4bbb 6ba5 74bb 7965 8dbb

momentum_buffer f4 [64]
-0.017007412 0.0018035591 -0.028810892 -0.032051943 1.3506638e-06 -0.00015840332 -0.009431213 -0.00846054
0.00023241097 0.03906294 -0.0064160395 -0.002819539 -9.1304835e-05 -0.00061730656 -0.0002558967 -0.0023295537
-0.015656004 0.019546364 -0.0002452797 0.021238735 -0.006724458 -0.00014319991 -0.0014481858 0.008730741
0.021547725 0.00013421076 -0.04005109 0.0025412939 0.008198953 0.0071957298 -0.000540109 5.3701435e-05
0.011920401 0.0076910714 0.010641411 8.82969e-05 -0.0034011584 -7.552579e-05 0.03276408 0.009911776
0.008246148 -0.00015221348 0.0025409295 -0.0017711235 0.015446348 -0.0013390954 0.025886197 0.012610978
-0.007814466 -0.0008322873 -0.0004348347 -0.014327544 0.03972672 -0.002065531 0.042019594 -0.019221408
0.0049873875 -0.034215037 5.167585e-07 0.005141974 0.011520784 0.0024257577 -0.0032475765 0.025365565
00000000: 2153 8bbc 6765 ec3a d204 ecbc e648 03bd
00000010: 7448 b535 1119 26b9 6085 1abc 149e 0abc
00000020: 58b3 7339 7600 203d a43d d2bb 04c8 38bb
00000030: e97a bfb8 bed2 21ba e029 86b9 6dab 18bb
00000040: 0541 80bc b21f a03c e298 80b9 dbfc ad3c
00000050: d858 dcbb ef27 16b9 0dd1 bdba 620b 0f3c
00000060: db84 b03c edba 0c39 9d0c 24bd d68b 263b
00000070: e754 063c 28ca eb3b 1a96 0dba 7a3d 6138
00000080: c94d 433c 6205 fc3b 5059 2e3c 0a2c b938
00000090: f8e5 5ebb 9a63 9eb8 a133 063d 0065 223c
000000a0: da1a 073c 7f9b 1fb9 b985 263b 0b25 e8ba
000000b0: ae12 7d3c 9684 afba 4a0f d43c 479e 4e3c
000000c0: 3f08 00bc db2d 5aba 87fa e3b9 13be 6abc
000000d0: 7cb8 223d dc5d 07bb bd1c 2c3d 3776 9dbc
000000e0: 3d6d a33b 1125 0cbd 60b7 0a35 017e a83b
000000f0: acc1 3c3c 76f9 1e3b 4bd5 54bb 72cb cf3c

momentum_buffer f4 [64, 64, 3, 3]
-0.0014901637 -0.0015198904 -0.0012479958 -0.0012124123 -0.0015234348 -0.001658959 -0.0009401849 -0.0017074833
-0.0017772466 -0.00033653487 -0.000113840615 -9.9485245e-05 -0.00017125194 -0.00017116203 -0.0004664773 9.887306e-05
-0.0002009879 -0.00019836474 -0.0044328175 -0.004552642 -0.0037192993 -0.0040546586 -0.0046357946 -0.004343055
-0.004680216 -0.004316092 -0.0044505433 -0.003226168 -0.0039045573 -0.003364922 -0.0034153452 -0.0031260895
-0.0031014336 -0.0028307005 -0.0030930392 -0.0034370476 -7.5294294e-05 0.0005977883 -1.1135565e-05 -0.0003451072
-1.6910682e-06 -0.0003533989 4.278367e-05 -0.00011416927 0.0003880369 3.2861255e-05 4.620774e-06 -6.296426e-05
0.00020917047 0.0002393561 0.00013471786 -0.00032538563 -0.00045773992 -0.0002491442 -0.0037586566 -0.0046856995
-0.0039474517 -0.0044090217 -0.0043931743 -0.0042904904 -0.004310623 -0.004256955 -0.0044165337 -0.0011040291
-0.0013414684 -0.0016120771 -0.00095131365 -0.0016170695 -0.0015021652 -0.0019085356 -0.0016374362 -0.001045689
-0.0019045166 -0.0017330758 -0.0020451837 -0.0019854961 -0.001925377 -0.0016595346 -0.0022216314 -0.001543771
-0.0015821091 -0.0014657277 -0.0014212467 -0.001236035 -0.0010624162 -0.001557214 -0.0008414793 -0.00094585057
-0.00078386837 -0.0018023204 -0.0006122213 -0.00016256596 -0.00060476764 -0.00058169034 -0.0004364409 -0.0007434175
-0.00094303826 -0.00042901436 -0.0008365171 -0.00058973226 -0.0002407972 -0.00058038445 -0.00076955475 -0.0010373796
-0.00061800034 -0.00045734976 -0.0008130513 -0.00066862634 -0.0005241311 9.996215e-06 -6.63292e-05 -0.0002638726
0.00015550698 2.660426e-07 0.0005133208 0.00016091851 -0.00017053784 0.00014535751 -0.00032879921 0.00031074288
1.8348854e-05 -7.795269e-05 -0.0002401728 -0.00036303105 -3.4259887e-05 -3.3422708e-05 0.00046732457 0.00020068637
-0.0001456129 -0.00033395886 -0.00011944255 -0.0001919601 0.00011903135 0.0008870063 -0.0002782983 0.0003927226
-0.00018327216 3.875725e-06 8.503285e-06 -0.00044271498 -0.000233186 0.00019805144 -0.00021562714 0.0002331334
-0.0024207134 -0.002653203 -0.0027914862 -0.002145598 -0.0029879755 -0.0022941856 -0.0029197987 -0.0026736516
-0.003095749 -0.00067645183 -0.00066364615 -0.00069274596 -0.00057889015 -0.00067506963 -0.00042424124 -0.00038781826
-0.0012333371 -0.00074981863 -7.770829e-05 -0.00074319466 -0.00016033152 -9.317542e-07 -0.00013090878 1.068631e-05
-0.00033431235 0.00036196172 0.0001516556 -0.00090497703 -0.0008832306 -0.0008197174 -0.00067342585 -0.0010625168
-0.0006447297 -0.0007781573 -0.00083642907 -0.0010965822 -0.00089274463 -0.0007247042 -0.0013385629 -0.0013913037
-0.0013155947 -0.001195303 -0.0011738546 -0.0011282332 -0.0010175989 0.00018306162 -3.7660746e-05 0.0003377751
-0.00010333043 2.0869078e-05 7.751228e-06 0.00023966751 -0.00014040586 0.00032704824 -0.00019368409 -0.00010646678
-0.00013154055 -0.0005980472 -0.00029164276 -0.00038362862 -0.00028817615 -0.0005769161 -0.00013560029 -0.000725867
-0.0006036432 -0.0007577374 -0.0003991826 -0.0001668662 -0.0005096151 -0.00012333102 -0.00059121626 -0.00047429148
-0.002029441 -0.0019346396 -0.0021392743 -0.0021043348 -0.0020539379 -0.0018721352 -0.0020362828 -0.002521061
-0.0022626966 -0.0003508018 -0.00043765004 -4.1837156e-05 6.4910826e-05 -0.00032091734 0.00048328793 -3.9909382e-06
0.00033649025 2.4406989e-05 -0.0034297572 -0.003793409 -0.003539701 -0.0033740841 -0.0033646636 -0.0037783333
-0.0032827808 -0.0034276415 -0.0040895273 -7.471154e-05 -0.00013606332 -0.00019692793 -0.00041952715 -1.501029e-05
-0.00026594862 -0.0003066154 -7.520476e-05 -0.0004850572 -0.00065898953 -0.00015444767 -0.0005497987 -0.00050205586
00000000: 9951 c3ba 0f37 c7ba ca93 a3ba cee9 9eba
00000010: fdad c7ba 6d71 d9ba be76 76ba a2cd dfba
00000020: 80f2 e8ba f270 b0b9 b7bd eeb8 bca2 d0b8
00000030: 1892 33b9 f579 33b9 8691 f4b9 125a cf38
00000040: 47c0 52b9 2100 50b9 2b41 91bb 542e 95bb
00000050: 7dbf 73bb f1dc 84bb dde7 97bb 3050 8ebb
00000060: 7f5c 99bb 016e 8dbb ddd5 91bb 1e6e 53bb
00000070: 9ae3 7fbb 0686 5cbb fcd3 5fbb 14df 4cbb
00000080: 6c41 4bbb 4683 39bb 96b4 4abb 1740 61bb
00000090: 51e7 9db8 e5b4 1c3a e3d2 3ab7 81ef b4b9
000000a0: a9f8 e2b5 6648 b9b9 9e72 3338 296e efb8
000000b0: 6e71 cb39 81d4 0938 250c 9b36 ae0b 84b8
000000c0: c554 5b39 aafb 7a39 0d43 0d39 8598 aab9
000000d0: d0fc efb9 929f 82b9 cb53 76bb 7f8a 99bb
000000e0: a059 81bb 8e79 90bb 9ef4 8fbb 3e97 8cbb
000000f0: 2040 8dbb ed7d 8bbb 92b8 90bb 12b5 90ba
00000100: 36d4 afba 554c d3ba 9461 79ba d9f3 d3ba
00000110: 4de4 c4ba d427 faba 3e9f d6ba 800f 89ba
00000120: f9a0 f9ba 6028 e3ba 7d08 06bb 191f 02bb
00000130: ee5c fcba be84 d9ba ca98 11bb 5c58 caba
00000140: c65e cfba a91d c0ba 2049 baba 7402 a2ba
00000150: c640 8bba 6e1b ccba b896 5cba f5f2 77ba
00000160: 847c 4dba d63b ecba 7a7d 20ba 7876 2ab9
00000170: 4589 1eba 947c 18ba 1bd2 e4b9 e7e1 42ba
00000180: 3a36 77ba 55ed e0b9 b649 5bba 4398 1aba
00000190: 827e 7cb9 f124 18ba f2bb 49ba aff8 87ba
000001a0: 4d01 22ba 72c8 efb9 f322 55ba c146 2fba
000001b0: d865 09ba 6bb5 2737 381a 8bb8 6158 8ab9
000001c0: 960f 2339 9ed4 8e34 6090 063a 3cbc 2839
000001d0: 67d2 32b9 1c6b 1839 af62 acb9 34eb a239
000001e0: ddeb 9937 887a a3b8 e5d6 7bb9 3455 beb9
000001f0: 46b2 0fb8 5c2f 0cb8 3e03 f539 566f 5239
00000200: aaaf 18b9 3317 afb9 3b7d fab8 e648 49b9
00000210: 78a0 f938 fc85 683a 91e8 91b9 56e6 cd39
00000220: bf2c 40b9 390c 8236 55a9 0e37 331c e8b9
00000230: 6483 74b9 07ac 4f39 f819 62b9 4575 7439
00000240: d5a4 1ebb 5ce1 2dbb 5ef1 36bb 299d 0cbb
00000250: e9d1 43bb 0c5a 16bb 185a 3fbb 6e38 2fbb
00000260: 0de2 4abb ea53 31ba 8af8 2dba 6599 35ba
00000270: a9c0 17ba 28f7 30ba b26c deb9 1654 cbb9
00000280: eda7 a1ba 7a8f 44ba 52f7 a2b8 f3d2 42ba
00000290: aa1e 28b9 a91d 7ab5 8f44 09b9 5a49 3337
000002a0: a546 afb9 aec5 bd39 bd05 1f39 fb3b 6dba
000002b0: 9a88 67ba 4ee2 56ba d888 30ba 2644 8bba
000002c0: 1403 29ba 41fd 4bba ce43 5bba 31bb 8fba
000002d0: 1407 6aba 13fa 3dba b872 afba 685c b6ba
000002e0: 0870 acba b7ab 9cba 06dc 99ba 39e1 93ba
000002f0: f460 85ba 3bf4 3f39 ebf5 1db8 6817 b139
00000300: 1ab3 d8b8 0110 af37 450b 0237 424f 7b39
00000310: e939 13b9 ac77 ab39 ad17 4bb9 eb46 dfb8
00000320: 26ee 09b9 45c6 1cba a1e7 98b9 c321 c9b9
00000330: 5916 97b9 2f3c 17ba ed2f 0eb9 1c48 3eba
00000340: cf3d 1eba e5a2 46ba 6249 d1b9 cef8 2eb9
00000350: b197 05ba 6b52 01b9 dafb 1aba 53aa f8b9
00000360: 5f00 05bb bc93 fdba 1133 0cbb e1e8 09bb
00000370: 5c9b 06bb 6f62 f5ba 2873 05bb 6338 25bb
00000380: c049 14bb d2eb b7b9 6574 e5b9 4e7a 2fb8
00000390: bc20 8838 cc40 a8b9 cf61 fd39 e6e9 85b6
000003a0: f56a b039 9cbd cc37 c7c5 60bb d89a 78bb
000003b0: 54fa 67bb bd1f 5dbb b081 5cbb ea9d 77bb
000003c0: ec23 57bb 48a2 60bb 7101 86bb 74ae 9cb8
000003d0: 38ac 0eb9 707e 4eb9 fbf3 dbb9 b4d4 7bb7
000003e0: 056f 8bb9 39c1 a0b9 40b7 9db8 464f feb9
000003f0: 0ac0 2cba 3bf3 21b9 5e20 10ba 669c 03ba

momentum_buffer f4 [64]
-0.002594737 -0.008773992 -0.002197095 0.013349767 -0.010618742 0.0017055935 0.002828249 -0.0020984628
0.0032698961 0.00015097548 -0.0046241083 0.0060231006 -0.0010769091 -0.0067368844 -0.00010494061 -0.0010075369
0.0116425725 2.1161017e-05 0.0003682918 6.841831e-05 0.0075369864 6.558818e-05 -0.014620341 -0.006775736
0.005713549 -0.0055211764 -0.0017623825 0.0044374717 0.0013318844 0.0014873374 0.0016141713 0.00030269995
0.006196815 0.00010750468 0.004732497 -0.000107695276 6.417743e-05 -0.00014130257 -0.00906809 0.00013735339
0.004886832 0.002259695 0.009504891 -0.00017033881 0.0098461695 -0.0026454474 -0.00024879657 0.0137975905
0.008157955 -0.0034150688 0.0040171305 0.006909501 -0.00048575725 -0.000100042365 -0.0001928927 7.521768e-05
-0.00011567063 -0.008689133 0.0009784788 0.00039396997 0.0019875157 0.017698934 -7.8564786e-05 -0.000168483
00000000: 770c 2abb cac0 0fbc 23fd 0fbb fbb8 5a3c
00000010: 3bfa 2dbc 398e df3a 255a 393b 5d86 09bb
00000020: c14b 563b 2c4f 1e39 d585 97bb 6e5d c53b
00000030: 1327 8dba 15c1 dcbb 9013 dcb8 540f 84ba
00000040: 7dc0 3e3c f082 b137 4a17 c139 cd7b 8f38
00000050: d3f8 f63b 638c 8938 288a 6fbc fe06 debb
00000060: b938 bb3b fcea b4bb beff e6ba 3668 913b
00000070: a092 ae3a c3f2 c23a 9a92 d33a b3b3 9e39
00000080: a70e cb3b 2374 e138 1013 9b3b 76da e1b8
00000090: ff96 8638 9f2a 14b9 5392 14bc 8506 1039
000000a0: b821 a03b 6417 143b 67ba 1b3c fa9c 32b9
000000b0: d451 213c 3e5f 2dbb e970 82b9 4a0f 623c
000000c0: f1a8 053c 59cf 5fbb 22a2 833b 1869 e23b
000000d0: 3cad feb9 d6cd d1b8 3d43 4ab9 2fbe 9d38
000000e0: 3294 f2b8 de5c 0ebc 4d40 803a c18d ce39
000000f0: fb40 023b 5bfd 903c 26c3 a4b8 d0aa 30b9

momentum_buffer f4 [1, 64]
0.018248735 0.109058455 0.008232501 0.06641718 0.14329027 0.007862049 0.059929952 0.027406039
0.026850512 0.0007739162 0.03504063 0.037582196 0.0056580664 0.10085463 0.00036959813 0.00609711
0.0646904 -0.00027051743 0.010134157 0.0016499339 0.031550586 0.00040750296 0.14201431 0.06202344
0.045860846 0.11055185 0.008183204 0.013180697 0.033625912 0.009075442 0.029726028 0.0039914264
0.038965564 0.00013797416 0.01981526 0.028006148 0.0011284548 -0.00047087658 0.116444826 0.0024509132
0.032334954 0.010438222 0.04076774 0.00027019696 0.05401866 0.026032964 -0.0014537831 0.08717698
0.037960805 0.03224326 0.036283683 0.039109427 0.0039744326 0.00038685932 0.00014005568 0.0067259558
0.0014266884 0.06049732 0.004977696 0.0019209852 0.055208776 0.12190286 -0.00033787946 0.00083147094
00000000: 5f7e 953c 0a5a df3d 9de1 063c bb05 883d
00000010: afba 123e d3cf 003c 1c79 753d a182 e03c
00000020: 9bf5 db3c a3e0 4a3a c386 0f3d caef 193d
00000030: 4d67 b93b df8c ce3d 9fc6 c139 44ca c73b
00000040: 677c 843d 3cd4 8db9 bc09 263c 9842 d83a
00000050: 303b 013d 1fa6 d539 336c 113e 4a0c 7e3d
00000060: 95d8 3b3d 0269 e23d d812 063c daf3 573c
00000070: 53bb 093d 2ab1 143c 0084 f33c 83ca 823b
00000080: 5b9a 1f3d 28ad 1039 9d53 a23c 266d e53c
00000090: a9e8 933a fcdf f6b9 a07a ee3d 809f 203b
000000a0: a871 043d 1405 2b3c 13fc 263d 39a9 8d39
000000b0: ac42 5d3d 1543 d53c de8c beba d889 b23d
000000c0: ca7c 1b3d 8211 043d 339e 143d 3531 203d
000000d0: f53b 823b 61d3 ca39 e9db 1239 6865 dc3b
000000e0: b8ff ba3a 0acc 773d f11b a33b 91c9 fb3a
000000f0: 9922 623d 35a8 f93d 6a25 b1b9 12f7 593a

bn0.weight f4 [3]
1.1257688 1.0430317 1.0761749
00000000: 3119 903f 1082 853f 19c0 893f

bn0.bias f4 [3]
0.12449133 -0.056746546 0.13434537
00000000: 4ff5 fe3d 116f 68bd d591 093e

bn0.running_mean f4 [3]
0.48577982 0.44733036 0.40841532
00000000: 22b8 f83e 7c08 e53e d01b d13e

bn0.running_var f4 [3]
0.064738005 0.05989489 0.059897754
00000000: 5c95 843d 5854 753d 5957 753d

conv1.weight f4 [32, 3, 5, 5]
-0.024580412 -0.015159924 0.03498164 -0.02968775 -0.049022157 -0.01241745 -0.024575204 0.027357012
0.052093197 -0.010927998 0.08072701 -0.042034864 0.0142706465 -0.016841412 0.03749138 0.0010912563
-0.03308832 -0.030934237 -0.025739051 -0.06577905 -0.042543452 0.08399024 0.001023472 0.019285949
-0.015055463 0.035882518 0.035320796 -0.06629135 -0.04724141 -0.0007259862 -0.088814415 0.11433953
0.01754019 -0.0348785 -0.0072908504 0.006575154 0.0016569676 0.07197495 0.0020641084 0.00760297
0.07440521 -0.014496714 0.037128214 -0.0876489 -0.010464288 0.01978234 0.043335192 -0.010268343
-0.062318407 0.08358332 -0.031802375 -0.0303878 -0.024368938 -0.028384263 0.010233026 0.10182679
-0.0065556443 0.053405136 0.046870045 0.01148761 0.06744411 0.14184311 -0.0023611714 -0.03947544
0.07426928 0.0519325 0.011536147 0.05766078 -0.020628363 -0.004230413 0.06844113 0.09728678
0.08362643 0.027697105 0.08595207 -0.03040431 0.0069938325 0.05720236 -0.05508814 0.039145127
-0.054349348 0.000818637 -0.029820288 -1.226627e-05 0.10143648 -0.06801606 -0.026448447 0.022144305
0.057595223 0.03958745 -0.1145378 -0.02064595 0.034607418 0.051135387 0.0638977 -0.013521976
-0.09673528 -0.05719646 -0.022455866 0.10691026 -0.0051901033 -0.015540064 -0.025359506 -0.004982402
0.012635245 0.013855803 0.037182722 -0.05484344 -0.0032572697 -0.0012964695 -0.07578936 -0.027746283
0.027843645 -0.005428676 0.01683255 -0.048941206 -0.0087001175 0.022216091 0.03527487 -0.028640984
-0.06901638 -0.049577672 -0.035035904 0.08055804 0.015738329 0.04954856 -0.13310541 0.033533808
0.06323681 0.050910518 -0.0064689484 -0.040676087 -0.08590328 0.04064776 0.045342278 -0.015224133
-0.027131636 -0.06924133 0.06736997 0.14230742 -0.123022616 0.0046373494 0.036551002 0.01723673
0.005036217 -0.01633588 0.028171124 0.10955273 0.12239642 -0.039874576 -0.0013998372 -0.047098283
0.022813397 -0.07336525 -0.006898969 -0.065198675 -0.04481434 0.0299345 0.067860104 0.021417353
-0.041747596 0.0066328184 -0.038368948 0.08469293 -0.018239353 0.021703979 0.07543838 -0.024175514
0.06188792 0.024643736 -0.035522956 0.02410291 -0.021484323 -0.0047554257 0.044126358 -0.015212017
0.04151588 -0.0770961 -0.00073895516 0.0188629 0.08531495 -0.030145492 -0.010579108 0.06656083
0.0050533595 -0.06253464 -0.0037354894 0.01659988 0.01324262 -0.03574357 0.09931871 -0.008215441
-0.015208904 -0.06463662 -0.0045472477 -0.02215267 -0.017343057 0.049776684 -0.0058838637 0.05688957
0.084726095 -0.060379907 -0.03001932 -0.038964055 0.097669765 0.032414496 -0.012587182 0.049174022
-0.001569283 0.04364146 -0.06174512 -0.016221806 0.12736905 -0.007109336 0.037888058 0.030673504
0.087379165 -0.0088930195 -0.034565926 0.004266386 -0.00048715164 -0.021913642 -0.06629206 0.042428426
0.0030569816 0.02948684 -0.027261315 -0.019502047 -0.0069761034 -0.05513048 0.020762933 0.06625524
-0.08403156 -0.046819538 -0.058235034 -0.041931283 -0.026411517 -0.04895303 0.017964374 0.027473165
0.055813316 -0.003213756 -0.008730684 0.027778486 0.07931572 -0.017721795 -0.0334516 -0.032442585
-0.10365827 0.18958531 -0.030957421 -0.031428 0.003916202 0.01656301 0.01652519 0.07746926
00000000: dc5c c9bc 5461 78bc e848 0f3d b933 f3bc
00000010: 75cb 48bd 8f72 4bbc f051 c9bc d01b e03c
00000020: ad5f 553d 590b 33bc 3454 a53d c02c 2cbd
00000030: 6ecf 693c 00f7 89bc 9090 193d 7c08 8f3a
00000040: 9e87 07bd cc69 fdbc b4da d2bc 2bb7 86bd
00000050: 0b42 2ebd 1303 ac3d 0626 863a 91fd 9d3c
00000060: 30ab 76bc 8cf9 123d 8aac 103d c2c3 87bd
00000070: 3580 41bd 1c50 3eba 55e4 b5bd d82a ea3d
00000080: 72b0 8f3c c2dc 0ebd 16e8 eebb 6474 d73b
00000090: 9b2e d93a 9a67 933d fe45 073b 5622 f93b
000000a0: c261 983d a083 6dbc c113 183d 4481 b3bd
000000b0: 6872 2bbc 930e a23c 3e80 313d 8d3c 28bc
000000c0: 9641 7fbd bb2d ab3d 3543 02bd d6ef f8bc
000000d0: 5ea1 c7bc 1d86 e8bc 6ca8 273c 908a d03d
000000e0: bbd0 d6bb 58bf 5a3d cefa 3f3d 8736 3c3c
000000f0: 2320 8a3d 523f 113e e2bd 1abb 00b1 21bd
00000100: 7e1a 983d 2cb7 543d 1c02 3d3c b62d 6c3d
00000110: d0fc a8bc 479f 8abb dd2a 8c3d 4b3e c73d
00000120: 5544 ab3d 0ae5 e23c a407 b03d 7612 f9bc
00000130: 852c e53b 064d 6a3d 1aa4 61bd a456 203d
00000140: 6c9d 5ebd cd99 563a ad49 f4bc 3acb 4db7
00000150: eebd cf3d 014c 8bbd 6aaa d8bc f967 b53c
00000160: f8e8 6b3d 7326 223d cb92 eabd b221 a9bc
00000170: 82c0 0d3d 5773 513d ccdc 823d 478b 5dbc
00000180: 251d c6bd d646 6abd 5df5 b7bc c4f3 da3d
00000190: be11 aabb c19b 7ebc bdbe cfbc 6b43 a3bb
000001a0: 0f04 4f3c 7303 633c e94c 183d 84a3 60bd
000001b0: eb77 55bb 4cee a9ba 7437 9bbd 2c4c e3bc
000001c0: 5b18 e43c 09e3 b1bb 6ae4 893c 9376 48bd
000001d0: f08a 0ebc 85fe b53c 627c 103d 7fa0 eabc
000001e0: 7658 8dbd f511 4bbd cf81 0fbd 9dfb a43d
000001f0: abed 803c 6ef3 4a3d c94c 08be bf5a 093d
00000200: 4d82 813d 8c87 503d 79f9 d3bb f89b 26bd
00000210: 0fee afbd 447e 263d d3b8 393d a46e 79bc
00000220: 2a43 debc 66ce 8dbd 44f9 893d 09b9 113e
00000230: 48f3 fbbd e8f4 973b 81b6 153d 0b34 8d3c
00000240: da06 a53b d3d2 85bc 21c7 e63c 2f5d e03d
00000250: f9aa fa3d 8653 23bd be7a b7ba 21ea 40bd
00000260: 29e3 ba3c 8540 96bd bf10 e2bb e286 85bd
00000270: 3e8f 37bd 3239 f53c 3dfa 8a3d 7273 af3c
00000280: 87ff 2abd 1d58 d93b c228 1dbd 7d73 ad3d
00000290: b26a 95bc 8bcc b13c 707f 9a3d ba0b c6bc
000002a0: 307e 7d3d a9e1 c93c 8580 11bd 7773 c53c
000002b0: e4ff afbc 67d3 9bbb d7bd 343d d33b 79bc
000002c0: 8e0c 2a3d 8fe4 9dbd 71b6 41ba 5e86 9a3c
000002d0: 9bb9 ae3d aef3 f6bc ff53 2dbc 0b51 883d
000002e0: a796 a53b 2912 80bd 1dcf 74bb 79fc 873c
000002f0: 93f7 583c da67 12bd 9c67 cb3d 0f9a 06bc
00000300: c42e 79bc 3460 84bd 1401 95bb 8479 b5bc
00000310: 0713 8ebc a3e2 4b3d 6dcd c0bb 0a05 693d
00000320: e084 ad3d ec50 77bd 14eb f5bc c698 1fbd
00000330: 1607 c83d 10c5 043d 783a 4ebc b36a 493d
00000340: 66b0 cdba 63c1 323d 73e8 7cbd 98e3 84bc
00000350: 086d 023e 6ff5 e8bb 8230 1b3d 0047 fb3c
00000360: d9f3 b23d 07b4 11bc 0095 0dbd 0acd 8b3b
00000370: 6368 ffb9 3d84 b3bc 22c4 87bd 6ec9 2d3d
00000380: a457 483b 638e f13c 1f53 dfbc c2c2 9fbc
00000390: cc97 e4bb 80d0 61bd 0717 aa3c d4b0 873d
000003a0: bd18 acbd d8c5 3fbd dc87 6ebd 23c0 2bbd
000003b0: f75c d8bc f982 48bd 062a 933c 670f e13c
000003c0: 819c 643d e19d 52bb 250b 0fbc b58f e33c
000003d0: 4870 a23d 4c2d 91bc 8b04 09bd 84e2 04bd
000003e0: c94a d4bd a722 423e 6b9a fdbc a6ba 00bd
000003f0: 7c53 803b 26af 873c d65f 873c 34a8 9e3d

conv1.bias f4 [32]
0.102661274 0.0036533105 -0.027301045 -0.041707963 0.008000847 -0.082430646 0.061877813 -0.024012858
-0.01365659 0.11946038 -0.08732489 -0.11951553 -0.10472403 -0.042604577 -0.0105436575 0.048932288
0.08223484 -0.00399764 -0.060822252 0.08025439 -0.07778921 -0.108935185 -0.101182885 -0.105780266
0.07613301 0.0282633 -0.07411297 0.043301545 0.019985842 0.09213234 -0.019175872 0.08967487
00000000: 1340 d23d 616c 6f3b 71a6 dfbc f8d5 2abd
00000010: fc15 033c 66d1 a8bd 9773 7d3d 9db6 c4bc
00000020: e4bf 5fbc a5a7 f43d 64d7 b2bd 8fc4 f4bd
00000030: 8d79 d6bd 2382 2ebd 4ebf 2cbc 396d 483d
00000040: bd6a a83d a3fe 82bb c120 79bd 6a5c a43d
00000050: f34f 9fbd 6919 dfbd f938 cfbd 53a3 d8bd
00000060: a0eb 9b3d 7088 e73c 8ac8 97bd f65c 313d
00000070: 59b9 a33c e1af bc3d b816 9dbc 75a7 b73d

conv2.weight f4 [32, 32, 3, 3]
0.077116996 0.050363056 -0.19342251 0.03885217 -0.069595754 0.033022776 0.07308644 0.041471824
0.05075603 -0.068814725 -0.060543608 0.023752635 0.0064652367 0.0191248 -0.09917827 -0.19001
-0.045619063 -0.11788463 0.02430328 0.014179984 -0.03813974 -0.1185912 0.022767223 -0.08091167
0.07210546 -0.045843683 -0.05892542 0.02357661 -0.03289482 -0.013570934 0.13484035 -0.0690561
0.10840617 0.040495563 -0.077314034 0.07991147 -0.01381106 -0.003875488 0.04968853 -0.003809722
0.027998392 0.0115456 -0.049074776 -0.046290558 0.006405407 -0.013858736 -0.0151176695 0.03632852
-0.046586264 -0.064966545 0.04233259 0.140588 -0.07284341 -0.17499506 -0.1920225 -0.005855474
0.025968384 0.009373314 -0.055814594 -0.044979323 0.15327501 -0.15084834 0.04253901 -0.02680304
0.07144145 0.12787683 -0.013983144 0.014788305 0.13249704 -0.0462426 0.06914713 0.14167564
-0.083246626 0.08351141 0.029279146 -0.007930861 0.055768333 0.102307506 -0.09156775 0.08303454
0.025620017 0.009989412 0.07591949 0.14778836 0.18284419 0.015891604 0.053728208 0.021929407
0.027695425 -0.07957982 0.046921052 0.07830524 -0.033864334 -0.08534579 -0.0025946763 -0.04106577
-0.006457596 -0.0059320237 0.14838348 -0.03689668 0.015375617 -0.17600755 0.051978096 -0.015800577
0.05334781 0.017344369 0.045861978 0.035141844 0.113855705 -0.08402177 0.069387704 -0.024676522
0.095434755 0.037473395 -0.052728653 -0.0012804312 -0.19556363 -0.04182615 0.00049220637 -0.013082927
0.024497438 -0.019242698 -0.057868768 -0.09190024 -0.0841442 -0.062038045 -0.01062617 -0.14582732
0.12753016 0.14129207 0.091942854 0.057841413 0.07919668 0.037713226 -0.025414629 -0.022084033
0.027417138 0.05582095 -0.036368415 0.13287942 -0.077761486 -0.21064521 -0.07308632 -0.15694137
-0.0009443828 0.07523788 0.063222446 0.07066694 0.12982833 -0.06291215 -0.022357594 0.0790933
-0.052761927 0.01868267 -0.11032121 -0.028734576 -0.078156464 -0.13321471 -0.052663367 -0.079583116
-0.06829724 -0.06399793 0.037104975 -0.094355196 -0.012337885 -0.061387982 0.06305989 -0.018109806
0.0017428389 0.041477036 -0.08765394 -0.03320193 -0.080111355 -0.1610097 -0.11585162 -0.08916256
-0.026689362 0.03611402 -0.07290557 0.10282453 -0.036576558 -0.023842473 -0.031517163 -0.17725256
0.05597071 0.005705826 -0.046020888 0.18273467 0.06299133 0.13159166 0.094409294 0.1257693
-0.04497568 -0.103577256 0.13945714 0.04818991 0.018775953 0.013893261 -0.09166033 -0.035358
-0.10008925 -0.059044346 0.015159367 0.11737667 -0.12953301 0.013286733 -0.0012378129 0.04293775
0.033964302 -0.021693954 -0.15925765 -0.002048315 0.08627493 -0.16387978 0.041833874 -0.14553784
0.08324203 -0.046316423 0.100621484 0.11059689 -0.046427786 -0.017502647 -0.054611187 -0.027611226
0.08646169 0.050375942 -0.16921286 0.11675967 -0.053115543 -0.028087342 0.12992094 -0.05011243
-0.030891908 -0.021978524 -0.00033676787 0.017532932 0.08068801 0.023296306 0.1883923 0.017851194
-0.06811969 -0.06951035 -0.06804522 0.0066425125 -0.08249652 -0.06529943 -0.039617512 -0.009914832
-0.049523544 0.17352574 0.22954845 0.11633317 0.14204781 0.010763459 0.110981025 0.07016272
00000000: 84ef 9d3d 7e49 4e3d 8d10 46be 7423 1f3d
00000010: 3888 8ebd e442 073d 58ae 953d 5cde 293d
00000020: 8ee5 4f3d bcee 8cbd 93fc 77bd e394 c23c
00000030: 56da d33b 9dab 9c3c fa1d cbbd fb91 42be
00000040: 0edb 3abd 7f6d f1bd ac17 c73c 2a53 683c
00000050: 6a38 1cbd f1df f2bd 5482 ba3c 05b5 a5bd
00000060: 07ac 933d 96c6 3bbd c85b 71bd bc23 c13c
00000070: b8bc 06bd 9f58 5ebc 9713 0a3e 496d 8dbd
00000080: 0e04 de3d adde 253d d256 9ebd a0a8 a33d
00000090: c947 62bc e6fb 7dbb 3386 4b3d 87ac 79bb
000000a0: e25c e53c c229 3d3c a202 49bd 2b9b 3dbd
000000b0: 73e4 d13b c00f 63bc 1ab0 77bc 37cd 143d
000000c0: 3dd1 3ebd 2e0d 85bd f064 2d3d 4df6 0f3e
000000d0: ed2e 95bd e831 33be 8ca1 44be 47df bfbb
000000e0: a6bb d43c 8792 193c d89d 64bd 3d3c 38bd
000000f0: 20f4 1c3e fd77 1abe 633d 2e3d 0d92 dbbc
00000100: e54f 923d 25f2 023e 8f19 65bc a64a 723c
00000110: 4ead 073e e168 3dbd 039d 8d3d 6b13 113e
00000120: 357d aabd 0808 ab3d d2da ef3c 71f0 01bc
00000130: 566d 643d 9986 d13d df87 bbbd 030e aa3d
00000140: 12e1 d13c a1aa 233c ad7b 9b3d d555 173e
00000150: 823b 3b3e 1c2f 823c 1c12 5c3d 4da5 b33c
00000160: 84e1 e23c bffa a2bd 4a30 403d 7f5e a03d
00000170: 54b5 0abd c6c9 aebd 720b 2abb 9534 28bd
00000180: 3e9a d3bb 6c61 c2bb d7f1 173e f920 17bd
00000190: 03ea 7b3c 533b 34be fce6 543d 3670 81bc
000001a0: 3c83 5a3d c715 8e3c c5d9 3b3d e5f0 0f3d
000001b0: 2e2d e93d 9b13 acbd 241b 8e3d 6b26 cabc
000001c0: 4c73 c33d b47d 193d 00fa 57bd 24d4 a7ba
000001d0: d541 48be e651 2bbd 6907 013a c659 56bc
000001e0: daae c83c dda2 9dbc cd07 6dbd 3136 bcbd
000001f0: cb53 acbd 9b1b 7ebd 6319 2ebc c253 15be
00000200: 4497 023e deae 103e 894c bc3d 1eeb 6c3d
00000210: de31 a23d 2f79 1a3d 5732 d0bc 93e9 b4bc
00000220: e899 e03c 82a4 643d 0cf7 14bd 8b11 083e
00000230: 6a41 9fbd 61b3 57be 48ae 95bd 3db5 20be
00000240: 7590 77ba 5116 9a3d c57a 813d d4b9 903d
00000250: b8f1 043e 16d8 80bd 4627 b7bc abfb a13d
00000260: e41c 58bd 660c 993c 16f0 e1bd c664 ebbc
00000270: 7f10 a0bd 7069 08be 8bb5 57bd 79fc a2bd
00000280: 6cdf 8bbd 5911 83bd 63fb 173d 4c3d c1bd
00000290: d724 4abc f771 7bbd 8b25 813d 045b 94bc
000002a0: f86f e43a d3e3 293d e983 b3bd bffe 07bd
000002b0: 6c11 a4bd badf 24be 9d43 edbd dc9a b6bd
000002c0: a6a3 dabc 4bec 133d 844f 95bd ab95 d23d
000002d0: 4dd1 15bd 4a51 c3bc 2418 01bd b281 35be
000002e0: 8b41 653d f0f7 ba3b 6680 3cbd cc1e 3b3e
000002f0: 9901 813d f7bf 063e a959 c13d abc9 003e
00000300: 6b38 38bd 5020 d4bd dacd 0e3e c862 453d
00000310: 07d0 993c 8fa0 633c 69b8 bbbd 8dd3 10bd
00000320: 98fb ccbd 7cd8 71bd fe5e 783c 2e63 f03d
00000330: 4da4 04be 99b0 593c 1c3e a2ba 7fdf 2f3d
00000340: 271e 0b3d 85b7 b1bc 7014 23be 063d 06bb
00000350: e9b0 b03d 1ad0 27be ff59 2b3d df07 15be
00000360: cc7a aa3d 4ab6 3dbd a312 ce3d 9f80 e23d
00000370: 102b 3ebd b661 8fbc fbaf 5fbd f030 e2bc
00000380: d412 b13d 0157 4e3d 2346 2dbe b21f ef3d
00000390: af8f 59bd 6d17 e6bc ff09 053e b142 4dbd
000003a0: 0711 fdbc 4e0c b4bc 3890 b0b9 39a1 8f3c
000003b0: c13f a53d e5d7 be3c e9e9 403e ab3c 923c
000003c0: 5682 8bbd 715b 8ebd 4b5b 8bbd 6fa9 d93b
000003d0: eff3 a8bd b5bb 85bd f945 22bd d271 22bc
000003e0: 33d9 4abd bbb0 313e c00e 6b3e 1640 ee3d
000003f0: fb74 113e 3859 303c 054a e33d 79b1 8f3d

conv2.bias f4 [32]
0.030342404 -0.04260395 -0.020760026 -0.021454979 -0.05103826 -0.03867598 -0.029022856 -0.051624313
-0.0022483952 -0.039637208 0.02633413 0.015160026 0.037758876 0.0111739505 0.050948218 -0.011370865
-0.061602965 0.027651541 0.012042915 -0.009048884 -0.025774606 -0.02856765 0.0064606373 -0.09601506
0.03404879 0.010598112 0.055666156 -0.036068343 0.039935835 -0.045806397 -0.044502676 -0.05736088
00000000: a290 f83c 7b81 2ebd ee10 aabc 5ac2 afbc
00000010: 7f0d 51bd b46a 1ebd 57c1 edbc 0474 53bd
00000020: d059 13bb a05a 22bd acba d73c c261 783c
00000030: 0da9 1a3d f212 373c 14af 503d dd4c 3abc
00000040: 6453 7cbd 7c85 e23c a64f 453c c541 14bc
00000050: 4425 d3bc b406 eabc c1b3 d33b 8ba3 c4bd
00000060: be76 0b3d b4a3 2d3c 3202 643d 66bc 13bd
00000070: c293 233d 7d9f 3bbd 7048 36bd 3ef3 6abd
