Ratio_same/checkpoint_step_0010.pth (torch_old, 541535 bytes, 24 tensors)

momentum_buffer f4 [3]
00000000: dcc8 debb b828 1bbd e02b 533d
-0.0067988466 -0.03788063 0.051555514

momentum_buffer f4 [3]
00000000: baf5 ec3d a2fc f63d a492 e6bd
0.11570306 0.12059905 -0.11258438

momentum_buffer f4 [32, 3, 5, 5]
00000000: a90b 423c 8b1f 363c 569f 313c c08a 463c
00000010: a639 4c3c b921 523c 34ec 4c3c a262 4d3c
00000020: ae39 4d3c fed5 563c a778 4e3c 4bde 533c
00000030: 56b5 553c 4da8 653c 8d08 683c ad20 4f3c
00000040: aaa7 513c 20ef 513c f294 6b3c f11f 6f3c
00000050: e46f 563c 2f3a 543c 361d 593c 764a 693c
00000060: 842a 6f3c 19a5 b13c b309 ac3c 221f aa3c
00000070: 46e9 b03c 3e58 b03c 9ee5 b63c daab b13c
00000080: 502d b43c fcb0 ba3c e6cb b93c 37d6 b33c
00000090: c487 b33c 6c10 b93c cdef c03c 488e c23c
000000a0: 3c64 b73c 5d3f b73c c4a1 ba3c 18cf c63c
000000b0: 344f c63c 4231 b73c 6b14 b63c deaf b83c
000000c0: cc94 bd3c 4835 c03c 1e64 a83c a483 a53c
000000d0: ed40 a33c 1665 a43c 1131 a63c 2c59 ad3c
000000e0: 32ce ad3c b089 a83c 1ed3 af3c 163d aa3c
000000f0: 7a10 af3c 69ce ad3c 8bab ab3c 4676 b43c
00000100: 5490 b13c bed5 b33c 5870 b13c 9244 ad3c
00000110: 3477 b63c 8dd3 b43c eadf b33c 7fcf ac3c
00000120: bcba a63c 02ab af3c 3d36 af3c ed79 45bb
00000130: 5060 f0ba 3d8a dfba 2271 faba bfc6 0ebb
00000140: 935c 1dbb e6a8 c4ba 2d77 93ba 5bd4 efba
00000150: 896d dbba b5a8 68bb c6eb 04bb b28b 03bb
00000160: c871 08bb 9bbb 2cbb 5103 2ebb 4679 e3ba
00000170: b403 99ba e8a6 c9ba 9d77 b8ba 0035 15bb
00000180: 94ea 47ba e90f adba 7aa9 ddba c49e e3ba
00000190: fb6a a5ba dc74 cfb9 4048 0438 fc07 dfb9
000001a0: a835 89ba 10d6 16ba 0085 0cb8 e2a1 9539
000001b0: 2033 97b9 c005 7cb8 e5d0 e0ba aafe 81ba
000001c0: 2c75 96ba 189a acba ed24 c3ba 32e4 9cba
000001d0: b80d feb9 80de f5b8 4547 19ba b45b 08ba
000001e0: 78a7 1aba e053 4339 5c6d 033a 14f9 9539
000001f0: 364f 9e39 f60a 27bb 1a61 00bb 802d ddba
00000200: 22d9 14bb da98 1dbb 5b2b 13bb 80f5 b8ba
00000210: 62fd 66ba f876 0cbb 1173 02bb 0397 43bb
00000220: 689c 0cbb 7bf1 e8ba 5203 12bb 6f2e 45bb
00000230: 81ac 07bb 880e c3ba 8119 a7ba 0d03 06bb
00000240: 417a ffba 9c08 a7ba 7aa1 77ba 68b8 d639
00000250: 2420 6aba 045c c4b9 cbd7 abbc af6b b7bc
00000260: 1bed aabc d655 8ebc 5359 80bc fbcb a6bc
00000270: 42a4 b9bc b056 b2bc 21f3 8cbc b84e 80bc
00000280: 5c46 91bc f923 9fbc 78e2 8fbc 2051 54bc
00000290: 6318 46bc fefa 81bc 278f 90bc 4eb4 76bc
000002a0: 041c 1ebc 9c5d 06bc b809 86bc 1aaf 94bc
000002b0: 22f1 90bc 0491 58bc a925 38bc 8f7b 00bd
000002c0: 3e29 04bd ae34 f9bc ceb8 d7bc 701a cabc
000002d0: d045 fdbc c7bf 05bd 1896 02bd 20b9 dfbc
000002e0: a5a8 d0bc 89e4 e6bc 164e f2bc 9a9d e2bc
000002f0: 7986 b9bc 9e56 b3bc 1ed3 d7bc e92e e1bc
00000300: 65f2 cabc aa8b 9dbc 8f75 95bc 0f94 d5bc
00000310: 6048 eabc 0881 dfbc 5bda b7bc 6e4a a7bc
00000320: 3b84 e4bc e9c0 edbc 768c dfbc 4ad0 c0bc
00000330: 5b14 bbbc 7353 e9bc 2978 f3bc e9a6 e9bc
00000340: d355 cfbc 18f9 c8bc 4495 d3bc fd10 dabc
00000350: d669 cdbc 7dc3 adbc b49a a5bc eb69 c5bc
00000360: a702 c9bc 789a b7bc 9152 91bc ca8a 8dbc
00000370: a574 c4bc 3f54 d8bc ae8a cfbc 37f4 a9bc
00000380: 196e a1bc 2785 093b a289 3d3b 392b aa3b
00000390: 66a9 b83b 3ecf 8e3b 90c5 3e3b 4489 593b
000003a0: fe04 9e3b bef0 cb3b 404a a63b 6664 853b
000003b0: 6c86 a63b 0713 f63b 9a6e 0e3c 1a12 fc3b
000003c0: d631 b83b 0eb8 d33b 6975 143c 4049 2e3c
000003d0: 7246 283c 2282 943b 9085 9b3b de78 ea3b
000003e0: c5d3 133c 9061 0b3c ba9b 52bb 632e 1ebb
000003f0: e62f 23ba 9c03 9db9 c02a 52ba 7ca2 49bb
0.0118436 0.011115919 0.010841211 0.0121180415 0.012464916 0.012825423 0.012507487 0.012535723
0.012525959 0.013112543 0.012602008 0.012931417 0.013043722 0.014017177 0.014162195 0.012642068
0.012796322 0.0128133595 0.014378773 0.014595018 0.0130882 0.012953325 0.013251593 0.014238944
0.014597539 0.02168517 0.021000719 0.020766798 0.021595608 0.021526452 0.022326287 0.02168839
0.021994263 0.02278947 0.022680234 0.021952732 0.021915324 0.022590838 0.023551846 0.023749486
0.022386663 0.022369081 0.022782214 0.024268672 0.024207689 0.022362355 0.022226533 0.022544798
0.023142241 0.023462906 0.020555552 0.020204373 0.01992842 0.020067733 0.020287069 0.021160685
0.021216486 0.020573467 0.021462973 0.020781081 0.021370161 0.021216588 0.020955821 0.022029053
0.021675266 0.021952506 0.021660015 0.021150861 0.022273637 0.022073532 0.021957356 0.021095036
0.020352714 0.021443848 0.021388168 -0.0030132488 -0.001833925 -0.0017054748 -0.0019107203 -0.0021785942
-0.0024011477 -0.0015003949 -0.0011250727 -0.001829754 -0.0016741018 -0.0035500948 -0.0020282133 -0.0020072279
-0.0020819772 -0.0026356939 -0.002655227 -0.0017354868 -0.0011674077 -0.0015384825 -0.0014073733 -0.0022767186
-0.00076262024 -0.0013203594 -0.001691147 -0.0017366041 -0.0012620384 -0.00039569184 3.153854e-05 -0.00042539823
-0.0010468261 -0.00057539437 -3.3502467e-05 0.00028540107 -0.00028839055 -6.0086837e-05 -0.0017152099 -0.0009917815
-0.0011479012 -0.0013168482 -0.0014888324 -0.0011969863 -0.00048456877 -0.00011723954 -0.0005847107 -0.0005201653
-0.00058995886 0.00018627895 0.0005013549 0.00028605072 0.00030195125 -0.002548871 -0.0019589127 -0.0016874522
-0.002271243 -0.0024047405 -0.0022456262 -0.0014111251 -0.00088115607 -0.0021433216 -0.001990501 -0.0029844649
-0.002145553 -0.0017772162 -0.002227981 -0.003008749 -0.0020702186 -0.001488165 -0.001274869 -0.0020448596
-0.001949139 -0.0012743655 -0.0009446364 0.00040954654 -0.0008931181 -0.0003745259 -0.020976922 -0.022390215
-0.020865014 -0.017374914 -0.015667593 -0.020360937 -0.022661332 -0.021769851 -0.017205777 -0.015662536
-0.017733745 -0.019426333 -0.017564043 -0.012958795 -0.012090775 -0.015866753 -0.017646385 -0.015057636
-0.009650234 -0.008201029 -0.016362056 -0.018149901 -0.017693106 -0.013218168 -0.011239448 -0.031367835
-0.032265894 -0.030420627 -0.026333239 -0.02467081 -0.030917078 -0.032653596 -0.03188142 -0.027309954
-0.025471041 -0.028185146 -0.02957825 -0.02766304 -0.02264713 -0.021891888 -0.026345786 -0.027488189
-0.024773786 -0.019231636 -0.018244533 -0.026071576 -0.028598964 -0.027283207 -0.022442987 -0.020421233
-0.027895084 -0.02902265 -0.027288657 -0.02353682 -0.022836855 -0.028482175 -0.029720383 -0.028521972
-0.025309479 -0.02453284 -0.025828011 -0.026619429 -0.02507488 -0.02121138 -0.02021537 -0.024098357
-0.024537398 -0.022412524 -0.017739566 -0.017278094 -0.023981402 -0.02640736 -0.025334682 -0.020746334
-0.019705819 0.0020983906 0.0028921147 0.005193141 0.0056354282 0.0043582013 0.0029109456 0.003319339
0.0048223725 0.006223767 0.0050747693 0.0040708063 0.0050819423 0.0075095925 0.008693362 0.0076925876
0.0056211753 0.00646115 0.009061196 0.010637581 0.010270702 0.0045321146 0.0047461465 0.007155522
0.009022658 0.008507147 -0.0032136277 -0.0024136535 -0.0006225094 -0.00029948063 -0.00080172345 -0.0030767014

momentum_buffer f4 [32]
00000000: b7ef f7bc d8f2 cbbb c8a5 2e3d 16ce 3c3c
00000010: 0fdd 073c 40a4 bc38 b333 033c bda3 c23c
00000020: b9c2 c5bb fe88 233d 78a1 b039 a808 5239
00000030: 8716 85bc ce06 75bb d582 a93c dc91 193d
00000040: 827b f93b 9d47 83bc 376b e8bc 5dcb 56ba
00000050: 0c7f 10bb 7d93 fb3c e6ce 3b3c c47a 3e3b
00000060: 07ac c33c 54cb 733b 7372 263c 0742 5eba
00000070: f977 0bbd c94d 2ebc 9430 bc3c 1b0c 4d3d
-0.030265672 -0.0062240176 0.04263857 0.011523744 0.008292451 8.9951325e-05 0.0080079315 0.023759717
-0.0060351756 0.039925568 0.0003368964 0.00020030385 -0.016246093 -0.003738809 0.020692268 0.037492618
0.0076136 -0.016025359 -0.028371437 -0.00081937556 -0.0022048382 0.030709976 0.011462903 0.0029064873
0.02388574 0.003720005 0.010159123 -0.0008478467 -0.03404996 -0.010638663 0.022972383 0.050060373

momentum_buffer f4 [32, 32, 3, 3]
00000000: acac ba39 8e97 8639 10a6 8f39 068d 0439
00000010: 1f6c 013a a4ac cb39 a8f0 9639 02ff 5438
00000020: 32b3 ae39 3369 39bb 4cb5 3dbb 8a4a 58bb
00000030: 1be9 3abb fb7d 7bbb eb20 69bb 63d3 5fbb
00000040: 2d49 82bb e0ab 91bb 2c25 82ba 5d62 e9ba
00000050: e876 91ba 350a 9bba 1c59 79ba 7ca2 4dba
00000060: 5ad8 90ba b1f2 50b9 8121 0abb 2de0 2bbb
00000070: 988e c7ba 37ed 2dbb b533 2abb 3b9e 3fbb
00000080: 280f 1abb 689b f9ba 6f5e 0ebb c1c7 17bb
00000090: a8a4 e739 4c94 f1b7 324e 3dba 186c 6cb9
000000a0: 8008 2eb9 9deb f2b9 145d d9b9 8e83 5eb9
000000b0: 3a60 8eba 6996 13ba 8b67 26ba 32a3 90ba
000000c0: b10b edb8 d912 e7b9 cf36 0eba 22e9 3bba
000000d0: da29 e3b9 937a 84ba aa86 ed39 d95a 9b38
000000e0: 9170 7f39 9a14 05b9 811e 05b9 daaf a439
000000f0: 8bd4 a039 b5ce e5b9 4771 ea38 bd16 2ebb
00000100: b2fc 18bb 5623 00bb 655d c5ba 13b5 dfba
00000110: 0b66 18bb 20cf 0cbb 20cc 16bb f8c0 faba
00000120: 3eb6 66ba 589d dfba 0670 d9ba 3101 29bb
00000130: 0de0 9cba 5477 dfba 1339 1ebb 4644 39bb
00000140: 8284 30bb 2096 a5ba f5b9 bcba 2dc3 a1ba
00000150: e1cc 0dbb f08b eaba d63e 28ba 8f5b eeba
00000160: d402 b9ba 7fe7 ceba 868b 7dbb 6973 7ebb
00000170: 62e1 97bb d4f9 9cbb 2e52 80bb 4099 acbb
00000180: 56d7 a9bb 4d71 89bb 1075 bdbb 25ca 9339
00000190: f737 8339 9830 aeb7 218a 7bb9 080c e2b9
000001a0: 72c5 8638 a07f bd36 013b 0e3a e39a 11ba
000001b0: 620c 63ba 6494 1438 ca3b 3a39 a815 f5b9
000001c0: 9a56 beb9 6f79 2dba 276c 17ba 2d11 8aba
000001d0: 1fa3 fd38 2cd2 c239 d2b0 29b9 d9c5 dfb9
000001e0: 4203 f4b8 2281 35b9 0d81 1cba a25d 28ba
000001f0: 8e5b 9fb9 2ee9 3eba 45fe 87ba 73f6 46ba
00000200: 12ac 85ba 527f 24ba d4ea 7aba 7856 92ba
00000210: a84b a6ba f631 43b9 13e1 e1b9 921a 0eba
00000220: 730a dcb9 569c 60ba 5ed8 ffb9 85d4 96b9
00000230: dcef 58ba 6875 81ba a4a6 46ba 632c baba
00000240: 45b8 10bb 0c26 5ebb 24fc 34bb 6d92 2bbb
00000250: 2e67 46bb b2d3 1abb d03d 49bb 2a98 8bbb
00000260: c8a5 71bb 574e 2eb9 e7fa 7538 90c0 8137
00000270: 3519 2239 4c36 21b9 5624 83b9 a060 24b7
00000280: d56c 7cba c4ef 07ba 0332 bf39 0d63 f039
00000290: 7a9f 9e39 163b 213a 10ae d8b8 e591 c739
000002a0: 9d13 8c3a 239f 8439 9b26 e5b9 2c10 1ebb
000002b0: 5f89 11bb d45b 0bbb d47a 1bbb 06f0 23bb
000002c0: 0aba 5ebb 9154 34bb 6351 0cbb 9652 27bb
000002d0: 5bc1 91ba 1fa4 43ba 5075 4db9 4ae0 01ba
000002e0: 017c a3b8 a12b 51b8 1d2c 5ab9 de9e 393a
000002f0: ed33 deb8 06a4 dbba d9c6 8bba 19f6 ebba
00000300: 5f5c f7ba e060 c0ba 92f6 e1ba 209a e7ba
00000310: 0ca8 bfba 2f5f 02bb e6d1 9bba f1bd 60ba
00000320: a3fe caba 00ed e5ba eef1 14ba dbd0 00bb
00000330: 103d b7ba bec5 d8ba 054a fcba b522 fbba
00000340: 7e85 f1ba 1ccb cdba b7fb 20bb df36 faba
00000350: 326f 06bb fe97 02bb 3a9f 20bb a319 f6ba
00000360: 1778 273a 963f c639 3548 8639 799b cfb9
00000370: 9eb4 24ba d1ab 87ba 83a3 c6b9 2c41 15ba
00000380: 881b 8eba bbd4 c4ba 81e1 c3ba d5be c8ba
00000390: 910b edba 23f1 c8ba 5492 72ba 6b7a d6ba
000003a0: ea5c c3ba d87f b2ba 5e51 f3ba a2a4 95ba
000003b0: 9da9 b3ba c6ee ebba 7a3e f2ba 444d f1ba
000003c0: 9820 bdba 88b7 f8ba d087 20bb 8a9d 4839
000003d0: 0ed2 24ba 5459 36ba 44ab d0b9 2149 99b9
000003e0: a27a b038 9969 583a b1a8 c739 dc1f 7339
000003f0: 54cd 6338 78d1 45b7 0513 8139 79a4 4639
0.00035605335 0.0002567139 0.00027398812 0.00012641036 0.0004937071 0.00038847805 0.00028789532 5.0782233e-05
0.00033321377 -0.0028291463 -0.0028947173 -0.0033003413 -0.002852029 -0.003837465 -0.00355726 -0.0034153096
-0.0039760084 -0.004445538 -0.0009929291 -0.0017805804 -0.0011098059 -0.0011828603 -0.00095118745 -0.00078443415
-0.0011050806 -0.00019926835 -0.0021077099 -0.0026226148 -0.0015224991 -0.0026539096 -0.0025970761 -0.00292386
-0.002350757 -0.0019043507 -0.0021723767 -0.0023159834 0.00044182432 -2.8798495e-05 -0.000722143 -0.00022546982
-0.000165971 -0.00046333382 -0.00041458814 -0.00021220578 -0.0010862418 -0.0005630018 -0.00063478266 -0.0011034964
-0.00011303218 -0.00044073796 -0.0005425037 -0.00071682234 -0.00043327996 -0.0010107331 0.00045304495 7.407898e-05
0.0002436063 -0.00012691543 -0.00012695232 0.00031411537 0.00030675935 -0.00043832292 0.00011179089 -0.0026563846
-0.0023343978 -0.0019552312 -0.0015057741 -0.0017067514 -0.0023254182 -0.002148576 -0.0023009852 -0.0019130995
-0.000880096 -0.0017060442 -0.0016589172 -0.0025788064 -0.0011968628 -0.0017049112 -0.0024142906 -0.0028269454
-0.002693445 -0.0012633242 -0.0014398681 -0.0012341492 -0.002163701 -0.0017894488 -0.00064180547 -0.0018185246
-0.0014115223 -0.0015785544 -0.0038687899 -0.0038826114 -0.004635022 -0.004790524 -0.0039160466 -0.0052672923
-0.0051831407 -0.0041944147 -0.005781777 0.00028188634 0.00025027964 -2.0765045e-05 -0.00023988682 -0.00043115043
6.426395e-05 5.6474964e-06 0.00054256624 -0.0005554391 -0.0008661208 3.542415e-05 0.00017760615 -0.00046746177
-0.00036304147 -0.0006617521 -0.0005776309 -0.0010533683 0.00012094364 0.00037159154 -0.00016182967 -0.00042681283
-0.000116354335 -0.00017309611 -0.0005970158 -0.0006422644 -0.00030395057 -0.0007282671 -0.0010375461 -0.00075898244
-0.0010198376 -0.0006275076 -0.0009571735 -0.0011164686 -0.0012687342 -0.00018615261 -0.00043083038 -0.00054208294
-0.00041969455 -0.0008568218 -0.00048798596 -0.0002876857 -0.0008275488 -0.0009876909 -0.0007577932 -0.0014203902
-0.002208249 -0.003389719 -0.0027616108 -0.0026179806 -0.0030273902 -0.0023624715 -0.003070701 -0.0042600827
-0.0036872495 -0.00016623117 5.8646223e-05 1.5467667e-05 0.00015458914 -0.00015374384 -0.0002501334 -9.797659e-06
-0.00096292543 -0.0005185569 0.0003646762 0.00045850166 0.00030254928 0.0006150467 -0.00010332104 0.00038064938
0.0010686998 0.00025295568 -0.00043707047 -0.0024118526 -0.0022207124 -0.002126445 -0.0023724334 -0.0025014891
-0.00339854 -0.0027516226 -0.0021410815 -0.0025531403 -0.0011120246 -0.00074631156 -0.00019594026 -0.0004954381
-7.795543e-05 -4.9870116e-05 -0.00020806534 0.0007080863 -0.00010595457 -0.0016757257 -0.001066412 -0.001800242
-0.0018872133 -0.0014677308 -0.0017239621 -0.0017669834 -0.0014622225 -0.001989316 -0.0011888116 -0.00085732254
-0.0015487265 -0.0017541945 -0.0005681802 -0.0019655738 -0.001397999 -0.0016538424 -0.0019248134 -0.0019160124
-0.0018426625 -0.001570079 -0.0024564096 -0.0019089839 -0.0020513055 -0.001992702 -0.002450897 -0.0018775951
0.0006388439 0.00037812878 0.0002561227 -0.00039597953 -0.00062830176 -0.0010350888 -0.0003788733 -0.00056936103
-0.0010841945 -0.0015017012 -0.0014944525 -0.0015315661 -0.0018085112 -0.0015330653 -0.0009253372 -0.0016363388
-0.001490501 -0.0013618423 -0.0018563678 -0.0011416862 -0.0013707165 -0.0018000237 -0.0018481754 -0.0018409868
-0.0014429269 -0.0018975595 -0.0024495013 0.00019132174 -0.0006287404 -0.000695606 -0.00039800454 -0.0002923692
8.415176e-05 0.00082554814 0.00038081923 0.00023186154 5.4312244e-05 -1.1790886e-05 0.00024618968 0.00018944022

momentum_buffer f4 [32]
00000000: 77bd e2ba 5ab7 cdb9 d4d0 223c 8c58 163b
00000010: ff00 263b bca2 613b 3147 0b3b d287 493b
00000020: 9406 ee39 46f0 fbbb 0e06 323c 6ca7 953a
00000030: 5292 9fbc 84af 2cbc ba36 0f3d af40 e039
00000040: 7062 2f3c 2fa8 a13a f409 9b3b 54b9 73bb
00000050: 542a 9138 6c8d 07ba 84cc 48bb b70d 0b3c
00000060: 6d7d 543b 4b3b 603a 000b 10bd 5590 8a3b
00000070: 96b2 cb3c b798 1eb9 482a 873c 1b3c 34bb
-0.0017298897 -0.00039237255 0.009937484 0.0022940962 0.0025330184 0.0034429273 0.002125215 0.0030751121
0.000453998 -0.007688555 0.010865701 0.0011417693 -0.01947895 -0.010539893 0.0349643 0.00042772802
0.010704622 0.0012333448 0.004731411 -0.0037189322 6.922023e-05 -0.0005170915 -0.003063948 0.008487157
0.0032423392 0.0008553757 -0.03516674 0.0042286315 0.02486543 -0.00015124945 0.016499653 -0.0027501646

momentum_buffer f4 [64, 32, 3, 3]
00000000: 5f20 cbb8 2217 8538 6fb8 b237 2bba 00ba
00000010: 5ba9 2eb9 529b bdb9 c28e ee38 ec5b d2b8
00000020: 8202 03ba 295e 65b8 cc28 3938 f44f 95b9
00000030: 09de beb8 df44 65b9 b080 ef39 d17c 4139
00000040: 7f8a d039 ccee 50b9 9b45 deb8 037c ae36
00000050: e9b4 ddb8 f943 2bb9 dbf4 b839 2b23 073a
00000060: 6c5f 17ba 5ba1 25b9 6136 7c39 02f4 2138
00000070: c477 07b9 9b36 c039 92a8 3cb9 9a8d cf39
00000080: 0c86 8ab9 17a2 72b8 ea22 c639 4ec8 d7b7
00000090: 3532 1639 ba99 deb7 302d 9bb7 ff27 fbb9
000000a0: 6778 98b8 1cb7 1a38 5f1e 5639 7e3b abb9
000000b0: eba4 a3b8 0daf 1fb9 234a a2b9 b1f0 543a
000000c0: bd6e a2b9 b1ce feb8 7709 98b8 6d31 3338
000000d0: a7d5 f3b8 0b83 41b8 b80f 46b8 4e7f 8eb9
000000e0: 9fe2 b6b9 39a9 9439 9657 3fb8 6a7a b039
000000f0: 8e2b df38 b199 f0b8 f87d 68ba e5ae 08b8
00000100: d40c 95b8 96fa f339 884b 0ab9 01ed a7b9
00000110: b3d3 353a e44d 5ab9 7e2d 4138 66d0 afb9
00000120: f39c da38 9837 b139 602f 05b9 f819 4f39
00000130: 0466 2bba 2394 8238 18b2 0239 8462 94b7
00000140: 5626 a0b7 825b ac39 2f8e ad39 47af 85b8
00000150: f0c8 23b9 7041 1ab9 687d 60b8 96b1 2139
00000160: a7fd 4439 8bcc ccb9 e220 21ba c10d 4c38
00000170: 5f1a e5b7 d4a2 053a 02b4 d238 2911 e5b9
00000180: d2fe 2b39 d156 b0b9 3895 b2b9 76bb 7fb9
00000190: fa1d 80b9 41ff 15ba 964d 72b9 2554 8eb8
000001a0: 2a52 37b9 8b50 ccb9 d7c9 01b9 fce2 1e39
000001b0: 235f 1fb7 c11d a4b9 d48f 00b8 16a0 ea38
000001c0: c2bb c2b9 1999 9e36 943d bdb8 6950 4339
000001d0: a48d 0eba 845d 8938 1a04 d636 54ca 82b9
000001e0: 8c9d e5b9 9f13 f4b8 cf17 59b9 d1f7 0639
000001f0: 8e97 eeb9 d2d8 1eba 92e5 c837 ffeb 2d3a
00000200: 9e9f 8639 1b96 f737 e8c1 9739 1744 17b9
00000210: ed06 19b9 91c4 9939 3440 0539 a331 db39
00000220: 4109 8ab9 5f88 87b9 b098 09b9 de1c 37b9
00000230: bc08 f838 39be 24b9 c339 9338 9bfd 12ba
00000240: b1f4 9f38 2d8a 93b9 f9ef 0939 bc18 9c39
00000250: 6578 00b9 72d4 2539 9a41 59b9 76f8 ff38
00000260: 9b16 2f39 f6b5 22b9 3cc1 8439 5d40 18ba
00000270: 8d29 5e39 236b 6f38 c658 8739 db5d 46b9
00000280: f13d 9ab7 d76b 17b9 8770 13ba 9a6c 36b9
00000290: 6787 78b9 c50a ba39 4567 f4b9 8c6f fd39
000002a0: af32 7fb9 d550 47ba 6a02 83b9 8635 b439
000002b0: b5c3 0939 b4d1 71ba 758f 2fb9 6c40 edb8
000002c0: 596c 19ba 7ea8 19b9 58e0 8638 e3ca d639
000002d0: 2262 85b9 76db 7d39 d55c 183a 999d 3939
000002e0: 0d70 58b9 d05b 8a38 96f9 1f37 7be5 f438
000002f0: a73c bfb8 ae2b 82b8 d2be ecb7 081e de38
00000300: f007 89b9 a890 01ba 7275 0ab9 3c1e c9b9
00000310: 6b4f 343a 61b9 40b9 1cc8 bdb9 6b93 b838
00000320: 546a b439 0a11 a639 6d83 7fb9 6478 39b9
00000330: 5dc5 b9b9 7981 4939 e0a9 ae39 4f53 94b9
00000340: f3d7 80b9 9c03 cc38 bfd5 46b9 d25a bb39
00000350: bea0 bd37 2017 c539 f0ce 9539 966a a7b9
00000360: 14cc 21b9 3c68 85b9 f939 6d38 3e8c 6839
00000370: 3fcc 20ba 6de0 06b9 d0cd f9b6 e2aa 94b9
00000380: ebf4 393a 3ed1 2cb9 771f ae39 1ca4 80b9
00000390: 73ca fdb9 2b2d a6b9 8a6f 5c39 775a 6db9
000003a0: 7345 4eb9 b02d b5b9 3c69 3d39 d143 c5b9
000003b0: 22ce ab39 481a bcb8 3126 d4b9 a6e1 8238
000003c0: 9021 adb9 633d 013a 6555 0cba f472 0a3a
000003d0: d579 a539 9481 43ba 7ac2 b339 0344 ae39
000003e0: d5d8 c8b9 ea73 e1b9 1e85 3ab9 afe5 ac39
000003f0: 23c9 d839 c214 9fb9 abb0 83b9 99fc 78b9
-9.685824e-05 6.346243e-05 2.1305137e-05 -0.00049105537 -0.00016657023 -0.00036164612 0.00011375315 -0.00010030702
-0.0004997627 -5.4685548e-05 4.4145432e-05 -0.00028479064 -9.101263e-05 -0.00021864798 0.00045681512 0.00018452412
0.0003977604 -0.00019925385 -0.0001059875 5.200041e-06 -0.00010571798 -0.00016333153 0.00035277646 0.0005155082
-0.0005774412 -0.00015795736 0.0002405285 3.861264e-05 -0.0001291922 0.00036661778 -0.00017991874 0.00039587618
-0.00026421284 -5.7848254e-05 0.00037791516 -2.5723271e-05 0.00014323818 -2.6536047e-05 -1.8498482e-05 -0.0004790425
-7.2703515e-05 3.6886995e-05 0.00020419944 -0.00032659987 -7.803164e-05 -0.00015228633 -0.00030954284 0.0008123024
-0.00030981554 -0.00012150163 -7.249688e-05 4.2722957e-05 -0.00011626939 -4.613683e-05 -4.7221518e-05 -0.000271792
-0.0003488259 0.0002835484 -4.561952e-05 0.00033660542 0.00010641581 -0.00011472719 -0.00088688685 -3.258781e-05
-7.107263e-05 0.00046535273 -0.00013188843 -0.00032029304 0.00069361477 -0.00020819117 4.6057154e-05 -0.0003353387
0.00010424284 0.0003380149 -0.00012701517 0.00019750732 -0.0006538334 6.226476e-05 0.00012464111 -1.768885e-05
-1.9091338e-05 0.00032874575 0.00033103066 -6.374582e-05 -0.00015619746 -0.00014710962 -5.3522555e-05 0.00015420312
0.0001878651 -0.00039062308 -0.00061465625 4.86502e-05 -2.7311207e-05 0.00050978106 0.000100471094 -0.0004369107
0.00016402759 -0.0003363402 -0.00034061982 -0.0002438853 -0.00024436397 -0.0005721935 -0.00023107821 -6.786761e-05
-0.00017482848 -0.0003896992 -0.0001237759 0.00015152612 -9.499289e-06 -0.00031302686 -3.065153e-05 0.00011187808
-0.00037142454 4.72659e-06 -9.023692e-05 0.00018626604 -0.0005437976 6.550088e-05 6.3781745e-06 -0.00024946278
-0.00043795665 -0.000116384814 -0.00020703602 0.00012871555 -0.00045507815 -0.00060595304 2.394876e-05 0.00066345924
0.00025677396 2.9514593e-05 0.00028945436 -0.00014425848 -0.00014593797 0.00029328887 0.00012707786 0.00041807917
-0.00026328306 -0.0002585081 -0.00013122219 -0.00017462994 0.000118271884 -0.00015711122 7.020265e-05 -0.0005607248
7.627288e-05 -0.00028140974 0.00013154735 0.00029773067 -0.00012251882 0.00015814768 -0.00020719171 0.00012205627
0.00016697722 -0.0001551731 0.00025320973 -0.0005807931 0.00021187049 5.708182e-05 0.00025815348 -0.00018917715
-1.8387074e-05 -0.00014440656 -0.0005624373 -0.0001739733 -0.00023701564 0.00035484708 -0.00046616248 0.0004833903
-0.00024337576 -0.00076032925 -0.00024988066 0.00034372153 0.00013138245 -0.00092246686 -0.00016742742 -0.0001131304
-0.0005852632 -0.00014653985 6.431405e-05 0.00040968423 -0.00025440851 0.00024209716 0.0005812173 0.00017701685
-0.00020641107 6.597454e-05 9.53525e-06 0.00011677571 -9.118887e-05 -6.207019e-05 -2.822225e-05 0.00010591379
-0.0002613659 -0.0004942515 -0.00013204457 -0.00038360234 0.0006878289 -0.00018379606 -0.00036197982 8.8012624e-05
0.00034411496 0.00031674682 -0.00024367655 -0.00017687824 -0.00035432997 0.00019217086 0.00033314433 -0.0002829083
-0.00024574957 9.72815e-05 -0.00018962378 0.00035735086 2.2605407e-05 0.00037591998 0.00028573675 -0.00031932135
-0.00015430182 -0.00025445397 5.6559194e-05 0.00022177488 -0.00061339507 -0.00012862841 -7.444738e-06 -0.00028356077
0.00070936856 -0.00016481147 0.0003321131 -0.00024536334 -0.00048406757 -0.0003169564 0.00021022386 -0.00022635782
-0.00019671563 -0.0003455705 0.00018063647 -0.00037625295 0.00032769243 -8.969434e-05 -0.00040464246 6.240913e-05
-0.00033022137 0.0004930107 -0.0005353301 0.00052814116 0.00031562024 -0.00074579683 0.00034286437 0.0003323854
-0.00038308525 -0.00043001707 -0.00017787932 0.00032977524 0.0004134859 -0.0003034231 -0.00025117895 -0.00023745223

momentum_buffer f4 [64]
00000000: 40ff b638 21df dc3b 859c 83bb bf95 28bc
00000010: dfb8 f6bb 5686 0f3c 1418 8139 1961 6139
00000020: 8be1 78b9 176b 823a bb81 ee3b 0c6e 86bc
00000030: ab43 b038 7a8d 523b 24f8 13bc 70a2 063a
00000040: 6c4c 2a3b 77bc 9eb9 8ab1 11b9 4e48 27bc
00000050: 66e6 f23b bcd3 08b9 5471 483c b122 99bb
00000060: 5ebe 9239 751c 23ba 6566 ccb8 468d cbb9
00000070: 5179 babb 1256 6f3c d68b a238 5227 88b9
00000080: 61eb 833a 27c5 653c cad0 fbb9 d1a6 c8b9
00000090: 16c5 8cbb dfb0 2c3b d1fa 01bc 8ec5 5d3a
000000a0: 306e 143c 02a6 1fb7 4468 e93b 38fe 1fb8
000000b0: efcc 023c e014 1dbb c2d7 ed39 6ecc ad38
000000c0: 68f5 adbb 614b 00b7 0bb1 06bc a07b 4b39
000000d0: 1b3c b73b d445 04ba 93ae 0b3c 9e03 45bc
000000e0: e1a9 583a fae9 0f37 53be 01bc f815 0fbb
000000f0: 457b 4a3b 58d1 f93a f890 1aba 3163 8d3c
8.72598e-05 0.006740466 -0.0040164613 -0.0102896085 -0.0075293626 0.0087600555 0.00024622737 0.00021493844
-0.00023735144 0.0009950128 0.0072786487 -0.016409896 8.404938e-05 0.0032127784 -0.009031329 0.00051358994
0.0025985492 -0.00030276526 -0.00013894416 -0.01021011 0.0074127195 -0.00013048848 0.012234051 -0.004673325
0.00027989125 -0.0006222197 -9.7465505e-05 -0.00038824434 -0.0056907316 0.014607923 7.7508084e-05 -0.00025969237
0.0010064655 0.014024056 -0.0004803001 -0.0003827126 -0.0042959554 0.002635054 -0.007933334 0.0008459919
0.009059474 -9.51579e-06 0.007123025 -3.8145314e-05 0.00798343 -0.0023968741 0.00045364915 8.287361e-05
-0.0053087957 -7.646945e-06 -0.008220921 0.00019405643 0.005591882 -0.00050458056 0.008525508 -0.012024788
0.000826506 8.577941e-06 -0.007918912 -0.0021833163 0.0030896228 0.0019059582 -0.0005896236 0.017259212

momentum_buffer f4 [64, 64, 3, 3]
00000000: ae18 8d38 0e1f 0bba 1daa 0d38 97bf 07b9
00000010: e992 e8b7 7544 1eba a29c b437 b7a3 e6b9
00000020: 02e8 8e38 2673 35bb 173f 42bb 47e8 2abb
00000030: a001 12bb 50a2 1abb f128 0fbb d2e9 2bbb
00000040: 1ae1 47bb be9d 3fbb d00f a8ba 37de 42ba
00000050: dd8c 98b9 d02b 5aba 4e14 55ba 6e48 9bb9
00000060: 3688 31ba 90de 65ba 9b6b 3cba 2458 eaba
00000070: 78e1 bbba a8ad e1ba 0e29 b6ba d128 c6ba
00000080: b407 dbba 155c eeba 9d8b f2ba a45c 0bbb
00000090: faf2 80bb e1f9 5ebb 38d2 4abb 430d 4ebb
000000a0: e589 24bb 0acf 3fbb 84c6 45bb 5b01 45bb
000000b0: 71cf 4ebb 9a4f 89b9 8263 04ba fecb beb9
000000c0: 4b0d 29ba 717b 34b9 b3f4 5039 0cb2 d5b9
000000d0: bec5 29b9 0eaa c1b9 f48e ce38 c9e9 65b9
000000e0: 71b2 13ba 81ce f337 3caf 9439 22c4 d3b7
000000f0: d246 6bb9 db55 c339 b936 6d38 012d 1bbb
00000100: 0b96 0dbb ac4c 41bb 4382 0bbb 653e 02bb
00000110: c829 08bb 0361 30bb 1529 07bb c41e 27bb
00000120: 43cc 043a 9a17 a236 6077 f538 a4d0 43b9
00000130: c052 4738 aae9 67b9 6cc3 b839 92c1 9a39
00000140: 49d8 91b8 7c36 eab9 da5d e4b8 0458 2539
00000150: 568d 1c38 d10a c839 02ab 8e38 19de 39b9
00000160: 2159 97b8 0057 c9b8 825f c0b9 9039 cab8
00000170: 7195 65b9 f87e b839 cf7e b038 43cb ed37
00000180: 7eac 68b9 f60c 17b6 739d d5b6 9f05 4ebb
00000190: b408 3abb a807 38bb cbc2 40bb 53b9 27bb
000001a0: 9653 56bb f945 57bb 8ff2 48bb 5395 7bbb
000001b0: 2376 00b9 26a0 ce38 f409 76b9 dc2b 6539
000001c0: 7e32 fa39 c530 8439 0bd2 bc39 5796 4bb9
000001d0: 1fe0 afb9 bc66 19ba 55ac 0bba 89ea 3bba
000001e0: b57c 2cba cc9c 11ba aa87 4bb9 6f63 37ba
000001f0: 9e6a 58ba b75f 86ba 3541 82bb 28be 6abb
00000200: 7c7d 76bb 08a8 6fbb c3cd 4dbb fc80 44bb
00000210: 4903 69bb d12e 70bb d4bb 84bb be94 0cba
00000220: 0bbd 4739 ccef 37b9 be23 7ab7 77f8 4f39
00000230: 634b 99b9 8c83 e639 9612 81b8 adea 89b9
00000240: 1706 bcba be16 98ba 7e1f b4ba 0923 9bba
00000250: 1da6 c2ba 87b4 9dba 209f adba 1cea b0ba
00000260: 727e e3ba 76e4 2638 90c0 6938 16bf c7b9
00000270: ed52 9a38 a062 72b9 0967 0bb9 9a5a db38
00000280: f342 e539 582e 7839 0182 b3b9 be5a 51b9
00000290: 3af2 2c39 5cd5 8239 6ea3 2c38 b507 d3b9
000002a0: a086 edb8 b86b 33b9 7273 9fb8 d7e2 4abb
000002b0: 6f86 09bb 3049 25bb f890 0abb b1fa 0abb
000002c0: bd20 1fbb 5178 05bb 882e f2ba 5a44 1fbb
000002d0: f031 9aba c2fd acba e241 d7ba a5e6 b8ba
000002e0: e8f0 dbba 5dc8 f2ba dddc a1ba 9845 c1ba
000002f0: f542 ecba 117b 94ba f7d6 27ba 43dd 78ba
00000300: 6e06 0bba 06c0 58ba 2a58 6ab9 b204 e0b9
00000310: aab8 28ba 3c54 ccb9 7a67 29ba 3768 52b9
00000320: e3a6 38ba 960a 01ba 62f0 3bba 6710 f9b9
00000330: 6f90 4939 b7d7 0638 2f38 3dba 3f3c 8fba
00000340: 4aac 09ba 88a4 55ba fec0 c1ba 104a a0ba
00000350: b838 a3ba fb41 a0ba bffb 85ba af67 aaba
00000360: d924 8334 bb15 76b8 0d5f 4eb8 28e9 45b9
00000370: 133c d639 0206 4d38 91f8 d139 56e2 e5b9
00000380: 022d 35b9 c82e 0f3a ddce 41ba 3e0c 8e39
00000390: 2685 8cb9 7058 9fb9 908b 12b9 34f2 2339
000003a0: a317 3db9 68d3 b8b9 9aa6 cab9 d1d9 a339
000003b0: 0fac 40b9 60f9 4e39 5a22 8039 a825 e038
000003c0: 6731 ce39 eb04 e239 a47f e139 90cc 2db9
000003d0: c5ca 8438 fcee 2d39 66c5 07ba 301d ebb7
000003e0: 08fd a3b9 5f88 78b7 2bee 20b8 266b 4fb8
000003f0: f6a9 a5ba cb45 88ba ee83 b1ba 2e64 e7ba
6.728001e-05 -0.00053070567 3.377545e-05 -0.00012945976 -2.7724966e-05 -0.00060374226 2.153061e-05 -0.00043990996
6.8143025e-05 -0.0027687042 -0.0029639655 -0.002607839 -0.00222788 -0.002359528 -0.0021844471 -0.0026231897
-0.0030499161 -0.0029238309 -0.0012822095 -0.0007433625 -0.0002909665 -0.00083225686 -0.0008128331 -0.00029617868
-0.0006772311 -0.0008768821 -0.00071876653 -0.0017879051 -0.0014334163 -0.0017217891 -0.0013897733 -0.0015118365
-0.001671067 -0.0018185402 -0.0018504743 -0.0021264935 -0.003935215 -0.003402345 -0.0030948054 -0.003144101
-0.0025106606 -0.0029267692 -0.003017814 -0.0030060622 -0.003155675 -0.00026189984 -0.0005050228 -0.0003639161
-0.0006448819 -0.00017212123 0.00019927583 -0.0004075918 -0.0001619076 -0.0003693853 9.8494726e-05 -0.00021926234
-0.0005634195 2.9064018e-05 0.0002835932 -2.5244492e-05 -0.00022437729 0.00037257266 5.6556168e-05 -0.0023677947
-0.0021604325 -0.0029495163 -0.0021287359 -0.0019873616 -0.0020776857 -0.0026913292 -0.0020623852 -0.0025500515
0.0005065838 4.830724e-06 0.00011704746 -0.00018674374 4.7522364e-05 -0.00022116923 0.00035240815 0.0002951739
-6.954425e-05 -0.00044672552 -0.000108893684 0.00015768415 3.7324928e-05 0.00038155032 6.80294e-05 -0.00017725713
-7.216843e-05 -9.600632e-05 -0.00036692253 -9.6428324e-05 -0.00021894813 0.00035189814 8.415954e-05 2.8347253e-05
-0.00022189502 -2.2508298e-06 -6.366224e-06 -0.0031436456 -0.0028386535 -0.0028080735 -0.002941298 -0.002559264
-0.003270363 -0.0032848103 -0.0030662154 -0.0038388565 -0.0001225104 9.8526754e-05 -0.00023464096 0.00021855481
0.00047721335 0.00025213338 0.00036014649 -0.00019415595 -0.00033545584 -0.00058517954 -0.00053281087 -0.00071684323
-0.0006579862 -0.00055546756 -0.00019410127 -0.0006995713 -0.00082556333 -0.0010251914 -0.0039750584 -0.0035818908
-0.0037611416 -0.003656866 -0.003140316 -0.0029984107 -0.0035554937 -0.0036648999 -0.004050711 -0.00053627405
0.00019048543 -0.00017541571 -1.4909483e-05 0.00019833619 -0.00029238602 0.0004396703 -6.154661e-05 -0.00026305523
-0.0014345077 -0.0011603457 -0.0013742296 -0.0011836003 -0.0014850531 -0.0012031951 -0.0013246275 -0.0013497504
-0.0017356409 3.9790255e-05 5.5730867e-05 -0.00038098608 7.3587384e-05 -0.00023115659 -0.00013294457 0.000104596096
0.00043728165 0.00023668387 -0.000342384 -0.00019965597 0.00016493435 0.00024954497 4.11602e-05 -0.00040250798
-0.000113261165 -0.00017110899 -7.603214e-05 -0.003095796 -0.002098467 -0.0025220625 -0.0021143537 -0.0021206553
-0.0024280988 -0.0020365904 -0.0018477002 -0.0024302215 -0.001176415 -0.0013198184 -0.0016422833 -0.0014106823
-0.001678017 -0.0018522848 -0.0012349148 -0.0014745472 -0.0018025326 -0.001132818 -0.00064025767 -0.000949342
-0.00053033873 -0.000826836 -0.00022348823 -0.00042728108 -0.00064362085 -0.00038972672 -0.00064622576 -0.00020065984
-0.0007043911 -0.0004922537 -0.0007169304 -0.00047505202 0.0001922266 3.214899e-05 -0.000721815 -0.0010927989
-0.00052518083 -0.0008149822 -0.0014782248 -0.0012229104 -0.0012452817 -0.0012226695 -0.0010222121 -0.0013000871
2.4427462e-07 -5.867121e-05 -4.920275e-05 -0.00018874242 0.0004086202 4.8881404e-05 0.00040048783 -0.00043846917
-0.00017278272 0.0005461988 -0.0007393191 0.00027093472 -0.00026802084 -0.00030392734 -0.00013975636 0.00015635119
-0.0001803325 -0.00035252725 -0.0003865257 0.0003125207 -0.00018374644 0.0001973859 0.00024439656 0.000106881664
0.0003932819 0.00043109743 0.00043010444 -0.00016574771 6.332019e-05 0.00016587594 -0.0005179256 -2.8027775e-05
-0.00031278306 -1.4813703e-05 -3.8368784e-05 -4.9452436e-05 -0.0012639153 -0.0010396776 -0.0013543346 -0.0017653757

momentum_buffer f4 [64]
00000000: 138e 08bb ff8a 9abb d50c c7b8 8557 d7b9
00000010: d7ee 873b 6b77 2bba ba97 01b8 2fee 3fbb
00000020: 92e3 82b9 5199 bb3a 2413 cabb dc4a 87bb
00000030: d42a 1ab9 fa72 22bb 67ed 42bb db57 96bb
00000040: 7517 6fbb 8bb1 aebb ca3e 6bb8 6537 a2bb
00000050: 7b68 15bb a59e 14bb 293b 87bb 901d 653b
00000060: 44f2 003c 4251 a839 d9fd 84bb 23f8 ba38
00000070: 2402 0838 6b37 c4bb 9023 5339 a31b 78b8
00000080: 8d64 0eba a6a0 17bb a6ca f9ba 4072 9c3a
00000090: 96ef 6137 dce6 bfb9 07b0 153b a323 083b
000000a0: 2877 84b9 882f c63a f2fe c53a bd35 2fba
000000b0: 2486 a73b e1fa d13a 9555 a63b 73a7 973b
000000c0: ebfa cbbb 5481 b738 7cb4 a93a 39c1 0e3c
000000d0: 3f2c a2bb dd50 063b f4aa d03a 0150 2f3b
000000e0: a433 10b6 f594 dd3b 77e4 a939 f261 fdb9
000000f0: 8670 4a3a 6dcc ae3b b3ad c138 39a6 a2ba
-0.0020836636 -0.0047162767 -9.4914496e-05 -0.00041073203 0.004148345 -0.0006540927 -3.0897303e-05 -0.0029286256
-0.00024965085 0.001431266 -0.0061668325 -0.004128797 -0.00014702539 -0.002478777 -0.0029743554 -0.00458811
-0.0036482487 -0.0053312234 -5.6086843e-05 -0.004950451 -0.002279787 -0.0022677567 -0.0041269255 0.0034960248
0.007870261 0.00032104 -0.0040585813 8.91539e-05 3.242692e-05 -0.0059880516 0.00020135776 -5.9153546e-05
-0.00054318534 -0.0023136525 -0.0019057586 0.0011935905 1.3466828e-05 -0.00036602363 0.0022840516 0.0020773194
-0.0002526578 0.0015120367 0.0015105887 -0.0006683728 0.0051124264 0.0016020202 0.00507612 0.004628116
-0.00622498 8.750209e-05 0.0012947465 0.00871306 -0.004949122 0.0020494976 0.0015920089 0.0026750567
-2.148773e-06 0.006762142 0.00032404411 -0.00048328895 0.0007722456 0.005334428 9.235311e-05 -0.0012409157

momentum_buffer f4 [1, 64]
00000000: 46a7 943c ed4b 093d 36e5 40ba 61ac 8a3a
00000010: 45e6 f53c 7d9b a43c 304e 423b 2ab5 0c3d
00000020: e3f7 b43b 8769 ab3c a1b1 e03c d4d0 b03c
00000030: 0200 12b9 f552 c33c 36d2 cc3c a8c3 e03c
00000040: 81d3 d13c dcea 993d 7ab9 3b3d 231e e13c
00000050: d6e3 d53c 580c a83d 688b 673d 56de c93d
00000060: 4cbd 6e3d dcf3 283c 5f66 363d ef53 b539
00000070: b979 7739 cc0b 553d cca3 3b3c 2543 1c3c
00000080: 1cfe 573b 0b45 de3b bb63 e13c cd25 893b
00000090: d0ad 05b9 6fdd 033b 4489 b13c 483d fd3c
000000a0: f1a2 c5b9 9d6a 3b3c 9627 ab3c 89fc 673b
000000b0: 5577 2a3d 0e67 903c 3498 e13c 1a6c 053d
000000c0: 6810 713d b400 2fb8 232e 123d 88e9 813d
000000d0: 37c8 333d 002c 783d 7ca9 8e3b 0f1f b13c
000000e0: 94e0 ea3b 0635 2c3d f4c9 473a c122 133a
000000f0: 3001 1bba 1bc5 3c3d 7166 c8b9 9c94 9a3d
0.018146168 0.033519674 -0.0007358374 0.0010579937 0.030017028 0.020093674 0.0029648654 0.03435246
0.0055227145 0.020924343 0.02742845 0.021583952 -0.00013923648 0.023843268 0.02500258 0.027437046
0.025613548 0.07515499 0.04583118 0.02748019 0.026109617 0.082054794 0.056529433 0.0985686
0.058285996 0.010312047 0.044531222 0.00034585546 0.00023601101 0.052013204 0.011452626 0.009537493
0.0032957857 0.006783133 0.027513376 0.0041854144 -0.00012748619 0.0020120998 0.021671899 0.03091301
-0.0003769617 0.011438993 0.0208929 0.0035398325 0.04161771 0.017627265 0.027538396 0.032573797
0.058853537 -4.1723906e-05 0.03568853 0.06343371 0.04389211 0.060588837 0.0043537 0.021621255
0.007167885 0.042042755 0.0007621341 0.0005612784 -0.0005912958 0.046086412 -0.00038223297 0.07547876

bn0.weight f4 [3]
00000000: 630f 833f 930d 833f d8f9 853f
1.0239071 1.0238518 1.0466871

bn0.bias f4 [3]
00000000: fda1 7b3c 61af 923c 1168 5fbc
0.015358445 0.017905893 -0.013635651

bn0.running_mean f4 [3]
00000000: 782d f73e ff87 e43e 52be d03e
0.48276877 0.44635007 0.40770203

bn0.running_var f4 [3]
00000000: c29d 863d 4d32 7b3d e081 7f3d
0.06573059 0.061327267 0.062379718

conv1.weight f4 [32, 3, 5, 5]
00000000: ab8d 57bd f6ff d8bc 4644 fcbb 0df9 8cbb
00000010: 4915 0d3b 67aa c73c 961a 0ebd 8be1 023d
00000020: 754b fdbd 783c 553c c27e a33a 3e6e 583d
00000030: c6de 46bc 7c82 adbd d59b c9bc 345f e1bd
00000040: 8f08 50bd f3d3 c5bd 2bc1 9fbd f857 8cbd
00000050: 7254 74bd aef0 89bc 3075 8f3d fced 093d
00000060: 0296 4c3c 0cf3 6db9 ef08 983c 4e9d 743d
00000070: 58c2 1a3c 2425 3ebd a453 23bc 7277 19be
00000080: 6373 83bc 771d c13c ff60 213d 4c8f ccbc
00000090: 1b71 72bd 7386 b0bb 2cb5 60bd a703 063d
000000a0: d9b7 0bbd b1d4 bebc 53d7 9f3c 04f4 4a3d
000000b0: 93cc aa3c 1534 b2bd aa4b 7dbd 0706 263d
000000c0: 7dd1 20bd 8d24 5bbd 5038 88bd 5028 c83c
000000d0: 93ba 933d 1dac 8fbd b92f 62bd 6bac 55bd
000000e0: 5617 fcbc 526f 5dbd 9b45 6c3d ef5c 05bd
000000f0: 4697 843d a439 3c3d 1bbb 2abd ba64 2cbc
00000100: f709 bfbc 353b bd3d 317a bd3d c95c e73a
00000110: 5108 833c df97 efbc a911 453d e1e9 06bd
00000120: 54cf c1bd 59d4 aebc bcec cdbd c1b8 053c
00000130: f8a1 843d ebc2 0b3d 9a5f 313d 462e 1a3d
00000140: a082 373b e334 90bc e8bc d53b 4d6f 5cbd
00000150: 7468 2d3d 5cdb a5bd bb2e ef3c e68b 6dbc
00000160: 3e40 423d 51e7 c6bc 5855 a03c f3b2 113b
00000170: 7998 823d 29ba 5a3d 2cb5 cf3d b231 af3c
00000180: 374b 083e 883a 17bd c644 73bd 6eda 31bd
00000190: 784c 133d 150f 613d fd4f dc3d 02b6 8a3d
000001a0: bcc9 98bc 07ac 783d 452c 9cbb 88e5 073d
000001b0: c223 1f3b d74b d23d b465 a3bc f4ea 21bd
000001c0: 0970 babd 5a52 47bd 4865 68bd 2714 1fbc
000001d0: f7e9 23bd cb98 b73b f307 dabc ad7f d3bb
000001e0: 3315 1cbc a036 ddbc 78de d2bb a61d 10bb
000001f0: 2910 773c 526a 34bc 8c5d b63c d68b a23d
00000200: 7fcc 733c 3c44 573b c219 47bd 54a6 f63b
00000210: 29a5 fd3d 926f 27bd 3593 d43c 4f6c 84bd
00000220: 2f3e 4cbc 3408 933d 68df 863d a78a a1bd
00000230: b07f ec3b 9f31 5ebc 5696 aa3c 7f40 86bd
00000240: 68e6 47bd dd9b d03b ac81 98bd 069d 283e
00000250: 753d 3dbd 4040 813d e75e 5ebb c063 dbbc
00000260: 8205 f03c 4ccf 44bd ca30 4bbc 8c7b 63bb
00000270: 64fc 39bd 314d 8ebd be45 853d 65e0 ff3c
00000280: e9b3 1f3b 8525 a53b f3c7 cf3c 4972 9b3d
00000290: c4cb 2cbc e52e 393d ab85 fdbc fdd8 003d
000002a0: 43d3 ed3d 7314 f93d 3dc8 9bbc 1d5c 6f3d
000002b0: d25c 013c f4e8 8abc f931 44bd c0a0 8bbd
000002c0: 3943 a4bc 2dc3 ce3b 22a2 6ebb ec7e 1c3d
000002d0: 6ab8 863c a6df 6e3d be96 bcbd e00a 55bc
000002e0: ee68 193d e15f a33c da58 f63c 1d47 5dbd
000002f0: 2620 ce3c b191 0dbd 82dd 563c 7211 013c
00000300: 7d35 87bc 9143 3d3d a55c 923c 4233 953d
00000310: 91ea 02bd 5cb6 b53c c090 4b3d be83 8f3d
00000320: 7010 703c e738 1dbd b5f7 35bb 9c29 293d
00000330: ce42 9fbc 2b2c b9bd 308b b0ba bef3 33bb
00000340: d434 1cbd c084 c3bd a2f4 98bd da0b d13b
00000350: 50a9 9bbd e7e2 52bd 43ad 3c3d a56e 8cbd
00000360: 2238 5f3c e1e0 83bd 5e1b c6bb 7411 d1bc
00000370: 0284 7fbc e502 19be 47cb d8bd e0d5 2f3c
00000380: e8ca 63bd edfc acbc 5b73 ebbc 431d b13d
00000390: 6098 613d 342b b5bd 81e0 1c3c 50d6 5dbc
000003a0: 9835 73bd 7fc4 a63d e6aa 04bd 1271 6ebd
000003b0: 9204 e439 cbe4 623d fed1 b33d e7ef da3c
000003c0: 9a79 5fbd c3b0 b5bc fc64 9239 dca4 973d
000003d0: 9c05 c33d fa74 37bd e207 0abd 028c 36bd
000003e0: 277c ca3d 6d60 59bc 0daf 783c 9189 f7bc
000003f0: 0f89 23bd d9da 5ebd 242d 503c a589 9cbd
-0.05262534 -0.02648924 -0.0076985685 -0.00430215 0.002152758 0.024373246 -0.034693323 0.031953376
-0.12367908 0.013014905 0.001247369 0.05283951 -0.012138074 -0.084721535 -0.02461044 -0.11004487
-0.050789412 -0.09659567 -0.07800516 -0.06852716 -0.059650846 -0.016838398 0.070047736 0.033674225
0.0124869365 -0.00022692623 0.018558947 0.05972033 0.009445749 -0.04642214 -0.009968672 -0.14986971
-0.016046232 0.02357362 0.039399143 -0.024970673 -0.059189897 -0.0053871213 -0.05486028 0.032718327
-0.034110878 -0.023294779 0.019511854 0.049549118 0.020849502 -0.0870134 -0.061839737 0.040533092
-0.039262284 -0.053501654 -0.06651366 0.024433285 0.072133206 -0.0701525 -0.055221293 -0.052166384
-0.030772846 -0.05406124 0.05768357 -0.03255933 0.064741656 0.045953408 -0.041682344 -0.010522062
-0.023320181 0.092398085 0.09251822 0.0017651553 0.015995177 -0.029247222 0.048112545 -0.032937888
-0.09463373 -0.02134149 -0.10054919 0.008161725 0.064762056 0.034121435 0.043304063 0.037641786
0.0028001443 -0.017603343 0.0065227635 -0.053817082 0.042335942 -0.0809848 0.029197088 -0.014498686
0.047424547 -0.024280222 0.019571945 0.0022231906 0.06376738 0.053400192 0.10141978 0.021386001
0.13309942 -0.036921054 -0.05939176 -0.0434212 0.0359616 0.054946024 0.10757444 0.067729965
-0.018650882 0.060710933 -0.0047660195 0.033177882 0.0024282788 0.102683716 -0.019945957 -0.03953071
-0.091034 -0.04866252 -0.056737214 -0.009709395 -0.04001805 0.005602931 -0.026615119 -0.006454429
-0.009526539 -0.027003586 -0.0064352117 -0.0021990328 0.0150795365 -0.011011677 0.022261404 0.07936828
0.014880299 0.0032847067 -0.04860855 0.007527152 0.123850174 -0.040877886 0.0259491 -0.06465971
-0.012465998 0.07179299 0.0658558 -0.07887774 0.00721737 -0.013561635 0.020823639 -0.065552704
-0.048803717 0.0063662366 -0.07446608 0.1646615 -0.046201188 0.06311083 -0.0033931078 -0.026780963
0.029299501 -0.048049256 -0.012401769 -0.003471109 -0.045406714 -0.06948317 0.06507443 0.03123493
0.002436871 0.005039873 0.025363898 0.075901575 -0.010546628 0.045210738 -0.030947527 0.031456936
0.116125606 0.121621035 -0.01901638 0.058437455 0.007895665 -0.016956784 -0.04789922 -0.0681777
-0.020051586 0.006309888 -0.0036412557 0.03820698 0.016445357 0.058318757 -0.09208439 -0.013003081
0.037453584 0.01994318 0.030071665 -0.054022897 0.025161814 -0.03456277 0.013114335 0.007877694
-0.016504997 0.046207014 0.017866442 0.07285167 -0.03196198 0.022181682 0.04969859 0.0700755
0.0146523565 -0.038384344 -0.0027766053 0.041299447 -0.019441035 -0.090416275 -0.0013469215 -0.0027458514
-0.03813632 -0.095468044 -0.07468535 0.0063795866 -0.07600653 -0.051485922 0.046063673 -0.06857041
0.013624223 -0.064393766 -0.006045743 -0.025521018 -0.015595438 -0.1494251 -0.10585647 0.010732144
-0.05561343 -0.021116698 -0.02874153 0.08648159 0.055076957 -0.08846131 0.00957501 -0.013539866
-0.059377283 0.081429474 -0.032389544 -0.0582133 0.00043490954 0.055393975 0.08780287 0.026725722
-0.054559328 -0.022179013 0.0002792253 0.07404491 0.09522554 -0.044789292 -0.033698924 -0.044567116
0.098869614 -0.013267619 0.015178454 -0.030216964 -0.03992563 -0.05440793 0.012706075 -0.07643441

conv1.bias f4 [32]
00000000: 3f25 083d 3b8d afbd b78e fd3d 5dee 843d
00000010: 4f61 7f3d 4f0f a53d 4dfa dfbd 8515 173d
00000020: 89a9 a83d 459d cabc 6580 243d 0279 813d
00000030: b59e de3c d07b 2d3d 7216 a6bd e2f4 6cbc
00000040: af62 f43d 1347 383d 9a91 e3bd d847 a03d
00000050: 9bf4 d0bd 959c 50bc ffcf d73d b93d 563c
00000060: 7d08 c73d 555e 98bc ec6b 133d e2da 37bd
00000070: e74e 9f3d 97b0 43bd bf74 e23d d721 f83d
0.033238646 -0.085718594 0.12380736 0.06490777 0.06234866 0.080595605 -0.10936413 0.036885757
0.08235461 -0.024733195 0.04016151 0.063219085 0.027175287 0.042354405 -0.0810975 -0.0144626815
0.11932885 0.044989657 -0.11111756 0.07826203 -0.10202905 -0.012732645 0.10537719 0.013076239
0.09718416 -0.018599669 0.035991594 -0.044886477 0.07778721 -0.04777583 0.11057424 0.121158294

conv2.weight f4 [32, 32, 3, 3]
00000000: 5813 393b d3d7 c83c 0b8c fe3c e055 70bd
00000010: 6cbe 823d 3cb5 523d ff31 bebb 3365 503b
00000020: d851 af3d c26c 003c 91bf 83bb 187e 31bc
00000030: 1947 e93d 0291 9cbd 46c2 7a3d 3c2f af3d
00000040: bed2 c1bc f5fe 3dbd dc37 adbc 20cc 22be
00000050: d244 21bd 69ca 2cbd 45bf b53c 1a78 363d
00000060: 0b8d 00bd f6e9 2d3e 3307 5ebe 35c3 f2bd
00000070: d725 0d3e bb8e 3dbd 0cfb 32bd 6b68 d1bd
00000080: c0f1 2d3d 94f1 9b3d 5912 b43b 77e4 a9bb
00000090: 355e 003e 70eb 883d da66 81bd 0060 c2ba
000000a0: f06f 3e3d cb4f 0e3c fe1a 73bb 2d34 8f3d
000000b0: f5aa a5bd f694 b1bd e774 a9bd e576 3abe
000000c0: 77a9 8839 500f 1dbd 5f64 82bd ea44 03be
000000d0: cee4 1bbd 56e9 15be 1576 8e3d a53f 653c
000000e0: e2ed 613d 3916 37bd f0bc bebc 9f2b 993d
000000f0: 573e 423d 9ad9 a1bd e9c4 243d 88c7 febd
00000100: a700 b3bd 5146 47bd a1ef 093e 1cfd 843d
00000110: 7a33 c8bd 4d40 aa3b f080 58bd 5a7d 23bc
00000120: f5fb a33d f1d1 cbbd f89f 8abd af62 31be
00000130: 2933 d73d 98bc 3d3d 4438 40bd 9b8e 00be
00000140: c4b9 70bd 4b96 a33d e596 433c 9673 dc3a
00000150: c778 bdbd 5858 3fbd f101 103e b0dd 48bc
00000160: 23d2 423d b74c 9bbc ef42 1c3d c824 853d
00000170: 1c3f 823d d5ef 063d f553 6a3e b2f7 b73d
00000180: ff57 9dbc 4a5e 343e e8a0 4bbd 1985 e23c
00000190: d344 99b8 056a d4bc bd85 90bd 8e15 f1bd
000001a0: 384d 5a3c 3a90 81bb 614d ca3d 4349 b0bd
000001b0: 76e1 0bbe 2210 773d 2900 b23d 7a99 3cbd
000001c0: a401 6fbb 22fb 65bd ec94 0dbd 9aa3 d8bd
000001d0: 8d6b 0b3e ddf8 913d b243 2dbc 216d 8dbd
000001e0: 46af e9bc 65e8 b5bb 2d23 c9bd 7005 09be
000001f0: 92e1 b8bc ea9c d5bd b6c5 a6bd 1e0f b4bc
00000200: 8bbe 94bd 1fd4 9e3c b5e6 4dbd 9f93 a2bd
00000210: 4867 cbbd 2f53 e23d 688d 803d 7219 a3bc
00000220: f9ad 5e3d 094b 66bc d548 5e3c 702a c13d
00000230: fa75 6d3c 8de5 8cbd ce05 b43b 823b cbbd
00000240: 04b3 dc3d dcfb 10be 53aa 4d3d cf10 163e
00000250: e983 623d 7f89 753e 50f3 963d fc8e 37be
00000260: 1475 93bc ce9f 66bd 5058 233d 20d4 063d
00000270: f632 b1bc e0d0 a9bc 52cb c9bc b926 81bc
00000280: 9f20 09be f2c9 bcbb bb17 e2bb 602e 9b3d
00000290: cd1d 853d 6549 2d3d 788b 15bd 8861 b93d
000002a0: 37e2 193e 7bef 5b3d 8dbd 1fbd 4135 3dbd
000002b0: a79f b13c 6b52 233e f2f9 a13d 7c22 943d
000002c0: d01d 02bc 3ec8 87bb a0d1 f33d 3cf8 eb3d
000002d0: 37c2 2dbe 09ac a4bd 15d6 023d 9611 37bd
000002e0: 4241 683d 38bc 833d 2647 33bc 836c 413e
000002f0: 004b 023d 27db 343c ef42 063e b111 dbbc
00000300: 789d 40bc 8d61 8e3d 1185 e23b 82b1 083c
00000310: 7e96 843d a672 44bd c189 823c 87fd bc3d
00000320: 4d8b 93bd 7d96 6bbd 5105 473e fd2d d2bd
00000330: 7378 423d 4926 393c 6899 4cbd fd2c 0bbd
00000340: b98b 4fbc c59a 8e3d 6fbf 9fbd 2572 323d
00000350: 1bf4 233d 0c6e a23c c180 84bd fa6e 933d
00000360: 2dab 283e 6540 a13d 69f2 683d cb66 c93c
00000370: e04f ddbc 7aef 9dbd 6921 ea3d a698 a73d
00000380: 4e9f 563c c2e9 a5bd 10d1 99bd 4fd2 83bd
00000390: 4fcf debd 7597 3ebd fbb8 b63d 0fb9 62bd
000003a0: f864 f6bc 0c5c 2f3c db70 73bd 3a1f 913d
000003b0: 5637 863d 0b19 df3b e29f 99bc d248 d73c
000003c0: 890d d73d a093 60bb 0493 a6bd cee6 523d
000003d0: 919c f7bd a7a5 1cbe d173 82bd 2651 3ebd
000003e0: 65b4 463c e0c9 4c3e 038c 013e 5051 b63d
000003f0: e6d9 a0bc f0a9 cbbc e383 f03c e59c 04b7
0.002824029 0.024516976 0.031072637 -0.058675647 0.06383976 0.05144237 -0.0058043 0.00317986
0.08560532 0.00783843 -0.004020639 -0.010833286 0.11390514 -0.076448455 0.06122043 0.08553931
-0.02366006 -0.046385724 -0.0211448 -0.1589818 -0.039372273 -0.04218522 0.022185931 0.04454813
-0.03138451 0.1698378 -0.21682434 -0.11853639 0.13783966 -0.046278697 -0.04369645 -0.10224994
0.04246688 0.07614437 0.0054953513 -0.005184706 0.12535937 0.06685531 -0.063184455 -0.0014829636
0.04649347 0.008686016 -0.0037094946 0.069923736 -0.08089248 -0.0867099 -0.082742505 -0.18209417
0.00026066203 -0.03834468 -0.063668005 -0.12819257 -0.038060002 -0.14639792 0.06956116 0.013992225
0.055158503 -0.044698928 -0.023283452 0.07479023 0.047422733 -0.07902832 0.04022685 -0.12440401
-0.08740359 -0.048651043 0.13470317 0.06493589 -0.097754434 0.0051956535 -0.05285734 -0.009978617
0.08007041 -0.099521525 -0.06768793 -0.17322801 0.10507805 0.046322435 -0.04692866 -0.125544
-0.05877091 0.079876505 0.0119378315 0.0016819115 -0.09251552 -0.04671511 0.1406324 -0.012259886
0.047563683 -0.018957479 0.03814977 0.06501156 0.063596934 0.032943565 0.2288359 0.08982791
-0.019206999 0.17614093 -0.049714 0.027651357 -7.308428e-05 -0.02592946 -0.070567586 -0.11771689
0.013324074 -0.0039539607 0.0987804 -0.086077236 -0.13660225 0.06031812 0.08691437 -0.046044804
-0.0036469484 -0.056147702 -0.03456585 -0.105780795 0.13615246 0.07127545 -0.010575222 -0.0690558
-0.02852596 -0.005551385 -0.098211624 -0.1338098 -0.022568498 -0.104303196 -0.08143179 -0.021979865
-0.07262906 0.019388257 -0.050268847 -0.07938313 -0.09931809 0.11051022 0.06276971 -0.019909594
0.054365132 -0.014055976 0.013567169 0.094319224 0.01449346 -0.06879721 0.005493856 -0.099234596
0.10776332 -0.14158577 0.050211262 0.1465485 0.05530158 0.23978232 0.07370627 -0.17925638
-0.018000163 -0.056304745 0.039879143 0.032917142 -0.021630745 -0.020729482 -0.024633083 -0.015765535
-0.1339135 -0.0057613784 -0.0068998015 0.07577205 0.06499825 0.042306323 -0.03650996 0.09051806
0.150277 0.053695183 -0.03899913 -0.046193365 0.021682573 0.15949409 0.079090014 0.0723314
-0.007941678 -0.004143744 0.11905217 0.11521956 -0.16968618 -0.080406256 0.031942446 -0.044694506
0.05670286 0.06432384 -0.010942256 0.1888905 0.031809807 0.011038578 0.1311147 -0.026741834
-0.0117562935 0.069522 0.0069128354 0.008343102 0.064740166 -0.0479609 0.015934827 0.09228044
-0.07204304 -0.057516564 0.19435622 -0.10262678 0.04747815 0.011300632 -0.049950987 -0.03397845
-0.01266759 0.06963114 -0.07800185 0.043565888 0.04002772 0.019827865 -0.0646987 0.071989015
0.16471548 0.078736104 0.056871805 0.024585148 -0.027015626 -0.07711692 0.11432154 0.08183412
0.013099505 -0.081012264 -0.07510579 -0.064365976 -0.10879385 -0.04653116 0.08922001 -0.055352267
-0.030077443 0.010703098 -0.0594338 0.07086034 0.06553523 0.0068084053 -0.018752996 0.02627984
0.105006285 -0.003426768 -0.0813351 0.051489644 -0.120904095 -0.15297566 -0.063697465 -0.046464108
0.01212797 0.19998884 0.12651066 0.08902228 -0.019635152 -0.024861306 0.029359763 -7.904343e-06

conv2.bias f4 [32]
00000000: 2ea8 1e3d ae57 903c b936 af3a 8390 31bd
00000010: e174 abbc b132 63bc c418 12bd 0c26 1a3d
00000020: 991a 00bd 3b9d 93bc 65a6 6ebc 28a5 1c3c
00000030: 9cf2 353d a1e2 e63c fb94 f7b9 b2ba c3bc
00000040: 4099 fbbb b5a6 ec3c 80a6 443d a046 f23c
00000050: d498 2abd 6aab a8bc 1bf8 a43c f2e2 363d
00000060: 236a ac3c 7615 633d ef37 f2bb addb 2f3d
00000070: 6925 7c3d b002 aebc b4e5 cd3c 86ac 533c
0.038734607 0.017619934 0.0013367749 -0.043350708 -0.020929756 -0.013867066 -0.03566815 0.03763394
-0.031275366 -0.01801931 -0.014566039 0.009560861 0.044420823 0.028184237 -0.0004722251 -0.023892734
-0.007678181 0.028888086 0.04801035 0.029574692 -0.041649655 -0.02058955 0.020137837 0.044650026
0.021046704 0.05544039 -0.0073919217 0.04293411 0.061559115 -0.021241516 0.025133945 0.012919551
