Ratio_same/checkpoint_step_0045.pth (torch_old, 541535 bytes, 24 tensors)

momentum_buffer f4 [3]
00000000: b10f 013e c8ed 88be a827 ef3d
0.12603642 -0.26743913 0.11677486

momentum_buffer f4 [3]
00000000: 5497 02be b36d 943e 019d 5cbc
-0.1275304 0.28989944 -0.013465167

momentum_buffer f4 [32, 3, 5, 5]
00000000: b47d 283d 5cbe 143d b43a 033d 00ca 133d
00000010: 8f4f 243d b933 423d 4806 403d 7f51 353d
00000020: 9c55 353d ad28 393d 710b 453d db6a 4a3d
00000030: 633a 533d 262e 5b3d f989 553d befe 523d
00000040: 96b8 533d 460e 5a3d fec4 663d 67cf 693d
00000050: 484a 5c3d 668c 593d 58a7 533d b469 5d3d
00000060: 300e 673d e79f 393d a0fb 243d 5cfc 123d
00000070: 7e13 213d 84c6 2f3d 9332 513d 14af 4c3d
00000080: 4917 423d 6f7c 443d 640e 453d d10a 533d
00000090: e5c4 553d 9948 5f3d c2d5 653d b6f1 5f3d
000000a0: 620a 623d 409a 603d 05c4 663d 4fb9 713d
000000b0: 3e2c 733d e837 693d ca99 643d 2848 5d3d
000000c0: a85b 643d b069 6d3d e854 133d 7513 fc3c
000000d0: 6b2c d63c df9e f23c 8d55 0a3d 6619 2a3d
000000e0: f711 283d 0aa7 193d c797 1e3d fc58 1d3d
000000f0: 1c22 2c3d 95cf 2e3d 939f 363d e99b 403d
00000100: 97b9 383d 2a88 3c3d 7689 3a3d 7df1 3e3d
00000110: 4e88 4b3d 3d3e 4d3d 906f 463d 749b 3f3d
00000120: 51bf 343d a0f7 3f3d f55f 483d a171 8fbc
00000130: 1a44 9fbc ba07 a4bc edec 96bc daff 81bc
00000140: 58c1 5fbc b898 80bc 6073 85bc 0b49 7dbc
00000150: 8b50 57bc 2771 19bc 70b5 23bc d314 32bc
00000160: 90d7 20bc eb6f 0abc cc42 bfbb 1d80 cfbb
00000170: 2ca3 c8bb 3e93 abbb b142 75bb f8c7 56bb
00000180: af02 47bb 862a 68bb c2ee 18bb 30a6 9bba
00000190: 4a9f 76bc 4ad3 8bbc 58aa 8dbc 2269 81bc
000001a0: c9ee 5cbc 93d6 38bc b78b 5cbc 022a 66bc
000001b0: d265 54bc cf74 2bbc e19f e6bb 989f 07bc
000001c0: 92d5 17bc 4785 06bc 585a d1bb 856f 80bb
000001d0: 62cd 92bb 8949 91bb 74b4 68bb f1f2 07bb
000001e0: 76b3 b1ba 00a0 e2ba 1185 b6ba 1093 b937
000001f0: 588e a23a 7815 d3bc c316 e7bc ac6e e9bc
00000200: 2b6a dcbc 9820 c4bc 9098 b4bc 8a75 c5bc
00000210: b5d8 c7bc 3a9f c2bc f644 adbc bbc1 8cbc
00000220: b767 97bc 8ef2 9abc 584e 93bc 74f3 87bc
00000230: 5ae7 5dbc 58c3 6bbc 786e 6dbc 8fe0 61bc
00000240: 4c0a 47bc 4578 2fbc 8423 3fbc 358a 29bc
00000250: 4690 21bc b1a2 03bc f0c3 09bc 47e0 0ebc
00000260: d87f fabb 0ae3 e1bb ae26 d6bb 2b78 1abc
00000270: d07e 26bc 0d2a 21bc ae72 eabb 3e04 d9bb
00000280: 1bb1 05bc 50b2 09bc 2b67 f2bb 7c3f 9bbb
00000290: 5f6f 97bb 7c41 d0bb 3213 f0bb f604 b6bb
000002a0: 8b29 16bb d136 d9ba a8d3 c1bb 214b dcbb
000002b0: 025f d0bb 0c3d 90bb 170f 75bb 07cc 83bc
000002c0: f6d7 7ebc 5fbc 67bc 9ff7 4fbc c1dd 44bc
000002d0: e8b8 8abc c8a1 89bc cbd6 88bc cd80 64bc
000002e0: 85b6 4fbc 964e 80bc 9055 7cbc d0c7 6dbc
000002f0: 0507 3abc 74a3 30bc 4f23 65bc 498f 67bc
00000300: e533 4abc 1774 10bc 2615 04bc 3113 50bc
00000310: 6205 64bc 7482 4ebc d162 24bc b58c 11bc
00000320: 3efd 87bc fb82 87bc 2ef4 74bc b8fa 56bc
00000330: 60b0 56bc 3f0f 9abc 57d7 96bc ef39 8fbc
00000340: 8696 78bc 3e53 6ebc 5658 91bc b74a 8cbc
00000350: c5f5 83bc ba94 55bc db9a 3fbc 9d42 84bc
00000360: 80ac 82bc f20a 6abc ff41 2cbc 988b 1dbc
00000370: fbdb 71bc e266 85bc 44bf 74bc bfa9 3ebc
00000380: ba6a 30bc 9cc5 8c3c 91f2 a23c a288 cd3c
00000390: 5e01 d83c 1050 be3c c8b7 803c 0d1c a03c
000003a0: 8dea d03c 77e1 f73c 5f6e eb3c 4374 6f3c
000003b0: d2f9 a73c f8ea f03c 113e 103d baf4 0d3d
000003c0: 32b3 7f3c 07ab af3c 411e fa3c 3b26 193d
000003d0: f387 1a3d 1cb9 563c ac1c 893c 0841 c13c
000003e0: fdbc f93c 5001 fd3c c19f 363c f35d 5b3c
000003f0: 4c93 8f3c 2c6d 9a3c b154 8b3c 9c89 0f3c
0.041135505 0.036314353 0.032038406 0.036081314 0.040114935 0.047412608 0.04688099 0.044267174
0.044271097 0.045204807 0.048106615 0.04941831 0.051569354 0.053510807 0.052133534 0.051512472
0.051689707 0.05323627 0.05634021 0.05708256 0.053781778 0.05311241 0.051673263 0.054055884
0.056410015 0.04531851 0.04027903 0.0358852 0.03932523 0.04291393 0.051073622 0.049971655
0.047385488 0.04797023 0.048109427 0.051523987 0.052189726 0.054512594 0.05611206 0.054673873
0.055185683 0.054834604 0.056339283 0.059014615 0.059368365 0.056938082 0.055810727 0.05402389
0.055751473 0.05796212 0.035969645 0.030770997 0.026144227 0.029616771 0.033772994 0.041528128
0.041032758 0.037512816 0.038718965 0.03841494 0.042024717 0.042678434 0.044585776 0.047023688
0.045098867 0.046028294 0.04554125 0.04661702 0.049690537 0.050108183 0.048446238 0.04677911
0.044127766 0.046867013 0.048919637 -0.017510237 -0.019441653 -0.020023216 -0.018423522 -0.01586907
-0.013656937 -0.015697822 -0.016290367 -0.015459309 -0.0131417615 -0.0093653565 -0.009991989 -0.010869223
-0.009817019 -0.008449535 -0.00583682 -0.006332411 -0.006122967 -0.0052360585 -0.0037423784 -0.0032773
-0.003036659 -0.0035425737 -0.002333567 -0.0011875089 -0.015052626 -0.017068524 -0.01729314 -0.015797202
-0.013484665 -0.011281627 -0.013461045 -0.014048101 -0.012963729 -0.010464861 -0.007038102 -0.008277796
-0.009267228 -0.008210487 -0.0063889436 -0.003919544 -0.00448005 -0.004433815 -0.003550795 -0.002074417
-0.0013557512 -0.0017290115 -0.0013925155 2.21222e-05 0.0012402041 -0.025767073 -0.028209096 -0.028495155
-0.026906094 -0.023941323 -0.022045404 -0.024103899 -0.024395326 -0.023757566 -0.021151047 -0.017182222
-0.018482072 -0.018914487 -0.017981693 -0.01659558 -0.013543928 -0.014389835 -0.01449167 -0.013786449
-0.012148451 -0.010709827 -0.011666182 -0.0103478925 -0.009861058 -0.008034394 -0.008408532 -0.008720464
-0.0076446347 -0.0068935202 -0.0065353727 -0.009428064 -0.01016207 -0.009836686 -0.007154784 -0.00662282
-0.008159901 -0.008404329 -0.0073975525 -0.0047377925 -0.0046214308 -0.0063554626 -0.007326507 -0.0055547906
-0.0022912945 -0.0016572123 -0.005915124 -0.0067228233 -0.006358982 -0.0044018086 -0.0037393027 -0.016088499
-0.015554419 -0.014144032 -0.012693315 -0.012015761 -0.016933873 -0.016800776 -0.016703984 -0.013946724
-0.012677793 -0.015662473 -0.015401259 -0.014512971 -0.011354213 -0.010781158 -0.013985469 -0.014133283
-0.012341474 -0.0088167405 -0.008061683 -0.012699888 -0.013917299 -0.012604345 -0.010033325 -0.008883645
-0.016600247 -0.016541949 -0.014950795 -0.013121299 -0.0131035745 -0.018806098 -0.018413229 -0.01748368
-0.015172606 -0.014546214 -0.017742317 -0.01712547 -0.016108403 -0.013035947 -0.011694635 -0.016145045
-0.015951395 -0.014284836 -0.010513782 -0.009615801 -0.01476192 -0.01628441 -0.014938179 -0.01163715
-0.010767633 0.017184071 0.019891055 0.025089566 0.02636784 0.023231536 0.015712634 0.019544626
0.025502468 0.030258877 0.028739152 0.014615121 0.020504866 0.029408917 0.03521544 0.034657218
0.015606688 0.021443857 0.030532004 0.037389975 0.037727308 0.013105657 0.016737305 0.02359058
0.030485624 0.030884415 0.011146487 0.013389098 0.017526291 0.018850885 0.017008157 0.008760836

momentum_buffer f4 [32]
00000000: 104c 94bd 38e0 f7bc eba2 cf3c f1de 593d
00000010: 7aae 5fbc a74e 57bc 5aa2 9f3d 93f7 223d
00000020: dd19 68bd 0b39 a53d 0adf 2cbd 7bd3 a53b
00000030: 88f7 943c 56ea 1fbc 750c f93d 2051 1a3d
00000040: 094e 3c3d da71 d1bd ae47 22be 1dfb aebb
00000050: 6f27 683d 88c8 983d 04ee 56bc 1d92 243d
00000060: 63a6 cc3c 9a28 573d f5c9 ca3c 963a 033b
00000070: 64f2 1dbe 2ee0 103b 15ff 523e 6d15 b83d
-0.0724107 -0.030258283 0.02534624 0.05319113 -0.013652438 -0.013141311 0.07794638 0.039786886
-0.05666529 0.08067521 -0.042204894 0.005060611 0.018184438 -0.00976046 0.12160579 0.037675023
0.045972858 -0.102267936 -0.15847656 -0.0053399936 0.05667823 0.07460123 -0.013118271 0.040178407
0.024981683 0.052528955 0.024754504 0.0020023934 -0.15424496 0.0022106278 0.20605119 0.08988462

momentum_buffer f4 [32, 32, 3, 3]
00000000: 5af8 83bb d606 87bb e8d5 8dbb 75da 96bb
00000010: ab16 88bb ab96 90bb 2076 9fbb 527e a2bb
00000020: 11df 97bb 34df ffbc 8add 01bd 5534 01bd
00000030: 83a6 0ebd 5ba3 14bd c4bc 10bd a2b4 0ebd
00000040: 9eec 12bd 4150 12bd a660 c1ba aa56 fdba
00000050: b301 c3ba 963e beba 2c6d 71ba d5aa 80ba
00000060: 49d3 f4ba ff2f 4cba 0a73 3cbb d884 8bbc
00000070: 0e72 80bc d861 81bc f3c2 94bc d7fb 95bc
00000080: f74c 89bc 28a0 87bc e403 8abc 6cd5 85bc
00000090: cc3a 33bb b21a 49bb 702c 75bb aff2 80bb
000000a0: 849e 73bb f325 80bb 89ac 90bb 7194 85bb
000000b0: 5820 9bbb 2fc1 4bbb e5d5 52bb 1853 82bb
000000c0: 0c23 0ebb d5da 1bbb e9df 33bb e6ed 39bb
000000d0: 8424 1bbb af7c 47bb a803 62ba 3fb3 9bba
000000e0: 8ff5 95ba 1624 90ba f8f0 7cba 7948 15ba
000000f0: d938 7cba 9494 d0ba 8222 89ba 6a2e a7ba
00000100: bda5 3fba 6458 dcb9 c208 89b8 d9f1 dab8
00000110: 163d 5cba 0d36 60ba 7f34 6fba bf8a 3fba
00000120: 10b2 21bc f36c 33bc 6335 31bc 043d 61bc
00000130: 3c46 50bc 424f 54bc 38fe 5fbc 4088 6bbc
00000140: 6c72 64bc 8c41 45ba 0cb7 8cba 2053 99ba
00000150: 3ad1 beba 6f08 a2ba 5b41 dfb9 659d 83ba
00000160: 22bd 36ba f2ca 92ba 8ffd 08bd b6a8 09bd
00000170: 2ecc 07bd 16c2 10bd b443 0ebd 073a 0fbd
00000180: 644c 06bd af41 03bd 74e8 06bd 0ccf 46bc
00000190: e503 4ebc 90a5 50bc 5390 63bc c51a 6cbc
000001a0: 02e5 60bc 8a7c 5dbc 376a 58bc 9925 65bc
000001b0: 2621 2ebb 0ee3 e6ba 38f9 01bb 9d76 09bb
000001c0: 13c5 f7ba d6ed 1cbb cd03 38bb 6a12 50bb
000001d0: a9f8 0abb 26ac 15bb c0ca 3ebb 7e6d 6ebb
000001e0: 9954 0cbb acd9 0dbb 0cc4 4abb 0611 34bb
000001f0: 53ca 13bb 146c 41bb 4853 81bb 5ad8 63bb
00000200: f7bf 5abb 3518 67bb 77a7 6fbb 30b2 5fbb
00000210: 2864 7abb 0367 2dbb 31ed 2cbb e85c 1ebb
00000220: 5498 f5ba 6f04 05bb de0f 0cbb 32bf bfba
00000230: e6de d9ba 6c2c 1fbb 121b f1ba dffc 15bb
00000240: c23c ddbc 1359 edbc dcec e6bc 8eb1 ecbc
00000250: b8fc f7bc 276f f2bc d13c e4bc df61 f4bc
00000260: 9055 f0bc b7ad cfbb 31c1 c2bb a92e cebb
00000270: df90 d3bb 244d d2bb 6ed6 d6bb bcd6 e9bb
00000280: 4f62 fabb 7285 e7bb e63b c1bb bec8 aebb
00000290: cfe7 b2bb 1f48 d7bb 0061 ddbb 20fe cbbb
000002a0: 941a debb 2b05 ebbb 8c1a fbbb a52b d7bc
000002b0: 7c80 d7bc c412 d0bc 05ed ddbc 46c5 e1bc
000002c0: c544 e2bc 3eb7 d1bc 0cd8 cebc c23e cebc
000002d0: 7238 21bb efea 07bb fbbf d8ba f901 c8ba
000002e0: 48a6 83ba 6df4 85ba ebea bcba 8b50 e8b9
000002f0: cd65 a3ba 4688 2ebb 43ed ccba a5a0 03bb
00000300: 344f 3ebb 7570 03bb 568e 05bb d7bb 36bb
00000310: 4091 08bb 451b 23bb 6a8c f4bb 7a37 ecbb
00000320: 0bbb 00bc 9289 0ebc 0cd6 f8bb 5c40 12bc
00000330: 8c7b 04bc 60f0 09bc 73d7 0cbc e7ec d1bb
00000340: a5b1 d5bb 5b2d cdbb c239 e5bb 6df1 d7bb
00000350: fe15 dcbb 4796 cebb a529 dfbb ec7f c9bb
00000360: c250 ffbb db1a 0cbc def9 11bc e874 23bc
00000370: 4ad1 2dbc df45 34bc 1491 1fbc 0d41 26bc
00000380: c743 2cbc eacc 7bbb 84ac 6abb a2af 49bb
00000390: c950 8cbb 6efd 6fbb 8842 27bb 6eae 80bb
000003a0: a994 67bb ff5d 42bb bad6 86ba dce2 94b9
000003b0: 3edb b5b9 8f5f 5cba b43b 6aba cdff 3eba
000003c0: c280 1eb9 c1f2 20ba 4b50 8cba 3265 fdba
000003d0: ae63 3ebb 88f6 64bb bf2c 0abb ba09 06bb
000003e0: 1578 13bb 546e baba 5e13 ecba 2ca3 1abb
000003f0: cf07 3cbc 1fe6 42bc 02de 43bc 1cf7 28bc
-0.0040274085 -0.004120688 -0.004328478 -0.004603679 -0.004153093 -0.0044124923 -0.0048663765 -0.004958906
-0.004634746 -0.031234361 -0.031705417 -0.03154405 -0.034826767 -0.0362886 -0.03533627 -0.034840234
-0.035870187 -0.035721067 -0.0014753535 -0.0019328196 -0.0014877826 -0.0014514502 -0.0009209688 -0.0009816537
-0.001867869 -0.00077891344 -0.0028755092 -0.017031118 -0.015679386 -0.015793726 -0.018159365 -0.018308563
-0.016760333 -0.01655586 -0.016847558 -0.016337119 -0.0027348278 -0.0030686078 -0.003741052 -0.00393518
-0.003717334 -0.003910774 -0.004415099 -0.0040765335 -0.0047340803 -0.0031090488 -0.0032170948 -0.0039771907
-0.002168837 -0.0023781557 -0.0027446693 -0.0028370558 -0.0023672888 -0.0030439307 -0.00086217606 -0.0011878981
-0.001144098 -0.0010997083 -0.0009648944 -0.0005694698 -0.0009621508 -0.001591342 -0.0010462555 -0.0012754921
-0.00073107687 -0.00042027526 -6.5343e-05 -0.00010440098 -0.00084014365 -0.0008552976 -0.0009124949 -0.00073067466
-0.009869114 -0.0109512685 -0.010815951 -0.013747457 -0.012712058 -0.01295835 -0.01367145 -0.014375746
-0.013943296 -0.0007524721 -0.0010735705 -0.0011697747 -0.0014558204 -0.0012362133 -0.00042582568 -0.0010041414
-0.0006970932 -0.0011199398 -0.033444937 -0.03360816 -0.033153705 -0.035341345 -0.034732535 -0.03496745
-0.032787696 -0.032045063 -0.03293653 -0.012134325 -0.012574171 -0.012734786 -0.01388939 -0.014410679
-0.013726475 -0.013518462 -0.013208917 -0.013986015 -0.002657005 -0.0017615275 -0.0019832384 -0.002097524
-0.0018903337 -0.0023945472 -0.0028078437 -0.0031749257 -0.0021205342 -0.0022838204 -0.0029112548 -0.003638118
-0.0021412729 -0.0021644635 -0.0030939607 -0.0027475967 -0.0022551015 -0.0029513882 -0.0039466955 -0.0034766407
-0.003337858 -0.0035262231 -0.0036568323 -0.0034133308 -0.003820667 -0.0026459105 -0.0026386494 -0.0024164263
-0.0018737414 -0.0020296832 -0.0021371762 -0.0014629124 -0.0016622215 -0.0024287952 -0.0018394908 -0.0022886319
-0.02700651 -0.028973138 -0.028189115 -0.028893258 -0.030271873 -0.029594017 -0.02786103 -0.029831825
-0.029337674 -0.006337847 -0.0059434404 -0.0062921834 -0.006456479 -0.0064178873 -0.0065563237 -0.007136194
-0.007641114 -0.0070654685 -0.005897033 -0.005333989 -0.0054597626 -0.006569877 -0.006755948 -0.0062253624
-0.0067780707 -0.007172247 -0.0076630767 -0.026265929 -0.026306383 -0.025399573 -0.027090559 -0.027559888
-0.027620682 -0.025600072 -0.025249504 -0.02517641 -0.0024600294 -0.0020739397 -0.0016536707 -0.0015259377
-0.0010044063 -0.0010219939 -0.0014413273 -0.00044310497 -0.0012466252 -0.0026631518 -0.0015634674 -0.0020084765
-0.0029038908 -0.0020056043 -0.0020379028 -0.0027882957 -0.002083853 -0.002488808 -0.0074630277 -0.0072087618
-0.0078570945 -0.0086997915 -0.0075938758 -0.008926477 -0.0080860965 -0.008419126 -0.008596289 -0.006406415
-0.006521421 -0.0062615103 -0.0069954107 -0.0065900595 -0.006716489 -0.0063045355 -0.0068103843 -0.0061492827
-0.0077916095 -0.008551325 -0.008909671 -0.009976603 -0.01060898 -0.011002987 -0.009739179 -0.010147345
-0.010514206 -0.00384217 -0.0035808394 -0.0030774851 -0.0042820913 -0.0036619562 -0.0025521833 -0.0039270436
-0.003533641 -0.0029658077 -0.0010287382 -0.00028397783 -0.00034686358 -0.00084065733 -0.0008935288 -0.0007286042
-0.0001511602 -0.0006139689 -0.0010705082 -0.0019332527 -0.0029051113 -0.0034936983 -0.00210838 -0.0020452575
-0.0022501994 -0.0014223554 -0.0018011143 -0.0023595793 -0.011476471 -0.011895685 -0.011954786 -0.010312822

momentum_buffer f4 [32]
00000000: 93a1 bdbc 08a6 c23b 098d eebb f8a8 a6bd
00000010: d313 993a 0a08 433d 118d cb3d 50a6 8d3b
00000020: 5034 de38 973b 5bbc 2e8a b13c b8a6 83ba
00000030: ae8f a9bd 1e86 a5bb 611b e53d 012d bcba
00000040: be79 153c 6609 06bc 58c6 7d3d fc1a fcbc
00000050: bc28 f4ba db25 dbba 856d 683c 12f0 093c
00000060: 346f c5ba 6a2d e1ba adaa 1bbe 07f0 f63c
00000070: 4cae e63d f7b2 06bc e605 3a3c d43e 903c
-0.023148334 0.0059402026 -0.0072799963 -0.08137697 0.0011678882 0.04761509 0.09939016 0.0043228045
0.00010595529 -0.013380907 0.021672335 -0.0010044193 -0.08279358 -0.0050513884 0.11186863 -0.0014356674
0.009123264 -0.008180952 0.061956733 -0.030774586 -0.0018627862 -0.0016719656 0.014186268 0.008419054
-0.0015063048 -0.0017179672 -0.15201826 0.03014375 0.11263713 -0.0082213795 0.011353945 0.017608084

momentum_buffer f4 [64, 32, 3, 3]
00000000: 09cc 9238 eb9a 4839 79f5 7d39 267d 47b9
00000010: 8400 be38 1677 58b7 5ecc b739 0654 cc38
00000020: 69c4 55b9 fc90 8cb8 f6c2 1a38 c79b 90b9
00000030: c12c 96b8 0d1f 42b9 bdcb ff39 a262 5839
00000040: e3a4 e039 17f5 1db9 b4a7 dfb8 5b77 3736
00000050: 7e66 fab8 dced 14b9 34be bf39 b18b 053a
00000060: 31cc 13ba a08d 23b9 4540 6739 10d8 85b8
00000070: 1af4 6ab9 4e33 9239 c426 3bb9 92d2 c739
00000080: 0551 81b9 ae1f 76b8 4878 ba39 c27b cab7
00000090: aa02 1939 1937 85b7 1d89 13b7 e5d1 dcb9
000000a0: a690 c9b7 cd93 ae38 0e4f 6939 161b 9bb9
000000b0: bdb8 59b8 0ed4 54b9 d67e cdb9 fd3b 3e3a
000000c0: 8da7 8fb9 573e 15b9 e62e 91b8 e409 9938
000000d0: 44f5 0bb9 833f 3ab8 4256 b5b8 abca 9bb9
000000e0: c5c2 edb9 719a 8239 9e61 37b8 2dde 7839
000000f0: ca27 8038 2cac 0bb9 ebe3 7eba 676f a2b8
00000100: 87c2 02b9 a68b c939 38c4 05b9 87ed a3b9
00000110: 6d48 2e3a 776b 61b9 cce5 0038 e021 b8b9
00000120: 73c3 b138 c801 a739 38ab 0cb9 9238 3f39
00000130: ff34 28ba 09d3 7338 6ef6 f438 b4f4 6eb7
00000140: 8cc8 84b7 43d0 a139 c7be a839 8eff 79b8
00000150: 29b5 29b9 5572 15b9 1cad 4db8 8623 1539
00000160: 94eb 4139 0afb c6b9 5952 10ba 715b 5038
00000170: 4a7a a638 b193 233a 6870 4a39 2fd1 76b9
00000180: 56a8 4839 d0ba a4b9 4acd 69b9 ad96 84b9
00000190: e273 90b9 b8cd 1dba 4333 65b9 8ec2 a5b8
000001a0: 2f33 41b9 2a9f c7b9 9caf 0fb9 6a9f 0e39
000001b0: 84fb acb8 73fd a5b9 c010 14b8 6e7e dd38
000001c0: b521 a4b9 a20a 8e38 1350 dab8 eb40 6b39
000001d0: f72e fcb9 ab8d de38 0831 d0b7 962a c8b8
000001e0: 70e7 aeb9 fb90 99b8 54f6 7e37 aad5 2839
000001f0: 9a56 efb9 6acb dfb9 9615 4737 b719 193a
00000200: afa1 f738 d757 b738 2d0a 9939 3c2a 5bb9
00000210: 55d0 4bb7 ce75 c239 da40 0539 46f0 d339
00000220: b3c0 88b9 b4c2 85b9 25a2 02b9 82ef 2db9
00000230: 2419 ff38 ade6 17b9 46dd a238 1e83 0dba
00000240: 9f6a c038 c00b 93b9 afa0 0039 137e a339
00000250: 3075 feb8 56a6 2539 6167 23b9 b559 1239
00000260: 4391 4139 28e1 2fb8 fcbb c639 9a83 dfb9
00000270: fc07 af39 2399 4839 ba8d cc39 b51f ec38
00000280: 1e94 8b39 94f3 2639 8a79 0eba 91b2 28b9
00000290: 2589 85b9 f439 b439 3968 f0b9 17fe e639
000002a0: 7bf5 6ab9 5644 3fba 7543 8ab9 5037 c339
000002b0: a7f3 1e39 221f 5aba dc4a ccb8 0191 8fb8
000002c0: d401 ffb9 8deb 8eb8 0766 e838 f9ef 003a
000002d0: 8c93 71b9 40b4 8139 9831 1b3a 1f36 6439
000002e0: 673c 2db9 90d4 f038 4000 2238 bf8b 1239
000002f0: b344 67b8 ce6d 74b8 8731 d7b7 7085 cc38
00000300: 9ab7 84b9 0932 fab9 7f62 09b9 5fa2 beb9
00000310: d618 353a 60dc 2eb9 7d72 bbb9 7d3d c238
00000320: c17f a939 83b2 b739 9cfc 48b9 e2b9 11b9
00000330: f357 a2b9 70c4 6b39 5b69 b539 c6e3 66b9
00000340: c4ea 67b9 78d5 eb38 4473 39b5 3a49 053a
00000350: f7a6 3c39 7220 df39 59a8 ad39 ff84 8db9
00000360: ce69 00b9 016c 65b9 0db9 b938 aff0 7c39
00000370: a05f 17ba 5edc d2b8 54be 30b8 89ce a2b9
00000380: 1541 2c3a df21 26b9 bb0f aa39 5aae 7eb9
00000390: f7fa f5b9 7bff a1b9 5dba 5639 7e93 1fb9
000003a0: cf1f 04b9 7d85 8eb9 2a6d 0e39 db06 c4b9
000003b0: 5417 ac39 cbf3 b4b8 5ded c0b9 e498 cf38
000003c0: 9acc b3b9 1ba8 fa39 bf0a 08ba 47cb 0a3a
000003d0: 4e0b a039 648d 32ba 64f2 ae39 0b86 a439
000003e0: 3eb8 b0b9 a2d6 b9b9 8ff1 efb8 7cab e139
000003f0: 1928 3739 9917 0aba ac95 c3b9 bb25 4db9
6.999827e-05 0.00019131198 0.00024219406 -0.0001902474 9.060002e-05 -1.290233e-05 0.00035056745 9.7431286e-05
-0.00020386431 -6.702726e-05 3.6898033e-05 -0.00027581883 -7.1608934e-05 -0.00018512849 0.00048789187 0.00020636109
0.0004284746 -0.0001506399 -0.00010664706 2.73386e-06 -0.000119400196 -0.0001420299 0.0003657207 0.0005094363
-0.0005638032 -0.00015597651 0.00022053819 -6.382179e-05 -0.00022406914 0.00027885515 -0.00017848151 0.00038113125
-0.00024665162 -5.8680474e-05 0.000355663 -2.4137906e-05 0.0001459221 -1.5880492e-05 -8.793807e-06 -0.00042118054
-2.4028424e-05 8.3244966e-05 0.00022250062 -0.00029584084 -5.1908883e-05 -0.00020296892 -0.00039195147 0.0007256864
-0.0002739992 -0.0001423297 -6.922874e-05 7.297451e-05 -0.00013347442 -4.4405006e-05 -8.646819e-05 -0.00029714903
-0.00045349277 0.000249106 -4.3721513e-05 0.0002373389 6.110927e-05 -0.00013320212 -0.00097232935 -7.745512e-05
-0.00012470233 0.00038441754 -0.00012756966 -0.00031266754 0.00066483655 -0.00021497706 3.0731593e-05 -0.00035120454
8.476423e-05 0.0003185405 -0.00013415224 0.00018236254 -0.00064165884 5.8132257e-05 0.00011680728 -1.424288e-05
-1.5829013e-05 0.0003086348 0.00032185597 -5.960423e-05 -0.00016184583 -0.0001425234 -4.903703e-05 0.00014222981
0.00018493674 -0.00037952542 -0.0005505435 4.9676226e-05 7.938275e-05 0.0006239964 0.00019306096 -0.00023538315
0.00019136196 -0.00031419704 -0.00022297088 -0.00025289264 -0.0002755216 -0.0006019729 -0.00021858238 -7.904052e-05
-0.00018424982 -0.00038074824 -0.00013702962 0.00013601562 -8.2484476e-05 -0.00031660087 -3.530155e-05 0.000105616506
-0.0003130563 6.773068e-05 -0.00010409965 0.0002243553 -0.00048100177 0.000106121726 -2.4818364e-05 -9.5446754e-05
-0.000333603 -7.322613e-05 1.51969325e-05 0.00016101325 -0.00045650156 -0.0004268543 1.186635e-05 0.00058403186
0.00011807994 8.7424814e-05 0.00029190016 -0.00020901201 -1.2148249e-05 0.00037090335 0.00012708027 0.00040424074
-0.00026083514 -0.00025512802 -0.0001245817 -0.0001658779 0.0001216403 -0.00014486416 7.765977e-05 -0.0005398261
9.175133e-05 -0.0002804678 0.0001226689 0.00031183715 -0.00012133492 0.00015797591 -0.00015583403 0.00013957063
0.00018460029 -4.1932944e-05 0.00037905562 -0.00042631925 0.0003338455 0.00019130534 0.00039015507 0.00011259263
0.00026622502 0.00015921734 -0.0005434981 -0.0001608825 -0.00025469917 0.00034375454 -0.0004585402 0.0004405833
-0.00022407428 -0.00072962546 -0.0002637167 0.0003723451 0.00015158822 -0.0008320679 -9.741422e-05 -6.8457804e-05
-0.00048638752 -6.8149624e-05 0.00011081626 0.0004918571 -0.00023038517 0.00024739094 0.0005920171 0.00021763936
-0.00016521067 0.00011483685 3.8624043e-05 0.00013975704 -5.5138673e-05 -5.8276397e-05 -2.565306e-05 9.752333e-05
-0.00025313796 -0.00047720995 -0.00013102031 -0.000363606 0.0006908303 -0.00016676029 -0.0003575272 9.262094e-05
0.00032329376 0.00035037482 -0.0001916759 -0.00013897524 -0.00030964575 0.00022484525 0.00034601506 -0.00022019361
-0.00022117334 0.00011245435 -6.9085604e-07 0.0005084459 0.00017991276 0.00042558048 0.0003312256 -0.00026992706
-0.00012246447 -0.00021879376 8.855956e-05 0.00024122254 -0.0005774442 -0.00010054627 -4.2138927e-05 -0.00031052929
0.0006570977 -0.00015843612 0.00032436647 -0.00024288279 -0.00046917025 -0.0003089866 0.00020478056 -0.00015218367
-0.0001260035 -0.00027183807 0.00013582842 -0.0003738914 0.00032823777 -8.628479e-05 -0.00036797943 9.899007e-05
-0.0003429398 0.00047808964 -0.00051895896 0.0005294573 0.00030526 -0.000681123 0.0003336846 0.00031380387
-0.00033706607 -0.00035445864 -0.00011441402 0.0004304311 0.00017467178 -0.00052677986 -0.00037304813 -0.00019564379

momentum_buffer f4 [64]
00000000: cf1c c938 60c4 953c 2dba 1bbc aa1b 49bd
00000010: 4c06 9bbc bd44 653c dbee 3f3a 05b6 3f3b
00000020: 52e4 b139 722f 923a f437 5e3c 5dc3 80bd
00000030: 3e79 c9b8 9aca 8b3c ce6d 24bd 762f 0aba
00000040: ba0d 273a cdc2 88ba 2167 8b3b a91b 23bd
00000050: d97e 353c b212 6f3b 6c9f 2a3d 20c6 cbbc
00000060: 3e35 a83a 2374 81bb 2b0c 58b9 6701 7b3a
00000070: aaef d8bc 4945 373d e52e 1e3b 4665 863b
00000080: 4386 343b 949c 623d 928f 69ba d19a 2aba
00000090: aa2d afbc 9aab cd3b 4504 dabc 5640 19ba
000000a0: 0dd5 cc3c f030 81b9 2f7e c73c badd dd39
000000b0: 02e3 c53c a8ed 0ebc 4a23 b3ba 9824 bab5
000000c0: 62dc dcbc 2285 01ba 6ee8 0cbd 81b5 c73a
000000d0: e4f0 bf3c 9fd4 21bb 6c59 c63c 22b9 42bd
000000e0: 2deb 4dba 0db0 62bc 9b4d 08bd c321 f1bb
000000f0: c0c4 6f3c db57 793a 66ad 63bb 1d57 6e3d
9.589793e-05 0.018282115 -0.009504837 -0.049098648 -0.018923901 0.013993439 0.0007321664 0.002925278
0.00033930183 0.0011153056 0.013563145 -0.062872626 -9.60701e-05 0.017064381 -0.04014378 -0.00052713545
0.000637259 -0.0010434032 0.0042542373 -0.0398213 0.011077606 0.003647965 0.041655943 -0.024874747
0.001283325 -0.003950612 -0.00020603898 0.0009575099 -0.026481468 0.04474381 0.0024136838 0.004101428
0.0027545847 0.055325106 -0.0008909638 -0.0006508055 -0.021384079 0.00627656 -0.026613364 -0.00058460736
0.025003934 -0.0002464126 0.024352161 0.00042317604 0.024156097 -0.008723654 -0.0013667133 -1.386873e-06
-0.026960555 -0.0004940798 -0.03440135 0.0015236587 0.023430295 -0.0024693382 0.024212562 -0.047539838
-0.00078551733 -0.013835919 -0.033277135 -0.007358761 0.014634311 0.00095116877 -0.0034740805 0.058188546

momentum_buffer f4 [64, 64, 3, 3]
00000000: 35cb 9338 20c8 06ba 7841 6c38 365c e4b8
00000010: 4164 ebb6 43d8 0fba f147 d937 447b ddb9
00000020: 21e6 ca38 6517 cbbb 671f d4bb e929 c5bb
00000030: 7a9d c2bb c28c cabb 2994 c0bb 23ff c8bb
00000040: 9f03 dbbb fa6b d2bb 746f 09bb b486 ddba
00000050: 959c a3ba bca4 e2ba 6bf3 eeba 9234 a9ba
00000060: 1cad c7ba 1cbd eeba b227 d8ba f502 94bb
00000070: 14d7 8cbb 4190 91bb f427 8bbb 9111 93bb
00000080: 0543 93bb 0fc4 96bb 51c7 9abb fbbf 9ebb
00000090: cae3 06bc e8bc 02bc 27e6 f9bb 9ce1 fcbb
000000a0: 0bd2 f0bb 2524 fbbb 06c5 f6bb a9a1 fdbb
000000b0: 6260 febb 1063 e0b9 f43c 26ba 910a f2b9
000000c0: e856 44ba 698a 95b9 fab3 b938 2ba2 0bba
000000d0: 72e0 a7b9 2f06 05ba ff93 3338 6681 93b9
000000e0: d4ff 25ba 7d43 d0b8 34c0 0f39 8795 39b9
000000f0: 9a2d b6b9 4a53 6d39 1910 b1b8 1afd c1bb
00000100: 493e bebb f9fa d5bb 3369 c0bb 23ef bebb
00000110: 44a1 bebb 037c d1bb ed89 c0bb 552a ccbb
00000120: 9fdc ea39 11f4 48b8 5c10 ba38 74a1 7fb9
00000130: bb64 6ab7 3aed 84b9 9266 8f39 55ef 6539
00000140: a396 dcb8 0a33 e3b9 1f3c d3b8 a7ab 2939
00000150: 9633 2a38 0c0d c639 637a 9838 c98e 36b9
00000160: 292c 96b8 cc86 c1b8 9a28 38ba a9ef deb9
00000170: 3950 0eba f848 3fb7 c37d 79b9 c471 a2b9
00000180: 12d7 0aba 130b 93b9 85c3 97b9 c7bc d4bb
00000190: 4918 d2bb 22ea cebb 5cf2 d8bb 6d04 d3bb
000001a0: 99ac e5bb 7103 ddbb 0360 dabb e379 eebb
000001b0: 57a3 16b9 7fb8 6238 0df1 93b9 200a 3d39
000001c0: ca7c d939 0fb0 4839 1b8d cd39 9fb8 37b9
000001d0: b65b a9b9 cbd1 6dbb 2ac7 6dbb b6f2 74bb
000001e0: e024 77bb 0692 74bb a12a 5abb 62fb 7dbb
000001f0: fe87 84bb 8749 89bb c09b 19bc 40d8 17bc
00000200: 0382 1bbc a82c 1cbc 4d47 18bc 9a69 16bc
00000210: ce5a 19bc a231 1ebc cf14 24bc 2a42 12ba
00000220: 2d58 1e39 4001 5ab9 aaeb 30b8 59a2 2d39
00000230: f5ca a4b9 8699 d339 d80e b8b8 9f0b 95b9
00000240: 0268 2bbb 357f 1bbb e53e 29bb 1a00 1fbb
00000250: 3976 33bb 06e4 20bb e510 26bb 4ade 28bb
00000260: 3298 40bb 2231 6bba 4c03 6aba d63a a3ba
00000270: 0932 66ba b0bb 9cba 1f7f 84ba 5037 5aba
00000280: 6615 feb9 f876 1dba 909e 19bb 907e 0dbb
00000290: aa3d f1ba 0809 e6ba 713e ffba 1dd8 1ebb
000002a0: b43c 0abb 24d0 0cbb ab48 0bbb ea7d c7bb
000002b0: 614f adbb 429a bcbb 88f0 afbb 5f49 b5bb
000002c0: a899 bfbb aefa aebb 6a32 adbb c64d bfbb
000002d0: ea5a a5bb 85c7 a8bb bcef b0bb 5ef9 adbb
000002e0: 1242 b5bb 9334 b9bb aae8 a7bb beef adbb
000002f0: 6605 b7bb 4914 f7ba 83b2 c5ba 4ffc edba
00000300: 73ef b9ba 52fa ecba f8a4 a0ba 6e70 aeba
00000310: 79ef d4ba 661c b3ba e1ce 23bb 63e9 02bb
00000320: 0ba1 24bb 067a 16bb 3d3d 22bb 6a04 15bb
00000330: c6b7 d9ba bbcc eaba 611e 29bb 12f7 3bbb
00000340: 5c9c 21bb 3af6 34bb bb19 63bb 76a4 5cbb
00000350: b1ec 5dbb 0a04 40bb 8957 38bb 0705 4abb
00000360: 7bba 9eb7 9d2b 56b8 8935 04b8 0c92 4db9
00000370: 432a d739 d5f6 9938 b3ac c839 86ac e2b9
00000380: 22f0 24b9 84ea e7b8 a697 b6ba 86f9 fbb9
00000390: 93b8 7eba af26 8aba 9286 7fba 8e4c 0fba
000003a0: 9594 6cba 89ff 94ba 30d9 c6b9 c20b a039
000003b0: d0fc 3cb9 b177 4839 1595 7939 a252 da38
000003c0: 3292 c939 1633 dd39 666d dc39 28a7 95ba
000003d0: ebd9 6eba e9d1 69ba f853 c4ba 5be9 81ba
000003e0: 457e b0ba 1c89 7eba c53c 79ba cdd8 84ba
000003f0: d51e 94bb f84b 91bb a887 9bbb e70b aabb
7.0473565e-05 -0.0005141515 5.6327757e-05 -0.00010889063 -7.015217e-06 -0.00054872426 2.5901916e-05 -0.00042244245
9.6749754e-05 -0.006197857 -0.00647347 -0.006016959 -0.005939183 -0.0061813304 -0.005877037 -0.0061339303
-0.0066837813 -0.006421563 -0.0020970972 -0.0016901107 -0.0012482578 -0.0017291526 -0.0018230503 -0.0012909344
-0.0015234086 -0.0018214318 -0.0016491322 -0.004516954 -0.0042981002 -0.0044422452 -0.004246706 -0.004488178
-0.0044940733 -0.0046010087 -0.0047234674 -0.004844663 -0.00823302 -0.007979609 -0.0076263133 -0.0077173244
-0.007349258 -0.007664221 -0.0075308112 -0.0077402187 -0.0077629546 -0.00042798417 -0.000634148 -0.0004616571
-0.00074897567 -0.00028522618 8.855011e-05 -0.0005326594 -0.00032019947 -0.0005074469 4.2814758e-05 -0.00028134434
-0.0006332372 -9.9307836e-05 0.00013709144 -0.00017698678 -0.0003474772 0.00022633109 -8.443016e-05 -0.0059200646
-0.005805765 -0.0065301624 -0.0058719157 -0.005826847 -0.005817564 -0.006392957 -0.005875817 -0.0062306323
0.00044796334 -4.791102e-05 8.872218e-05 -0.00024378841 -1.397094e-05 -0.0002535375 0.00027351506 0.000219283
-0.00010518476 -0.0004333484 -0.000100724625 0.00016181041 4.05792e-05 0.00037775224 7.270721e-05 -0.00017410064
-7.160783e-05 -9.228065e-05 -0.0007025093 -0.000425217 -0.0005428824 -1.14014765e-05 -0.0002379334 -0.0003098381
-0.000529633 -0.00028046276 -0.00028946638 -0.0064922306 -0.0064115864 -0.006314532 -0.0066206884 -0.0064397366
-0.0070091006 -0.006744795 -0.0066642775 -0.0072777136 -0.00014365964 5.4054424e-05 -0.00028217622 0.00018028216
0.0004148244 0.00019139073 0.0003920578 -0.00017521017 -0.00032302522 -0.0036288376 -0.003628204 -0.0037376112
-0.0037711188 -0.0037318482 -0.003328957 -0.0038754572 -0.004044532 -0.0041896733 -0.009375513 -0.009267867
-0.009491446 -0.009532131 -0.009294343 -0.009180451 -0.009360028 -0.009655388 -0.010014727 -0.0005579317
0.00015100902 -0.00020790566 -4.218115e-05 0.00016559045 -0.00031431732 0.0004035944 -8.7765686e-05 -0.00028428153
-0.0026154523 -0.0023726944 -0.0025824842 -0.0024261535 -0.0027383699 -0.0024549975 -0.002533966 -0.002576726
-0.002938759 -0.000897186 -0.0008926883 -0.0012453448 -0.00087812595 -0.0011957791 -0.0010108686 -0.0008324282
-0.00048462598 -0.00060068024 -0.0023440458 -0.002159033 -0.0018405218 -0.0017550299 -0.0019473565 -0.00242377
-0.002109331 -0.0021486366 -0.002125303 -0.006088008 -0.0052890037 -0.0057556937 -0.0053692497 -0.005532428
-0.0058471747 -0.005339942 -0.005285551 -0.0058381287 -0.005046238 -0.0051507377 -0.0053996723 -0.005309268
-0.005531558 -0.0056520193 -0.0051241713 -0.0053081205 -0.0055853603 -0.001885065 -0.0015083108 -0.0018156859
-0.0014185741 -0.0018079972 -0.0012256196 -0.0013308653 -0.0016245685 -0.001366508 -0.0024995136 -0.0019975535
-0.0025120403 -0.0022960915 -0.002475574 -0.0022738227 -0.0016610555 -0.0017913798 -0.002580546 -0.00286812
-0.0024659848 -0.0027612583 -0.0034652788 -0.0033667362 -0.0033863003 -0.0029299282 -0.0028128347 -0.003082575
-1.8921904e-05 -5.1062194e-05 -3.152111e-05 -0.0001960473 0.00041039483 7.3415846e-05 0.00038275644 -0.0004323462
-0.00015729715 -0.0001105862 -0.0013930693 -0.0004806036 -0.0009716835 -0.0010540093 -0.00097475306 -0.00054664246
-0.0009024826 -0.0011367659 -0.0003792732 0.00030526338 -0.00018023257 0.00019118075 0.00023802028 0.000104104416
0.00038446632 0.00042190467 0.00042043178 -0.0011417614 -0.0009111452 -0.00089195237 -0.0014978638 -0.0009911464
-0.0013465366 -0.0009709762 -0.00095076516 -0.0010135412 -0.004520277 -0.004434105 -0.004746396 -0.005189407

momentum_buffer f4 [64]
00000000: b034 b2bb 002b 87bc e61e 9f39 e300 443b
00000010: b39e 2b3c 2207 55bb 9dbe e1ba 3515 42bc
00000020: 8682 bdba 293a b43b 8393 78bc 5393 6bbc
00000030: 1807 f3b8 ed63 b3bb 0b59 03bc 8c83 48bc
00000040: 18fc 17bc ac48 8cbc b271 82b9 b407 65bc
00000050: 31fb 82bb 5f74 aebb 480a 88bc 9ca0 f53b
00000060: e409 963c 2c70 c13b 8221 58bc 3a47 433a
00000070: b95f 103a f177 95bc 059e 4a39 d833 563b
00000080: 2bf1 93ba fbf2 05bc 987b bfbb ecc4 3c3b
00000090: 0e77 0eb9 9adb 8cba 7965 a83b 1a97 a13b
000000a0: 3df7 84b8 b9ff 7c3b 6fab 5b3b a434 ffba
000000b0: eeba 6f3c a670 303c cd15 6e3c 45c8 6f3c
000000c0: e6f0 a6bc def8 cb38 6355 193b c33a a23c
000000d0: 2ef3 6fbc 0058 483b 60a6 973b 78e9 043c
000000e0: aa96 07ba e7e1 8f3c b97e cf39 33cc bbb9
000000f0: da72 883b 9f4c 633c 8c0b 903a 6329 abbb
-0.0054384097 -0.016499996 0.00030349864 0.0029907755 0.010474849 -0.0032505472 -0.0017222945 -0.011845876
-0.0014458455 0.0055000973 -0.015171888 -0.014378387 -0.00011588464 -0.0054745586 -0.008016835 -0.0122383945
-0.009276412 -0.017124496 -0.00024880242 -0.013978887 -0.0039972295 -0.005323931 -0.016606465 0.007495953
0.018315263 0.0059032645 -0.013191583 0.0007449273 0.0005507428 -0.01824567 0.00019323088 0.003268471
-0.0011287084 -0.008175607 -0.005843591 0.0028803898 -0.00013586527 -0.0010746599 0.0051390496 0.004931343
-6.340302e-05 0.003860457 0.003351893 -0.0019470644 0.01463197 0.010769045 0.014531565 0.01463515
-0.020378541 9.7261494e-05 0.0023396842 0.01980341 -0.014645381 0.003057003 0.0046279877 0.008112304
-0.0005172292 0.017563773 0.00039576532 -0.0003581956 0.004164082 0.013873248 0.0010989769 -0.0052234395

momentum_buffer f4 [1, 64]
00000000: ad7c 593d f47c d03d 439c b23a a5cb 9c3b
00000010: f575 6f3d 2c98 403d b396 6e3c 451c e33d
00000020: 30b9 153c 5377 603d d1bf 903d f548 b93d
00000030: 6610 28b9 5f4e 563d 1c61 a53d 712d 983d
00000040: ec4c 883d 6b1e 373e 1cac c03d e430 9c3d
00000050: 7379 443d 0ab5 383e e7a2 043e 03d3 373e
00000060: d61d c43d 4379 fc3c a2c2 c43d c3aa 6f3b
00000070: 5588 533b 1df9 023e 8cc6 853c e2a8 723c
00000080: 3940 cf3b be64 803d a3c1 683d 1d59 313c
00000090: 8699 893a d3f0 e13b d846 903c bafd 6a3d
000000a0: edc8 573a de12 9d3c 1029 813d 7c41 2e3c
000000b0: a3a1 7c3d 7db3 6d3d 9ab3 393d 1e6b 723d
000000c0: 6b06 213e 79f6 a6b8 d590 a73d 4529 d63d
000000d0: c240 f03d e469 163e c19d a33c ff0b 233d
000000e0: c3df 333d 4321 823d 80a1 903a fc21 67b8
000000f0: 89b3 a03b ce8e 663d 06b2 533b 1b9e 2d3e
0.053097416 0.10180083 0.0013626892 0.0047850185 0.058462102 0.047020122 0.014562297 0.11089376
0.00913839 0.054801296 0.07067836 0.090471186 -0.00016027837 0.052320834 0.08075163 0.07430542
0.06655297 0.17882697 0.09407827 0.07626513 0.047967386 0.18037811 0.12952767 0.17951588
0.09576003 0.03081954 0.09607436 0.0036570288 0.0032277305 0.12790342 0.016330026 0.014810773
0.0063247946 0.06269215 0.05682529 0.010824469 0.0010498024 0.0068951636 0.017611906 0.05737088
0.00082315394 0.019174036 0.0630666 0.01063573 0.061677586 0.0580325 0.045337297 0.059184186
0.15725105 -7.961406e-05 0.081819214 0.1045709 0.117311016 0.14688832 0.019972684 0.039806362
0.043914568 0.063540004 0.0011034459 -5.5106342e-05 0.0049042148 0.056288533 0.0032302155 0.16954844

bn0.weight f4 [3]
00000000: c950 873f 18bf 813f 6f7b 8e3f
1.0571529 1.0136442 1.1131419

bn0.bias f4 [3]
00000000: c95d 14bc 5734 16be a275 38bd
-0.009055563 -0.14668404 -0.04503406

bn0.running_mean f4 [3]
00000000: 782d f73e ff87 e43e 52be d03e
0.48276877 0.44635007 0.40770203

bn0.running_var f4 [3]
00000000: c29d 863d 4d32 7b3d e081 7f3d
0.06573059 0.061327267 0.062379718

conv1.weight f4 [32, 3, 5, 5]
00000000: ca35 1cbd f74c afbb 5412 833c 8bdd 873c
00000010: b9d9 9c3c 87fe f23c 7fd4 bfbc f41f 3b3d
00000020: d48d dbbd ac4b c63c ce50 883b 5240 723d
00000030: 9767 59bb 652a 9ebd 97ef aabc 72c7 ddbd
00000040: e6f2 3cbd 559a b7bd 29a6 98bd 0d07 8cbd
00000050: 0b11 78bd 6d95 63bc 6efc 953d 8ad6 103d
00000060: c7d7 3d3c 4fa3 1c3c 7d32 103d 45da a03d
00000070: 9c03 dd3c 8dda fdbc f0ab e9bb 6a89 0ebe
00000080: abb6 97bb a48d 083d 3847 403d 318e c7bc
00000090: aba2 59bd 1d3f ab39 ecaa 51bd 8974 043d
000000a0: fce2 17bd 625f b4bc c432 af3c 1028 443d
000000b0: bdc8 8a3c 7a9b b9bd 12d0 78bd 8438 2d3d
000000c0: 1b60 19bd a69f 5ebd 0bb9 5cbd 3416 2d3d
000000d0: 55a7 bd3d 8ad7 45bd e9a9 15bd 0274 3ebd
000000e0: 02f6 a8bc aab7 1dbd f04e 913d 793d 99bc
000000f0: 04c7 863d 123f 583d 1783 f8bc 4d82 f0ba
00000100: da96 83bc 1959 b73d 4995 c23d 09a7 203c
00000110: ccf7 b43c 0756 cabc d87f 383d 016c e6bc
00000120: 6fa4 abbd 720d 53bc a78b bebd bb0a be3c
00000130: 901e 9e3d 93da 3b3d abc6 603d cadd 483d
00000140: e8e3 5b3c 8feb 09bc 7949 5d3c 0bd9 39bd
00000150: d7fc 473d 67b4 90bd fdee 0f3d 4593 18bc
00000160: 320c 523d 60c9 9cbc f74b be3c f46d 803b
00000170: 724a 7f3d ab88 543d 166c c93d 2e0e ac3c
00000180: ae09 033e 7723 24bd 2040 80bd bd3a 43bd
00000190: e531 473d 2077 873d de80 ee3d aea1 9e3d
000001a0: 7758 fabb 98ad 8c3d e169 4b3b f5cb 1e3d
000001b0: bc58 0f3c 9a53 da3d 8acc 47bc 88fd 06bd
000001c0: 3cb7 adbd d613 32bd 694b 55bd 48ba e2bb
000001d0: 2255 1ebd 9e30 8d3b 38bc e2bc 9051 11bc
000001e0: 1ddf 38bc 3abd fabc 76b8 48bc 82f0 11bc
000001f0: 2812 e53b a6be 7f3c 52bd 443d 4c13 d33d
00000200: 6bbc 233d 9b41 e23c 95af cdbc ea36 ee3c
00000210: a817 113e d9ec 9dbc bec6 3a3d cdb1 31bd
00000220: 3a73 dd3b 1d03 b43d a72a a83d 5129 77bd
00000230: 0bf8 b23c 39c0 b8b7 3948 033d e28a 58bd
00000240: 4aeb 19bd b4c1 823c 330d 85bd cb13 2b3e
00000250: 8610 24bd e387 863d 6085 33bb 6e3b c9bc
00000260: 2569 083d be00 2bbd cb37 a0bb ed96 99bb
00000270: e55d 32bd 4fb0 83bd 7449 913d 5a48 263d
00000280: 53b0 22bb cb93 363a dfa7 b13c d350 9d3d
00000290: 23e7 58bb 76b4 1a3d dbc8 1bbd 6535 c33c
000002a0: 94c9 e53d 4c37 f83d 5c5e bdbc 3429 563d
000002b0: 9a3e e53b feae 56bc 0a23 2dbd b620 84bd
000002c0: b11f 8bbc a36e 343c 3b1c d73a b965 3a3d
000002d0: 0d41 903c 117d 753d 25d0 afbd 8183 b4bb
000002e0: 88b1 433d 93dc 8e3c 07a9 db3c 3b6b 66bd
000002f0: 4dad d53c acd1 d8bc 4594 133c cc72 a53a
00000300: 524f c0bc 1da2 2f3d 8e69 a53c d053 8e3d
00000310: 6f49 0dbd 030b b23c af04 593d 9612 9a3d
00000320: 1fef c33b 598b 3ebd ca4b 13bc 2fc6 133d
00000330: 66f2 97bc 37cc c8bd dc4f 2dbc b6ae 20bc
00000340: e8da 20bd 768a b6bd 1886 b1bd 202e 13bc
00000350: 892e b7bd 6390 6dbd 15c3 3b3d fb8f a8bd
00000360: c24f bebb 126b a8bd bb2e 90bc 0c8c eebc
00000370: ca1b e3bc de5e 25be 71fe ebbd 3150 a63b
00000380: d114 63bd 4b14 65bc 057e 9ebc 23c3 bd3d
00000390: 7141 833d 8b62 97bd 8c43 3a3c 1526 0abc
000003a0: 335f 58bd 6550 b33d e2e1 adbc 56e6 7cbd
000003b0: a974 6bbb 7513 4a3d e4cf aa3d 32a8 de3c
000003c0: 4d27 83bd fc77 01bd ba52 43bc 0e0d 7d3d
000003d0: b7ca af3d 24c2 3fbd d854 04bd 64e9 39bd
000003e0: c6b0 c43d 75c3 3abc c1cc a63c 239d afbc
000003f0: 793b fcbc 882a 2cbd 7f5d da3c cb03 97bd
-0.038137235 -0.005349751 0.01599995 0.016585132 0.019146787 0.029662384 -0.023416756 0.04568477
-0.10720411 0.024206005 0.0041600233 0.059143372 -0.0033173317 -0.0772293 -0.020866198 -0.10829057
-0.046130084 -0.089649834 -0.074535675 -0.06837282 -0.06056313 -0.013890606 0.07323538 0.03536085
0.01158709 0.00956042 0.0352044 0.078541316 0.02697926 -0.030988002 -0.0071310923 -0.13919607
-0.00462993 0.033338204 0.04694292 -0.024359794 -0.053133648 0.00032662685 -0.051188394 0.0323377
-0.037081704 -0.022018138 0.021386512 0.04788977 0.016941423 -0.09062858 -0.060745306 0.042290226
-0.03744517 -0.05435147 -0.05388741 0.042257503 0.09260432 -0.048301257 -0.036538992 -0.046497352
-0.020625118 -0.038505234 0.07095134 -0.01870607 0.06580928 0.052794524 -0.030335946 -0.001834938
-0.016063143 0.08952541 0.0950113 0.009805449 0.022090815 -0.024699224 0.045043796 -0.028127672
-0.083809726 -0.012881624 -0.0930398 0.023198476 0.07720673 0.045862745 0.054876965 0.04903964
0.013421036 -0.008417978 0.013506287 -0.045373004 0.04882511 -0.07065659 0.035140026 -0.009312456
0.05128116 -0.019138992 0.023229582 0.0039193574 0.062326856 0.05188815 0.09835069 0.021002855
0.12796661 -0.040072884 -0.06262231 -0.04766344 0.048631568 0.06614518 0.11645673 0.07745682
-0.0076399404 0.06869048 0.003103845 0.038768727 0.008749183 0.10660477 -0.012194762 -0.03295663
-0.08482215 -0.04347595 -0.05207387 -0.006919179 -0.038655408 0.004308774 -0.02767764 -0.008869544
-0.011283663 -0.030607808 -0.01225101 -0.008907439 0.00699069 0.015609419 0.048032112 0.10306415
0.03997461 0.027619174 -0.025108138 0.02907892 0.1416918 -0.019277977 0.04559969 -0.043382455
0.006758121 0.08789656 0.0821126 -0.060342137 0.021846792 -2.202402e-05 0.0320513 -0.052866824
-0.037577905 0.015961505 -0.06496658 0.16706769 -0.04005482 0.06568887 -0.002739273 -0.024564471
0.0333034 -0.041748755 -0.0048894635 -0.004687181 -0.043546576 -0.064301126 0.07094088 0.040596344
-0.0024824336 0.0006964772 0.021686492 0.076814316 -0.0033096753 0.037769757 -0.038033348 0.023829171
0.112200886 0.12119922 -0.023116283 0.052285388 0.006995988 -0.013103245 -0.042269744 -0.064515516
-0.016982885 0.011012706 0.0016411612 0.045507167 0.017609144 0.059933726 -0.08584622 -0.0055088405
0.04777673 0.017439162 0.026813997 -0.056254607 0.026083613 -0.026467167 0.009007518 0.0012622713
-0.023475323 0.042879213 0.020191934 0.0694958 -0.03449386 0.021733766 0.052982982 0.07523076
0.005979433 -0.04651961 -0.0089902375 0.036077674 -0.018548202 -0.09804576 -0.010578122 -0.009807279
-0.039271265 -0.08913128 -0.086681545 -0.008983165 -0.08944423 -0.057999026 0.04584034 -0.08230587
-0.0058078477 -0.08223547 -0.017600408 -0.029119514 -0.027723212 -0.1614947 -0.1152314 0.0050754775
-0.055439774 -0.013981889 -0.0193472 0.09265735 0.06408966 -0.073918425 0.0113686435 -0.008431931
-0.052825164 0.087555684 -0.021225873 -0.061743103 -0.003592769 0.049334962 0.08340433 0.027179811
-0.064039804 -0.031608567 -0.011921579 0.061780028 0.08583587 -0.046816006 -0.032307476 -0.045388594
0.09604029 -0.01139914 0.020361306 -0.021437233 -0.030790078 -0.04203275 0.02665591 -0.0737377

conv1.bias f4 [32]
00000000: 13ad 9e3d f986 5bbd 48af b93d 7e49 333d
00000010: 9615 863d 15ad aa3d 8d25 01be feea 6d3d
00000020: 79a9 c33d 4ea2 86bd 4f24 0e3d 1523 673d
00000030: ee70 013d 88bf 643d 6bab bbbd 2528 3abd
00000040: ae0d b13d 47b3 bf3d 577b 38bd a4a3 953d
00000050: 59be eabd 9a05 04bc d8a4 d53d d39b 9b3c
00000060: 1929 8d3d ae43 dcbc 8600 e03c 5cae debc
00000070: 9d2f f33d 6a7f 12bd 3e05 213d fc9d 913d
0.07747855 -0.053595517 0.09066635 0.04377126 0.06547086 0.08333794 -0.1261198 0.058085434
0.09553809 -0.06573926 0.034702595 0.05642994 0.03160184 0.05584672 -0.09163555 -0.04544844
0.08645187 0.09360366 -0.0450395 0.073066026 -0.11462087 -0.008057976 0.10431832 0.018995201
0.068926044 -0.026887741 0.027344 -0.02718275 0.11874316 -0.035766043 0.03931164 0.07110211

conv2.weight f4 [32, 32, 3, 3]
00000000: 42d2 003b f922 c63c cbcd f53c b1a8 6dbd
00000010: 4a21 813d 8423 4e3d 379c bbbb 797b 9c3b
00000020: 5f0a ae3d e397 ed3b ce39 bcbb a9ca 39bc
00000030: b7d4 ee3d c93d 91bd 17ad 843d 69b9 b83d
00000040: b4f2 96bc dcd1 22bd 875c afbc c39f 1fbe
00000050: cd8d 1dbd b630 2bbd 2ff9 b13c 9268 353d
00000060: 40bd f9bc 1e50 2b3e f0e2 56be 0886 f5bd
00000070: 0ef6 063e 76f1 3cbd 716a 38bd 18e2 cfbd
00000080: bcdc 2d3d c50f 903d 687d 083b 5f93 afbb
00000090: cc0e fc3d 715e 883d 85d3 77bd 6e07 9eb9
000000a0: d0f5 423d ce5a 323c cc44 06bb e3a5 913d
000000b0: 589e 9bbd c521 adbd df49 a4bd 84e4 35be
000000c0: 6bfe 5139 84e5 17bd fac9 7ebd 3423 00be
000000d0: 3f4b 14bd cee0 11be 2887 873d 1978 503c
000000e0: 890d 593d b15b 3bbd 6d57 c2bc ee04 943d
000000f0: 5ee9 363d e422 9fbd 7988 203d 3218 f3bd
00000100: 8cd7 abbd 9fef 3ebd 2384 0a3e 3dba 863d
00000110: fc10 c0bd e993 143c 99b0 47bd 089a e8bb
00000120: ecf6 a13d 2d4b c7bd a38e 87bd 02d0 28be
00000130: f3e6 da3d bcb9 4a3d ec1a 23bd 5717 f0bd
00000140: 28ca 54bd add5 9f3d d98d 2c3c b558 9db9
00000150: f472 b9bd 864c 3fbd ea0e 0b3e 8293 3fbc
00000160: 295d 3c3d 8375 a2bc b5d0 2f3d b3ec 893d
00000170: 286f 8a3d c9f7 2d3d 4430 6d3e 94ca c63d
00000180: 2502 3abc ac8d 343e cfe8 31bd 2576 d93c
00000190: 197a 9eba b0ab d5bc ef66 8abd 5651 eabd
000001a0: 1b95 643c a356 0ebb 926b c73d 33d8 aabd
000001b0: a398 09be ef6f 703d e540 ac3d 320e 3abd
000001c0: 4e9c 53bb 0ffa 61bd b288 08bd aac0 d0bd
000001d0: 8764 093e d4c3 8c3d 191e 34bc 854c 8dbd
000001e0: 43e8 edbc c112 ccbb 724a c8bd d56f 06be
000001f0: d5c8 b2bc 729b d2bd ddf3 a4bd 69c9 b4bc
00000200: 1a81 91bd 3456 933c 91b6 4bbd ec7c 9ebd
00000210: b8ae c9bd 75cd db3d f3ee 7c3d 7407 c1bc
00000220: 1235 4e3d 9931 72bc e263 123c 56d9 b63d
00000230: 96fd 5b3c 3b33 93bd 761b 203b 5749 c7bd
00000240: c886 dd3d 6094 0cbe adfe 4f3d 0891 193e
00000250: 01f1 713d 4189 753e 91ff 9f3d 7392 2fbe
00000260: 9155 62bc 208b 65bd 2fae 213d 4f53 033d
00000270: 1497 b3bc 61ad 9cbc 27f5 c0bc 2df7 77bc
00000280: 4b25 03be 07c9 38bb 4ff9 1ebc d15d 953d
00000290: d214 813d b1d3 1e3d f216 14bd b53a b63d
000002a0: 9ebc 143e abf8 5a3d f3dc 12bd 3fe4 34bd
000002b0: ba68 b23c 943c 223e 30e0 a53d 0289 963d
000002c0: f7dd 57bb 7ce9 20bb 84c7 ee3d 5884 ea3d
000002d0: 9fcb 2bbe ecc0 a2bd 4fea fb3c 6c3a 3bbd
000002e0: 8b37 5f3d 3139 7f3d 62f2 4fbc 956b 3c3e
000002f0: 33f1 fc3c 513f 4d3c 6155 043e 5cc6 cbbc
00000300: 24d4 1dbc 2e89 8d3d 7e00 093c b39c 233c
00000310: b360 843d 5311 37bd e074 8d3c 6423 bb3d
00000320: 9636 8fbd 5321 58bd fbce 453e 6658 c8bd
00000330: d1c8 4d3d 4b62 6d3c 5d40 3cbd 2d9f 01bd
00000340: 5948 3cbc 710b 8d3d 7b2d 96bd 3f86 373d
00000350: cf1a 283d 3c90 b83c 92ec 79bd 86d1 933d
00000360: 423c 263e e945 9e3d 02b0 623d f3b0 e83c
00000370: 1267 babc 5442 94bd 5b97 f03d 26da ad3d
00000380: bfde 883c 81e4 a4bd f2b5 98bd 9d45 81bd
00000390: 7886 dbbd 9828 3dbd 088a b33d f885 61bd
000003a0: a0e3 f6bc a848 373c 3534 6abd 0199 8e3d
000003b0: 3faf 843d 5b3a 073c 1f28 8ebc 28fb dd3c
000003c0: 7e93 d53d f6d4 1fbb 4b4c a0bd dd30 483d
000003d0: ac94 f5bd 0bf7 1bbe 6b50 82bd 59ee 3fbd
000003e0: 6bf7 193c da6e 483e b33c fe3d 7d8e b03d
000003f0: 8b22 7bbc 1cfa a7bc 0a14 033d 258d 523b
0.0019656573 0.024186598 0.030005356 -0.058022205 0.063051775 0.05032684 -0.0057254094 0.0047754613
0.08498072 0.0072507723 -0.0057441955 -0.011339822 0.11661666 -0.07091863 0.06478327 0.09019739
-0.018426277 -0.03975092 -0.021406425 -0.15588288 -0.03846531 -0.0417945 0.021725265 0.04428918
-0.03048575 0.16729781 -0.20985007 -0.11988455 0.131798 -0.046128713 -0.045023385 -0.10150546
0.042446837 0.07034258 0.00208267 -0.005358144 0.1230751 0.06658638 -0.060504455 -0.00030141644
0.047597706 0.010885907 -0.0020487783 0.071117185 -0.07598561 -0.08453707 -0.08021902 -0.17762953
0.00020026571 -0.037084118 -0.06220434 -0.12513429 -0.036204573 -0.14245912 0.06617576 0.012723946
0.052991424 -0.04574174 -0.023723328 0.07227503 0.04465615 -0.07770327 0.03919265 -0.11869849
-0.08390722 -0.04661524 0.13526969 0.06578491 -0.093782395 0.009068468 -0.0487524 -0.00709844
0.07908425 -0.097311355 -0.06619003 -0.16485599 0.10688581 0.049493536 -0.039820597 -0.11723202
-0.051950604 0.07804427 0.010531866 -0.00030011465 -0.09055129 -0.046703838 0.13579908 -0.011692883
0.045987282 -0.019831425 0.042923648 0.067346 0.067594826 0.042472634 0.23162943 0.097066075
-0.01135305 0.17632169 -0.043434914 0.026545594 -0.0012090831 -0.026082844 -0.06757914 -0.11441295
0.013951565 -0.002171912 0.09737314 -0.08342018 -0.13437133 0.0587005 0.08410815 -0.045423694
-0.003228921 -0.055170115 -0.033333488 -0.10192998 0.13417254 0.06873289 -0.010993504 -0.068993606
-0.029041415 -0.0062278216 -0.09779824 -0.13128598 -0.02182428 -0.10283555 -0.08054326 -0.022068696
-0.07104702 0.01798544 -0.049734656 -0.07738671 -0.09847778 0.10732547 0.061751317 -0.023563124
0.05034358 -0.014782333 0.008934947 0.08928172 0.013427159 -0.07187506 0.002443043 -0.09730785
0.10816723 -0.13728476 0.050779987 0.14996731 0.05906773 0.2397814 0.07812417 -0.1714571
-0.013814346 -0.056040883 0.039472755 0.03206187 -0.021922626 -0.019125642 -0.023554398 -0.015134615
-0.12807195 -0.0028195994 -0.0097029945 0.07293285 0.06302799 0.038776103 -0.036154695 0.08897916
0.14525077 0.053459805 -0.035855245 -0.044162985 0.021778453 0.15843421 0.08099401 0.07350351
-0.0032938698 -0.002455323 0.11659148 0.11451024 -0.16776894 -0.07946953 0.030751375 -0.045710012
0.05449633 0.0623104 -0.012692066 0.18400414 0.030876732 0.012527303 0.12923194 -0.024874859
-0.009633098 0.069109306 0.008361934 0.0099860905 0.064637564 -0.044694256 0.017267644 0.091376096
-0.06992833 -0.052766155 0.19317238 -0.09782486 0.05024034 0.014488767 -0.04595982 -0.031645942
-0.011491858 0.06886948 -0.073328935 0.04480576 0.04104119 0.022529714 -0.061016627 0.07217698
0.16233924 0.07728178 0.055343635 0.028404688 -0.022754226 -0.072392136 0.11747619 0.08488874
0.016707776 -0.08051396 -0.07456578 -0.06312106 -0.10719007 -0.04618129 0.08766562 -0.055059403
-0.030137837 0.011186756 -0.057178695 0.06962777 0.06478738 0.008253659 -0.017353116 0.0270973
0.104285225 -0.002438841 -0.07827052 0.048874725 -0.119912475 -0.15230958 -0.06362995 -0.046858165
0.009397368 0.19573537 0.12413921 0.086209275 -0.01532806 -0.020505004 0.032001533 0.0032127586

conv2.bias f4 [32]
00000000: e1d5 353d 15cc 923c 296c 7fbb 3b56 4dbc
00000010: fe75 a3bc 0b7e 2fbc 2b4c 3dbd 9071 043d
00000020: 3990 02bd a237 7ebc e1ee b93b cfaf 223c
00000030: 33a8 9a3d 7bdd 303d 75c1 bcbc ee79 e4bc
00000040: 45ab 2fbc ebe5 bc3c 8b99 823c fd43 3a3d
00000050: 05d8 34bd c2e8 afbc 3cdf a53c 8a77 1a3d
00000060: 0a71 393b feb1 643d fad2 3c3d fa8d eb3c
00000070: 60cd 623d fd38 c7bc 1200 943c 3eb4 8e3b
0.044393424 0.01791958 -0.003897438 -0.012532766 -0.019953724 -0.010711203 -0.046215218 0.032334864
-0.031875823 -0.015516194 0.0056742285 0.009929611 0.07551613 0.04317997 -0.023041466 -0.027890172
-0.010721986 0.023058852 0.015942356 0.045474995 -0.044151325 -0.021473292 0.020248048 0.037711658
0.0028296136 0.05583381 0.04609964 0.028754223 0.055371642 -0.024319166 0.01806644 0.0043549826
