Ratio_same/checkpoint_step_0260.pth (torch_old, 541548 bytes, 24 tensors)

momentum_buffer f4 [3]
000000 08 00 ee 3d de 59 3e be eb 16 69 bc
       0.116211 -0.18588969 -0.0142266555

momentum_buffer f4 [3]
000000 84 b9 68 bd e5 26 7c 3e 6c a7 47 bd
       -0.056817546 0.24624212 -0.04874365

momentum_buffer f4 [32, 3, 5, 5]
000000 7f b2 53 3d c7 87 2f 3d d6 80 12 3d 6c 12 28 3d
       0.0516839 0.042854097 0.0357674 0.041033193
000010 9d 56 46 3d 8e f1 6c 3d 76 27 5e 3d 02 6c 4d 3d
       0.048422445 0.057847552 0.05423685 0.050151832
000020 04 01 4e 3d ec 2e 58 3d 65 15 72 3d f5 73 74 3d
       0.050293937 0.052779123 0.059102435 0.059680898
000030 4a cb 7f 3d b4 cd 85 3d 62 52 82 3d e0 2a 87 3d
       0.06244973 0.065333754 0.063633695 0.06599975
000040 37 94 86 3d fb 40 89 3d 82 4f 91 3d 02 9c 91 3d
       0.065712385 0.06701847 0.07095243 0.07109834
000050 d0 80 8e 3d 8e ed 8b 3d 11 63 86 3d 94 d7 8a 3d
       0.06958163 0.06832419 0.06561864 0.067793995
000060 09 ff 8d 3d c8 88 85 3d 17 07 67 3d 39 44 4a 3d
       0.0693341 0.065202296 0.056403246 0.04938147
000070 09 a9 5c 3d ce 40 78 3d 9f 09 91 3d 28 ac 88 3d
       0.053872142 0.060608678 0.07081913 0.06673461
000080 31 a8 80 3d 2a ca 81 3d 84 23 85 3d 51 a6 92 3d
       0.0628208 0.06337388 0.06500915 0.071606286
000090 7a 9d 92 3d 9b fb 98 3d 53 22 9e 3d 22 ad 9a 3d
       0.071589425 0.07469865 0.077213906 0.07552554
0000a0 fc cb a0 3d 44 4b 9f 3d 3c 8a a2 3d 43 12 aa 3d
       0.07851407 0.07778028 0.07936522 0.083042644
0000b0 91 ed a9 3d 07 27 a8 3d 76 0f a5 3d 82 9e 9f 3d
       0.08297265 0.08210569 0.080595896 0.07793905
0000c0 f1 17 a3 3d c0 4c a6 3d 56 b6 5f 3d 3e dd 3c 3d
       0.07963551 0.08120108 0.05461725 0.04610943
0000d0 41 c7 1e 3d 83 f4 30 3d 37 ff 4e 3d be bd 71 3d
       0.038764242 0.043201935 0.05053636 0.059018843
0000e0 28 d9 64 3d 87 18 51 3d fd 7c 55 3d 47 5a 5a 3d
       0.05587116 0.05104878 0.05212115 0.05330875
0000f0 8c 7b 71 3d 0c 14 72 3d f2 6a 7c 3d 46 bf 84 3d
       0.058955714 0.05910115 0.06162543 0.06481795
000100 9c 92 80 3d 44 3c 86 3d 80 a5 84 3d 4f 94 86 3d
       0.062779635 0.065544635 0.06476879 0.06571256
000110 1e 8f 8e 3d 61 07 8f 3d b1 d6 8c 3d 6e 01 89 3d
       0.06960891 0.06983829 0.06876887 0.06689726
000120 c5 b9 81 3d f2 6f 87 3d 88 bb 8a 3d 49 a0 8b 3b
       0.06334261 0.06613149 0.0677405 0.004261051
000130 69 50 02 3b 27 b7 9d 3a d6 64 08 3b e9 6b 81 3b
       0.0019884354 0.0012032733 0.0020812056 0.0039496315
000140 fc 9f e3 3b c2 98 92 3b 49 c4 7a 3b 57 d6 84 3b
       0.006946562 0.0044737766 0.0038263968 0.0040538716
000150 80 c8 c0 3b d6 ac 2a 3c 6f 3f 1b 3c 3e a7 0e 3c
       0.0058832765 0.010417184 0.009475573 0.008706866
000160 1e 42 15 3c 01 1c 20 3c e9 e2 68 3c 58 3b 58 3c
       0.009110002 0.009772302 0.014214256 0.013197742
000170 ed 50 5e 3c b1 20 65 3c ac 3e 73 3c 08 26 8d 3c
       0.013569099 0.013984845 0.014846485 0.017230049
000180 71 cd 8b 3c 25 77 89 3c fd 7b 90 3c ac 1b 95 3c
       0.017065736 0.016780445 0.017637247 0.018201672
000190 ad b6 98 3b 10 b9 1c 3b da 66 01 3b d6 34 2e 3b
       0.0046604485 0.0023914017 0.0019745142 0.0026581786
0001a0 ce f8 86 3b 79 68 eb 3b 11 df 97 3b b2 c5 83 3b
       0.0041190153 0.007184085 0.004634746 0.00402137
0001b0 e0 74 91 3b 8b cf cd 3b 15 e3 2a 3c 9e 88 13 3c
       0.0044389814 0.0062808446 0.010430117 0.00900474
0001c0 59 ff 05 3c 55 08 0c 3c c0 c2 1b 3c 89 4b 62 3c
       0.008178555 0.008546908 0.009506881 0.013811954
0001d0 b7 da 52 3c 8d 5f 57 3c c8 34 5d 3c a1 51 69 3c
       0.0128695285 0.01314534 0.013501354 0.014240653
0001e0 f6 e3 89 3c c4 7f 84 3c 0d 87 89 3c 64 1c 92 3c
       0.016832333 0.016174205 0.01678803 0.017835803
0001f0 aa df 96 3c f8 cf fb ba 12 55 83 bb 8a 7e 8c bb
       0.018417198 -0.001921176 -0.004007944 -0.0042875456
000200 a0 ad 74 bb d0 34 02 bb 20 96 ac b8 82 d7 f2 ba
       -0.0037334934 -0.0019867904 -8.229562e-05 -0.0018527361
000210 8a 0d fb ba 88 0a 0e bb 22 6d 31 ba 22 b9 47 3b
       -0.0019153815 -0.0021673758 -0.0006768276 0.0030475338
000220 3f d5 0b 3b 34 bc 0b 3b c0 01 12 3b 99 87 1c 3b
       0.0021336821 0.0021321895 0.0022278875 0.0023884533
000230 8d 78 d0 3b 8d de b4 3b fd e3 bf 3b 1f c2 c1 3b
       0.006362027 0.005519694 0.0058560357 0.0059130336
000240 5e 63 d6 3b 18 a5 16 3c fb c6 06 3c 64 61 23 3c
       0.006542607 0.009194635 0.008226152 0.00997195
000250 ab 20 23 3c 79 36 33 3c f8 f1 8c bc 91 2f 91 bc
       0.009956519 0.01093828 -0.017205223 -0.017722877
000260 7d a5 84 bc 51 56 6d bc 9e 34 51 bc b2 c9 8b bc
       -0.016192192 -0.0144859115 -0.012768893 -0.01706395
000270 b3 12 93 bc ea 9f 90 bc b8 b1 6c bc 21 18 4b bc
       -0.017953252 -0.017654378 -0.014446668 -0.0123958895
000280 76 83 86 bc 12 56 86 bc a6 fe 75 bc c0 6e 41 bc
       -0.016420107 -0.016398463 -0.015014326 -0.01180619
000290 94 b9 29 bc 6e bd 80 bc d3 e3 86 bc 00 54 5e bc
       -0.010359187 -0.015715327 -0.016466057 -0.013569832
0002a0 01 d8 0b bc de 73 df bb 8a 76 63 bc da 4a 72 bc
       -0.008535386 -0.0068192324 -0.013883242 -0.014788354
0002b0 58 3a 5d bc 87 ae 26 bc 11 23 14 bc 9a ed e1 bc
       -0.01350268 -0.0101734465 -0.009041564 -0.027579118
0002c0 65 55 df bc 14 d5 d1 bc 5c b5 c0 bc 4b a9 b2 bc
       -0.027262399 -0.025614299 -0.023523979 -0.02180924
0002d0 08 83 e1 bc 02 03 e2 bc f0 8a e2 bc 57 2c ca bc
       -0.0275283 -0.027589325 -0.027654141 -0.024679346
0002e0 4d 2d b6 bc ea 41 dd bc 12 bc d9 bc 70 81 d0 bc
       -0.022238398 -0.02700897 -0.026578937 -0.025452346
0002f0 d5 b5 b4 bc 29 4a a7 bc d7 24 d9 bc a5 30 d9 bc
       -0.02205936 -0.020421105 -0.026506824 -0.026512453
000300 7c ce c2 bc 98 cc 99 bc 17 aa 8b bc 9c cc c3 bc
       -0.0237801 -0.018774316 -0.017048879 -0.023901276
000310 2e a7 ce bc 83 d9 bd bc ba a4 9f bc 77 d7 92 bc
       -0.025226202 -0.023175007 -0.019487727 -0.017925007
000320 14 3a d1 bc 08 ea d2 bc d4 ae c6 bc 1e 26 b5 bc
       -0.02554039 -0.02574636 -0.024253286 -0.022112902
000330 01 47 ad bc a6 ea dc bc cd dd db bc 52 1a d8 bc
       -0.021152021 -0.026967358 -0.026839161 -0.026379738
000340 b6 70 c5 bc 2b dd b6 bc 4a 6d d8 bc 86 93 d3 bc
       -0.024101596 -0.022322258 -0.0264193 -0.02582718
000350 e0 28 cc bc ee c0 b2 bc a0 3d 9f bc 80 b1 d1 bc
       -0.024921834 -0.021820512 -0.019438565 -0.025597334
000360 6d b9 d0 bc 6b a4 be bc 84 7e 95 bc 1e 3b 87 bc
       -0.025479043 -0.02327176 -0.018248804 -0.016507681
000370 16 2b b9 bc ca 22 c8 bc 62 bb b8 bc f2 dc 95 bc
       -0.022603553 -0.024430651 -0.022550289 -0.018293831
000380 d7 fc 8c bc a2 54 37 3c f2 3e 80 3c 53 a9 ae 3c
       -0.017210407 0.011189612 0.015655015 0.021320974
000390 ce d5 b9 3c 28 f3 a2 3c 90 30 36 3c 14 20 87 3c
       0.022684958 0.019891337 0.011119977 0.016494788
0003a0 cb af b8 3c ad 93 df 3c dc 9e da 3c 2f 4a 2e 3c
       0.022544762 0.027292097 0.026687078 0.010637804
0003b0 71 a4 90 3c ca 48 db 3c 7f ae 08 3d f1 25 0e 3d
       0.017656537 0.026768107 0.033369537 0.034704152
0003c0 22 34 52 3c 52 d9 a0 3c 99 a4 ec 3c ad ec 17 3d
       0.012829812 0.019634876 0.02888708 0.037090946
0003d0 eb 24 20 3d ca 15 4f 3c 6c 44 93 3c 3a d7 ce 3c
       0.039097708 0.012639472 0.017976962 0.025249112
0003e0 ec fa 02 3d 95 5c 05 3d 19 35 ae bb cd 72 fc ba
       0.03197758 0.032558996 -0.0053163883 -0.0019260288
0003f0 03 5a 05 3b 59 2d 40 3b d7 7f 9d 3a fe 81 c7 bb
       0.002034784 0.0029323904 0.0012016249 -0.0060884943

momentum_buffer f4 [32]
000000 86 d8 a6 bd a3 79 2f bc 7e ce 18 3d cd a3 5a 3d
       -0.08146767 -0.010710153 0.0373063 0.05337887
000010 d4 6d af bc 5a 0a 87 bb 41 b6 4c 3d 50 7a 48 3d
       -0.021414675 -0.004121107 0.0499785 0.04894477
000020 d2 98 83 bd 79 ff 67 3d 4c 1f 0c bd c4 80 a5 3b
       -0.064256325 0.056640122 -0.034209535 0.0050507504
000030 3f fd 8e 3a 00 37 31 3a de cd b4 3d 20 07 19 3d
       0.0010909213 0.000676021 0.088283285 0.03736031
000040 91 2e a9 3c bc 6b e5 bd c9 96 16 be 38 81 09 bc
       0.020652087 -0.11202189 -0.14705957 -0.008392625
000050 78 e6 29 3d 9a 16 78 3d 71 de e1 bb 28 b3 e3 3c
       0.041479558 0.06056843 -0.006892972 0.02779539
000060 c6 9f d6 3c 22 f7 35 3d 7a 0f 99 3b c0 43 88 bb
       0.026199233 0.044425137 0.0046710344 -0.004158467
000070 5e 7f f7 bd e4 9a 2b bc 9b da f0 3d 7e 02 5f 3d
       -0.1208484 -0.0104739405 0.11760446 0.054445736

momentum_buffer f4 [32, 32, 3, 3]
000000 60 92 5a bb bb f0 53 bb 2d 55 57 bb b9 d7 89 bb
       -0.0033351406 -0.0032339531 -0.0032857165 -0.0042066243
000010 83 6b 6e bb 44 24 74 bb 1c 1e 8c bb 85 60 8c bb
       -0.003638 -0.0037253061 -0.0042760503 -0.004283967
000020 48 14 78 bb 64 cb 8a 3b 4e b6 8b 3b a0 1d 94 3b
       -0.0037853885 0.004235672 0.004263676 0.004520133
000030 00 7b 75 b9 e0 53 af ba 80 25 78 b9 80 00 b2 ba
       -0.00023410842 -0.0013376437 -0.00023665093 -0.0013580471
000040 b8 35 0a bb c0 4d de ba b1 d4 40 bb f7 4a 62 bb
       -0.0021089148 -0.0016960427 -0.002942365 -0.0034529546
000050 ca f0 31 bb 1d 78 36 bb 2f 3f 16 bb eb 8c 08 bb
       -0.0027151578 -0.002784259 -0.0022925844 -0.0020835947
000060 da df 2a bb 4e 87 d6 ba 4d f0 64 bb 90 35 59 ba
       -0.0026073367 -0.0016367228 -0.003493327 -0.00082858745
000070 60 8a 1c 3a 60 6b ee 39 98 4f 26 bb 8c ac 28 bb
       0.0005971547 0.00045474898 -0.0025377031 -0.0025737612
000080 d0 70 83 ba c8 35 b9 ba 18 38 d8 ba 90 8a 8f ba
       -0.0010028128 -0.0014130408 -0.001649621 -0.0010951329
000090 4a 62 cd ba e2 10 eb ba 3e 30 1d bb 64 1b 23 bb
       -0.0015669551 -0.0017934109 -0.0023985053 -0.0024888152
0000a0 53 04 12 bb 4a 5d 19 bb a0 a3 37 bb 16 89 1e bb
       -0.002228041 -0.0023401552 -0.0028021112 -0.0024190596
0000b0 d4 12 45 bb 14 6c 1f bb 97 c3 17 bb 62 e0 38 bb
       -0.0030071037 -0.0024325894 -0.0023157352 -0.0028209914
0000c0 64 1b b4 ba f0 6a ba ba 25 d9 cc ba 96 6b ec ba
       -0.0013741073 -0.0014222544 -0.0015628679 -0.0018037434
0000d0 52 63 a2 ba db a0 e7 ba 37 99 07 ba 7f 38 33 ba
       -0.0012389219 -0.001767184 -0.0005172672 -0.00068367267
0000e0 c8 97 a4 b9 e4 83 45 ba 68 e7 e4 b9 44 42 44 39
       -0.00031393603 -0.0007534607 -0.0004365996 0.00018716702
0000f0 4e c5 b9 b9 16 21 61 ba 4e 6e 16 b9 52 91 a9 bb
       -0.00035432953 -0.0008587999 -0.00014346206 -0.0051747942
000100 d4 2d 9e bb b4 03 94 bb 23 61 84 bb 3e 9e 8b bb
       -0.0048272405 -0.004517043 -0.0040399 -0.0042608073
000110 8c f6 a3 bb 46 17 91 bb f9 2c 9a bb 33 d4 93 bb
       -0.005003756 -0.0044278232 -0.004705068 -0.00451138
000120 9c 8f 75 ba 32 2e ef ba c2 7f e2 ba 4a aa 99 bb
       -0.0009367408 -0.001824802 -0.0017280506 -0.0046894895
000130 56 33 5f bb bc 83 73 bb 49 b5 9f bb ab 32 b0 bb
       -0.0034057698 -0.0037157377 -0.004873906 -0.005377134
000140 11 7c a1 bb bc ca ff ba 3d e1 05 bb 28 ee 04 bb
       -0.00492812 -0.0019515376 -0.0020428442 -0.0020283554
000150 ba 85 2e bb f6 e1 14 bb 64 e1 af ba 0a ea 08 bb
       -0.002663 -0.002271769 -0.0013418612 -0.0020891451
000160 7f 6f d7 ba 30 37 01 bb 70 27 0d 3a 60 ef 0d 3a
       -0.0016436427 -0.0019716732 0.00053846 0.0005414393
000170 98 62 84 3a 30 4e 34 bb c0 66 00 bb f8 6b 07 bb
       0.0010100184 -0.0027512424 -0.0019592494 -0.002066372
000180 20 6d d8 ba 20 db 4b ba 20 87 ca ba 20 ac 4f b9
       -0.0016512014 -0.00077764876 -0.0015451647 -0.0001980518
000190 a0 b6 f1 b9 20 be 30 ba 82 7e 0b bb 60 47 24 bb
       -0.00046103168 -0.0006742198 -0.0021285121 -0.0025066957
0001a0 70 99 f4 ba 90 06 07 bb bc a2 d2 ba 3c eb 1c bb
       -0.0018661451 -0.0020603277 -0.0016070227 -0.0023943922
0001b0 b1 2f fc ba 31 06 45 ba 8e 62 32 ba 68 b4 9c ba
       -0.0019240287 -0.0007515876 -0.0006804847 -0.0011955621
0001c0 24 91 38 ba 73 f7 84 ba 94 73 c7 ba 3e 79 dc ba
       -0.00070406706 -0.0010144546 -0.001521694 -0.0016820801
0001d0 ac 0a f7 b9 ce f8 a6 ba 7e c7 c7 ba 88 be fa ba
       -0.00047119462 -0.0012738944 -0.0015241948 -0.0019130269
0001e0 06 a6 96 ba 23 f5 55 ba 64 37 c0 ba ac 03 ba ba
       -0.0011493571 -0.00081618334 -0.0014664945 -0.0014191768
0001f0 ee a9 25 ba eb c5 93 ba 44 c6 85 bb ac 35 6e bb
       -0.0006319572 -0.0011274194 -0.004082473 -0.003634791
000200 dd 57 66 bb 58 c5 7a bb d3 c0 80 bb f1 0d 71 bb
       -0.0035147585 -0.0038264599 -0.0039292364 -0.0036781991
000210 2c f9 83 bb 22 8a 3b bb fc 4d 39 bb 56 d1 e7 ba
       -0.0040275063 -0.002861627 -0.0028275242 -0.0017686288
000220 40 e9 9a ba 30 16 ac ba 0e 4b b5 ba 8e c6 1e ba
       -0.0011818781 -0.0013129171 -0.0013831572 -0.00060568086
000230 58 22 3a ba c8 3a b8 ba a8 46 40 ba 83 c1 91 ba
       -0.00071004545 -0.0014055604 -0.00073347474 -0.0011120293
000240 98 5e ec 3a 40 60 dd 39 68 4e c7 3a 18 c3 a6 ba
       0.0018033562 0.00042224117 0.0015205862 -0.0012722937
000250 d4 3a 0e bb 20 43 96 ba 90 50 89 ba 80 69 2b bb
       -0.0021702545 -0.0011464097 -0.001047628 -0.0026155412
000260 d0 87 f7 ba 73 ac 99 bb 56 30 87 bb 2f ff 87 bb
       -0.001888508 -0.004689747 -0.004125635 -0.0041502933
000270 72 60 91 bb 76 d2 8b bb 29 2b 8c bb fc de 99 bb
       -0.004436546 -0.0042670323 -0.004277606 -0.0046957713
000280 58 ad ad bb 74 55 98 bb 8c a1 f5 bb 4e 5b e2 bb
       -0.005300205 -0.0046488587 -0.0074960645 -0.006907857
000290 bd 76 e0 bb 5c 29 0c bc 87 df 10 bc 61 b2 04 bc
       -0.006850092 -0.008554783 -0.008842356 -0.0080991695
0002a0 54 05 0b bc 82 60 13 bc 74 62 18 bc e0 7c ee b9
       -0.008485157 -0.008995177 -0.009300817 -0.00045487937
0002b0 20 39 b9 b9 70 49 26 3a 60 74 20 bb 3c 6b 34 bb
       -0.0003532851 0.00063433405 -0.0024483427 -0.0027529737
0002c0 04 a4 30 bb b8 d8 ec ba e0 50 b8 ba 08 13 9b ba
       -0.002695323 -0.0018069958 -0.0014062189 -0.0011831233
0002d0 fc a5 f4 ba ac c5 ac ba 19 c4 1d ba 96 06 6e ba
       -0.001866519 -0.0013181469 -0.00060182955 -0.0009079961
0002e0 62 c5 61 b9 c0 8c d8 36 25 e6 2f ba e6 70 ea 39
       -0.00021531203 6.453687e-06 -0.00067100144 0.00044716074
0002f0 04 00 24 b9 e0 7f fd bb d6 01 e2 bb 0a 1d f3 bb
       -0.00015640265 -0.007736191 -0.0068971915 -0.007419233
000300 82 b2 05 bc 34 36 f4 bb 9d ea f5 bb fc 16 fb bb
       -0.008160235 -0.0074527506 -0.0075047747 -0.007662652
000310 e3 ae e9 bb 0c b3 f7 bb d9 3a 2d bb f4 ce 0f bb
       -0.007131444 -0.007559186 -0.002643278 -0.0021943422
000320 6c 59 3c bb 4e 78 63 bb c3 0a 0f bb ec 54 68 bb
       -0.0028739823 -0.0034709158 -0.0021826483 -0.0035451008
000330 d2 dc 40 bb 31 de 48 bb 22 2c 56 bb fc 34 03 bb
       -0.0029428494 -0.0030650015 -0.0032680114 -0.0020020595
000340 86 b0 fe ba 8c 47 d1 ba d7 ac 28 bb 12 ad 07 bb
       -0.001943127 -0.0015966757 -0.0025737786 -0.0020702523
000350 c9 dc 0d bb 21 ef 01 bb 5b 6c 1e bb 0c 7a e7 ba
       -0.002164649 -0.001982637 -0.0024173472 -0.0017660274
000360 76 5e b9 ba 62 64 01 bb a4 1e 13 bb a6 2c 5b bb
       -0.0014142531 -0.001974367 -0.0022448683 -0.003344336
000370 8e 33 76 bb 26 5f 87 bb 68 4d 51 bb 49 83 5f bb
       -0.003756735 -0.0041312156 -0.0031937007 -0.0034105352
000380 a2 ba 74 bb 0b db bc bb 66 eb b8 bb 91 c8 a9 bb
       -0.0037342687 -0.0057634166 -0.005643296 -0.00518138
000390 ba 50 ce bb 24 33 bd bb ff 4f 99 bb fc 92 bb bb
       -0.0062962444 -0.0057739187 -0.0046787257 -0.005724309
0003a0 5c fe b1 bb 8e 2f 9e bb 7b 3e 28 bb e1 41 f8 ba
       -0.0054319333 -0.0048274463 -0.0025672007 -0.0018940532
0003b0 6e ef fb ba 36 e2 29 bb 19 c5 2f bb c4 ba 20 bb
       -0.0019221136 -0.0025922186 -0.002682036 -0.0024525383
0003c0 ef 43 fb ba 3d fd 1f bb aa 78 37 bb 52 83 a7 ba
       -0.0019170026 -0.0024412416 -0.0027995505 -0.0012780225
0003d0 64 7d f7 ba a2 e0 12 bb c0 e6 a5 ba 47 b6 7a ba
       -0.0018881974 -0.0022411724 -0.001265727 -0.00095639046
0003e0 04 67 83 ba 10 4a 5d b9 0e 7a d0 b9 9f c5 5c ba
       -0.0010025208 -0.00021103793 -0.0003976379 -0.0008421782
0003f0 6a 5c 3b bc 00 70 3d bc 66 18 3a bc c5 6a 28 bc
       -0.011435607 -0.011562347 -0.011358356 -0.010279362

momentum_buffer f4 [32]
000000 1c 7f 22 bc f0 db f7 3a 3f bf 28 bc ae 8c 83 bd
       -0.009918001 0.0018910151 -0.010299503 -0.06423317
000010 9c d9 93 39 7a 71 e9 3c de fc 80 3d 13 c6 b2 39
       0.00028200157 0.028496493 0.062982306 0.00034098382
000020 30 35 af ba f8 48 0d bc 31 06 14 3c 50 8a e6 ba
       -0.0013367292 -0.008623354 0.009034679 -0.0017588828
000030 90 5f 7a bd 8b e5 22 bc 1c bb b9 3d 62 61 8c ba
       -0.06112629 -0.009942423 0.090688914 -0.0010710175
000040 ee f0 1e bc 87 02 85 bb be ed dd 3c 0a 5a 11 bd
       -0.009700997 -0.004059139 0.027090903 -0.03548626
000050 12 2d fb ba 00 18 46 b8 24 b1 d9 3b 63 0b 67 3c
       -0.0019163212 -4.722923e-05 0.0066434313 0.014101836
000060 e9 34 b7 bb ae 3b 8a ba ef 64 b3 bd 86 56 52 3c
       -0.005591024 -0.001054635 -0.08759486 0.012838012
000070 02 db 9e 3d c4 dc f6 39 45 37 60 3c aa dc 25 3c
       0.07756616 0.0004708526 0.013685052 0.010123411

momentum_buffer f4 [64, 32, 3, 3]
000000 e5 60 ca b9 b2 81 73 b9 ae 2a 2b b9 5c 25 4c ba
       -0.00038600634 -0.00023222601 -0.0001632373 -0.00077875494
000010 0e 20 f8 b9 71 ad 11 ba 18 ee 8e b9 45 73 03 ba
       -0.0004732613 -0.0005557156 -0.00027261744 -0.000501443
000020 cf 9c 4d ba 67 90 9b b8 29 76 36 38 94 17 8f b9
       -0.00078434957 -7.417873e-05 4.3502227e-05 -0.00027292653
000030 99 08 95 b8 70 8a 3c b9 f0 93 fe 39 c6 c3 50 39
       -7.106475e-05 -0.00017980649 0.00048556877 0.00019909357
000040 96 9f de 39 ab cf 19 b9 fa 82 e4 b8 1c 90 b6 b6
       0.0004246204 -0.0001466858 -0.000108962835 -5.440799e-06
000050 96 48 08 b9 a8 ff 14 b9 e2 94 bd 39 d3 74 01 3a
       -0.00012997011 -0.00014209619 0.00036159815 0.00049383676
000060 f3 af 12 ba fc 31 22 b9 8a be 5b 39 fb 85 ed b8
       -0.00055956765 -0.00015468145 0.00020956449 -0.000113259965
000070 fd 84 82 b9 3d 56 7d 39 eb c1 80 b9 30 09 b2 39
       -0.00024894616 0.00024160086 -0.00024558543 0.0003395765
000080 57 df 99 b9 b4 e1 f2 b8 58 4f ad 39 a8 b1 6c b8
       -0.00029348835 -0.000115815 0.00033056247 -5.643224e-05
000090 9b 31 16 39 c5 70 83 b7 0c 24 15 b7 e9 b7 e7 b9
       0.00014323594 -1.566893e-05 -8.889485e-06 -0.00044196777
0000a0 04 66 33 b8 3c c4 81 38 50 17 53 39 b2 50 a4 b9
       -4.2771935e-05 6.187751e-05 0.00020131213 -0.0003134064
0000b0 db e2 95 b8 ab 64 da b9 d2 27 17 ba 50 46 0b 3a
       -7.147129e-05 -0.00041655204 -0.00057661266 0.00053129066
0000c0 3e 18 06 ba 90 ba b3 b9 57 76 8e b9 c8 e2 3d b9
       -0.00051153067 -0.0003428054 -0.0002717252 -0.00018108927
0000d0 fb 6d c0 b9 ac 0a 93 b9 21 62 10 b9 92 a9 b1 b9
       -0.00036703036 -0.00028045976 -0.00013769466 -0.0003388641
0000e0 89 67 fd b9 82 c0 14 39 ee 9e 21 b9 55 ad 1a 39
       -0.0004833306 0.00014186095 -0.00015413362 0.00014751156
0000f0 84 a2 d6 b8 c5 e4 95 b9 ec 56 91 ba 6d f3 b1 b8
       -0.00010234586 -0.0002858994 -0.0011088527 -8.485359e-05
000100 70 c2 09 b9 f8 ba c4 39 3c 86 3a b9 f3 a8 bf b9
       -0.00013137772 0.00037523336 -0.00017788348 -0.00036556236
000110 48 78 1d 3a 05 83 6b b9 fe e0 91 37 70 ed c0 b9
       0.0006006998 -0.00022460155 1.7390117e-05 -0.00036797998
000120 62 87 b1 38 f6 e1 a6 39 2c 06 0d b9 bd a1 3d 39
       8.465235e-05 0.0003183034 -0.00013449107 0.00018084697
000130 dc 2a 28 ba c4 d6 6e 38 c6 6c e7 38 8a 28 b5 b7
       -0.0006415078 5.6943638e-05 0.00011035199 -2.1595759e-05
000140 a1 96 b7 b7 00 ed 9f 39 14 0a a6 39 b0 ae 83 b8
       -2.1885442e-05 0.00030503422 0.00031669496 -6.279105e-05
000150 81 ec 30 b9 8c da 19 b9 83 95 5b b8 9c 53 0e 39
       -0.00016872773 -0.00014672632 -5.2352912e-05 0.00013573322
000160 bc 7d 3f 39 b4 61 c7 b9 9a fb 2f ba 54 a0 2b b8
       0.00018262019 -0.00038029032 -0.0006713212 -4.0918894e-05
000170 13 8a 70 36 8c 50 cc 39 74 d5 db b6 44 4b d4 b9
       3.5843157e-06 0.00038969924 -6.551558e-06 -0.00040491868
000180 52 dc 31 b8 01 3a 0b ba ec d0 d9 b9 5a b5 8a b9
       -4.2405278e-05 -0.00053110725 -0.00041545124 -0.0002645653
000190 8f ec 93 b9 b3 87 1e ba 27 11 63 b9 29 0b a0 b8
       -0.00028214275 -0.00060474424 -0.00021654797 -7.631473e-05
0001a0 03 47 42 b9 02 22 c5 b9 76 11 0c b9 99 6d 05 39
       -0.00018527736 -0.00037600106 -0.00013357945 0.00012724697
0001b0 a2 de 5b b9 a7 7f d7 b9 58 78 06 b9 c5 87 6f b8
       -0.00020968405 -0.00041103104 -0.00012824067 -5.7108486e-05
0001c0 56 ee e6 b9 16 ae 52 b8 9c 91 8c b9 fe cb b6 38
       -0.00044046593 -5.023003e-05 -0.00026811368 8.716433e-05
0001d0 0a da 1e ba 5d 17 ba b7 1e 8f 00 b9 64 8d 4c b9
       -0.0006059712 -2.2183807e-05 -0.00012260347 -0.00019507628
0001e0 a3 46 1d ba e7 b2 a4 b9 60 c9 65 b9 48 07 e8 b8
       -0.00059996004 -0.0003141381 -0.0002191416 -0.00011063978
0001f0 66 b7 37 ba e7 ef 28 ba 30 86 86 b9 d4 0d b4 39
       -0.00070082245 -0.00064444396 -0.0002565845 0.00034342578
000200 9b 10 d4 b8 a1 53 96 b9 f0 61 6e b8 36 64 0c ba
       -0.00010112041 -0.00028672538 -5.6834833e-05 -0.0005355509
000210 01 68 db b9 c0 98 2c b7 84 70 74 b9 c1 2a d3 39
       -0.00041848424 -1.0287564e-05 -0.00023311569 0.0004027691
000220 02 84 88 b9 d6 39 85 b9 5b f0 33 b9 f9 b3 60 b9
       -0.00026038295 -0.00025410828 -0.0001716031 -0.0002142935
000230 28 45 97 38 84 5d 46 b9 e8 5d 03 38 26 7c 19 ba
       7.2131224e-05 -0.00018917589 3.132029e-05 -0.00058549864
000240 b2 88 2e b8 e4 8b c7 b9 e9 2c e1 37 0e 9d 5b 38
       -4.161214e-05 -0.00038060464 2.6843003e-05 5.2359937e-05
000250 4c 97 b1 b9 1f b4 37 b8 36 5b fc b9 b4 08 13 b9
       -0.00033872796 -4.379835e-05 -0.00048133143 -0.00014022255
000260 3d a1 89 b8 57 ee 8e b9 5a 77 34 39 50 35 1f ba
       -6.562702e-05 -0.00027261928 0.000172106 -0.0006073313
000270 92 b5 6d 38 cc a6 79 b8 7d 6f 37 39 65 35 70 b9
       5.6674304e-05 -5.9521568e-05 0.00017493773 -0.00022908075
000280 de 14 7b b8 99 6d 05 b9 0d 5c 0e ba 8e 95 2b b9
       -5.9862497e-05 -0.00012724697 -0.0005430587 -0.00016363544
000290 c2 b2 85 b9 51 58 b3 39 7e ae f0 b9 a0 37 e5 39
       -0.00025500922 0.0003420734 -0.00045906374 0.00043719728
0002a0 99 b8 6c b9 f2 3b 3f ba d9 e0 8a b9 58 1d d1 37
       -0.00022575482 -0.00072950043 -0.00026488936 2.4928406e-05
0002b0 fc 0b 28 b9 74 a6 92 ba e6 ac 0e ba d1 3f 03 ba
       -0.00016026193 -0.0011188523 -0.0005442634 -0.0005006763
0002c0 fc 98 66 ba c5 68 08 ba 15 02 b5 b9 3b fc 85 38
       -0.00087966 -0.00052036 -0.00034524561 6.388916e-05
0002d0 39 5e 90 b9 ba f1 55 39 b4 59 0f 3a 61 f2 32 39
       -0.00027536022 0.00020403313 0.0005468384 0.00017065696
0002e0 f7 1b 5a b9 d7 2f 94 38 34 1c a8 b7 01 79 b0 38
       -0.00020800518 7.066101e-05 -2.0040294e-05 8.414873e-05
0002f0 b6 1c e5 b8 6a e4 7b b8 5d 6e d0 b7 b2 05 cd 38
       -0.00010924919 -6.005579e-05 -2.4846924e-05 9.7762226e-05
000300 63 ce 84 b9 35 e8 fa b9 29 49 0c b9 86 2f c0 b9
       -0.00025330772 -0.00047856724 -0.00013378695 -0.00036656501
000310 81 c8 32 3a 8e 78 36 b9 75 4b de b9 d2 d9 8c 37
       0.00068200385 -0.00017401783 -0.0004239936 1.6790731e-05
000320 3f dd 8c 39 1b 46 92 39 02 f4 87 b9 f5 9e 4e b9
       0.00026867722 0.00027899523 -0.00025931007 -0.00019704907
000330 13 53 cf b9 c5 56 11 39 d6 99 88 39 81 5b cd b9
       -0.00039544012 0.00013860602 0.00026054558 -0.00039168823
000340 e8 5f b1 b9 f2 25 8e b7 ed 62 94 b9 32 fd 8e 39
       -0.00033831527 -1.6945389e-05 -0.00028302465 0.00027272996
000350 3e db 29 b8 b4 e5 3e 39 22 80 f0 38 d1 52 f1 b9
       -4.0496925e-05 0.00018205383 0.000114679584 -0.00046028805
000360 25 da 26 b9 fa b6 86 b9 21 15 2a 38 07 87 8b 38
       -0.00015912259 -0.000256948 4.0550836e-05 6.653187e-05
000370 86 d0 45 ba 01 5a 95 b9 5d 67 71 b9 37 8e 04 ba
       -0.0007546026 -0.00028486553 -0.00023022057 -0.0005056592
000380 d3 f2 ee 39 35 ef 2b b9 90 b5 a6 39 33 49 81 b9
       0.00045575816 -0.00016396942 0.00031797262 -0.00024659335
000390 dc 42 f9 b9 48 40 a5 b9 0a 00 51 39 7b eb 2c b9
       -0.00047542795 -0.00031519146 0.00019931808 -0.00016490922
0003a0 97 ca 10 b9 a7 cc 92 b9 f2 96 eb 38 62 cc cf b9
       -0.00013808381 -0.00027999768 0.00011233789 -0.00039634394
0003b0 3c 80 98 39 67 67 ed b8 99 2b cd b9 fa 62 84 38
       0.0002908724 -0.00011320301 -0.0003913313 6.312686e-05
0003c0 e7 fc c5 b9 f0 da ea 39 87 e8 10 ba 2c 99 0a 3a
       -0.00037763195 0.0004479508 -0.00055278133 0.00052871066
0003d0 02 0e a4 39 ea 5b 31 ba e3 32 af 39 c2 b7 a8 39
       0.00031290954 -0.00067657104 0.00033416515 0.00032180367
0003e0 af 71 ae b9 ea 85 b8 b9 f1 2f e0 b8 99 cd e2 39
       -0.00033272567 -0.0003519499 -0.00010690082 0.0004325926
0003f0 9f 13 a3 b8 03 2e 45 ba b5 99 1d ba 59 12 0b ba
       -7.7761004e-05 -0.000752181 -0.0006011979 -0.0005305163

momentum_buffer f4 [64]
000000 0a 8d 87 b9 db 62 1c 3c a8 ea 00 bc d3 24 1b bd
       -0.0002585429 0.009545053 -0.007868446 -0.037876915
000010 26 99 4a bc 25 30 15 3c f4 a4 e6 39 61 4b 52 3a
       -0.012365615 0.009105717 0.00043991918 0.00080220966
000020 6c ef 1f 39 f3 2a 4d 3a 15 ea f6 3b b5 70 26 bd
       0.00015252613 0.00078265293 0.007535229 -0.04063483
000030 d6 df b5 b9 2f 25 1a 3c 6f 59 ed bc e8 a5 1b ba
       -0.0003468978 0.009408279 -0.02897331 -0.0005937503
000040 b1 a1 47 ba 2a 97 d4 39 25 d8 26 3b de a9 d6 bc
       -0.00076153415 0.00040548417 0.0025458422 -0.026204046
000050 39 4a 73 3b 75 4c 08 3b d2 51 c4 3c 08 fa a5 bc
       0.0037123098 0.0020797525 0.023964796 -0.020260826
000060 bd 50 ad 3a 6d 21 4b bb 70 19 89 38 9d 45 d3 3a
       0.0013222914 -0.0030995265 6.537407e-05 0.0016118769
000070 38 69 9d bc a4 97 ea 3c c6 5d bf 3a 95 eb bf 3b
       -0.019215211 0.028636761 0.001460009 0.005856941
000080 a6 d7 98 3a 8c 00 0c 3d c9 61 bb ba f3 db c2 38
       0.0011660948 0.03418021 -0.001429611 9.2916096e-05
000090 64 88 82 bc a5 12 45 3b 8a b7 7e bc 5d 57 71 39
       -0.015934177 0.0030070927 -0.015546689 0.00023016096
0000a0 5f 8b 8d 3c 43 27 ac b9 fa a8 81 3c d8 4c f9 39
       0.017278371 -0.0003283565 0.015827645 0.00047550234
0000b0 a4 dc 76 3c 80 47 8a bb 78 06 2a bb be cc d1 b8
       0.015067253 -0.0042199492 -0.0025943797 -0.00010004033
0000c0 9b 6b 9e bc c4 f8 8c ba 4c 84 cc bc a5 72 3d 3a
       -0.01933842 -0.001075529 -0.024965428 0.0007226861
0000d0 01 d9 76 3c 3c 37 67 ba 98 6d 49 3c 49 4a fe bc
       0.015066386 -0.0008820181 0.012294196 -0.031041281
0000e0 50 b8 b4 38 ed f8 1a bc 94 88 cd bc 21 12 98 bb
       8.6174e-05 -0.009458763 -0.02508954 -0.004640833
0000f0 c3 0f cf 3b 69 d5 64 3a 6e 9b 8d ba 5f 64 1b 3d
       0.0063190176 0.00087293104 -0.0010803768 0.03793752

momentum_buffer f4 [64, 64, 3, 3]
000000 03 a3 a3 38 20 ee 01 ba 0d ad 8f 38 18 a8 b2 b8
       7.802809e-05 -0.0004956443 6.8510046e-05 -8.519011e-05
000010 44 00 b0 37 5d fe 08 ba 34 33 3f 37 eb 5e e4 b9
       2.0980959e-05 -0.00052258914 1.1396409e-05 -0.00043558268
000020 e9 87 a9 38 78 3a 82 bb d0 58 8b bb 81 1f 7c bb
       8.083863e-05 -0.003974255 -0.0042525306 -0.0038470926
000030 40 d5 6d bb 53 7a 7c bb 13 a9 6b bb 97 6d 7a bb
       -0.0036290437 -0.003852506 -0.003595893 -0.0038212293
000040 d0 9d 8e bb ad 00 86 bb 6a f1 b9 ba ab 52 82 ba
       -0.004352309 -0.004089436 -0.0014186327 -0.000994285
000050 d4 1b 11 ba ec e3 83 ba f2 df 8c ba df 3d 11 ba
       -0.0005535458 -0.0010062433 -0.0010747893 -0.00055405305
000060 2e 89 67 ba 01 ac 97 ba ce 96 81 ba 84 d9 5a bb
       -0.0008832392 -0.0011571647 -0.0009886862 -0.003339381
000070 e8 d2 48 bb 37 38 53 bb c4 1a 45 bb 1f 6c 50 bb
       -0.0030643288 -0.0032229552 -0.0030075768 -0.0031802726
000080 85 d2 51 bb ef 54 5e bb 2b a0 61 bb 58 f9 69 bb
       -0.0032016349 -0.0033925136 -0.0034427743 -0.00357016
000090 5b 06 c8 bb 56 50 be bb fa 0c b3 bb c5 b1 b1 bb
       -0.0061042733 -0.0058079166 -0.0054641934 -0.005422803
0000a0 17 08 a4 bb 3a a2 af bb 6a bb ac bb 94 ca b1 bb
       -0.005005847 -0.005359915 -0.005271365 -0.0054257605
0000b0 0d 16 b3 bb 39 e0 c3 b9 51 4d 26 ba 2e 22 f5 b9
       -0.005465275 -0.00037360357 -0.00063439185 -0.00046755507
0000c0 a8 55 39 ba d0 73 9d b9 5a 03 b4 38 d7 5a 03 ba
       -0.0007069954 -0.0003003166 8.583693e-05 -0.00050107896
0000d0 95 cf b5 b9 a4 ef 08 ba 25 a1 87 38 8a 71 87 b9
       -0.0003467767 -0.00052236975 6.467317e-05 -0.000258338
0000e0 a4 a9 1f ba e1 50 b0 b8 7c c9 20 39 53 6f 27 b9
       -0.0006090647 -8.407399e-05 0.00015333848 -0.00015967833
0000f0 6b 9b ae b9 3a a3 7a 39 90 2d 92 b8 d8 26 81 bb
       -0.00033303662 0.00023902665 -6.970309e-05 -0.003941398
000100 58 2a 79 bb 4d 96 94 bb 0b 43 77 bb 44 de 72 bb
       -0.0038019624 -0.004534519 -0.003772917 -0.003705875
000110 43 ee 73 bb 4a 8d 8f bb 8f 1d 7b bb c3 e0 88 bb
       -0.0037220872 -0.0043808566 -0.003831718 -0.0041771843
000120 f1 32 f8 39 67 d5 1e b8 8e 76 af 38 54 5c 61 b9
       0.000473402 -3.7868882e-05 8.366733e-05 -0.00021492067
000130 8c 5a 0f b7 b8 3d 84 b9 24 f4 97 39 4c 1b 70 39
       -8.544546e-06 -0.00025222986 0.00028982863 0.00022898352
000140 ba 5e ce b8 9e b0 e2 b9 61 ee d6 b8 be 66 25 39
       -9.84049e-05 -0.0004323767 -0.00010248717 0.000157739
000150 a2 31 2c 38 71 26 c5 39 03 cc 94 38 66 c9 36 b9
       4.105422e-05 0.0003760341 7.09519e-05 -0.000174319
000160 38 b0 99 b8 f3 40 c6 b8 87 b5 3e ba f6 e8 00 ba
       -7.328432e-05 -9.4534735e-05 -0.00072749745 -0.00049175264
000170 da cd 24 ba f0 dd bd b6 89 aa 95 b9 6a 5d b9 b9
       -0.0006286778 -5.658476e-06 -0.00028546553 -0.0003535555
000180 2c 3e 10 ba 11 08 b1 b9 9e e8 b8 b9 0c 2a 97 bb
       -0.00055024284 -0.0003376608 -0.00035268528 -0.0046131667
000190 6b d3 91 bb 13 f2 8f bb 85 bc 97 bb c5 96 8e bb
       -0.004450252 -0.004392871 -0.0046306276 -0.004351469
0001a0 e7 23 a2 bb 41 0f 9e bb a7 a1 97 bb a9 d6 ab bb
       -0.0049481275 -0.0048235958 -0.0046274248 -0.0052440953
0001b0 ae eb 2c b9 50 e2 37 38 01 d9 9f b9 59 a4 3d 39
       -0.00016490996 4.384137e-05 -0.00030488524 0.00018085669
0001c0 f3 7e df 39 35 fb 47 39 d8 62 d1 39 ed 77 21 b9
       0.0004262846 0.00019071701 0.0003993723 -0.00015398832
0001d0 f1 41 a4 b9 8e 7b f7 ba f2 71 fa ba 1b 53 01 bb
       -0.00031329648 -0.0018881427 -0.0019107445 -0.0019733373
0001e0 87 6b fe ba 1d 16 fe ba 4d f9 c0 ba 36 3c 01 bb
       -0.0019410708 -0.0019385252 -0.0014722735 -0.0019719726
0001f0 27 76 0e bb d6 ef 13 bb a9 fd d9 bb 46 f1 d5 bb
       -0.0021737905 -0.0022573373 -0.006652553 -0.006529006
000200 84 bd dc bb 85 e9 d9 bb 8c ba d1 bb fe de cc bb
       -0.006736459 -0.006650152 -0.006400412 -0.0062521687
000210 5d a7 d1 bb 28 76 da bb 5b ee e4 bb e6 49 10 ba
       -0.006398125 -0.0066669174 -0.006986422 -0.0005504176
000220 4b 88 24 39 cb e3 51 b9 70 b6 0b b8 b0 d1 36 39
       0.00015691032 -0.00020016653 -3.331009e-05 0.00017434987
000230 a6 fd 9e b9 57 8c d8 39 71 60 a1 b8 a8 f0 8e b9
       -0.0003032509 0.00041303292 -7.695042e-05 -0.00027263653
000240 38 25 fe ba 0d 50 e2 ba 06 6b fe ba 12 a3 e2 ba
       -0.0019389754 -0.0017266289 -0.0019410558 -0.001729103
000250 bb e0 07 bb 6a 54 ea ba c2 2f f4 ba 1c 56 fc ba
       -0.0020733315 -0.001787794 -0.0018629956 -0.0019251737
000260 95 75 15 bb cd f9 92 b9 50 19 99 b9 06 ea 28 ba
       -0.002280568 -0.00028033406 -0.00029201293 -0.00064435636
000270 94 77 7b b9 0c 4d 15 ba 90 5a c3 b9 0e a3 2e b9
       -0.00023981772 -0.000569538 -0.00037260773 -0.00016654676
000280 8b cb 3c 39 16 57 92 38 41 12 a4 ba 13 79 8b ba
       0.00018004903 6.9780435e-05 -0.0012517647 -0.0010640941
000290 e4 59 3c ba 70 e9 1b ba 10 e4 49 ba 76 43 9f ba
       -0.00071850256 -0.00059475657 -0.00077015255 -0.0012150842
0002a0 81 20 6a ba 63 70 72 ba 43 a8 64 ba 4d 97 9a bb
       -0.0008931235 -0.00092483143 -0.0008722583 -0.0047177435
0002b0 33 06 80 bb 7f ef 8e bb 48 a1 7d bb 20 87 84 bb
       -0.003906989 -0.0043620463 -0.0038700867 -0.0040444285
0002c0 51 1e 8f bb 07 a7 80 bb 21 03 7e bb de e2 90 bb
       -0.0043676277 -0.003926161 -0.003875919 -0.004421576
0002d0 cf 80 59 bb 77 93 5f bb b7 42 6a bb 40 72 63 bb
       -0.0033188348 -0.0034114996 -0.0035745332 -0.003470555
0002e0 c9 24 71 bb 8a 9f 73 bb e8 a7 50 bb dc d1 5d bb
       -0.0036795607 -0.003717395 -0.0031838361 -0.003384701
0002f0 13 33 6c bb 7e 9c ac ba 75 23 6d ba 2d 56 9c ba
       -0.0036041185 -0.0013169197 -0.0009046116 -0.0011927538
000300 d6 80 5a ba bc de 9a ba 04 44 14 ba c6 53 31 ba
       -0.0008335238 -0.0011815648 -0.0005655887 -0.00067644974
000310 6f dc 72 ba c8 87 26 ba a9 93 c2 ba 6d bd 82 ba
       -0.00092644145 -0.00063526304 -0.0014845032 -0.0009974666
000320 4e d0 c3 ba b0 f7 a2 ba 71 9e ba ba 27 39 9f ba
       -0.0014939399 -0.0012433436 -0.0014237893 -0.001214777
000330 fe e1 18 ba 57 68 3f ba bd e3 c6 ba 43 c6 07 bb
       -0.00058320153 -0.00073016196 -0.0015174072 -0.0020717538
000340 59 c7 cf ba bb 2a f8 ba 4e 0e 2c bb 8f d9 1e bb
       -0.0015852257 -0.0018933633 -0.0026253643 -0.0024238562
000350 03 7e 21 bb 91 d0 09 bb 65 c3 f8 ba 7b 2c 0e bb
       -0.002464176 -0.0021028856 -0.001897913 -0.0021693993
000360 07 cb 1a b7 2c d9 6c b8 1e d2 5e b8 43 3a 4c b9
       -9.226386e-06 -5.646904e-05 -5.312461e-05 -0.0001947666
000370 bb 11 d1 39 1a c5 25 38 ec cd c8 39 7e 7c e6 b9
       0.00039876797 3.952263e-05 0.00038300396 -0.00043961772
000380 d9 e9 46 b9 c8 d1 9e 39 ef cd 7b ba ca 3e 4e b8
       -0.00018969867 0.00030292408 -0.00096055766 -4.9172704e-05
000390 b9 85 15 ba a8 80 21 ba 8c 18 0b ba bb b2 fc b8
       -0.0005703825 -0.0006160834 -0.0005306087 -0.000120495875
0003a0 7d 9c eb b9 7e d4 34 ba c5 d2 c5 b9 6d 35 9f 39
       -0.00044939286 -0.0006898119 -0.00037731804 0.0003036665
0003b0 1a 02 3c b9 f1 f4 48 39 93 30 78 39 da 04 db 38
       -0.0001792986 0.00019164734 0.00023669218 0.000104436374
0003c0 07 bc c8 39 11 e7 db 39 27 a1 db 39 c5 ed 14 ba
       0.00038287064 0.00041943093 0.00041891003 -0.00056811824
0003d0 17 9a ab b9 1b ca 91 b9 7a 1a 59 ba a4 8d a5 b9
       -0.00032730468 -0.00027807135 -0.00082818384 -0.00031576783
0003e0 7a cc 29 ba 7a 3b 93 b9 1f 0e 87 b9 fa da aa b9
       -0.0006477308 -0.00028082338 -0.00025759728 -0.00032588077
0003f0 4b 64 4f bb b9 f7 44 bb 53 3c 57 bb 33 f7 6f bb
       -0.0031645473 -0.003005488 -0.0032842353 -0.0036615848

momentum_buffer f4 [64]
000000 62 d7 3b bb 00 eb 15 bc 88 c8 90 39 4e 54 29 3b
       -0.0028662314 -0.009150267 0.00027615228 0.0025837603
000010 35 f8 b6 3b 6a d0 0b bb da d8 e8 ba 79 55 0d bc
       0.005583788 -0.0021333941 -0.0017764822 -0.008626335
000020 b5 d9 11 ba 3f 14 3f 3b 11 59 0b bc 5b 58 1e bc
       -0.0005563752 0.0029156355 -0.008505122 -0.00966462
000030 5c ea ee b8 61 da 62 bb b6 7f a4 bb 0c 60 f4 bb
       -0.00011392377 -0.0034615027 -0.005020107 -0.0074577387
000040 73 b6 ac bb e3 12 4f bc 6f 8c 6c b9 b8 18 07 bc
       -0.005270773 -0.01263878 -0.0002255903 -0.0082456395
000050 c9 4e 0e bb c7 91 45 bb 4b c6 31 bc ea 28 86 3b
       -0.002171444 -0.0030146705 -0.010850499 0.004094233
000060 0f 67 1d 3c ac 48 4a 3b 86 1f 16 bc dc 70 03 3a
       0.009607091 0.003086607 -0.009162789 0.0005014071
000070 5d 42 10 38 2c c2 44 bc cf 55 45 39 a7 7e 97 3a
       3.439408e-05 -0.012009185 0.0001881935 0.0011558131
000080 b0 68 6c ba 0c b9 ac bb cb 0f 5f bb 9b 65 ee 3a
       -0.0009018285 -0.0052710827 -0.0034036513 0.001818824
000090 74 6a 07 b7 f1 cf 2a 3a 34 a3 18 3b 94 10 28 3b
       -8.071413e-06 0.0006515971 0.0023290636 0.0025644647
0000a0 c2 81 14 b9 3f fb e2 3a 0a 55 e5 3a 90 60 d4 ba
       -0.00014162718 0.0017317309 0.0017496657 -0.0016203094
0000b0 24 f3 fb 3b c5 55 cc 3b c4 f0 ff 3b 7e 25 02 3c
       0.0076888967 0.0062358105 0.007810684 0.007943509
0000c0 32 79 64 bc 3c c6 13 39 d6 a1 b0 3a 29 8c 2b 3c
       -0.013944911 0.0001409286 0.0013475965 0.0104704285
0000d0 8e e3 27 bc 93 5e ba 3a 01 a2 20 3b d7 bc 92 3b
       -0.010247124 0.0014218859 0.0024510624 0.004478078
0000e0 75 04 e3 b9 9b 7d 22 3c 48 68 b7 39 67 75 17 b9
       -0.00043300135 0.009917642 0.00034982176 -0.00014444218
0000f0 d6 1d f7 3a 33 f5 f6 3b b0 1c ff 39 e7 41 3f bb
       0.0018853496 0.0075365542 0.00048658764 -0.0029183568

momentum_buffer f4 [1, 64]
000000 2f 96 19 3d 65 4c b2 3d ce d8 a0 3a 32 f7 51 3b
       0.03749674 0.08705977 0.0012271644 0.003203821
000010 b4 2f a3 3c 6b 09 fc 3c 91 b6 2e 3b b4 57 a2 3d
       0.019920208 0.03076621 0.002665911 0.07926884
000020 ca 16 31 3b 95 8a 9f 3c d5 fa 78 3d ba c7 95 3d
       0.002702164 0.01947526 0.060786087 0.073134854
000030 5d 82 2e b9 e1 35 1e 3d ce 99 54 3d d4 fd 76 3d
       -0.00016642497 0.0386256 0.051904492 0.060300663
000040 a8 60 4b 3d e4 02 01 3e ab d5 3b 3d ee 15 76 3d
       0.049652725 0.12598759 0.045858067 0.060079508
000050 5b 24 17 3d f8 f4 da 3d 07 96 d4 3d 4d d9 c5 3d
       0.036899906 0.10691255 0.10380178 0.096605875
000060 c9 0e c0 3c 8c 79 39 3c ca 70 9a 3d 82 64 0c 3b
       0.02344455 0.011320483 0.07541044 0.0021422212
000070 cf 0b d9 b9 22 1a c8 3d 59 03 02 3c e1 73 01 3a
       -0.00041398263 0.097706094 0.007935368 0.0004938227
000080 2e cc 8f 3b ce ed 78 3d d3 c4 1b 3d fe a8 ef 3b
       0.004388354 0.060773663 0.038029503 0.0073138466
000090 c0 80 63 3a 88 cd a4 ba 47 62 94 3b fb 6c ab 3c
       0.0008678548 -0.001257346 0.004528317 0.02092599
0000a0 02 ba 65 38 eb f3 cf 3b 93 78 e2 3c 4b 82 cc 3b
       5.4771088e-05 0.006346216 0.027645385 0.006241118
0000b0 73 36 8e 3c 48 df 8a 3c 1b 3a 06 3c 7f 0b 9e 3c
       0.017359948 0.016952172 0.008192564 0.019292591
0000c0 18 07 e8 3d 38 66 59 b9 72 ea 24 3d f4 30 f1 3c
       0.11329478 -0.00020732812 0.040262647 0.029442288
0000d0 c6 9f aa 3d 87 32 a7 3d c0 1a 1b 3c bb 45 28 3c
       0.083312556 0.08163934 0.009466827 0.010270531
0000e0 7d a8 a8 3c 16 e2 5e 3c 50 f8 55 3a 8f e6 29 b9
       0.020588154 0.013603708 0.00081623066 -0.00016202986
0000f0 b8 1d e6 3a 67 18 cd 3c 57 b7 c5 3a 30 59 e3 3d
       0.0017556464 0.02503605 0.0015084547 0.111009955

bn0.weight f4 [3]
000000 31 13 8a 3f e5 ab 82 3f c1 b6 90 3f
       1.0787107 1.0208708 1.1305772

bn0.bias f4 [3]
000000 d2 e7 1c 3b eb 64 23 be 24 53 5c bd
       0.0023941887 -0.15956466 -0.053790227

bn0.running_mean f4 [3]
000000 78 2d f7 3e ff 87 e4 3e 52 be d0 3e
       0.48276877 0.44635007 0.40770203

bn0.running_var f4 [3]
000000 c2 9d 86 3d 4d 32 7b 3d e0 81 7f 3d
       0.06573059 0.061327267 0.062379718

conv1.weight f4 [32, 3, 5, 5]
000000 bf 08 08 bd f1 63 f3 3a 6d ef c5 3c 84 a6 c2 3c
       -0.033211466 0.0018569214 0.024162019 0.023761041
000010 10 13 cc 3c 28 61 01 3d 05 57 a2 bc b2 cd 4d 3d
       0.024911433 0.031586796 -0.019816885 0.050244994
000020 f2 ef d1 bd 1b 4f e3 3c 73 2f 8e 3b 00 bd 76 3d
       -0.10250844 0.027747681 0.0043391525 0.06023884
000030 d8 cb e2 ba be 29 9c bd 3b c2 a8 bc cc da e0 bd
       -0.0017303182 -0.07625149 -0.020600429 -0.10979232
000040 21 32 40 bd bc 39 b8 bd 11 e0 9a bd fe a3 8f bd
       -0.046922807 -0.08995387 -0.075622685 -0.07013701
000050 3f a1 80 bd 12 70 76 bc f5 7b 94 3d 73 ed 0b 3d
       -0.06280755 -0.015041368 0.072502054 0.034161996
000060 ea dd 20 3c c1 24 84 3c 37 92 34 3d 09 cc b4 3d
       0.009818533 0.016130807 0.044084754 0.08827979
000070 97 46 13 3d 79 1e bd bc 1c 61 4b bb 0f 70 08 be
       0.03595599 -0.02308582 -0.0031033223 -0.13323997
000080 d4 77 01 3b 67 c1 21 3d 0f d0 56 3d 20 66 b4 bc
       0.001975526 0.039491083 0.052444514 -0.022021353
000090 07 1c 4b bd de d9 80 3b 05 c7 45 bd 56 ac 0d 3d
       -0.049587276 0.003932222 -0.048285503 0.03458818
0000a0 cf 8d 16 bd aa fe a9 bc 8e ca bb 3c fc 5e 47 3d
       -0.036756333 -0.020751316 0.022923734 0.04867457
0000b0 3b 82 8d 3c da 10 ba bd b2 70 74 bd 4c c4 33 3d
       0.017274013 -0.090852454 -0.059677787 0.043888375
0000c0 0a 9a 13 bd 35 f9 5a bd 62 a5 49 bd ca db 47 3d
       -0.036035575 -0.05346032 -0.049229987 0.04879359
0000d0 9e c0 cc 3d 1b 5a 29 bd 9d b4 fb bc 19 d8 35 bd
       0.09997676 -0.041345697 -0.030725772 -0.04439554
0000e0 54 13 8d bc 70 ad 0a bd a1 d0 99 3d 40 47 72 bc
       -0.01722113 -0.03385681 0.07510496 -0.014787495
0000f0 47 2d 87 3d 55 a7 5d 3d dd ba e7 bc e2 38 0e ba
       0.06600433 0.05411466 -0.028287346 -0.00054253463
000100 e0 0d 77 bc 0c 92 b3 3d 0f d8 c0 3d 63 1c 23 3c
       -0.015078992 0.087680906 0.0941621 0.009955498
000110 3c 0f b2 3c 5c 6e d0 bc 77 0f 2f 3d d8 ee eb bc
       0.02173578 -0.025443248 0.042739358 -0.028800413
000120 cc 59 aa bd 6c 78 50 bc 37 e1 be bd 69 b9 d4 3c
       -0.08317909 -0.012724023 -0.093203 0.025967317
000130 84 cb a4 3d 9c cf 49 3d 92 dc 6d 3d cb 36 54 3d
       0.0804663 0.049270257 0.05807168 0.051810067
000140 87 95 75 3c a8 a5 cd bb 55 f1 7f 3c 91 c8 30 bd
       0.014989263 -0.0062758513 0.015621503 -0.043160025
000150 11 eb 4e 3d f2 c3 8f bd 62 e0 11 3d 4d b8 0e bc
       0.050517146 -0.070197955 0.03561438 -0.008710933
000160 6a b0 53 3d cb 3a 99 bc d9 e4 b5 3c 89 49 4b 3b
       0.051681913 -0.018704792 0.02220385 0.0031019172
000170 ab e1 7a 3d ee e3 4f 3d 30 86 c6 3d 29 08 9b 3c
       0.06125037 0.05075448 0.09693563 0.01892479
000180 38 b7 00 3e ec fc 2b bd af 63 84 bd cc 73 4c bd
       0.12569892 -0.041989252 -0.06464326 -0.04991512
000190 10 cd 53 3d 68 dd 8e 3d d0 b4 f5 3d b1 9a a5 3d
       0.051709235 0.06975824 0.11997378 0.08086146
0001a0 dd 0f 92 bb 52 91 90 3d e1 f1 b8 3b 63 df 28 3d
       -0.0044574575 0.07058968 0.0056440686 0.041228663
0001b0 30 46 37 3c fc 25 de 3d ac df 39 bc 51 33 02 bd
       0.011186168 0.10847089 -0.011344831 -0.03178722
0001c0 23 0d ab bd a7 8a 2d bd d2 8b 51 bd 1b c7 ef bb
       -0.08352115 -0.042368557 -0.051158734 -0.0073174364
0001d0 96 36 1f bd 87 d0 7c 3b 7d dd e6 bc cd d4 1d bc
       -0.038870417 0.003857644 -0.028181786 -0.009633255
0001e0 bd a7 50 bc 7d e0 02 bd 00 39 62 bc 20 6c 2f bc
       -0.012735304 -0.03195237 -0.013807535 -0.010706931
0001f0 ae 92 a0 3b 0d 92 b4 3c 77 01 61 3d 24 db e0 3d
       0.004900298 0.022042299 0.054933038 0.10979298
000200 13 f7 3e 3d 12 73 0a 3d 43 58 a1 bc 59 52 0e 3d
       0.046622347 0.033801146 -0.019695407 0.0347465
000210 13 84 16 3e f7 e3 5f bc 33 b9 4f 3d 68 d1 20 bd
       0.1469882 -0.013665191 0.05071373 -0.039262205
000220 a8 9e 33 3c 14 f7 bb 3d b3 e8 af 3d bc 03 67 bd
       0.01096312 0.09177986 0.08589306 -0.056400046
000230 50 de c8 3c 22 b1 35 3b 57 9b 0d 3d 17 07 4e bd
       0.02452007 0.0027723988 0.03457197 -0.05029973
000240 29 9a 10 bd d0 ad 8f 3c d9 50 81 bd 08 08 2c 3e
       -0.03530327 0.017538935 -0.063142486 0.16799939
000250 e1 03 1f bd 7d d6 87 3d bc 7c 94 bb 67 44 d3 bc
       -0.03882206 0.06632707 -0.004531471 -0.025789453
000260 b3 57 04 3d 2a 86 2d bd 2c 6c ae bb 47 87 d1 bb
       0.0323102 -0.042364277 -0.0053229537 -0.0063943
000270 be 82 36 bd a3 d9 84 bd fc fd 8f 3d f1 60 25 3d
       -0.04455828 -0.064868234 0.070308656 0.040375654
000280 26 3e 97 bb af 1f 84 ba 40 49 a4 3c 2a 6b 9a 3d
       -0.004615563 -0.0010080243 0.02005446 0.07539971
000290 3d 24 81 bb 94 5e 10 3d b3 bf 23 bd b5 d4 b1 3c
       -0.0039410875 0.035246447 -0.03997774 0.021707872
0002a0 b5 75 e1 3d 1c db f4 3d 4e ba d0 bc c0 d4 4d 3d
       0.11008779 0.11955854 -0.025479462 0.050251722
0002b0 83 b5 b5 3b d2 a5 68 bc a1 50 30 bd 2c f9 87 bd
       0.0055453195 -0.014199691 -0.043045644 -0.06639323
0002c0 4e 78 99 bc c2 89 1a 3c dd 7b 84 39 f8 c5 35 3d
       -0.018734124 0.009432258 0.00025269287 0.04437825
0002d0 6a eb 7f 3c 97 28 6e 3d 9e 38 b2 bd 99 1a d9 bb
       0.015620092 0.05814418 -0.08702205 -0.006625485
0002e0 4b 4c 40 3d 70 21 77 3c b3 69 c9 3c 25 ec 6e bd
       0.04694776 0.015083656 0.024586534 -0.058330674
0002f0 b0 54 c5 3c 3e 6c e2 bc a4 b7 d2 3b 0b 78 9f ba
       0.024088234 -0.027639505 0.006430583 -0.0012166513
000300 e0 c9 d5 bc ad f4 24 3d f3 8b 95 3c 1b bb 88 3d
       -0.026097238 0.040272404 0.01825521 0.066763125
000310 ff 2b 16 bd c9 30 a1 3c 36 5d 51 3d 15 c8 96 3d
       -0.03666305 0.019676583 0.051114284 0.07362381
000320 cf ff bc 3b 32 09 3e bd 67 4e 0d bc b3 45 16 3d
       0.0057677994 -0.046395488 -0.00862465 0.036687564
000330 21 81 8c bc 2e 6f c8 bd 89 75 2a bc 62 74 18 bc
       -0.017151417 -0.09786831 -0.010403999 -0.009305092
000340 03 11 1c bd aa 58 b2 bd e8 0c b2 bd d0 bd 19 bc
       -0.03810216 -0.087083176 -0.08693868 -0.009383634
000350 4e 6d b7 bd 38 ce 6b bd 9d 57 40 3d 99 94 a9 bd
       -0.08956395 -0.057569712 0.046958555 -0.08280296
000360 0a 15 d6 bb 8b ac a9 bd fc b9 92 bc 06 9a e9 bc
       -0.00653327 -0.08284863 -0.01791095 -0.028515827
000370 ff c9 e7 bc 39 60 25 be 00 94 eb bd ed ae b0 3b
       -0.028294561 -0.16149987 -0.11502838 0.0053919465
000380 d8 f6 5e bd a5 50 2b bc f5 f9 84 bc 6a e4 c1 3d
       -0.054434627 -0.010456239 -0.01623247 0.09467395
000390 0d 27 87 3d 73 f8 91 bd 94 60 64 3c 20 56 c8 bb
       0.06599245 -0.07127466 0.013939042 -0.0061137825
0003a0 0f bd 50 bd 47 44 b6 3d 66 c0 9b bc 26 da 75 bd
       -0.05096155 0.088997416 -0.019012641 -0.060022496
0003b0 64 45 22 bb 5a 8a 4b 3d a4 39 ab 3d 8a 9d e6 3c
       -0.0024760598 0.04969249 0.083606035 0.028151292
0003c0 1a 67 81 bd 5c dc fe bc 42 11 4a bc 94 e7 79 3d
       -0.06318493 -0.031110935 -0.012333216 0.061011866
0003d0 c7 39 af 3d 00 0b 38 bd a8 6f f7 bc b3 f8 34 bd
       0.08555942 -0.044932365 -0.030204609 -0.04418249
0003e0 c1 f9 c5 3d c4 6a 26 bc ca 96 ac 3c ad 03 aa bc
       0.096667774 -0.010157291 0.021067996 -0.020753706
0003f0 43 ea f9 bc 1b ec 2a bd 2a 2b de 3c 7b ab 96 bd
       -0.030507213 -0.041729074 0.027120192 -0.07356926

conv1.bias f4 [32]
000000 c1 9f a9 3d 1c e7 3e bd 46 0e b4 3d f4 c5 49 3d
       0.08282424 -0.04660712 0.08791785 0.04926105
000010 4e 60 88 3d 8c b8 a8 3d 89 fa ff bd 89 48 85 3d
       0.06658994 0.082383245 -0.12498958 0.065079756
000020 10 f9 c6 3d d2 8e 97 bd ef 29 f7 3c e9 de 73 3d
       0.09715474 -0.07400288 0.030171363 0.059538756
000030 67 19 10 3d de 08 72 3d be eb b2 bd f6 63 40 bd
       0.035180476 0.059090488 -0.087363705 -0.04697033
000040 0c 03 b7 3d a6 e4 d1 3d 22 0c 29 bd cb 02 95 3d
       0.08936128 0.10248689 -0.041271336 0.07275923
000050 f6 c6 ea bd 38 1b a0 ba 7d 4c d5 3d a4 20 bc 3c
       -0.1146373 -0.0012215143 0.104149796 0.022964783
000060 21 ba 8b 3d 48 d1 e3 bc e8 ff d7 3c 12 de c3 bc
       0.06822611 -0.027809754 0.026367143 -0.023909602
000070 15 0d e6 3d 7b f6 09 bd a0 25 1b 3d 14 fd 99 3d
       0.11232964 -0.033682328 0.03787768 0.07518974
