Ratio_same/checkpoint_step_0155.pth (torch_old, 541543 bytes, 24 tensors)

momentum_buffer f4 [3]
00000000: 5e1e c6be 3978 f03e 0596 88be
-0.38695043 0.46966723 -0.26676956

momentum_buffer f4 [3]
00000000: 7490 163e 4d90 d8be 7928 143e
0.14703542 -0.42297593 0.14468564

momentum_buffer f4 [32, 3, 5, 5]
00000000: 78e5 0abe f920 07be e19e ffbd 70f5 04be
00000010: 4c87 09be 9b13 0abe 4234 0cbe 1e23 09be
00000020: f403 0cbe 969b 0abe c806 07be 70b6 0bbe
00000030: f283 0fbe bc75 12be f341 0dbe 7051 0abe
00000040: bf20 0dbe 7d57 0fbe ef60 13be 3b8e 11be
00000050: a139 0dbe b95a 10be 72bc 0cbe af35 10be
00000060: 6b4c 12be b08f 1dbe 779e 19be 07b9 11be
00000070: 59ce 16be e535 1cbe f1e4 1dbe f12c 20be
00000080: 2ed1 1bbe cef9 1cbe d6e1 1cbe 267b 1abe
00000090: 4171 1fbe 68bd 21be 5ed5 23be f92a 1fbe
000000a0: c993 1cbe 55d1 1fbe db66 21be 0516 25be
000000b0: d4ee 23be 7a4b 20be 8cf7 23be e1c2 20be
000000c0: 608f 24be 59c2 26be 32f9 00be 3aa1 f4bd
000000d0: 6332 e3bd 97d7 f0bd 348b fdbd 7707 01be
000000e0: 93d9 00be b8ae fabd c352 febd 2072 00be
000000f0: 87cc f8bd c394 00be 22eb 04be 57de 07be
00000100: 9502 04be 2e48 fdbd e9c3 01be eec9 05be
00000110: 8d16 0bbe 544f 0abe 1c91 03be 9bf9 07be
00000120: 71f7 06be 7123 0bbe df05 0ebe f7d5 96bb
00000130: 3e96 76bb 7324 43bb b1bb 60bb 5999 95bb
00000140: e732 b4bb d076 97bb dae4 58bb 4ba9 87bb
00000150: c346 9cbb 6337 00bc 866b d6bb 478e b9bb
00000160: dd5b b0bb f855 d4bb ce4d 06bc 59af febb
00000170: 78e0 d6bb 4138 d7bb cbae d4bb 4121 11bc
00000180: 524e ffbb b3eb 05bc 13a9 0abc 429b 02bc
00000190: 7f4d 86bb f725 51bb 5bb5 f7ba 81a5 26bb
000001a0: b4a2 83bb 7ab5 a6bb 4c2e 88bb 9de4 2fbb
000001b0: f402 5bbb fbc6 7ebb 9eda f6bb 3360 d8bb
000001c0: cd87 b9bb ce61 b2bb 260a cabb 9494 0abc
000001d0: 1dc0 00bc 076a d8bb fc70 dabb fdf1 d9bb
000001e0: df65 18bc 7adb 0dbc 5618 03bc 464c 04bc
000001f0: add1 f5bb c8a0 e1b9 f8cf 8f3a e608 353b
00000200: c6b8 053b 6cd0 553a bbfe eaba 5087 b639
00000210: 188a 2b3b 2f7d b43a f813 1a3a e24f 82bb
00000220: 3c9f 0dbb 2eeb 37b9 8005 73b8 002e bfba
00000230: 2686 a0bb d120 77bb 5313 12bb 64e9 1dbb
00000240: 34c0 19bb 901c c6bb 4095 aabb caee 4dbb
00000250: a265 87bb a060 44bb b69b 373d ded8 313d
00000260: 6649 1e3d a9f0 023d e6f4 e83c 36bd 393d
00000270: 6a82 363d a208 253d f2f3 053d 9385 df3c
00000280: d345 363d 880c 363d aad4 263d 47f5 003d
00000290: 9474 cc3c 1974 333d d165 353d f93c 253d
000002a0: 9c03 fc3c 7caf ce3c 5348 2c3d 9460 333d
000002b0: 4e7b 223d 9838 013d 74f1 dc3c 4542 7d3d
000002c0: 4485 793d 3b2d 673d 95da 4d3d 49af 3e3d
000002d0: 20e0 813d 1f9b 813d 7fd7 713d f831 533d
000002e0: 1265 3d3d ace9 803d 5ca2 813d 7c25 753d
000002f0: 3097 513d b6a8 353d 226b 7e3d ddd4 813d
00000300: ced4 743d 4295 4e3d c566 353d cf5e 783d
00000310: 9fa4 7d3d 741d 713d bb4b 513d f6f0 3d3d
00000320: 2d29 703d 52ec 6a3d bb16 573d f414 3d3d
00000330: 173d 2a3d c8a6 753d 2ff0 763d 5118 673d
00000340: 223a 433d 0429 283d cfe6 753d 1c47 7a3d
00000350: 75dd 6a3d f5f5 413d 7ea6 243d 2c65 733d
00000360: 62a6 7c3d f048 6b3d 5819 403d 73a7 223d
00000370: c54e 6b3d 2586 723d 208a 643d 30a0 423d
00000380: 3541 2a3d c834 24bd fbd3 3ebd 4f97 5bbd
00000390: 6f08 6cbd d03b 65bd aa4b 0bbd 0a32 2fbd
000003a0: ab13 5ebd 01a4 7cbd 1316 7fbd 7917 e0bc
000003b0: 57b2 18bd d987 54bd 7cfe 80bd ac51 86bd
000003c0: 7938 bcbc 9fc0 07bd 7c10 44bd af60 77bd
000003d0: 6339 82bd 2d7c bfbc 7aa4 04bd e9f3 32bd
000003e0: 9e6e 5ebd 9829 6ebd 933a acbc 6379 e6bc
000003f0: d0b6 13bd df0e 25bd ba8d 1bbd 453e 7bbc
-0.13564098 -0.13196172 -0.124814756 -0.12984252 -0.13430518 -0.13484041 -0.1369181 -0.13392302
-0.13673383 -0.13535914 -0.1318618 -0.13643813 -0.14015177 -0.14302725 -0.13794689 -0.13507628
-0.13782023 -0.13998218 -0.14392446 -0.14214413 -0.13791515 -0.14097108 -0.13743761 -0.14082979
-0.14286964 -0.15386844 -0.15001856 -0.14230739 -0.14727153 -0.15254934 -0.15419365 -0.15642144
-0.15216514 -0.15329668 -0.15320525 -0.1508604 -0.15570547 -0.15794909 -0.15999362 -0.15543737
-0.1529075 -0.15607198 -0.15761892 -0.16121681 -0.16009074 -0.15653792 -0.160124 -0.1569934
-0.16070318 -0.16285075 -0.1259506 -0.11944814 -0.11093595 -0.117598705 -0.123800665 -0.12600504
-0.12582998 -0.12240356 -0.12418129 -0.12543535 -0.121483855 -0.12556748 -0.12980321 -0.1326841
-0.1289161 -0.12367283 -0.1267239 -0.13065311 -0.13582821 -0.13506824 -0.12848324 -0.1327881
-0.13180329 -0.13587739 -0.13869427 -0.0046031433 -0.0037626172 -0.0029776364 -0.003429156 -0.0045653996
-0.005499232 -0.004622318 -0.003309539 -0.0041400543 -0.0047691776 -0.007825705 -0.0065435795 -0.0056627127
-0.0053820447 -0.006479975 -0.008197261 -0.007772368 -0.0065575205 -0.0065679853 -0.0064905635 -0.008858026
-0.007791319 -0.008173871 -0.008463162 -0.007971587 -0.0040985937 -0.0031913498 -0.0018898653 -0.0025428238
-0.0040171985 -0.0050875517 -0.0041559096 -0.0026839145 -0.0033418508 -0.0038875926 -0.0075333854 -0.0066032647
-0.0056619407 -0.005443788 -0.0061657606 -0.008458275 -0.007858303 -0.0066044363 -0.006666301 -0.0066511617
-0.009301632 -0.008658284 -0.008001408 -0.008074826 -0.007501802 -0.00043035136 0.0010972014 0.0027623712
0.0020404323 0.00081563625 -0.0017928699 0.0003481456 0.002617484 0.0013770218 0.00058776094 -0.003976808
-0.0021609804 -0.00017539851 -5.7940837e-05 -0.0014585853 -0.0048988042 -0.003770877 -0.002228935 -0.002409541
-0.002346051 -0.0060458854 -0.0052057803 -0.0031422847 -0.0041319886 -0.002996482 0.044826232 0.04341971
0.038644217 0.031967793 0.02843709 0.04534646 0.044557966 0.040291436 0.032703348 0.027285373
0.044500183 0.044445544 0.040730156 0.031483915 0.024957933 0.04381189 0.044286553 0.04034135
0.03076344 0.025230162 0.04206116 0.043793276 0.039668374 0.031548113 0.026970603 0.061830778
0.060918108 0.05643962 0.050257284 0.046553884 0.063415766 0.06328415 0.059043404 0.051561326
0.046238966 0.062945694 0.06329796 0.0598502 0.051169574 0.04435035 0.06211389 0.063394286
0.05977326 0.050435312 0.04428746 0.06063729 0.061924573 0.05886598 0.051097613 0.046372376
0.05863302 0.05735428 0.05251191 0.04616256 0.041562166 0.059973508 0.06028765 0.056419674
0.04766286 0.04105474 0.06003457 0.06110297 0.057340104 0.047353704 0.04019784 0.059422657
0.061682113 0.057442605 0.04689917 0.039710473 0.057448167 0.05920996 0.05579579 0.047516048
0.041566093 -0.0400894 -0.04658888 -0.053611096 -0.05762523 -0.055965245 -0.034007706 -0.04277233
-0.054217976 -0.061679844 -0.06227691 -0.027354943 -0.037279453 -0.051887367 -0.06298539 -0.065585464
-0.022976147 -0.033142682 -0.047867283 -0.06039494 -0.06358602 -0.023374641 -0.03238342 -0.043689642
-0.05430471 -0.058145136 -0.021024024 -0.028134054 -0.036063015 -0.040297385 -0.037976958 -0.01533467

momentum_buffer f4 [32]
00000000: 3cb5 1d3e 0c14 293b 82c5 77bd a25b f8bd
00000010: 0f3a 263d 33ea 2b3c a386 0dbe 7684 10be
00000020: 04af 083e dec6 cabd dfcc d53d 48ce 14bd
00000030: 3f85 36bd b42d 08bd 139f 6bbe b2d8 a2bd
00000040: adb3 a4bd bdbd 3e3e 46da 943e 01a4 e33c
00000050: 2e33 e5bd ede2 2bbe 9963 cd3c fa26 a1bd
00000060: 29cc 2ebd 42c0 aabd 7e4f 21bd 28ac 90bc
00000070: 3688 963e 8433 21bb 5669 98be a29b 20be
0.15401167 0.0025799302 -0.060491093 -0.121268526 0.040582713 0.010492849 -0.13820891 -0.1411303
0.13348013 -0.09901212 0.10439467 -0.036329538 -0.044560667 -0.03324671 -0.23009901 -0.079514876
-0.08042083 0.18627067 0.2907278 0.027788164 -0.111914024 -0.16785784 0.025071906 -0.07868762
-0.04267517 -0.083374515 -0.03938245 -0.017660215 0.29400796 -0.0024597356 -0.29767865 -0.15684369

momentum_buffer f4 [32, 32, 3, 3]
00000000: 4599 8a3b 5bb7 8d3b 3954 9e3b 7b16 973b
00000010: 0728 a53b b266 af3b 1d79 c53b 4a20 c03b
00000020: ee20 d43b 2909 4c3d 88d2 4e3d 28ed 4c3d
00000030: b105 433d a0fd 423d c229 443d aa9e 3d3d
00000040: 1e26 413d 65ff 3f3d c3fa 8e3b 31b4 403b
00000050: 5ecf 5f3b f80b 933b f0f7 783b 3d4a 6f3b
00000060: 06b2 ab3b e507 a53b f054 333b a2de fa3c
00000070: 3b83 fe3c 4d68 ec3c 0c23 fa3c 82dd f03c
00000080: 9a5b ec3c bc74 003d 36cf f83c 8d21 ee3c
00000090: 81da 843b 6d77 6e3b 49ff 543b e82e 863b
000000a0: 7cab 853b 2cbd 843b d326 a63b 1099 a73b
000000b0: 6d3b 913b b62f 2b3b a92d 253b 415f 323b
000000c0: 9cae 3e3b dc81 253b 1a3f 4a3b dd78 373b
000000d0: e9c7 3a3b 0674 3e3b 48fb 3f3b 5c3c 0b3b
000000e0: 98a2 3c3b dd40 1f3b 5871 f33a 158b 393b
000000f0: 5989 663b dcd1 063b 0840 423b ea58 903a
00000100: e2b2 ae3a de1f c63a 0426 123b 218f f43a
00000110: 62c5 833a 671a d43a 321b a73a 5ec6 b73a
00000120: 4164 6f3c 2b6d 623c 45e3 643c beab 583c
00000130: 8854 6f3c d7a8 693c f2b5 733c db8a 6f3c
00000140: db8c 743c 0d27 173a 8802 7a3a 0311 d43a
00000150: 670f b9b9 d456 193a c854 153b 4c96 e938
00000160: f621 8d3a 26b1 cb3a 2e07 2d3d 546f 303d
00000170: c0f7 2e3d caee 203d 512b 293d 83dd 253d
00000180: b19b 1c3d 93f4 253d 4cc0 213d 7be8 a23c
00000190: d223 a63c 1acb a43c c23d 9a3c 2520 9d3c
000001a0: ef11 a23c 4b24 9b3c 61a1 a43c 684f 9d3c
000001b0: 76ba 223b 37b1 5f3b 7ad7 a03b 02d9 5b3b
000001c0: 4caf 593b b24d 8d3b 5cc1 963b 5f9b 793b
000001d0: 50e9 c23b ba1d 5c3b 444b 743b 19c2 9a3b
000001e0: ecc2 323b 28ff 683b 1308 913b 8000 283b
000001f0: 64fa 703b c284 933b efc1 d13b 9019 c03b
00000200: 7826 9f3b 8efc ee3b 03d7 c63b 9697 a63b
00000210: 3167 ef3b 40e1 f23b 7b20 ce3b bfc1 d03b
00000220: b3f7 b23b 44a0 883b 2afc e83b 60d6 c73b
00000230: c333 963b 0e3a fa3b 1ef7 d43b e8f3 993b
00000240: 0511 383d 6e10 383d 8ef7 3b3d f854 2e3d
00000250: 66e3 323d 0274 373d 7d48 283d 157f 2a3d
00000260: 5208 303d 66b0 cd3b b357 c73b 828e d43b
00000270: af91 f83b 9ccf d93b cc07 e43b ecac 1b3c
00000280: 2722 003c 16d4 0a3c 98a3 c33b 4af0 ac3b
00000290: 81d9 993b 70ca e73b f18c af3b db7d aa3b
000002a0: ffb4 1a3c 3cb7 f93b e800 cd3b b0ce 1c3d
000002b0: 77fd 1f3d 592d 203d 2d0a 173d 9fdb 193d
000002c0: ad17 163d 14da 123d daeb 183d 9584 173d
000002d0: 425f cb3a 9ef7 be3a 0991 183b f41a 0d3b
000002e0: 5fd3 013b 7f32 173b e45e 3e3b eab3 473b
000002f0: 3218 203b 869d 9a3b 90e8 9f3b 23f6 713b
00000300: 9ea4 943b 2de7 903b 654a 6c3b ca91 a33b
00000310: e2b6 983b 7949 663b 03d9 113c 6a09 1b3c
00000320: de43 103c fa0e 0d3c 41f9 233c f2f2 0e3c
00000330: da4b 1d3c 89ca 1c3c 1228 1b3c 7276 043c
00000340: e9ad 0f3c a959 1d3c 2bca f93b 3f4d 103c
00000350: dd1d 183c 7c81 043c afc1 063c bd5e 193c
00000360: 6d24 1b3c 6663 203c 4ac6 273c d644 0c3c
00000370: 67ca 133c 4e68 193c 7f09 1a3c 6ed8 233c
00000380: 4552 283c de1b d23b 94f7 b53b 5e8b a03b
00000390: 16ea d03b bd06 bd3b 0e24 ba3b b6ee ea3b
000003a0: c26b cf3b 66d2 ba3b fd31 4e3a aeb8 d03a
000003b0: ea14 d43a 7846 713a 893e 793a a60e 9a3a
000003c0: 70de ca3a d5da 993a 7ae8 533a 6e5d 793b
000003d0: 53be 713b d29d b03b 28cd 603b b9c2 863b
000003e0: 8200 ca3b bf26 ba3b 48ca ba3b a8a1 e73b
000003f0: e6de 263c 523c 343c 8aaf 473c 2232 243c
0.004229697 0.004324836 0.0048318175 0.004610834 0.005040172 0.0053528184 0.0060264007 0.005863224
0.006473652 0.049813423 0.050493747 0.050030857 0.04761285 0.047605157 0.047891386 0.046293892
0.047155492 0.046874423 0.004363389 0.0029404277 0.00341507 0.004487511 0.003798958 0.0036512755
0.005239728 0.0050363415 0.002736386 0.030623738 0.031068435 0.028858328 0.03053429 0.029402498
0.028852273 0.031361327 0.030372243 0.029068733 0.004054368 0.0036387101 0.0032500795 0.004094947
0.0040792804 0.0040508714 0.005070546 0.005114682 0.004432133 0.0026120967 0.0025204218 0.002721742
0.0029095775 0.0025254404 0.0030860365 0.0027995624 0.0028500503 0.0029060855 0.0029294062 0.0021245694
0.0028783437 0.0024300136 0.0018573208 0.002831166 0.003517708 0.0020571863 0.0029640216 0.0011012827
0.0013328458 0.0015115698 0.002230049 0.0018658378 0.0010053331 0.0016182185 0.0012749194 0.001402091
0.014611305 0.013819973 0.013970201 0.01322454 0.014607556 0.014261446 0.014874922 0.014620508
0.014926161 0.0005766012 0.00095371203 0.0016179386 -0.00035297425 0.0005849425 0.002278613 0.00011138301
0.0010767567 0.0015540465 0.042243175 0.04307492 0.04271674 0.039290227 0.041301075 0.040494453
0.038234416 0.040516447 0.03949003 0.019886246 0.020280752 0.020116378 0.018828277 0.019180367
0.019783942 0.018938204 0.020096483 0.019202903 0.0024830378 0.0034132728 0.0049084993 0.0033546095
0.0033216057 0.0043122405 0.004600687 0.0038086993 0.005948223 0.0033587054 0.0037276307 0.0047228453
0.0027276827 0.0035552476 0.0044260114 0.0025635064 0.0036770338 0.00450191 0.0064012925 0.0058624223
0.0048568808 0.0072932905 0.006068112 0.0050839884 0.0073060025 0.007412106 0.006290493 0.0063707526
0.005461657 0.004169496 0.0071101384 0.0060985535 0.004583807 0.007636315 0.006499185 0.0046982653
0.044938106 0.044937544 0.045890383 0.0425615 0.043673895 0.044788368 0.041084755 0.0416251
0.042976685 0.006277132 0.0060834526 0.006486715 0.007585726 0.0066470634 0.0069589373 0.009501677
0.007820643 0.008473417 0.0059704296 0.005277668 0.004695118 0.007073693 0.0053573777 0.0052029914
0.009442567 0.00762072 0.0062562115 0.03828305 0.039060082 0.039105747 0.03687494 0.037562963
0.036643673 0.035852507 0.0373343 0.036991674 0.001551606 0.0014569645 0.0023279807 0.0021530958
0.0019809825 0.002307087 0.0029048258 0.0030472227 0.0024428484 0.0047184853 0.0048800185 0.003692039
0.0045362255 0.0044220896 0.0036055085 0.0049917446 0.004660473 0.0035139008 0.008901837 0.009462694
0.008805243 0.008609528 0.010008157 0.008724915 0.009600604 0.0095697725 0.009470003 0.00808488
0.008769491 0.009603896 0.0076229773 0.008807479 0.009284464 0.008087512 0.008224889 0.009360966
0.009469134 0.009789323 0.010240147 0.008561334 0.009020424 0.009363247 0.009401678 0.010000331
0.010273521 0.0064120134 0.0055531953 0.0048994264 0.0063755615 0.0057686255 0.0056805676 0.00716957
0.0063299844 0.005701351 0.0007865725 0.001592418 0.0016180549 0.0009203921 0.00095079147 0.0011753633
0.0015477668 0.0011738191 0.0008083653 0.0038050073 0.0036887124 0.0053899074 0.003430197 0.004112568
0.0061646113 0.0056808884 0.0057003833 0.0070688315 0.010184979 0.01100071 0.012187848 0.010021718

momentum_buffer f4 [32]
00000000: a4d7 623d f5e9 3bbc e512 a43c 63e0 1a3e
00000010: 845f d53a fd20 d2bd 7179 28be 8fa2 06bc
00000020: 7f55 93ba f988 8f3c 8d12 6ebd edb0 633b
00000030: f8bb 173e 70b2 dd3b 3886 8bbe 1fed ae3b
00000040: e8d8 e5bc ea83 a23c 587f 99bd 9dfd 313d
00000050: 7eef 193c 10f0 b13b 74d0 e5bc 2eab 3dbc
00000060: f9cc f23c 11b5 083b 1493 793e b497 25bd
00000070: f51b 73be 7a24 a03c ca92 a3bc 2055 35bd
0.055381432 -0.011469354 0.02002854 0.15124659 0.0016279076 -0.10260198 -0.16452576 -0.008217468
-0.001124069 0.017521368 -0.05812316 0.0034742907 0.14817798 0.006765656 -0.27250838 0.0053383256
-0.02805753 0.019838292 -0.07494992 0.043454755 0.009395478 0.005430229 -0.0280535 -0.011576457
0.029638754 0.0020859877 0.24372512 -0.04042788 -0.23741134 0.019548643 -0.019967455 -0.044270635

momentum_buffer f4 [64, 32, 3, 3]
00000000: 625f 8c39 41db b139 169f b739 5cdd ee38
00000010: 3e5c c539 37c2 7039 d1a0 393a 72bb fb39
00000020: ec18 2739 8046 6bb8 06b7 8138 5ecd 85b9
00000030: fc7c 9db8 ee27 43b9 ef02 fd39 fc19 5139
00000040: 49d0 d639 247c 26b9 18ef d9b8 318e 1f37
00000050: c867 d5b8 94b6 17b9 d65f bd39 8124 083a
00000060: cac3 12ba 9877 22b9 b72e 6a39 c8f4 b238
00000070: 6adb eab8 d887 c639 8762 45b7 5c96 033a
00000080: 9755 1eb9 c686 1839 828d 043a f025 9738
00000090: 26b2 1939 4b3b 4cb7 9a98 d3b6 a789 ddb9
000000a0: 3ea5 cab7 9059 af38 66e1 6039 11ab 9db9
000000b0: 1195 73b8 5071 ea38 2679 cab8 d9e5 823a
000000c0: 6d43 a737 e205 3439 e7ae 6f39 b51f ba39
000000d0: ebdf 3e39 dbe4 9039 1131 d338 54f2 21b9
000000e0: 27b5 b5b9 ba73 ec39 f3f0 bb38 5f56 ac39
000000f0: 529f 9839 360e 2538 3a78 61ba 7be2 99b8
00000100: 28fd f7b8 284a d139 dc95 01b9 e2db a0b9
00000110: cff4 313a 6cc2 56b9 c111 2338 d40f afb9
00000120: 7135 af38 93f9 a639 d863 09b9 d2be 3f39
00000130: 068a 27ba f89d 8138 6415 f838 14c3 5cb7
00000140: f70d 58b7 452e a439 6565 a839 2ef6 75b8
00000150: 68a9 2bb9 a430 18b9 1288 59b8 0f68 1139
00000160: c398 3f39 b365 c7b9 3850 e9b9 c2f2 0439
00000170: 2ad1 0139 037b 493a 59be 9f39 9e5d 3db9
00000180: 488c b139 9eb4 47b9 dc6a 21b9 9dfd 6db9
00000190: ac2b 7bb9 abe3 14ba a684 43b9 909d 21b8
000001a0: 34d1 16b9 78a9 b5b9 1707 d5b8 b8c0 3239
000001b0: c747 c138 0a6c 47b9 66b1 9838 3713 9139
000001c0: 9ca8 40b9 96e8 3139 ee03 a038 fbe5 bd39
000001d0: 2bef c8b9 2e76 8d39 5637 b338 269a 99b7
000001e0: 119b 9ab8 67cc cf38 5196 f038 20ec 013a
000001f0: 1009 55b9 f7a6 8ab9 b24d 8539 c287 513a
00000200: 97e6 a339 847a a539 d0a3 013a 5c3f 46b7
00000210: 8906 8539 2b70 213a c3fc c939 38cf d339
00000220: 7525 88b9 a345 85b9 7498 09b9 fb25 36b9
00000230: c128 eb38 2d18 21b9 6768 8f38 e4ee 0fba
00000240: 1b20 aa39 4c3f 1fb9 4275 5239 12f4 253a
00000250: 12d4 9a38 f34d 8639 334d 5e39 cb05 d139
00000260: a15f b339 5653 3f37 7d3f e939 e2ed d4b9
00000270: 1b74 d539 b599 b039 8b91 073a 4f74 4839
00000280: 50d6 fa39 8e7e c539 4deb 0eba af8a 2bb9
00000290: ea64 84b9 4ada b139 5c8c f1b9 bd88 e539
000002a0: c59f 6fb9 9ee7 3fba 61e9 8bb9 c448 323a
000002b0: 44d7 ef39 121a 15ba d8e6 5539 24ab 8f39
000002c0: a4cf 27b9 3fa4 5839 a409 f239 963a 613a
000002d0: cf6a 71b9 816a 7e39 729a 173a 33ed 7539
000002e0: c0b1 28b9 69e2 d938 0c55 9038 34c5 2539
000002f0: 2cde 6bb8 e24d 6eb8 b36f 9eb7 96ff dd38
00000300: 340b 81b9 61f6 f6b9 0635 01b9 0eb4 b6b9
00000310: 36f9 383a dc8a 21b9 1266 9ab9 ec6a 1439
00000320: 5370 bd39 63f3 ef39 3a31 ddb8 0db2 96b8
00000330: d525 58b9 bdb7 a839 8950 de39 6997 92b8
00000340: 5ccd ffb8 b763 1439 87c7 6639 734f 393a
00000350: 1bd3 9339 a8ac 283a 1230 133a 81ec 10b9
00000360: 5f2d d1b8 561e 42b9 2877 0b39 7609 8a39
00000370: 64d7 10ba 07a6 91b8 ce56 c3b7 bc9e 99b9
00000380: 21ee 303a 0c33 30b9 164a a339 d195 88b9
00000390: 664a fab9 cf82 a7b9 e7cf 4239 4fc5 25b9
000003a0: 96aa 0ab9 105f 95b9 2f45 1639 972d c7b9
000003b0: b911 b139 07ad ccb8 14c8 ccb9 bee7 b338
000003c0: 4ebb b7b9 ae2a f539 c7ec 07ba c3ac 093a
000003d0: 8881 9f39 771f 32ba 5a49 ac39 72f7 a339
000003e0: bc2f b2b9 12a5 beb9 e534 f8b8 3b25 de39
000003f0: f37f 203a e6c6 20b9 79be 3238 051c 6739
0.00026773947 0.00033923428 0.00035023008 0.00011389956 0.00037643494 0.00022960534 0.00070811535 0.00048014108
0.00015935645 -5.6094024e-05 6.18529e-05 -0.00025520747 -7.5096235e-05 -0.00018611524 0.00048258106 0.00019941473
0.00040972445 -0.0001587724 -0.00010391901 9.510245e-06 -0.00010175962 -0.00014468498 0.00036120292 0.0005193428
-0.0005598633 -0.00015494076 0.00022333382 8.5332955e-05 -0.000111988586 0.00037866714 -1.1765055e-05 0.0005019659
-0.00015099939 0.00014546057 0.00050564867 7.2073075e-05 0.00014657583 -1.2173153e-05 -6.306055e-06 -0.00042254964
-2.4157223e-05 8.3613326e-05 0.00021446272 -0.00030072828 -5.8074544e-05 0.000111790956 -9.654676e-05 0.0009986713
1.9939349e-05 0.00017168329 0.00022857972 0.00035500308 0.00018203228 0.0002763633 0.000100704034 -0.00015444431
-0.0003465798 0.0004509965 8.961735e-05 0.00032870748 0.00029110402 3.93523e-05 -0.0008600984 -7.337794e-05
-0.00011825032 0.00039918837 -0.00012358226 -0.00030681404 0.00067884935 -0.00020481058 3.8878763e-05 -0.00033390394
8.3546045e-05 0.00031847935 -0.00013102533 0.00018286266 -0.00063911115 6.180623e-05 0.00011829546 -1.3158442e-05
-1.2877855e-05 0.0003131499 0.00032119002 -5.8641825e-05 -0.0001637094 -0.0001451397 -5.1863557e-05 0.00013867042
0.00018272088 -0.0003803201 -0.0004450099 0.00012678935 0.00012380318 0.00076858717 0.00030468663 -0.0001805932
0.00033864588 -0.00019045404 -0.00015393965 -0.0002269656 -0.00023953494 -0.0005679677 -0.00018646065 -3.8532133e-05
-0.00014383049 -0.00034649274 -0.00010157952 0.00017047196 9.216327e-05 -0.00019018367 7.280968e-05 0.0002767087
-0.00018373359 0.0001696668 7.6301265e-05 0.00036220238 -0.00038325167 0.00026981666 8.545692e-05 -1.8310802e-05
-7.3721756e-05 9.908602e-05 0.000114720904 0.0004956145 -0.00020316639 -0.0002644581 0.00025425624 0.0007992947
0.00031261586 0.00031562534 0.00049453694 -1.1816472e-05 0.00025372606 0.0006158377 0.0003852603 0.00040399446
-0.0002596785 -0.0002541962 -0.00013122131 -0.00017371021 0.00011213264 -0.00015363163 6.838218e-05 -0.00054906146
0.00032448847 -0.00015187002 0.00020070843 0.000633062 7.3827934e-05 0.00025616548 0.00021200329 0.00039867903
0.0003421279 1.140389e-05 0.00044488526 -0.00040613028 0.0004071303 0.00033683857 0.0005171529 0.00019116815
0.0004784339 0.0003766906 -0.00054519327 -0.00016359494 -0.0002525219 0.0003392271 -0.00046071678 0.00043780162
-0.00022852335 -0.00073205854 -0.00026686027 0.0006801004 0.00045746018 -0.00056877837 0.00020399259 0.00027402595
-0.00016003713 0.00020660552 0.0004616502 0.0008591799 -0.0002302334 0.00024263003 0.0005783207 0.00023453384
-0.00016087946 0.000103895385 6.882296e-05 0.0001580909 -5.623528e-05 -5.6816156e-05 -1.8887082e-05 0.00010585708
-0.00024613144 -0.00047104343 -0.00012322151 -0.00034847896 0.00070561783 -0.00015405886 -0.00029449217 0.00014154211
0.00036132577 0.0004576697 -0.0001054727 -7.185722e-05 -0.00020613459 0.00032180353 0.00042403143 -6.990025e-05
-0.00012197599 0.00014151527 0.00022008839 0.0007069029 0.0002819531 0.0006434419 0.0005614768 -0.00013821015
-9.9743476e-05 -0.00018512583 0.00013300462 0.0002632846 -0.000552526 -6.945064e-05 -2.3286233e-05 -0.000293007
0.0006749351 -0.00016803684 0.0003114498 -0.00026051563 -0.00047739147 -0.00031950182 0.00018578731 -0.0001580913
-0.00013224254 -0.00028490322 0.00014330888 -0.00037990205 0.00033773275 -9.759707e-05 -0.00039058982 8.5785505e-05
-0.00035044033 0.0004676184 -0.0005185124 0.0005251879 0.00030423352 -0.000679485 0.00032861048 0.00031274144
-0.0003398637 -0.0003636261 -0.00011835414 0.00042370879 0.00061225815 -0.00015332885 4.26159e-05 0.00022040315

momentum_buffer f4 [64]
00000000: 6ef0 f639 7036 f6bc 82aa 0f3c 44ab 8e3d
00000010: 0d18 c73c cfe3 cfbc 6655 49ba 6167 11bc
00000020: 6197 9cb8 1f08 f038 b433 dfbc 52e2 b23d
00000030: 3f6b 27b9 1c58 0bbd d3a5 7f3d 7cd1 cfb9
00000040: 910b 2cbb 10b8 8a3a a817 dbbb abc5 673d
00000050: 09b7 9bbc 69ec 0fbc 6735 85bd 21e5 1c3d
00000060: f220 24bb 4327 663c d512 5cb9 4732 91bb
00000070: 3490 263d 34c2 9abd 90ef cdbb eef7 6bbc
00000080: 744b 12bb cd5f c0bd 776a 943b d4cb 4b3b
00000090: 7ba6 013d c0d6 36bc 8d8e 1b3d 8318 3b3a
000000a0: c829 76bd 6abc bb3b 28f4 1fbd 4a8c 1e39
000000b0: 3330 30bd c103 4d3c d07b 493c dce2 cbb8
000000c0: 04a0 0b3d 07e7 adb9 b9fc 593d 56f2 58bb
000000d0: 6de8 26bd 26a0 5b3b 4a01 10bd 70c4 883d
000000e0: 08c7 103b cb4c c43c 8160 443d 2a03 063c
000000f0: 8f81 76bc be14 92ba a7d0 ee3b 8070 cdbd
0.0004709991 -0.030055255 0.00876868 0.0696626 0.02430346 -0.025377182 -0.0007680267 -0.008874745
-7.466856e-05 0.000114456045 -0.027246334 0.087345734 -0.00015966313 -0.034019575 0.062414 -0.00039638195
-0.0026252011 0.0010583419 -0.0066861697 0.056584995 -0.019008176 -0.008784392 -0.06504326 0.03830445
-0.002504405 0.014047447 -0.0002098785 -0.0044310424 0.040664867 -0.075565726 -0.0062846616 -0.014402373
-0.0022322806 -0.093932725 0.004529293 0.0031096833 0.03165291 -0.011159599 0.037977744 0.00071371364
-0.06009844 0.005729248 -0.039051205 0.00015120316 -0.043014716 0.012513102 0.012297586 -9.72205e-05
0.03408815 -0.0003316926 0.05321953 -0.0033103428 -0.040749002 0.0033512204 -0.03515748 0.066780925
0.0022091288 0.023962399 0.047943596 0.008179465 -0.015045538 -0.0011145098 0.007288057 -0.10031223

momentum_buffer f4 [64, 64, 3, 3]
00000000: b239 db38 c782 fdb9 59bf ba38 3b41 95b8
00000010: a406 d537 d038 07ba 1055 0e38 cc36 dcb9
00000020: c249 ca38 9a94 e53b a712 f33b 6a9d 053c
00000030: e1b2 003c 2bce 073c f626 113c 5190 f23b
00000040: b4d7 f33b a516 023c 029f 163a 7347 8e3a
00000050: 70c8 ce3a 88f1 923a 38c4 933a 3bd4 db3a
00000060: 33d6 973a ae3a 763a 095d 923a fb55 c03a
00000070: bc24 fe3a 29b2 e63a 7024 093b eb05 073b
00000080: 8c8c 003b 3eff d03a c645 d63a 5762 b83a
00000090: 4d97 fc3b 3e14 103c 384d 1a3c 0588 143c
000000a0: dd6b 283c c4af 253c d8a1 143c c086 1d3c
000000b0: 54a3 1e3c 9a23 543a 3f56 1a3a 23f3 753a
000000c0: aa98 033a e05d 823a b05c cf3a 0ead 423a
000000d0: d687 833a 9a02 833a 7ead c638 a600 6fb9
000000e0: a6f8 17ba eaa2 04b8 b2f5 5639 e756 e8b8
000000f0: 61d8 95b9 3bf3 9639 3824 9fb7 75ac eb3b
00000100: b052 033c b423 f73b 73a8 003c 6715 0e3c
00000110: eeb7 113c 3482 ec3b a493 0a3c bd28 073c
00000120: c78d 3f3a d08c 6e39 6027 7b39 e6fe 7a38
00000130: cdc7 8739 5cc0 dab8 880c 0f3a a957 f739
00000140: db2d 4a38 04ea e0b9 aec1 d0b8 54f1 2b39
00000150: 29ab 3238 7011 c639 1288 9e38 584a 33b9
00000160: e0e7 91b8 d6b3 b9b8 0b4c 463a 5c0f 9b3a
00000170: fedc 753a 35b4 cc3a 54a7 c03a bc24 a93a
00000180: a15d 813a 618f b33a 2bab a03a 4587 8a3b
00000190: b5f9 9b3b cd46 9a3b abc3 983b ad92 ab3b
000001a0: 74fe 8f3b a525 853b a23c 923b 6049 6c3b
000001b0: 5341 eeb8 1ed2 eb38 aaf4 80b9 39cf 6339
000001c0: 1bfb fb39 20ef 7439 cfdd d739 e32a 06b9
000001d0: a64d 9bb9 019f 753b f064 823b ad74 853b
000001e0: b4a7 823b a050 8c3b e9c5 9f3b 5bae 843b
000001f0: 17e8 863b 176f 843b 22de 0f3c 9384 1e3c
00000200: fc47 1f3c a71e 1d3c d512 2e3c 68ab 323c
00000210: 8dac 1f3c 89fc 253c cd7d 203c 78e8 0fba
00000220: c1ff 2639 fe37 50b9 6f2d 0cb8 bff5 3739
00000230: 52cf 9eb9 4c14 d839 2301 a1b8 ec9e 8eb9
00000240: 9f4c 293b d680 503b c106 483b 5d4b 443b
00000250: 6b4d 483b 7c47 5f3b 21cd 3a3b 40d0 4e3b
00000260: d7db 383b 86f5 313a 1e29 273a ea3d b239
00000270: 49cb 4d3a f82b dd39 4972 283a cc85 5c3a
00000280: ec6c 973a 3c9b 863a 3e24 ea3a 37e4 093b
00000290: 78dc 313b fb97 313b 31dc 313b 114c 253b
000002a0: db08 253b 9370 2d3b a2cd 3d3b e0e8 ab3b
000002b0: 8ece d53b 767d ce3b 8320 dc3b 72da e53b
000002c0: 6ad5 e03b 0dd0 d93b aff9 e83b 39c4 d93b
000002d0: 4470 a53b 131c b03b a0f3 b93b dcb2 aa3b
000002e0: 7b3e b13b b6ef be3b 49ec b43b ff5e ba3b
000002f0: 44be be3b 5164 8d3a 16e5 dc3a 1a35 b13a
00000300: 3cbf de3a 32ae c93a f819 083b 8b5d f43a
00000310: 04d6 e23a 9ec0 f73a 3b3f 213b 6d36 4d3b
00000320: 78fe 423b d68d 383b 19c9 3b3b 266d 603b
00000330: 4441 653b b93e 6a3b f8ec 493b 54a8 bd3a
00000340: f49f 0a3b a139 f83a ba60 843a 3c94 ad3a
00000350: 80fd af3a 88af a03a a720 c43a c305 aa3a
00000360: b758 5438 a483 8f36 b392 0838 7e44 11b9
00000370: ed5b ea39 fc72 0639 18aa de39 d886 d2b9
00000380: dc33 c9b8 0a8a 8d3a 3c3f 30b9 edd2 543a
00000390: 8a98 6239 915e 4339 5a4d a539 8a51 243a
000003a0: 93d9 a539 bf90 e038 9529 c3b9 4fcd a239
000003b0: 94ff 38b9 d6e1 4d39 d932 7c39 b333 e038
000003c0: 8768 c939 6ad0 dc39 83fa db39 a2ff 1a38
000003d0: b0af 8639 8e1a d639 7c06 57b9 2ea5 8339
000003e0: c2fb 9bb7 a17d b439 1aaa ab39 48ef 9139
000003f0: 16e9 933b c39c a53b 3342 a43b 04cb 8c3b
0.0001045348 -0.00048353357 8.9048124e-05 -7.117024e-05 2.5394671e-05 -0.0005158307 3.393466e-05 -0.00042002497
9.645849e-05 0.00700624 0.007417995 0.008155206 0.007855148 0.0082889 0.008859387 0.0074024578
0.0074414853 0.007939969 0.000574574 0.0010855034 0.0015776288 0.0011210898 0.0011273688 0.0016771624
0.0011584222 0.0009392899 0.0011166643 0.0014674062 0.001938961 0.0017600703 0.002092626 0.0020602893
0.0019615022 0.0015945209 0.0016347698 0.0014067393 0.007708466 0.008793889 0.009417824 0.009065633
0.010279623 0.010112707 0.00907179 0.009614646 0.009682495 0.0008092463 0.00058874855 0.00093822385
0.0005020002 0.000994619 0.001582047 0.00074263 0.0010034989 0.0009995282 9.473691e-05 -0.00022793058
-0.00057972444 -3.1622978e-05 0.00020500159 -0.00011078809 -0.0002858071 0.0002879145 -1.8971143e-05 0.0071921893
0.00801532 0.007542098 0.007852661 0.008672095 0.00889395 0.00721767 0.008458052 0.008249459
0.0007307198 0.00022749905 0.00023951894 5.9842037e-05 0.0002589807 -0.0001043088 0.00054568844 0.00047176823
4.820326e-05 -0.00042898965 -9.9542885e-05 0.00016397733 4.2597912e-05 0.00037778495 7.559372e-05 -0.00017098465
-6.957329e-05 -8.8549845e-05 0.0007564432 0.0011830139 0.00093789387 0.0015617671 0.0014698305 0.0012904624
0.0009869823 0.0013699346 0.0012258043 0.004227551 0.004759992 0.004708147 0.0046619973 0.005235991
0.004394347 0.0040633255 0.0044627944 0.0036054477 -0.00011360892 0.000112448106 -0.0002459635 0.00021725603
0.0004806154 0.00023358734 0.00041173256 -0.00012795212 -0.00029621756 0.0037478807 0.003979318 0.0040727467
0.003987277 0.004282072 0.0048758877 0.004049105 0.0041170227 0.0040415633 0.008780988 0.009675163
0.009721752 0.009589828 0.010624607 0.010905124 0.009745729 0.01013101 0.009795618 -0.00054896576
0.0001592627 -0.00019857284 -3.3420914e-05 0.00017543788 -0.00030290574 0.00041213853 -7.67729e-05 -0.00027202757
0.0025833023 0.0031815073 0.0030521604 0.0029952147 0.0030563723 0.0034069708 0.0028503614 0.0031557232
0.0028207207 0.00067886 0.00063766714 0.00033996935 0.0007850421 0.00042185164 0.0006425721 0.0008412271
0.0011552847 0.0010269652 0.0017863584 0.0021040568 0.0027139466 0.0027098644 0.00271393 0.002522234
0.002518228 0.0026464805 0.0028961678 0.0052462667 0.0065248674 0.006301577 0.006717743 0.007014566
0.0068613784 0.006647116 0.0071098427 0.006645706 0.0050487835 0.0053744405 0.0056747943 0.00520931
0.0054090596 0.0058269156 0.0055213314 0.005687594 0.0058210213 0.0010787343 0.0016852941 0.0013519854
0.0016994248 0.0015386997 0.0020767432 0.0018643601 0.0017306213 0.0018902009 0.0024604339 0.0031312958
0.0029753726 0.0028160713 0.00286538 0.0034244745 0.0034981528 0.0035742952 0.003081141 0.0014469721
0.0021152468 0.0018938073 0.0010099628 0.001324303 0.0013426989 0.0012259344 0.0014963344 0.0012971688
5.062736e-05 4.277057e-06 3.256155e-05 -0.00013853793 0.00044700448 0.00012822071 0.0004246987 -0.00040154788
-9.5940864e-05 0.0010798585 -0.00016808225 0.00081185886 0.00021609865 0.00018631878 0.00031528884 0.0006268254
0.00031633358 0.000107081134 -0.0003722428 0.00031052015 -0.00017642818 0.00019634454 0.00024051535 0.00010690782
0.00038415586 0.0004211695 0.0004195758 3.6954538e-05 0.0002568937 0.00040837046 -0.00020506413 0.00025109336
-1.8594674e-05 0.00034425876 0.00032742397 0.00027834834 0.00451387 0.005054088 0.0050127744 0.0042966623

momentum_buffer f4 [64]
00000000: 50a6 e13b 6e49 ae3c 8782 5638 115b 1fbc
00000010: 980a 9dbc 041b b73b 0c63 573b 856c 903c
00000020: 43b4 ab3b 1aaf 17bc ae35 853c 47bd b13c
00000030: cf68 edb8 d2f5 003c a262 463c ba22 7b3c
00000040: e5ec 743c f871 e23c c2f8 4338 3b27 983c
00000050: 85aa a63b b874 123c 4628 ad3c 774e 40bc
00000060: ee84 ffbc 830c 64bc aca1 953c 062d 02ba
00000070: a480 deba 0181 d73c 61a5 a939 1caf ffbb
00000080: a68a a33a f07e 1c3c bddd ed3b 420e 9bbb
00000090: fc3d cb39 7c3a 743b 3636 a8bb ff56 1fbc
000000a0: a862 1eba 8f31 eabb c0b7 b4bb 7c64 883b
000000b0: 070f d9bc 478e afbc f498 c8bc a19f debc
000000c0: 3e35 e33c 373e 9339 09fa 6abb 3032 0ebd
000000d0: e3b8 ab3c f053 92bb bb3a 1ebc 66b9 70bc
000000e0: f96c 963a 817d 03bd 8625 4739 e892 203a
000000f0: a660 32bb f98a ddbc 7cb7 d0ba 7ec2 2f3c
0.006886281 0.021275248 5.114314e-05 -0.009726302 -0.01917009 0.0055879373 0.0032865433 0.017629871
0.0052399947 -0.009258056 0.016260948 0.0216967 -0.00011320563 0.007871108 0.012108477 0.015328104
0.014949058 0.027642235 4.6723297e-05 0.018573394 0.0050862455 0.008938961 0.021137368 -0.0117374575
-0.031191316 -0.013918999 0.018265568 -0.00049658155 -0.0016975594 0.026306631 0.0003235741 -0.007802857
0.0012477234 0.009551749 0.0072590993 -0.0047319243 0.0003876536 0.0037266305 -0.0051334156 -0.009725331
-0.00060419226 -0.007147021 -0.005515069 0.0041623693 -0.026496423 -0.021430148 -0.024486996 -0.027175726
0.027735349 0.0002808438 -0.00358546 -0.03471583 0.020962184 -0.0044655725 -0.009657557 -0.01469264
0.0011476568 -0.03210211 0.00018992097 0.00061254064 -0.0027218251 -0.027043806 -0.0015923823 0.010727523

momentum_buffer f4 [1, 64]
00000000: 620c 70bd 096c a8bd 7fc0 d539 a975 99bc
00000010: ce6f f8bd 5d1a 44bd b320 b7bb 1ec3 8abd
00000020: b494 f9bb 184c b8bd 7d5c 44bd 9ebc 8bbd
00000030: e8fd 24b9 8ae5 94bd 1bbb 92bd 4b8b 2fbd
00000040: 7576 7abd 57f2 eabd 12db 0abe 5e86 64bd
00000050: 55a6 4cbd 5205 5cbe 743b acbd b414 83be
00000060: 0818 40be cc7b 92bd 8d90 8bbd 420a 07ba
00000070: c330 63bc 9124 b0bd a264 9ebc b02f 10bd
00000080: cc8b 20bb 52f7 83bd e505 5cbd dd43 37bc
00000090: c01c d8b5 2ead ecbb d0f8 fcbc 4fb2 d5bd
000000a0: 29aa 3bbb be86 22bd 8618 b5bd 48c3 32bb
000000b0: 28f7 1dbe 87a5 13be 5fea c9bd 6cf9 27be
000000c0: 9bb1 d2bd 0bb7 b5b9 e39c 02be e6f1 5fbe
000000d0: a402 a4bd df2e 3bbe a8e6 2ebd 1a4c c0bd
000000e0: fc93 03bd 187a 28be 5fcf 603a 994d acba
000000f0: 9d76 dbbb 3e52 28be 393a 6abb fbbc 39be
-0.05860556 -0.08223731 0.00040769947 -0.018732863 -0.121307 -0.047876704 -0.005588615 -0.06775497
-0.0076166037 -0.08998889 -0.047939766 -0.06823085 -0.00015734846 -0.072703436 -0.07164594 -0.04285745
-0.061148126 -0.11472004 -0.13560131 -0.055792205 -0.049963314 -0.21486405 -0.08409777 -0.25601733
-0.18759167 -0.07152519 -0.0681468 -0.000515137 -0.013866606 -0.086007245 -0.019335095 -0.03520173
-0.0024497388 -0.06443657 -0.05371656 -0.011185613 -1.6101621e-06 -0.007222793 -0.030880362 -0.104344
-0.002863536 -0.03967928 -0.08842568 -0.0027277041 -0.15426314 -0.14418612 -0.09859156 -0.1640374
-0.10287782 -0.00034659388 -0.1275516 -0.2186962 -0.08008316 -0.18279599 -0.04270044 -0.09389515
-0.03212355 -0.16452825 0.00085758226 -0.0013145684 -0.0066974894 -0.16437623 -0.003574027 -0.18138497

bn0.weight f4 [3]
00000000: 7112 8a3f 9cab 823f e2b5 903f
1.0786878 1.0208621 1.1305506

bn0.bias f4 [3]
00000000: fce3 1a3b bc62 23be c332 5cbd
0.0023634424 -0.15955633 -0.053759348

bn0.running_mean f4 [3]
00000000: 782d f73e ff87 e43e 52be d03e
0.48276877 0.44635007 0.40770203

bn0.running_var f4 [3]
00000000: c29d 863d 4d32 7b3d e081 7f3d
0.06573059 0.061327267 0.062379718

conv1.weight f4 [32, 3, 5, 5]
00000000: c613 08bd 4343 f13a eeca c53c af86 c23c
00000010: 86fa cb3c 665c 013d cd69 a2bc 93c2 4d3d
00000020: 90f5 d1bd cb3f e33c dc31 8e3b d1ba 763d
00000030: 4647 e3ba c82a 9cbd 60c1 a8bc 81d8 e0bd
00000040: e22e 40bd d538 b8bd 40de 9abd 2ea1 8fbd
00000050: 109e 80bd 765f 76bc 8e7d 943d b6f1 0b3d
00000060: c0f4 203c 5601 843c 787b 343d 08c0 b43d
00000070: 2430 133d 4046 bdbc 302c 4cbb 0a74 08be
00000080: 4e45 003b 5cb0 213d 54c1 563d 1175 b4bc
00000090: 8126 4bbd f17e 803b 1ed0 45bd 95a5 0d3d
000000a0: ba8f 16bd 1c07 aabc 1ec0 bb3c 925b 473d
000000b0: e47d 8d3c 3111 babd 7a74 74bd 9ebf 333d
000000c0: 939e 13bd c3fc 5abd 1ab1 49bd 41cc 473d
000000d0: 54b8 cc3d ce69 29bd d8ce fbbc 89de 35bd
000000e0: ca26 8dbc 95b9 0abd 6ccb 993d 766d 72bc
000000f0: b22c 873d 5fa3 5d3d 91c6 e7bc 5932 0fba
00000100: a916 77bc 3a94 b33d 3bd9 c03d 0a1b 233c
00000110: 7a10 b23c b36a d0bc bf14 2f3d cceb ebbc
00000120: 565a aabd 5d79 50bc 1ae1 bebd 81ac d43c
00000130: 72c9 a43d c7c9 493d 2dd7 6d3d 4e32 543d
00000140: 5a85 753c 0ad2 cdbb 5edb 7f3c 46cc 30bd
00000150: 48e8 4e3d 88c4 8fbd 2cdf 113d 25c1 0ebc
00000160: 72af 533d 733d 99bc 20e8 b53c a959 4b3b
00000170: a6e2 7a3d 1de5 4f3d d186 c63d ea0f 9b3c
00000180: abb7 003e 87fa 2bbd e462 84bd 9570 4cbd
00000190: 59c8 533d 27db 8e3d 97b2 f53d 8c98 a53d
000001a0: d04c 92bb 0090 903d d7bd b83b 6fdb 283d
000001b0: 682d 373c af24 de3d 67ea 39bc 7a35 02bd
000001c0: 280e abbd 858c 2dbd 5b8d 51bd 1bc7 efbb
000001d0: 0737 1fbd 05d2 7c3b a7dc e6bc 61d0 1dbc
000001e0: 6c9e 50bc 86df 02bd b02e 62bc 615f 2fbc
000001f0: beb2 a03b 6e73 b43c c0f2 603d c3d6 e03d
00000200: e8e8 3e3d 7466 0a3d 9d72 a1bc d246 0e3d
00000210: 6a82 163e 2f1a 60bc 5aaf 4f3d c2d8 20bd
00000220: ec73 333c 7cf4 bb3d 38e6 af3d 970a 67bd
00000230: d4cf c83c 1332 353b c496 0d3d 9c0b 4ebd
00000240: 119e 10bd 31a4 8f3c 6552 81bd 9507 2c3e
00000250: 7506 1fbd b6d5 873d 1555 94bb 0f3e d3bc
00000260: ed59 043d 0f85 2dbd 1567 aebb bf5e d1bb
00000270: bf7f 36bd afd8 84bd d2fe 8f3d 4761 253d
00000280: 180e 97bb f588 83ba b751 a43c 8e6c 9a3d
00000290: 3919 81bb df64 103d ccba 23bd 3cdf b13c
000002a0: 8477 e13d 5edc f43d 19ae d0bc d0d9 4d3d
000002b0: 59d6 b53b f899 68bc c24e 30bd adf6 87bd
000002c0: 796e 99bc 299b 1a3c 4451 8639 b2c8 353d
000002d0: 0302 803c e42d 6e3d d236 b2bd 27ff d8bb
000002e0: 954e 403d 4e3d 773c 5976 c93c 65e6 6ebd
000002f0: 425f c53c 1e66 e2bc aaf3 d23b c494 9eba
00000300: b2bb d5bc 39fb 243d 9395 953c 5ebe 883d
00000310: d925 16bd ab3c a13c 6162 513d 25ca 963d
00000320: 5d01 bd3b 0b0a 3ebd 1355 0dbc 2e43 163d
00000330: 3a8a 8cbc 3b6f c8bd ef77 2abc 587a 18bc
00000340: 6014 1cbd c75a b2bd 730c b2bd cbba 19bc
00000350: 296d b7bd eecf 6bbd 2a54 403d e693 a9bd
00000360: 7409 d6bb eaab a9bd e9b9 92bc 089f e9bc
00000370: 46c7 e7bc ee5f 25be 0b94 ebbd bfa5 b03b
00000380: 92f9 5ebd e976 2bbc 770a 85bc c1e1 c13d
00000390: 9f24 873d 7efb 91bd 2f47 643c 9384 c8bb
000003a0: ccc1 50bd 5442 b63d 9acc 9bbc 60dd 75bd
000003b0: 586a 22bb 1d89 4b3d e938 ab3d 0996 e63c
000003c0: 4d67 81bd dadc febc 9c0c 4abc 64e8 793d
000003d0: 7b39 af3d 520d 38bd fb75 f7bc 64fa 34bd
000003e0: 40f9 c53d ec76 26bc 6292 ac3c be07 aabc
000003f0: c2ec f9bc 4ced 2abd b428 de3c 79ab 96bd
-0.033221982 0.0018406886 0.024144616 0.023745863 0.024899732 0.03158226 -0.01982584 0.05023439
-0.102519155 0.02774038 0.00433944 0.060236756 -0.0017339967 -0.076253474 -0.02060002 -0.10978795
-0.04691971 -0.08995215 -0.07561922 -0.070131645 -0.06280148 -0.015037408 0.0725051 0.03416606
0.009823978 0.016113918 0.04406306 0.088256896 0.035934582 -0.023104787 -0.0031154267 -0.13325515
0.0019572559 0.03947483 0.052430466 -0.022028478 -0.049597267 0.0039213826 -0.04829418 0.03458174
-0.036758162 -0.020755343 0.022918757 0.048671313 0.017271943 -0.0908531 -0.059681393 0.043883912
-0.0360399 -0.05346371 -0.049241163 0.048778776 0.09996095 -0.04136067 -0.03073828 -0.04440168
-0.01723041 -0.03386839 0.07509503 -0.014796605 0.06600322 0.05411088 -0.028292926 -0.00054625195
-0.015081086 0.08768506 0.094164334 0.009955177 0.021736372 -0.025441503 0.042744394 -0.02879896
-0.083180115 -0.012724248 -0.093202785 0.025961163 0.08046235 0.049264695 0.058066536 0.051805787
0.014985407 -0.006281142 0.015616266 -0.04316356 0.05051449 -0.07019907 0.035613224 -0.008713041
0.05168099 -0.01870606 0.022205412 0.0031028783 0.061251305 0.05075561 0.09693683 0.018928487
0.12570064 -0.04198697 -0.064641744 -0.049912054 0.05170474 0.06975394 0.11996954 0.08085737
-0.004464723 0.07058716 0.005637865 0.041224893 0.011180259 0.108468406 -0.01134739 -0.03178928
-0.083523095 -0.042370338 -0.051160198 -0.0073174364 -0.038870838 0.003857733 -0.028181387 -0.009632201
-0.012733083 -0.03195145 -0.0138050765 -0.010703892 0.00490412 0.022027697 0.054919004 0.109784625
0.046608835 0.033789113 -0.019707972 0.03473551 0.14698187 -0.013678118 0.050704338 -0.039269216
0.010952931 0.09177491 0.085888326 -0.056406584 0.024513163 0.0027648255 0.03456761 -0.05030404
-0.035306994 0.017534347 -0.06314544 0.16799767 -0.038824517 0.06632559 -0.004526744 -0.025786428
0.032312322 -0.042363223 -0.005322347 -0.0063894684 -0.044555422 -0.064866416 0.07031025 0.040375974
-0.0046098344 -0.0010035323 0.020058496 0.075402364 -0.0039397744 0.03525245 -0.039973065 0.021712892
0.11009124 0.11956094 -0.025473641 0.05025655 0.005549234 -0.014196865 -0.04304386 -0.066388465
-0.018729435 0.009436407 0.0002561902 0.04438085 0.01562596 0.058149233 -0.087018624 -0.0066222134
0.04694994 0.0150903 0.024592565 -0.05832519 0.024093274 -0.027636584 0.0064377384 -0.0012098779
-0.026090477 0.040278647 0.0182598 0.06676935 -0.036657188 0.019682249 0.051119212 0.07362775
0.005767985 -0.046396296 -0.00862624 0.03668516 -0.017155755 -0.097868405 -0.010404571 -0.009306513
-0.03810537 -0.08708721 -0.08693781 -0.009382914 -0.089563675 -0.057571344 0.046955265 -0.082801625
-0.0065318886 -0.08284743 -0.017910914 -0.028518215 -0.028293263 -0.16149876 -0.11502846 0.005390852
-0.054437228 -0.010465362 -0.016240342 0.09466887 0.06598782 -0.071280465 0.013932987 -0.0061193197
-0.05096607 0.0889937 -0.01901846 -0.060025573 -0.0024782624 0.04969131 0.08360464 0.028147714
-0.06318531 -0.03111117 -0.012332108 0.06101264 0.085558854 -0.04493458 -0.030207625 -0.044184104
0.09666681 -0.010160189 0.021065895 -0.020755645 -0.030508403 -0.04173021 0.027119018 -0.073569246

conv1.bias f4 [32]
00000000: 349d a93d ecf5 3ebd ee0f b43d 9ab3 493d
00000010: 7e60 883d 15b9 a83d e9fe ffbd a03b 853d
00000020: 2bfa c63d 6388 97bd 2f46 f73c 5ad5 733d
00000030: e410 103d cb00 723d d2f5 b2bd 5e63 40bd
00000040: 83fd b63d a1dd d13d ac05 29bd 8d03 953d
00000050: 00c9 eabd 3724 a3ba d74d d53d 7808 bc3c
00000060: a0ba 8b3d 49d4 e3bc 2bfe d73c ffed c3bc
00000070: bc18 e63d d4f9 09bd c520 1b3d 45f5 993d
0.08281937 -0.046621248 0.08792101 0.049243547 0.066590294 0.082384266 -0.12499792 0.06505513
0.097156845 -0.073990606 0.030184833 0.05952964 0.03517236 0.059082787 -0.08738293 -0.046969764
0.08935072 0.102473505 -0.041265175 0.07276068 -0.11464119 -0.0012446706 0.104152374 0.022953257
0.06822705 -0.027811186 0.026366314 -0.023917196 0.112351865 -0.03368552 0.03787305 0.075174846

conv2.weight f4 [32, 32, 3, 3]
00000000: ddfc 4f3b ecc4 cf3c 16d3 fe3c 6331 67bd
00000010: aab9 833d d621 533d e67b 89bb 5cf3 cf3b
00000020: 7e94 b03d 81e7 c33b 9168 e4bb e506 4ebc
00000030: 81dd ef3d 0706 8fbd 17f8 853d 5045 ba3d
00000040: a892 8ebc 3bbd 1ebd fdbd abbc 58a9 1ebe
00000050: e9eb 1abd aee0 28bd 3367 b63c ef94 373d
00000060: fcc7 f4bc 5b97 2b3e c866 55be 7e3a f6bd
00000070: 1809 063e 0d09 3fbd 8395 37bd 23d5 cebd
00000080: cdd8 2d3d 54d5 8e3d e617 f73a ff56 b4bb
00000090: fe0c fd3d fdbe 893d 26c2 73bd b0ea 403a
000000a0: ebd0 463d 758c 423c c74b 6dba 10af 933d
000000b0: f7da 98bd da01 acbd 9c18 a3bd f70e 35be
000000c0: 92f3 f939 5735 16bd b414 7dbd 8ed2 febd
000000d0: a532 12bd 1122 11be e423 873d 60d6 513c
000000e0: 64b7 583d 98d6 3abd 10cd c0bc d8b8 933d
000000f0: d6d5 363d 881b 9ebd 7611 213d 0026 f0bd
00000100: 5f53 a9bd 36a9 3abd c65c 0b3e 0cad 883d
00000110: 9044 bdbd 3b9f 273c 4868 42bd a88c c2bb
00000120: ed31 a13d da0c c7bd f488 87bd c93e 27be
00000130: 0b89 dc3d a584 4e3d 0e54 1dbd bea5 ecbd
00000140: faf6 4ebd 22f7 a03d 34de 363c 9764 7d39
00000150: 0155 b7bd 9802 3cbd 4437 0b3e 0ee4 32bc
00000160: 846b 3e3d 6ff3 9dbc 1fdf 333d 49e0 8b3d
00000170: e128 8c3d db9f 373d 6b09 6f3e e205 cb3d
00000180: 75e0 1ebc 8694 353e ac7f 2bbd ae5f d43c
00000190: fbe7 e5ba b165 d9bc 79e0 89bd 2e93 e9bd
000001a0: c039 643c bb76 07bb c7e6 c63d 0c68 aabd
000001b0: ab03 09be fba6 703d a8f9 ab3d 655a 38bd
000001c0: ed64 3ebb c8a1 60bd 85fb 05bd 36e5 cebd
000001d0: 3c77 093e 2d35 8d3d 0e1f 2ebc e173 8cbd
000001e0: 1f14 eabc efec c2bb 7b79 c7bd 5394 05be
000001f0: d573 afbc 63b6 d1bd 0821 a4bd dd0b b2bc
00000200: 13a3 90bd 268f 943c 70db 49bd 9770 9dbd
00000210: f81c c9bd a77b db3d 200e 7d3d b0b0 c0bc
00000220: ba5e 4e3d cf1c 6dbc 77f5 103c f59d b63d
00000230: 8e6c 5f3c 0439 93bd 855a 223b 993f c6bd
00000240: b221 dc3d 2d88 0cbe 0dec 4d3d 4f18 1a3e
00000250: bc48 753d 42d1 753e b5a8 a03d ae96 2ebe
00000260: ff87 5abc 6462 60bd be23 263d e7b1 073d
00000270: 46da a8bc 1bd8 90bc 66b1 b5bc b41b 60bc
00000280: db15 01be db10 9eba 8e0f 08bc 00ff 973d
00000290: ffc1 833d 46e5 253d d55c 0bbd 8ce9 b93d
000002a0: db4b 163e 4c52 633d c62d 09bd 19d9 32bd
000002b0: 40ef b53c 8842 223e b73b a83d db1b 993d
000002c0: 47d8 f2ba b3f3 deba 999f ef3d 8168 eb3d
000002d0: 832b 2bbe 41c1 a1bd d731 fd3c 7e28 3abd
000002e0: c79a 5f3d fa62 7f3d ff32 4cbc b63e 3c3e
000002f0: d3f8 fe3c 89b5 633c f454 053e 7a15 c1bc
00000300: 6f80 03bc be44 903d e065 203c be21 3b3c
00000310: 9103 873d 6887 30bd a6e4 923c e90b bc3d
00000320: f384 8dbd bf47 53bd 084e 463e 93cd c5bd
00000330: ef41 513d fd3c 7d3c 8dfa 37bd 6ea2 00bd
00000340: 49cf 39bc d5d0 8c3d aa0b 95bd 1c39 383d
00000350: c79d 283d 015e ba3c 5854 78bd 10a3 933d
00000360: ec12 273e 3d6e a03d 5a2c 673d eff5 f73c
00000370: 7af6 a9bc c3fb 8fbd d705 f43d 9061 b13d
00000380: 6381 973c 245c a3bd 1602 97bd 8a91 7fbd
00000390: fb7e d9bd be6f 39bd b878 b43d 84ae 5ebd
000003a0: 5fc6 f0bc 7c99 413c fcac 66bd 1a88 8f3d
000003b0: 6399 853d 50cf 143c f705 87bc 2fea e33c
000003c0: e183 d63d b46c dfba b65e 9ebd 7f2a 483d
000003d0: 5eb7 f4bd d395 1bbe 7a9c 81bd 30fa 3ebd
000003e0: acc0 183c 7f48 483e 6042 fe3d 5764 b03d
000003f0: b736 58bc aa17 97bc af8b 0a3d d1aa a63b
0.0031736412 0.025362454 0.031106513 -0.056443583 0.06431897 0.05154594 -0.004195678 0.0063461494
0.08622073 0.005978525 -0.006970473 -0.012574886 0.117121704 -0.069835715 0.0654146 0.090952516
-0.017403916 -0.038754683 -0.020964617 -0.15494287 -0.037822638 -0.041229896 0.022266006 0.04481977
-0.029880516 0.16756956 -0.20839989 -0.12022875 0.13089406 -0.04663949 -0.04482032 -0.10099246
0.042443085 0.06974283 0.0018851727 -0.005503535 0.12355994 0.06725881 -0.059511326 0.000735919
0.048539083 0.011874308 -0.0009052124 0.07211125 -0.07463639 -0.08398791 -0.07963678 -0.1768149
0.00047674455 -0.036671963 -0.061787322 -0.12442504 -0.03569283 -0.14173152 0.065986425 0.012807459
0.05290927 -0.04561481 -0.023535281 0.072129905 0.044637524 -0.07720095 0.039323293 -0.11725998
-0.08267855 -0.04557153 0.13609609 0.06673631 -0.09241593 0.010230835 -0.04746273 -0.0059371777
0.07870851 -0.09719248 -0.066179186 -0.16332544 0.10768326 0.05041947 -0.03841024 -0.1155505
-0.050528504 0.07859637 0.011161376 0.00024165433 -0.0895176 -0.04590091 0.13595301 -0.01091863
0.046489254 -0.019281117 0.043913957 0.068298884 0.068437345 0.044830184 0.23343436 0.099132314
-0.009697069 0.17732438 -0.041869804 0.02592453 -0.0017540449 -0.026537748 -0.06732268 -0.114050254
0.013929784 -0.0020670134 0.09711986 -0.083206266 -0.13380305 0.058752995 0.083972275 -0.045008082
-0.0029051856 -0.054841787 -0.03271057 -0.10102312 0.1342439 0.06894908 -0.010627521 -0.0685804
-0.028574048 -0.005948655 -0.097399674 -0.13044862 -0.021417538 -0.10239866 -0.08014113 -0.021734172
-0.07062354 0.018134665 -0.049281538 -0.076874904 -0.098199785 0.10716944 0.06178105 -0.023521751
0.050383307 -0.014472201 0.008847586 0.08916847 0.013636721 -0.07188609 0.0024773192 -0.09680099
0.10748614 -0.13723822 0.050273944 0.15048335 0.059883818 0.24005607 0.07844678 -0.17049667
-0.013338088 -0.054781333 0.04056143 0.033128645 -0.020611893 -0.017681172 -0.022179317 -0.01367848
-0.12605993 -0.0012059467 -0.00830449 0.07421684 0.06433486 0.040501855 -0.03402408 0.09077749
0.14677374 0.055498406 -0.03349092 -0.04366407 0.02220881 0.15845692 0.08214515 0.07476016
-0.001852759 -0.0017009884 0.11700363 0.11494542 -0.16715817 -0.078981884 0.030907555 -0.045448773
0.054590967 0.06235025 -0.01246333 0.18383297 0.031124508 0.013898262 0.13020688 -0.023569811
-0.008026226 0.070443615 0.009789914 0.011421619 0.06592477 -0.043097883 0.017931294 0.09181959
-0.06910124 -0.051582094 0.19365704 -0.09658351 0.05108827 0.015456435 -0.04491668 -0.031404905
-0.011340925 0.06875769 -0.07277615 0.04497634 0.041166093 0.022749903 -0.06062731 0.07208836
0.16315812 0.07833526 0.05643878 0.030268637 -0.020747412 -0.070304416 0.11915176 0.08661187
0.018494314 -0.07976559 -0.07373445 -0.062394656 -0.10619923 -0.04527258 0.08812088 -0.05436565
-0.029391466 0.011816379 -0.056317315 0.07008381 0.06523397 0.00908263 -0.016482336 0.027821628
0.10474373 -0.0017045946 -0.077329084 0.048868652 -0.11949037 -0.15193872 -0.06328674 -0.046625316
0.00932328 0.19558905 0.12415004 0.08612888 -0.013196639 -0.018443901 0.03382462 0.005086281

conv2.bias f4 [32]
00000000: 9879 2e3d 4f89 993c 57dd 67bb 5ded 53bc
00000010: 2dc5 a4bc 3757 babb 0e4f 2fbd dabc 053d
00000020: 7b0a 01bd 9852 81bc b80a 263c 3d92 233c
00000030: b8da 9a3d 2c59 353d 44da 61bc 408a e6bc
00000040: 61c3 fabb d2a7 b23c 5dcc 7f3c 9031 453d
00000050: 59a9 35bd e37e b2bc 798c a53c 6140 1b3d
00000060: 2bcd 48ba 19d6 673d 79fd 3c3d dfca eb3c
00000070: 851a 853d 54ca cfbc 0b3d 8e3c f846 f23b
0.04259643 0.018742232 -0.0035379732 -0.01293501 -0.020113552 -0.0056866664 -0.0428 0.032650806
-0.031504136 -0.015786454 0.0101343915 0.009983596 0.075612485 0.044274494 -0.013784949 -0.028142095
-0.0076526855 0.021808539 0.015612689 0.04814297 -0.044350956 -0.02178902 0.020208584 0.037903193
-0.0007659967 0.056600664 0.046140168 0.02878326 0.06499199 -0.025365032 0.017363092 0.007393714
