Ratio_same/checkpoint_step_0050.pth (torch_old, 541543 bytes, 24 tensors)

momentum_buffer f4 [3]
00000000: 220b fbbd 6191 6dbd 3da9 b43d
-0.12257983 -0.057999972 0.08821342

momentum_buffer f4 [3]
00000000: 3fa8 6c3c ea70 df3d 476c 7cbd
0.01444441 0.109102085 -0.0616267

momentum_buffer f4 [32, 3, 5, 5]
00000000: 8e4c 6e3b 7a47 08bb 41d6 bdbb 64c8 19bb
00000010: eebe af3a 7447 1e3c a585 d03b 060d 5b3b
00000020: 75a8 7c3b f2a8 ba3b 96c4 333c 762e 1b3c
00000030: e7ef 1f3c ba48 463c 8029 4d3c 23da 6f3c
00000040: be0c 4a3c a7cf 413c a8b6 703c 3b8a 863c
00000050: 2769 893c 9b00 623c 8ccf 383c 7f09 543c
00000060: 8a94 7c3c ae78 c73b 2071 b939 7113 54bb
00000070: 74ad 8bb9 197a 403b a3b7 3c3c 3e4c ff3b
00000080: fa72 a83b 34e0 d23b 4513 f93b 7ad3 513c
00000090: 0c8b 303c a750 3f3c ff24 643c 23c5 6c3c
000000a0: d337 8b3c 0bc7 6a3c d22b 683c eef4 893c
000000b0: 0251 963c 20bf 9a3c 8a51 803c dce5 553c
000000c0: 4644 693c 0e89 893c 9c44 483c e736 e53b
000000d0: 13d5 5d3b 7c63 c23b 3b39 173c fcb6 903c
000000e0: 0bb8 733c 6d5c 383c 7501 513c b871 563c
000000f0: 441a 9e3c d229 8d3c fef7 8b3c 0b1e a03c
00000100: e555 9e3c 25a8 bf3c 6067 a73c c6ed 9c3c
00000110: 203f b03c a06b bb3c e049 ce3c 1acb ae3c
00000120: 0c21 8f3c ca7e 9d3c 2a7b af3c 1057 e8bb
00000130: c8e6 07bc a938 10bc adca 07bc 660d f3bb
00000140: e141 b0bb 10a0 dbbb 1cde e3bb d317 e5bb
00000150: d6f8 c9bb 4fe3 4ebb 986c 52bb 6d89 6cbb
00000160: ecad 4dbb 01c5 5abb fcd6 70ba e9d1 adba
00000170: ea2f 5dba aade d4b9 7c8a 48b9 20c4 d239
00000180: ee39 2d3a fc27 e538 3545 383a 1c1f 5d3a
00000190: 34d0 fbbb bc1a 12bc 2674 13bc d0e9 0dbc
000001a0: 0aef 03bc a564 c2bb 09c2 efbb f818 f5bb
000001b0: b2ea eebb 6e2e cebb 98c3 75bb 6abb 8bbb
000001c0: 262f 99bb 1acd 89bb 391d 81bb 3dc7 f2ba
000001d0: 3ee3 0abb c1e4 dcba 3a43 a3ba e6f2 81ba
000001e0: 3caa 01ba 7288 35ba 0024 92b9 20ea 133a
000001f0: feb8 6c3a 1e10 51bc 19d4 64bc e1b1 64bc
00000200: f3cc 5ebc 0024 4ebc 852a 35bc 7659 42bc
00000210: bafc 3dbc e777 43bc eb68 35bc 430e 09bc
00000220: be58 0bbc e386 06bc e115 01bc bb54 07bc
00000230: 0a70 c8bb 3a88 cdbb 4653 bfbb fcf8 b6bb
00000240: 54d7 afbb 2913 99bb 2f84 a6bb 89e7 67bb
00000250: 1963 70bb 8a62 40bb e83a 58bc 016d 71bc
00000260: 3ea5 6dbc 8826 70bc 1d49 78bc d9de 5ebc
00000270: e38f 7cbc 5fe9 86bc ed53 7cbc be6e 83bc
00000280: e793 54bc cc98 67bc 1f9f 6bbc 21cd 5fbc
00000290: e69a 76bc 10a0 4bbc 7999 6abc 6dee 59bc
000002a0: 88a3 36bc b853 45bc bc42 44bc 6955 61bc
000002b0: 4874 6abc 9f34 5dbc 070d 68bc 05eb 94bc
000002c0: d1c0 9abc d847 97bc c16f 95bc 8d1c 9abc
000002d0: 5737 95bc c694 9cbc d8d6 a7bc 6522 a1bc
000002e0: 00d7 a3bc 8f26 92bc 49bc 96bc a356 9abc
000002f0: 4777 93bc bb97 9ebc 921d 91bc bc39 99bc
00000300: 6e79 91bc 42f0 80bc 7056 8abc 8fac 88bc
00000310: d063 9abc 4404 98bc 1dfb 8ebc 2eac 92bc
00000320: 1217 86bc 3cdf 8fbc a4c4 8ebc ddcf 8fbc
00000330: 3a17 9ebc c971 8ebc 4d49 93bc 3d9d 9bbc
00000340: d6d3 9ebc d8a1 abbc 1b91 8bbc ac1a 8dbc
00000350: 7998 93bc 95e7 93bc 6241 9ebc 4cb7 8abc
00000360: edf6 8ebc c64c 8cbc f0ca 80bc 6851 8fbc
00000370: 6f5c 84bc 66a9 96bc 4dc1 96bc d347 8ebc
00000380: 0e53 9abc cc5d debc 5a46 ddbc c59a d1bc
00000390: 950b d1bc 56a3 debc 86c2 cbbc cd20 cbbc
000003a0: 7cd1 c4bc 8d0f c0bc b127 d1bc 5b0d bcbc
000003b0: f808 b7bc 0627 afbc 2492 acbc dbfd babc
000003c0: f9af b2bc 3c27 b0bc 996c a6bc 79f6 a0bc
000003d0: 78dc a9bc b6c2 bebc 7690 c3bc 74f6 b7bc
000003e0: ae0b b3bc c239 c0bc 75b7 b2bc b6e7 b5bc
000003f0: f670 b4bc 5c74 b5bc 1808 bbbc 17be a4bc
0.0036361548 -0.0020794556 -0.0057933633 -0.002346539 0.0013408342 0.00966059 0.006363588 0.003342451
0.0038552557 0.0056964094 0.010972163 0.009471526 0.009761787 0.0121023 0.012522101 0.01463941
0.01233214 0.011829293 0.014691986 0.016423335 0.016773773 0.01379409 0.011279952 0.012941717
0.015416274 0.006087384 0.00035370234 -0.003236022 -0.0002664138 0.002936965 0.011518392 0.007791071
0.0051406594 0.0064354185 0.007601174 0.012806768 0.010775339 0.011676944 0.013924836 0.014451298
0.016994392 0.014329682 0.014170604 0.016840424 0.018349174 0.018889964 0.01566388 0.013055291
0.014237469 0.016788986 0.012223389 0.0069950703 0.0033848926 0.0059322696 0.009229953 0.017665379
0.014875422 0.011252505 0.012756695 0.013088636 0.019299634 0.017231856 0.017086025 0.019545576
0.019328067 0.023395607 0.020435035 0.019156348 0.021514475 0.022878468 0.02518171 0.02133708
0.017471813 0.019225497 0.021421034 -0.007090457 -0.008294769 -0.008802571 -0.008288068 -0.0074173687
-0.005378947 -0.0067024305 -0.0069539677 -0.0069913655 -0.0061636968 -0.0031568592 -0.0032108184 -0.0036092654
-0.0031384183 -0.0033381584 -0.00091873086 -0.0013261411 -0.00084376207 -0.0004060169 -0.00019125076 0.00040200446
0.00066080585 0.000109270186 0.00070293556 0.00084351166 -0.007684732 -0.008917507 -0.00899986 -0.008661702
-0.008052597 -0.005932408 -0.007316832 -0.007479783 -0.0072911615 -0.006292156 -0.0037500616 -0.004264285
-0.00467481 -0.004205358 -0.003940251 -0.0018522512 -0.0021192576 -0.0016852842 -0.0012455948 -0.0009914308
-0.00049463264 -0.0006924934 -0.00027874112 0.00056424923 0.00090302515 -0.01276019 -0.013966584 -0.013958425
-0.013598668 -0.012581825 -0.011057501 -0.011862149 -0.011595899 -0.011930442 -0.011072378 -0.008365217
-0.0085050445 -0.00821087 -0.0078787515 -0.008259947 -0.0061168717 -0.006272343 -0.0058387844 -0.0055838805
-0.0053662453 -0.0046714735 -0.0050816755 -0.0035385808 -0.003668016 -0.002935561 -0.013197638 -0.014735461
-0.014504729 -0.014657624 -0.01515415 -0.013602936 -0.015415165 -0.016468702 -0.015400869 -0.016044017
-0.012974716 -0.014135551 -0.014381199 -0.013659746 -0.015051579 -0.012428299 -0.014318817 -0.013301474
-0.011147387 -0.012043886 -0.011978801 -0.0137532735 -0.01430995 -0.013501315 -0.014163262 -0.018178472
-0.01889077 -0.018466875 -0.018241765 -0.018812442 -0.018214865 -0.01911391 -0.020488188 -0.01966972
-0.01999998 -0.017840652 -0.018400328 -0.01884014 -0.018001212 -0.01935946 -0.017714296 -0.018704288
-0.017758097 -0.015739564 -0.01688692 -0.016683845 -0.018846422 -0.018556722 -0.017453725 -0.017904367
-0.016368423 -0.017562501 -0.01742775 -0.017555172 -0.019298185 -0.017388241 -0.017979288 -0.018995875
-0.01938812 -0.020951197 -0.017036965 -0.017224632 -0.01801704 -0.018054763 -0.019318286 -0.016933106
-0.017451728 -0.017126452 -0.015721768 -0.017494872 -0.016157357 -0.018391322 -0.01840272 -0.017368233
-0.018838432 -0.027144335 -0.027011085 -0.025586495 -0.025518218 -0.027177494 -0.02487303 -0.024795914
-0.024025671 -0.023444915 -0.025531622 -0.022955587 -0.022343144 -0.021380913 -0.021065779 -0.022826126
-0.021812426 -0.021503083 -0.020315455 -0.019648777 -0.02073501 -0.023286205 -0.023872595 -0.022456385
-0.021856155 -0.023465041 -0.021815995 -0.022205215 -0.02202652 -0.022150211 -0.022831008 -0.020110173

momentum_buffer f4 [32]
00000000: f610 b8bc e632 8cbc 3e52 7c3c 8704 c9bc
00000010: 9e99 b9bb 6010 773a 0f37 e93b ed97 8d3b
00000020: aa0c 32bb 3c69 073d c7b1 ff3c 4812 86bc
00000030: b150 05bc 9a9b ecbb fd78 fdbb da36 1d3c
00000040: 2327 91bc 878b 0ebd 6114 b4bc b825 363c
00000050: a0ee 973b baf1 253c fbb0 ed3b df47 65ba
00000060: ee4a ca3b b258 3ab9 b420 8d3b e2e5 dcbb
00000070: 9825 a53b cd19 f9bb 2b2d 5fbc 8106 45bc
-0.022469025 -0.017114114 0.015400467 -0.024538292 -0.0056640645 0.00094247423 0.007117159 0.0043210895
-0.0027168193 0.033059344 0.0312127 -0.016366139 -0.008136914 -0.0072206976 -0.00773537 0.009595597
-0.017718857 -0.034801032 -0.021982374 0.011117391 0.0046366006 0.010128433 0.0072537637 -0.00087463664
0.006173483 -0.00017771384 0.004306877 -0.0067412714 0.005039882 -0.0076019526 -0.013621609 -0.012025476

momentum_buffer f4 [32, 32, 3, 3]
00000000: 38bd baba 89e2 9dba b337 65ba 1c22 03bb
00000010: 2f38 abba 005e 89ba c6b0 fdba e05f fdba
00000020: 309b a0ba ee51 b93c faa0 ba3c 0641 b73c
00000030: f9df a63c 13ce a03c e62b a43c 0686 a33c
00000040: 374e a23c 24df 9f3c 3ac5 9e3a 49e4 9939
00000050: b4e2 353a 859e 683a fa42 663a 8e7b 463a
00000060: d028 1a3a 7cb1 923a d9c6 94ba 1592 423c
00000070: b124 4f3c c8a1 373c e462 393c 55b3 2d3c
00000080: 000c 303c 0e1d 523c 7f4f 443c 536f 363c
00000090: 862d 9eb9 6038 18ba 6640 92ba 3c16 a5ba
000000a0: 0164 8eba 1734 95ba 7a96 beba 64d7 9eba
000000b0: 3caa f1ba f714 39ba 3a9e 36ba 56f4 80ba
000000c0: dac4 84b9 f886 e5b9 599e b2b9 bd5f 8cba
000000d0: abf0 39ba 2a45 87ba c067 d539 28e2 7a37
000000e0: bb04 ff39 8e92 cbb8 4953 15b9 3911 1a3a
000000f0: e5ca 2239 bed7 41ba f004 5537 a84d 8b3a
00000100: 2636 b23a a841 ce3a f158 033b 76b3 e43a
00000110: 8e6b 6c3a 7dc5 a33a 945c 803a b8ee 8f3a
00000120: 78e4 e83b fb8d d03b d39c d33b 6dd7 843b
00000130: 5c12 b23b 91a8 a73b fcf8 903b e2e5 833b
00000140: 3205 8f3b aac9 1ab9 003c 50b9 b0be 7438
00000150: 6f30 88ba 3633 0fba 981e 2e3a 4a91 2dba
00000160: 6a0a e3b8 6687 bbb8 9ca7 ab3c 938c ad3c
00000170: 78bb ab3c 893c 9f3c 8071 a83c e39d a13c
00000180: d00d a73c 0ff5 b23c 74a1 a73c 85b8 043c
00000190: b624 053c 9384 003c 69cb de3b d0f2 de3b
000001a0: b2b8 f13b 5c82 e63b 9e05 013c e96c e53b
000001b0: 123c 5aba 3338 6c39 b941 503a 4688 1fba
000001c0: 7e46 bdb9 8462 38b9 b62d 82ba e59f c0ba
000001d0: 1a5d 0339 7082 96b8 cc24 83b9 2414 dcb8
000001e0: 5e43 17ba 390f 25b9 d6dc 4cb9 ecb4 aeba
000001f0: 7931 06ba c2a9 ccb9 06c5 a53a 2825 a33a
00000200: 8647 383a 946d de3a 1abe 863a ae54 093a
00000210: f2fa b13a 1e38 013b ddb2 a23a ca6b b63a
00000220: 487c 9d3a ce3e ac39 729e d03a fa25 b93a
00000230: 83b1 ec39 51c7 af3a d95c 8b3a 4061 65b9
00000240: 284b 9c3c c074 953c c053 9b3c 4666 913c
00000250: a92c 913c e8dd 963c 3a4b 933c aab6 8e3c
00000260: 4c3b 943c 72fb dbba 29f2 9cba 4cf0 7bba
00000270: 64a4 efba d875 fcba 5f4c daba 43bc 10bb
00000280: 0bdd 4dbb ead7 19bb de0e c2ba 9234 b9ba
00000290: 1c9d e7ba 6a9e 00bb 6859 37bb 7bc2 26bb
000002a0: f535 e8ba e064 39bb b567 79bb ae39 7b3c
000002b0: bbd4 7e3c 4421 823c f144 733c 9ad2 723c
000002c0: af5d 673c 3e03 7d3c e12b 853c 7e09 823c
000002d0: 1127 8cba e650 57ba e638 fab8 5227 d5b9
000002e0: 50e2 a1b8 cc52 c838 dcb6 b7b9 f23a b339
000002f0: 5e7e aeb9 e102 3f3b 03db 623b 7421 203b
00000300: 803a 1b3b 0e69 303b 973f 0c3b 6265 183b
00000310: d41e 223b cdd7 c83a 2f17 323b 7e52 4f3b
00000320: d235 273b 6e5a f63a d8b0 503b aa01 f83a
00000330: a119 243b af41 1a3b 3ed5 133b 5896 223b
00000340: 9e63 343b e088 563b fa81 013b c441 363b
00000350: 83ef 403b b15a 243b 03b7 193b e850 573b
00000360: d0a2 1e3b 2828 103b 7be4 113b 2cfc 303a
00000370: 5647 243a 86be 1d3a 03d9 8b3a ecc1 983a
00000380: 8333 9c3a 3587 2e3b 0bec 193b baa5 033b
00000390: 0f65 113b 7767 103b 502c 223b 20cd 253b
000003a0: 16ce 163b 64b8 013b b4ea 343a f80a b63a
000003b0: 5c50 ac3a 884e 443a b64f 303a 8cc7 573a
000003c0: 7419 af3a 16e1 623a 98b4 de39 ec15 173a
000003d0: 50e4 a2b6 6db1 bc39 ae57 92b8 1ebb 6039
000003e0: 4001 833a 30de 1e3a 88cc d039 0491 403a
000003f0: df4e a8ba b7ef 6fba 7814 8eb9 8444 4cba
-0.0014247065 -0.0012045662 -0.00087439566 -0.0020009344 -0.0013063009 -0.0010480285 -0.0019355051 -0.0019330941
-0.0012253281 0.022622075 0.022781838 0.022369873 0.02037047 0.019629514 0.020040464 0.019961368
0.019812686 0.019515581 0.0012113221 0.0002935252 0.00069383834 0.0008873719 0.0008783784 0.00075715117
0.00058807153 0.001119181 -0.0011350765 0.011875649 0.012643025 0.011208005 0.011315081 0.010601838
0.0107450485 0.01282431 0.011981844 0.01113494 -0.00030170026 -0.00058067404 -0.0011158108 -0.0012595127
-0.0010863544 -0.0011383322 -0.0014540695 -0.0012118635 -0.0018437575 -0.0007060314 -0.00069663266 -0.0009838443
-0.00025323668 -0.00043778843 -0.00034068784 -0.0010709685 -0.0007093052 -0.0010320295 0.00040703826 1.4953817e-05
0.00048640915 -9.707092e-05 -0.00014240773 0.00058772 0.00015525108 -0.0007394514 1.2696939e-05 0.0010628002
0.001359646 0.001573612 0.0020042027 0.0017448503 0.00090187124 0.0012494769 0.0009793215 0.0010981178
0.0071073137 0.0063645816 0.006457904 0.004054001 0.0054343175 0.00511653 0.0044242125 0.004025207
0.004364633 -0.0001476171 -0.00019858778 5.8351725e-05 -0.0010390411 -0.0005462648 0.0006642132 -0.0006621076
-0.00010826143 -8.942075e-05 0.020953946 0.021185195 0.020963416 0.019438045 0.020561934 0.019728607
0.020392329 0.021845369 0.020462729 0.0081006335 0.008126428 0.007844108 0.0067991507 0.006803848
0.0073767537 0.007034583 0.007874874 0.0070015085 -0.0008324991 0.0002252765 0.0007944364 -0.0006085675
-0.0003610141 -0.00017584307 -0.0009931836 -0.001469609 0.00012527817 -7.176853e-05 -0.00025013683 -0.00010494169
-0.00057702314 -0.00015741297 -0.00019537224 -0.0013329065 -0.00051190663 -0.00039036392 0.0012647219 0.0012446987
0.0007029701 0.0016969913 0.0010280043 0.00052387535 0.0013578816 0.0019717286 0.0012412925 0.0013917622
0.0012015188 0.0003285319 0.0015916361 0.0014125698 0.00045145684 0.0013410841 0.0010632529 -0.0002187537
0.019078806 0.018244147 0.018960834 0.017748963 0.017721491 0.01841636 0.017980207 0.017421085
0.018094681 -0.001678331 -0.0011974025 -0.0009610697 -0.0018283245 -0.0019261194 -0.001665484 -0.002208487
-0.003141227 -0.0023474642 -0.0014805456 -0.0014130047 -0.0017670724 -0.0019625672 -0.0027976874 -0.002544551
-0.0017716276 -0.0028288886 -0.00380562 0.015333576 0.015553649 0.015885003 0.01484798 0.014820719
0.014121457 0.0154426675 0.016256275 0.015873667 -0.0010692795 -0.0008213654 -0.00011931527 -0.00040655822
-7.719232e-05 9.552165e-05 -0.0003504072 0.00034185458 -0.00033282017 0.0029146003 0.0034615404 0.0024434002
0.0023685992 0.0026918086 0.0021400207 0.0023253788 0.0024737613 0.0015323103 0.0027174463 0.0031634863
0.0025514257 0.0018795261 0.0031843688 0.0018921394 0.002503969 0.0023537686 0.0022557522 0.002480885
0.0027525197 0.0032735392 0.001976131 0.0027810195 0.0029439635 0.002507847 0.002345503 0.003285462
0.002420593 0.0021996591 0.002226143 0.0006751444 0.00062667334 0.0006017465 0.0010669533 0.0011654473
0.0011917207 0.0026630883 0.002348664 0.0020087794 0.002218548 0.0022034326 0.002474565 0.0025299266
0.002301102 0.0019793743 0.00069014286 0.0013888767 0.0013146508 0.00074885087 0.0006725745 0.0008231334
0.0013359026 0.0008654756 0.00042477692 0.00057634595 -4.8545553e-06 0.00035990347 -6.978154e-05 0.00021432011
0.0009994879 0.000606033 0.0003982524 0.0007345828 -0.0012840888 -0.0009152847 -0.000270996 -0.0007792192

momentum_buffer f4 [32]
00000000: f881 a73c 3b06 72bb a7a6 beb9 e60b 84bb
00000010: 6b57 253a a777 4ebc ac04 34bc 7c41 c939
00000020: 2fbe e239 5223 bbba 0126 7dbc 47d1 bd39
00000030: 850b 4a3b 9668 d4bb 0638 e3bc caa9 293a
00000040: 104c 8dbc 7b67 123c d220 123a e4a2 5ebc
00000050: 2742 863a e1ea cb3a 57a0 c0bb 534f 2e3b
00000060: 4774 443c b160 0bba 8c83 51bc b79e 31bb
00000070: 4481 debc 52ee e03b 905f 1a3b e27a 14bc
0.020447716 -0.0036929983 -0.0003636379 -0.0040297387 0.0006307277 -0.0126017695 -0.010987442 0.00038386497
0.00043247777 -0.0014277494 -0.015450955 0.00036204813 0.003082962 -0.006482194 -0.027736675 0.0006472139
-0.017248183 0.0089358045 0.00055743486 -0.013588641 0.0010243104 0.001555767 -0.005878489 0.0026597574
0.011990613 -0.00053168373 -0.012787711 -0.0027102658 -0.027161248 0.0068643475 0.0023555495 -0.009062501

momentum_buffer f4 [64, 32, 3, 3]
00000000: c0ff 3537 0835 2139 003b 3f39 16c1 74b9
00000010: eb64 b738 93b5 ebb7 573c b739 64cf 2139
00000020: 6165 24b9 ffa1 84b8 db2e 3e38 c1b6 8db9
00000030: 7711 9bb8 86aa 41b9 fd53 fd39 95e2 5039
00000040: 719e dc39 f825 26b9 da4d e0b8 305c a936
00000050: 34df f0b8 2f41 17b9 428d be39 295a 073a
00000060: 1a66 13ba e4a3 23b9 4541 6539 6170 abb7
00000070: 04d9 3eb9 7fec a439 36dc 0ab9 e9ed dc39
00000080: 4413 5fb9 3d45 5d36 e62a d739 8a3b 8837
00000090: 947e 1939 c5bc 62b7 69dd b0b6 2626 e2b9
000000a0: 3c27 05b8 4d40 9b38 abb4 6639 fc6b 9bb9
000000b0: 02bb 5ab8 6c4c 14b9 16e2 a8b9 d305 493a
000000c0: 9269 6fb9 966b 96b8 0d53 b0b7 e462 f738
000000d0: 457e 92b8 8420 8f37 48c7 10b8 8267 83b9
000000e0: 9796 d6b9 401a a139 d21d efb6 24ce 9139
000000f0: 85e7 0339 1fb9 a3b8 7eef 73ba 703d 9bb8
00000100: 1cef f8b8 83e1 ce39 24be eeb8 8b11 9cb9
00000110: 7322 323a e56a 59b9 5a8c 2338 bb90 b3b9
00000120: aee1 b138 b55f a739 93d5 0cb9 beb6 4039
00000130: 59f7 27ba 8bb9 7938 3bf1 fb38 2309 4db7
00000140: 2496 5ab7 3e04 a139 125f a639 f8b0 87b8
00000150: 2075 2eb9 ca12 19b9 13b1 5bb8 0128 1039
00000160: eb48 3f39 ce37 c8b9 8c9f 0dba 4d31 6f38
00000170: 79b5 9a38 6596 243a e724 4b39 888b 81b9
00000180: be92 5e39 1a74 9db9 c6f6 60b9 72b3 81b9
00000190: 96b6 85b9 b302 17ba f69b 5eb9 a24c 7bb8
000001a0: c433 25b9 3e59 c2b9 028a feb8 34c1 2639
000001b0: f1af c5b7 ef01 89b9 ae94 5b36 8a79 2539
000001c0: 52db 8cb9 e4ee ca38 7c14 49b8 91b6 9139
000001d0: efac e8b9 fe7b 0039 f8f6 78b7 6d80 f0b8
000001e0: 6a40 99b9 3457 44b8 a4a9 c835 4e0c 7d39
000001f0: 8e1e c6b9 52c2 ceb9 f664 1238 5558 1e3a
00000200: ff53 0c39 e484 ee38 951c a339 7f03 40b9
00000210: 4fb3 6936 f125 ca39 f27e 2439 00e8 d339
00000220: 2b82 88b9 5549 85b9 bb05 f9b8 8439 28b9
00000230: afcf 0439 98d6 12b9 654e ae38 0d84 0cba
00000240: 87bf 1139 fef9 89b9 5c99 0439 7372 cb39
00000250: a8ac 9fb8 0e03 3139 a637 84b8 b63b 6339
00000260: c5d4 6b39 3e27 cdb8 467c a739 9cc8 ffb9
00000270: 7806 9739 731e 2a39 32b8 c239 46f9 8538
00000280: 946c 8439 af20 3139 a478 0eba c647 29b9
00000290: fe9d 82b9 51e9 b239 c31b f2b9 c802 e739
000002a0: cc2c 6db9 94d4 3fba f390 89b9 5ffb d839
000002b0: c905 5839 ace4 50ba 3249 7fb8 24b5 c7b5
000002c0: 3d5b e1b9 ca04 4ab8 bbc3 3239 7d1c 133a
000002d0: 5df1 79b9 5e5a 7f39 0cf3 193a 0a71 6b39
000002e0: 121e 25b9 facf f538 c803 4138 fe79 1b39
000002f0: bd7d 54b8 6d8c 65b8 a892 b9b7 bc8b d638
00000300: 8ad7 82b9 eb7f f8b9 cd00 05b9 c348 bbb9
00000310: c6cc 363a 66f6 28b9 a0f7 b9b9 f487 ba38
00000320: 64fe a839 a842 b739 56e6 45b9 1e3b 17b9
00000330: 261a 9db9 d765 8039 978e b939 c87b 5fb9
00000340: 64dd 58b9 8f41 e438 5ea2 2b37 a207 0f3a
00000350: f056 4a39 5e51 ea39 15ef cb39 3750 6cb9
00000360: b882 edb8 f9e3 55b9 a92e d538 406f 8039
00000370: dbf5 15ba 125e d0b8 09cc 06b8 2774 9cb9
00000380: 0d5c 2d3a 4a00 29b9 ea39 a939 7248 80b9
00000390: 1d77 f8b9 79e5 a3b9 35a5 5139 d368 24b9
000003a0: 870e 07b9 bbd4 90b9 a040 1639 a8ee c3b9
000003b0: 5b4d ae39 78bf b9b8 d6e0 c3b9 a879 c338
000003c0: 64bc b3b9 da92 fb39 6d77 08ba 6cc3 0a3a
000003d0: 1243 a439 9d61 31ba e722 ae39 16cf a739
000003e0: 3c8f b0b9 d9bf bcb9 38ab ebb8 37a8 e039
000003f0: 432f 9839 9a01 e9b9 af72 a0b9 0a21 e3b8
1.0847987e-05 0.00015373912 0.00018237159 -0.00023341583 8.7449174e-05 -2.8098735e-05 0.00034949437 0.00015431416
-0.00015678025 -6.3244246e-05 4.5343168e-05 -0.00027029778 -7.394229e-05 -0.00018469439 0.00048318497 0.00019920834
0.00042079718 -0.00015845138 -0.00010695653 5.0473245e-06 -0.000114856666 -0.00014424765 0.0003634487 0.0005163276
-0.00056228193 -0.00015605945 0.00021863457 -2.0437119e-05 -0.00018200657 0.0003145672 -0.0001324274 0.00042138927
-0.00021274114 3.2971868e-06 0.00041039957 1.6240188e-05 0.00014638371 -1.3514601e-05 -5.2709843e-06 -0.00043134502
-3.174621e-05 7.402953e-05 0.00022001813 -0.00029644358 -5.2149415e-05 -0.00014142849 -0.00032211904 0.00076684094
-0.00022832144 -7.172597e-05 -2.1019508e-05 0.000117962976 -6.985342e-05 1.706207e-05 -3.451787e-05 -0.00025063386
-0.0004092946 0.0003072787 -7.1262266e-06 0.00027810142 0.00012579381 -7.806927e-05 -0.00093054015 -7.4024196e-05
-0.00011870099 0.000394594 -0.00011384141 -0.0002976771 0.00067952945 -0.00020734554 3.899294e-05 -0.00034249373
8.482054e-05 0.0003192403 -0.00013431003 0.00018378624 -0.0006407402 5.9539027e-05 0.00012013545 -1.22210795e-05
-1.302877e-05 0.00030711474 0.0003173282 -6.4702646e-05 -0.00016637566 -0.00014598217 -5.2378582e-05 0.00013747813
0.00018242344 -0.0003818855 -0.00054024975 5.7027955e-05 7.377094e-05 0.0006278514 0.00019373336 -0.00024708756
0.00021226236 -0.00030031876 -0.00021454235 -0.00024738495 -0.00025503774 -0.0005760595 -0.0002122967 -5.9914433e-05
-0.0001575491 -0.00037069054 -0.0001213737 0.00015902967 -2.356616e-05 -0.00026132117 3.2720086e-06 0.00015780903
-0.00026866287 9.6766074e-05 -4.7941212e-05 0.00027792578 -0.00044379334 0.00012253222 -1.4839454e-05 -0.00011468013
-0.00029230426 -4.6811256e-05 1.4950533e-06 0.00024132544 -0.00037788268 -0.00039436162 3.490314e-05 0.0006040384
0.00013382731 0.00011373477 0.00031111078 -0.00018311849 3.4824077e-06 0.0003855671 0.0001568755 0.0004041791
-0.00026036924 -0.00025422373 -0.000118743126 -0.00016043155 0.00012665869 -0.00014003587 8.311569e-05 -0.0005360253
0.00013899627 -0.00026316935 0.00012645632 0.0003880445 -7.6138705e-05 0.00016881173 -6.304616e-05 0.00021670651
0.00022490609 -9.782471e-05 0.00031945313 -0.00048786856 0.00028805784 0.00016223807 0.000371398 6.388365e-05
0.000252579 0.00016892211 -0.0005434847 -0.00016143834 -0.00024913246 0.0003412464 -0.0004617852 0.00044061826
-0.0002261877 -0.00073177484 -0.00026238672 0.00041386017 0.0002060152 -0.0007968645 -6.0864906e-05 -1.4879374e-06
-0.00042983322 -4.8165013e-05 0.00017048318 0.000561185 -0.00023836405 0.0002435236 0.00058727036 0.00022453457
-0.00015746828 0.00011721249 4.6018307e-05 0.00014827398 -5.066184e-05 -5.4728636e-05 -2.212201e-05 0.00010230343
-0.0002495612 -0.00047397552 -0.00012684167 -0.0003572163 0.00069732626 -0.00016113519 -0.00035470445 8.8944944e-05
0.00032232993 0.00034954143 -0.00018873191 -0.00014422505 -0.00029964856 0.0002448994 0.00035392187 -0.0002131305
-0.0002068184 0.000108840984 1.0230198e-05 0.00054561545 0.00019296608 0.0004469258 0.00038897307 -0.00022536596
-0.00011325389 -0.0002039819 0.000101653226 0.0002449695 -0.0005720534 -9.935735e-05 -3.2138112e-05 -0.0002984118
0.0006613143 -0.00016117204 0.0003227734 -0.00024468038 -0.00047390992 -0.00031260753 0.00019993338 -0.00015679309
-0.00012880015 -0.00027624317 0.0001432919 -0.0003737111 0.000332455 -8.857151e-05 -0.00037360814 9.320985e-05
-0.00034281902 0.00047983864 -0.0005205784 0.00052934024 0.0003133049 -0.00067665597 0.0003321387 0.00032007013
-0.00033676054 -0.00036001092 -0.00011237565 0.0004284994 0.00029026912 -0.00044442416 -0.00030603024 -0.000108303575

momentum_buffer f4 [64]
00000000: 082e 3c39 bcab 83bb 60fb 4bbb 3013 963a
00000010: c1f5 4abb 114b 923a 69b7 5db9 8cf8 4ebb
00000020: 3da7 da36 8b3c 1d3a 3a79 063a 8d70 aa3a
00000030: e244 1fb9 808e c0bb b1f4 833a b7b1 00ba
00000040: 756a 5bba 2da5 6238 a2d3 63ba c8a1 14bb
00000050: 0079 42bb 427b 8fb9 fbf1 8fbb 7a0f 883a
00000060: ca81 4437 1ffb 8f3b 7d61 a637 de10 22bb
00000070: adea e439 3127 07bc 7bc7 44bb ff59 d3bb
00000080: dd91 f539 6c1f ebbb 8e3e 1a3b ae96 723a
00000090: ea45 42ba 12e0 46bb 0b83 1fba f77b 8f39
000000a0: 9233 20bc 459b 433b 70c1 04bb d7d8 083a
000000b0: ed3c b3bb bec7 46ba 3263 d53b e59b b938
000000c0: 1d37 ddba 31ef a6b9 307d d93a 4240 fab9
000000d0: d174 3abb 2eb6 023a fe5e feba a4b9 d4ba
000000e0: 6a5f 3d3a e9d7 a939 d09d beb9 006a ebba
000000f0: 26a7 0b3b a041 d2b9 8345 1c3b 1238 13bc
0.00017946225 -0.004018275 -0.0031125173 0.001144981 -0.0030969235 0.0011161288 -0.00021144528 -0.003158125
6.5163754e-06 0.00059980963 0.00051297585 0.0013003513 -0.00015189082 -0.0058763623 0.001006743 -0.0004909294
-0.00083700503 5.403643e-05 -0.00086908985 -0.0022679437 -0.0029674172 -0.0002736692 -0.00439286 0.0010380589
1.1712729e-05 0.0043939496 1.9834139e-05 -0.0024729292 0.00043662396 -0.00824909 -0.0030026126 -0.0064499374
0.00046838718 -0.0071753766 0.002353582 0.00092540204 -0.00074109307 -0.0030345959 -0.00060848956 0.00027367446
-0.00977792 0.0029847187 -0.00202569 0.00052203 -0.0054699094 -0.00075828645 0.006512069 8.850525e-05
-0.0016877387 -0.000318402 0.0016593095 -0.00047731592 -0.0028450976 0.00049862533 -0.0019406972 -0.0016229642
0.00072239956 0.00032395057 -0.00036357203 -0.0017960668 0.0021309345 -0.00040103216 0.0023845143 -0.008985536

momentum_buffer f4 [64, 64, 3, 3]
00000000: a7bc d838 dd09 fdb9 72d6 ba38 5f2d 94b8
00000010: f4b1 ec37 b335 07ba c858 1338 7202 dbb9
00000020: cc44 cb38 be3a a2ba 5d8a a0ba d2bd 4fba
00000030: a434 3bba b173 2fba ff58 cab9 bf4f 8eba
00000040: b06b b6ba 9f99 93ba 95bb 46ba 5524 93b9
00000050: 85e1 2339 5a70 9db9 257c aab9 8022 4439
00000060: 8458 42b9 6cf9 dab9 722f 8ab9 7321 f3ba
00000070: 7cb8 c5ba 155f d8ba 095a b2ba 0689 c1ba
00000080: ad4d c6ba a326 e9ba dd34 ecba dea7 00bb
00000090: dbc7 12bb 6829 dcba 0e1a baba 7cfb bbba
000000a0: 4305 41ba c9c5 98ba f293 b5ba c985 a7ba
000000b0: 6a1b b8ba 8af1 31b8 9309 95b9 c055 f4b8
000000c0: 244d dfb9 d515 be37 3e97 d639 1f4d 80b9
000000d0: 7275 04b8 038e 5ab9 148c 5e38 426a 8cb9
000000e0: a85d 22ba 565d 6db8 d36d 3e39 582d 09b9
000000f0: 3f2f 9eb9 0bd2 8e39 624b 1db8 fc31 86ba
00000100: 34b6 2bba ba67 c2ba e804 55ba 40d2 feb9
00000110: ee60 15ba 1dc3 c0ba f89a 2fba b934 91ba
00000120: 0d64 0f3a 420a 5738 0742 0c39 84c3 0eb9
00000130: 2915 b238 936f 50b9 75d6 c139 248a a439
00000140: 8d92 44b8 16d0 e1b9 8fff ceb8 13b5 2a39
00000150: cd88 3738 22a7 c739 2207 9e38 8459 35b9
00000160: f3eb 93b8 dc69 c0b8 6f65 a3b9 5980 1ab8
00000170: 42b7 79b9 6e65 bf39 ff3d 0e39 c712 2e37
00000180: 99b5 53b9 bb3e 6038 92fe 44b7 2ca8 05bb
00000190: 1e2f e5ba 994a e4ba 7d59 f2ba 2f09 beba
000001a0: 1079 0bbb e1d7 0bbb 631f f4ba 6cf8 28bb
000001b0: b3e5 10b9 d0a9 a738 b6a6 92b9 b8ef 4839
000001c0: d55e ec39 84e7 5339 9468 d139 0407 18b9
000001d0: 5884 a3b9 813f c5b9 0ff7 90b9 f586 bbb9
000001e0: 6487 a9b9 fe50 3fb9 849d 8039 afc9 d1b9
000001f0: d8e0 f3b9 1ced 23ba b9fe 24bb 0967 0ebb
00000200: 601f 1ebb 6167 10bb 7f40 e0ba 3a99 d3ba
00000210: 3c7a 06bb 28b6 09bb 04c8 24bb 31aa 11ba
00000220: e9c9 2039 b8d3 56b9 8970 27b8 a76e 3039
00000230: d20c a3b9 a2c9 d539 940c afb8 02b5 92b9
00000240: 086e 33ba 8e42 b0b9 2cb0 22ba d35c f2b9
00000250: 1651 2cba 0f14 e9b9 3ec8 26ba 91d4 0fba
00000260: 425b 80ba d696 dab8 5cdf 12b9 4c5b f1b9
00000270: fc28 1b37 8a00 b4b9 87fc 0cb9 52a3 a038
00000280: c883 d039 7a82 9639 2bfd 29ba 7096 cbb9
00000290: 202e 1738 6773 0539 a89a 0938 7e27 bab9
000002a0: 4d95 32b9 869c 04b9 d759 25b8 b808 f3ba
000002b0: 86d6 6aba 6268 b9ba 9fc0 61ba 9d8d 5eba
000002c0: eb67 a0ba 7b26 6bba cbda 2bba 96a7 a7ba
000002d0: f3fb 98ba 8676 8bba 5d9a 8fba 0c63 a0ba
000002e0: e410 a6ba 9a29 9cba 2985 86ba 25a5 8bba
000002f0: 2ba6 9eba 3537 45ba 932f 87b9 4b65 10ba
00000300: e0c9 2eb9 0863 e1b9 9f32 3439 9a66 f9b7
00000310: c350 6ab9 3c05 cf37 e32d 21ba 4a2a 95b8
00000320: b2fb 00ba 682b cdb9 ccb7 04ba c0ba 68b9
00000330: 6c51 7039 b88c 2239 53ec 14ba 8591 88ba
00000340: 2139 edb9 b85f 23ba d62e b9ba 1455 94ba
00000350: 89cd 89ba 77b8 81ba 30c4 42ba 6cad 72ba
00000360: 707d 9836 9ca5 f8b7 f3e5 a0b6 f918 3bb9
00000370: 05e7 dd39 e3e6 b838 e0f1 d039 72f8 deb9
00000380: 8853 18b9 a252 e239 df90 5bba 9e7a fb38
00000390: af3b d4b9 0760 ecb9 9873 aeb9 91b0 b737
000003a0: fb54 a1b9 4df8 07ba cf60 c6b9 eca2 9f39
000003b0: 1b4d 3eb9 979b 4939 04fb 7839 7b09 d938
000003c0: 102e c939 22ca dc39 041f dc39 9a35 dfb9
000003d0: 932c 44b9 ba01 51b8 71a3 2eba d69b 2fb9
000003e0: 8034 e3b9 7ce9 08b9 c266 eeb8 f631 11b9
000003f0: 9ee3 88ba d029 38ba 2c80 6bba 34f2 bbba
0.00010334822 -0.0004826327 8.909115e-05 -7.065641e-05 2.8216258e-05 -0.0005157843 3.5130215e-05 -0.00041772757
9.692609e-05 -0.0012377126 -0.0012248267 -0.0007924709 -0.0007141328 -0.00066929596 -0.0003859475 -0.0010857506
-0.0013917591 -0.0011260993 -0.00075810525 -0.00028065094 0.00015628904 -0.00030029082 -0.00032517422 0.00018704869
-0.00018534256 -0.00041766034 -0.0002635676 -0.0018549397 -0.0015084888 -0.0016507829 -0.0013607155 -0.0014765568
-0.001512935 -0.0017788004 -0.0018021126 -0.0019631307 -0.0022396955 -0.0016797008 -0.0014198439 -0.0014341916
-0.000736315 -0.0011655624 -0.0013853295 -0.001278096 -0.0014046256 -4.242504e-05 -0.00028426628 -0.00011650799
-0.0004259135 2.2659931e-05 0.00040929945 -0.00024471522 -3.1580632e-05 -0.00020843004 5.3059382e-05 -0.0002678205
-0.00061937654 -5.659213e-05 0.00018160725 -0.0001308223 -0.0003017131 0.00027240845 -3.7501923e-05 -0.0010238285
-0.00065502827 -0.0014831938 -0.0008126036 -0.00048603304 -0.00056983426 -0.0014706586 -0.00066988124 -0.0011078335
0.0005469926 5.1269548e-05 0.00013376038 -0.0001361501 8.491643e-05 -0.0001987799 0.00036971612 0.0003138344
-4.6866528e-05 -0.0004307038 -9.870447e-05 0.00016279919 4.3758006e-05 0.0003808076 7.535356e-05 -0.00017294852
-7.053455e-05 -9.174991e-05 -0.00031165357 -3.6835994e-05 -0.0002381476 0.0003650593 0.0001356527 1.037558e-05
-0.00020190178 5.3464184e-05 -1.1741782e-05 -0.0020394428 -0.0017485355 -0.0017417251 -0.0018489804 -0.0014498587
-0.0021281876 -0.002133839 -0.0018625077 -0.0025782837 -0.0001381848 7.9948106e-05 -0.000279715 0.00019162789
0.00045084083 0.00020208774 0.00039941503 -0.00014498463 -0.00031188386 -0.00037622082 -0.00027649893 -0.0003576797
-0.00032335066 -0.00018245351 0.0002453142 -0.00040013852 -0.00046516093 -0.00062532886 -0.002517624 -0.0021728894
-0.0024127588 -0.0022034275 -0.0017109065 -0.0016143688 -0.0020519635 -0.0021013115 -0.0025143633 -0.00055566715
0.00015334006 -0.00020487502 -3.992071e-05 0.00016825889 -0.00031099335 0.00040776754 -8.346993e-05 -0.0002798215
-0.0006844704 -0.00033618923 -0.0006206061 -0.00046226996 -0.0006573362 -0.00044456168 -0.0006362236 -0.0005486692
-0.0009792822 -0.000104231454 -0.00014006853 -0.00046035124 9.248262e-06 -0.00034332677 -0.00013445514 7.659815e-05
0.00039771036 0.00028707442 -0.00064845633 -0.00038831262 3.6044163e-05 0.00012726859 3.280738e-05 -0.00035506109
-0.00017031022 -0.0001264681 -3.9422735e-05 -0.0018542027 -0.0008958358 -0.0014145488 -0.00086117716 -0.000848973
-0.0012238001 -0.00089702726 -0.0006555735 -0.0012791033 -0.0011671766 -0.0010640181 -0.0010956038 -0.001223655
-0.0012669829 -0.0011914254 -0.0010263073 -0.0010654075 -0.0012103965 -0.000752318 -0.00025784652 -0.0005508258
-0.00016669137 -0.00042989128 0.00017184996 -2.973089e-05 -0.00022346065 2.467876e-05 -0.00061485 -7.1127506e-05
-0.0004920318 -0.00039132987 -0.0005062788 -0.00022194814 0.00022918516 0.00015501946 -0.0005680967 -0.0010419345
-0.00045246727 -0.000623222 -0.0014128338 -0.0011316859 -0.0010513525 -0.0009896894 -0.0007429747 -0.0009257409
4.544556e-06 -2.9641022e-05 -4.795141e-06 -0.00017843013 0.00042324528 8.81681e-05 0.00039853062 -0.00042528246
-0.00014526967 0.00043167645 -0.00083757745 0.00011991452 -0.0004048026 -0.00045084974 -0.0003327399 2.189752e-05
-0.00030771628 -0.0005186841 -0.0003783763 0.0003044823 -0.00018148536 0.00019226815 0.00023744634 0.00010349132
0.00038372027 0.0004211227 0.00041984778 -0.0004257381 -0.00018708622 -4.983109e-05 -0.0006661928 -0.00016747354
-0.0004333593 -0.0001305695 -0.000113678645 -0.0001384689 -0.0010443812 -0.00070252735 -0.00089836377 -0.001433915

momentum_buffer f4 [64]
00000000: eb61 a7b9 7042 abba a2c7 4c38 7e90 c9ba
00000010: 817e 47bb fb18 2a3a 86e5 fa3a 9b12 723a
00000020: af7a 263b 0d06 b1ba 6da6 07bb 2b59 863a
00000030: b838 f1b8 c6fe 0c39 c422 b739 84d5 19ba
00000040: c380 2a3a 15c4 053b 1ff6 14b9 84ae 8eb9
00000050: c7c6 57ba fbb5 983a 2079 52ba a45a c2ba
00000060: f598 8dbb 8cee 41bb f732 c539 f07d adb9
00000070: 4e16 ebb9 bd53 823a 893d 4739 f91d 40ba
00000080: 3412 113a ea5d 9eba 5e99 01b9 628b 81ba
00000090: cad9 8839 b2de cf3a 0e70 b239 2727 d1ba
000000a0: 5159 9bb9 5d24 b7ba f8fa 65ba 1519 ac3a
000000b0: 4e3e 85bb b028 61bb 2d83 5abb 0196 84bb
000000c0: 6b97 3c3a 0558 4b39 355e bab9 f270 adbb
000000d0: 1b9b 8e3a e99a 3bba 85c8 e3ba 8c22 14bb
000000e0: 1c31 2139 5786 95bb 0369 0e39 949e 7a38
000000f0: df27 1d3a 0a9f 8cbb 8ca9 cfb9 a35f da3a
-0.00031925677 -0.0013066065 4.8823313e-05 -0.0015378145 -0.0030440392 0.0006488708 0.001914189 0.000923434
0.0025402715 -0.0013505832 -0.0020698563 0.0010249963 -0.0001150234 0.00013446351 0.00034930382 -0.0005868303
0.00065041723 0.0020411063 -0.00014206067 -0.00027214375 -0.0008231219 0.0011650914 -0.0008028913 -0.0014828038
-0.0043212124 -0.0029591648 0.0003761274 -0.00033090962 -0.0004483931 0.0009943169 0.00019001043 -0.0007328685
0.00055340235 -0.0012082432 -0.00012359532 -0.0009883458 0.00026102207 0.0015859215 0.00034034293 -0.0015957103
-0.0002963045 -0.0013972629 -0.0008773054 0.0013130034 -0.004066265 -0.0034356527 -0.0033342347 -0.004046202
0.0007194194 0.00019392378 -0.00035546874 -0.005293005 0.0010879965 -0.00071565673 -0.0017378485 -0.00226036
0.00015372451 -0.0045631337 0.00013581295 5.9752332e-05 0.0005995016 -0.00429142 -0.0003960844 0.0016660582

momentum_buffer f4 [1, 64]
00000000: c474 fe3b a136 043d afdc de39 9711 6ebb
00000010: 0043 84bc 6b16 f43b 6dc5 10bb dd0f e03c
00000020: 8dad 8eba a73e 87bc 25c1 cd3c 36b2 c23c
00000030: d3d0 2eb9 f104 e13b f24d 733c 9fc8 d33c
00000040: a53f b93c 6f45 1c3d 9080 423b b829 b93c
00000050: 18e7 703c a0b6 823c ced6 373d 469d 69bb
00000060: c693 38bd 5255 3bbc b728 ce3c 7b60 9738
00000070: e79e c9bb 0db7 0d3d 0b0a 43ba 5d85 5dbb
00000080: 30b6 b636 5998 aa3c 799a 6c3c 4525 b8b9
00000090: 6257 cab8 75c6 84ba fabf afbb 369b 34bc
000000a0: 6a89 42ba 2aec 39bc c7da 3cbc 14fc 453b
000000b0: f5df cfbc 4a40 b6bc 7534 c6bc 96df 03bd
000000c0: b2f4 323d 1098 6cb9 d0e8 95bc 9dd0 2ebd
000000d0: 5eaf f63c b5cc 513a 4ca5 fabb 8954 95bc
000000e0: ae9f 83b8 33cb 0ebd 59f4 303a 8dc0 06ba
000000f0: fc59 99ba af2e d1bc 29af 18ba 44fa a83c
0.0077653844 0.03227866 0.00042507562 -0.0036326402 -0.01614523 0.0074489615 -0.0022090331 0.027351314
-0.0010885462 -0.016509367 0.025116513 0.023766618 -0.00016671726 0.006867044 0.014850127 0.0258525
0.022613356 0.038152155 0.002967868 0.0226029 0.014703535 0.015956223 0.044882588 -0.003564672
-0.045062803 -0.011433916 0.025165899 7.218212e-05 -0.006152976 0.0345984 -0.0007440156 -0.0033801415
5.445232e-06 0.020824598 0.014441126 -0.00035122983 -9.648387e-05 -0.0010129946 -0.0053634616 -0.011023333
-0.0007420989 -0.01134781 -0.01152677 0.0030210065 -0.025375346 -0.022247452 -0.024194935 -0.03219565
0.04369039 -0.00022563362 -0.01829949 -0.042679418 0.030112918 0.0008003221 -0.0076490995 -0.018228786
-6.2763094e-05 -0.034861755 0.0006750278 -0.00051403866 -0.0011699791 -0.025534956 -0.0005824441 0.020627148

bn0.weight f4 [3]
00000000: dda8 873f 7cca 813f 69bd 8e3f
1.0598408 1.0139918 1.1151553

bn0.bias f4 [3]
00000000: 2da4 efbb 7ef2 18be 9575 3dbd
-0.0073132725 -0.14936253 -0.046254713

bn0.running_mean f4 [3]
00000000: 782d f73e ff87 e43e 52be d03e
0.48276877 0.44635007 0.40770203

bn0.running_var f4 [3]
00000000: c29d 863d 4d32 7b3d e081 7f3d
0.06573059 0.061327267 0.062379718

conv1.weight f4 [32, 3, 5, 5]
00000000: 1dee 19bd d45f 94bb fadb 8a3c 5ebe 8e3c
00000010: 7d9e a23c e957 f43c 58f0 bcbc 0514 3d3d
00000020: 8383 dabd 0091 c93c 0b44 883b 05ae 723d
00000030: a371 4ebb 44f1 9dbd 3c82 aabc 6211 debd
00000040: bb26 3dbd b191 b7bd 3cca 98bd 844d 8cbd
00000050: b8fa 78bd dc0f 65bc 41f3 953d c596 103d
00000060: 6cbc 3b3c 8582 283c 9945 143d 7422 a33d
00000070: 817a e53c 012e f6bc 62fe dcbb e5e9 0dbe
00000080: 57d6 80bb de3e 0b3d 90c6 423d 78af c5bc
00000090: fd1b 58bd 9567 3a3a b25d 50bd e489 053d
000000a0: f2b4 17bd bc05 b3bc 49e0 b03c feaa 443d
000000b0: 097b 8b3c d0a0 b9bd 4937 78bd 3f2c 2e3d
000000c0: 7975 18bd 3cf7 5dbd 8e65 5abd e556 303d
000000d0: 2d87 bf3d 3d41 42bd b885 12bd 677d 3dbd
000000e0: aace a5bc a675 1bbd 4855 923d 0b1c 95bc
000000f0: 08df 863d 9801 593d 0c39 f6bc d225 d6ba
00000100: 9903 82bc ea0e b73d b890 c23d ae9a 223c
00000110: 9282 b53c 6d0c cabc 8fba 373d 094d e6bc
00000120: 9c3c abbd 119a 50bc d050 bebd 0625 c13c
00000130: 17ff 9e3d 26a8 3d3d 4176 623d e65d 4a3d
00000140: 57a1 5f3c e63c 05bc d7c4 613c deaf 38bd
00000150: 41e8 483d 4985 90bd 7641 103d 0321 17bc
00000160: 6d49 523d d03b 9cbc 7f81 bd3c bac8 7b3b
00000170: aed3 7e3d 2407 543d 771a c93d a536 aa3c
00000180: 66c6 023e aafe 24bd 66b5 80bd b43f 44bd
00000190: 63db 483d b16a 883d e16a ef3d d283 9f3d
000001a0: 55de ecbb 5c34 8d3d 5dd4 603b 3710 203d
000001b0: 1e51 143c 31d0 da3d 73c1 45bc 2359 06bd
000001c0: e55e adbd 2181 31bd 1fce 54bd 4ec2 e3bb
000001d0: b361 1ebd 1dc6 8b3b 8a29 e3bc 41a5 12bc
000001e0: 1486 3bbc b1f9 fbbc 8996 4bbc 5b52 15bc
000001f0: 5f3b dd3b afc2 863c 8468 483d 93db d43d
00000200: 7a40 273d bad9 e83c 15d8 c7bc e141 f43c
00000210: 38cb 113e d800 98bc a17f 3d3d 9374 2fbd
00000220: e487 ef3b 3d0d b53d 752c a93d 510c 75bd
00000230: e9eb b53c d847 b939 0baf 043d 871e 57bd
00000240: 78a2 18bd 7191 843c 0888 84bd 4c39 2b3e
00000250: f44f 23bd fcc1 863d 9f29 42bb 26a8 cabc
00000260: 4dc1 073d 9e85 2bbd 6fe2 a3bb 037d a0bb
00000270: 57f6 32bd 53e4 83bd 7209 913d edf5 253d
00000280: d295 34bb b705 ef39 dab7 af3c 60dd 9c3d
00000290: ba7f 61bb a358 193d 4aeb 1cbd adbd c03c
000002a0: d928 e53d 8ab0 f73d 5ee6 bfbc 59fd 543d
000002b0: 3252 de3b ab6d 59bc d8ae 2dbd 4ab4 84bd
000002c0: b77a 8dbc 4ed7 2f3c eccf b33a 7865 393d
000002d0: 3fd8 8d3c a64b 743d 4044 b0bd 49eb bbbb
000002e0: b6e0 423d 2801 8c3c 60c4 d83c ebcc 67bd
000002f0: 02e9 d23c 35d2 dabc 3447 0d3c 3698 643a
00000300: f4a9 c3bc 2df0 2d3d 33a1 a23c 2381 8d3d
00000310: 88b4 0ebd fb50 af3c 2dbe 573d 787c 993d
00000320: c4e0 bf3b e2f7 3ebd 86be 14bc ab7b 133d
00000330: b7c1 97bc 2cf1 c8bd 74de 2ebc f6b9 21bc
00000340: 34d1 20bd 284f b6bd 41cb b1bd a904 16bc
00000350: ff78 b7bd 1ae8 6dbd f2b9 3b3d 2ae8 a8bd
00000360: f377 c5bb 25d7 a8bd bb9d 91bc 801e efbc
00000370: 3a88 e4bc 6f7e 25be f230 ecbd 6384 a33b
00000380: 7219 63bd 2b78 5cbc 8a82 9abc a27c be3d
00000390: c9fb 833d 4b6e 96bd 8797 413c de3b 03bc
000003a0: 4fe4 56bd 86ee b33d 0e99 aabc ae5c 7bbd
000003b0: 8933 58bb 78ce 4a3d 9d18 ab3d 247b e03c
000003c0: f990 82bd c686 00bd 77bf 41bc be20 7d3d
000003d0: f4ec af3d ee08 3ebd f585 02bd 5a99 38bd
000003e0: 9e24 c53d a8fb 35bc 2786 a83c 6ad9 adbc
000003f0: bcda fabc 7d69 2bbd bd2b dc3c c1a3 96bd
-0.0375806 -0.004528025 0.016950596 0.017424759 0.019850964 0.029827075 -0.023063824 0.04616167
-0.10669615 0.024605274 0.004158502 0.05924799 -0.0031500838 -0.077120334 -0.020814054 -0.10843159
-0.046179514 -0.08963335 -0.07460448 -0.068507224 -0.06078598 -0.013980832 0.073217876 0.035300035
0.0114584975 0.0102850245 0.036199186 0.07965556 0.028012516 -0.030051233 -0.006744192 -0.13858755
-0.0039318013 0.0339955 0.047552645 -0.024131522 -0.052761067 0.0007110772 -0.050870605 0.032602206
-0.037037797 -0.02185332 0.021591322 0.048014633 0.017026441 -0.09063876 -0.0605996 0.042522665
-0.037221406 -0.05419086 -0.053319506 0.04305162 0.093519546 -0.047425497 -0.035772055 -0.04626217
-0.020240147 -0.037953995 0.07145172 -0.018201848 0.065855086 0.052980036 -0.030056499 -0.0016338176
-0.015870856 0.089383915 0.09500259 0.009924574 0.022156987 -0.024664128 0.04485565 -0.028112905
-0.0836117 -0.012732045 -0.092927575 0.023577224 0.07763498 0.046302937 0.055288557 0.049405955
0.013649306 -0.008132195 0.01377984 -0.045089595 0.04904962 -0.07056672 0.03521868 -0.009224179
0.051339556 -0.01907149 0.023133038 0.0038419203 0.062213592 0.051764622 0.09819501 0.02077801
0.12770995 -0.04028193 -0.06284599 -0.047912315 0.04903735 0.06660975 0.116903074 0.077888146
-0.0072286525 0.068947524 0.0034306266 0.039077964 0.009052543 0.106842406 -0.012070048 -0.03279985
-0.08465365 -0.043336038 -0.051954385 -0.006950653 -0.038667392 0.0042655603 -0.027729768 -0.008950532
-0.011445541 -0.03075871 -0.012426027 -0.009113873 0.0067514624 0.016450254 0.0489278 0.10393443
0.040832974 0.028424133 -0.024395028 0.02981657 0.14237678 -0.01855509 0.046264295 -0.042835783
0.0073099006 0.088404156 0.08260433 -0.0598262 0.022207217 0.00035339477 0.032393496 -0.052519348
-0.037264317 0.016182633 -0.064712584 0.16721076 -0.03987117 0.06579968 -0.002962686 -0.024738383
0.03314333 -0.041875474 -0.005001358 -0.004897715 -0.04369196 -0.06440034 0.0708188 0.040517736
-0.002755512 0.0004558989 0.021449972 0.076594114 -0.0034408406 0.037438046 -0.038310327 0.023527944
0.11189432 0.12094219 -0.023425277 0.051999424 0.006784701 -0.013270776 -0.042403072 -0.064797
-0.017270429 0.010732485 0.0013718582 0.045262784 0.017315028 0.059642456 -0.08606768 -0.0057348353
0.047577582 0.017090395 0.026460826 -0.05659191 0.025745872 -0.026711563 0.008622933 0.0008720191
-0.02388475 0.042465378 0.019852256 0.069093965 -0.034840137 0.02140092 0.0526716 0.07494444
0.0058556516 -0.04662312 -0.009078627 0.03600661 -0.018524988 -0.09811625 -0.010673154 -0.009870997
-0.03926201 -0.089018166 -0.08681346 -0.0091563845 -0.08958625 -0.058082677 0.04583163 -0.08247407
-0.006026262 -0.082441606 -0.017775407 -0.029189348 -0.02789699 -0.16161512 -0.11532773 0.004990147
-0.05544419 -0.013456385 -0.018861074 0.093011156 0.064445086 -0.073452555 0.011815912 -0.008009879
-0.052463826 0.08785729 -0.020824935 -0.061367683 -0.0032989702 0.04951331 0.08354304 0.027402468
-0.063753076 -0.03137853 -0.011825434 0.061798804 0.08590117 -0.046395235 -0.031866033 -0.045068122
0.09626125 -0.011107363 0.020571781 -0.021221835 -0.030621879 -0.04184865 0.026876325 -0.07355452

conv1.bias f4 [32]
00000000: d151 a03d b7e9 57bd f80c b93d df7f 353d
00000010: c38d 863d 499a aa3d a643 01be dfc0 6f3d
00000020: fb51 c43d e244 89bd d0e0 0b3d 395d 683d
00000030: a306 033d bd71 663d 41d7 babd f516 3bbd
00000040: 6378 b13d a25e c23d a86b 34bd 7299 953d
00000050: 9d1e ebbd bec4 f0bb 54e1 d53d 34cc 9e3c
00000060: 8fff 8c3d d4c4 dcbc 8f8a de3c d637 dbbc
00000070: ed1a f23d 2886 11bd f17a 1e3d 894a 923d
0.07828105 -0.052713122 0.09035677 0.0443114 0.06570008 0.08330209 -0.12623462 0.058533546
0.09585949 -0.067025915 0.034149945 0.05672953 0.03198875 0.056260813 -0.09123088 -0.04567619
0.0866554 0.09490706 -0.04404798 0.07304658 -0.114804484 -0.0073476722 0.104433686 0.019384481
0.068846814 -0.026949324 0.02716568 -0.026760023 0.11821542 -0.035528332 0.038691465 0.07143123

conv2.weight f4 [32, 32, 3, 3]
00000000: b6ba 083b 1113 c73c c7a2 f63c 2cfd 6cbd
00000010: 8560 813d 2698 4e3d 4052 b6bb 4ceb a13b
00000020: 7749 ae3d 1050 e63b 496c c3bb 3266 3dbc
00000030: f3c2 ee3d 8929 91bd d5a3 843d 4bab b83d
00000040: ffe5 96bc 24c8 22bd e6fe aebc 9d83 1fbe
00000050: ca47 1dbd 26ee 2abd 9370 b23c 2fa2 353d
00000060: d321 f9bc 4457 2b3e 55b3 56be e2a7 f5bd
00000070: f2d1 063e fb48 3dbd 2a79 38bd 90d2 cfbd
00000080: cfbb 2d3d edcd 8f3d b2ed 033b 3756 b1bb
00000090: 092b fc3d ba86 883d f557 77bd f260 35b9
000000a0: 4c6e 433d 7255 343c 60be f9ba afe6 913d
000000b0: 0945 9bbd e2fb acbd c422 a4bd fac8 35be
000000c0: bb0e 7939 05ae 17bd 7592 7ebd b509 00be
000000d0: c202 14bd 55c7 11be 3f75 873d f773 503c
000000e0: b1f3 583d 9853 3bbd 633a c2bc 51f4 933d
000000f0: 57de 363d 7b05 9fbd 138e 203d f7c5 f2bd
00000100: 9194 abbd 0d82 3ebd 5998 0a3e 3fea 863d
00000110: 26c4 bfbd f99c 163c 171e 47bd 498e e4bb
00000120: 90d9 a13d b347 c7bd 0793 87bd f79f 28be
00000130: dd13 db3d b224 4b3d e974 22bd 7cb2 efbd
00000140: 0b22 54bd eeec 9f3d c76b 2d3c 4e69 87b9
00000150: 923a b9bd 14fd 3ebd d40c 0b3e 0355 3ebc
00000160: 5486 3c3d c814 a2bc 7ce3 2f3d 28f2 893d
00000170: 9d6e 8a3d 1f98 2e3d ed44 6d3e 1309 c73d
00000180: cb41 39bc c882 343e b0bf 31bd 98b0 d83c
00000190: 9b98 a9ba eb43 d6bc fc60 8abd ae44 eabd
000001a0: a628 643c 4758 0fbb 934a c73d e0d8 aabd
000001b0: e586 09be 1c6b 703d 0531 ac3d 9bd9 39bd
000001c0: 9453 51bb a7d6 61bd 9935 08bd 4385 d0bd
000001d0: 4665 093e c9cc 8c3d 3b87 33bc fd35 8dbd
000001e0: 1c7c edbc 7134 cbbb 0934 c8bd 4254 06be
000001f0: 8163 b2bc 2380 d2bd 56da a4bd e17a b4bc
00000200: 7167 91bd ec72 933c 1b80 4bbd 235d 9ebd
00000210: 9f9d c9bd 64c0 db3d 0df0 7c3d dafd c0bc
00000220: c535 4e3d 2ca2 71bc c83b 123c 3ad1 b63d
00000230: 1a6d 5c3c c430 93bd c6b4 203b fc23 c7bd
00000240: 2138 dd3d 2ea3 0cbe 287b 4f3d 7c88 193e
00000250: 76f5 713d 2379 753e bcda 9f3d c98f 2fbe
00000260: 951e 63bc f6f1 64bd 792c 223d a0ca 033d
00000270: e94c b2bc 9344 9bbc 2ba9 bfbc e4f4 74bc
00000280: c7e2 02be f8d0 2bbb 91c7 1cbc 079c 953d
00000290: 5055 813d f47c 1f3d 5537 13bd 5c94 b63d
000002a0: 30e1 143e 7fd1 5b3d 4dd4 11bd 17ed 34bd
000002b0: af40 b23c 682a 223e 8ff5 a53d 42a5 963d
000002c0: ec63 52bb a436 22bb 61a5 ee3d cb66 ea3d
000002d0: 8bb9 2bbe 23a6 a2bd 83f6 fb3c 6022 3bbd
000002e0: a237 5f3d 8930 7f3d 939e 4fbc c362 3c3e
000002f0: b51b fd3c cd37 4f3c 9366 043e dce0 cabc
00000300: 6a6b 1bbc 3fc2 8d3d eb00 0b3c e3ba 253c
00000310: 4999 843d 7d74 36bd 79ef 8d3c df31 bb3d
00000320: b10d 8fbd 919a 57bd 4cd8 453e c411 c8bd
00000330: b020 4e3d a9fd 6e3c 8fce 3bbd a586 01bd
00000340: 1f19 3cbc afff 8c3d 2f0d 96bd d991 373d
00000350: 4a20 283d 6ab4 b83c ebc3 79bd 46c5 933d
00000360: d44c 263e c275 9e3d bb14 633d 4052 ea3c
00000370: b1a4 b8bc d4cc 93bd a1f1 f03d 5836 ae3d
00000380: e55e 8a3c 89c0 a4bd 0f8e 98bd 9d24 81bd
00000390: 9e53 dbbd 6bd0 3cbd e597 b33d 0a46 61bd
000003a0: b858 f6bc 122a 383c 32ce 69bd 1db0 8e3d
000003b0: 45c6 843d b6ba 083c 9d5d 8dbc a4a0 de3c
000003c0: d7aa d53d 0997 1abb 9d13 a0bd 5628 483d
000003d0: 3c7d f5bd 13ed 1bbe 7f3a 82bd 49d6 3fbd
000003e0: 82ac 193c 496a 483e 8d3c fe3d 3687 b03d
000003f0: 2645 77bc 771f a6bc 8be2 033d bfc2 5f3b
0.0020863242 0.024301084 0.030106915 -0.05785863 0.06317238 0.05043807 -0.005564004 0.0049413797
0.08510106 0.007028587 -0.0059638363 -0.01156001 0.11658277 -0.07088 0.06476561 0.090170465
-0.018420218 -0.03974165 -0.02136178 -0.1557755 -0.03839854 -0.041731022 0.021782195 0.044344123
-0.030411636 0.16732508 -0.20966847 -0.11994912 0.13166025 -0.046212178 -0.045037426 -0.101475835
0.042415436 0.07021699 0.002013069 -0.005411889 0.12312896 0.06666322 -0.060386617 -0.0001729762
0.04771261 0.0110067 -0.0019053929 0.071240775 -0.07581527 -0.0844648 -0.080144435 -0.17752448
0.00023751978 -0.037031192 -0.06215139 -0.12503703 -0.036135443 -0.14236195 0.0661416 0.012722961
0.052966777 -0.045734018 -0.023709482 0.07224334 0.044645634 -0.07764717 0.039197993 -0.11854165
-0.08377946 -0.046510745 0.13534679 0.06587648 -0.09363584 0.009192699 -0.04861268 -0.0069749695
0.07902825 -0.097304724 -0.0661984 -0.16467272 0.10697148 0.049595542 -0.039662275 -0.11703965
-0.05179028 0.078088626 0.010584778 -0.00025827665 -0.090443745 -0.046628073 0.13579112 -0.011616948
0.046026543 -0.0197853 0.042941555 0.06735641 0.06759379 0.042625543 0.23170824 0.09718528
-0.01130719 0.17628014 -0.043395698 0.026451394 -0.0012939157 -0.026155433 -0.067567796 -0.11438881
0.013925707 -0.0021872686 0.09731021 -0.08342147 -0.13430364 0.058695897 0.08407787 -0.04537354
-0.0031940686 -0.05513635 -0.03325424 -0.10181668 0.13417539 0.06874997 -0.010957534 -0.06895063
-0.028989844 -0.00620132 -0.0977555 -0.1311808 -0.021775963 -0.102783464 -0.08049457 -0.02203125
-0.07099808 0.017999135 -0.049682718 -0.07732608 -0.09844517 0.10730055 0.061752368 -0.023558546
0.050344247 -0.014748137 0.008925386 0.089266255 0.013453746 -0.07187036 0.0024521812 -0.0972366
0.10801721 -0.13734123 0.05065456 0.14993471 0.05907198 0.23971991 0.07805392 -0.17144693
-0.013862272 -0.055894814 0.039593194 0.03217566 -0.02176519 -0.018953597 -0.023396095 -0.014950965
-0.12781821 -0.0026217084 -0.009569065 0.073051505 0.063151 0.038937524 -0.03594144 0.08915016
0.14539027 0.053666588 -0.035602856 -0.04417142 0.02175936 0.15836489 0.08103477 0.07355739
-0.0032103015 -0.0024751807 0.11652637 0.114453875 -0.16769998 -0.07941844 0.030757194 -0.04568708
0.054496415 0.062302146 -0.012672084 0.1839705 0.030897 0.012647581 0.12929754 -0.024765424
-0.009486059 0.06921815 0.008484106 0.010115358 0.06474549 -0.044544686 0.017326104 0.091403715
-0.06985033 -0.05263764 0.19320792 -0.097690135 0.050324142 0.0145868445 -0.045851287 -0.031622548
-0.011480599 0.06884705 -0.07326733 0.044816826 0.04104642 0.022546966 -0.060977858 0.07215361
0.16240245 0.07737304 0.055439692 0.028603673 -0.022539468 -0.07216802 0.11764837 0.08506459
0.016890952 -0.08044536 -0.074489705 -0.063058116 -0.10709308 -0.0460972 0.08769206 -0.054998435
-0.030071601 0.011240499 -0.05708141 0.06967185 0.064831294 0.008345297 -0.017256552 0.027176209
0.10432976 -0.002358856 -0.07816241 0.048866592 -0.11986777 -0.15227155 -0.063588135 -0.046835218
0.009379508 0.19571795 0.12413893 0.086195394 -0.01509217 -0.020278675 0.03219847 0.0034143177

conv2.bias f4 [32]
00000000: a0e5 343d 0ac6 933c 99a8 7cbb 82ea 48bc
00000010: 2593 a3bc 90d7 26bc 75cc 3bbd 3779 043d
00000020: 165a 02bd 5d9d 7ebc 8a37 cb3b d54b 223c
00000030: 3b1d 9b3d a09b 313d 83b4 b3bc 18e1 e4bc
00000040: dd3d 2abc c799 bb3c 7376 803c c2d2 3b3d
00000050: 6402 35bd 7144 b0bc 8ad6 a53c d9a4 1a3d
00000060: d799 223b b904 653d 2027 3e3d 279a ea3c
00000070: 9fdc 663d 9747 c8bc f1fa 923c 753a 983b
0.0441643 0.018038768 -0.003855264 -0.012262942 -0.019967625 -0.01018323 -0.045849282 0.032342162
-0.031824194 -0.015540448 0.006201689 0.009905775 0.07573935 0.043361306 -0.02193666 -0.027939364
-0.010390726 0.022900475 0.015681481 0.04585529 -0.044191733 -0.02151701 0.020243902 0.037754867
0.0024810934 0.055912707 0.04642403 0.028637959 0.056362744 -0.0244482 0.017941924 0.0046456405
