Ratio_same_wo_GRL/checkpoint_step_0130.pth (torch_old, 541523 bytes, 24 tensors)

momentum_buffer f4 [3]
0	0xbe402c54	-0.1876691
1	0x3d5e0c88	0.05421117
2	0xbe13217d	-0.14368244

momentum_buffer f4 [3]
0	0x3e0427ba	0.1290578
1	0xbe4fedc1	-0.2030554
2	0xbd651fbe	-0.055938475

momentum_buffer f4 [32, 3, 5, 5]
0	0x3c477fd4	0.012176473
1	0x3c5fd320	0.013661176
2	0x3c66c89b	0.014085914
3	0x3c7d0f13	0.0154454885
4	0x3c70c144	0.014694516
5	0x3c5683a3	0.013092908
6	0x3c7a4dad	0.015277308
7	0x3c78c899	0.015184545
8	0x3c83bcaf	0.016081182
9	0x3c6f320d	0.014599335
10	0x3be312fd	0.006929754
11	0x3c1ed842	0.009695115
12	0x3c1b3116	0.009472152
13	0x3c08bdf8	0.008346073
14	0x3beaae96	0.0071619255
15	0x3b888bb9	0.004167047
16	0x3bc79415	0.006090651
17	0x3bcf08e6	0.0063181994
18	0x3bb9684e	0.005658186
19	0x3b9333a3	0.0044922396
20	0x3ba43075	0.0050106593
21	0x3bc3c496	0.0059743626
22	0x3bcbfd46	0.006225261
23	0x3bcdd56a	0.0062815445
24	0x3bc2b13a	0.005941537
25	0x3c8e1c86	0.017347585
26	0x3c9c67a5	0.01909239
27	0x3c9ef75e	0.019405063
28	0x3ca4da1c	0.020123534
29	0x3c967aaa	0.018369038
30	0x3c9155de	0.01774114
31	0x3ca23d8a	0.019804735
32	0x3c9ef194	0.019402303
33	0x3c9e6288	0.019334093
34	0x3c8de0fb	0.017319193
35	0x3c3bfed0	0.011474326
36	0x3c727a4b	0.014799665
37	0x3c6a3371	0.014294491
38	0x3c48ad40	0.012248337
39	0x3c2912e6	0.010319447
40	0x3bffa5b2	0.007801735
41	0x3c30dbbf	0.010794579
42	0x3c3ce5fa	0.01152944
43	0x3c20f320	0.0098235905
44	0x3bf9ed2b	0.0076271496
45	0x3c1b7026	0.0094871875
46	0x3c25d70a	0.01012207
47	0x3c1ee030	0.009697005
48	0x3c15156b	0.009099345
49	0x3c074463	0.008256051
50	0x3c2b56be	0.010457693
51	0x3c5bf654	0.013425428
52	0x3c6cf0a3	0.014461669
53	0x3c76474c	0.015031647
54	0x3c5cd6f9	0.013478988
55	0x3c30972a	0.010778228
56	0x3c65ff5a	0.014037931
57	0x3c6efe82	0.014587047
58	0x3c71fec8	0.014770217
59	0x3c4d9a3d	0.01254898
60	0x3ba10ef8	0.0049151145
61	0x3c07d59e	0.008290676
62	0x3c10ff4e	0.008849932
63	0x3be62303	0.0070232167
64	0x3b815e26	0.003947991
65	0x3aac5328	0.0013147341
66	0x3ba3001c	0.0049743783
67	0x3bbe096e	0.005799464
68	0x3b8eb59f	0.004355147
69	0x3b3251e6	0.002720946
70	0x3b1fa1c8	0.0024357904
71	0x3b92b578	0.004477199
72	0x3bb6bc63	0.0055766567
73	0x3b9a8a59	0.0047161994
74	0x3b82c392	0.003990599
75	0x3d69ae8c	0.057051226
76	0x3d91aa4c	0.0711256
77	0x3d9bf2a2	0.07614638
78	0x3d5e8cbd	0.054333437
79	0x3d326a4b	0.0435584
80	0x3d2cef55	0.042220432
81	0x3d8b86ce	0.06812821
82	0x3daa5474	0.083168894
83	0x3d58e35c	0.0529512
84	0x3cb666cc	0.022265814
85	0x3b69b374	0.003565994
86	0x3d20d696	0.039267145
87	0x3d8504b7	0.0649504
88	0x3d18caaf	0.03730267
89	0x3bea701f	0.007154479
90	0xbbbbf49c	-0.005735947
91	0x3c8bb5b9	0.017054426
92	0x3d005c14	0.031337813
93	0x3c36f53e	0.011166869
94	0xbbdb1980	-0.0066863894
95	0x3b939d04	0.0045048017
96	0x3c23cc4e	0.0099974405
97	0x3bff2d05	0.007787349
98	0xb976c340	-0.00023533124
99	0xbb695340	-0.00356026
100	0x3d8b2757	0.06794613
101	0x3da062ab	0.078313194
102	0x3da71fe4	0.081603795
103	0x3d7773dd	0.06041323
104	0x3d5aa2a2	0.053377755
105	0x3d5c960c	0.053854033
106	0x3d9ac2ea	0.07556708
107	0x3db3da69	0.08781893
108	0x3d73597c	0.05941151
109	0x3d03e328	0.032199055
110	0x3c957a58	0.018246815
111	0x3d4d9c52	0.050197907
112	0x3d94e05c	0.07269356
113	0x3d39a59b	0.04532395
114	0x3c9a916f	0.018868176
115	0x3c59a72e	0.013284488
116	0x3d052506	0.03250601
117	0x3d353bbf	0.04424643
118	0x3cc4580a	0.023967762
119	0x3bfa4ed8	0.0076387934
120	0x3cd0249a	0.025408078
121	0x3ce633d1	0.02810088
122	0x3cc47f7e	0.023986574
123	0x3c8764c6	0.016527545
124	0x3c5cf1fb	0.013485427
125	0xbd1d9e81	-0.03848124
126	0xbcff07d3	-0.03113166
127	0xbce9a236	-0.028519731
128	0xbd446450	-0.047947228
129	0xbd615a4a	-0.055017747
130	0xbd5b2f2d	-0.053511787
131	0xbd1072f9	-0.035265896
132	0xbcbf8f03	-0.023383623
133	0xbd547b56	-0.051875435
134	0xbda06902	-0.07832529
135	0xbdbae1f8	-0.09125131
136	0xbd814e13	-0.063137196
137	0xbd25fbde	-0.040523402
138	0xbd8a32bb	-0.06747957
139	0xbdbd590d	-0.09245501
140	0xbdc42c10	-0.09578717
141	0xbda4ee1c	-0.08053228
142	0xbd8dac91	-0.0691768
143	0xbdb54a72	-0.0885209
144	0xbdd173de	-0.10227178
145	0xbda4c920	-0.08046174
146	0xbda788ed	-0.081804134
147	0xbdb15115	-0.08658043
148	0xbdbf9889	-0.09355266
149	0xbdc026f4	-0.0938243
150	0xbb543f00	-0.0032386184
151	0x3a4c04e0	0.0007782709
152	0x3bd8b458	0.0066132955
153	0x3bf18574	0.007370645
154	0x3b8fa23e	0.0043833544
155	0xbbe2d46e	-0.0069222962
156	0xbb125310	-0.002232734
157	0x3aa37070	0.0012469422
158	0x3b0949c0	0.00209485
159	0x3b002d00	0.0019558072
160	0xbb9968b0	-0.004681669
161	0x3ac37038	0.0014910763
162	0x3b425840	0.0029654652
163	0x3b7ba558	0.0038398113
164	0x3bace6a0	0.005276516
165	0xbb134808	-0.0022473354
166	0x3bc9b008	0.0061550178
167	0x3bc17cb0	0.0059047565
168	0x3bf92694	0.007603476
169	0x3bfc10f8	0.0076924525
170	0xbbb62170	-0.0055581853
171	0x3a5d8dc0	0.00084516034
172	0x3ad0cee8	0.0015930803
173	0x3b008ffc	0.0019617071
174	0x39e844e0	0.00044301804
175	0xbb23aca8	-0.0024974737
176	0x3a659860	0.00087583624
177	0x3bbdd7ac	0.0057935324
178	0x3bc3ac58	0.0059714727
179	0x3b23d310	0.002499763
180	0xbbcf2d60	-0.006322548
181	0xbb1005d8	-0.002197614
182	0xb9e40780	-0.00043493137
183	0x3a133980	0.0005616173
184	0xb9e38f00	-0.00043403357
185	0xbb8883c4	-0.0041660983
186	0x3ad98f90	0.0016598571
187	0x3a6277e0	0.00086390786
188	0x3a8ae240	0.0010595992
189	0x3b000b68	0.0019538049
190	0xbab4a3d0	-0.001378173
191	0x3bcfc8e4	0.0063410867
192	0x3b92b8e8	0.004477609
193	0x3b7a1738	0.0038160812
194	0x3b8639f8	0.004096266
195	0xbb9e4238	-0.0048296712
196	0x3acdb720	0.0015694834
197	0x39faac40	0.00047812052
198	0x39ffb980	0.00048775598
199	0xbb20fcf0	-0.0024564825
200	0x3ba77af0	0.005111091
201	0x3bf518a8	0.007479746
202	0x3c37f8d6	0.011228761
203	0x3c32521c	0.010883834
204	0x3bd8ec94	0.006619999
205	0x3a170aa0	0.0005761776
206	0x3b4ebc88	0.003154548
207	0x3b9c1d20	0.004764214
208	0x3b884e5c	0.004159732
209	0x3b0cf280	0.0021506846
210	0x3b6c5048	0.0036058594
211	0x3c02eb70	0.007990703
212	0x3bd8411c	0.0065995585
213	0x3ba9db60	0.0051836222
214	0x3baa51bc	0.005197732
215	0x3bf14b94	0.007363746
216	0x3c5a9cb7	0.013343028
217	0x3c20ef2e	0.00982265
218	0x3c0b2dc2	0.008494796
219	0x3bfcd134	0.0077153686
220	0x3b82b29c	0.003988577
221	0x3c177afa	0.0092456285
222	0x3bd2580c	0.0064191874
223	0x3b9327e8	0.004490841
224	0x3a6c8420	0.00090223737
225	0xbe1f7296	-0.15571055
226	0xbe2331c0	-0.15936947
227	0xbe2547ea	-0.16140714
228	0xbe2358f9	-0.15951909
229	0xbe2574a3	-0.16157775
230	0xbe26a145	-0.16272457
231	0xbe2ba882	-0.167635
232	0xbe2b12ac	-0.16706342
233	0xbe29e0c6	-0.1658965
234	0xbe285e94	-0.16442329
235	0xbe269c53	-0.1627057
236	0xbe2d1402	-0.16902164
237	0xbe2e4cef	-0.17021535
238	0xbe2ce91b	-0.16885798
239	0xbe2b984f	-0.1675732
240	0xbe25c9aa	-0.1619021
241	0xbe2d117f	-0.16901205
242	0xbe2dc204	-0.16968542
243	0xbe2b4384	-0.16724974
244	0xbe2bc7f3	-0.16775493
245	0xbe2a9aee	-0.16660663
246	0xbe317802	-0.17330936
247	0xbe2e446f	-0.17018293
248	0xbe2b1ca2	-0.16710141
249	0xbe270770	-0.16311431
250	0xbda7aa53	-0.08186784
251	0xbdab49d4	-0.08363691
252	0xbdadee5e	-0.084927306
253	0xbda92a5c	-0.082600325
254	0xbdaa13cf	-0.083045594
255	0xbdae97e3	-0.08525064

momentum_buffer f4 [32]
0	0xbb70f736	-0.0036768443
1	0xbe3e2cc8	-0.1857177
2	0x3d1449cd	0.036203194
3	0xbe0e4b3e	-0.1389589
4	0xbd6bd18f	-0.057572898
5	0x3d9e0e7f	0.07717609
6	0xbc9bc73e	-0.019015905
7	0xbb85449c	-0.0040670168
8	0xbd926aa2	-0.07149245
9	0x3e485b04	0.1956597
10	0x3e87c9c6	0.26521128
11	0x3dca5890	0.09880173
12	0x3d688aa4	0.056772843
13	0xbd81717c	-0.063204736
14	0x3e4e9468	0.201738
15	0xbf11c2da	-0.56937945
16	0xbed03ac0	-0.40669823
17	0x3c66ee7e	0.014094947
18	0x3e8590a0	0.26086903
19	0x3bb4efee	0.005521766
20	0xbdd9be2b	-0.10631975
21	0x3d39158a	0.045186557
22	0x3a57b610	0.00082287285
23	0xbcd42449	-0.025896208
24	0xbe84cb52	-0.2593637
25	0xbd618aa6	-0.055063866
26	0xbd3bbc6c	-0.04583399
27	0x3dac9cde	0.084283575
28	0x3e14e98b	0.14542215
29	0xbcedf332	-0.029046629
30	0x3e0dafd2	0.13836601
31	0xbd38d789	-0.045127425

momentum_buffer f4 [32, 32, 3, 3]
0	0xbad4398c	-0.0016191467
1	0xbb347a63	-0.0027538768
2	0xbb10abe4	-0.002207511
3	0xbac8c54a	-0.0015317586
4	0xbae83757	-0.0017716688
5	0xbae9d72a	-0.0017840613
6	0xba9a8ca4	-0.0011791182
7	0xb9f8005a	-0.00047302508
8	0xba69599c	-0.00089015975
9	0x3c1eb7c4	0.009687368
10	0x3c0ca3f7	0.008584014
11	0x3c0dfca4	0.008666191
12	0x3c33e0c6	0.010978883
13	0x3c20e040	0.00981909
14	0x3c079903	0.008276227
15	0x3c51dc58	0.012808882
16	0x3c2b80dc	0.010467734
17	0x3c1b8fee	0.009494765
18	0x3bc69e5a	0.0060613574
19	0x3ba3ead9	0.0050023613
20	0x3bd32ece	0.0064447885
21	0x3c0f2644	0.008737151
22	0x3be5f33b	0.0070175207
23	0x3bd6b104	0.0065518636
24	0x3c1be006	0.009513861
25	0x3bf8d165	0.007593321
26	0x3bd0ab36	0.006368066
27	0xbb7eac06	-0.0038859858
28	0xbb7cdc14	-0.0038583325
29	0xbb90c5b3	-0.004418099
30	0xbb8078ce	-0.003920651
31	0xbb938953	-0.0045024543
32	0xbb874611	-0.0041282256
33	0xbb92f4da	-0.004484755
34	0xbb75782e	-0.0037455666
35	0xbb834560	-0.004006073
36	0x3b863346	0.0040954677
37	0x3b1136a8	0.0022157822
38	0x38a8bc80	8.045975e-05
39	0x3ba931ea	0.005163421
40	0x3b925390	0.004465528
41	0x3b1df4d6	0.0024102232
42	0x3b9df3ad	0.004820308
43	0x3b78625e	0.0037900428
44	0x3b1eb8c2	0.002421901
45	0x3c1242fd	0.008927104
46	0x3bf4120f	0.007448442
47	0x3bb8cd1a	0.0056396844
48	0x3c4352f1	0.01192163
49	0x3c27cdc9	0.010241934
50	0x3c10d80f	0.008840575
51	0x3c5dbcb9	0.0135337645
52	0x3c4e3b77	0.01258742
53	0x3c2fa48f	0.010720386
54	0xb9de9f18	-0.00042461674
55	0xba402de0	-0.00073310547
56	0x3856edc0	5.1242998e-05
57	0x3b6a254e	0.0035727802
58	0x39c28840	0.00037104078
59	0xbac81824	-0.0015265984
60	0x3bb2e179	0.0054590073
61	0x3afba5e7	0.0019199223
62	0xbaa649d4	-0.0012686797
63	0xb811c6b0	-3.4755736e-05
64	0xba3f9c21	-0.0007309337
65	0x3a17ae7f	0.0005786195
66	0x3978219a	0.0002366364
67	0x39d6f25e	0.00040997838
68	0xb8d71d2e	-0.00010257434
69	0xb95e32f8	-0.00021190557
70	0xba1cdbbb	-0.000598367
71	0x3a1599b4	0.00057068025
72	0x3b8da123	0.0043221875
73	0x3b896bcc	0.0041937586
74	0x3b338a80	0.0027395785
75	0x3ace36da	0.00157329
76	0x3ac4ec48	0.001502403
77	0x3a068bc0	0.00051325187
78	0xbac32e64	-0.0014891145
79	0xba834588	-0.0010015229
80	0xbb0403d3	-0.002014388
81	0xbb49f172	-0.0030814079
82	0xbad41c88	-0.0016182819
83	0xbad8f308	-0.0016551921
84	0xbb966cdd	-0.0045906142
85	0xbb906938	-0.0044070743
86	0xbb9aa332	-0.0047191614
87	0xbb3a1532	-0.002839398
88	0xbb86cd83	-0.0041138544
89	0xbb86cbd6	-0.0041136546
90	0x3c9f31c7	0.019432915
91	0x3c9ed77e	0.019389864
92	0x3ca286e6	0.019839715
93	0x3c8c99b7	0.01716314
94	0x3c8d91d1	0.017281445
95	0x3c866e70	0.016410083
96	0x3c499662	0.01230392
97	0x3c2aafd9	0.010417902
98	0x3c25dd21	0.010123522
99	0x3b834b58	0.0040067844
100	0x3b18be1a	0.0023306669
101	0x3b51c2e3	0.003200703
102	0x3baecb79	0.0053343144
103	0x3b7d7628	0.0038675163
104	0x3b6aab67	0.003580773
105	0x3c066814	0.008203525
106	0x3bda54b7	0.006662931
107	0x3bb76219	0.005596411
108	0x3c099a0a	0.008398542
109	0x3bcf7465	0.006331014
110	0x3b9282e8	0.0044711716
111	0x3bcb61de	0.006206735
112	0x3bae6eb2	0.0053232545
113	0x3b80e91e	0.0039340397
114	0x3ba27770	0.0049580857
115	0x3b744f2e	0.003727864
116	0x3a62b298	0.00086478284
117	0xbba684fc	-0.005081771
118	0xbbca29f4	-0.006169552
119	0xbbebf143	-0.0072003915
120	0xbb9d3308	-0.004797343
121	0xbbb14191	-0.0054094275
122	0xbba848e2	-0.0051356414
123	0xbb8411fc	-0.004030464
124	0xbb839a7a	-0.004016218
125	0xbb84d4fb	-0.0040537096
126	0x3c3753b9	0.011189395
127	0x3c5001b0	0.012695715
128	0x3aaffef8	0.0013427427
129	0x3bf50177	0.0074769813
130	0x3c09b676	0.0084053185
131	0xba4cb480	-0.0007808879
132	0x3b33004c	0.002731341
133	0x3b8ae8aa	0.0042391615
134	0xbae782b8	-0.0017662859
135	0xbc45d699	-0.01207509
136	0xbc4433e2	-0.01197526
137	0xbc325899	-0.010885381
138	0xbc230b3a	-0.009951407
139	0xbc210e38	-0.00983005
140	0xbc2c2b02	-0.010508301
141	0xbc116552	-0.008874254
142	0xbc2672da	-0.010159219
143	0xbc2160f5	-0.0098497765
144	0x3c1cd46f	0.0095721325
145	0x3bb3ed7f	0.005490958
146	0x3b8c5b03	0.0042833104
147	0x3c085e3b	0.008323248
148	0x3bbd1b96	0.0057711108
149	0x3b96feb4	0.0046079997
150	0x3c045cf6	0.008078804
151	0x3bb61080	0.005556166
152	0x3b9f0a93	0.0048535555
153	0xbabec868	-0.0014555575
154	0x37c28a00	2.3190863e-05
155	0x39879d50	0.00025866413
156	0x3a413188	0.00073697465
157	0x399e0ea0	0.00030147005
158	0xb9cbadd0	-0.00038848678
159	0x3b541b8c	0.0032365052
160	0x3b1fb99e	0.002437211
161	0x3a2da8b8	0.00066245673
162	0x3b8cc1d4	0.004295567
163	0x3b77b755	0.0037798483
164	0x3b918d4e	0.0044418937
165	0x3bcebed2	0.0063093686
166	0x3b869398	0.00410695
167	0x3bad64d5	0.005291561
168	0x3c3a8c60	0.011386007
169	0x3c14c642	0.0090804715
170	0x3bedc176	0.0072557284
171	0xbc5dc22c	-0.013535064
172	0xbc53f0fa	-0.012935871
173	0xbc680175	-0.014160504
174	0xbc569372	-0.013096677
175	0xbc56f5aa	-0.013120094
176	0xbc71f2d4	-0.014767367
177	0xbc302de3	-0.010753128
178	0xbc480597	-0.012208364
179	0xbc40222f	-0.0117269
180	0x3b02cbf1	0.0019957984
181	0x3ac4019a	0.0014954091
182	0xb98ab258	-0.00026454288
183	0x3a84a48b	0.0010119838
184	0x37e2b500	2.7025584e-05
185	0xba30e2f4	-0.0006747686
186	0x39093390	0.00013084547
187	0x38feaae0	0.00012143492
188	0xb9a81030	-0.00032055518
189	0xbc598cf2	-0.013278233
190	0xbc7ead5e	-0.015544264
191	0xbc8b438c	-0.016999982
192	0xbc676921	-0.014124186
193	0xbc7edce8	-0.015555598
194	0xbc87a6ba	-0.016558994
195	0xbc30da10	-0.010794178
196	0xbc4ee948	-0.012628861
197	0xbc5c3823	-0.013441118
198	0xbc5fe5c8	-0.013665624
199	0xbc773a9d	-0.015089658
200	0xbc7e2b07	-0.015513188
201	0xbc64d2b6	-0.013966253
202	0xbc7db6ed	-0.015485507
203	0xbc8659de	-0.016400274
204	0xbc45ae32	-0.012065457
205	0xbc57a9eb	-0.01316307
206	0xbc651275	-0.013981451
207	0x3bebeab1	0.0071996083
208	0x3bcc23f0	0.00622987
209	0x3b0e046a	0.0021670111
210	0x3c154d06	0.009112602
211	0x3be5ad72	0.0070092017
212	0x3b86f260	0.004118249
213	0x3bff9f38	0.007800963
214	0x3c07e400	0.0082941055
215	0x3be198ad	0.0068846554
216	0x3c5ccc4a	0.013476441
217	0x3c4ef770	0.012632236
218	0x3c369dc5	0.011146014
219	0x3c4777d7	0.012174568
220	0x3c3e9526	0.011632239
221	0x3c33d206	0.010975366
222	0x3c4158f4	0.011800993
223	0x3c2dabc6	0.010600036
224	0x3c2b9694	0.010472912
225	0x3be0b866	0.0068579195
226	0x3b871e70	0.0041235015
227	0x39bd9708	0.00036161416
228	0x3bb10429	0.0054021073
229	0x3b469d56	0.0030306182
230	0x3a447af8	0.00074951304
231	0x3b82411c	0.003975047
232	0x3b574445	0.0032847088
233	0x3a3410b4	0.0006868944
234	0xbc60ef87	-0.013728983
235	0xbc30d480	-0.010792851
236	0xbc43edd4	-0.011958558
237	0xbc5ba8f0	-0.013406977
238	0xbc508900	-0.012727976
239	0xbc4d88bf	-0.01254481
240	0xbc271d7c	-0.010199901
241	0xbc31ce59	-0.01085242
242	0xbc44db26	-0.01201514
243	0xbb57596a	-0.0032859691
244	0xbb83275e	-0.0040024957
245	0xbb35ceb2	-0.0027741608
246	0xbb4a1e38	-0.0030840766
247	0xbb7af12e	-0.0038290727
248	0xbb927f1f	-0.0044707204
249	0x3a5252a8	0.0008023181
250	0xba8e2000	-0.0010843277
251	0xbb166b40	-0.002295211
252	0x3c2c0148	0.010498352
253	0x3c41c634	0.01182704
254	0x3c120d94	0.00891437
255	0x3ae0f214	0.0017161989

momentum_buffer f4 [32]
0	0xbabcb990	-0.0014398564
1	0x3a4a6878	0.00077212555
2	0x3d148253	0.0362571
3	0x3eaf8e8c	0.34288442
4	0xbc53e2df	-0.012932508
5	0xbdb7a569	-0.08967096
6	0x3d5f46a2	0.05451072
7	0x3baf4802	0.00534916
8	0xbc29b7c0	-0.010358751
9	0x3cf9e137	0.030502899
10	0x3b33117c	0.0027323654
11	0x3da5805f	0.080811255
12	0x3b1c7916	0.0023875884
13	0xbc670f5e	-0.014102785
14	0x3e15badd	0.14622064
15	0x3c42e7c0	0.011896074
16	0xbd0e7e77	-0.034788575
17	0xbc997416	-0.018732112
18	0x3b04282e	0.002016555
19	0xbd330ac1	-0.043711428
20	0xbb4f9daa	-0.0031679668
21	0xbb2f74a6	-0.0026772409
22	0xbd1de346	-0.038546823
23	0x3c9de9e8	0.019276574
24	0xbdbb1f0e	-0.091367826
25	0xbdb04366	-0.08606605
26	0x3c90c079	0.017669903
27	0xbd30a706	-0.043128036
28	0xbcb0d668	-0.021586612
29	0x3e2ec7fe	0.17068478
30	0xbd119043	-0.03553797
31	0xbc27d792	-0.010244267

momentum_buffer f4 [64, 32, 3, 3]
0	0x38bcc529	9.0012625e-05
1	0xb9b8fc94	-0.000352834
2	0x35de9aa0	1.6585291e-06
3	0xb897ea76	-7.243913e-05
4	0x33497f40	4.6914693e-08
5	0x3a1541bb	0.00056936935
6	0xb914cb93	-0.00014190217
7	0x39a948f7	0.00032288555
8	0xb88b9d5b	-6.657346e-05
9	0x3ae3bc57	0.0017374855
10	0x3ae7ed80	0.0017694682
11	0x3a96217e	0.0011454073
12	0x3b026745	0.001989798
13	0x3ae2dc5f	0.0017308107
14	0x3a957644	0.0011403044
15	0x3ac85840	0.001528509
16	0x3a869eb5	0.0010270687
17	0x39ced747	0.00039451776
18	0x3b13f252	0.0022574854
19	0x3b4ac37b	0.003093927
20	0x3b384ca3	0.002812185
21	0x3b5458cc	0.003240156
22	0x3b34f0c6	0.0027609332
23	0x3b30ffe6	0.0027007996
24	0x3b724e9c	0.0036973124
25	0x3b66f027	0.0035238357
26	0x3b3ed35d	0.0029117682
27	0x3a027fd5	0.0004978155
28	0x3ab0c9ee	0.0013487914
29	0x3a9c6110	0.0011930782
30	0x3a941a6f	0.0011299382
31	0x3a38955a	0.0007041298
32	0x3a928e38	0.00111813
33	0xb64c8580	-3.0476076e-06
34	0x3a0b9cf9	0.000532582
35	0x3a4609dd	0.00075545703
36	0xb97d1a5a	-0.00024137777
37	0xb996bee4	-0.00028752454
38	0xb8ccdab8	-9.7682176e-05
39	0x387f3126	6.084251e-05
40	0xb98a5eac	-0.00026391947
41	0xb9ce679e	-0.00039368583
42	0xb70961c1	-8.188596e-06
43	0x39bfaaa3	0.00036557493
44	0x3831369b	4.2250944e-05
45	0x3b141670	0.0022596382
46	0x3b0e5758	0.0021719541
47	0x3afa8e5e	0.0019115915
48	0x3b4e1b07	0.0031449215
49	0x3b1d6f1c	0.0024022525
50	0x3b0e0869	0.0021672493
51	0x3b60ce5d	0.003430269
52	0x3b5295c8	0.0032132734
53	0x3b0ad006	0.002118112
54	0x3be0ba36	0.0068581356
55	0x3be74711	0.0070580323
56	0x3be30515	0.006928096
57	0x3bdea4dc	0.006794555
58	0x3bde397f	0.0067817564
59	0x3bcc1c5e	0.0062289676
60	0x3bd768c8	0.00657377
61	0x3bdd2a5d	0.006749435
62	0x3bd6b95a	0.0065528573
63	0x3a410ccc	0.00073642726
64	0x3988181d	0.00025957907
65	0x3a20fe74	0.0006141432
66	0x391b9704	0.0001483821
67	0x399cad35	0.00029883688
68	0x363001b0	2.6227026e-06
69	0x3a683a42	0.0008858779
70	0x3a26568e	0.0006345295
71	0x39fdff8c	0.00048446318
72	0x3a8978e4	0.0010488299
73	0x39e82858	0.00044280547
74	0x3a92d482	0.0011202248
75	0x3a09efa5	0.0005261845
76	0x39688072	0.00022173094
77	0x3a5c1a12	0.0008396219
78	0x3a19b1db	0.00058629893
79	0x3a03391f	0.0005005765
80	0x3a90163e	0.0010992957
81	0x3adcb31b	0.0016838046
82	0x3b0a210b	0.0021076824
83	0x3b103af4	0.0022007795
84	0x3ab27c6c	0.0013617403
85	0x3ab71d8a	0.0013970595
86	0x3b02e8d3	0.00199752
87	0x3abe91a2	0.0014539252
88	0x3b07d3c0	0.0020725578
89	0x3b116979	0.002218811
90	0x3b9adf80	0.0047263503
91	0x3bb7b2a5	0.005606013
92	0x3b8eebe7	0.004361618
93	0x3b9bc972	0.0047542388
94	0x3b98b2d7	0.0046599912
95	0x3b8a5497	0.0042215097
96	0x3baba77e	0.0052384725
97	0x3b8f39fc	0.004370926
98	0x3b8f4875	0.004372651
99	0xb5b6a9c0	-1.360946e-06
100	0xb8add1f0	-8.288387e-05
101	0x3a0c10bf	0.00053430715
102	0xb729c8c8	-1.0119933e-05
103	0x39871f02	0.0002577231
104	0xb830a8aa	-4.211875e-05
105	0x3958a4e4	0.00020660792
106	0xb8e06af0	-0.00010701071
107	0xb964b89c	-0.00021812547
108	0x3948570d	0.00019105915
109	0x39493abc	0.00019190734
110	0x3835bab7	4.3327655e-05
111	0xb883e632	-6.289444e-05
112	0x39ed88b1	0.00045306006
113	0x3a30331b	0.00067214825
114	0xb78e3608	-1.695288e-05
115	0x39004e59	0.00012236218
116	0x388446fc	6.307472e-05
117	0xb7d1224d	-2.4930714e-05
118	0x39b89531	0.0003520637
119	0x39ba5ab6	0.0003554427
120	0x394832f0	0.00019092462
121	0x39f31eef	0.0004637162
122	0x3a298d97	0.0006467937
123	0xb905acf8	-0.00012748304
124	0x3915deba	0.0001429272
125	0x39160c6d	0.00014309744
126	0x3918f806	0.00014588246
127	0x39dee389	0.00042512667
128	0x3a3cdfd8	0.0007204986
129	0x3aaae6e4	0.0013038781
130	0x39e39bfd	0.00043413034
131	0x39c9432d	0.00038387757
132	0x39958bc2	0.00028523622
133	0x3855a720	5.0938805e-05
134	0x39e2049a	0.00043109508
135	0x3b52510e	0.003209177
136	0x3b73feba	0.0037230686
137	0x3b5fb214	0.0034133242
138	0x3b46dae1	0.0030342864
139	0x3b70acb4	0.0036724033
140	0x3b82ef8e	0.0039958423
141	0x3b540ff8	0.003235815
142	0x3b8654b7	0.0040994543
143	0x3b5fd997	0.0034156793
144	0x3aa841bb	0.0012836972
145	0x3ad44205	0.0016193992
146	0x3a937bb0	0.0011252072
147	0x3abdc20d	0.0014477387
148	0x3a8c85fa	0.001072108
149	0x3ab7329e	0.0013976877
150	0x3aef8710	0.0018274505
151	0x3ae9fb81	0.0017851443
152	0x3aac1342	0.0013128298
153	0x3b5d4492	0.0033762795
154	0x3b69144b	0.0035565074
155	0x3b578e3c	0.0032891175
156	0x3b666398	0.0035154577
157	0x3b5841f2	0.003299829
158	0x3b585c72	0.0033014086
159	0x3b5b0bfa	0.0033423887
160	0x3b4cb9f9	0.0031238778
161	0x3b38b07d	0.0028181367
162	0x3980b45e	0.00024548447
163	0xb98b9c87	-0.00026628768
164	0xb9855438	-0.00025430485
165	0xb9f00fcd	-0.0004578814
166	0x3921a3ea	0.00015415219
167	0x393a2fe3	0.00017756181
168	0x388713a0	6.440957e-05
169	0x3935411e	0.00017285763
170	0xb9d2d2d8	-0.00040211412
171	0x3a41d065	0.0007393419
172	0x3a2c6bd2	0.0006577346
173	0x3a69ab61	0.0008913782
174	0x3a0524f8	0.0005079056
175	0x3a151d80	0.0005688295
176	0x39dff3e1	0.00042715578
177	0x3aa1d208	0.0012345919
178	0x39f04d91	0.0004583416
179	0x3a2141fc	0.0006151495
180	0x3a879e96	0.0010346945
181	0x3aa3baf2	0.0012491627
182	0x3ab7b94b	0.0014017014
183	0x39f93266	0.0004753053
184	0x3a5ff124	0.00085427077
185	0x3a1a4400	0.00058847666
186	0x3aa735bf	0.0012757106
187	0x3a7d73d9	0.0009668447
188	0x3a66ac72	0.00087995
189	0x39e4a5d2	0.00043611095
190	0x3947d0f8	0.00019055966
191	0xb6e09400	-6.6929497e-06
192	0x39b3b6c9	0.00034277726
193	0x39aafd98	0.0003261387
194	0x39a99cbe	0.00032350974
195	0x39cd9444	0.00039211113
196	0xb993f013	-0.00028216894
197	0xb9909a4b	-0.00027580778
198	0x3978f9ec	0.00023744226
199	0x3a5171b6	0.00079896615
200	0x3a8794e3	0.0010344054
201	0x3a29251b	0.00064523675
202	0x39b14687	0.00033812618
203	0x3ab5e3b4	0.0013877065
204	0x3a3401a4	0.00068666996
205	0x3a31cf1d	0.00067828764
206	0x3a897ffb	0.0010490412
207	0xb8d40ebd	-0.00010111693
208	0x3914bfe8	0.0001418587
209	0x39c2a559	0.00037125757
210	0x398dcde3	0.00027047013
211	0xb9b95cc7	-0.00035355074
212	0xb7db456a	-2.6139158e-05
213	0xb90f78e5	-0.0001368258
214	0xba0fed77	-0.0005490402
215	0x3a243dce	0.0006265313
216	0x3af861d9	0.0018950059
217	0x3a35483a	0.00069153646
218	0x39e89a55	0.00044365475
219	0x3a5138ea	0.0007981198
220	0x3a786122	0.0009474923
221	0x3a0fdb9d	0.0005487742
222	0x3a859369	0.0010191026
223	0x3a632880	0.0008665398
224	0x3a3168d2	0.00067676336
225	0x3a85484b	0.001016864
226	0x39b685bd	0.00034813388
227	0x39983b88	0.00029036053
228	0x3a857d39	0.0010184414
229	0x39c23da6	0.00037048495
230	0x39861031	0.00025570535
231	0x3a49b4da	0.00076944905
232	0x3ad2c17e	0.0016079394
233	0x3a98071a	0.0011598796
234	0x39f52ca8	0.00046763313
235	0x3a3b0393	0.00071340165
236	0xb97362dd	-0.00023211115
237	0x3a52d608	0.00080427574
238	0x3a51f9c5	0.0008009936
239	0x3a641d25	0.00087018526
240	0x399bf76e	0.00029748253
241	0x37b03377	2.10048e-05
242	0x3a1f1f8d	0.000607007
243	0x39fc8920	0.00048167352
244	0x3a08f573	0.0005224563
245	0x39cbae9b	0.00038849268
246	0x3aa09eaf	0.0012254323
247	0x3a4d6c03	0.00078362244
248	0x3a271e79	0.0006375085
249	0x3a4b31b3	0.0007751241
250	0x3a5d0f88	0.00084327953
251	0x39b6d742	0.00034874125
252	0x3b1f0a96	0.0024267784
253	0x3b0e1967	0.0021682621
254	0x3b1dc458	0.0024073329
255	0x3b2bf289	0.0026237092

momentum_buffer f4 [64]
0	0x3b2deec9	0.0026540032
1	0xbb94f024	-0.0045452286
2	0xbcb9fc91	-0.02270344
3	0xbce8e191	-0.028427871
4	0xb9873910	-0.0002579172
5	0xb96c0de9	-0.00022511896
6	0x3caba8dd	0.020954544
7	0xbc145399	-0.009053134
8	0xb9688e80	-0.0002217833
9	0xbbee8db3	-0.0072800755
10	0xb8d476d0	-0.00010131078
11	0x3c454612	0.012040632
12	0xbb2488b4	-0.0025105895
13	0x3b3a402e	0.0028419602
14	0x3ce32361	0.02772683
15	0xb919af3c	-0.00014656497
16	0x3cbedce1	0.023298683
17	0xbb92ddfd	-0.0044820295
18	0x3c501c8d	0.01270212
19	0x3d0f533d	0.03499149
20	0xbb192583	-0.0023368306
21	0x3c818f06	0.01581527
22	0x3d0ff0f7	0.03514191
23	0x3b83bccf	0.0040203105
24	0xb8585eb2	-5.1586605e-05
25	0x3a8fc634	0.0010969103
26	0xbc1f53a5	-0.009724532
27	0xbc95c230	-0.018281072
28	0x3bd48078	0.006485041
29	0x391e670d	0.00015106444
30	0xbb1d897a	-0.0024038241
31	0xbcb246d9	-0.021762298
32	0x3c9610a5	0.018318484
33	0xbc41eca9	-0.011836209
34	0x39a456cf	0.00031345195
35	0xbb873b24	-0.004126923
36	0x3c0042ee	0.007828457
37	0xbaf1b7e4	-0.0018441644
38	0xbc9d7926	-0.019222807
39	0xbad397c5	-0.0016143253
40	0xbab1c4d6	-0.001356269
41	0xbb243f38	-0.0025062095
42	0xbc64034d	-0.013916803
43	0x3caef38e	0.02135637
44	0xba51be9b	-0.000800112
45	0xb918fc14	-0.00014589756
46	0x3c51af54	0.012798149
47	0xbc2af365	-0.010434006
48	0x3bb8792c	0.005629679
49	0xbd721a2e	-0.059107
50	0xb9168f20	-0.00014358433
51	0xbcde8d46	-0.027166974
52	0x3bfc4143	0.0076982095
53	0xb990c07c	-0.00027609232
54	0xbb78a5dc	-0.0037940657
55	0x3d8c51ab	0.068515144
56	0xb8f5ee48	-0.00011726894
57	0x3976c500	0.00023533776
58	0xbc9b4f74	-0.018958785
59	0x39c37a04	0.00037284207
60	0x3d6d4883	0.05793048
61	0xbcbb4144	-0.02285827
62	0xbab303a4	-0.0013657701
63	0xbb9c6714	-0.00477303

momentum_buffer f4 [64, 64, 3, 3]
0	0xb97cd26d	-0.00024110982
1	0xb9ee4467	-0.0004544586
2	0xb8483d5e	-4.774087e-05
3	0xb9e3143a	-0.00043311884
4	0x38fdd4d3	0.00012103622
5	0xb80ff02c	-3.4317534e-05
6	0xba4437d4	-0.00074851257
7	0xb8717c72	-5.7574776e-05
8	0xb97c379c	-0.00024053309
9	0xbbb2c442	-0.0054555247
10	0xbbba4b3b	-0.0056852377
11	0xbbbd760d	-0.005781895
12	0xbbb7ce21	-0.0056092893
13	0xbbcd7f03	-0.0062712445
14	0xbbb3fe07	-0.005492929
15	0xbb96262b	-0.0045821867
16	0xbb946387	-0.004528466
17	0xbb86fe15	-0.0041196444
18	0xbc896f11	-0.016776593
19	0xbc92b414	-0.017908134
20	0xbc8d27fa	-0.017230976
21	0xbc932aca	-0.01796474
22	0xbc99da23	-0.018780774
23	0xbc98956e	-0.018625941
24	0xbc814b9a	-0.01578312
25	0xbc89b694	-0.016810693
26	0xbc8650a3	-0.016395872
27	0xbc48c31e	-0.012253551
28	0xbc41eaf2	-0.0118358005
29	0xbc3cf4a0	-0.0115329325
30	0xbc465a72	-0.012106525
31	0xbc4a86ed	-0.01236127
32	0xbc323a1d	-0.010878113
33	0xbc465876	-0.012106052
34	0xbc466a48	-0.0121103
35	0xbc3afc35	-0.01141267
36	0xb6ea0072	-6.9737953e-06
37	0xb88e36fb	-6.7813286e-05
38	0x36fcda1b	7.535576e-06
39	0x380c9588	3.3517863e-05
40	0xb947e141	-0.00019062033
41	0xb984fda3	-0.00025365976
42	0x3897d968	7.240736e-05
43	0xb9330612	-0.00017073032
44	0x375eecf6	1.3287403e-05
45	0xb84291b2	-4.6388894e-05
46	0x397e5367	0.00024254397
47	0x39fe1d86	0.00048468652
48	0x39b08bfb	0.0003367363
49	0xba11b002	-0.0005557538
50	0xb91ab6a5	-0.00014754625
51	0xb9894ed8	-0.0002618942
52	0xb9de76d6	-0.0004243168
53	0xb9acdac0	-0.00032969378
54	0xbb7045e4	-0.0036662752
55	0xbb83038e	-0.0039982265
56	0xbb649bd2	-0.0034882915
57	0xbb7b7466	-0.003836894
58	0xbb9f70a5	-0.004865723
59	0xbb84367c	-0.0040348154
60	0xbb54d970	-0.0032478236
61	0xbb639b7e	-0.0034730132
62	0xbb5f9e96	-0.0034121624
63	0xbadfcab6	-0.0017073962
64	0xbb15e69c	-0.002287305
65	0xbb1097c0	-0.0022063106
66	0xbae7f03e	-0.0017695499
67	0xbb2d617b	-0.0026455808
68	0xbb0a616a	-0.0021115192
69	0xbaac8e95	-0.0013165051
70	0xba8c4f23	-0.0010704737
71	0xbaccc85f	-0.001562368
72	0xbc0c8028	-0.008575477
73	0xbc1c5698	-0.00954213
74	0xbc13ff64	-0.009033058
75	0xbc10318e	-0.008800877
76	0xbc197c17	-0.009367964
77	0xbc1295d7	-0.008946857
78	0xbc07c9bc	-0.008287843
79	0xbc13f83f	-0.009031354
80	0xbc1243b4	-0.0089272745
81	0xbba5594b	-0.005046045
82	0xbb8a53b6	-0.004221405
83	0xbb88ba93	-0.004172632
84	0xbbaa3cf2	-0.0051952535
85	0xbbba6e17	-0.0056893933
86	0xbbb37cd8	-0.005477529
87	0xbbb34915	-0.0054713585
88	0xbbaddec9	-0.005306099
89	0xbbaa358e	-0.0051943725
90	0xba1b6610	-0.0005927989
91	0xb76532f0	-1.36613235e-05
92	0x3875b00c	5.857651e-05
93	0xb780f558	-1.5373036e-05
94	0xb8fe5e85	-0.000121292695
95	0x38a6d7e4	7.9557096e-05
96	0xb8b0ed86	-8.436576e-05
97	0xb96186d8	-0.00021507905
98	0x39b5648b	0.0003459792
99	0xbbc49c0a	-0.0060000466
100	0xbbe5ce6b	-0.0070131323
101	0xbbfa1d13	-0.0076328604
102	0xbbe2f398	-0.0069260113
103	0xbc021d94	-0.007941622
104	0xbbef53c9	-0.007303689
105	0xbbc5d940	-0.006037861
106	0xbbeda380	-0.0072521567
107	0xbbee2679	-0.00726777
108	0xbba80898	-0.0051279776
109	0xbbba38ee	-0.005683056
110	0xbbb01212	-0.005373248
111	0xbbac099f	-0.0052501704
112	0xbbd70378	-0.006561693
113	0xbbcc0b1b	-0.00622691
114	0xbbaecc08	-0.005334381
115	0xbbc76424	-0.0060849357
116	0xbbc33a0e	-0.0059578484
117	0xbbb04506	-0.005379322
118	0xbbb4825b	-0.0055087036
119	0xbbae2ae6	-0.0053151725
120	0xbbb2581a	-0.0054426314
121	0xbbbeba4d	-0.0058205486
122	0xbbaca004	-0.005268099
123	0xbb9662b3	-0.0045894026
124	0xbb9ee90c	-0.0048495587
125	0xbba0087d	-0.0048838244
126	0xbc0c6509	-0.0085690105
127	0xbc0df02c	-0.0086632185
128	0xbc0c9347	-0.0085800355
129	0xbc09af40	-0.008403599
130	0xbc0e1e11	-0.008674161
131	0xbc12ddc7	-0.008964009
132	0xbc05f01b	-0.008174921
133	0xbc149b28	-0.009070195
134	0xbc0c98de	-0.008581368
135	0xb93a9417	-0.0001779351
136	0xb907c2ae	-0.00012947127
137	0xb85d4815	-5.2757638e-05
138	0xba1903f6	-0.0005837077
139	0x39572914	0.000205193
140	0x38340050	4.2915635e-05
141	0xb954a9ef	-0.000202812
142	0x391f4baf	0.00015191616
143	0x3a1a9485	0.0005896765
144	0xbc110986	-0.008852368
145	0xbc14a327	-0.009072102
146	0xbc18fffb	-0.009338374
147	0xbc1eef09	-0.009700545
148	0xbc245116	-0.010029098
149	0xbc1fc268	-0.00975094
150	0xbc0508e0	-0.008119792
151	0xbc16295b	-0.009165133
152	0xbc10c4b4	-0.00883596
153	0xbab2683c	-0.0013611387
154	0xba9de254	-0.00120456
155	0xba0d8252	-0.00053981424
156	0xba1c7fd6	-0.0005969977
157	0xba3c66c0	-0.0007186942
158	0xba976fca	-0.0011553701
159	0xbaa28617	-0.0012399581
160	0xbaae40be	-0.0013294441
161	0xb9fca7fa	-0.00048190338
162	0xbb757e49	-0.0037459305
163	0xbb6e07a0	-0.0036320463
164	0xbb7c9114	-0.0038538622
165	0xbb92d995	-0.004481504
166	0xbb98d56a	-0.004664113
167	0xbb90bcf6	-0.004417057
168	0xbb70f5f6	-0.0036767698
169	0xbb815f42	-0.003948123
170	0xbb65ee22	-0.0035084565
171	0xbc1fe1e8	-0.00975845
172	0xbc197f9e	-0.009368805
173	0xbc1bc1d7	-0.009506664
174	0xbc16c0fe	-0.009201286
175	0xbc1468d6	-0.009058198
176	0xbc1bd874	-0.009512056
177	0xbc106490	-0.0088130385
178	0xbc0b6438	-0.008507781
179	0xbc10db47	-0.008841342
180	0xbaac5011	-0.001314642
181	0xba9920d2	-0.0011682755
182	0xba9c44f0	-0.00119224
183	0xbae77c32	-0.0017660914
184	0xbae83c01	-0.0017718078
185	0xba9d1389	-0.0011983971
186	0xbae47667	-0.0017430306
187	0xbab614a2	-0.0013891647
188	0xba95512d	-0.001139199
189	0xbb144d97	-0.0022629255
190	0xbb4f3718	-0.0031618532
191	0xbb38cd06	-0.0028198375
192	0xbb4d2be3	-0.0031306676
193	0xbb481633	-0.003053081
194	0xbb64c42c	-0.0034906967
195	0xbb3acdec	-0.0028504087
196	0xbb30ed09	-0.0026996753
197	0xbb48ee7f	-0.0030659733
198	0xbc56bc50	-0.013106421
199	0xbc65c503	-0.014024022
200	0xbc5cd215	-0.013477822
201	0xbc58d57b	-0.013234491
202	0xbc5da689	-0.013528475
203	0xbc52c78b	-0.012864958
204	0xbc467cea	-0.012114743
205	0xbc587402	-0.013211252
206	0xbc53955d	-0.012914029
207	0xbb3fea54	-0.0029283958
208	0xbb596c7d	-0.0033176236
209	0xbb3d7174	-0.0028906735
210	0xbb31280b	-0.0027031924
211	0xbb5f4fa4	-0.003407457
212	0xbb6a7a88	-0.00357786
213	0xbb2443cd	-0.0025064826
214	0xbb3ac4c8	-0.0028498638
215	0xbb2cdec3	-0.0026377894
216	0x3839517e	4.4183333e-05
217	0xb99dd22e	-0.0003010197
218	0xb90b995e	-0.00013313207
219	0xb95366cd	-0.00020160824
220	0x3a08922f	0.00052097713
221	0x38c7808c	9.513003e-05
222	0xb9eba504	-0.0004494564
223	0xb8a00974	-7.631155e-05
224	0x37623b82	1.3484505e-05
225	0xb941a1c4	-0.00018466177
226	0xb9890bea	-0.00026139553
227	0xb9e7795d	-0.00044150176
228	0xba0b56b0	-0.00053153466
229	0xb92de9af	-0.0001658562
230	0xba3614d8	-0.0006945855
231	0xb9db5c00	-0.0004183948
232	0xba4e6b40	-0.0007874258
233	0xb9984f48	-0.00029050768
234	0x3a9a209c	0.0011758986
235	0x3ad94058	0.0016574962
236	0x3a8a2b9c	0.0010541561
237	0x3a7d82de	0.0009670685
238	0x3ad2ea06	0.0016091473
239	0x3a9f8c48	0.0012172544
240	0x3a836f33	0.0010027647
241	0x3ac77050	0.0015215967
242	0x3ac8c40a	0.0015317213
243	0xbbc6b792	-0.0060643638
244	0xbbd246d9	-0.006417137
245	0xbbcef530	-0.0063158497
246	0xbbd490d8	-0.0064869933
247	0xbbe5f11c	-0.007017268
248	0xbbd69d4f	-0.0065495144
249	0xbbced6d0	-0.0063122287
250	0xbbe43f3c	-0.006965546
251	0xbbc2d63f	-0.0059459503
252	0xbaf0ec61	-0.0018380993
253	0xbab76392	-0.0013991466
254	0xbb042c8f	-0.002016816
255	0xba966df0	-0.0011476856

momentum_buffer f4 [64]
0	0xbc08fb5b	-0.008360709
1	0x3ba15dba	0.004924503
2	0xb91bbc85	-0.00014852181
3	0xbbd898dc	-0.006610019
4	0xbc5f8740	-0.013643086
5	0xba891740	-0.00104592
6	0x3b9120f6	0.004428978
7	0xb809fc30	-3.2898213e-05
8	0x39fe1c1d	0.000484676
9	0x3b627995	0.0034557332
10	0xba4fa8c8	-0.00079215737
11	0xbaf4736e	-0.0018650123
12	0x3c72f66c	0.014829259
13	0xb8cd44fd	-9.788012e-05
14	0xbb72f8b7	-0.0037074515
15	0xbae60324	-0.0017548543
16	0xbb965bec	-0.0045885947
17	0x38a0e94c	7.6728495e-05
18	0xb9837635	-0.00025074338
19	0xbbab60c8	-0.005230043
20	0x38544fee	5.061918e-05
21	0xb898d098	-7.2867784e-05
22	0xba3d0181	-0.0007210002
23	0x3abcdd52	0.001440922
24	0xbb089554	-0.002084096
25	0x39028774	0.00012448226
26	0x38b6a6c7	8.709501e-05
27	0x3c3141d8	0.010818921
28	0x3be58569	0.007004429
29	0xbbce469f	-0.00629504
30	0x3aed2c24	0.001809482
31	0xbb38ea4b	-0.0028215821
32	0xbb9ada9e	-0.004725768
33	0x3b9f9d29	0.00487103
34	0xb821aec9	-3.8548173e-05
35	0xbc24a753	-0.010049659
36	0xb79db000	-1.8797815e-05
37	0xb85c3f12	-5.2510826e-05
38	0x3bea6866	0.0071535585
39	0x3c7ebff2	0.015548693
40	0xb91ed6d1	-0.0001514808
41	0xbc25c91a	-0.010118747
42	0x3933e903	0.00017157574
43	0x3b2bbf76	0.002620665
44	0xb959c9ca	-0.00020769905
45	0xba08d6e2	-0.00052200083
46	0x3ae083ab	0.0017129084
47	0x3b8232dc	0.003973348
48	0xbc329e96	-0.010902068
49	0x3c15da1a	0.009146238
50	0xba1b4097	-0.00059224054
51	0x38b62aec	8.686431e-05
52	0xb99a2823	-0.00029403073
53	0xba364393	-0.00069528184
54	0x3878f20b	5.9353228e-05
55	0x399e15be	0.00030152308
56	0xbbe2a444	-0.0069165546
57	0xba07a9ce	-0.0005175144
58	0xb7743ec4	-1.4558147e-05
59	0x3afcd5a2	0.0019289742
60	0xb83a9a98	-4.4489832e-05
61	0x39c9d5fc	0.00038497138
62	0x3c44895c	0.01199564
63	0xbbc39c92	-0.0059695924

momentum_buffer f4 [1, 64]
0	0xbe1741fa	-0.14771262
1	0xbd55cd70	-0.052197874
2	0xbb6ee96a	-0.0036455044
3	0xbdaabb0b	-0.08336457
4	0xbe113046	-0.14178571
5	0xbcb91a4e	-0.02259555
6	0xbcd8612c	-0.026413523
7	0xba02b304	-0.0004985782
8	0xbc6dbe2e	-0.014510674
9	0xbd13874c	-0.0360177
10	0xbd0f7378	-0.03502223
11	0xbcab320f	-0.020897893
12	0xbda2b15c	-0.07943985
13	0xb99d224f	-0.00029970935
14	0xbd79c8e6	-0.060982607
15	0xbcd4d6f7	-0.02598141
16	0xbd5194fa	-0.051167466
17	0xba596b53	-0.00082938856
18	0xbc02c016	-0.007980367
19	0xbd52002a	-0.051269688
20	0xba4a921c	-0.00077274605
21	0x39b58158	0.0003461938
22	0xbb781982	-0.0037857
23	0xbcae524e	-0.02127948
24	0xbba8f8db	-0.005156619
25	0xbb480693	-0.0030521497
26	0x39a5c48d	0.00031617694
27	0xbd539a0e	-0.05166059
28	0xbd0a5978	-0.03377673
29	0xbd9a1161	-0.07522846
30	0xbc80041b	-0.015626958
31	0xbcc44063	-0.023956483
32	0xbd7171eb	-0.05894653
33	0xbcf944a0	-0.03042823
34	0xbbf47915	-0.007460723
35	0xbdefbf2a	-0.117063835
36	0xbc699744	-0.014257256
37	0x39877ecb	0.00025843675
38	0xbd255224	-0.04036154
39	0xbd8062fe	-0.06268881
40	0x396eef97	0.00022786703
41	0xbdd9d547	-0.106363826
42	0x391fd9c1	0.00015244541
43	0xbd03bdde	-0.032163493
44	0xba19cde8	-0.0005867169
45	0xbbdff895	-0.006835053
46	0xbd265933	-0.04061241
47	0xbce8830b	-0.028382799
48	0xbdcad922	-0.09904696
49	0xbd3f8e71	-0.046766702
50	0xbcb022bf	-0.021500943
51	0xba2aa319	-0.0006509289
52	0xbbab1e34	-0.0052221064
53	0xbadc0260	-0.0016785376
54	0xbb3f80b5	-0.0029221002
55	0xbbe60358	-0.0070194416
56	0xbdbd31fa	-0.09238048
57	0xbc413896	-0.011793276
58	0x39c81204	0.00038160395
59	0xbcf74c65	-0.030187795
60	0xba060bdc	-0.00051134615
61	0xbce5aedb	-0.02803748
62	0xbd44aef4	-0.04801841
63	0xbd678159	-0.05651984

bn0.weight f4 [3]
0	0x3f9b4df2	1.2133162
1	0x3f924fcf	1.1430606
2	0x3f909547	1.1295556

bn0.bias f4 [3]
0	0xbd92c4ee	-0.071664676
1	0xbe7cba0d	-0.24680348
2	0x3db65f3c	0.08904883

bn0.running_mean f4 [3]
0	0x3ef89f41	0.48559
1	0x3ee516f5	0.44744077
2	0x3ed029a0	0.40656757

bn0.running_var f4 [3]
0	0x3d827649	0.06370217
1	0x3d716d52	0.058942147
2	0x3d759ca2	0.05996383

conv1.weight f4 [32, 3, 5, 5]
0	0x3c9ea025	0.019363472
1	0x3bde6907	0.0067874226
2	0xbd3f871b	-0.046759706
3	0x3c1913dd	0.009343115
4	0xbc777dd2	-0.0151056815
5	0x3c9c8d90	0.019110471
6	0x3d38c066	0.04510536
7	0x3d8fa93a	0.07014699
8	0x3d18cc93	0.037304472
9	0x3c830a99	0.015996264
10	0x3d497204	0.049181
11	0x3d2e09f8	0.042489976
12	0xbc94fdb7	-0.018187387
13	0x3ccd5db9	0.025069105
14	0x3def6270	0.11688697
15	0x3db5eefd	0.08883474
16	0x3be972fa	0.007124302
17	0xbdd905ef	-0.10596835
18	0x3ba528a5	0.0050402456
19	0xbd962651	-0.07331527
20	0x3bbc73bb	0.005751101
21	0x3c3894b6	0.011265924
22	0xbc93973d	-0.018016452
23	0xbcbb1e1b	-0.022841504
24	0xba993e18	-0.0011691479
25	0x3cf963ba	0.030443061
26	0xbc41b4cf	-0.011822893
27	0xbb1ee2d4	-0.0024244087
28	0x3d2e56f7	0.042563405
29	0x3c138e30	0.009006068
30	0x3ae4786d	0.0017430909
31	0xbda3cafd	-0.07997701
32	0xbc543f65	-0.012954568
33	0xbdc99afe	-0.098440155
34	0xbd171fb1	-0.036895458
35	0xbd0c2187	-0.03421166
36	0xbcc28486	-0.023744833
37	0xbd208eb2	-0.039198585
38	0xbd0edfd2	-0.03488142
39	0x3dc51901	0.0962391
40	0xbd954095	-0.07287709
41	0xbcb2f931	-0.02184734
42	0x3db9efda	0.09078951
43	0x3e016618	0.12636602
44	0x3b720fa0	0.0036935583
45	0x3df27d24	0.11840275
46	0x3c8fa06a	0.017532546
47	0x3bab6c8d	0.005231446
48	0xbbf6e4b6	-0.0075345887
49	0x3ca4383b	0.020046344
50	0xbd1dc398	-0.03851661
51	0x3bfd28f6	0.00772583
52	0xbcc4568a	-0.023967046
53	0xbdb360e2	-0.08758713
54	0xbdbe9494	-0.09305683
55	0xbcbd9ecc	-0.02314701
56	0xbd5d0e01	-0.053968433
57	0x3cf7b563	0.03023786
58	0xbd3579d6	-0.044305645
59	0xb99625e1	-0.00028638451
60	0x3d763e3e	0.060117953
61	0xbd875bee	-0.06609331
62	0xbcdba614	-0.02681259
63	0x3b2322d3	0.0024892583
64	0xbd2de750	-0.042456925
65	0xbd2cf618	-0.04222688
66	0x3be7611d	0.0070611374
67	0xbd2201ea	-0.039552607
68	0x3c8bb39c	0.017053418
69	0x3d3b76f2	0.045767732
70	0xbd75632f	-0.059909042
71	0xbc875025	-0.016517708
72	0x3d5d0ad2	0.053965397
73	0xbd988797	-0.07447737
74	0xbc5d867f	-0.013520836
75	0xbd38f121	-0.045151833
76	0xbda79ca5	-0.081841744
77	0xbe1a0511	-0.15040995
78	0xbd5cc76f	-0.053901132
79	0xbd08a514	-0.033360556
80	0xbdd00c96	-0.101586506
81	0xbdad7038	-0.0846867
82	0xbd940279	-0.07227034
83	0xbe1040ea	-0.14087263
84	0x3cae690a	0.02129032
85	0x3dc4655d	0.09589646
86	0xbca86a19	-0.020558404
87	0xbdc1475f	-0.09437441
88	0xbd0446cc	-0.03229408
89	0xbdac936b	-0.08426555
90	0x38ccc9de	9.765079e-05
91	0xbc8cc3aa	-0.017183144
92	0xbd5c6c49	-0.053814206
93	0xbc8ae45f	-0.016954599
94	0x3d995f99	0.07488937
95	0x3cc84bfe	0.024450298
96	0x3cc8af0d	0.024497533
97	0x3b9b1dc2	0.004733772
98	0xbdf98106	-0.121828124
99	0xbb83bdcd	-0.0040204288
100	0xbcaedc4f	-0.021345286
101	0x3d7fba61	0.062433604
102	0x3d8b4691	0.06800569
103	0xbd6274fc	-0.055287346
104	0xbd0506a5	-0.03247704
105	0xbdd47dd0	-0.10375559
106	0xbd07fff5	-0.033203084
107	0xbc6f56de	-0.014608113
108	0x3d2a0955	0.041512806
109	0x3ddb7239	0.107151456
110	0x3c4d6d6f	0.012538298
111	0x3d83ba3b	0.06432005
112	0xbd018a30	-0.031625926
113	0xbc2e6adb	-0.0106455935
114	0x3d7b3f7f	0.06133985
115	0xbc60886d	-0.013704401
116	0x3ba17954	0.0049277935
117	0x3c7dc408	0.015488632
118	0xbc34d6fd	-0.011037585
119	0xbd34d41f	-0.044147607
120	0xbd30a637	-0.043127265
121	0xbd182d91	-0.03715283
122	0x3c985188	0.018593565
123	0x3d9a986f	0.07548606
124	0xbc91c1ce	-0.017792609
125	0x3d1659d2	0.036706753
126	0x3d8bcb4b	0.068258844
127	0x3c353ff7	0.011062614
128	0x3e352dd5	0.17693265
129	0xbd0b9dc9	-0.034086023
130	0x3de686fc	0.11256215
131	0x3ca617b7	0.02027498
132	0x3d4e1235	0.050310332
133	0x3daa8880	0.083268166
134	0x3c53309d	0.012890008
135	0x3dccb7ad	0.09995971
136	0x3c743f32	0.014907645
137	0x3cc12ced	0.023580993
138	0x3c95e9d2	0.01829997
139	0x3cdaac40	0.026693463
140	0x3c164917	0.009172699
141	0xbc80b48d	-0.015711093
142	0x3c20e73a	0.009820754
143	0x3d73eba1	0.059550885
144	0x3d2f9773	0.042869043
145	0x3d1863b7	0.03720447
146	0x3d04d540	0.032429934
147	0x3d96fa14	0.07371917
148	0x3dc4e01b	0.09613057
149	0x3d6f9c13	0.058498453
150	0x3d042031	0.032257263
151	0xbd5cb06f	-0.053879198
152	0x3cc1c86e	0.023655143
153	0xbb8631f9	-0.0040953127
154	0xbc60436e	-0.0136879515
155	0x3cfa5f8d	0.03056314
156	0xbcfe4ff7	-0.03104399
157	0xbce40ef5	-0.027839163
158	0xbdb2b6d4	-0.08726278
159	0xbc8cf3c5	-0.017206082
160	0x3d3a1c8a	0.045437373
161	0xbcbde5a6	-0.023180794
162	0x3c0063bb	0.007836278
163	0xbc96f543	-0.018427497
164	0xbc699e0d	-0.014258874
165	0xbd135f52	-0.035979576
166	0x3d005cfd	0.03133868
167	0xbbcf86c1	-0.0063332026
168	0x3ddd192b	0.10795816
169	0xbbfdf974	-0.0077506844
170	0x3d4dd570	0.050252378
171	0xbc5e8d1f	-0.013583451
172	0x3d32b25d	0.04362713
173	0xbc6150d2	-0.013752179
174	0xbd4ba8d5	-0.049721558
175	0xbbc82d35	-0.0061089047
176	0xbdd4bef0	-0.10387981
177	0xbc892190	-0.016739637
178	0xbd493495	-0.04912241
179	0xbda10b7a	-0.07863517
180	0x3c67927d	0.014134047
181	0xbcaa03fb	-0.020753851
182	0xbdc36aa5	-0.09541825
183	0x3cd5d380	0.026101828
184	0x3c5e924f	0.013584687
185	0x3c70d8e5	0.014700149
186	0x3bebde45	0.0071981275
187	0xbdc1e0fc	-0.094667405
188	0xbcce51d8	-0.02518551
189	0xbc645a78	-0.013937585
190	0x3ba54aa5	0.0050442987
191	0x3d38c231	0.04510707
192	0x3b57cf14	0.0032929825
193	0xbdba431f	-0.090948336
194	0xbc9a6f58	-0.018851921
195	0xbc6bd9f7	-0.014395229
196	0xbc3d46f6	-0.011552563
197	0xbd298a0e	-0.041391425
198	0x3dbe6f35	0.09298555
199	0xbd7a4a3e	-0.06110596
200	0x3c9bdf00	0.019027233
201	0xbc9f95b5	-0.019480566
202	0x3d049b0e	0.032374434
203	0x3d7fdf35	0.062468726
204	0xbce84b4b	-0.028356215
205	0xbc8c7461	-0.017145338
206	0xbd4f9b6b	-0.050685328
207	0x3cb520b6	0.022110324
208	0xbb6832a9	-0.0035430586
209	0xbdb7814f	-0.089602105
210	0xbcbc355c	-0.022974662
211	0x3d470026	0.048584126
212	0x3d009c7f	0.031399246
213	0xbc6cad1d	-0.01444557
214	0xbd28e12e	-0.041230373
215	0x3d02b158	0.03190741
216	0x3de88f31	0.113554366
217	0xbcd389de	-0.025822576
218	0x3c035068	0.008014776
219	0x3d2c23d5	0.04202636
220	0xbd65e9ce	-0.056131177
221	0x3dee2b0d	0.11629305
222	0x3c2d3928	0.010572709
223	0x3ca48982	0.0200851
224	0xbda4a698	-0.08039588
225	0xbbc84500	-0.006111741
226	0x3d50d7dc	0.05098711
227	0xbdd7e56d	-0.10541806
228	0xbc3fef8b	-0.011714826
229	0x3c5a1d02	0.01331258
230	0x3d9886bf	0.07447576
231	0x3c88694e	0.016651776
232	0x3d0ce65c	0.034399375
233	0xbd3b5999	-0.045739744
234	0x3c2e04e1	0.01062128
235	0xbd2fc287	-0.042910125
236	0x3d753571	0.05986542
237	0x3d8ab0bf	0.06771993
238	0x3cc76f07	0.024344934
239	0x3c98bc14	0.01864437
240	0x3d54c518	0.051945776
241	0x3d307d8e	0.04308849
242	0xbcbb60b0	-0.022873253
243	0x3d5d5ec6	0.05404546
244	0x3d0c7f1c	0.03430091
245	0xbd031283	-0.032000076
246	0xbc4bfeda	-0.012450898
247	0x3e2c5344	0.16828638
248	0xbbccc70d	-0.0062493146
249	0x3d0eb122	0.034836896
250	0xbce4a2be	-0.027909633
251	0xbd1452d0	-0.03621179
252	0x3cbd5cb1	0.023115488
253	0xbb71756d	-0.0036843673
254	0xbd24e55d	-0.0402578
255	0xbc63d933	-0.013906765

conv1.bias f4 [32]
0	0xbda6a839	-0.08137555
1	0xbe1c0288	-0.1523534
2	0x3e04732d	0.12934561
3	0xbe20b0c3	-0.15692429
4	0xbd8786ea	-0.0661753
5	0x3d65197e	0.055932514
6	0xbd8cf193	-0.06882014
7	0xbdfc1d80	-0.12310314
8	0xbc122168	-0.0089190975
9	0x3da81bb8	0.08208412
10	0x3cb06fee	0.021537747
11	0x3dbaf4b1	0.091287024
12	0xbdb68a97	-0.08913153
13	0xbd3c9395	-0.046039183
14	0x3beedd39	0.0072895554
15	0x3d6ac589	0.05731729
16	0xbd847af2	-0.064687625
17	0x3d8759e9	0.06608946
18	0xbb631be1	-0.0034654068
19	0xbc446c21	-0.011988671
20	0x3dd564aa	0.10419591
21	0xbdc09d1a	-0.09404965
22	0xbd980811	-0.074234135
23	0x3d3d5316	0.046221815
24	0x3d95d5cd	0.0731617
25	0xbe124f38	-0.14288032
26	0xbcfb556d	-0.030680383
27	0x3e07464d	0.13210411
28	0x3d5c6cef	0.053814825
29	0xbdcfebe1	-0.10152412
30	0x3e0b143e	0.1358194
31	0xbcb45d56	-0.022017162
