Ratio_same_wo_GRL/checkpoint_step_0199.pth (torch_old, 541543 bytes, 24 tensors)

momentum_buffer f4 [3]
-0.037272 -0.02156176 -0.04179059
00000000: 86aa 18bd 4aa2 b0bc 9c2c 2bbd

momentum_buffer f4 [3]
0.004614085 0.020934902 -0.0739576
00000000: c031 973b ac7f ab3c 1577 97bd

momentum_buffer f4 [32, 3, 5, 5]
0.03565087 0.03649041 0.037640862 0.04165883 0.043314867 0.036610913 0.03854244 0.036896702
0.03976369 0.040486738 0.032856103 0.03651388 0.035686165 0.03339708 0.0322449 0.030131456
0.033264108 0.032754842 0.031435583 0.031450972 0.029980041 0.030938886 0.031814307 0.034078076
0.035670098 0.034952343 0.036214262 0.037606012 0.040910773 0.041671492 0.03504262 0.03691507
0.035297457 0.037311263 0.037688132 0.030516692 0.034551017 0.03359247 0.030667026 0.029113209
0.026645955 0.030518834 0.030653099 0.02852826 0.028018458 0.027110841 0.027650964 0.028284546
0.030114207 0.03151167 0.028952228 0.031612113 0.033200152 0.03535678 0.03545972 0.02972932
0.032792386 0.031642795 0.032994077 0.03238272 0.026199907 0.030361919 0.029938875 0.02636355
0.023112863 0.022728221 0.027154597 0.026772637 0.024342934 0.023950063 0.022364499 0.024166882
0.025589379 0.026630957 0.027598076 0.074407026 0.07976401 0.08339775 0.074540064 0.08380854
0.06663512 0.083547086 0.09564907 0.08206832 0.06569189 0.03637726 0.06586555 0.09204604
0.07912022 0.058777183 0.035849538 0.050938047 0.065303944 0.058809765 0.052862067 0.04492011
0.046213068 0.040927075 0.044364624 0.049675833 0.08885949 0.091128275 0.093813896 0.08530106
0.0973282 0.08083701 0.09381064 0.10391402 0.092217244 0.07860385 0.053465977 0.07902679
0.10210562 0.0896655 0.0725975 0.05733452 0.06863221 0.08005012 0.07317593 0.068544015
0.06927176 0.06798518 0.0605406 0.064037874 0.069731265 0.07451777 0.07442431 0.074966684
0.06730707 0.07801509 0.06759252 0.07742948 0.08572052 0.073342234 0.05981396 0.040397495
0.062759064 0.084182665 0.071183145 0.054920353 0.04690344 0.054970793 0.06421644 0.057195175
0.054187007 0.06374558 0.05891202 0.04890115 0.05173114 0.059426587 -0.019116335 -0.01932012
-0.016859796 -0.017765315 -0.023800232 -0.022325901 -0.02150267 -0.0207034 -0.021209395 -0.024074934
-0.021136042 -0.01790741 -0.018872194 -0.018190257 -0.019055318 -0.020668235 -0.013978837 -0.015627282
-0.013792662 -0.017458936 -0.023764767 -0.018749561 -0.018362485 -0.0176289 -0.023894643 -0.022922779
-0.023862552 -0.022199363 -0.023348697 -0.029246613 -0.026337983 -0.02586632 -0.026058063 -0.025874743
-0.029004363 -0.025041671 -0.021777067 -0.023972573 -0.023145333 -0.023996022 -0.024154231 -0.017850626
-0.020009527 -0.019643093 -0.022329835 -0.027910985 -0.02259896 -0.022931341 -0.021245044 -0.027901053
-0.018380988 -0.020813307 -0.020202614 -0.02165846 -0.02761555 -0.022267055 -0.023658317 -0.024203055
-0.02554096 -0.029058374 -0.01964061 -0.017791213 -0.020727806 -0.021385513 -0.022754857 -0.017692095
-0.012782302 -0.016588561 -0.016614053 -0.020001106 -0.021255316 -0.016626723 -0.018669361 -0.018716296
-0.025504334 0.04352586 0.04192322 0.042543776 0.04529174 0.045536585 0.041874778 0.040661015
0.042094264 0.042797696 0.046950057 0.041938033 0.04065203 0.04239103 0.044740297 0.04716749
0.04260228 0.040150475 0.043658696 0.047418304 0.046715345 0.04147023 0.040908515 0.0461024
0.045140944 0.044575892 0.024296805 0.02326528 0.023968844 0.0268118 0.027790362 0.024745246
00000000: a606 123d f876 153d 4e2d 1a3d 73a2 2a3d
00000010: ee6a 313d 53f5 153d adde 1d3d ff20 173d
00000020: 40df 223d 6cd5 253d 1f94 063d 948f 153d
00000030: a82b 123d 60cb 083d 3a13 043d 3ed6 f63c
00000040: f23f 083d f129 063d 99c2 003d bcd2 003d
00000050: b498 f53c 8c73 fd3c b84f 023d 7495 0b3d
00000060: cf1a 123d 302a 0f3d 6855 143d c308 1a3d
00000070: 0e92 273d baaf 2a3d da88 0f3d 4234 173d
00000080: 1194 103d b2d3 183d df5e 1a3d 24fe f93c
00000090: 5e85 0d3d 4298 093d 6a39 fb3c d37e ee3c
000000a0: 9e48 da3c a202 fa3c 351c fb3c 19b4 e93c
000000b0: f786 e53c 8e17 de3c 4684 e23c feb4 e73c
000000c0: 12b2 f63c 6212 013d 392d ed3c b47b 013d
000000d0: e2fc 073d 45d2 103d 363e 113d e78a f33c
000000e0: 4f51 063d e09b 013d cc24 073d bea3 043d
000000f0: 30a1 d63c 8fb9 f83c 5f42 f53c 5ff8 d73c
00000100: 3057 bd3c 8930 ba3c 5173 de3c 4a52 db3c
00000110: d56a c73c ec32 c43c c135 b73c a0f9 c53c
00000120: d1a0 d13c 2a29 da3c 5c15 e23c b662 983d
00000130: 505b a33d 71cc aa3d 76a8 983d d0a3 ab3d
00000140: fe77 883d bc1a ab3d a9e3 c33d 6f13 a83d
00000150: 7889 863d 5200 153d 84e4 863d a282 bc3d
00000160: c809 a23d 58c0 703d f7d6 123d 6aa4 503d
00000170: 13be 853d 82e2 703d e585 583d 26fe 373d
00000180: ea49 3d3d 26a3 273d aeb7 353d e378 4b3d
00000190: f7fb b53d 76a1 ba3d 8021 c03d 52b2 ae3d
000001a0: 0254 c73d e08d a53d cb1f c03d e0d0 d43d
000001b0: 65dc bc3d 0efb a03d 24ff 5a3d ccd8 a13d
000001c0: c01c d13d 8ca2 b73d 00ae 943d 9ad7 6a3d
000001d0: 0b8f 8c3d 51f1 a33d 43dd 953d ce60 8c3d
000001e0: 5ade 8d3d d03b 8b3d 6cf9 773d 4a26 833d
000001f0: 44cf 8e3d c69c 983d c66b 983d 2288 993d
00000200: 4ad8 893d 60c6 9f3d f26d 8a3d 5993 9e3d
00000210: 3d8e af3d 7434 963d 7cff 743d d877 253d
00000220: d387 803d f667 ac3d 78c8 913d 2af4 603d
00000230: d21d 403d 0e29 613d e983 833d 7d45 6a3d
00000240: 32f3 5d3d 0b8d 823d bb4d 713d 924c 483d
00000250: 08e4 533d 4b69 733d dc99 9cbc 3a45 9ebc
00000260: 8e1d 8abc 9188 91bc b4f8 c2bc cfe4 b6bc
00000270: 5e26 b0bc 2d9a a9bc 53bf adbc cc38 c5bc
00000280: 7e25 adbc 90b2 92bc dc99 9abc bc03 95bc
00000290: e619 9cbc 6e50 a9bc 7e07 65bc c904 80bc
000002a0: 9efa 61bc 0b06 8fbc 54ae c2bc ae98 99bc
000002b0: ec6c 96bc 7c6a 90bc b3be c3bc 8dc8 bbbc
000002c0: 667b c3bc 70db b5bc c445 bfbc 9896 efbc
000002d0: c1c2 d7bc 9be5 d3bc b877 d5bc 45f7 d3bc
000002e0: 8f9a edbc 3124 cdbc d265 b2bc 2162 c4bc
000002f0: 489b bdbc 4e93 c4bc 18df c5bc 7a3b 92bc
00000300: 05eb a3bc 8dea a0bc 0fed b6bc 94a5 e4bc
00000310: 7421 b9bc 82da bbbc 160a aebc c090 e4bc
00000320: ba93 96bc ab80 aabc f47f a5bc 156d b1bc
00000330: 023a e2bc 6669 b6bc 16cf c1bc 7c45 c6bc
00000340: 463b d1bc d40b eebc 58e5 a0bc e1be 91bc
00000350: 5ccd a9bc ac30 afbc 6568 babc 03ef 90bc
00000360: dc6c 51bc bce4 87bc 321a 88bc 5cd9 a3bc
00000370: a11f aebc c434 88bc 7df0 98bc eb52 99bc
00000380: 77ee d0bc 2c48 323d afb7 2b3d 6242 2e3d
00000390: d583 393d 9284 3a3d e384 2b3d 2a8c 263d
000003a0: 096b 2c3d a34c 2f3d b44e 403d 37c7 2b3d
000003b0: be82 263d 37a2 2d3d 9a41 373d b332 413d
000003c0: ba7f 2e3d d374 243d 76d3 323d b239 423d
000003d0: 9758 3f3d b0dc 293d b08f 273d dfd5 3c3d
000003e0: b6e5 383d 3695 363d 180a c73c d496 be3c
000003f0: 4f5a c43c 6ca4 db3c 9da8 e33c 8bb6 ca3c

momentum_buffer f4 [32]
-0.019113706 -0.06875534 0.043558013 -0.009163585 0.0062053385 0.038871292 0.12961501 -0.003673655
0.063309625 -0.010948138 -0.06865681 -0.0023808982 -0.03293061 -0.020306222 0.10594596 -0.07467677
-0.038317762 0.050624855 -0.11988555 -0.05083296 -0.17520033 -0.13033071 -0.046360694 0.003833753
-0.070162766 0.0041721445 0.08677086 0.019402422 0.013215836 -0.0204469 0.016178992 0.034092415
00000000: 5994 9cbc 9acf 8cbd e369 323d dc22 16bc
00000010: 2756 cb3b 8137 1f3d ccb9 043e b4c1 70bb
00000020: 7aa8 813d d25f 33bc f19b 8cbd d808 1cbb
00000030: 3fe2 06bd 3c59 a6bc 32fa d83d 22f0 98bd
00000040: 16f3 1cbd 025c 4f3d 8e86 f5bd 3936 50bd
00000050: b767 33be 6a75 05be b6e4 3dbd b43f 7b3b
00000060: 7fb1 8fbd 7cb6 883b ecb4 b13d d4f1 9e3c
00000070: 3c87 583c 4280 a7bc ce89 843c 7da4 0b3d

momentum_buffer f4 [32, 32, 3, 3]
0.0022627097 0.0009000831 0.00094485213 0.002023297 0.0015065315 0.0010960281 0.002343123 0.0028391513
0.0020050202 0.0037314976 0.0023127284 0.002925121 0.0044371826 0.003297788 0.0025720375 0.0054476913
0.0035323498 0.0035847449 0.016338006 0.017026829 0.019645343 0.01770204 0.017352048 0.018150872
0.017868062 0.017101068 0.016660225 -0.0028443537 -0.003426055 -0.0045055356 -0.0030215576 -0.0042369566
-0.0044162157 -0.00362152 -0.0033869483 -0.004161383 0.02136042 0.021166787 0.020359188 0.021906514
0.022513814 0.021600043 0.022184838 0.022065893 0.021603461 0.017037824 0.017884988 0.01735308
0.018611465 0.018797215 0.018669803 0.019078366 0.019620256 0.018988535 -0.00042635895 0.001095789
0.001030586 0.0035393722 0.0020799325 -0.0008741843 0.00478602 0.003393252 -5.5083772e-05 -0.0011029087
-0.0021500022 -0.0008959791 -0.0009812433 -0.0011788865 -0.0017838171 -0.0013931389 -0.0020329943 -0.00093460997
0.0044638757 0.0037253376 0.0034348064 0.0018144336 0.0014985416 0.0012057382 0.0002623638 0.00074147223
0.00053620525 0.0030588624 0.004032 0.003499411 0.0016447536 0.0016553409 0.0011629938 0.0035181784
0.0028197137 0.0028067147 0.022092022 0.023310777 0.02444013 0.019345006 0.020039864 0.019566568
0.015564726 0.014288357 0.014668366 0.006363027 0.0057045547 0.006915408 0.0067497855 0.0061780512
0.006386544 0.007933014 0.007626636 0.0072808173 0.024066433 0.023437526 0.023221951 0.022400156
0.02274907 0.022696938 0.021967493 0.02145925 0.019693423 -0.00089677214 -0.0022851622 -0.0036631715
-0.00126059 -0.0021057255 -0.0022517105 -0.0010372875 -0.0010340889 -0.0015421857 0.0007876038 0.00094818743
-0.0020969985 -0.0010757614 -0.0016362767 -0.0031039305 -0.0034286967 -0.0028345357 -0.0021536453 0.004836729
0.003178489 0.0022658426 0.0048245676 0.003674566 0.0013492559 0.0038050334 0.0017902721 0.0010382207
0.012208521 0.009470339 0.009648234 0.0108132735 0.009583179 0.00984002 0.010164862 0.009062408
0.009705021 0.006075852 0.008038454 0.008562684 0.007417678 0.0075356965 0.0070613623 0.009677229
0.009192063 0.0075826836 0.0056475904 0.0057648 0.0066909986 0.0059977192 0.004208875 0.0059125144
0.007502268 0.006191311 0.0054306705 -0.0034672949 -0.0042680884 -0.0049177525 -0.0037125514 -0.004748157
-0.005591196 -0.0020619433 -0.0039934427 -0.0026067751 0.0054692836 0.004891183 0.002753433 0.004832115
0.0034990404 0.0022930827 0.0042426707 0.0039472934 0.0029721842 -0.0038717228 -0.0058200173 -0.0074328617
-0.00521475 -0.006416993 -0.007877501 -0.0036393136 -0.0048284438 -0.0060545197 -0.0020541246 -0.003672002
-0.004569675 -0.0026310799 -0.0042077815 -0.0056646774 -0.0014239538 -0.0023223078 -0.0037029372 0.013290532
0.013425177 0.011865588 0.013737999 0.0131274145 0.012809628 0.012035741 0.013916733 0.014791857
0.005310648 0.00500105 0.004228956 0.0038087484 0.0040393826 0.0043202834 0.0042192023 0.0038556936
0.0046795504 0.018214345 0.017004214 0.015306423 0.017363038 0.016253319 0.015520171 0.016837724
0.01699185 0.015645511 -0.0018637578 -0.0006739928 -0.0027463639 -0.0012582282 -0.0021739984 -0.00224399
0.0021286234 0.0003962326 -0.00046930346 0.0014496477 0.0007942668 0.0014261155 0.0014866984 0.0004747553
-0.0006179685 0.003853035 0.0021260027 0.00044735882 0.006260759 0.005521463 0.004303874 0.00017040665
00000000: f849 143b 8ef3 6b3a f4af 773a 4a99 043b
00000010: cf76 c53a 9aa8 8f3a 158f 193b 0e11 3a3b
00000020: a866 033b 248c 743b 2591 173b 63b3 3f3b
00000030: c965 913b b41f 583b a18f 283b 8c82 b23b
00000040: ff7e 673b 0aee 6a3b 48d7 853c d97b 8b3c
00000050: 45ef a03c de03 913c e225 8e3c 23b1 943c
00000060: 0b60 923c 8a17 8c3c 067b 883c 5668 3abb
00000070: aa87 60bb 2ca3 93bb 5305 46bb 2bd6 8abb
00000080: e7b5 90bb 0657 6dbb 90f7 5dbb 365c 88bb
00000090: 0cfc ae3c f865 ad3c 50c8 a63c 4a75 b33c
000000a0: e46e b83c 93f2 b03c fabc b53c 88c3 b43c
000000b0: bef9 b03c e892 8b3c 8a83 923c 0c28 8e3c
000000c0: 1277 983c 9efc 993c 6af1 983c 3c4a 9c3c
000000d0: a9ba a03c d88d 9b3c ee88 dfb9 94a0 8f3a
000000e0: ba14 873a d0f4 673b 7a4f 083b 8429 65ba
000000f0: 0cd4 9c3b 5261 5e3b c009 67b8 7a8f 90ba
00000100: 0de7 0cbb 24e0 6aba 109d 80ba de84 9aba
00000110: f8ce e9ba fc99 b6ba fc3b 05bb 9d00 75ba
00000120: b445 923b cb24 743b 7d1a 613b 4ad2 ed3a
00000130: b66a c43a dc09 9e3a e08d 8939 5c5f 423a
00000140: 2090 0c3a 3277 483b de1e 843b 6056 653b
00000150: c694 d73a 06f8 d83a 996f 983a 3d91 663b
00000160: f2ca 383b dcf0 373b 54fa b43c 3ef6 be3c
00000170: ab36 c83c 6b79 9e3c a42a a43c 114a a03c
00000180: 3103 7f3c b719 6a3c 9653 703c f080 d03b
00000190: 46ed ba3b a69a e23b 4e2d dd3b 4071 ca3b
000001a0: 3746 d13b 79f9 013c dce8 f93b ec93 ee3b
000001b0: f826 c53c 0e00 c03c f63b be3c 8880 b73c
000001c0: 425c ba3c eeee b93c 2cf5 b33c 4fcb af3c
000001d0: 1a54 a13c 5c15 6bba a9c2 15bb d211 70bb
000001e0: 623a a5ba 3600 0abb 6f91 13bb 98f5 87ba
000001f0: 448a 87ba 2a23 caba 3277 4e3a c88f 783a
00000200: cc6d 09bb 9000 8dba 5678 d6ba 506b 4bbb
00000210: fcb3 60bb 9ec3 39bb 2c24 0dbb 6c7d 9e3b
00000220: 324e 503b 887e 143b 6817 9e3b fdd0 703b
00000230: 84d9 b03a de5d 793b 90a7 ea3a e814 883a
00000240: 4006 483c 7b29 1b3c a013 1e3c 282a 313c
00000250: c402 1d3c 0938 213c 858a 263c 7e7a 143c
00000260: cf01 1f3c f117 c73b b8b3 033c 804a 0c3c
00000270: fe0f f33b 01ee f63b 0063 e73b 3e8d 1e3c
00000280: 4e9a 163c 2978 f83b 6c0f b93b a6e6 bc3b
00000290: 2a40 db3b 8488 c43b 9aea 893b c4bd c13b
000002a0: 96d5 f53b 7be0 ca3b c4f3 b13b 8e3b 63bb
000002b0: 52db 8bbb 1925 a1bb 474e 73bb 6e96 9bbb
000002c0: 5a36 b7bb ab21 07bb 6ddb 82bb 6ed6 2abb
000002d0: ad37 b33b 3846 a03b f172 343b b856 9e3b
000002e0: 2850 653b 8b47 163b 1a06 8b3b 4c58 813b
000002f0: fac8 423b bbbc 7dbb d8b5 bebb 5d8f f3bb
00000300: 7ee0 aabb a445 d2bb a210 01bc 8d81 6ebb
00000310: ec37 9ebb fe64 c6bb 7e9e 06bb f9a5 70bb
00000320: 36bd 95bb 326e 2cbb 6ee1 89bb c29e b9bb
00000330: f6a3 baba dc31 18bb faac 72bb 88c0 593c
00000340: 46f5 5b3c e267 423c 5815 613c 5e14 573c
00000350: 79df 513c 8e31 453c 0203 643c 8c59 723c
00000360: f204 ae3b d9df a33b 0e93 8a3b 329c 793b
00000370: cc5c 843b 2a91 8d3b 3c41 8a3b ceaf 7c3b
00000380: ea56 993b 4036 953c 6c4c 8b3c cbc7 7a3c
00000390: ee3c 8e3c ae25 853c 5148 7e3c 44ef 893c
000003a0: 7e32 8b3c 042b 803c 5649 f4ba e4ae 30ba
000003b0: 57fc 33bb 22eb a4ba a479 0ebb e80f 13bb
000003c0: 6080 0b3b 70bd cf39 d80c f6b9 1b02 be3a
000003d0: 5836 503a 7fec ba3a 52dd c23a 94e8 f839
000003e0: 2aff 21ba 3383 7c3b 6854 0b3b 7c8b ea39
000003f0: 0e27 cd3b 64ed b43b 8307 8d3b 30af 3239

momentum_buffer f4 [32]
0.010286314 0.008076904 -0.013492603 -0.03917839 -0.00040074904 0.08664346 -0.052763738 -0.035736162
-0.0012617607 -0.024251143 0.013965429 -0.07495755 0.0012731308 0.005354939 -0.043348543 -0.010390659
0.03295838 0.03276668 5.2990217e-06 0.05508794 -0.003725454 0.002532469 0.07077467 -0.025229245
0.081140965 0.041954182 -0.010777652 0.053041145 0.0154545065 -0.016448209 0.022328187 0.0010318289
00000000: ee87 283c fe54 043c 1410 5dbc 8579 20bd
00000010: a01b d2b9 2072 b13d ca1e 58bd 1560 12bd
00000020: aa61 a5ba 55aa c6bc 41cf 643c 5883 99bd
00000030: 2edf a63a 7c78 af3b 3e8e 31bd 953d 2abc
00000040: 5eff 063d 5b36 063d 40ce b136 e4a3 613d
00000050: bf26 74bb c8f7 253b 4ff2 903d 90ad cebc
00000060: 3c2d a63d 26d8 2b3d c094 30bc ac41 593d
00000070: e634 7d3c 65be 86bc 9ae9 b63c 6f3e 873a

momentum_buffer f4 [64, 32, 3, 3]
-1.5544078e-05 -0.0005028218 -0.00022118088 -0.00019439335 -0.00017716644 0.00028628245 -0.0002623089 0.00014427974
-0.00035625036 -0.0007059269 -0.00043694832 -0.0009655992 -0.00033839187 -0.00019008231 -0.00057660544 -0.0007167902
-0.00077632756 -0.0010598246 -0.0033081458 -0.0026548535 -0.003274415 -0.002739171 -0.003304944 -0.0036779412
-0.0028603887 -0.0029542684 -0.0037350992 -0.00033781934 -0.00050695223 -0.0010732663 0.00037761696 -0.0010149436
-0.0010291837 -0.0005851125 -0.00091417186 -0.001217603 -0.00030091772 -0.0004579419 -0.00027269858 -6.08153e-06
-0.00048312478 -0.000627161 -0.00011325659 0.000114999755 -0.00028759884 -0.0031667273 -0.0025339548 -0.0028887172
-0.0025609175 -0.0025518963 -0.0027571379 -0.0026190297 -0.0021797214 -0.0030421226 -0.0048641306 -0.005228431
-0.006023928 -0.0055184136 -0.006047328 -0.007304875 -0.0059441156 -0.0061749 -0.0070723016 -0.00019757138
-0.0007357388 -0.00051813247 -0.0007858537 -0.00063405314 -0.0010699378 -0.00014462654 -0.00041366997 -0.00070027664
0.0006825746 2.0462629e-05 0.0004920802 0.0002584787 -0.000117934746 0.00027076685 0.00031641466 0.00011910046
0.000450213 -0.0013628723 -0.0018118832 -0.0019223973 -0.001997843 -0.002784003 -0.0023571076 -0.0022074284
-0.0023433943 -0.0023461538 -0.0044586477 -0.0040784506 -0.005229343 -0.004876144 -0.005557854 -0.005733707
-0.004634175 -0.0061088516 -0.0058973473 -0.0005314969 -0.0005132298 3.3963835e-05 -0.00038015813 -7.3541916e-05
-0.00046930093 -4.6227815e-05 -0.00028624389 -0.00048625935 0.00017878796 0.00020187299 5.4750468e-05 -4.1924795e-05
0.00048200565 0.00070788036 5.462891e-06 0.00014098648 8.7668916e-05 -9.703884e-05 0.0002811459 0.00016998159
0.00018010683 0.0004775102 0.00058614614 -0.00018954623 0.000117880314 4.799469e-06 -0.0008729736 -0.0009720481
-0.0014293109 1.9064348e-05 -0.0011413587 -0.001934915 -0.0009339389 -0.0014196205 -0.0016984509 -0.0031983207
-0.0028298772 -0.0035557689 -0.0036875992 -0.00320924 -0.0033065854 -0.0037150914 -0.0030629584 -0.0042363354
-0.0011081231 -0.0010653272 -0.0011689642 -0.0007992801 -0.0014781229 -0.00066525326 -0.00053063093 -0.00090244564
-0.00086128677 -0.0027158007 -0.0030840673 -0.0040458534 -0.0025615934 -0.0032971413 -0.004093533 -0.0026973449
-0.0033432555 -0.004551595 0.00021829562 -0.00027414507 -0.00027482677 -0.0004817929 0.00013128368 0.00014216432
4.920699e-05 0.00016993724 -0.0004232655 -0.0009555026 -0.0006290541 -0.00016462969 -0.0011889389 -0.00057931227
-0.00046685975 -0.0005634965 -0.0007754154 -0.0003373251 -0.00097176543 -0.0007850898 -0.0010560108 -0.0015797218
-0.0012402056 -0.0019668257 -0.00084548915 -0.001161004 -0.0017417461 0.00014440957 1.86485e-05 -0.00014383222
6.312425e-05 0.00017185368 0.0002037205 6.137731e-05 -0.00047432887 -0.0004231212 -0.00087858574 -0.0010393634
-0.0010587318 -0.000639536 -0.0016900272 -0.00085048826 -0.0007974857 -0.0015930741 -0.0014180768 -0.00025190788
1.2152596e-05 -6.7531555e-06 0.00019491925 -0.00044255174 -0.00032527448 -0.0002094784 -0.0006062502 0.00030977136
-0.000424123 -0.0010021682 -0.00064096984 -0.0013692768 -0.0006954713 -0.00031834783 -0.0011241426 -0.0008945459
-0.0002983386 -0.0006496029 -0.0012509021 -0.0006918136 -0.00047800125 -0.0012272003 -0.0007263472 -0.0008308976
-0.00014160454 8.8628585e-05 -0.00015544181 0.0001045078 -0.00061810034 5.284787e-05 3.0308598e-05 0.00035701267
-0.00027707109 -0.00056233775 0.00021886872 -0.0008236953 -0.0011167881 -0.001346593 -0.00024991916 -0.0009858002
-0.0011612027 -0.0008713447 -0.0011527652 -0.0017274182 -0.0014964263 -0.0019009428 -0.002307234 -0.001692006
00000000: a764 82b7 cdcf 03ba caec 67b9 11d6 4bb9
00000010: c1c5 39b9 2e18 9639 8186 89b9 cc49 1739
00000020: 1dc7 bab9 f40d 39ba 3616 e5b9 4420 7dba
00000030: 306a b1b9 d550 47b9 5627 17ba fae6 3bba
00000040: 7682 4bba d0e9 8aba 7acd 58bb 0dfd 2dbb
00000050: 9197 56bb aa83 33bb c297 58bb 9d09 71bb
00000060: 5c75 3bbb 669c 41bb 91c8 74bb 581d b1b9
00000070: fde4 04ba d7ac 8cba e4fa c539 db07 85ba
00000080: ade5 86ba 3c62 19ba 09a5 6fba fa97 9fba
00000090: 7ec4 9db9 ec17 f0b9 fcf8 8eb9 f20f ccb6
000000a0: e94b fdb9 1068 24ba 2b84 edb8 062c f138
000000b0: ddc8 96b9 de88 4fbb b510 26bb a250 3dbb
000000c0: 11d5 27bb b73d 27bb 19b1 34bb 07a4 2bbb
000000d0: a8d9 0ebb 595e 47bb 4963 9fbb 4253 abbb
000000e0: 5f64 c5bb cfd3 b4bb aa28 c6bb bc5d efbb
000000f0: dbc6 c2bb d156 cabb c4be e7bb 2a2b 4fb9
00000100: 98de 40ba 48d3 07ba c001 4eba 9636 26ba
00000110: 283d 8cba e4a6 17b9 d8e1 d8b9 c592 37ba
00000120: ceee 323a 29a7 ab37 f1fe 003a 6d84 8739
00000130: bc53 f7b8 b6f5 8d39 75e4 a539 93c5 f938
00000140: 910a ec39 68a2 b2ba b67c edba f3f8 fbba
00000150: 3eee 02bb d273 36bb b479 1abb 81aa 10bb
00000160: a293 19bb eec1 19bb d919 92bb 86a4 85bb
00000170: e95a abbb 10c8 9fbb a91e b6bb d2e1 bbbb
00000180: 47da 97bb c32c c8bb 893e c1bb 2754 0bba
00000190: 458a 06ba 6474 0e38 f64f c7b9 843a 9ab8
000001a0: 810c f6b9 bde4 41b8 0113 96b9 a0f0 feb9
000001b0: 0779 3b39 dead 5339 dea3 6538 68d8 2fb8
000001c0: b4b5 fc39 0c91 393a e04d b736 c5d5 1339
000001d0: e4da b738 5581 cbb8 c466 9339 163d 3239
000001e0: 0fdb 3c39 565a fa39 9aa7 193a eec0 46b9
000001f0: 8336 f738 200b a136 44d8 64ba 0bd1 7eba
00000200: b757 bbba 60ec 9f37 a599 95ba f99c fdba
00000210: 94d3 74ba 8f12 baba 8e9e deba eb9a 51bb
00000220: 7675 39bb e707 69bb a6ab 71bb 1d52 52bb
00000230: 4cb3 58bb e478 73bb eabb 48bb f5d0 8abb
00000240: 713e 91ba 73a2 8bba ee37 99ba c886 51ba
00000250: 93bd c1ba 6464 2eba 0a1a 0bba 1a92 6cba
00000260: fac7 61ba 93fb 31bb 101e 4abb 1493 84bb
00000270: 68e0 27bb da14 58bb 0b23 86bb f0c5 30bb
00000280: 851a 5bbb 8c25 95bb 49e6 6439 21bb 8fb9
00000290: a016 90b9 2699 fcb9 32a9 0939 f211 1539
000002a0: 9a63 4e38 2e31 3239 bce9 ddb9 b27a 7aba
000002b0: 1be7 24ba 72a0 2cb9 2bd6 9bba fddc 17ba
000002c0: dbc4 f4b9 9cb7 13ba 3f45 4bba 02db b0b9
000002d0: 13be 7eba 7cce 4dba d869 8aba ab0e cfba
000002e0: 658e a2ba dce5 00bb d1a3 5dba d42c 98ba
000002f0: 4d4b e4ba a66c 1739 596f 9c37 abd1 16b9
00000300: 9361 8438 9f33 3439 ce9d 5539 b1b7 8038
00000310: 58af f8b9 5ed6 ddb9 e450 66ba 403b 88ba
00000320: 25c5 8aba 89a6 27ba e783 ddba 4df3 5eba
00000330: 5c0e 51ba b2ce d0ba c3de b9ba 8112 84b9
00000340: 01e3 4b37 2a99 e2b6 3d63 4c39 4a06 e8b9
00000350: 9a89 aab9 6ea7 5bb9 c3ec 1eba cf68 a239
00000360: d35c deb9 2f5b 83ba c206 28ba 4e79 b3ba
00000370: 4a50 36ba ece7 a6b9 f757 93ba f67f 6aba
00000380: 546a 9cb9 1d4a 2aba 4ff5 a3ba d35a 35ba
00000390: 3e9c fab9 02da a0ba 5668 3eba 98d0 59ba
000003a0: ae7b 14b9 1cde b938 18fe 22b9 332b db38
000003b0: 0308 22ba f8a8 5d38 383f fe37 6e2d bb39
000003c0: da43 91b9 d969 13ba 2080 6539 42ed 57ba
000003d0: 3161 92ba 2a80 b0ba 9507 83b9 f735 81ba
000003e0: 7f33 98ba f46a 64ba 6218 97ba 896a e2ba
000003f0: bc23 c4ba 0e29 f9ba f734 17bb 4dc6 ddba

momentum_buffer f4 [64]
-0.0029491668 0.0068435157 0.022065043 0.037348613 -0.0002020523 -0.004785798 -0.023423348 0.002450378
-0.00055483915 0.0062497873 0.0006664245 -0.008449797 0.0008575855 -0.00044860275 -0.024666537 6.818808e-05
-0.025360962 0.006395842 -0.0054360684 -0.03359359 0.00041594883 -0.008101597 -0.03287165 -0.0054935077
-0.00058802625 -0.0010258725 -0.0017316309 0.0073732818 -0.006967969 0.00021090716 -0.0007700074 0.025122598
-0.006993344 0.010777935 0.004075859 -0.0015955088 -0.0036506495 -0.0006414063 0.023617037 0.0022558721
0.0042950297 0.005071496 0.019928008 -0.027239162 -0.00052588794 -6.955217e-05 -0.015415208 0.014301934
-0.0037551974 0.059649576 -0.00010559945 0.028856825 -0.0057225116 0.0004308875 0.0023398967 -0.043509558
0.000428585 -0.0008207316 0.02185413 0.00023438354 -0.054822702 0.02582495 -1.1059252e-05 0.003307182
00000000: cf46 41bb 923f e03b c0c1 b43c dcfa 183d
00000010: 00de 53b9 2fd2 9cbb 52e2 bfbc 8596 203b
00000020: a072 11ba 04cb cc3b feb2 2e3a 0471 0abc
00000030: 97cf 603a 7132 ebb9 7a11 cabc 3200 8f38
00000040: cbc1 cfbc 3694 d13b 0c21 b2bb 6f99 09bd
00000050: b513 da39 90bc 04bc 6ca4 06bd e202 b4bb
00000060: c625 1aba 9276 86ba e4f7 e2ba 929b f13b
00000070: 8f53 e4bb f626 5d39 52da 49ba e8cd cd3c
00000080: 6c28 e5bb f095 303c c98e 853b 6420 d1ba
00000090: bc3f 6fbb 0c24 28ba 8478 c13c 41d7 133b
000000a0: 52bd 8c3b cb2e a63b 1040 a33c aa24 dfbc
000000b0: bedb 09ba 89dc 91b8 1290 7cbc a952 6a3c
000000c0: c219 76bb 1d53 743d 4675 ddb8 2665 ec3c
000000d0: e883 bbbb bee8 e139 f458 193b 1437 32bd
000000e0: b4b3 e039 5e26 57ba 6f07 b33c dac4 7539
000000f0: c58d 60bd d88e d33c 208b 39b7 4fbd 583b

momentum_buffer f4 [64, 64, 3, 3]
0.00032179194 9.9061035e-05 0.00035082662 0.00013381644 0.0006792349 0.00036659234 -0.00023175986 0.00045132262
0.00011090711 0.00020940928 0.00019550318 -9.696267e-05 0.0005483173 0.000103918836 0.00067894487 0.00084705325
0.001095626 0.0013163915 0.0024845705 0.0018156398 0.0018814057 0.0019022839 0.0015312928 0.0010647159
0.0031441108 0.0025599673 0.0023563134 0.0027878336 0.0033793924 0.0031466107 0.003289148 0.0032051038
0.00415259 0.002873145 0.0030447228 0.0032165702 -3.6199544e-05 -9.67549e-05 -3.94702e-05 1.2729193e-05
-0.00021140199 -0.00029490568 5.073953e-05 -0.00019330709 -2.8654971e-05 0.00068440544 0.0009988395 0.0012082157
0.0011361962 0.0002594769 0.00063078123 0.0004702881 0.00032806632 0.0003934475 0.003209053 0.0030478807
0.0032572292 0.0035057713 0.0026573434 0.0031790487 0.0037265252 0.0036763144 0.0034218705 -0.0011341677
-0.0015669431 -0.0014866559 -0.0011921215 -0.0019227848 -0.0013925908 -0.0012321816 -0.0008556127 -0.0013414826
0.0021216068 0.0014956099 0.0018924673 0.0019624827 0.0017371358 0.0020453013 0.0022350946 0.0018350178
0.0018258721 -0.0011054182 -0.000158193 -0.00026895583 -0.0010744534 -0.0014419312 -0.0013806835 -0.0013667335
-0.0010763413 -0.0011000084 -0.0002270223 0.00035526254 0.00040916802 0.0004411594 0.00033941946 0.00051615713
0.00042591945 0.00029795582 0.0008331965 0.0018104768 0.0011021955 0.00035748957 0.0009875958 0.00026241993
0.0007711644 0.0017544501 0.00083565176 0.0006889282 0.00029585208 -0.000101480284 0.00020742684 0.00039073848
-0.00076464645 -0.00042815902 0.0001640654 -0.00043589086 -0.00030643423 -0.0014574986 -0.0014213736 -0.0012705249
-0.0014145909 -0.0016256857 -0.0011221166 -0.00081767055 -0.0009193705 -0.0009918753 0.0058284886 0.006010403
0.005794954 0.0065342486 0.0065454217 0.0059423847 0.0066104345 0.0060199387 0.0061881067 -0.000114016824
-6.3404346e-05 -5.146236e-05 -0.0005179242 0.00027256436 4.3943874e-05 -0.00013605307 0.0002197646 0.0005905004
0.0046247756 0.004754679 0.004029578 0.0042939326 0.0043170904 0.004110846 0.005264081 0.0045776227
0.004423795 0.0014723103 0.0017060454 0.0023084385 0.0022204588 0.0021792916 0.0016764993 0.0015791152
0.0015539142 0.0023435187 0.0008795383 0.001101359 0.0007987637 0.00026500237 0.00019481755 0.00035401806
0.00071188714 0.0005665816 0.0009199579 0.008928677 0.0095948335 0.008819572 0.01056093 0.011000157
0.009875774 0.010925742 0.011530075 0.010511957 -0.00035928134 -0.00019882238 -0.00032791897 -0.00074174465
-0.0007339637 -0.0002625794 -0.00073358224 -0.00036777538 -0.00021689785 0.0021461672 0.0013597658 0.001464881
0.0014170373 0.00159471 0.0009092025 0.0015992019 0.0018500108 0.0012248972 0.010521363 0.010132154
0.009859502 0.011179378 0.011437782 0.011265434 0.011732185 0.011188831 0.010664292 -0.00026000838
-0.0005892194 -0.00016830832 2.3097033e-05 -0.0006201862 -0.0007941647 0.00012225378 -0.00016902754 4.207896e-05
0.00017988143 -0.00016503986 4.219988e-06 -1.1437138e-05 0.00071501045 0.00029473085 -0.00028527743 9.29862e-05
0.0001869033 0.0006006903 0.0005292543 0.0003446624 0.00027424906 0.00063296076 9.8829805e-05 0.00034152952
-2.6721174e-05 0.00046536856 -9.607442e-05 0.00041030807 -0.00016662067 -0.00035684512 0.00030866754 -5.268025e-05
-0.000268778 0.0002704115 0.00031471025 0.0040718582 0.003949922 0.0038681505 0.003792105 0.003491275
0.0037738206 0.0040082484 0.0035780002 0.0043974686 0.00020145267 0.0006666263 1.9109315e-05 0.0009383402
00000000: 2fb6 a839 fdbe cf38 27ef b739 1451 0c39
00000010: af0e 323a 3133 c039 9004 73b9 7f9f ec39
00000020: cd96 e838 e094 5b39 fcff 4c39 7058 cbb8
00000030: f3bc 0f3a 00ef d938 38fb 313a c80c 5e3a
00000040: 1c9b 8f3a c58a ac3a 2dd4 223b c3fa ed3a
00000050: 8099 f63a 0e56 f93a a9b5 c83a f08d 8b3a
00000060: 6d0d 4e3b 20c5 273b 616c 1a3b 16b4 363b
00000070: cc78 5d3b 5e37 4e3b bf8e 573b b80c 523b
00000080: 7312 883b 604b 3c3b f989 473b 18cd 523b
00000090: f7d4 17b8 e4e8 cab8 ce8c 25b8 788f 5537
000000a0: caab 5db9 929d 9ab9 28d1 5438 7ab2 4ab9
000000b0: 1560 f0b7 ac69 333a 7eeb 823a fe5c 9e3a
000000c0: 6bec 943a 660a 8839 035b 253a 0091 f639
000000d0: 5100 ac39 a147 ce39 fa4e 523b f4be 473b
000000e0: 3d77 553b 15c1 653b d326 2e3b 9657 503b
000000f0: b838 743b 52ee 703b 7641 603b 5aa8 94ba
00000100: e361 cdba e5db c2ba f640 9cba f405 fcba
00000110: 9887 b6ba 2781 a1ba 324b 60ba b0d4 afba
00000120: a80a 0b3b 5708 c43a aa0c f83a ff9c 003b
00000130: 9bb0 e33a 760a 063b aa7a 123b fb84 f03a
00000140: 1a52 ef3a aee3 90ba 9ce0 25b9 a402 8db9
00000150: acd4 8cba 2fff bcba 0df8 b4ba f723 b3ba
00000160: 0514 8dba 282e 90ba d60c 6eb9 8842 ba39
00000170: 9a85 d639 6a4b e739 1cf4 b139 b84e 073a
00000180: f14d df39 f436 9c39 df6a 5a3a 854d ed3a
00000190: 8b77 903a 706d bb39 3772 813a 6895 8939
000001a0: f827 4a3a 94f5 e53a a40f 5b3a 3099 343a
000001b0: 981c 9b39 d0d1 d4b8 b880 5939 08dc cc39
000001c0: 8e72 48ba 887a e0b9 f808 2c39 4888 e4b9
000001d0: e8a8 a0b9 8a09 bfba 624d baba be87 a6ba
000001e0: cb69 b9ba f614 d5ba fc13 93ba f158 56ba
000001f0: e901 71ba d001 82ba e8fc be3b eaf2 c43b
00000200: 99e3 bd3b 401d d63b fa7a d63b 56b8 c23b
00000210: 589c d83b e842 c53b 9ac5 ca3b 511c efb8
00000220: f3f7 84b8 4ad9 57b8 4ec5 07ba f8e6 8e39
00000230: 6050 3838 78a9 0eb9 9c70 6639 d0cb 1a3a
00000240: 6e8b 973b 23cd 9b3b 8d0a 843b 1eb4 8c3b
00000250: 6176 8d3b 47b4 863b 507e ac3b e2ff 953b
00000260: 7bf5 903b 89fa c03a 629d df3a 2c49 173b
00000270: 1e85 113b 72d2 0e3b fbbd db3a 50fa ce3a
00000280: b5ac cb3a b895 193b d190 663a 7a5b 903a
00000290: 2064 513a 04f0 8a39 f047 4c39 809b b939
000002a0: f09d 3a3a a686 143a 5429 713a 9649 123c
000002b0: a633 1d3c f77f 103c c007 2d3c 013a 343c
000002c0: 00ce 213c e201 333c a4e8 3c3c 583a 2c3c
000002d0: ed5d bcb9 fa7a 50b9 8aec abb9 a471 42ba
000002e0: 7867 40ba cfaa 89b9 df4d 40ba fad1 c0b9
000002f0: 136f 63b9 b6a6 0c3b 2b3a b23a 4001 c03a
00000300: e2bb b93a 9705 d13a 8c57 6e3a 509c d13a
00000310: 107c f23a bb8c a03a cb61 2c3c 5601 263c
00000320: c089 213c b629 373c 8965 3b3c a892 383c
00000330: 5a38 403c 5c51 373c 48b9 2e3c bc51 88b9
00000340: d875 1aba ec7b 30b9 80c0 c137 fe93 22ba
00000350: 7e2f 50ba 4031 0039 fc3c 31b9 f07d 3038
00000360: 8e9e 3c39 8d0e 2db9 6c99 8d36 22e2 3fb7
00000370: 8a6f 3b3a 1b86 9a39 4a91 95b9 9601 c338
00000380: 79fb 4339 a577 1d3a a8bd 0a3a ceb3 b439
00000390: 16c9 8f39 47ed 253a d942 cf38 510f b339
000003a0: 4927 e0b7 b6fc f339 907b c9b8 9e1e d739
000003b0: e5b6 2eb9 f116 bbb9 a8d4 a139 fdf4 5cb8
000003c0: c6ea 8cb9 04c6 8d39 b2ff a439 396d 853b
000003d0: 596e 813b cc80 7d3b f784 783b e0cd 643b
000003e0: 3452 773b a057 833b e27c 6a3b a418 903b
000003f0: 0a3d 5339 89c0 2e3a f14c a037 f2fa 753a

momentum_buffer f4 [64]
0.009597937 -0.0063893534 -0.00047548432 0.008362977 0.014308625 0.00055736664 -0.0028624996 -8.0913014e-05
-0.0010109813 -0.0043285587 0.0008002794 0.0031016076 -0.012909226 -9.405949e-05 0.003268704 0.0022941707
0.004443936 4.307892e-05 -0.0008485984 0.0067223962 3.3817196e-05 -7.273122e-05 0.00016306558 -0.0025212048
0.00026366062 -0.0012719848 7.777209e-05 -0.010088782 -0.0063219713 0.006826815 -0.0034416134 0.0018900015
0.005075055 -0.004740201 2.6757189e-05 0.012565725 0.00051039754 -1.3449826e-05 -0.007485214 -0.011323655
-0.00013347303 0.011125795 0.00017771845 -0.0033746795 -0.000324765 0.00056444196 -0.0016593533 -0.0030029947
0.011259907 -0.008341986 0.0013469118 9.240024e-05 0.0013232257 -0.00073059194 -0.00010909756 -0.0029827598
0.0086141275 0.00016717563 -7.974508e-05 -0.0006116526 -0.00015503103 -0.0005370291 -0.010930405 0.008137602
00000000: aa40 1d3c c85d d1bb 6d4a f9b9 de04 093c
00000010: b96e 6a3c 3e1c 123a c698 3bbb d8af a9b8
00000020: e782 84ba 95d6 8dbb d7c9 513a 5744 4b3b
00000030: 3881 53bc ce41 c5b8 c137 563b cc59 163b
00000040: 709e 913b a3af 3438 7a74 5eba 8c47 dc3b
00000050: f0d6 0d38 4787 98b8 95fc 2a39 cc3a 25bb
00000060: ee3b 8a39 bab8 a6ba 9319 a338 6b4b 25bc
00000070: 8a28 cfbb 7ab3 df3b b18c 61bb edb9 f73a
00000080: a64c a63b b053 9bbb a074 e037 78e0 4d3c
00000090: 33cc 053a 90a6 61b7 8746 f5bb da86 39bc
000000a0: e5f4 0bb9 f748 363c ef59 3a39 ba29 5dbb
000000b0: 3845 aab9 0ff7 133a a87e d9ba e4cd 44bb
000000c0: 797b 383c d3ac 08bc dc8a b03a 00c7 c138
000000d0: 1670 ad3a 3285 3fba 4ecb e4b8 687a 43bb
000000e0: 4522 0d3c de4b 2f39 d03c a7b8 5057 20ba
000000f0: d38f 22b9 6ac7 0cba 7115 33bc 9453 053c

momentum_buffer f4 [1, 64]
0.045053728 0.032506514 -0.0019620329 0.01202293 0.034898557 0.0025121844 0.016609456 -0.00021007058
0.0065161274 0.033887766 0.0009730323 0.00054474786 0.09441324 0.0007627063 0.011148459 0.011779147
0.007845905 -0.00095992815 0.003351763 0.018935608 -0.0005375269 0.00038239942 -0.0010176306 0.00786258
0.0013704166 0.0030775561 0.00030869016 0.063544154 0.061016776 0.0057108207 0.026373792 -0.0059756422
0.017045429 0.04746795 0.0069390656 0.0087061245 -0.009063538 0.0003952166 0.049210392 0.08552496
0.00030250082 0.01960217 0.00025584368 0.037180725 -0.00024090473 -0.0015411526 0.021251444 0.012517345
0.0003506965 0.051113714 -0.009894234 -0.00053393404 0.00045693642 -0.0012171804 -0.0006285683 0.017109146
0.023586515 -0.002739378 0.0012030262 0.0012963964 -0.00022129464 0.016213207 0.079529986 0.005993287
00000000: 428a 383d 8d25 053d 7395 00bb d3fb 443c
00000010: caf1 0e3d 76a3 243b 8e10 883c 6446 5cb9
00000020: 3d85 d53b e6cd 0a3d 1813 7f3a 69cd 0e3a
00000030: bb5b c13d 5af0 473a 07a8 363c 53fd 403c
00000040: 1c8c 003c b0a3 7bba 40a9 5b3b d91e 9b3c
00000050: d2e8 0cba c87c c839 0462 85ba 0dd2 003c
00000060: 8d9f b33a d3b0 493b b1d7 a139 7023 823d
00000070: baec 793d d621 bb3b da0d d83c 52cf c3bb
00000080: dba2 8b3c c16d 423d 1a61 e33b 22a4 0e3c
00000090: 3c7f 14bc 1335 cf39 d690 493d b627 af3d
000000a0: f998 9e39 bb94 a03c c222 8639 d14a 183d
000000b0: 5f9b 7cb9 8000 caba 8217 ae3c 8d15 4d3c
000000c0: b0dd b739 9d5c 513d 6d1b 22bc b5f7 0bba
000000d0: f890 ef39 cc89 9fba 81c6 24ba 7b28 8c3c
000000e0: 8238 c13c 2387 33bb dcae 9d3a d8eb a93a
000000f0: 540b 68b9 8fd1 843c 9ee0 a23d 5663 c43b

bn0.weight f4 [3]
1.2140124 1.1438317 1.1299332
00000000: c264 9b3f 1469 923f a7a1 903f

bn0.bias f4 [3]
-0.07185132 -0.24712189 0.08964723
00000000: c926 93bd 850d 7dbe f898 b73d

bn0.running_mean f4 [3]
0.48559 0.44744077 0.40656757
00000000: 419f f83e f516 e53e a029 d03e

bn0.running_var f4 [3]
0.06370217 0.058942147 0.05996383
00000000: 4976 823d 526d 713d a29c 753d

conv1.weight f4 [32, 3, 5, 5]
0.019357955 0.00678328 -0.046767287 0.009321725 -0.015128573 0.019103467 0.045093697 0.07013591
0.037279665 0.015967749 0.049205538 0.042504534 -0.01817605 0.025075568 0.11688961 0.08886881
0.0071501685 -0.10594873 0.0050563486 -0.073291525 0.0057737334 0.011286248 -0.017998496 -0.022821385
-0.0011481517 0.030419022 -0.011851323 -0.0024571337 0.042523004 0.008971923 0.0017229504 -0.080002524
-0.012979 -0.09846962 -0.036925122 -0.03419632 -0.023744447 -0.039199386 -0.0348798 0.0962404
-0.07283942 -0.021827208 0.09079745 0.12637831 0.0037197615 0.11842395 0.017554102 0.0052540135
-0.0075057023 0.020078046 -0.03855351 0.007672828 -0.024028752 -0.08765216 -0.09311382 -0.023180297
-0.05401739 0.030183876 -0.04436353 -0.00033920276 0.060114957 -0.066110685 -0.026837287 0.0024689757
-0.042463716 -0.04220885 0.007056893 -0.03956479 0.017047081 0.045770966 -0.059900697 -0.016520297
0.053955592 -0.074475445 -0.01351593 -0.045262314 -0.08199228 -0.15058804 -0.054028366 -0.033483993
-0.10162969 -0.08481752 -0.07247781 -0.14100778 0.021220356 0.09594438 -0.020634457 -0.09453779
-0.032376327 -0.08426336 0.00020827707 -0.017176555 -0.053880624 -0.01697493 0.074923925 0.024526563
0.024513967 0.0047379085 -0.12181788 -0.003996256 -0.021369891 0.06240071 0.067958154 -0.055285547
-0.032502588 -0.10370903 -0.03320363 -0.014663418 0.041513354 0.10718735 0.0126641765 0.06435867
-0.031647526 -0.010590316 0.061442155 -0.013547206 0.005018646 0.01553035 -0.010949556 -0.04402497
-0.043024752 -0.037079193 0.018673608 0.0755641 -0.017710503 0.036612432 0.06817196 0.010972157
0.17687914 -0.034161337 0.112540185 0.020228188 0.050216917 0.08323387 0.012890068 0.10003026
0.014915853 0.023532597 0.018327903 0.026759518 0.009266672 -0.015656771 0.0098362 0.059604988
0.04293965 0.03721124 0.03243523 0.073743835 0.096151225 0.058502674 0.03222657 -0.053940143
0.02357835 -0.0041589867 -0.013716742 0.030560086 -0.031086138 -0.027895452 -0.08731151 -0.017234458
0.04544181 -0.023214657 0.0077910414 -0.01847841 -0.01430221 -0.035967276 0.031309746 -0.0063595567
0.107912116 -0.0077871927 0.05028361 -0.013577559 0.04363777 -0.013746348 -0.049707863 -0.0061887233
-0.103986114 -0.01685834 -0.049229935 -0.07870985 0.01408311 -0.020841947 -0.0955119 0.026005553
0.013510234 0.014656438 0.007116866 -0.09474731 -0.025275974 -0.0140223885 0.0050020814 0.04502911
0.0032242273 -0.09102503 -0.018930044 -0.014415635 -0.011599047 -0.041423198 0.092939846 -0.061138377
0.018993752 -0.019532273 0.032315783 0.062421005 -0.028368788 -0.017146999 -0.050712164 0.0220748
-0.003569221 -0.089602835 -0.022976704 0.048552487 0.03136966 -0.014473776 -0.04124941 0.031895615
0.11351603 -0.02584136 0.007989101 0.0420044 -0.056122925 0.116277955 0.010581831 0.020094251
-0.0803727 -0.0062210513 0.050918207 -0.10548258 -0.011819581 0.013211185 0.07439407 0.01660826
0.034350682 -0.045812864 0.010523051 -0.042995006 0.05981933 0.06767132 0.024257591 0.018546138
0.051842123 0.043038577 -0.022927485 0.05393713 0.03420346 -0.03209497 -0.012510465 0.16819738
-0.0063520283 0.03473196 -0.02785097 -0.036121517 0.0232043 -0.0036335834 -0.040208768 -0.013845514
00000000: 9394 9e3c 4746 de3b 0e8f 3fbd 26ba 183c
00000010: d6dd 77bc e07e 9c3c 2bb4 383d 6aa3 8f3d
00000020: 90b2 183d ccce 823c bf8b 493d 3c19 2e3d
00000030: f1e5 94bc 476b cd3c d263 ef3d da00 b63d
00000040: f64b ea3b a6fb d8bd baaf a53b de19 96bd
00000050: 9631 bd3b f5e9 383c 9571 93bc eaf3 babc
00000060: 947d 96ba 5031 f93c 0d2c 42bc dd07 21bb
00000070: 9a2c 2e3d f9fe 123c 9fd4 e13a 5dd8 a3bd
00000080: dfa5 54bc 71aa c9bd cc3e 17bd 7111 0cbd
00000090: b783 c2bc 898f 20bd 1fde 0ebd b019 c53d
000000a0: d52c 95bd f9ce b2bc 03f4 b93d 5169 013e
000000b0: 3ec7 733b 4288 f23d 9fcd 8f3c dc29 ac3b
000000c0: 65f2 f5bb b77a a43c 49ea 1dbd 596c fb3b
000000d0: f2d7 c4bc fa82 b3bd 75b2 bebd 9be4 bdbc
000000e0: 5741 5dbd 2d44 f73c 88b6 35bd 06d7 b1b9
000000f0: 1a3b 763d 0a65 87bd dfd9 dbbc 8ace 213b
00000100: 6fee 2dbd 30e3 2cbd 823d e73b b00e 22bd
00000110: 52a6 8b3c 567a 3b3d 6f5a 75bd 9355 87bc
00000120: 8a00 5d3d 9586 98bd eb71 5dbc fa64 39bd
00000130: 92eb a7bd c033 1abe d94c 5dbd 8326 09bd
00000140: 3a23 d0bd cfb4 adbd 3f6f 94bd 5864 10be
00000150: 50d6 ad3c 7d7e c43d 9809 a9bc 079d c1bd
00000160: 0a9d 04bd 4592 acbd f364 5a39 d9b5 8cbc
00000170: eeb1 5cbd 020f 8bbc b771 993d eeeb c83c
00000180: 84d1 c83c 7540 9b3b a77b f9bd 06f3 82bb
00000190: e90f afbc e397 7f3d a52d 8b3d 1973 62bd
000001a0: 6f21 05bd 6665 d4bd 8800 08bd d53e 70bc
000001b0: e809 2a3d 0b85 db3d 687d 4f3c 7ace 833d
000001c0: d6a0 01bd 0183 2dbc c5aa 7b3d 1af5 5dbc
000001d0: 7473 a43b 0273 7e3c c465 33bc 8753 34bd
000001e0: b93a 30bd 5ae0 17bd 65f9 983c 5ac1 9a3d
000001f0: 9e15 91bc ebf6 153d be9d 8b3d 90c4 333c
00000200: ce1f 353e c2ec 0bbd 787b e63d 96b5 a53c
00000210: 41b0 4d3d 8576 aa3d dd30 533c aadc cc3d
00000220: 9f61 743c 6fc7 c03c 6624 963c c736 db3c
00000230: 3dd3 173c a142 80bc 0328 213c 5c24 743d
00000240: 7de1 2f3d d06a 183d ceda 043d 0207 973d
00000250: efea c43d 80a0 6f3d 0200 043d 57f0 5cbd
00000260: 6227 c13c 1c48 88bb 30bc 60bc 2559 fa3c
00000270: 5ba8 febc 0185 e4bc 61d0 b2bd 472f 8dbc
00000280: 3121 3a3d aa2c bebc fe4b ff3b 0960 97bc
00000290: d153 6abc 6c52 13bd a63e 003d d463 d0bb
000002a0: 0701 dd3d b52b ffbb 30f6 4d3d 6974 5ebc
000002b0: 85bd 323d 5d38 61bc 799a 4bbd c6ca cabb
000002c0: acf6 d4bd 801a 8abc 54a5 49bd a132 a1bd
000002d0: d8bc 663c bbbc aabc be9b c3bd 9909 d53c
000002e0: 075a 5d3c 8e21 703c 9934 e93b e10a c2bd
000002f0: 8f0f cfbc 29be 65bc 80e8 a33b 7270 383d
00000300: 8f4d 533b 556b babd 2e13 9bbc 8e2f 6cbc
00000310: ee09 3ebc 5fab 29bd 3f57 be3d 3c6c 7abd
00000320: c998 9b3c 2502 a0bc 8e5d 043d 2bad 7f3d
00000330: a965 e8bc dd77 8cbc 8fb7 4fbd 36d6 b43c
00000340: 97e9 69bb b181 b7bd a439 bcbc f9de 463d
00000350: 797d 003d 6b23 6dbc 24f5 28bd faa4 023d
00000360: 187b e83d 43b1 d3bc b8e4 023c ce0c 2c3d
00000370: 27e1 65bd 2323 ee3d 6b5f 2d3c b39c a43c
00000380: 719a a4bd f6d9 cbbb 9c8f 503d 4007 d8bd
00000390: eaa6 41bc ba73 583c eb5b 983d 0c0e 883c
000003a0: 4db3 0c3d 45a6 3bbd e068 2c3c 881b 30bd
000003b0: 1d05 753d 4397 8a3d dbb7 c63c 12ee 973c
000003c0: 6858 543d 3849 303d 6cd2 bbbc 2eed 5c3d
000003d0: ed18 0c3d 0476 03bd b2f8 4cbc ef3b 2c3e
000003e0: ad24 d0bb 1a43 0e3d b827 e4bc 28f4 13bd
000003f0: f216 be3c 6a21 6ebb f3b1 24bd 4bd8 62bc

conv1.bias f4 [32]
-0.081343375 -0.15235549 0.1293404 -0.15668575 -0.066178426 0.056030158 -0.06933292 -0.123119175
-0.008930721 0.082161 0.021630451 0.091305055 -0.08915387 -0.045928277 0.007131977 0.057918645
-0.06427299 0.066063456 -0.003375474 -0.01192235 0.104680516 -0.09390613 -0.07412493 0.046163093
0.07374617 -0.14292818 -0.030639227 0.13205145 0.053767946 -0.10147088 0.13589711 -0.021971866
00000000: 5b97 a6bd 1403 1cbe cf71 043e 3b72 20be
00000010: 8e88 87bd e17f 653d 6bfe 8dbd e825 fcbd
00000020: 2952 12bc 0744 a83d 5832 b13c 25fe ba3d
00000030: 4e96 b6bd 4a1f 3cbd 5cb3 e93b 1a3c 6d3d
00000040: 8fa1 83bd 474c 873d 0e37 5dbb f655 43bc
00000050: bd62 d63d db51 c0bd d0ce 97bd 8315 3d3d
00000060: 3b08 973d c45b 12be 1eff fabc 7f38 073e
00000070: c73b 5c3d f7cf cfbd 9d28 0b3e 58fe b3bc

conv2.weight f4 [32, 32, 3, 3]
0.045893848 -0.111286476 0.017081916 -0.02914611 -0.05095648 -0.056176078 -0.07701906 0.05643106
-0.010490444 -0.18598211 -0.23922504 -0.054728482 -0.025523677 0.0047691944 -0.08378974 0.036054637
-0.15938704 -0.12205259 0.009281637 -0.009816666 0.20747475 0.023371616 0.004289083 0.05641407
0.012199338 -0.0997779 -0.07414262 -0.07879368 -0.025721982 -0.11586127 -0.01725991 -0.09093865
-0.011493797 -0.079802155 0.10297062 0.03199997 0.081492394 0.006566702 -0.07597561 0.04792505
0.057570282 -0.01302742 0.22316135 0.048674464 0.0557349 3.956316e-05 0.07418626 -0.067872226
-0.06678307 0.01304534 0.03142617 0.086297825 0.16601688 0.12828934 -0.120421104 -0.0846012
-0.026336167 0.09467316 -0.0774388 -0.07667543 0.025590004 -0.06630943 0.078169845 0.012878555
-0.10726799 0.08596324 0.057238083 0.10709498 -0.09031718 -0.06701573 -0.12075227 0.0057701566
0.068573065 -0.07047225 0.04783384 0.07824958 -0.066484064 -0.021979831 0.03985633 0.06317054
0.067850105 0.05511137 0.05217812 -0.020864641 0.02277657 0.03725405 -0.00552494 0.06341307
-0.04931239 0.005152745 0.012276365 0.04237197 0.06334411 0.033484574 0.038823355 -0.07684763
0.030550873 -0.16404453 -0.07327218 0.106459044 -0.0850065 -0.05588734 -0.0599986 -0.04610556
-0.072804295 0.028455416 0.040510926 0.016039653 -0.025749333 -0.037961654 0.03089569 -0.06437053
-0.02965915 0.027330907 0.07827176 0.020198865 -0.18856232 0.03352895 -0.030280577 -0.14446428
-0.016765948 0.030957958 0.100178555 -0.03777041 0.098258056 0.07332196 0.061626963 0.15013717
0.069544934 0.054920446 -0.013739449 -0.076934256 -0.059828896 -0.028701406 -0.08439593 -0.12820746
-0.13341962 0.049179535 0.010902338 0.09821811 -0.0042033866 -0.11900384 -0.18335432 0.015372813
0.15494584 -0.15599574 0.03810251 -0.08441057 -0.11427585 0.08895392 -0.08321682 -0.21286316
0.018671582 -0.02434261 0.078546345 0.013305228 -0.020128025 -0.009299446 -0.10554323 0.0660228
0.12548599 0.05612211 0.021778228 0.014147314 -0.045100912 -0.09117657 -0.12529448 0.07957208
0.008355696 0.09725466 -0.047781236 -0.028570877 0.07170088 0.07092642 0.04248641 0.12121107
0.009684279 -0.039822925 -0.16284622 0.12923342 0.029768653 0.039396286 -0.16690165 0.052188653
-0.009209607 -0.07012131 -0.06200719 0.014977339 -0.03536928 0.004541085 -0.017996768 0.010843388
-0.09976317 0.03999433 0.045659017 0.009878993 0.059102096 0.032903958 0.00192078 0.040246867
0.13549478 0.010377233 0.076106414 0.04597038 -0.072523944 0.06456202 0.030672228 -0.13993792
0.028332142 -0.0185282 0.052343503 -0.028779788 -0.06600357 -0.13185315 0.03870246 0.08586581
0.024620393 0.0036579687 -0.008301226 -0.11674201 -0.10886463 -0.051947538 -0.03052573 -0.16216902
-0.049014874 0.046198715 0.04726428 -0.06108361 -0.029193735 -0.11221795 -0.015053307 0.0673729
0.15315561 0.08719333 -0.07930343 0.16394562 -0.10057726 -0.024066128 -0.057718206 0.1009062
0.05542364 -0.061586168 -0.09118024 0.0874463 0.030189952 0.10351446 -0.068676785 0.09216642
-0.048421517 -0.04920383 0.039660115 -0.02964907 0.048193946 0.07427906 0.054803234 -0.124119885
00000000: 30fb 3b3d 2aea e3bd 60ef 8b3c d3c3 eebc
00000010: beb7 50bd e318 66bd 2bbc 9dbd 4124 673d
00000020: 1ce0 2bbc 1872 3ebe 69f7 74be f92a 60bd
00000030: 0817 d1bc e746 9c3b f599 abbd 07ae 133d
00000040: 5b36 23be b5f6 f9bd 0212 183c 15d6 20bc
00000050: 4374 543e d575 bf3c 708b 8c3b 7112 673d
00000060: bbdf 473c 5b58 ccbd 16d8 97bd 955e a1bd
00000070: e8b6 d2bc ac48 edbd a864 8dbc 0b3e babd
00000080: 7b50 3cbc 506f a3bd 43e2 d23d 6712 033d
00000090: 7ce5 a63d 7d2d d73b 1a99 9bbd 0f4d 443d
000000a0: d1ce 6b3d f670 55bc 6984 643e e05e 473d
000000b0: 474a 643d 9ff0 2538 f7ee 973d 9800 8bbd
000000c0: 90c5 88bd 1fbc 553c bab8 003d eabc b03d
000000d0: 5400 2a3e 485e 033e 579f f6bd 6543 adbd
000000e0: f2be d7bc 00e4 c13d 3c98 9ebd 0208 9dbd
000000f0: 21a2 d13c 3dcd 87bd 8317 a03d 9300 533c
00000100: 52af dbbd 7f0d b03d 7b72 6a3d 9d54 db3d
00000110: 37f8 b8bd 8b3f 89bd f74c f7bd 9513 bd3b
00000120: 0970 8c3d c153 90bd 6bed 433d 5141 a03d
00000130: cc28 88bd 0c0f b4bc 6440 233d 8e5f 813d
00000140: fff4 8a3d 76bc 613d b9b8 553d 53ec aabc
00000150: ee95 ba3c b497 183d 8e0a b5bb b6de 813d
00000160: cafb 49bd 5cd8 a83b cf22 493c 3b8e 2d3d
00000170: 8fba 813d 1f27 093d 3d05 1f3d 4a62 9dbd
00000180: d345 fa3c 4afb 27be ba0f 96bd 3307 da3d
00000190: e317 aebd 20ea 64bd 18c1 75bd 2fd9 3cbd
000001a0: 6b1a 95bd 551b e93c c9ee 253d 9765 833c
000001b0: 44f0 d2bc ae7d 1bbd f518 fd3c b2d4 83bd
000001c0: bff7 f2bc 11e5 df3c f24c a03d 1778 a53c
000001d0: 7b16 41be a755 093d f90e f8bc 72ee 13be
000001e0: be58 89bc 8b9b fd3c 6a2a cd3d 25b5 1abd
000001f0: 853b c93d d329 963d 8e6c 7c3d 8fbd 193e
00000200: 936d 8e3d 43f4 603d 6d1b 61bc b58f 9dbd
00000210: 250f 75bd 361f ebbc c6d7 acbd d148 03be
00000220: 279f 08be 7b70 493d b89f 323c 9426 c93d
00000230: 90bc 89bb 49b8 f3bd 3cc1 3bbe 40de 7b3c
00000240: 1faa 1e3e 59bd 1fbe 6111 1c3d 73df acbd
00000250: 7509 eabd 792d b63d 956d aabd cdf8 59be
00000260: 25f5 983c 276a c7bc e8dc a03d 2cfe 593c
00000270: 87e3 a4bc b45c 18bc 0d27 d8bd f636 873d
00000280: 667f 003e 4ce0 653d 4168 b23c 23ca 673c
00000290: bcbb 38bd c8ba babd 324d 00be b0f6 a23d
000002a0: 54e6 083c 742d c73d 42b6 43bd 790d eabc
000002b0: e9d7 923d df41 913d 3b06 2e3d 823d f83d
000002c0: cfaa 1e3c 5d1d 23bd 29c1 26be c455 043e
000002d0: 64dd f33c 005e 213d 44e8 2abe c5c3 553d
000002e0: e4e3 16bc c39b 8fbd 40fb 7dbd 8363 753c
000002f0: 61df 10bd 62cd 943b f56d 93bc 77a8 313c
00000300: a250 ccbd 18d1 233d f304 3b3d 80db 213c
00000310: 0a15 723d 4dc6 063d afc2 fb3a e6d9 243d
00000320: 25bf 0a3e 4505 2a3c aedd 9b3d 704b 3c3d
00000330: 6f87 94bd 1839 843d 5344 fb3c e34b 0fbe
00000340: cf18 e83c 74c8 97bc 2466 563d 97c3 ebbc
00000350: e12c 87bd 8304 07be 7886 1e3d 6ada af3d
00000360: b5b0 c93c 88ba 6f3b de01 08bc 6f16 efbd
00000370: 6bf4 debd f1c6 54bd 1911 fabc a30f 26be
00000380: d2c3 48bd dd3a 3d3d 3198 413d cf32 7abd
00000390: b327 efbc 86d2 e5bd 25a2 76bc cefa 893d
000003a0: d3d4 1c3e 6b92 b23d d669 a2bd 5ce1 273e
000003b0: 73fb cdbd 5426 c5bc ed69 6cbd e9a7 ce3d
000003c0: e603 633d c741 7cbd b5bc babd 0c17 b33d
000003d0: eb50 f73c 64ff d33d 6aa6 8cbd bfc1 bc3d
000003e0: a455 46bd f589 49bd a572 223d 9be2 f2bc
000003f0: 0467 453d 9f1f 983d 5b79 603d 9132 febd

conv2.bias f4 [32]
0.030059211 0.047845617 -0.036067855 0.14130156 -0.022413611 -0.030834336 0.015360775 0.05452655
0.02915935 -0.0028046777 -0.0009917069 0.055327725 0.022841645 -0.010689485 0.064906314 0.054055836
0.075764336 0.04243142 -0.028094538 -0.035504855 -0.0104686385 -0.015786087 0.002341496 0.02832809
0.10927119 0.00867811 0.04766286 0.04865013 -0.013377422 0.04255029 0.036813907 0.012279302
00000000: bc3e f63c c4f9 433d e3bb 13bd 5bb1 103e
00000010: c09c b7bc 4a98 fcbc c3ab 7b3c 3b57 5f3d
00000020: 97df ee3c afce 37bb 29fc 81ba 539f 623d
00000030: 671e bb3c f322 2fbc 9aed 843d a769 5d3d
00000040: 552a 9b3d 92cc 2d3d 8426 e6bc 8a6d 11bd
00000050: a784 2bbc d351 81bc c973 193b 5010 e83c
00000060: 93c9 df3d a22e 0e3c 223a 433d 5c45 473d
00000070: f92c 5bbc 3649 2e3d 2eca 163d 202f 493c
