Ratio_same_wo_GRL/checkpoint_step_0290.pth (torch_old, 541544 bytes, 24 tensors)

momentum_buffer f4 [3]
000000 6d e3 18 3e f2 b1 dc be 3d 45 3b 3e
       0.14930506 -0.43104511 0.18288131

momentum_buffer f4 [3]
000000 7c f7 d8 3b 08 7e 31 bc 74 20 fb 3c
       0.0066212993 -0.010833271 0.030655123

momentum_buffer f4 [32, 3, 5, 5]
000000 a2 2e 51 bd ff bc 83 bd 34 79 97 bd e2 3f 8b bd
       -0.051069863 -0.064325325 -0.073961645 -0.06799294
000010 d8 ae 5c bd 3e 41 49 bd e5 fd 80 bd cc b3 8c bd
       -0.05387768 -0.049134485 -0.062984265 -0.06870231
000020 de e7 74 bd ad 9e 30 bd 5d dc 3e bd 2e f0 71 bd
       -0.05979144 -0.043120075 -0.046596874 -0.059066944
000030 66 a9 78 bd 20 9f 2b bd 92 cc b8 bc b5 df 34 bd
       -0.060708426 -0.0418998 -0.022558484 -0.044158656
000040 0f c2 53 bd 76 29 4b bd 14 ea 09 bd 83 5c c0 bc
       -0.05169874 -0.049600087 -0.0336705 -0.023481613
000050 f0 5b 1a bd 36 72 34 bd ae a7 3e bd 66 a1 24 bd
       -0.037685335 -0.044054233 -0.04654663 -0.040192984
000060 7c 61 f3 bc 57 86 cb bd 2d da e5 bd 77 e1 f7 bd
       -0.02970957 -0.09937733 -0.11223254 -0.12103551
000070 e8 9f ee bd 5e 45 d6 bd 30 d3 cf bd ca 13 ec bd
       -0.116515934 -0.104624495 -0.10147703 -0.11527212
000080 a9 66 f6 bd fc a6 e7 bd 3e d8 c9 bd ca b7 cf bd
       -0.120312996 -0.113111466 -0.09855698 -0.10142477
000090 3d 7f e7 bd a9 66 e9 bd 75 4b c7 bd 9e 87 a4 bd
       -0.11303566 -0.11396534 -0.09731189 -0.080336794
0000a0 c6 e1 cb bd ea 27 d8 bd 13 88 d1 bd 83 df b5 bd
       -0.09955172 -0.10554488 -0.10231032 -0.08880522
0000b0 ec 4e a5 bd 3e 5a bd bd 9e 89 c9 bd 59 5a ce bd
       -0.08071694 -0.09245728 -0.098407015 -0.10075826
0000c0 b2 e6 c4 bd be 89 b2 bd 3e a4 c2 bd 2d 22 d7 bd
       -0.09614314 -0.087176785 -0.09503983 -0.105045654
0000d0 33 1f e6 bd ea e9 e1 bd 59 66 ce bd 14 06 c9 bd
       -0.112364195 -0.11030944 -0.10078115 -0.098156124
0000e0 4a 87 e0 bd a8 2d e8 bd 79 52 de bd 30 f7 c5 bd
       -0.10963304 -0.11336833 -0.10855574 -0.09666288
0000f0 6a 8c c7 bd 52 17 de bd fd c4 de bd 2c ff c2 bd
       -0.09743579 -0.10844292 -0.10877416 -0.095213264
000100 3c 50 a7 bd 44 9f c3 bd e4 bc ce bd 17 20 c9 bd
       -0.081696 -0.09551862 -0.10094622 -0.09820574
000110 2e e0 b1 bd c5 38 a2 bd d6 e6 b3 bd d2 87 bd bd
       -0.08685337 -0.07920984 -0.08784263 -0.09254421
000120 f9 44 bf bd e6 ec b8 bd 81 57 a8 bd 7f 47 a9 bd
       -0.09339327 -0.0902956 -0.08219815 -0.0826559
000130 59 97 b5 bd 31 3d cc bd 7e b4 a6 bd f8 fb 75 bd
       -0.08866758 -0.09972609 -0.08139895 -0.06005475
000140 bd 99 ae bd ac 9d c3 bd 42 5b cf bd 7d 7f a1 bd
       -0.08525417 -0.09551558 -0.10124828 -0.078856446
000150 56 aa 4f bd 9c f2 86 bd f5 52 95 bd ee 96 9e bd
       -0.050699554 -0.06589243 -0.072912134 -0.07743631
000160 e1 09 75 bd f4 57 23 bd 67 41 8d bd 12 fd 84 bd
       -0.059823874 -0.0398788 -0.0689724 -0.06493582
000170 74 67 5d bd dd 29 06 bd 91 64 c6 bc 65 b7 8e bd
       -0.05405374 -0.032754768 -0.024217876 -0.069685735
000180 96 04 85 bd d8 32 43 bd 4b f5 bb bc c4 71 98 bc
       -0.06495015 -0.04765591 -0.022944113 -0.018608935
000190 aa 76 97 bd 0f 8a a4 bd c4 c1 b9 bd 84 0a 9a bd
       -0.0739568 -0.08034145 -0.09070161 -0.07521537
0001a0 dd 0a 5f bd 44 18 9c bd a1 bf b2 bd 97 c3 bf bd
       -0.05445372 -0.07621816 -0.087279566 -0.09363478
0001b0 6f 6d 95 bd a7 1e 3d bd 4a 51 70 bd 50 2f 88 bd
       -0.072962634 -0.04617181 -0.058671273 -0.06649649
0001c0 02 23 94 bd fc 33 6b bd cb 2f 18 bd ad f5 71 bd
       -0.0723324 -0.057422623 -0.037154954 -0.059072185
0001d0 2f dc 6a bd a5 14 48 bd 2e df fa bc b2 e1 bb bc
       -0.05733889 -0.048847813 -0.030623998 -0.022934768
0001e0 72 76 6a bd 0f 63 61 bd 7b e7 26 bd 70 c9 97 bc
       -0.057241865 -0.05502611 -0.0407481 -0.01852867
0001f0 56 8c 7d bc 7a ae da bd 84 2f e2 bd 56 8e f2 bd
       -0.015475353 -0.1067781 -0.11044219 -0.11843555
000200 10 c4 d0 bd 3f 7d af bd 0d e9 e1 bd 2d ba f3 bd
       -0.10193646 -0.08568811 -0.11030779 -0.119007446
000210 17 98 fc bd 70 f7 d5 bd 9e b9 a8 bd 00 6c c4 bd
       -0.12333696 -0.104475856 -0.08238529 -0.09590912
000220 22 22 d2 bd 38 2f db bd ba c6 be bd 9e f4 9a bd
       -0.102604166 -0.10702366 -0.09315248 -0.07566188
000230 b4 61 bd bd a4 10 bb bd fc 43 ab bd 52 12 87 bd
       -0.09247151 -0.09134033 -0.08362576 -0.06595291
000240 0a 83 6e bd 66 ca ac bd e0 a3 a9 bd e8 3f 90 bd
       -0.058230437 -0.08437042 -0.0828321 -0.07043439
000250 41 ed 4b bd 61 02 3d bd 03 04 3e 3d ce 8b 30 3d
       -0.04978681 -0.046144847 0.046390545 0.04310208
000260 8f 59 0c 3d ba 2b b8 3c 23 c5 7b 3c eb f8 2f 3d
       0.034265097 0.022481788 0.015366825 0.042961996
000270 3a 58 2b 3d ab 1c 15 3d 5a 71 ca 3c 6f d3 7a 3c
       0.041832186 0.036404293 0.024712253 0.015309199
000280 d4 52 14 3d d8 7a f7 3c e0 22 e0 3c e4 70 9d 3c
       0.036211804 0.030209944 0.02736038 0.01921887
000290 3c 3a 3c 3c 70 b1 ee 3c 46 36 86 3c 64 ad 4a 3c
       0.0114884935 0.029137343 0.016383301 0.012370441
0002a0 9d 29 eb 3b a8 8c 62 3b 88 96 e4 3c d6 0c 45 3c
       0.0071765915 0.00345687 0.02790381 0.012026986
0002b0 78 c7 81 3b 60 61 d7 ba 40 ef 5a b9 d2 17 8c 3d
       0.003960546 -0.0016432218 -0.00020879228 0.06840481
0002c0 21 40 86 3d a5 ed 68 3d b7 c1 3f 3d 66 af 2a 3d
       0.065552 0.05686726 0.0468156 0.04167118
0002d0 85 33 84 3d 31 1f 83 3d 20 fb 6e 3d 3e 07 4a 3d
       0.06455139 0.06402434 0.05834496 0.049323313
0002e0 78 16 2b 3d c4 9b 6a 3d c5 9e 55 3d b4 08 48 3d
       0.041769475 0.057277456 0.052153368 0.048836425
0002f0 16 23 30 3d f2 ad 19 3d 3d 38 4e 3d cb fe 1b 3d
       0.04300221 0.037519403 0.0503466 0.038084786
000300 5f a6 0c 3d 33 49 f5 3c 66 1c f0 3c 8d 96 46 3d
       0.03433835 0.02994213 0.029310416 0.04848342
000310 ff 66 09 3d 36 24 d2 3c 95 48 bb 3c 28 a9 d0 3c
       0.03354549 0.025652032 0.022861758 0.025471285
000320 e7 cc 59 3d 2d eb 42 3d 8c b0 19 3d 66 93 e6 3c
       0.053173926 0.047587562 0.037521884 0.028146457
000330 16 88 c1 3c 7c 3d 50 3d f4 c6 3f 3d 0a d9 23 3d
       0.023624461 0.050839886 0.046820596 0.040001906
000340 76 95 fd 3c 96 74 c7 3c bb e4 37 3d 8e 07 19 3d
       0.030955058 0.024347585 0.04489587 0.03736072
000350 42 41 04 3d 4d db d4 3c 34 aa ad 3c bb 95 21 3d
       0.032288797 0.025983477 0.021199323 0.039449435
000360 13 66 d4 3c 94 2f a3 3c dd 96 7f 3c d0 a3 6c 3c
       0.025927579 0.019920148 0.015599933 0.014443353
000370 fd 79 16 3d 56 f9 b3 3c ae 52 4b 3c 1e 2c 09 3c
       0.03673743 0.021969479 0.012409849 0.008372335
000380 50 25 29 3c 78 24 7f bd 53 ec a1 bd 27 90 a4 bd
       0.010323837 -0.06229064 -0.079064034 -0.080353074
000390 44 16 77 bd ed 06 6f bd 8a ef 9b bd ee 23 cf bd
       -0.06032397 -0.058356214 -0.07614048 -0.10114275
0003a0 c4 cb cf bd 36 bc 96 bd db dd 90 bd 88 55 ac bd
       -0.10146287 -0.07360117 -0.070735656 -0.08414751
0003b0 cc f3 e4 bd 3c f3 f5 bd 98 31 c7 bd ee 38 b9 bd
       -0.11179313 -0.12009284 -0.09726256 -0.090440616
0003c0 98 fd be bd 23 b0 ef bd 25 71 04 be ae 83 e8 bd
       -0.09325713 -0.11703517 -0.12933786 -0.11353241
0003d0 58 13 d2 bd 77 fa dc bd 85 f9 08 be 7f fd 0f be
       -0.10257596 -0.1078996 -0.13376434 -0.14061545
0003e0 7a cc eb bd 66 40 cd bd 8a ac 62 3d c2 bb 2c 3d
       -0.1151361 -0.10022049 0.055340327 0.042171247
0003f0 dc ac 29 3d 13 71 73 3d fc 52 80 3d 35 70 46 3d
       0.041424617 0.059434008 0.06265828 0.048446853

momentum_buffer f4 [32]
000000 ab 71 11 3e ee fa 08 3e 22 0b 83 bd ba 12 3f be
       0.14203517 0.13376972 -0.06398608 -0.18659487
000010 93 5d da 3c 6c 35 fe bd b4 0f af 3e 67 f8 12 be
       0.026655948 -0.12412533 0.34191668 -0.1435257
000020 f2 4f de 3d ab 42 43 be f7 0f 31 be 19 c7 56 bd
       0.10855092 -0.190684 -0.17291246 -0.052435968
000030 76 2c d8 3d 8a bd fc 3d f3 df 90 be 0c de 0f 3f
       0.10555355 0.12340839 -0.2829586 0.5619819
000040 96 de 93 3e a0 86 11 bd ac c8 82 be 23 eb 44 bd
       0.28880757 -0.03552878 -0.25543725 -0.048075806
000050 e2 43 ae 3e 7a d6 3b bd 10 82 db bc dc de 9a 3d
       0.34036165 -0.045858838 -0.026795417 0.07562038
000060 7a 4b 4f 3e b1 94 bf 3d c8 64 ad ba 34 97 f6 bd
       0.20243636 0.093545325 -0.0013228888 -0.120405585
000070 e7 76 1f be f7 7b 2a 3d f7 ef 31 be 57 1b 87 3c
       -0.15572701 0.04162213 -0.17376696 0.016492529

momentum_buffer f4 [32, 32, 3, 3]
000000 f2 4a 31 bd 50 52 38 bd 66 6d 35 bd fd c8 3a bd
       -0.043284364 -0.045000374 -0.044293784 -0.045601834
000010 02 30 3f bd 60 90 3d bd b5 8e 3e bd 1e 08 40 bd
       -0.046676643 -0.046280265 -0.046522815 -0.04688274
000020 5a b1 3c bd d8 1d 6c 3a b0 8a 9c ba 1a f6 44 ba
       -0.046067573 0.00090071326 -0.0011943188 -0.00075134786
000030 de 35 87 3a 2f b2 9a ba 8c 57 d7 ba a5 70 e6 3a
       0.0010315736 -0.001180237 -0.0016429289 0.0017581178
000040 d6 bb 46 ba 9b 06 59 ba 82 ac 89 bd d6 43 84 bd
       -0.00075810903 -0.00082788774 -0.067223564 -0.06458251
000050 ae 83 6e bd ac 9f 8e bd be d9 8a bd b7 23 80 bd
       -0.05823105 -0.06964049 -0.06779812 -0.06256812
000060 9b dd 8d bd ae 35 8d bd aa f4 84 bd af 56 19 bd
       -0.069270335 -0.06895004 -0.064919785 -0.037436184
000070 f2 d3 22 bd 89 ca 29 bd 16 86 1b bd a0 a9 27 bd
       -0.039752908 -0.04145292 -0.03796967 -0.04093325
000080 72 ed 2a bd 88 7c 1d bd 36 a0 23 bd 03 39 28 bd
       -0.04173035 -0.03844884 -0.03994771 -0.041069996
000090 ba 28 24 bd f8 ad 2d bd 47 6a 29 bd 84 ea 29 bd
       -0.040077902 -0.042402238 -0.04136112 -0.041483417
0000a0 e0 92 30 bd 72 4e 2a bd 5b 5a 23 bd 6e d8 2b bd
       -0.04310882 -0.041578718 -0.03988109 -0.04195445
0000b0 b5 62 24 bd d1 4a 18 bd 87 93 0a bd d5 f2 ed bc
       -0.040133197 -0.037180725 -0.0338321 -0.029046455
0000c0 d9 0d 1f bd a2 30 17 bd 56 83 02 bd fc 9d 1c bd
       -0.038831566 -0.036911614 -0.031863533 -0.038236603
0000d0 c6 8d 18 bd 32 33 09 bd 20 24 91 bd 07 ae 7a bd
       -0.03724458 -0.03349609 -0.070869684 -0.06120112
0000e0 04 1d 35 bd a9 16 8d bd bc af 7e bd 3d 84 41 bd
       -0.044217125 -0.06889088 -0.062179312 -0.047245253
0000f0 ef de 84 bd 1b c1 74 bd 04 80 44 bd 5a 63 c3 bc
       -0.06487834 -0.059754472 -0.047973648 -0.023851085
000100 ca cf d9 bc 90 fa dd bc bc 22 c7 bc 56 65 d6 bc
       -0.02658834 -0.027097017 -0.024308555 -0.026171368
000110 51 15 e8 bc da 45 c8 bc ca 5a da bc 68 3c de bc
       -0.028330477 -0.02444737 -0.02665462 -0.027128413
000120 34 fe 23 bd eb 25 34 bd 15 d1 35 bd 40 bd 1e bd
       -0.04003735 -0.043981474 -0.04438885 -0.0387547
000130 d1 29 2d bd 79 9e 29 bd 86 49 14 bd a0 76 1b bd
       -0.042276207 -0.041410897 -0.03620293 -0.037954926
000140 70 73 19 bd 61 b4 0e bd 54 a9 ec bc 5c b0 e2 bc
       -0.037463605 -0.03483999 -0.028889336 -0.027671985
000150 65 38 0b bd 85 13 eb bc ae 85 ec bc 72 0e 08 bd
       -0.03398933 -0.028695831 -0.028872337 -0.0332169
000160 c0 58 f6 bc 2b 55 f6 bc da bd 81 bd c0 09 77 bd
       -0.030071616 -0.030069908 -0.063350394 -0.060312033
000170 68 32 67 bd 3c 05 81 bd 16 6c 78 bd bc 23 6c bd
       -0.056444556 -0.062998265 -0.060649954 -0.057651266
000180 ae d8 6c bd d3 a0 66 bd 43 54 60 bd 6b 8a 0e bd
       -0.05782383 -0.056305718 -0.05476786 -0.034799974
000190 5b 77 03 bd 54 3f dc bc 26 9d 15 bd af ae 0a bd
       -0.032096248 -0.026885666 -0.03652682 -0.033857998
0001a0 92 02 f0 bc 52 6b 14 bd ac c6 0d bd f0 bd fb bc
       -0.0292981 -0.03623516 -0.034613296 -0.030730218
0001b0 22 a9 cd bc e0 a5 dc bc 9d c8 d0 bc ce 8d c9 bc
       -0.025105063 -0.026934564 -0.025486285 -0.02460375
0001c0 e4 55 d0 bc 6d 2d c3 bc 82 2f b6 bc b4 4d bb bc
       -0.02543158 -0.023825372 -0.02223945 -0.0228642
0001d0 3c 2e b9 bc e8 40 32 bd 5e e4 43 bd f3 b7 4f bd
       -0.022605054 -0.04351893 -0.04782521 -0.050712537
0001e0 10 6a 3f bd 4c 95 4d bd 65 19 52 bd e8 30 41 bd
       -0.04673201 -0.05019121 -0.05129375 -0.04716578
0001f0 c7 9c 4c bd 23 ff 4d bd c7 00 a1 bd 27 3a c2 bd
       -0.049954202 -0.050292145 -0.078614764 -0.09483748
000200 6e 2e db bd 99 a8 a4 bd e9 4b c6 bd 96 a8 d7 bd
       -0.10702215 -0.0803997 -0.096824475 -0.10530202
000210 58 01 a9 bd 18 ac c5 bd 7e 5a cf bd df 0c 08 be
       -0.082522094 -0.09651965 -0.10124682 -0.1328616
000220 40 94 09 be 22 5b 0a be de 1e 0b be 5d d3 0c be
       -0.13435459 -0.13511327 -0.13585994 -0.13752504
000230 2f ed 0e be bf 46 0a be 4a 8a 0d be 98 6f 0e be
       -0.13957666 -0.1350355 -0.13822284 -0.13909757
000240 a0 23 53 bb 52 7d 0e bc 5e d6 19 bc 44 9b 52 bb
       -0.003221728 -0.008696871 -0.009389488 -0.0032136003
000250 2f 1c ec bb 7a 9b fb bb d6 35 08 bb 18 bb bd bb
       -0.007205508 -0.0076784464 -0.0020784042 -0.0057901256
000260 d6 56 c2 bb 75 40 9e bd 75 7d 8d bd c5 c2 6f bd
       -0.005930762 -0.07727138 -0.06908695 -0.058535356
000270 9c ec 9e bd 2a 7f 92 bd 4a 6e 7c bd c1 be 9b bd
       -0.077599734 -0.07153161 -0.061628617 -0.07604743
000280 13 d7 91 bd 37 fc 80 bd 31 66 a2 bd 19 2e 95 bd
       -0.071211 -0.06298106 -0.07929648 -0.07284183
000290 68 d2 85 bd b9 97 ab bd 3b a2 a1 bd fa d6 8f bd
       -0.065342724 -0.08378548 -0.07892271 -0.070234254
0002a0 1a dd af bd dc 2f a9 bd 15 07 9c bd 8c ff fe bc
       -0.08587094 -0.082610816 -0.07618538 -0.031127714
0002b0 e4 bc 05 bd 07 25 22 bd e0 3c 06 bd 64 b5 0c bd
       -0.032650843 -0.039586093 -0.0327729 -0.034352675
0002c0 e7 b6 26 bd 40 a8 0c bd 06 81 16 bd 54 f8 23 bd
       -0.040701773 -0.034340143 -0.03674414 -0.040031746
0002d0 3b 44 36 bd 22 fe 31 bd 7e ba 30 bd a7 e1 30 bd
       -0.044498663 -0.04345525 -0.043146603 -0.04318395
0002e0 5a 2f 2d bd f3 1d 2b bd 8b ca 22 bd 17 65 21 bd
       -0.042281486 -0.04177661 -0.03974394 -0.039403047
0002f0 33 fd 1e bd 0a c7 60 bd 5a 65 78 bd 76 16 87 bd
       -0.03881569 -0.05487732 -0.06064353 -0.06596081
000300 30 5e 6f bd a2 d6 80 bd 55 6c 88 bd 7e 6b 7a bd
       -0.058439434 -0.06290938 -0.06661288 -0.06113767
000310 6c 60 87 bd 24 4f 8a bd 36 6a 65 bd ed b6 75 bd
       -0.06610188 -0.06753376 -0.056009494 -0.059988905
000320 d2 cb 81 bd 3b a7 6a bd ef 3e 79 bd 62 85 83 bd
       -0.06337704 -0.05728839 -0.060851034 -0.06421925
000330 61 2c 72 bd d4 fe 7e bd 07 7b 83 bd f1 10 45 bd
       -0.059124354 -0.06225474 -0.0641995 -0.04811186
000340 ba 45 58 bd 58 e7 5c bd 7b ad 4d bd 5f c0 61 bd
       -0.05280087 -0.053931564 -0.050214272 -0.0551151
000350 85 10 60 bd a6 51 54 bd 4d 60 5e bd 52 5b 55 bd
       -0.054703254 -0.05183568 -0.05429106 -0.052089043
000360 0c f2 f9 bb b7 cf 37 bc d5 14 65 bc 27 78 0b bc
       -0.007627731 -0.011218957 -0.0139820175 -0.008512533
000370 c6 33 3b bc f5 af 54 bc f1 91 07 bc 98 40 30 bc
       -0.011425918 -0.012981405 -0.008274541 -0.010757588
000380 e0 30 36 bc 23 0b 44 bc 30 12 70 bc 10 a1 7e bc
       -0.011120051 -0.011965546 -0.014652774 -0.01554133
000390 40 91 3b bc e8 dd 61 bc 54 53 5b bc 6b 1d 1e bc
       -0.0114482045 -0.013785817 -0.013386566 -0.0096505685
0003a0 62 d6 31 bc eb c5 32 bc 05 d7 15 bd 76 ee d2 bc
       -0.0108543355 -0.010911445 -0.03658201 -0.025748473
0003b0 29 8d b9 bc 45 78 08 bd a6 e9 c3 bc d2 b9 a4 bc
       -0.022650318 -0.033317823 -0.023915123 -0.020108137
0003c0 ce cf ee bc 37 9f b1 bc 3a 21 a4 bc d7 27 33 bd
       -0.029151823 -0.021682365 -0.020035375 -0.043739166
0003d0 e8 c7 24 bd 3e 04 14 bd 0c d5 3c bd 9e d1 2c bd
       -0.040229708 -0.03613686 -0.046101615 -0.042192094
0003e0 f9 52 1f bd 24 c2 42 bd 9d fa 37 bd a5 c6 28 bd
       -0.03889749 -0.04754843 -0.044916738 -0.041205067
0003f0 f8 13 75 bd 4c 12 80 bd 9a 49 88 bd 9b 11 66 bd
       -0.059833497 -0.0625349 -0.066546634 -0.056169134

momentum_buffer f4 [32]
000000 cc ad f0 bd 7c de 9b 3c c6 87 62 bb 5f d9 96 be
       -0.11751899 0.019026987 -0.003456579 -0.29462716
000010 dc d0 79 bb d0 a6 f2 3c 58 21 39 bd 81 03 81 bd
       -0.0038118875 0.029620558 -0.045197815 -0.062994964
000020 d8 32 48 3c 32 45 24 bd a9 be 91 bc c7 a2 99 3c
       0.012219153 -0.040105052 -0.01779111 0.018754376
000030 d9 d6 d7 39 b8 79 f4 3c 1f 0a 8e bd 0e dd aa 3b
       0.0004116807 0.029843196 -0.06935524 0.00521434
000040 8f 85 67 3c 50 30 b8 3b a1 7f c9 bb 71 26 04 3e
       0.014130964 0.0056209937 -0.0061492478 0.12905289
000050 a0 74 46 ba fa 7f a0 bb 5e 3c ab bc 70 26 51 3c
       -0.0007570479 -0.0048980685 -0.020902809 0.012765512
000060 40 07 17 3d 06 cb f1 3d 2c 26 2e bd dc 70 88 3d
       0.03687215 0.11806302 -0.042516872 0.06662151
000070 40 40 b3 3b 8d 7a f3 bd dc c8 0d 3c fc 27 61 3c
       0.0054703057 -0.11888609 0.008653846 0.013742443

momentum_buffer f4 [64, 32, 3, 3]
000000 5e c8 68 b9 75 61 f4 b9 55 4f 88 b9 67 81 c7 b9
       -0.00022199887 -0.00046611918 -0.00025999048 -0.0003805265
000010 42 a7 af b8 cf d6 b4 39 08 1b e2 b9 b9 0e 74 39
       -8.3758045e-05 0.0003449232 -0.0004312622 0.00023275138
000020 64 58 97 b9 bc 80 25 3b 7c 33 21 3b 49 08 fe 3a
       -0.0002886682 0.0025253734 0.0024597337 0.0019381131
000030 ac ad 32 3b dd 2b 1f 3b 41 b6 04 3b 3d 27 2c 3b
       0.002726416 0.002428762 0.0020250233 0.0026268505
000040 2c 5e 0d 3b c6 ea e6 3a af 2c 44 3b 8b 00 87 3b
       0.0021571023 0.0017617575 0.002993386 0.004119938
000050 24 9d 86 3b 22 be 67 3b 77 59 66 3b 33 00 79 3b
       0.004108088 0.003536113 0.003514854 0.0037994504
000060 4f d9 66 3b fe 71 80 3b 00 6d 7c 3b 11 f1 72 ba
       0.003522474 0.003919839 0.0038517118 -0.0009267489
000070 74 18 06 39 56 5f d3 b9 48 fd 24 b9 08 2a ef b9
       0.00012788345 -0.00040316087 -0.00015734613 -0.00045616948
000080 9a 64 be b9 ac e6 8b ba 0e 62 81 b9 85 5f 91 b9
       -0.00036314578 -0.0010673604 -0.00024677854 -0.00027727723
000090 33 43 a7 b9 ae c9 f7 b9 d2 56 c3 b8 3b aa 5e b8
       -0.0003190279 -0.00047261774 -9.314496e-05 -5.3087464e-05
0000a0 8d 88 0e ba 81 05 97 b9 35 9b ff b8 3a 70 d4 38
       -0.0005437218 -0.00028805065 -0.00012188257 0.000101298516
0000b0 b8 b2 e4 38 29 c1 92 3b d2 c5 8a 3b ce f3 7c 3b
       0.00010905176 0.004478593 0.004235008 0.0038597467
0000c0 40 16 bd 3b 09 0e a5 3b f6 c2 9b 3b 98 4d b1 3b
       0.0057704747 0.0050370735 0.0047534658 0.005410861
0000d0 1f 74 ab 3b 95 7d 8c 3b 03 85 6d 3c fc fe 6c 3c
       0.0052323486 0.0042874315 0.0144970445 0.01446509
0000e0 23 7a 74 3c 73 d0 73 3c 82 7c 6e 3c d0 ad 6d 3c
       0.014921698 0.014881241 0.014556052 0.014506772
0000f0 63 43 6f 3c 74 81 6d 3c b0 5d 73 3c 6d ca 0d 3a
       0.014603469 0.014496196 0.01485388 0.0005408887
000100 e6 3f f9 37 b3 9c 16 3a 32 d6 a9 38 cf b3 89 39
       2.9712868e-05 0.0005745396 8.098445e-05 0.00026264644
000110 8e 8d 0c 39 31 88 5e 3a 9e 29 0d 3a e0 9a 27 3a
       0.00013404174 0.0008488922 0.00053849246 0.00063936226
000120 f6 41 25 3a e8 a9 af 39 fa f1 32 3a f6 af 7a 39
       0.00063040794 0.0003350519 0.00068262185 0.00023907408
000130 98 79 8c 39 f6 fe f0 39 4e 5f 1f 39 d2 1a a4 39
       0.00026793475 0.00045966328 0.00015198925 0.000313005
000140 81 e5 1b 3a 48 1a 39 b9 32 00 db 39 1a 72 88 39
       0.00059469795 -0.00017652765 0.0004177108 0.00026024954
000150 55 7b 11 ba e0 a7 18 b9 c4 cf 9e 39 40 c2 77 ba
       -0.0005549689 -0.00014558388 0.00030290906 -0.0009451248
000160 c0 f3 90 38 8c 5e a3 39 bc a1 f9 3b cc 84 0f 3c
       6.911857e-05 0.00031160226 0.007618157 0.008759689
000170 55 0b fd 3b a5 be fe 3b de 36 05 3c 24 f5 02 3c
       0.007722298 0.0077741914 0.008130757 0.007993016
000180 f5 18 04 3c 54 cd ff 3b e5 73 04 3c 37 54 5e 3a
       0.008062591 0.0078064594 0.008084272 0.0008481177
000190 3e 3c 32 3a 9e 76 b8 3a a1 e2 9d 3a ad 35 ac 3a
       0.0006799138 0.0014073437 0.001204569 0.0013138555
0001a0 b7 1d 92 3a 1b c1 aa 3a d0 cc 7a 3a d6 4e 61 3a
       0.0011147772 0.0013027521 0.00095672626 0.00085948163
0001b0 31 86 f9 38 9a 72 ee 38 7b d2 21 b8 8a 6e 07 b9
       0.0001189824 0.000113700706 -3.8581416e-05 -0.00012915782
0001c0 44 6b be 39 ae 3a 19 3a aa 58 bd b8 1a 29 06 38
       0.00036319543 0.0005845231 -9.028737e-05 3.198637e-05
0001d0 71 3e 8d b7 bd ba ba b9 7a 3a 4c 38 5e d3 8b 38
       -1.6837586e-05 -0.00035615815 4.869185e-05 6.667407e-05
0001e0 a5 ab 4b b9 cf 8d fa 38 84 ad bd 39 e0 5b 06 ba
       -0.00019423531 0.00011947343 0.00036178168 -0.0005125385
0001f0 30 b5 0f b9 36 d3 1e b9 2a d6 4d ba 05 10 8e b9
       -0.0001370504 -0.00015146736 -0.00078520423 -0.00027096286
000200 04 5c dd 39 80 c2 76 39 d1 e1 d3 b9 00 50 00 33
       0.00042220962 0.00023532845 -0.00040413302 2.9875082e-08
000210 65 64 73 ba 16 25 7e ba 08 98 3b b9 15 fb c2 3b
       -0.00092846743 -0.0009694857 -0.00017890346 0.0059503415
000220 58 44 da 3b d1 05 e2 3b 43 68 b4 3b 66 13 cb 3b
       0.0066609792 0.006897666 0.005505593 0.006197381
000230 ef 43 e9 3b be 14 bb 3b 92 6d d6 3b 9f 78 d5 3b
       0.007118694 0.00570926 0.0065438235 0.0065146233
000240 c2 84 b9 39 39 c5 2e 3a c0 50 2d 38 2e 7d 0b 3a
       0.00035384862 0.00066669617 4.132162e-05 0.00053210824
000250 2b f5 b1 39 49 8c 36 3a 5a f3 5c 3a 6c 48 90 3a
       0.00033942735 0.0006963653 0.0008428596 0.0011007912
000260 98 3c 4e 3a be bf 91 3b c9 56 a0 3b 4f c2 a2 3b
       0.00078673055 0.0044479063 0.004893158 0.004967011
000270 f0 97 9a 3b d3 96 98 3b 4a 4b 9e 3b 05 dd 9a 3b
       0.0047178194 0.0046566515 0.0048307525 0.0047260546
000280 96 5d 96 3b 0e b4 8e 3b d2 ad aa 39 af 74 27 b9
       0.004588793 0.0043549603 0.00032554433 -0.00015969829
000290 61 68 27 b9 f1 24 c4 b9 ec 03 74 39 7b 6c 84 39
       -0.00015965245 -0.00037411557 0.00023271114 0.00025257826
0002a0 ed f3 24 39 e8 29 90 39 5e 96 9f b9 62 54 cd b9
       0.00015731128 0.00027497043 -0.00030438876 -0.00039163517
0002b0 1a 59 f8 b9 68 4d 2b b8 5c 57 cb b9 b0 7c 73 b9
       -0.00047368632 -4.0841667e-05 -0.00038784265 -0.00023220736
0002c0 b0 5b 95 b9 0c 50 d2 39 99 40 7f b9 70 d9 04 38
       -0.00028487807 0.0004011396 -0.0002434276 3.1673757e-05
0002d0 46 de 89 3b 5a 8f 9b 3b bb bb b0 3b b7 3a 7c 3b
       0.0042074053 0.0047473134 0.005393473 0.0038487145
0002e0 57 0d 92 3b 15 73 97 3b 33 e3 93 3b 3c 7d 90 3b
       0.0044571566 0.004621873 0.0045131682 0.0044094604
0002f0 46 e3 96 3b 8d 9d 5f 3a 12 41 12 3a 46 e7 bd 39
       0.00460473 0.0008530252 0.0005579154 0.000362212
000300 ca 9d 58 3a 6a bf 41 3a 12 d3 3f 3a 05 f7 5f 3a
       0.00082632585 0.00073908886 0.00073175237 0.00085435837
000310 4c b3 33 39 b9 3b 24 39 aa 21 94 3a 2e ef 0e 3b
       0.00017137564 0.00015662507 0.0011301537 0.0021810043
000320 8d 1f 0c 3b 3b bd b0 3a b8 da cb 3a 13 9b 1f 3b
       0.002138111 0.001348413 0.0015552854 0.0024353906
000330 1d 1b bf 3a 58 a9 ec 3a 1d 8f 06 3b 7a 20 cd 39
       0.0014580224 0.001805584 0.002053208 0.00039124844
000340 ba 4b 35 3a 0e 3d 3d 3a f8 a1 8c 3a 76 92 05 3a
       0.0006915886 0.00072188757 0.0010729423 0.0005095372
000350 07 1b 41 3a 65 7a b7 39 50 b3 b5 37 fe f7 8f 3a
       0.0007366393 0.0003499567 2.166038e-05 0.0010983942
000360 28 8e a8 3a bb d1 55 39 54 d1 04 38 92 fb ab 39
       0.0012859749 0.00020391394 3.1666204e-05 0.00032803096
000370 3a 10 0b 3a 71 41 9a 39 0c ec f4 39 95 ea ca 39
       0.0005304847 0.00029421927 0.00046715175 0.0003870322
000380 06 ed c4 39 73 7f eb 39 9e 11 24 ba 9f a5 d8 b9
       0.0003756063 0.0004491765 -0.00062587287 -0.00041322128
000390 26 21 16 3a ee 69 a8 b9 39 65 a7 b9 fc 08 9a 39
       0.00057269854 -0.0003212238 -0.0003192814 0.00029379863
0003a0 a3 74 5f 3a 21 3a f0 39 e2 04 39 ba e7 b8 01 ba
       0.0008524155 0.00045819677 -0.00070579175 -0.0004948512
0003b0 9b ea 83 ba bf ee f0 b9 83 d1 08 ba 70 b6 e9 b8
       -0.0010064425 -0.00045954247 -0.0005219208 -0.000111442874
0003c0 7f d7 31 ba 00 13 8a ba 30 41 19 b9 20 40 fc b6
       -0.00067841256 -0.0010534227 -0.00014615501 -7.5176504e-06
0003d0 57 11 51 39 c1 97 e4 39 71 91 ea 39 00 21 4e 39
       0.00019938253 0.00043600614 0.0004474032 0.00019657984
0003e0 bc d6 1e 3a 6c b9 43 b8 20 95 84 37 98 55 a5 38
       0.00060592196 -4.666431e-05 1.5805068e-05 7.883756e-05
0003f0 50 22 91 3a 6d 05 44 3a 22 6b bd 3a 49 2e 99 3a
       0.0011072848 0.0007477615 0.0014451484 0.0011686768

momentum_buffer f4 [64]
000000 18 b4 b7 3b af d5 f7 3b 98 e9 a4 3c 33 9c c1 3c
       0.0056061856 0.007563315 0.020130917 0.023634052
000010 42 14 c2 b9 82 94 83 3b ac c8 c1 bc b0 d1 4f 3c
       -0.00037017657 0.0040155062 -0.023655258 0.012684271
000020 8c fd 42 bb f2 69 98 3c d2 b4 5e 38 12 7a e2 bb
       -0.0029753176 0.018605206 5.3097327e-05 -0.0069115246
000030 c4 86 45 b9 b4 e6 0a bb 30 14 9d bc bc f9 3d b9
       -0.00018837588 -0.0021194639 -0.019174665 -0.00018117478
000040 0c e5 9f bc 10 3c 61 b9 fc 71 2a bc 20 bf 06 bd
       -0.019518398 -0.00021480047 -0.010403153 -0.032897115
000050 3d 02 b5 3b a5 6b ee bc 29 b9 10 bd 9b 70 87 bc
       0.0055239485 -0.029104063 -0.035332832 -0.016533187
000060 f9 41 15 3b 37 c6 2b 3b 16 67 fa bb 36 91 c7 3b
       0.0022774918 0.0026210675 -0.0076416833 0.0060903085
000070 c0 24 b9 bb 86 39 cb 38 24 46 50 bb a0 2d ba 3c
       -0.005650133 9.690509e-05 -0.0031780088 0.022726834
000080 f4 81 0b bc d4 6e c1 3b c7 a9 c4 3a 12 8d 69 bb
       -0.00851487 0.0059031043 0.0015004211 -0.0035637063
000090 4f e7 b2 bb ae d1 81 3a 72 5e 48 3c 81 f1 0a 3c
       -0.005459703 0.0009904408 0.012229549 0.008480431
0000a0 e1 3d 30 bb 44 54 01 3b 1b d5 86 3c 12 8f bf bc
       -0.0026892351 0.0019734064 0.016459038 -0.02338365
0000b0 e2 f8 9f 38 cc 83 3e 3a e6 41 84 bb 3b 4b 0b 3b
       7.628069e-05 0.0007267564 -0.004036176 0.0021254558
0000c0 a2 93 06 bb 0c ba 49 3d 4e 8f 05 b9 bc b7 a6 3c
       -0.0020534773 0.049249694 -0.00012737254 0.020351283
0000d0 b1 91 e3 ba 52 99 44 3a de bf 96 ba 53 f0 1b bd
       -0.0017362145 0.0007499653 -0.0011501273 -0.038070988
0000e0 35 52 7b 3b fa ff 9e ba 30 b5 96 3c 7a 1f 56 39
       0.003834856 -0.001213073 0.018396944 0.00020420356
0000f0 29 50 52 bd ea 1a a9 3c 61 0a 6f ba 64 30 79 3a
       -0.051345978 0.020642716 -0.0009118673 0.0009505807

momentum_buffer f4 [64, 64, 3, 3]
000000 68 39 5e ba b3 72 88 ba d8 54 c7 b9 51 9c 82 ba
       -0.0008477182 -0.001041016 -0.0003801945 -0.0009964799
000010 a3 2e e4 b9 92 0a ad b9 8d 69 a4 ba ce 74 16 ba
       -0.00043522296 -0.00033005007 -0.0012543664 -0.0005739451
000020 9a 19 01 ba 11 c1 b4 3b 3b e2 c4 3b 9f 82 af 3b
       -0.00049247744 0.0055161794 0.006008414 0.0053561474
000030 e8 10 c5 3b 33 4c c8 3b fa 22 cf 3b 5a ac a8 3b
       0.0060139783 0.0061125993 0.006321308 0.005147499
000040 12 6d c0 3b 0e 75 bd 3b ca b9 38 3c 98 92 40 3c
       0.005872377 0.0057817763 0.011274764 0.011753701
000050 db 1e 3c 3c 44 60 41 3c 7a 4f 4f 3c b9 09 42 3c
       0.011481966 0.011802737 0.012653226 0.011843138
000060 c2 e8 40 3c 66 4c 4a 3c ec e8 41 3c 52 17 e1 3a
       0.011774244 0.012347316 0.011835318 0.0017173088
000070 90 98 19 3b 1e 22 c5 3a f6 70 1b 3b 80 f9 18 3b
       0.0023436882 0.0015040075 0.0023718453 0.0023342073
000080 4c 88 2c 3b f8 68 dd 3a 1e 0d f6 3a 8f 14 b9 3a
       0.0026326356 0.0016892245 0.001877222 0.0014120507
000090 3e 26 1a 39 a4 ac ca 38 8e 94 04 39 99 d1 52 39
       0.00014700831 9.6642674e-05 0.00012643842 0.00020105242
0000a0 58 2f 9d b7 f6 40 02 b9 84 50 69 39 c8 fe 2b b7
       -1.8737905e-05 -0.00012421966 0.00022250606 -1.0251715e-05
0000b0 4e cd f5 38 ab 07 20 ba eb bd bf b9 ba e2 35 b9
       0.00011720751 -0.0006104658 -0.0003657186 -0.00017345967
0000c0 f8 31 a9 b7 a3 f5 78 ba 08 3f 1f ba e2 65 f9 b9
       -2.0169638e-05 -0.0009497052 -0.0006074761 -0.0004756889
0000d0 67 df 2e ba 09 43 29 ba d6 07 f1 3b 24 5f f6 3b
       -0.0006670863 -0.00064568274 0.0073556704 0.007518666
0000e0 3b a2 06 3c 49 ed 00 3c 15 72 f1 3b 8e 6a 09 3c
       0.00821739 0.007869073 0.007368336 0.008387221
0000f0 5c 55 f3 3b dc 6d fc 3b 0d e2 02 3c de d6 25 3b
       0.007425947 0.007703526 0.007988465 0.0025305073
000100 ad 41 1e 3b 48 68 23 3b 35 50 21 3b 41 49 05 3b
       0.0024148033 0.0024933983 0.0024614458 0.0020337852
000110 55 ef 27 3b 09 0e c8 3a 11 d4 0c 3b f1 94 db 3a
       0.002562483 0.0015262972 0.0021488706 0.0016752762
000120 32 19 c2 3b 41 76 aa 3b dd 4b a6 3b bb 08 ce 3b
       0.0059234137 0.0052020852 0.0050749616 0.006287662
000130 eb 6d c3 3b bc 2c bc 3b a0 cf ca 3b 11 80 ba 3b
       0.005964031 0.0057426374 0.0061893016 0.0056915362
000140 93 9e a8 3b 0a 47 a9 3a 43 6c 21 3b 80 08 d2 3a
       0.0051458566 0.0012914848 0.002463118 0.0016024262
000150 47 57 ea 3a a4 83 dd 3a 66 d2 7f 3a 7e d0 c1 3a
       0.0017878794 0.0016900194 0.000975883 0.0014786867
000160 40 4c 05 3b bb 10 a4 3a 33 68 a0 b9 56 cd 7b 39
       0.0020339638 0.0012517193 -0.00030595213 0.00024013719
000170 53 2c 90 39 26 bb ab 39 de 22 58 39 52 00 bf 39
       0.00027498844 0.00032755098 0.00020612354 0.00036430598
000180 db 1d 94 39 eb da 0c 39 d1 98 29 3a 3b a9 cd 3b
       0.00028251004 0.00013432994 0.000646961 0.0062762774
000190 1e ed cc 3b 71 0e b5 3b b0 f8 c8 3b 68 ea c8 3b
       0.0062538525 0.005525403 0.0061331615 0.006131459
0001a0 09 f9 d9 3b 4c a4 da 3b 61 19 d3 3b d3 69 cf 3b
       0.0066520018 0.0066724177 0.0064422344 0.006329754
0001b0 07 2c 28 3b fb a8 2c 3b 09 e3 42 3b 18 f3 5a 3b
       0.0025661008 0.0026345837 0.0029737374 0.0033409055
0001c0 1a a6 2f 3b ce 0a 47 3b 28 74 4f 3b c9 f2 49 3b
       0.0026801885 0.003037143 0.0031654928 0.0030814877
0001d0 d7 64 53 3b 9c ef 85 3a b2 fb a5 3a fc 69 ba 3a
       0.003225615 0.0010218504 0.0012663512 0.001422226
0001e0 7f c5 b3 3a 9e 79 b2 3a 47 58 f4 3a c2 a3 d7 3a
       0.0013715475 0.0013616567 0.0018642031 0.0016452002
0001f0 d4 6d e5 3a 1c 58 db 3a 14 bb e2 3b 35 f6 f5 3b
       0.0017504045 0.0016734633 0.006919274 0.007506157
000200 60 e2 f3 3b f9 53 f8 3b 52 3f 03 3c 3f 33 f9 3b
       0.0074427575 0.0075783697 0.008010702 0.007604986
000210 d7 0a f6 3b e3 ac ef 3b bf 6c fb 3b f1 4a 1e b9
       0.0075086164 0.007314311 0.0076728757 -0.00015095972
000220 7e fd d3 b8 24 f2 45 b8 7d b2 0f ba 0b 93 71 39
       -0.00010108481 -4.719397e-05 -0.0005481614 0.00023038329
000230 48 6b 49 38 ba 42 37 b9 76 47 37 39 e8 6e 18 3a
       4.8022048e-05 -0.00017477098 0.00017478861 0.0005814866
000240 66 ad 24 3c 80 6d 33 3c e9 c9 32 3c 4b e8 27 3c
       0.010051107 0.0109514 0.010912397 0.010248254
000250 f4 0a 36 3c 4b 40 3e 3c 60 6c 26 3c 08 56 28 3c
       0.01111101 0.011612008 0.010157675 0.010274418
000260 d8 40 32 3c b8 b5 e0 ba 56 12 de ba 73 b4 95 ba
       0.010879718 -0.0017144 -0.001694272 -0.0011421576
000270 a0 80 6d ba 9b b4 9a ba 59 6f e1 ba 46 02 ba ba
       -0.0009059999 -0.0011803092 -0.0017199322 -0.0014191351
000280 2e 80 d9 ba 8b d6 75 ba 40 b6 94 3b d8 57 b3 3b
       -0.0016593987 -0.00093779777 0.0045383275 0.0054731183
000290 a8 30 ab 3b b6 f4 90 3b 37 e1 a6 3b d4 6c ae 3b
       0.005224306 0.004423703 0.0050927657 0.005323032
0002a0 83 88 94 3b 05 e3 a6 3b 4a 06 b5 3b ab 12 ce 3b
       0.004532875 0.005092981 0.0055244314 0.0062888465
0002b0 f3 eb d8 3b 13 48 e3 3b 33 b1 ee 3b 07 25 f2 3b
       0.006619924 0.006936082 0.0072843074 0.007389668
0002c0 e4 62 f3 3b 02 3a f4 3b be dd fd 3b 8a 43 01 3c
       0.00742756 0.007453204 0.007747381 0.007889638
0002d0 47 fc 41 3a e2 d3 84 3a 9d 8f 04 3a c4 02 32 3a
       0.0007399958 0.0010133947 0.00050568004 0.0006790573
0002e0 00 24 52 3a 99 8c 61 3a 72 e5 2a 3a 73 b6 95 3a
       0.00080162287 0.00086040195 0.00065191754 0.0011422172
0002f0 df 7c 66 3a 91 65 22 3c 49 ca 1f 3c 2c 30 26 3c
       0.0008792411 0.009911911 0.009752818 0.010143321
000300 3b 90 19 3c 22 7d 27 3c 0c 8e 21 3c da b6 18 3c
       0.009372766 0.010222705 0.009860527 0.009320939
000310 8f 54 27 3c c3 e6 22 3c 36 d6 3d 3c 4a b6 41 3c
       0.010213031 0.009942713 0.011586716 0.011823246
000320 60 43 4d 3c be e9 48 3c 50 eb 57 3c 5d 3a 65 3c
       0.0125282705 0.01226276 0.013178661 0.013990966
000330 8a 3c 51 3c 68 64 53 3c e1 36 5b 3c e6 3d 05 3b
       0.012770781 0.012902357 0.013379783 0.0020331084
000340 cc ef fb 3a fe 8b 26 3b b3 8f 1e 3b 73 6f 03 3b
       0.0019221245 0.0025413032 0.0024194538 0.0020055443
000350 f6 2d 06 3b 0d cf 1f 3b 64 1f 1c 3b 18 51 38 3b
       0.0020474172 0.0024384886 0.0023822421 0.0028124508
000360 4f 15 26 ba d4 73 80 ba 7f 64 54 ba 33 86 52 ba
       -0.00063355727 -0.0009800144 -0.0008102133 -0.00080308615
000370 78 a3 d8 b8 8b ab 06 ba 36 c5 7a ba df 49 1d ba
       -0.00010330131 -0.0005137256 -0.000956613 -0.00060000824
000380 6e 88 05 ba e9 f9 e6 b9 30 e2 03 ba e8 07 31 ba
       -0.0005093877 -0.00044055216 -0.0005030958 -0.0006753192
000390 c7 27 36 ba 99 de a4 b9 4d 4b 5c ba dc 26 13 ba
       -0.00069486763 -0.00031446366 -0.00084035547 -0.00056133955
0003a0 a8 6d 69 ba 74 6c cb b9 6a e3 a7 3a 8c 88 e9 3a
       -0.00089045847 -0.0003879998 0.0012808864 0.0017817183
0003b0 3c 0f a1 3a 0c 88 74 3a fd 46 d0 3a c6 49 a2 3a
       0.0012287865 0.0009328134 0.0015890297 0.0012381605
0003c0 fd 60 8b 3a 1e dd d0 3a 9d 60 d6 3a 63 5e 7d 3b
       0.0010633763 0.0015935039 0.0016355697 0.0038660995
0003d0 03 58 7e 3b dd 85 7e 3b c3 4d 74 3b 5f 86 6a 3b
       0.0038809783 0.0038837113 0.0037277795 0.0035785658
0003e0 73 55 81 3b 6e 1d 77 3b ca 27 65 3b b3 92 90 3b
       0.003946954 0.003770675 0.0034966343 0.004412019
0003f0 92 3f ce 39 cf f4 6f 3a 7a e3 df 39 d7 b8 7d 3a
       0.00039338745 0.0009153606 0.00042703358 0.00096787274

momentum_buffer f4 [64]
000000 90 26 05 3c 71 54 a7 bb 9c d6 e4 ba 8c 8e bd 3b
       0.00812687 -0.0051065017 -0.0017458978 0.005784815
000010 25 fb 48 3c 5d 06 2f 3a 3a f6 6e bb 6c 9b db b9
       0.012266909 0.00066766684 -0.003646268 -0.00041886733
000020 09 b0 89 ba c1 15 7c bb 7e cb cd 3a db ed 8b 3a
       -0.0010504733 -0.0038465115 0.0015700904 0.0010675745
000030 14 dd 42 bc 97 7a c0 b8 5e 73 09 3b 56 7f c5 3a
       -0.011893529 -9.1781076e-05 0.0020973305 0.0015067856
000040 4a 7e a8 3a 3d 0c 0a b9 fd 3d 8a ba 4a 45 2f 3b
       0.001285502 -0.00013165265 -0.0010547038 0.002674418
000050 cc ed ec 35 ae 0d a6 b8 a5 65 52 3a db fe 2a bb
       1.7652578e-06 -7.918045e-05 0.00080260105 -0.0026091847
000060 e0 23 a6 39 6e 26 77 39 b6 96 15 38 96 d3 18 bc
       0.00031688716 0.00023570072 3.566473e-05 -0.00932779
000070 fd 32 c4 bb ca d7 8b 3b df 4d 35 bb 55 e6 16 3b
       -0.0059875236 0.0042676674 -0.0027664823 0.0023025472
000080 4a e1 84 3b bd 4a 89 bb 4f 70 ed b7 67 bb 13 3c
       0.004055177 -0.0041898177 -2.83049e-05 0.009016848
000090 25 77 78 3a ee a5 a3 b8 1e c7 d9 bb fe e8 2b bc
       0.0009478203 -7.8033525e-05 -0.006646051 -0.010492561
0000a0 65 54 11 b9 c2 d9 01 3c ce 61 37 39 3b e9 61 bb
       -0.00013859717 0.007925453 0.00017488675 -0.0034471292
0000b0 4d 47 9f b9 ad 35 6d 3a 3a ad d1 ba 28 1b 4b bb
       -0.00030379966 0.0009048831 -0.001599706 -0.0030991528
0000c0 5e 93 95 3b 32 41 05 bc f6 2a 24 3b f4 41 49 39
       0.0045646867 -0.00813322 0.002505002 0.00019193423
0000d0 e5 16 9c 3a f6 68 a9 ba 9b 79 d5 b8 6c 20 5c ba
       0.0011908679 -0.0012924958 -0.00010179282 -0.0008397165
0000e0 a2 6b 99 3b 24 f0 3c 3a 06 f8 cd b8 2f cc e6 ba
       0.0046820203 0.00072074146 -9.82136e-05 -0.0017608459
0000f0 de 7a 9a b8 f9 f1 fc b9 6d d5 24 bc 70 59 65 3b
       -7.366178e-05 -0.0004824547 -0.01006065 0.0034995936

momentum_buffer f4 [1, 64]
000000 f1 72 c9 3c 4a e5 85 3d da 22 61 3b a5 d2 47 3c
       0.024590941 0.06537874 0.0034353049 0.012196218
000010 5a bb 7d 3c b6 dc 0b 3c 82 91 5c 3d 41 49 bf 3a
       0.015486563 0.008536508 0.053849705 0.0014593975
000020 7c aa ea 3c 46 ad 65 3d ba 91 81 3c b5 17 06 3b
       0.028645746 0.05607345 0.015816558 0.0020460908
000030 22 cb 00 3e a6 e5 0d ba 83 e4 a5 3c de bd 44 3b
       0.12577489 -0.00054129434 0.020250564 0.0030020396
000040 10 43 ef b9 1e 34 37 b9 da 98 3d 3c 5c 60 50 3b
       -0.00045635598 -0.00017471655 0.011572087 0.0031795716
000050 f8 18 8b 37 89 97 cf 39 1a 29 e1 ba ce b1 04 3d
       1.6581718e-05 0.0003959502 -0.0017178387 0.03239613
000060 ce 07 b4 3a 92 76 ca ba 83 cb 54 39 5d f4 cb 3d
       0.0013735236 -0.0015446714 0.0002029371 0.09958718
000070 47 10 6e 3d 58 c4 2c bb a8 53 1b 3d 72 a9 e0 3a
       0.058120992 -0.0026362147 0.037921578 0.0017140342
000080 54 72 1c 3c 82 61 55 3d fc 07 45 bb c8 15 ca 3b
       0.009548742 0.052094944 -0.0030064574 0.0061671473
000090 d0 95 8e 3b dc 6f af 39 82 29 90 3d e3 ca f2 3d
       0.004351355 0.00033461943 0.07039167 0.11855104
0000a0 b6 6a 8c 39 d0 9d c6 3a c1 32 58 39 08 3c 10 3d
       0.00026782387 0.0015153233 0.00020618273 0.0352135
0000b0 a0 59 a9 b9 10 17 6c 3b 02 ac 36 3d 9a ec 36 3d
       -0.00032300968 0.0036024489 0.044597633 0.044659235
0000c0 5d 6d ab bc 2e b4 a5 3d 5a c1 54 3c 19 8e d4 39
       -0.020926172 0.08091007 0.012985552 0.00040541662
0000d0 0d f7 79 3b 68 d9 ae 3b 47 65 31 3a 32 0f 7d bb
       0.0038141639 0.0053359754 0.00067671057 -0.0038613793
0000e0 70 c2 57 bb cc 55 09 3b b0 45 bd 37 0f 1e da 3c
       -0.003292229 0.002095568 2.2563006e-05 0.026625661
0000f0 13 e7 c2 b9 82 14 b5 3c c8 e4 d7 3d 5d 43 a7 bb
       -0.00037174727 0.022104505 0.105416834 -0.005104466

bn0.weight f4 [3]
000000 59 d7 a9 3f fc fc 9b 3f 1c f1 90 3f
       1.3268844 1.218658 1.1323581

bn0.bias f4 [3]
000000 b8 03 14 bc d4 5f 51 be fa 2d 57 3d
       -0.00903409 -0.20446712 0.05253408

bn0.running_mean f4 [3]
000000 7d 0f fa 3e 62 d5 e5 3e 48 c9 d0 3e
       0.48839942 0.4488936 0.40778565

bn0.running_var f4 [3]
000000 1f bd 81 3d ed 9e 71 3d d5 4f 75 3d
       0.063349 0.058989454 0.059890587

conv1.weight f4 [32, 3, 5, 5]
000000 68 df 4e 3c e7 a6 fa 3a 8d e9 4b bd 08 62 70 3b
       0.012626506 0.0019123227 -0.04978328 0.0036679525
000010 49 21 ba bc ce a8 1c 3c e8 7e 13 3d 68 55 80 3d
       -0.02272095 0.009561731 0.0360097 0.0626629
000020 46 96 e1 3c 4a ae 6a 3b 25 d0 58 3d 15 e8 37 3d
       0.027537476 0.003580945 0.052932877 0.044899065
000030 37 18 82 bc e0 06 d2 3c 97 d9 e8 3d db 12 c4 3d
       -0.015880687 0.025638044 0.11369627 0.09573909
000040 d9 98 50 3c 54 b5 d2 bd eb b1 ed 3b 85 a3 8c bd
       0.012731754 -0.10288492 0.0072538755 -0.068671264
000050 68 b1 04 3c ac 88 6b 3c 9a 76 6e bc 1b f3 85 bc
       0.008098938 0.014375847 -0.014554644 -0.016351273
000060 76 23 a4 3b ca 93 c5 3c b2 7e 94 bc cb b9 f3 bb
       0.00500911 0.024118323 -0.01812682 -0.0074379197
000070 ad af 17 3d 7d 8e 9a 3b b5 d1 9e bb b0 b8 b0 bd
       0.03703277 0.004716693 -0.0048467764 -0.08628976
000080 e7 6e 8f bc 2c 66 d1 bd ad 6e 2a bd b6 73 d9 bc
       -0.017508937 -0.10224566 -0.041609455 -0.026544433
000090 b7 f4 9a bc cc ca 0a bd c7 87 ea bc 66 3a ce 3d
       -0.018915517 -0.03388481 -0.028629197 0.10069732
0000a0 c5 04 6d bd 32 86 33 bc c8 f9 c6 3d ef 02 0a 3e
       -0.057865877 -0.010957288 0.09715611 0.13477682
0000b0 b2 cc 8a 3c b5 32 03 3e 49 21 ed 3c 3e bd 92 3c
       0.01694331 0.12812312 0.028946536 0.017912503
0000c0 0a 60 1d 3c ea 58 1b 3d c9 11 4d bd d5 45 f0 bb
       0.009605417 0.037926592 -0.05006579 -0.0073325434
0000d0 ac 44 20 bd 80 0a d0 bd 8e 28 d6 bd 59 83 0e bd
       -0.03912799 -0.10158253 -0.10456954 -0.03479323
0000e0 63 92 8b bd e0 e4 80 3c ae 51 6c bd e6 f5 4a bc
       -0.068150304 0.015734136 -0.057695083 -0.012387728
0000f0 ec c9 79 3d be a9 89 bd d1 ba ef bc c2 56 ce 3a
       0.060983583 -0.06721829 -0.029263886 0.0015742409
000100 25 6f 26 bd d6 1d 0e bd b6 12 20 3c 6c c3 21 bd
       -0.04063334 -0.034696423 0.009770086 -0.03949301
000110 e2 b2 9e 3c 1b 32 53 3d 69 0e 68 bd ec 7c 6c bc
       0.019372407 0.051561456 -0.056654368 -0.014434081
000120 13 73 61 3d 85 87 89 bd e4 42 ac bb 50 53 8c bd
       0.055041384 -0.067153014 -0.0052569974 -0.06851828
000130 52 20 f3 bd 0d 69 45 be 97 af a1 bd 9c 0d 57 bd
       -0.11871399 -0.19278355 -0.07894819 -0.052503213
000140 43 fc d6 bd e5 9b e3 bd ef 72 ef bd 47 9b 26 be
       -0.10497334 -0.11113719 -0.11691844 -0.16270171
000150 85 a9 66 3c d3 cc dd 3d ae 0a 16 bd ac ce 04 be
       0.014078503 0.10830083 -0.03663128 -0.12969464
000160 e7 8b 21 bd 8b 41 8e bd c5 7a 1a 3d 31 07 ce bb
       -0.039440062 -0.06946095 0.03771474 -0.0062874784
000170 91 2a 89 bd ac 74 36 bc c5 5c c7 3d 23 77 54 3d
       -0.06697572 -0.011136215 0.09734491 0.05187143
000180 f4 56 13 3d 1b 23 9b 3b 02 be e7 bd 57 7a 46 3c
       0.035971597 0.0047344095 -0.11315538 0.012114129
000190 20 8e 0b bd f5 84 39 3d 05 fb 49 3d 7a 01 67 bd
       -0.034071088 0.045292813 0.049311657 -0.056397893
0001a0 4b 66 15 bd 2d 79 c5 bd de 7b 18 bd 5a 1a f6 bc
       -0.036474507 -0.09642253 -0.037227504 -0.030041862
0001b0 fc 93 36 3d 9f 6a ef 3d ff b6 01 3d 73 94 85 3d
       0.044574723 0.11690258 0.03166866 0.06522455
0001c0 d4 72 2a bd af d0 e1 3b 4c 33 b9 3d b5 0e a1 3c
       -0.041613415 0.006891332 0.09042987 0.019660333
0001d0 82 7e b9 3c 22 06 89 3c c0 27 24 3c 09 2e 3b bc
       0.022643331 0.016726557 0.010019243 -0.01142455
0001e0 e1 92 df bc 96 f2 e4 bc dc d1 b7 3c 35 a8 af 3d
       -0.027291717 -0.027947705 0.022438936 0.08577005
0001f0 32 6d f3 ba 7b da 76 3c ca 76 3f 3d 89 c4 1f bc
       -0.0018571971 0.015066738 0.046744145 -0.0097514475
000200 86 67 2c 3e 05 fc 31 bd 1c 77 e1 3d 43 fc 59 3c
       0.16836366 -0.043453235 0.110090464 0.013304773
000210 be f8 07 3d 53 1a ac 3d 96 37 a5 3c 27 81 e7 3d
       0.033196203 0.084034584 0.020168107 0.11303931
000220 9e e7 94 3c 3d 19 82 3c be ce 13 3d 98 15 58 3d
       0.01817685 0.015881175 0.036085837 0.05275497
000230 52 34 02 3d f1 2f a2 39 3d 0f 45 3c 76 77 9e 3d
       0.031788178 0.00030934767 0.012027559 0.07737629
000240 d4 1b 87 3d 00 1e fe 3c 90 2c e9 3c d7 07 8b 3d
       0.06597105 0.031020164 0.028463632 0.06788605
000250 a9 2e c2 3d ca 12 65 3d 2c 14 13 3d 87 4b 6f bd
       0.09481556 0.05592612 0.03590791 -0.058421638
000260 d4 33 95 3c 40 f7 85 bb 29 ef 89 bb 14 75 3b 3d
       0.01821319 -0.0040883124 -0.0042094183 0.04576595
000270 7f c3 dd bc ae a6 d3 bc 6f 91 a6 bd cb ad d1 bb
       -0.027070759 -0.025836315 -0.08133208 -0.0063988916
000280 7b 7a 84 3d 72 5c 71 bc 60 c2 62 3c 2a b9 52 bc
       0.06468674 -0.014731513 0.013840288 -0.012861529
000290 ee 65 e4 bb 55 65 7e bc a4 53 24 3d ff fb ae 3b
       -0.006970159 -0.015527089 0.04011883 0.005340099
0002a0 a1 90 ed 3d 20 90 73 3b 73 d1 94 3d 4d ac 51 3b
       0.115998514 0.0037164763 0.07266512 0.0031993568
0002b0 20 42 85 3d 87 27 17 3c 39 d8 bd bc 5d 9d 88 bc
       0.06506753 0.009225733 -0.023174392 -0.0166766
0002c0 53 17 f6 bd 4a 19 04 bd 20 e7 73 bd d3 7d a4 bd
       -0.120161675 -0.03225068 -0.05954659 -0.080318116
0002d0 fa 91 6e 3c 0d 64 f2 bc 0b 49 d2 bd 26 4e a1 3c
       0.014561171 -0.029588724 -0.10267838 0.019690584
0002e0 e0 3d 4f 3c 93 31 93 3c e3 86 a5 3a 35 82 c8 bd
       0.0126490295 0.017967975 0.00126287 -0.0979046
0002f0 d9 a8 f4 bc ac 0b 90 bc f6 a3 f3 3b cf 30 1f 3d
       -0.02986567 -0.01758369 0.007435317 0.038864907
000300 3d 13 4e 3b 21 3b b9 bd 5b 88 97 bc cc c9 10 bc
       0.0031444572 -0.09044481 -0.018497637 -0.008837175
000310 0c bf 2f bc 56 57 03 bd 0d 7a cf 3d 2f ef 42 bd
       -0.0107267015 -0.032065712 0.10130701 -0.047591385
000320 26 19 0b 3c 27 66 01 bd cd ff c3 3c 84 ce 75 3d
       0.008489883 -0.03159156 0.023925686 0.0600114
000330 92 ee a6 bc d0 d6 8f bc 09 36 61 bd ec 83 a0 3c
       -0.020377431 -0.017558485 -0.054983173 0.019594155
000340 1b ac 86 b9 fc 79 a0 bd af d7 c1 bc ac 22 2f 3d
       -0.000256867 -0.07835767 -0.023662416 0.042757675
000350 09 0f f3 3c 37 88 4e bc d0 27 12 bd 20 ad d7 3c
       0.029670255 -0.012605718 -0.0356825 0.02632767
000360 9e 83 d4 3d 4e a9 cc bc fb 36 35 3c 4c 40 45 3d
       0.103766665 -0.024983075 0.011060472 0.04815702
000370 66 e8 70 bd 09 86 e3 3d e0 a4 95 3c 74 48 05 3d
       -0.058815382 0.111095496 0.018267095 0.0325398
000380 0e 8c 7a bd 81 dc 30 bd c5 a9 06 3d 3d 99 f1 bd
       -0.061168723 -0.04317904 0.03287675 -0.11796806
000390 fe e7 23 bd aa 33 59 bc aa b2 49 3d 6e b2 2f 3c
       -0.040016167 -0.013256947 0.049242653 0.010723693
0003a0 4c 24 fa 3c a4 cc 76 bd 76 d0 21 bc eb 02 86 bd
       0.030534886 -0.060253754 -0.009876361 -0.06543525
0003b0 25 cf 68 3d ea e1 8c 3d 79 9f 3c 3c c9 a5 42 3b
       0.056838173 0.06879027 0.011512631 0.0029700866
0003c0 d1 dc e0 3c 90 b1 2d 3d f1 b9 a0 bc 43 66 1f 3d
       0.027449043 0.042405665 -0.019619914 0.038915884
0003d0 0f b3 b1 3c 4b 7d 52 bd 50 23 70 bc f4 e1 24 3e
       0.021691827 -0.05138902 -0.014656857 0.1610182
0003e0 0a ce 9c bc 3a 27 a7 3c fc 9b bf bc b2 f1 74 bc
       -0.019141216 0.020404447 -0.023389809 -0.014950203
0003f0 11 42 48 3d d2 fd 01 3c bd 7c ea bc fd 21 09 bc
       0.04889113 0.007934051 -0.028623933 -0.00836992

conv1.bias f4 [32]
000000 fa c9 cb bd db 85 68 be 1c dc e2 3d 92 b4 13 be
       -0.09950633 -0.22707312 0.11077139 -0.14424351
000010 e3 f8 e5 bd 17 48 5c 3d 22 cb 77 be cc e0 12 be
       -0.11229112 0.053779688 -0.24198583 -0.14343566
000020 ed c8 42 bd 96 55 e4 3d 6c 8a bd bc e2 dd aa 3d
       -0.0475549 0.11149137 -0.023137294 0.08343102
000030 b6 f6 f8 bd df 05 b4 bd ab f9 ae bc 87 8d b4 3d
       -0.121564314 -0.08790182 -0.021359285 0.08816057
000040 11 13 9b bd 10 95 5f 3d 1a 9b cf bc 9b 23 13 bc
       -0.07571996 0.054585516 -0.025342513 -0.008980657
000050 e2 ab 19 3e 4f 7a e5 bd 8b c1 96 bd bb ef 44 3c
       0.15006974 -0.11204969 -0.07361134 0.012020047
000060 b3 f5 22 3e ea 37 54 be 8c 65 ad bc ba 7f 0d 3e
       0.1591404 -0.20724455 -0.021166585 0.13818255
000070 51 3e 11 3d 53 14 de bd 34 50 02 3e 4f ec cc bc
       0.03545982 -0.1084372 0.12725908 -0.025015024
