Ratio_same_wo_GRL/checkpoint_step_0015.pth (torch_old, 541547 bytes, 24 tensors)

momentum_buffer f4 [3]
0	0xbe05f2a6	-0.13080844
1	0x3e4a10fb	0.1973304
2	0x3d22ca60	0.03974378

momentum_buffer f4 [3]
0	0x3dde2af6	0.10848038
1	0xbdb88986	-0.090106055
2	0xbd1d17fa	-0.038352944

momentum_buffer f4 [32, 3, 5, 5]
0	0xbbb85e8a	-0.0056265043
1	0xbb950ba0	-0.004548505
2	0xbb86eadc	-0.004117353
3	0xbb503370	-0.003176894
4	0xbb8f9f72	-0.004383021
5	0xbb87fa02	-0.0041496763
6	0xbb283692	-0.0025667292
7	0xbb0ebd50	-0.002178032
8	0xbaf30dec	-0.0018543578
9	0xbb57041a	-0.0032808841
10	0xbb81df27	-0.0039633694
11	0xbb0cfe66	-0.0021513938
12	0xbaff102a	-0.0019459773
13	0xbb04ebc8	-0.0020282138
14	0xbb416946	-0.002951221
15	0xbb5712ba	-0.0032817558
16	0xbb054a02	-0.0020338302
17	0xbb03eef1	-0.0020131434
18	0xbb09403d	-0.002094283
19	0xbb710634	-0.003677738
20	0xbb1c314b	-0.0023833092
21	0xbaeb771c	-0.0017964575
22	0xbb0c0b82	-0.0021369164
23	0xbb121c08	-0.002229454
24	0xbb46afe4	-0.0030317241
25	0xbb07ce9c	-0.0020722514
26	0xba87da84	-0.0010364805
27	0xba07fd78	-0.0005187611
28	0x39018940	0.00012353528
29	0xbaaf309c	-0.0013365927
30	0xb9b1b280	-0.00033893064
31	0x3a561cf0	0.0008167764
32	0x3a903478	0.0011001965
33	0x3a6632a8	0.0008781352
34	0xb9d287a0	-0.0004015537
35	0xb99ec650	-0.00030283863
36	0x3ac8aefc	0.0015310938
37	0x3ac05aa4	0.001467545
38	0x3a5e8b48	0.00084893825
39	0xb8316000	-4.2289495e-05
40	0x38208680	3.8272236e-05
41	0x3adc5030	0.0016808566
42	0x3b0f0dac	0.0021828217
43	0x3ab08edc	0.001347031
44	0xb9e37498	-0.00043383683
45	0x3af55da8	0.0018719928
46	0x3ad5b602	0.0016304853
47	0x3a575c80	0.00082153827
48	0x39d3c490	0.00040391507
49	0xb9995c00	-0.0002925098
50	0x3aa1641c	0.001231316
51	0x3b35f1f2	0.002776262
52	0x3b54505a	0.0032396526
53	0x3b601010	0.0034189261
54	0x3b0404d8	0.0020144489
55	0x3b4d6617	0.0031341368
56	0x3b97535b	0.004618091
57	0x3ba62a9c	0.0050709974
58	0x3b9fe109	0.004879121
59	0x3b625204	0.0034533748
60	0x3b6c0570	0.0036013983
61	0x3b9e0f4a	0.0048236
62	0x3ba6de30	0.005092405
63	0x3b937c90	0.004500933
64	0x3b30bd49	0.0026968291
65	0x3b706c72	0.0036685732
66	0x3bafa4db	0.0053602285
67	0x3ba84631	0.0051353206
68	0x3b8e973d	0.004351525
69	0x3b59ef43	0.0033254183
70	0x3b98ae7a	0.004659471
71	0x3ba72efa	0.0051020356
72	0x3b9c90c3	0.004777999
73	0x3b77b9cf	0.003779996
74	0x3b583f3b	0.0032996673
75	0x3d65f566	0.056142233
76	0x3d7b22ed	0.061312605
77	0x3d78c09c	0.06073056
78	0x3d6aebd2	0.057353802
79	0x3d592a99	0.05301914
80	0x3d61ef72	0.055159993
81	0x3d7ca31e	0.061679
82	0x3d81428c	0.06311521
83	0x3d736515	0.05942257
84	0x3d5bb72a	0.053641476
85	0x3d761e2b	0.060087364
86	0x3d86e9ee	0.06587587
87	0x3d84ba36	0.064808294
88	0x3d741934	0.059594348
89	0x3d529d50	0.051419556
90	0x3d6b57a7	0.05745664
91	0x3d803d76	0.06261723
92	0x3d7f54e8	0.062336832
93	0x3d6c4b76	0.057689153
94	0x3d5261e4	0.051362887
95	0x3d692b94	0.056926325
96	0x3d7a001d	0.061035264
97	0x3d73aafa	0.059489228
98	0x3d63b830	0.055595577
99	0x3d53055b	0.05151878
100	0x3d103dcc	0.035215184
101	0x3d1ef7f0	0.03881067
102	0x3d1ad3d0	0.037799656
103	0x3d0c2566	0.034215353
104	0x3d0375aa	0.032094635
105	0x3d0c5471	0.034260217
106	0x3d1e8f52	0.0387109
107	0x3d202f8e	0.03910785
108	0x3d15ebac	0.036601707
109	0x3d04cbce	0.032420926
110	0x3d256b24	0.04038538
111	0x3d37a3f2	0.044834085
112	0x3d2d94eb	0.042378347
113	0x3d181e88	0.037138492
114	0x3cfffa87	0.03124739
115	0x3d22bf8a	0.039733447
116	0x3d30adf6	0.043134652
117	0x3d2aab04	0.041667
118	0x3d160326	0.036624096
119	0x3cfefe7b	0.031127205
120	0x3d2417fb	0.040061932
121	0x3d2e2626	0.04251685
122	0x3d234e98	0.039869875
123	0x3d15ba3a	0.036554553
124	0x3d05ca68	0.032663733
125	0x3c9ad8c9	0.0189022
126	0x3caf9d91	0.021437438
127	0x3ca1d926	0.019756865
128	0x3c8e69bb	0.0173844
129	0x3c7a63a1	0.015282542
130	0x3c8ff559	0.017573046
131	0x3ca983d8	0.02069275
132	0x3cad27dc	0.02113717
133	0x3c976d22	0.018484656
134	0x3c734cee	0.014849884
135	0x3cc0166e	0.023448195
136	0x3cdb93b8	0.026803836
137	0x3ccc0a1a	0.02490716
138	0x3ca00930	0.019535631
139	0x3c6b3f56	0.014358362
140	0x3cc1b0e2	0.023643915
141	0x3cd62310	0.026139766
142	0x3cc9b40c	0.024621986
143	0x3ca2ad7a	0.01985811
144	0x3c7a80ad	0.015289468
145	0x3cd1bc4c	0.025602482
146	0x3cdcd258	0.026955768
147	0x3cc3976e	0.023875918
148	0x3ca63a55	0.020291487
149	0x3c8fb65e	0.017543014
150	0xbb43a562	-0.0029853215
151	0xbafc83c4	-0.0019265343
152	0xba8aa8cc	-0.001057887
153	0xba291b78	-0.00064509315
154	0x387e0480	6.056251e-05
155	0xbacb5e30	-0.0015515741
156	0xb98a30b0	-0.00026357686
157	0x3a0ef040	0.000545267
158	0x3a76f1d8	0.0009420193
159	0x3b104c0c	0.0022017984
160	0xba9c197c	-0.001190945
161	0xb9955e60	-0.0002848981
162	0x3a963a00	0.0011461377
163	0x3b047fbb	0.0020217735
164	0x3b40880c	0.0029377965
165	0xbace0210	-0.0015717167
166	0xb993e610	-0.00028209435
167	0x3a769010	0.0009405622
168	0x3b34e42e	0.0027601826
169	0x3b4f51ed	0.0031634525
170	0xbaa7e3b4	-0.001280895
171	0xba024808	-0.000496984
172	0x3a848db8	0.0010113036
173	0x3adfafb4	0.0017065913
174	0x3b311ab1	0.0027023966
175	0xbc71de74	-0.01476251
176	0xbc647834	-0.013944674
177	0xbc5bf240	-0.013424456
178	0xbc5613d2	-0.013066249
179	0xbc4c995d	-0.0124877365
180	0xbc6360ef	-0.013878091
181	0xbc4f36d7	-0.012647352
182	0xbc4f913e	-0.012668906
183	0xbc3a847e	-0.011384128
184	0xbc2d448c	-0.010575425
185	0xbc62457d	-0.013810513
186	0xbc527a35	-0.012846519
187	0xbc4ee0fa	-0.012626881
188	0xbc39f050	-0.011348799
189	0xbc2a4226	-0.010391748
190	0xbc61251a	-0.013741756
191	0xbc527921	-0.012846262
192	0xbc48b1b8	-0.012249403
193	0xbc3e95f8	-0.011632435
194	0xbc281a56	-0.010260185
195	0xbc653e0e	-0.013991846
196	0xbc55ce5e	-0.01304969
197	0xbc4d2724	-0.012521539
198	0xbc33c678	-0.010972612
199	0xbc2cf7aa	-0.010557095
200	0xbc4fdc43	-0.012686792
201	0xbc3b5b6b	-0.01143537
202	0xbc364622	-0.011125119
203	0xbc2dfe54	-0.010619719
204	0xbc2d75a2	-0.010587128
205	0xbc4aa372	-0.01236807
206	0xbc33fda2	-0.010985764
207	0xbc2896cb	-0.010289858
208	0xbc23660c	-0.00997306
209	0xbc206b16	-0.009791156
210	0xbc4b2c68	-0.012400724
211	0xbc331fb0	-0.010932848
212	0xbc294caa	-0.01033322
213	0xbc219863	-0.009862992
214	0xbc192dd0	-0.009349301
215	0xbc44cb14	-0.012011308
216	0xbc31cb30	-0.010851666
217	0xbc316118	-0.010826372
218	0xbc1fcd3b	-0.009753521
219	0xbc0fe840	-0.0087834
220	0xbc4f3260	-0.012646288
221	0xbc313172	-0.010815011
222	0xbc30b298	-0.010784768
223	0xbc2472e8	-0.010037161
224	0xbc1c922d	-0.009556335
225	0xbcc4b8bc	-0.02401387
226	0xbcd138be	-0.025539752
227	0xbce0f8b3	-0.027462339
228	0xbcdc92ee	-0.02692553
229	0xbce026d1	-0.02736226
230	0xbcd8c388	-0.026460424
231	0xbce4c46d	-0.027925694
232	0xbcec66b4	-0.028857566
233	0xbcf237ca	-0.029567618
234	0xbcee95d0	-0.02912417
235	0xbce87c9f	-0.028379736
236	0xbcef8586	-0.029238474
237	0xbcf0c5d5	-0.029391209
238	0xbceec180	-0.029145002
239	0xbcf53035	-0.029930213
240	0xbceb5b99	-0.0287302
241	0xbcf6e5fb	-0.03013896
242	0xbcf501fa	-0.029908169
243	0xbce9dbfa	-0.028547276
244	0xbcfd2eae	-0.030906048
245	0xbcf7198a	-0.030163545
246	0xbcfcfc60	-0.03088206
247	0xbcee0e46	-0.02905954
248	0xbcf258ec	-0.029583417
249	0xbcfe8164	-0.031067558
250	0xba1d01bd	-0.0005989334
251	0xbb07b3f9	-0.0020706637
252	0xbb3a4b76	-0.0028426326
253	0xbb2ee966	-0.002668941
254	0xbb4ac2c2	-0.0030938839
255	0xbb0bb529	-0.0021317697

momentum_buffer f4 [32]
0	0x3a88bd00	0.0010432303
1	0xbbb71818	-0.005587589
2	0x397ba588	0.0002399889
3	0xbc54da26	-0.012991464
4	0x39bd6590	0.0003612456
5	0x39d4de00	0.00040601194
6	0xbc822cee	-0.015890565
7	0x3ae7f33a	0.0017696389
8	0x3c9c05f6	0.019045811
9	0xbbb396f2	-0.0054806406
10	0xbbfc69d0	-0.0077030435
11	0x3bb5a4e7	0.0055433395
12	0x3c445501	0.011983157
13	0x3b25f28e	0.0025321576
14	0x3c202a2e	0.009775681
15	0x3c8c8d6f	0.017157285
16	0xbdb660dc	-0.08905193
17	0x3c70d60e	0.014699472
18	0xbc3b8d72	-0.011447297
19	0xbb831490	-0.004000254
20	0xbcca4876	-0.024692755
21	0xbb7fdc28	-0.0039041135
22	0x3b814d20	0.0039459616
23	0x3c2a086a	0.010377983
24	0xbbead968	-0.00716703
25	0xbb15f64e	-0.0022882405
26	0x3c2499fc	0.010046478
27	0x3b291eab	0.0025805633
28	0xbaee1c00	-0.0018166304
29	0xbbef47da	-0.0073022665
30	0x3b8f014a	0.0043641673
31	0x3bf2a634	0.007405067

momentum_buffer f4 [32, 32, 3, 3]
0	0x3b082505	0.0020774018
1	0x3a4ca09b	0.00078059145
2	0x3a2ca22c	0.0006585445
3	0x3b02ce88	0.0019959528
4	0x3ab57496	0.001384395
5	0x39eb7960	0.00044913124
6	0x3aee75d0	0.001819307
7	0x3b030ecf	0.001999784
8	0x3a2b9e08	0.0006546681
9	0x3ba7c709	0.0051201624
10	0x3ba88c3e	0.0051436713
11	0x3bbcb88f	0.005759306
12	0x3bd1b544	0.0063997824
13	0x3bddd71e	0.0067700287
14	0x3bc0be56	0.005882065
15	0x3be2994f	0.0069152485
16	0x3bc8a863	0.006123589
17	0x3bbe6f8b	0.005811637
18	0x3c8f05c3	0.017458802
19	0x3c87a7fc	0.016559593
20	0x3c6fdc7f	0.014639973
21	0x3c91a9ba	0.017781127
22	0x3c894860	0.016758144
23	0x3c623e2d	0.013808769
24	0x3c89026b	0.016724786
25	0x3c78fc23	0.015196833
26	0x3c46e689	0.012139925
27	0xb94f3c6d	-0.00019763569
28	0x38d3cbf4	0.00010099253
29	0xb8ebc292	-0.00011241915
30	0x39354948	0.00017288805
31	0xb93b710b	-0.00017875822
32	0x39eddd91	0.00045369242
33	0xb8e73e98	-0.00011026597
34	0x3a56adbc	0.00081893406
35	0x3a18f792	0.00058352307
36	0x3d0b5130	0.034012973
37	0x3d089a76	0.03335043
38	0x3ce453f5	0.027872065
39	0x3d0bc6d7	0.034125175
40	0x3d0ae0ec	0.03390591
41	0x3ce78b0c	0.028264545
42	0x3d084e98	0.033278078
43	0x3d03c47d	0.032169808
44	0x3cddb2f2	0.027062867
45	0x3d0b704a	0.034042634
46	0x3d09dacc	0.033655927
47	0x3ce5cfbd	0.028053159
48	0x3d0c7394	0.03428991
49	0x3d0ae9d8	0.033914417
50	0x3cec7560	0.028864563
51	0x3d0948ce	0.033516698
52	0x3d088450	0.033329308
53	0x3ce607a0	0.028079808
54	0x3bddc9a2	0.0067684213
55	0x3b864bfe	0.0040984144
56	0x3aae5ae1	0.001330223
57	0x3c0e5849	0.008688041
58	0x3b9ba312	0.004749664
59	0x3abdd42c	0.0014482788
60	0x3c0ce94f	0.008600547
61	0x3ba9222c	0.0051615443
62	0x3b30931a	0.0026943148
63	0xb916426e	-0.00014329862
64	0x37997570	1.8293707e-05
65	0x3b075648	0.0020650793
66	0x39b9c3a8	0.00035431725
67	0x3abb11b2	0.0014272241
68	0x3acaab1b	0.001546237
69	0x39a7bb8a	0.0003199245
70	0x3a590212	0.00082782016
71	0x3b2924a6	0.0025809198
72	0x3b214abf	0.0024611203
73	0x3b1bbc9f	0.002376355
74	0x3b2755ee	0.0025533396
75	0x3b1b04e6	0.0023654043
76	0x3b1369b4	0.0022493424
77	0x3b056f87	0.0020360665
78	0x3abf45fc	0.0014593
79	0x3b07c4fc	0.0020716777
80	0x3adc4936	0.0016806487
81	0x391919d8	0.00014600845
82	0xba03854a	-0.0005017115
83	0xba2629d8	-0.00063386327
84	0x38e3de08	0.0001086556
85	0xb9e4b67a	-0.00043623504
86	0xb9861878	-0.00025576702
87	0x3a50023f	0.0007934905
88	0xb982bd4a	-0.00024936564
89	0x39e2b346	0.00043239648
90	0x3cff1651	0.031138571
91	0x3ceeb0c5	0.029137025
92	0x3cc8439d	0.024446303
93	0x3cfdc411	0.03097728
94	0x3ceb038b	0.028688213
95	0x3cbd7275	0.023125866
96	0x3ceca705	0.028888235
97	0x3cd1c101	0.025604727
98	0x3cadbac9	0.02120723
99	0x3c9ac887	0.018894447
100	0x3c8dd012	0.01731113
101	0x3c6ecd5a	0.014575327
102	0x3c975b98	0.018476292
103	0x3c924cc2	0.017858867
104	0x3c6fed9c	0.014644053
105	0x3c942f34	0.018088914
106	0x3c8f767f	0.017512558
107	0x3c6a4b84	0.014300231
108	0x3cc31209	0.02381231
109	0x3cbbb05e	0.022911247
110	0x3c9f3a74	0.019437052
111	0x3cbfde39	0.023421394
112	0x3cba330c	0.02272942
113	0x3c9cb3d6	0.019128721
114	0x3cb91b48	0.022596017
115	0x3caff389	0.021478431
116	0x3c891306	0.016732704
117	0x3a9d61fc	0.0012007351
118	0x3aaef282	0.001334742
119	0x3a6147ec	0.0008593786
120	0x3aa49311	0.0012556036
121	0x3afe1741	0.0019385592
122	0x3b16da4c	0.0023018299
123	0x3aa03c13	0.0012224935
124	0x3b152a95	0.0022760977
125	0x3b073c0f	0.0020635163
126	0x3c04e7dd	0.008111921
127	0x3c3fe7b6	0.011712959
128	0x3c2e4032	0.010635423
129	0x3c0b5601	0.008504392
130	0x3c3c9bf2	0.01151179
131	0x3c292664	0.010324094
132	0x3bf62e13	0.0075128167
133	0x3c341f0e	0.010993732
134	0x3c212822	0.009836229
135	0x3b5cadd0	0.0033672936
136	0x3b4a9323	0.0030910454
137	0x3b706bdf	0.003668539
138	0x3b977e5b	0.004623217
139	0x3b9b44bf	0.00473842
140	0x3b7706fc	0.0037693372
141	0x3b8adfdf	0.0042381133
142	0x3b680ff3	0.0035409897
143	0x3b859365	0.0040764087
144	0x3c5bd435	0.013417293
145	0x3c4bb81f	0.012434035
146	0x3c549346	0.012974566
147	0x3c4c325e	0.01246318
148	0x3c5493c9	0.012974688
149	0x3c5dcb5e	0.013537256
150	0x3c4e14f9	0.012578242
151	0x3c4f550e	0.012654556
152	0x3c5b6cdd	0.013392654
153	0x3a872f0e	0.0010313706
154	0x3a8bde72	0.0010671152
155	0x38674920	5.5142795e-05
156	0x3ad23832	0.0016038476
157	0x3a79ac0e	0.00095242343
158	0xb9c1a4b8	-0.00036934554
159	0x3b1283d7	0.0022356415
160	0x3adc597f	0.001681134
161	0x39a91bc4	0.0003225488
162	0x3c0d11e8	0.008610226
163	0x3c0b592c	0.008505147
164	0x3be18503	0.0068823113
165	0x3c07dd26	0.008292472
166	0x3c034dca	0.008014152
167	0x3bfab59e	0.007651045
168	0x3c090e57	0.008365235
169	0x3c0efb97	0.008726976
170	0x3bd53446	0.0065064756
171	0xba2aa24a	-0.00065091683
172	0x398d7e2c	0.0002698762
173	0x3abe4db9	0.0014519013
174	0x3886e9ac	6.433143e-05
175	0x3a6d5c54	0.00090545905
176	0x3ad2ddc0	0.0016087815
177	0x39d4a1ac	0.00040556246
178	0x399af8c1	0.00029558505
179	0x3b487af3	0.0030590862
180	0x3b64b9c7	0.003490077
181	0x3b81a954	0.003956953
182	0x3b34ece2	0.0027607013
183	0x3b822abc	0.0039723795
184	0x3b864cbc	0.004098503
185	0x3b6c8050	0.0036087222
186	0x3b695cd2	0.0035608304
187	0x3b8f90d8	0.0043812804
188	0x3b827f24	0.0039824415
189	0xb99e47a6	-0.0003018949
190	0x3952ff68	0.00020122307
191	0x3ad71b86	0.0016411401
192	0xb9855430	-0.0002543046
193	0x3a9ab617	0.0011803535
194	0x3b27731d	0.002555079
195	0x3a5b548b	0.0008366785
196	0x3af4cfd2	0.0018677658
197	0x3b4658dc	0.0030265367
198	0x38fe9a00	0.000121403486
199	0x3a472352	0.00075965107
200	0x3b0704ef	0.0020602306
201	0x3a26c57b	0.00063618243
202	0x3ac59fb2	0.00150775
203	0x3b10bcdc	0.0022085225
204	0x3a38b71a	0.0007046327
205	0x3b0006bc	0.0019535264
206	0x3b27c3e6	0.0025598942
207	0x3cb534df	0.022119937
208	0x3cba140c	0.022714637
209	0x3c99ce29	0.018775063
210	0x3cbf8aef	0.023381678
211	0x3cba461b	0.022738507
212	0x3c994e63	0.018714136
213	0x3cac6a6a	0.021046836
214	0x3cb2c9e9	0.021824794
215	0x3c957858	0.018245861
216	0x3c3248fc	0.010881659
217	0x3c355925	0.011068617
218	0x3c2fa626	0.010720765
219	0x3c3179fa	0.010832304
220	0x3c36ede3	0.011165115
221	0x3c35d9c6	0.0110992845
222	0x3c3f1586	0.011662846
223	0x3c38e288	0.011284478
224	0x3c3bc2e7	0.011460043
225	0x3cf3bd16	0.02975325
226	0x3cf19d3a	0.029493917
227	0x3ccb96e0	0.024852216
228	0x3cf074da	0.029352594
229	0x3ceb3ca1	0.028715434
230	0x3cccdfda	0.025009084
231	0x3ce626e0	0.028094709
232	0x3ce9e616	0.028552096
233	0x3cc51cb6	0.024061542
234	0xbaa725f8	-0.0012752404
235	0x38a79df8	7.9926045e-05
236	0x39015214	0.00012332975
237	0xb9c8cad9	-0.00038298106
238	0xb9cdd7e2	-0.00039261492
239	0x3b03f066	0.0020132302
240	0x3aacb395	0.0013176078
241	0x3a880383	0.0010377023
242	0x3b28c736	0.0025753505
243	0xba780927	-0.0009461813
244	0xba60d2fd	-0.00085763616
245	0x3a21ed54	0.0006177027
246	0xba6c9847	-0.00090253766
247	0x3938de90	0.00017630518
248	0x3a1be16c	0.0005946371
249	0xb8553950	-5.0836534e-05
250	0x3a161f2d	0.00057266915
251	0x3aa4a772	0.001256211
252	0xba51750e	-0.000799016
253	0x3a366f02	0.00069592905
254	0x3b20802b	0.0024490457
255	0xba82785c	-0.0009954083

momentum_buffer f4 [32]
0	0x3b0ada40	0.0021187216
1	0x3af17745	0.0018422386
2	0xba8ffd8d	-0.0010985598
3	0x3ad3aea0	0.0016150065
4	0xba0caf20	-0.0005366672
5	0x3b860814	0.0040903185
6	0x3ada6210	0.0016661305
7	0xbb4697dc	-0.0030302918
8	0xba861ca0	-0.001023192
9	0x3b5bf9c8	0.003356563
10	0x3bb0d016	0.0053958995
11	0xba32db20	-0.00068228133
12	0x39b6128b	0.0003472756
13	0xb9b1cfbd	-0.00033914848
14	0x3b052430	0.002031576
15	0x3ae8acec	0.001775173
16	0x3bb4d556	0.0055185957
17	0x3aef6240	0.0018263534
18	0xb787c97c	-1.6187078e-05
19	0x3bc832a2	0.0061095515
20	0x3a5f6b42	0.00085227576
21	0x39176994	0.00014439813
22	0x3c030a7d	0.007998106
23	0x3b01c242	0.0019799625
24	0x3c6fae57	0.014628968
25	0x3b82c880	0.0039911866
26	0xbaed9bcc	-0.0018128096
27	0x3c8efec3	0.017455464
28	0x3a06b6b8	0.00051389216
29	0x3bd0bb9c	0.006370021
30	0xbb067278	-0.0020515006
31	0xbb21eca2	-0.0024707695

momentum_buffer f4 [64, 32, 3, 3]
0	0x38475337	4.7522797e-05
1	0xb9a0357f	-0.00030557436
2	0xb8835d07	-6.2638945e-05
3	0xb8fd5bf6	-0.00012081109
4	0x385d9384	5.282789e-05
5	0x3a005d68	0.0004896731
6	0xb95f79b7	-0.0002131228
7	0x39b86161	0.00035167768
8	0xb93b9a45	-0.0001789118
9	0x393632ac	0.0001737575
10	0x3998c920	0.0002914155
11	0xb8b2090b	-8.489386e-05
12	0x39ab58c0	0.00032681786
13	0x3987a030	0.00025868556
14	0x37d8c73f	2.5841988e-05
15	0x38d14ad6	9.979836e-05
16	0xb9456cc6	-0.00018827905
17	0xb9c95db5	-0.00038407525
18	0xb99d4b0d	-0.0003000129
19	0x3a0b12d9	0.0005305238
20	0x39a39b5c	0.00031205534
21	0x39700915	0.00022891567
22	0xb963306e	-0.00021666448
23	0xb921ad7b	-0.00015418783
24	0x398a3e47	0.0002636781
25	0x397292fb	0.00023133673
26	0xb91ab07c	-0.0001475233
27	0xb9d8a3ac	-0.00041320676
28	0x395d3c00	0.00021098554
29	0xb871db18	-5.7662925e-05
30	0x398af0ee	0.00026500918
31	0xb95a7672	-0.00020834224
32	0x3968278a	0.00022139974
33	0xba098500	-0.0005245954
34	0x3913d9e2	0.0001410018
35	0x39ae5630	0.0003325208
36	0xb9afb017	-0.00033509798
37	0xb9d9d985	-0.0004155153
38	0xb836ffa9	-4.3630283e-05
39	0x37196b82	9.144542e-06
40	0xb9d6aca7	-0.00040945897
41	0xb9c38506	-0.00037292409
42	0xb8e00d9c	-0.00010683687
43	0x3923ec14	0.00015632837
44	0xb8243f88	-3.9159815e-05
45	0xb9ae0b07	-0.00033196082
46	0xb983c47c	-0.0002513266
47	0xb9c71a16	-0.00037975673
48	0x39e06492	0.0004279954
49	0xb8f09c2b	-0.0001147318
50	0xb8963912	-7.1631875e-05
51	0x3951f7e6	0.00020024143
52	0x38fdcfcb	0.000121026846
53	0xba11382f	-0.0005539683
54	0xb81056ca	-3.4413104e-05
55	0x3807e3cf	3.239867e-05
56	0x394e94e2	0.00019701154
57	0xb85f65a8	-5.3262018e-05
58	0xb83f08be	-4.554609e-05
59	0xb968e2a2	-0.00022209671
60	0xb88067c5	-6.122844e-05
61	0x392a517a	0.00016242816
62	0x39cb27f8	0.00038748956
63	0x38a84dbb	8.025343e-05
64	0xb9e1442c	-0.00042966136
65	0x39656c12	0.00021879401
66	0xb9c9151c	-0.00038353435
67	0xb97d6261	-0.00024164609
68	0xb96ded9f	-0.00022690602
69	0x39ad20cb	0.00033021564
70	0x349531c0	2.778961e-07
71	0x3919fe47	0.00014685943
72	0x39b09704	0.0003368185
73	0xb9651ffc	-0.00021851057
74	0x39713675	0.00023003838
75	0x38b65c15	8.695588e-05
76	0xb920db71	-0.00015340537
77	0x393b72b7	0.00017876444
78	0x3957a667	0.00020565988
79	0x391b4afd	0.00014809887
80	0x39d06d9d	0.0003975452
81	0xb93cfb2c	-0.00018022646
82	0x3993fe01	0.00028227273
83	0x398d19c9	0.00026912827
84	0xb9bedf50	-0.00036406005
85	0xb96819ff	-0.00022134928
86	0x398a9d57	0.00026438638
87	0xb9f3a4c1	-0.00046471323
88	0x398cc81e	0.0002685198
89	0x3993246d	0.00028065164
90	0xb98f7b19	-0.000273668
91	0x3a4d4719	0.0007830724
92	0xb9a4b922	-0.00031418452
93	0xb8c0adf8	-9.187678e-05
94	0xb80bd39c	-3.333726e-05
95	0xb981039f	-0.00024607495
96	0x39de4cc5	0.00042400337
97	0xb9799cc9	-0.00023804898
98	0xb672e670	-3.6194942e-06
99	0xb9773ebd	-0.00023579127
100	0xb9b8e33a	-0.00035264512
101	0x39963074	0.0002864633
102	0xb7d2cad9	-2.512841e-05
103	0x3924aafa	0.00015703953
104	0xb91923f7	-0.00014604615
105	0x38b93680	8.831639e-05
106	0xb9838e88	-0.0002509246
107	0xb9ab2a31	-0.00032647097
108	0x38efa00c	0.00011426219
109	0x38f6d24c	0.00011769365
110	0xb82b69da	-4.086816e-05
111	0xb912de64	-0.00014006492
112	0x39c42946	0.00037414784
113	0x3a1ecdbf	0.000605788
114	0xb8c821e3	-9.543055e-05
115	0x382b10da	4.078527e-05
116	0xb6d48887	-6.333986e-06
117	0xb94c8c0d	-0.00019507129
118	0x39169870	0.00014361902
119	0x38ad8073	8.2732084e-05
120	0xb80019da	-3.0541654e-05
121	0x3955bde2	0.00020384
122	0x39b8b6ca	0.00035231403
123	0xb9a84fc6	-0.00032102893
124	0xb881b233	-6.1843915e-05
125	0xb8e65cb0	-0.00010984519
126	0xba06db1b	-0.00051443436
127	0xb92e5f68	-0.00016629475
128	0x3976d161	0.00023538388
129	0x3a16ccc5	0.0005752559
130	0xb9578c0f	-0.00020556174
131	0xb91782db	-0.0001444923
132	0xb9cd7a70	-0.0003919187
133	0xba05644a	-0.00050884916
134	0xb8a7d2a4	-8.0024154e-05
135	0xb9906cc6	-0.00027546863
136	0x3917b0ac	0.00014466298
137	0xb67ecbb8	-3.796753e-06
138	0xba2dfe06	-0.0006637279
139	0xb8ead924	-0.00011198435
140	0x39e17846	0.00043004955
141	0xb976e9f7	-0.00023547547
142	0x3a182c85	0.0005804974
143	0x3901c2cb	0.00012374965
144	0xb99c0ede	-0.00029765716
145	0x39261fe6	0.00015842877
146	0xb96594cd	-0.00021894574
147	0xb818bd2e	-3.641581e-05
148	0xb9bdbefb	-0.0003619118
149	0x39179859	0.00014457236
150	0x397286b1	0.00023129095
151	0x39636881	0.00021687338
152	0xb82fa8cb	-4.1880452e-05
153	0xb8dcd2d2	-0.00010529686
154	0x39084990	0.00012997375
155	0xb8ab4edf	-8.168606e-05
156	0x38a75475	7.978912e-05
157	0x376c99ca	1.4102503e-05
158	0x38dcb1f4	0.00010523564
159	0x3934b1d6	0.00017232387
160	0x3951f27d	0.00020022127
161	0xb8e0de2f	-0.00010722537
162	0x396feb4b	0.0002288047
163	0xb98dca29	-0.00027044237
164	0xb98da32d	-0.0002701519
165	0xb9fc77bb	-0.00048154392
166	0x391ffa8f	0.00015256762
167	0x392bd857	0.00016388424
168	0x38834edc	6.2612555e-05
169	0x393f2d06	0.00018231952
170	0xb9dcdb1d	-0.00042124922
171	0x37ad6dd4	2.067435e-05
172	0x3847f949	4.7677462e-05
173	0x39b6b534	0.00034848752
174	0xb999bf19	-0.00029324813
175	0x385a84c3	5.2098894e-05
176	0x3720bb75	9.580389e-06
177	0x3993bc3f	0.0002817828
178	0xb9499964	-0.00019225996
179	0x3947846c	0.0001902745
180	0xb97a5af5	-0.00023875742
181	0x388d1ed2	6.729145e-05
182	0x39c4d875	0.00037545306
183	0xb9e21660	-0.0004312275
184	0x36b88c66	5.499972e-06
185	0xb90dd61c	-0.0001352657
186	0x39959ca8	0.00028536213
187	0x379f31e6	1.8977513e-05
188	0xb77e687b	-1.5163906e-05
189	0x3990ab3a	0.00027593394
190	0x385f53cb	5.324538e-05
191	0xb90f6d33	-0.00013678223
192	0x39636959	0.00021687652
193	0x397876fa	0.00023695445
194	0x397b89fa	0.00023988626
195	0x39709dff	0.00022947042
196	0xb9d46044	-0.00040507514
197	0xb9c95dfc	-0.0003840773
198	0xb9961f22	-0.00028633425
199	0x39abca9e	0.00032766623
200	0x38db1027	0.000104457424
201	0xb7be1a0a	-2.266189e-05
202	0xb95fdbc5	-0.00021348808
203	0x39fe1796	0.00048464228
204	0xb8eb136c	-0.00011209291
205	0x38b4f6ca	8.629037e-05
206	0x3945addd	0.00018852153
207	0xb97fb360	-0.00024385517
208	0x38945769	7.073471e-05
209	0x38d2ab6b	0.000100455094
210	0x39c73dde	0.00038002332
211	0xb92d254c	-0.0001651246
212	0xb56fa244	-8.9270566e-07
213	0xb921e9c9	-0.00015441248
214	0xb9f1f630	-0.00046150526
215	0x3a0e5902	0.00054301333
216	0x3a81d03b	0.0009903976
217	0xb81dd7e1	-3.763277e-05
218	0xb94e2cb1	-0.0001966234
219	0xb922d93b	-0.00015530449
220	0x38c5fd04	9.44082e-05
221	0xb8b59a21	-8.659461e-05
222	0xb8e4f441	-0.00010917383
223	0xb96df5f4	-0.00022693706
224	0xb91ad09c	-0.00014764298
225	0xb90ec0c4	-0.00013613986
226	0xba2b4ae4	-0.0006534292
227	0xb9f005a3	-0.00045780567
228	0x38ee5ba9	0.000113657974
229	0xba0c2b58	-0.0005347035
230	0xb9f5b3ad	-0.0004686391
231	0xb988d35c	-0.00026097416
232	0x3a011b02	0.0004924984
233	0x3991116e	0.0002766954
234	0xb82b5ed1	-4.085788e-05
235	0x3983d179	0.00025142336
236	0xba24e60a	-0.0006290382
237	0x390d1033	0.00013452843
238	0x391aaa91	0.00014750125
239	0x39b671c6	0.00034798513
240	0xb97f4528	-0.00024344458
241	0xba0d81d4	-0.0005398069
242	0x394ca77d	0.0001951735
243	0xb9a5eb51	-0.00031646577
244	0xb97167ae	-0.00023022175
245	0xb98774a3	-0.00025836108
246	0x39922abc	0.0002787913
247	0xb8aea6c7	-8.328031e-05
248	0xb8a06d8b	-7.6497985e-05
249	0xb95236f9	-0.0002004764
250	0xb88a48f7	-6.5939435e-05
251	0xb9d87adf	-0.00041290277
252	0x3950b182	0.00019902553
253	0xb99bc5ed	-0.0002971137
254	0x37e571af	2.7351865e-05
255	0x38aee6e7	8.3399755e-05

momentum_buffer f4 [64]
0	0x3827a6e7	3.9971343e-05
1	0x38c2b540	9.284401e-05
2	0x3b4b4d00	0.0031021237
3	0x3ba68be2	0.0050825933
4	0xba733ede	-0.00092790823
5	0xbaeb73af	-0.0017963554
6	0x3a92fe08	0.0011214623
7	0x3b43d6df	0.0029882712
8	0x3a5133d7	0.0007980442
9	0xbb049184	-0.0020228336
10	0x39016a42	0.00012341983
11	0x38bee440	9.102421e-05
12	0xb98e4fd0	-0.00027143816
13	0x3ab0eafe	0.0013497768
14	0xba1cf390	-0.00059872214
15	0x38b3540c	8.55104e-05
16	0xb9c5b4c0	-0.00037709437
17	0x3b29f4b8	0.0025933217
18	0xb943f720	-0.0001868871
19	0xb9f832c0	-0.00047340058
20	0x39206f17	0.00015300173
21	0x38e81380	0.00011066254
22	0xb894b100	-7.090159e-05
23	0x3b0c25c2	0.002138481
24	0xba9e5ab7	-0.0012081478
25	0x35caba00	1.5104306e-06
26	0x3a098040	0.0005245246
27	0xbb383c34	-0.0028112056
28	0xba88425f	-0.0010395757
29	0x375e3910	1.3245517e-05
30	0x39e994e2	0.0004455215
31	0x3b67b6e8	0.0035356823
32	0xb92941d0	-0.00016141613
33	0x3b7b8108	0.003837647
34	0x3aa1f46d	0.001235617
35	0xb9f2812e	-0.00046254083
36	0x3a073d70	0.0005158996
37	0xba54ef67	-0.0008122832
38	0x3ac55a88	0.0015056888
39	0x395e2e88	0.00021188904
40	0x3b8053ce	0.0039162403
41	0x3a8e0308	0.0010834644
42	0x3aaadef8	0.001303642
43	0x3a997f10	0.0011710841
44	0xb93a23b2	-0.0001775164
45	0xb8b5ecc0	-8.674851e-05
46	0x39fff4c0	0.00048819743
47	0x3badd3f1	0.0053048064
48	0xb932b4a8	-0.00017042703
49	0x3b5f3818	0.0034060534
50	0xb923ccd7	-0.000156212
51	0x3b70d1b8	0.0036746096
52	0xba47ad8c	-0.0007617108
53	0x371ac300	9.224517e-06
54	0xba13706f	-0.0005624359
55	0x39d69a80	0.00040932372
56	0x39e44676	0.00043540046
57	0x390fa63f	0.00013699474
58	0x3a3bce00	0.000716418
59	0x388db6d8	6.757461e-05
60	0xb9748f80	-0.00023323111
61	0x3b54fa74	0.0032497915
62	0x38ead0d5	0.000111968875
63	0x3b382900	0.002810061

momentum_buffer f4 [64, 64, 3, 3]
0	0xb9020aad	-0.00012401743
1	0xb9b1fd7d	-0.00033948934
2	0x38cfef98	9.915157e-05
3	0xb9a77b44	-0.00031944562
4	0x398179ea	0.0002469563
5	0x38f617ec	0.0001173465
6	0xba246168	-0.0006270618
7	0x38a1c2e9	7.713383e-05
8	0xb8abc28d	-8.190153e-05
9	0xbb70542f	-0.003667127
10	0xbb8bfc7b	-0.0042720414
11	0xbb91fcd0	-0.0044551864
12	0xbb825db5	-0.003978456
13	0xbba5a881	-0.0050554876
14	0xbb8e9713	-0.0043515055
15	0xbb3bea21	-0.0028673487
16	0xbb5138a4	-0.003192463
17	0xbb3a9b3c	-0.0028473875
18	0xbb9b4f56	-0.004739682
19	0xbbb46326	-0.0055049835
20	0xbb9f2a62	-0.0048573473
21	0xbbb09a32	-0.0053894753
22	0xbbbf9f8c	-0.005847877
23	0xbbbb2704	-0.005711438
24	0xbb5f7c98	-0.0034101363
25	0xbb863fa4	-0.004096942
26	0xbb71996c	-0.0036865128
27	0x3abe037a	0.0014496886
28	0x3b284baa	0.0025679865
29	0x3b018724	0.0019764388
30	0x3b149232	0.0022670147
31	0x3b32af96	0.0027265302
32	0x3b59cf7b	0.003323524
33	0x3afec0ac	0.0019436083
34	0x3b2d71ba	0.0026465491
35	0x3b21a2ae	0.0024663615
36	0x3a4c8751	0.0007802146
37	0x3a3ca4cc	0.00071961875
38	0x3a41bbf6	0.0007390374
39	0x3a585866	0.00082529185
40	0x3a1d8e00	0.00060102344
41	0x39fa960c	0.0004779551
42	0x3a10e337	0.0005527022
43	0x399fcb7e	0.00030478457
44	0x39e7661a	0.00044135825
45	0x3974533c	0.0002330066
46	0x39d151bc	0.00039924483
47	0x3a1de725	0.0006023518
48	0x3a2ff25a	0.00067118334
49	0xb9cb2616	-0.00038747553
50	0xb7dfffd0	-2.6702794e-05
51	0x38bd7b73	9.0352165e-05
52	0xb960886c	-0.00021413126
53	0xb92a0b83	-0.00016216752
54	0xbb9fc809	-0.004876141
55	0xbbb18781	-0.0054177647
56	0xbb9e3def	-0.0048291604
57	0xbba32b4f	-0.004979528
58	0xbbcc73c5	-0.0062393867
59	0xbbae6e10	-0.005323179
60	0xbb826994	-0.003979871
61	0xbb8fa850	-0.004384078
62	0xbb8ac4c8	-0.004234884
63	0xba3a9817	-0.0007118
64	0xba8ae2a1	-0.0010596105
65	0xba809e35	-0.0009812774
66	0xba4976f8	-0.0007685269
67	0xbabb32bb	-0.0014282087
68	0xba693bd3	-0.0008897159
69	0xb9b063ad	-0.000336436
70	0x392a5065	0.00016242413
71	0xb9b04a00	-0.0003362447
72	0xba7f2568	-0.0009733052
73	0xbad9c546	-0.0016614578
74	0xba97228c	-0.0011530682
75	0xba6a5c04	-0.0008940103
76	0xba9ae090	-0.0011816192
77	0xba4878a8	-0.0007647374
78	0xba637fcc	-0.0008678406
79	0xbaaf9188	-0.0013394812
80	0xbaa219dc	-0.0012367326
81	0xba88c21e	-0.0010433828
82	0x389cd6a0	7.478637e-05
83	0x399367c8	0.00028115348
84	0xba750da4	-0.0009348041
85	0xba96c422	-0.0011502544
86	0xba4c5344	-0.000779439
87	0xba929da2	-0.0011185894
88	0xba2e3be8	-0.00066465
89	0xb9cfd120	-0.00039637927
90	0x38cbd00e	9.7185475e-05
91	0x3a2dec08	0.00066345977
92	0x3a2e3410	0.0006645331
93	0x3a3ca95d	0.0007196868
94	0x3a19dae8	0.00058691064
95	0x3a3ae8a7	0.0007130005
96	0x3a1a53e4	0.00058871345
97	0x39e0c8d6	0.00042874244
98	0x3a74f584	0.0009344446
99	0xbb26f281	-0.0025474133
100	0xbb617eb5	-0.0034407799
101	0xbb86e0c8	-0.0041161515
102	0xbb62e944	-0.00346239
103	0xbb8fb7a2	-0.0043859044
104	0xbb776986	-0.0037752106
105	0xbb3fb31b	-0.0029251042
106	0xbb8502f0	-0.004059188
107	0xbb860f3e	-0.0040911725
108	0xbb9f3147	-0.0048581692
109	0xbbb6e37b	-0.005581317
110	0xbbada937	-0.005299713
111	0xbb9e9958	-0.0048400573
112	0xbbcfd383	-0.006342353
113	0xbbc59334	-0.006029511
114	0xbb9565a0	-0.004559234
115	0xbbb3ad56	-0.0054833097
116	0xbbaf9d06	-0.005359295
117	0xba939424	-0.0011259359
118	0xba7838a6	-0.00094688905
119	0xba456cfc	-0.00075311936
120	0xba771ad5	-0.00094263005
121	0xba867081	-0.0010256917
122	0xb9f54f46	-0.00046789105
123	0xb8eb0e70	-0.000112083624
124	0xb8981b3c	-7.2529976e-05
125	0xb8e8a7e4	-0.00011093894
126	0xbb812a05	-0.0039417767
127	0xbb8a6a41	-0.0042240922
128	0xbb913c0f	-0.0044322084
129	0xbb85d79c	-0.0040845405
130	0xbb964fac	-0.0045871343
131	0xbba9f8b1	-0.005187117
132	0xbb67fa68	-0.0035397056
133	0xbb97b668	-0.004629899
134	0xbb90485a	-0.004403156
135	0xb91bf06d	-0.00014871517
136	0xb8cb139f	-9.683449e-05
137	0xb862a9a4	-5.404059e-05
138	0xba12f4fc	-0.00056059635
139	0x398095dc	0.00024525716
140	0x3835638f	4.3246484e-05
141	0xb933affc	-0.0001713633
142	0x394904b0	0.000191706
143	0x3a1d70db	0.00060058915
144	0xbbd65545	-0.0065409266
145	0xbbedb48d	-0.0072541893
146	0xbbf1db2a	-0.0073808627
147	0xbbfb7819	-0.007674229
148	0xbc0c083d	-0.008546886
149	0xbc04e056	-0.0081101265
150	0xbbc60bc5	-0.0060438835
151	0xbbf9b728	-0.007620711
152	0xbbe85b83	-0.007090987
153	0x3a85e13e	0.0010214222
154	0x3ab8fdfb	0.0014113778
155	0x3aeed01c	0.001821998
156	0x3b1017ce	0.0021986845
157	0x3b17f22a	0.0023185113
158	0x3ad10238	0.0015946096
159	0x3ad12c2f	0.0015958602
160	0x3ae5081c	0.001747373
161	0x3b1942fe	0.0023385878
162	0xbb2c39b0	-0.0026279502
163	0xbb3195a0	-0.002709724
164	0xbb4455ba	-0.0029958324
165	0xbb57f71f	-0.0032953692
166	0xbb72b4ba	-0.003703399
167	0xbb66cbd0	-0.0035216697
168	0xbb20d6e4	-0.0024542147
169	0xbb40e17e	-0.0029431279
170	0xbb271b4c	-0.0025498448
171	0xbb8dd260	-0.004328057
172	0xbb8e99e7	-0.0043518427
173	0xbb891b3e	-0.0041841557
174	0xbb907429	-0.0044083786
175	0xbb9b9bfd	-0.00474882
176	0xbb9fd388	-0.0048775114
177	0xbb86b696	-0.0041111214
178	0xbb8bcbe5	-0.0042662495
179	0xbb8ab8d4	-0.004233459
180	0x3845b79a	4.7139452e-05
181	0x392c7177	0.00016445467
182	0xb998bab4	-0.00029130804
183	0xb96df15b	-0.00022691993
184	0xb98bf71a	-0.0002669625
185	0xb90a9f56	-0.00013220063
186	0xb973a025	-0.00023233944
187	0x38bf44f7	9.1204354e-05
188	0xb8cf6b7b	-9.890549e-05
189	0xbacd7be4	-0.0015677181
190	0xbb2107e8	-0.0024571363
191	0xbb0a8391	-0.0021135549
192	0xbb110f35	-0.0022134308
193	0xbb0a7c5e	-0.0021131258
194	0xbb26c108	-0.0025444645
195	0xbaef9320	-0.00182781
196	0xbad8707c	-0.0016513015
197	0xbb03d6a2	-0.0020116945
198	0xbbaf6d93	-0.0053536384
199	0xbbd3bbbd	-0.006461589
200	0xbbc47098	-0.0059948675
201	0xbbc7dd83	-0.0060994043
202	0xbbd88c7b	-0.0066085435
203	0xbbc55546	-0.0060221283
204	0xbb9597e0	-0.004565224
205	0xbbbf6866	-0.0058413027
206	0xbbb699d6	-0.005572538
207	0xbb5796d2	-0.0032896292
208	0xbb8600c2	-0.004089446
209	0xbb52c754	-0.0032162266
210	0xbb563ab4	-0.0032688798
211	0xbb9051ff	-0.004404306
212	0xbb870b4b	-0.0041212193
213	0xbb4c51db	-0.003117672
214	0xbb7eaa0c	-0.003885868
215	0xbb51a7dd	-0.0031990923
216	0x39c5f6be	0.00037758605
217	0x3838d1eb	4.406452e-05
218	0x3961dd26	0.00021540056
219	0x391fa08f	0.00015223234
220	0x3a6eb9e1	0.00091066776
221	0x39faa8ef	0.0004780958
222	0xb83c6792	-4.491915e-05
223	0x39bbfc4f	0.00035855404
224	0x39ed8fd9	0.00045311337
225	0x3a98f7e2	0.0011670555
226	0x3a9e7a15	0.0012090827
227	0x3a857978	0.0010183295
228	0x3a6a9098	0.0008947938
229	0x3ab4a755	0.0013782779
230	0x3a5a49e0	0.0008327048
231	0x3a44623b	0.0007491444
232	0x39f74344	0.00047161628
233	0x3a7d6a8b	0.000966706
234	0xb91ca642	-0.00014939255
235	0x3986ea1e	0.00025732903
236	0xb9acb41d	-0.0003294059
237	0xb9eb2b24	-0.00044854835
238	0x38f47d16	0.00011658126
239	0xb988127a	-0.00025953708
240	0xb907a685	-0.00012936637
241	0x39aaf9bf	0.00032611002
242	0x39bffe2b	0.0003661973
243	0xba4b3498	-0.00077516725
244	0xba70cc06	-0.00091856753
245	0xba78ee40	-0.0009495951
246	0xba8dbe48	-0.0010814155
247	0xbab9ffd9	-0.0014190628
248	0xba8d9865	-0.0010802863
249	0xba7a061a	-0.00095376524
250	0xbabb94d4	-0.0014311322
251	0xba04c1da	-0.00050642865
252	0xb8d50254	-0.00010157065
253	0x3a02dbfc	0.00049918867
254	0xb8910a5c	-6.9160684e-05
255	0x3a1055e3	0.0005505962

momentum_buffer f4 [64]
0	0x3ae3ed48	0.0017389441
1	0x378b7b00	1.6627368e-05
2	0xb919b2ee	-0.00014657874
3	0x3ad4e38c	0.0016242131
4	0x3b8c03d4	0.0042729173
5	0xba1f6c21	-0.0006081481
6	0x39e2c438	0.00043252273
7	0x398b8c92	0.0002661688
8	0xb989d676	-0.00026290462
9	0xba0dc5e0	-0.0005408209
10	0x388c5272	6.691077e-05
11	0x387e8240	6.0679624e-05
12	0x3afca9e8	0.001927671
13	0xb8cfbf45	-9.906156e-05
14	0x39a64820	0.00031715725
15	0x38226900	3.87216e-05
16	0x3a8544fc	0.0010167654
17	0xb89e35a8	-7.544021e-05
18	0xb81dfdd8	-3.7668127e-05
19	0x3b28f346	0.0025779768
20	0x36c57a80	5.8853184e-06
21	0xb8eeab93	-0.000113806826
22	0x3913ad9b	0.00014083686
23	0x3966fdf0	0.00022029108
24	0x39d8a2f0	0.00041320128
25	0xba8f9384	-0.0010953997
26	0x388984d1	6.557408e-05
27	0xb9627a00	-0.00021598488
28	0xb6efb800	-7.1441755e-06
29	0x3a5874a8	0.0008257129
30	0xb982f240	-0.00024976023
31	0xb9f00f60	-0.00045787822
32	0x3ab7b146	0.0014014624
33	0xb982a1e0	-0.00024916138
34	0xb64e6902	-3.0757515e-06
35	0x3b1b3920	0.0023685172
36	0x39d7d238	0.0004116462
37	0xb8f469fd	-0.000116545685
38	0xb8626300	-5.39748e-05
39	0x3aafdc38	0.0013417071
40	0x38a1fa6c	7.723723e-05
41	0x3b34f0ee	0.0027609426
42	0x38dd76c8	0.00010560226
43	0xb9dd12f0	-0.00042166514
44	0x3a314ba1	0.0006763284
45	0xba0799c1	-0.00051727524
46	0x39333e98	0.00017094088
47	0x3a4b192c	0.00077475864
48	0x3b471cfa	0.0030382262
49	0xb9290620	-0.00016119378
50	0x39a4e686	0.0003145227
51	0x39313b7f	0.000169022
52	0x39b8fc1e	0.00035283057
53	0xba26afcb	-0.00063585927
54	0xb9881691	-0.00025956755
55	0xba598757	-0.000829806
56	0x3aad76b4	0.0013234229
57	0x394272f2	0.00018544102
58	0xb943b6f0	-0.00018664799
59	0xb9a99d30	-0.00032351306
60	0xba3fb799	-0.000731343
61	0xb6e50e00	-6.8263616e-06
62	0x38cdf980	9.821635e-05
63	0x39558c80	0.00020365603

momentum_buffer f4 [1, 64]
0	0xbbf474d0	-0.007460214
1	0xbd87c4e4	-0.06629351
2	0xba9732ba	-0.0011535503
3	0x3cd04d54	0.025427498
4	0x3d1ea4cb	0.038731378
5	0x3b4883fa	0.0030596242
6	0xbc8314b8	-0.01600109
7	0xbb15bc17	-0.0022847706
8	0xbc22696b	-0.009912829
9	0xbd186162	-0.037202246
10	0xbcba5a30	-0.022748083
11	0xbc710790	-0.014711276
12	0xbdb1ac7d	-0.08675478
13	0xba5ae756	-0.0008350512
14	0x3c4154f0	0.011800036
15	0x3b79720c	0.0038062362
16	0x3b8a6848	0.004223857
17	0xb9e6cfc6	-0.00044023822
18	0xbc2845cc	-0.010270547
19	0x3d011c56	0.031521164
20	0x3973285f	0.00023189325
21	0x39a7ebf4	0.0003202852
22	0x3a2cac89	0.0006586989
23	0xbd06445c	-0.032780036
24	0x3a771fc4	0.00094270357
25	0x3c7187d6	0.0147418585
26	0x39930071	0.00028038354
27	0xbdaa47c8	-0.083144724
28	0xbd1b058e	-0.037847094
29	0x3c81d309	0.0158477
30	0xbc98eb9c	-0.018667035
31	0xbbfd201f	-0.0077247764
32	0x3c71009c	0.014709618
33	0xbcb90df0	-0.022589654
34	0xbb02ef09	-0.0019978902
35	0x3ca1f034	0.019767858
36	0xbc06cc18	-0.008227371
37	0x392eee96	0.00016682813
38	0xbd3308fb	-0.043709736
39	0xbd75a846	-0.05997493
40	0x3abb6c2a	0.0014299203
41	0x3ca66332	0.020310972
42	0xb87abb50	-5.9779093e-05
43	0xbd1e5355	-0.03865369
44	0xb9079c34	-0.00012932793
45	0xbb58c11c	-0.0033074087
46	0xbd4735f3	-0.048635434
47	0xbced6d04	-0.028982647
48	0x3c31d196	0.010853192
49	0xbd190e8e	-0.037367396
50	0xbcbffd6e	-0.023436274
51	0xb8cd3f76	-9.786982e-05
52	0xbbadbaf0	-0.0053018257
53	0x3c035080	0.008014798
54	0x3c484f78	0.012225978
55	0xba14ce0f	-0.0005676457
56	0x3cdbe5ce	0.026842978
57	0xbbba6923	-0.005688803
58	0x3b96b5e2	0.004599319
59	0xbccad17b	-0.024758091
60	0x3a9d4b46	0.0012000583
61	0xbc4b99c2	-0.012426795
62	0xbd1a4ef0	-0.037672937
63	0xbb99394e	-0.0046760207

bn0.weight f4 [3]
0	0x3f86cdc6	1.0531547
1	0x3f854c03	1.0413822
2	0x3f87cb02	1.0608828

bn0.bias f4 [3]
0	0xbca790fc	-0.020454876
1	0xbd8b2305	-0.06793789
2	0x3ce2144f	0.027597575

bn0.running_mean f4 [3]
0	0x3ef7a65b	0.48369107
1	0x3ee3aaa4	0.44466126
2	0x3ecfb010	0.40564013

bn0.running_var f4 [3]
0	0x3d86a4bb	0.065743886
1	0x3d7b04cf	0.061283883
2	0x3d7d7e8a	0.061888255

conv1.weight f4 [32, 3, 5, 5]
0	0x3c75d74a	0.015004942
1	0xbb09ab90	-0.00210068
2	0xbd70ae2b	-0.05875985
3	0x3984d63d	0.00025336622
4	0xbcca3cc6	-0.024687182
5	0x3ca91e6b	0.020644387
6	0x3d2f3a8d	0.042780448
7	0x3d83a71e	0.064283594
8	0x3d0c074c	0.034186646
9	0x3c62c7d9	0.013841593
10	0x3d40986d	0.047020365
11	0x3d18096d	0.037118364
12	0xbcdbc6c4	-0.026828177
13	0x3ca268ce	0.019825365
14	0x3deab46d	0.11460195
15	0x3db5cb3a	0.08876653
16	0x3b63ffc3	0.0034789897
17	0xbde7fc2e	-0.11327396
18	0x3aa47a94	0.0012548738
19	0xbda132ef	-0.07871043
20	0x3c26158d	0.010136974
21	0x3c3f9a06	0.011694437
22	0xbcb4f851	-0.022091063
23	0xbce26657	-0.02763669
24	0xbbc73f37	-0.006080534
25	0x3cd6ed21	0.026236119
26	0xbc991c15	-0.018690148
27	0xbc41dd63	-0.011832568
28	0x3d0e6a39	0.03476927
29	0xba7cb009	-0.00096392684
30	0x3b3c7365	0.0028755304
31	0xbda8702e	-0.082245216
32	0xbc997a87	-0.018735183
33	0xbdd47f40	-0.103758335
34	0xbd29ac81	-0.04142428
35	0xbd184f9b	-0.037185293
36	0xbce306c4	-0.027713187
37	0xbd3ff5df	-0.04686534
38	0xbd287af7	-0.041132893
39	0x3dbd1f36	0.09234469
40	0xbd9d1ce2	-0.076715246
41	0xbcd0b463	-0.02547664
42	0x3db06d4e	0.08614598
43	0x3dfb509e	0.12271236
44	0xbb4e031b	-0.0031434956
45	0x3df9e02f	0.12200963
46	0x3c88bfb7	0.01669298
47	0xba62e292	-0.00086549774
48	0xbc7b058a	-0.015321145
49	0x3c40c09c	0.011764672
50	0xbcd3dd99	-0.025862502
51	0x3ca4db7f	0.020124195
52	0xbc62c1bd	-0.013840136
53	0xbd9ea2b3	-0.07745876
54	0xbdad4941	-0.08461238
55	0xbb8f6ab0	-0.004376732
56	0xbd16a030	-0.03677386
57	0x3d386ef6	0.045027696
58	0xbcec8f60	-0.02887696
59	0x3c7cca1c	0.015429046
60	0x3d9afbd8	0.07567567
61	0xbd5a22db	-0.053255897
62	0xbc847740	-0.016170144
63	0x3c6f2954	0.014597256
64	0xbd010714	-0.03150089
65	0xbce3aee8	-0.027793363
66	0x3cb6ffe2	0.022338811
67	0xbce29e62	-0.027663413
68	0x3cf723d8	0.030168459
69	0x3d6f376d	0.058402468
70	0xbd285a94	-0.041102007
71	0x3a7472bc	0.0009324958
72	0x3d8bfd9b	0.06835481
73	0xbd827320	-0.063696146
74	0xbb1e0982	-0.0024114554
75	0xbccae42a	-0.024767
76	0xbd62cdd5	-0.055372078
77	0xbe0374eb	-0.1283757
78	0xbccd5ef1	-0.025069686
79	0x3b34619b	0.0027523998
80	0xbdb8c184	-0.09021285
81	0xbd7b85d6	-0.061406933
82	0xbd2c5543	-0.0420735
83	0xbdd38039	-0.10327191
84	0x3d65957e	0.05605077
85	0x3df7089c	0.12062189
86	0x3c9566f2	0.018237565
87	0xbd6aa267	-0.057283785
88	0x3aad4370	0.001321895
89	0xbd82157e	-0.063517556
90	0x3c4d3ad6	0.012526235
91	0x3ba9bc40	0.005179912
92	0xbd0a97ea	-0.033836283
93	0x3b6d2696	0.003618633
94	0x3db8cad7	0.09023064
95	0x3ce7ca41	0.028294684
96	0x3d00edee	0.031476907
97	0xbac350fc	-0.0014901455
98	0xbdf66250	-0.1203047
99	0x3b3aaf0f	0.002848569
100	0xbcc61069	-0.024177747
101	0x3d65bd66	0.056088828
102	0x3d5c8583	0.053838264
103	0xbd80bc5b	-0.06285926
104	0xbcb6d7b4	-0.022319652
105	0xbdeee981	-0.11665631
106	0xbd3cff62	-0.04614199
107	0xbcddfe82	-0.027098898
108	0x3d27dfa2	0.040984757
109	0x3de73de2	0.112911
110	0x3c87453b	0.016512504
111	0x3d952ffd	0.07284544
112	0xbd0565c4	-0.032567754
113	0xbc722cb3	-0.014781165
114	0x3d65b640	0.05608201
115	0xbc47ac9d	-0.01218715
116	0x3bcbe9d2	0.006222942
117	0x3bff19c1	0.0077850525
118	0xbc9f765c	-0.019465618
119	0xbd556a3e	-0.052103274
120	0xbd32970e	-0.04360109
121	0xbd300463	-0.042972934
122	0xbbbcc97e	-0.0057613244
123	0x3d78a44f	0.060703572
124	0xbccbc4cf	-0.02487412
125	0x3ccac996	0.024754327
126	0x3d3c7ac4	0.046015516
127	0xbcbb7faa	-0.022888023
128	0x3e1da125	0.15393503
129	0xbd2348a1	-0.039864186
130	0x3db174cd	0.08664856
131	0xbc63f37b	-0.013913031
132	0x3c757867	0.014982319
133	0x3d713bf0	0.05889505
134	0xbb861efe	-0.00409305
135	0x3db29366	0.0871952
136	0xba986fbd	-0.001162998
137	0xbadfc13e	-0.001707114
138	0xbc359681	-0.011083246
139	0xbaa6e082	-0.0012731703
140	0xbb889c10	-0.0041689947
141	0xbd166170	-0.036714017
142	0xbcb63b82	-0.022245172
143	0x3ce5d210	0.028054267
144	0x3c87463a	0.016512979
145	0x3d013369	0.03154317
146	0x3c5ca3cd	0.0134667875
147	0x3d058fd9	0.032607887
148	0x3d83c173	0.06433382
149	0x3d24f286	0.04027035
150	0x3c86604e	0.016403344
151	0xbd6e99b9	-0.05825207
152	0x3cd35371	0.025796624
153	0xbab08d5d	-0.0013469864
154	0xbc446948	-0.011987992
155	0x3c627864	0.013822649
156	0xbd093883	-0.03350116
157	0xbcb62a5b	-0.022236994
158	0xbda326c2	-0.07966377
159	0xbbf49279	-0.00746375
160	0x3cccc44e	0.02499595
161	0xbd069eb3	-0.03286619
162	0x3c02a66c	0.007974248
163	0xbc244178	-0.010025375
164	0xb985f291	-0.00025548463
165	0xbd789e3f	-0.06069779
166	0x3c832232	0.016007517
167	0xbc760c23	-0.015017542
168	0x3de92c1b	0.113853656
169	0x3b8f5a1b	0.004374755
170	0x3cc504cf	0.024050144
171	0xbd0e7f0e	-0.034789138
172	0x3cea6015	0.028610269
173	0xbc9e758d	-0.019343162
174	0xbd3e5676	-0.046469174
175	0xbc5a005f	-0.013305753
176	0xbdcdf404	-0.10056308
177	0xbc05ef84	-0.008174781
178	0xbd23bac4	-0.039973035
179	0xbd91c02d	-0.07116733
180	0x3bb9a1b3	0.005665028
181	0xbc7b038c	-0.01532067
182	0xbdae9f52	-0.08526482
183	0x3d29a2f1	0.04141516
184	0x3ced64b0	0.028978676
185	0x3b1e0419	0.002411133
186	0x3bbe854d	0.0058142305
187	0xbdbb0020	-0.09130883
188	0xbc5177b7	-0.01278489
189	0x3b620326	0.003448674
190	0xbc176249	-0.009239742
191	0x3d1e7784	0.038688198
192	0x3a16a982	0.00057473045
193	0xbdad2df6	-0.08456032
194	0xbb6be3cf	-0.0035993939
195	0xbd032eb8	-0.032026976
196	0xbcc12aa8	-0.02357991
197	0xbd51f5d5	-0.051259834
198	0x3dc250c1	0.09488059
199	0xbd5c52dd	-0.053789962
200	0x3ad98070	0.0016594063
201	0xbcd45ec8	-0.025924101
202	0x3cf6db17	0.030133767
203	0x3d78e2f9	0.060763333
204	0xbd0b01cf	-0.03393727
205	0xbd18a363	-0.037265193
206	0xbd6b9aeb	-0.05752079
207	0x3cb65ef8	0.022262082
208	0xbb39cfbd	-0.0028352581
209	0xbdbba9da	-0.09163256
210	0xbd3b73dd	-0.045764793
211	0x3d199c23	0.03750242
212	0x3cd431e7	0.025902702
213	0xbc7a5e4f	-0.015281274
214	0xbd21ecdd	-0.03953253
215	0x3c2054af	0.009785815
216	0x3dcb6148	0.09930664
217	0xbd214057	-0.039368
218	0x3b629a03	0.0034576661
219	0x3d329048	0.04359463
220	0xbda946ab	-0.08265432
221	0x3dc7d23a	0.097568944
222	0xbc11dbeb	-0.00890253
223	0x3bf11bc5	0.0073580467
224	0xbdb573c0	-0.08859968
225	0x3bb5bcef	0.0055462043
226	0x3d4f772a	0.050650753
227	0xbdedda88	-0.11613947
228	0xbc9df65b	-0.01928251
229	0x3b82c06b	0.003990223
230	0x3d9ea3c6	0.07746081
231	0x3c4eefab	0.0126303835
232	0x3cc72796	0.024310868
233	0xbd81a4df	-0.06330275
234	0x39dc526f	0.00042023088
235	0xbd3f24d3	-0.046665978
236	0x3d4a0c2a	0.049328007
237	0x3d6f7135	0.058457572
238	0x3c9118bc	0.01771199
239	0x3c0a7ab2	0.008452104
240	0x3d3f8a65	0.046762843
241	0x3ccbaf84	0.024863966
242	0xbd063d1c	-0.032773122
243	0x3d69699a	0.056985475
244	0x3cad8ebc	0.021186225
245	0xbd360ecc	-0.044447705
246	0xbce4ff10	-0.027953655
247	0x3e2d4b87	0.16923343
248	0xbc417faf	-0.011810227
249	0x3c71e534	0.014764119
250	0xbd0f453a	-0.03497813
251	0xbd5d1dd8	-0.05398354
252	0xb9f52139	-0.00046754794
253	0xbcc77ea1	-0.024352374
254	0xbd796e4d	-0.060896207
255	0xbcd21b57	-0.025647802

conv1.bias f4 [32]
0	0xbd91b871	-0.071152575
1	0xbd86148a	-0.06546886
2	0x3d94c83b	0.072647534
3	0xbddb0fc6	-0.10696368
4	0xbda0edd3	-0.07857861
5	0xbd035a92	-0.032068796
6	0x3bc8f79a	0.006133032
7	0xbdcc64d7	-0.09980171
8	0xbd1d46f4	-0.038397744
9	0x3c96726a	0.018365104
10	0xbd8c6b20	-0.0685637
11	0x3d26cdd9	0.040723655
12	0xbdad8ce4	-0.084741384
13	0xbc1ebefc	-0.009689089
14	0xbb5a2259	-0.0033284633
15	0x3d229301	0.039690975
16	0xbdcbc26d	-0.09949193
17	0x3d2c4d9b	0.042066198
18	0xbcf07752	-0.029353771
19	0xbc1203e2	-0.008912059
20	0x3c108959	0.008821809
21	0xbdb2907c	-0.087189645
22	0xbdba08f8	-0.09083742
23	0x3d4c4779	0.04987285
24	0x3db1c216	0.08679597
25	0xbdc89197	-0.09793394
26	0xbd819cce	-0.06328736
27	0x3dbe4fe1	0.092925794
28	0x3d0ac4cc	0.033879086
29	0xbdd783a1	-0.10523153
30	0x3d5ffd42	0.054684885
31	0xbd6144e0	-0.054997325
