Ratio_same_wo_GRL/checkpoint_step_0245.pth (torch_old, 541547 bytes, 24 tensors)

momentum_buffer f4 [3]
00000000: 9ec9 23be 4299 7d3d c20b bbbd
-0.1599488 0.061913736 -0.09133102

momentum_buffer f4 [3]
00000000: 11b7 cfbc aea1 ef3d 5b00 ccbd
-0.025355848 0.1170076 -0.09961005

momentum_buffer f4 [32, 3, 5, 5]
00000000: 66b6 813d 329e 7b3d 51d0 6e3d 683f 743d
00000010: 8f1a 793d 53ec 803d 22e2 7d3d e2bf 6f3d
00000020: 7ab6 753d 7a03 803d 406d 623d de01 633d
00000030: 3457 583d 9cc7 563d c024 5f3d 8499 563d
00000040: 1675 513d 26f7 493d de4e 483d c76c 4d3d
00000050: e64b 4d3d 3c6e 403d 7afc 3a3d 719d 3e3d
00000060: de39 473d 6c65 8c3c 3281 8a3c 89e9 7c3c
00000070: 848c 8a3c 0639 953c 2a05 6a3c ee80 6e3c
00000080: a085 513c 7d4e 663c 1ab0 8a3c 0efd f13b
00000090: a29a 183c 960e 0b3c 1dae 043c d96d 2a3c
000000a0: c1ed 8b3b c6f3 ab3b cbf7 c93b 0d52 c13b
000000b0: 7676 eb3b ca10 4f3b b0c7 7f3a 500b ab3a
000000c0: f498 383b 16ec b23b 7cff bc3c d232 c73c
000000d0: 0c82 bf3c af84 c73c 1263 d03c 90c9 a23c
000000e0: e15c ac3c 96e0 a23c 5526 ad3c 82d9 bf3c
000000f0: 36fd 583c 1839 6f3c aebb 683c e7de 643c
00000100: b1c2 753c 528c 1d3c dc72 2c3c 98a9 2c3c
00000110: 8cac 283c 6ee4 473c 53ff fc3b b7e1 ce3b
00000120: f75e e43b 0e34 fe3b ae29 2b3c ebae 27bd
00000130: b13e 0abd 6920 2dbd b308 50bd 8cc0 78bd
00000140: 4437 71bd 2271 39bd 75f4 3ebd 76d6 6ebd
00000150: 022a 8dbd 46b4 a0bd e476 89bd 6041 81bd
00000160: 5062 95bd 40f7 adbd 4edb ccbd c500 bfbd
00000170: b695 afbd 5629 b6bd cb68 c9bd 48d4 d8bd
00000180: 797d dcbd 7436 d7bd 1800 d2bd d8d7 d8bd
00000190: ef16 2fbd d0bc 1abd 2006 3cbd df54 57bd
000001a0: 492d 6dbd e2d8 76bd 3074 4dbd c44c 57bd
000001b0: 020d 7abd dc96 89bd f6ed 9dbd a0aa 8cbd
000001c0: 59d8 88bd 8021 9abd 2624 a9bd ce20 bfbd
000001d0: 84c7 b6bd 2a3c abbd e430 b1bd 6508 bfbd
000001e0: 0c28 c5bd 700f ccbd 1364 c8bd 9cac c0bd
000001f0: f3c7 c4bd 7ea3 97bd 69f3 8fbd 268e a3bd
00000200: 2def acbd d6d9 b6bd 3014 b7bd 6322 a9bd
00000210: 34a9 b2bd a01b c2bd cc65 ccbd 9088 d7bd
00000220: dff9 cebd f87b d0bd e6c4 debd f86c e9bd
00000230: 5cf9 f2bd 0a87 f3bd 8efc eebd 046f f0bd
00000240: 5345 f8bd 362d f1bd c278 ffbd cb18 01be
00000250: 8e0e f8bd 93bf f6bd 80e7 4bbb d096 173c
00000260: c685 443c 7c7b 373c 5c05 213c b439 2cbc
00000270: 48e3 573b 7c71 1c3c 9edc 223c 204c 103c
00000280: 86c8 98bc c091 d4bb d05d 233b 4882 be3b
00000290: 6c25 ca3b 4e7d b2bc 12ae 3fbc 3096 94bb
000002a0: a00e 75ba b0b5 833a ee1f 96bc ee50 34bc
000002b0: 5c0c 00bc 1e1e 09bc 7470 bfbb 1851 50bb
000002c0: f856 d33b 7e8c 033c 75c0 043c 324d f13b
000002d0: e6ed 2cbc 00ec 363a 2005 ab3b 6061 ee3b
000002e0: b43b d53b bcf3 90bc cc30 03bc a03c caba
000002f0: 285b 303b 603a 703b 92da a5bc f42c 55bc
00000300: 48fb 01bc 9829 aabb 9041 ddba 4d46 93bc
00000310: 5087 4ebc a005 3cbc fc12 2bbc a4aa fcbb
00000320: ab67 65bc 069c dbbb fc16 d4bb c4e1 dfbb
00000330: 9bf5 01bc ce4e abbc c5ef 48bc 2dee 06bc
00000340: 1c75 f7bb b91f 13bc 14e1 dfbc 0252 a2bc
00000350: bb2a 67bc 087a 36bc 8121 34bc 2247 eabc
00000360: 3b75 c0bc c0d7 a3bc bf21 8dbc 085f 74bc
00000370: 36ed d7bc 1270 b8bc a658 bcbc be1e bfbc
00000380: 8514 aebc e970 8dbd 5bc3 9dbd 7e06 a1bd
00000390: 2162 95bd 0026 92bd f972 94bd a5d0 a6bd
000003a0: c0f2 a5bd d855 9abd 5b3c 95bd 940e 92bd
000003b0: 790a a4bd 008a a4bd fcf8 97bd ff5b 91bd
000003c0: b713 8dbd b8e3 9cbd baeb 99bd 1167 91bd
000003d0: 74ed 91bd ac98 89bd b4d5 93bd 62c1 8ebd
000003e0: 3125 8fbd cb43 93bd 8599 59bd 90c1 72bd
000003f0: fac1 78bd a818 68bd 3230 64bd 19ca 54bd
0.06333618 0.061430164 0.058304135 0.05963078 0.060816344 0.06295075 0.061983235 0.058532603
0.059988476 0.06250663 0.05527997 0.055421703 0.05281754 0.052436456 0.054478407 0.052392498
0.051137052 0.049307965 0.04890334 0.050152566 0.05012121 0.046980128 0.045650937 0.046536867
0.04863917 0.017138205 0.016907308 0.0154365385 0.016912706 0.018215667 0.014283458 0.014557106
0.012788206 0.014056799 0.016929675 0.007384903 0.009314211 0.008487364 0.0080981525 0.010402166
0.004270286 0.005247566 0.0061635724 0.005899674 0.0071857525 0.00315957 0.0009757234 0.0013049636
0.002816734 0.0054602725 0.023071043 0.024316225 0.02337744 0.02435526 0.025437865 0.019871503
0.021040382 0.019882482 0.021136442 0.023419145 0.013243964 0.014601015 0.014204903 0.01396916
0.015000031 0.0096159745 0.0105254315 0.010538481 0.010295045 0.012200458 0.0077208667 0.0063135284
0.0069693285 0.0077576702 0.010446949 -0.0409383 -0.033751193 -0.042267237 -0.050789546 -0.060730502
-0.058890596 -0.045273907 -0.04661985 -0.058309995 -0.06892778 -0.078468844 -0.0671213 -0.063112974
-0.07294142 -0.08494425 -0.100027665 -0.09326319 -0.08573477 -0.08894603 -0.09834441 -0.105873644
-0.107661195 -0.10508433 -0.10253924 -0.10588044 -0.04274648 -0.037777722 -0.04590428 -0.052571174
-0.057904515 -0.06026543 -0.050159633 -0.052563444 -0.06104756 -0.06718227 -0.07711403 -0.06868482
-0.0668189 -0.07525921 -0.08258848 -0.09332429 -0.08924773 -0.08361085 -0.08651903 -0.09327773
-0.09626779 -0.09963882 -0.09784713 -0.094079226 -0.0960845 -0.074042305 -0.07028849 -0.07986097
-0.08444057 -0.08928268 -0.08939397 -0.08258512 -0.08723679 -0.09477925 -0.09980354 -0.10524094
-0.10106253 -0.10179895 -0.10877399 -0.11397737 -0.11863968 -0.11890991 -0.11669265 -0.117399246
-0.121225975 -0.117762014 -0.124742046 -0.12607114 -0.12112151 -0.12048259 -0.0031113327 0.009252265
0.011994785 0.011198875 0.009827938 -0.010511804 0.0032941867 0.009548541 0.009940295 0.008807212
-0.018650305 -0.0064871013 0.0024927743 0.0058138706 0.006169012 -0.021788266 -0.011699216 -0.0045345053
-0.00093481876 0.0010048654 -0.018325772 -0.011005623 -0.007815447 -0.008368997 -0.005842263 -0.0031786617
0.0064495765 0.008029101 0.008102526 0.0073639387 -0.010554766 0.0006977916 0.005219117 0.0072747916
0.0065073613 -0.017694347 -0.00800724 -0.0015429445 0.0026909802 0.0036655888 -0.020245824 -0.013011206
-0.007933445 -0.0051929466 -0.0016880501 -0.017977858 -0.012605503 -0.0114759505 -0.010441538 -0.0077107716
-0.014001767 -0.006701949 -0.0064724665 -0.0068323333 -0.007932092 -0.0209116 -0.012264197 -0.0082354965
-0.0075518023 -0.008979731 -0.027329005 -0.019814495 -0.014109309 -0.011137493 -0.010994316 -0.028598372
-0.0234934 -0.020000339 -0.017228005 -0.014915235 -0.026358228 -0.022514377 -0.02299149 -0.023330089
-0.021250019 -0.069063015 -0.07703277 -0.078625664 -0.07294107 -0.07136154 -0.07248492 -0.081452645
-0.081029415 -0.07535905 -0.072869025 -0.07131687 -0.0800981 -0.08034134 -0.07420537 -0.07097625
-0.06888526 -0.076606214 -0.075156644 -0.070997365 -0.07125369 -0.06718573 -0.07218495 -0.069704786
-0.069895156 -0.07190665 -0.053124923 -0.059266627 -0.060731865 -0.05666414 -0.055710025 -0.051950548

momentum_buffer f4 [32]
00000000: 4f6e 113d f828 2fbc d2b8 6ebd 4eec 41bd
00000010: 67a9 853c 67cf 85bd 9855 af3d 4078 51bc
00000020: b89f e83b daeb d9bc ccd9 a33c 3164 5b3c
00000030: 06a6 223c 062a 953c 868c c8bd 04c9 a3bd
00000040: e38e 16bd f1d2 10bd 7506 bf3c a0a4 fabb
00000050: 7991 0e3d 00c2 d03b 0c7a b2bc 5825 f139
00000060: 0022 9dbd b072 fb3c e4df c9bc 1f4a 1cbd
00000070: 9734 29bd ffb3 ad3c 39de eebc d7d0 2e3c
0.03550559 -0.01069092 -0.058281727 -0.0473445 0.016316129 -0.065336995 0.085612476 -0.0127850175
0.007099118 -0.02660172 0.020001315 0.013390587 0.009927278 0.018208515 -0.09792428 -0.07997325
-0.03675736 -0.03535742 0.023318509 -0.0076490194 0.034806702 0.006370783 -0.021786712 0.00045994925
-0.076725006 0.030694336 -0.024642892 -0.038156625 -0.04130992 0.021203993 -0.029158698 0.0106699085

momentum_buffer f4 [32, 32, 3, 3]
00000000: 686c 84bb 1a25 a1bb 6f95 7dbb 1e02 8abb
00000010: 74b6 90bb b4c6 77bb 7da4 4dbb 335b 0fbb
00000020: 2878 f6ba 34fa d33b 2c85 b13b 53c7 c13b
00000030: e8bc f83b c66c c83b 178d a53b 33b0 203c
00000040: 99f9 fe3b e778 f23b 2d9e 34bc b53d 37bc
00000050: d1d4 fdbb 2f82 18bc 7a70 31bc 175d 1bbc
00000060: 1c89 e9bb ca67 1bbc b4c2 1abc 56b7 e2bb
00000070: cb4f cdbb 6957 b8bb 6cf0 e5bb f875 e4bb
00000080: de80 b2bb 9c05 dfbb cc20 aebb e066 93bb
00000090: 90f2 903b c423 0f3b 70eb 323a 1a86 843b
000000a0: 70ad 2c3b d8fa 8d3a 8acd 8d3b b40b 2c3b
000000b0: d0e1 d23a b84b d2ba 18e9 cdba b0fb 1d3a
000000c0: b0db 33ba 6438 2abb 20a4 83ba 3840 ef3a
000000d0: 40ab 6f39 8029 f638 186b a5bc cd1e 8cbc
000000e0: aab1 11bc 6952 72bc aece 84bc 013e 3fbc
000000f0: 4b8f 1fbc 4e44 4bbc 94ae 2cbc a6d0 32bb
00000100: 5792 35bb 8b25 baba 1a31 27bb 88ad e4ba
00000110: a5d4 09bb 7b8e 32bb afd9 19bb fc85 88ba
00000120: c82e 13bc 8cfd 09bc 8ab4 16bc ae7d 41bc
00000130: 5c0d 29bc c9b4 1abc 365b 62bc 16db 3bbc
00000140: 0ddc 22bc c265 d4bc 04cc b9bc 9b2d a2bc
00000150: fcb3 cabc 6c37 b8bc 8be6 a4bc d632 bcbc
00000160: a22f b5bc ced8 a3bc 5fb1 62bc 7f12 5cbc
00000170: 942f 3ebc 8c08 76bc 4255 7ebc e8b4 6abc
00000180: 174c 7cbc 32fe 86bc a0bd 79bc b0ae 1cbb
00000190: 8625 39bb 00b8 1ab6 484c f4ba 50a8 31bb
000001a0: e8e1 a7ba 2099 b9b9 d049 93ba 78ac 33ba
000001b0: e042 f33b b8cf c33b 7841 a63b 6203 a73b
000001c0: ee06 963b 5a1e 863b ec37 753b 28a4 483b
000001d0: c8eb b83a 1700 1cbc 6a57 30bc 35a5 5abc
000001e0: 49d8 20bc f309 2abc 8172 37bc 72dd 06bc
000001f0: 6ba3 f2bb 88bb f6bb b035 49ba 008c 2337
00000200: 7511 4bbc bcaa 48bb a00d eab9 41d2 fdbb
00000210: c7c6 ffbb 88c9 1ebb a0f9 81bb 6512 76bd
00000220: 0a0c 79bd 845b 77bd 31ad 6ebd 2e1f 6fbd
00000230: f4bb 72bd dd8f 62bd 455d 67bd 18d2 64bd
00000240: b8b2 7c3c 6bd5 363c f9d6 203c 2675 593c
00000250: e9c2 283c 02af 1c3c 084c 513c 1216 233c
00000260: 395e 223c a845 f2bc 954b d3bc 78d3 a3bc
00000270: 8b4a e1bc d2ae d8bc 449d b6bc 2cad bfbc
00000280: 4150 c5bc 2ebc b2bc 9c6f a0bc 1066 90bc
00000290: 27bf 49bc ae79 95bc 5511 a0bc 81ed 6cbc
000002a0: f48a 69bc 39b8 82bc 34db 6bbc 3e0a 15bd
000002b0: b0df 05bd 0773 09bd ab44 15bd c360 06bd
000002c0: 8264 0bbd 8202 11bd c5c3 06bd 12c5 00bd
000002d0: 6cf5 4ebc 0a91 3dbc 793d 44bc 6f9a 5ebc
000002e0: 1e7b 4abc c38e 47bc 75fb 54bc 859f 3bbc
000002f0: ecd9 36bc 3326 49bd aaa4 42bd 4554 43bd
00000300: eb45 4dbd c4c0 46bd 80d0 46bd a60d 45bd
00000310: 3918 42bd ca8f 3fbd 726b 13bd 3c23 11bd
00000320: 3d8c 10bd 3015 17bd 4efb 14bd fddd 16bd
00000330: 29e8 14bd d824 13bd ae12 13bd 1c9f 1a3b
00000340: e0d0 ea39 a2ea 12bb 5861 213b 002c 10b8
00000350: 9426 90ba 00fd c93a c07d 1d3b 4212 283b
00000360: 1088 de3b 24b8 b63b cf37 663b 78ef 983b
00000370: a71f 913b e4c3 803b 9476 953b 3291 933b
00000380: cf0c a33b 0e2a 533c 0fe6 333c 5061 e63b
00000390: 3859 283c 28de 123c 6723 e53b 6fe9 053c
000003a0: b6c7 083c e44a d43b 0884 17bd d248 fabc
000003b0: 41c0 d8bc 4eae 0bbd da57 fabc 56f7 cdbc
000003c0: e747 00bd f8e8 ecbc 66f7 ccbc 75b8 c2bc
000003d0: 8a70 b6bc f766 94bc 81f2 c0bc 595b b9bc
000003e0: 5ef9 a4bc d8d4 acbc 4cc1 b0bc 017a a1bc
000003f0: 3fd3 27bc f0a3 00bc d5c2 4ebc 4498 5dbc
-0.0040412433 -0.004917753 -0.0038693806 -0.004211678 -0.0044162814 -0.0037807645 -0.003137856 -0.0021874427
-0.001880412 0.0064690355 0.0054174867 0.005913654 0.0075908788 0.0061164824 0.0050522196 0.009807634
0.007781219 0.0073996666 -0.01102404 -0.011184146 -0.007746317 -0.009308382 -0.010830039 -0.009482644
-0.0071269404 -0.009485194 -0.009445835 -0.006918828 -0.0062656156 -0.0056256545 -0.007017186 -0.006972071
-0.005447491 -0.0068060886 -0.0053139683 -0.0044983476 0.004423447 0.0021841386 0.0006825244 0.0040443065
0.0026348494 0.0010832204 0.0043274807 0.0026252093 0.0016089026 -0.0016044294 -0.0015709726 0.0006026579
-0.0006861044 -0.0025973553 -0.001004342 0.0018253392 0.00022856612 0.00011737924 -0.020192668 -0.01710453
-0.008892456 -0.014790156 -0.016211834 -0.011672498 -0.009738754 -0.012406422 -0.01053967 -0.0027285009
-0.0027705634 -0.0014201863 -0.0025511445 -0.0017446736 -0.0021031287 -0.002724557 -0.0023475697 -0.0010415907
-0.0089833215 -0.008422267 -0.009198317 -0.0118097495 -0.0103181265 -0.009442517 -0.013815692 -0.011465808
-0.0099401595 -0.025927428 -0.02268029 -0.019797137 -0.024744026 -0.022487365 -0.020129463 -0.02297346
-0.02211744 -0.020000841 -0.013836234 -0.013432144 -0.011608023 -0.015016686 -0.015523257 -0.014325358
-0.015399001 -0.016478632 -0.015242964 -0.0023907833 -0.0028251125 -2.305489e-06 -0.0018638456 -0.0027108379
-0.0012808414 -0.00035400037 -0.0011237208 -0.0006854008 0.0074237436 0.0059756897 0.0050737225 0.005096839
0.004578463 0.0040929737 0.0037417365 0.0030615423 0.0014108354 -0.009521506 -0.010763029 -0.0133450525
-0.009817191 -0.010378349 -0.011196733 -0.008231508 -0.007404735 -0.0075296797 -0.00076755416 9.748153e-06
-0.012394299 -0.0030619344 -0.0004464211 -0.0077460115 -0.0078056785 -0.0024229009 -0.003966525 -0.060076136
-0.060802497 -0.06039001 -0.058270637 -0.058379345 -0.059261277 -0.05531298 -0.056485433 -0.055864424
0.015423469 0.011159281 0.0098168785 0.013272559 0.010300376 0.0095632095 0.012774475 0.009953992
0.00991016 -0.02957423 -0.025792876 -0.019998297 -0.027501365 -0.026450548 -0.022291787 -0.023398004
-0.02408612 -0.021818247 -0.01958447 -0.017626792 -0.012313641 -0.018246498 -0.019539515 -0.014460922
-0.01425432 -0.015956985 -0.014395524 -0.03638672 -0.03268403 -0.033556964 -0.03644244 -0.032807123
-0.0340314 -0.035402782 -0.032901544 -0.03143794 -0.012631755 -0.011570225 -0.011977547 -0.0135866245
-0.012358455 -0.012180033 -0.012999405 -0.011451607 -0.011160355 -0.049108695 -0.047520317 -0.047687788
-0.050115507 -0.04852368 -0.048538685 -0.04810872 -0.04738638 -0.046767987 -0.03599114 -0.035433993
-0.03528999 -0.03688544 -0.036372475 -0.0368328 -0.036354218 -0.03592381 -0.035906486 0.0023593372
0.00044787582 -0.0022417684 0.0024624672 -3.4373254e-05 -0.0010997825 0.0015410483 0.0024031252 0.0025645648
0.0067911223 0.0055761505 0.003512848 0.004667219 0.004428822 0.003929602 0.0045612548 0.0045033926
0.004975892 0.012888445 0.010980143 0.0070306435 0.010275178 0.008964099 0.0069927457 0.008173331
0.008348396 0.006478654 -0.03699115 -0.030552302 -0.026458861 -0.034101777 -0.030559469 -0.025142353
-0.03131857 -0.028919682 -0.025020313 -0.023769597 -0.02227046 -0.018115504 -0.023553135 -0.022626566
-0.020138439 -0.021097586 -0.021576546 -0.019711496 -0.010243236 -0.007851586 -0.012619694 -0.0135250725

momentum_buffer f4 [32]
00000000: 12b1 2dbd 5752 88bc 38e7 2b3a 5490 36bc
00000010: 0677 edba 8390 aebc 46f4 48bc f20c 6b3c
00000020: 2098 37b9 1e81 52bc 1364 8bbc 39a9 983d
00000030: ce39 343a 136b 0ebc 18b8 153a dde8 433c
00000040: 5a0f 06bd 3f53 1dbc 2240 6fbb 6066 123a
00000050: 1372 1fbc cdae afbb 8f88 75bd 04a6 183d
00000060: d2e1 26bd b96b 53bc e243 78bc 5979 11bc
00000070: 9821 e9bb a071 9f3a 61ad eebb 98ee 68bc
-0.042405196 -0.016640825 0.00065575866 -0.011142809 -0.0018117137 -0.021309143 -0.012265271 0.014346348
-0.00017508911 -0.012848167 -0.017015493 0.07454152 0.00068750686 -0.008692521 0.0005711331 0.011957374
-0.032729484 -0.009602367 -0.0036506732 0.0005584713 -0.009731787 -0.005361414 -0.059944686 0.0372677
-0.040742703 -0.012904101 -0.015152903 -0.008879029 -0.0071146004 0.00121646 -0.007283852 -0.014217041

momentum_buffer f4 [64, 32, 3, 3]
00000000: f5e0 27b9 9535 02ba fc3b 95b9 c7a4 d2b9
00000010: 1498 82b9 4c18 3339 b63e e7b9 104f f538
00000020: a52f d5b9 75a0 cb3a 8c06 ca3a b3d9 153a
00000030: f97c d33a c6a1 a43a f2ba 5d39 97bf 893a
00000040: 6045 fd39 23c8 cbb9 541a 2dba 20b5 c139
00000050: d41b b5b9 145e b1b9 c481 01ba aedb 73ba
00000060: 66cf 28ba c40e 9cb9 bbc1 98ba 9cce 85ba
00000070: a03e 3239 0ecf 0ab9 d621 cab9 ba6c 1cba
00000080: 87de 80b9 ddbf 89ba 10f2 28b8 3c7b 2439
00000090: fa28 73b9 2766 b8b9 f415 19b8 84e9 a4b7
000000a0: 1697 13ba a130 f4b9 ab2e 9bb9 f5d0 25b9
000000b0: 06a5 3db9 0268 393b 9cfa 3e3b 8d96 183b
000000c0: 583d 613b 007d 3e3b 8c07 1b3b fb2d 573b
000000d0: 29cb 553b 97e2 053b b63a 103c 59a8 103c
000000e0: 6197 143c 9cf0 073c 32bf 043c 0be2 fe3b
000000f0: bda9 013c cda6 fe3b 040e 003c 44a4 823a
00000100: a026 173a 46a4 913a 6b73 0c3a 729e 463a
00000110: 0cde 213a 36cd a03a 0ac5 7e3a 8e3a 823a
00000120: 5ece 973a 8030 5c3a 7e24 dc3a 9511 473a
00000130: b1e7 3f3a 74f0 b23a 3de2 5a3a aa25 6e3a
00000140: f9bb b83a 94c2 c7b9 bc4a 213a d29d 8f39
00000150: ee2e 88ba 28cd bfb9 701d 01b9 e813 d4ba
00000160: 1806 8ab9 18b5 7ab9 d6b1 883b de6a b73b
00000170: b085 9a3b 6874 7d3b 3c70 893b ca8d 843b
00000180: 68a2 7c3b b7d4 663b 8a21 7f3b 41b6 303a
00000190: 62d0 063a afc8 943a e269 583a 25ad 743a
000001a0: 7867 253a 95f8 973a 28cf 443a 677f 2e3a
000001b0: 37de e638 6aa6 0239 3689 a0b7 80f8 0eb9
000001c0: f1bb c139 3de8 1e3a a033 c3b8 8788 4338
000001d0: 9f62 b336 bf75 eb38 2241 fc39 b453 d939
000001e0: e199 6d39 3a06 fe39 183f 323a 9c2c 7db8
000001f0: f62c 6c39 9055 8139 4237 64ba 1d01 42ba
00000200: a0e7 33ba 88c6 acb8 db3a 84ba 8ca9 a8ba
00000210: 0426 90ba cc05 b0ba be6c 96ba c830 433b
00000220: 8002 6b3b 3adf 663b 9605 2a3b 6f64 4e3b
00000230: 9c75 743b 6e49 333b 2a2c 633b 0917 453b
00000240: 5458 493a de62 953a 8fda 3b3a 7a74 3e3a
00000250: f797 c439 fde9 7c3a 7bf7 603a ba14 803a
00000260: 9eba 5a3a 504a b83a 8274 ed3a 4928 fe3a
00000270: 6d71 9f3a 72ea 7a3a d631 a63a 6a76 953a
00000280: 557d 743a a0ff 3e3a 8133 ad39 cb77 18b9
00000290: 1ef8 02b9 1aef b6b9 5ea4 8839 7078 9a39
000002a0: 58b2 3339 7ead 9239 0747 96b9 cc6e 9238
000002b0: 8165 9db8 ea8b 063a cd09 0cb9 9e65 11b8
000002c0: d2c0 5db8 8a7c 2e3a 7ce6 b0b8 a27e 1439
000002d0: fc28 5d3b 0217 713b a04b 8d3b 1d2c 3b3b
000002e0: 9cdf 553b f479 5d3b 3416 613b d120 403b
000002f0: a011 4b3b 82a6 1c3a 29b7 a839 b379 b438
00000300: 4f98 0a3a 11e9 013a d198 dd39 5b2a 1a3a
00000310: e15c c8b8 721c 13b9 3a09 843a d6ac 003b
00000320: 50dd 193b 806e b43a 3e05 c63a 0f69 2c3b
00000330: b740 b43a 305b dc3a 19dd 0f3b 9f52 553a
00000340: 1ee4 8d3a 6bbd 9c3a 3613 a33a 7ce5 2d3a
00000350: 9098 7b3a 330e 763a 538d 0f3a 230b d93a
00000360: b665 593a 8607 3ab8 318a 99b9 a076 8db8
00000370: c9d9 9539 5deb 2ab8 40e1 f5b5 7e03 aab8
00000380: bc82 4fb9 eb47 453a 688d d8b8 443c 24b9
00000390: 6434 5c3a 4497 9cb8 1c6f ccb9 02c2 ca39
000003a0: 60e7 943a 28f3 013a 998f 4dba 9422 14ba
000003b0: 9584 a0ba 08e1 24ba b81e 2dba 3a18 90b9
000003c0: 1ae7 7dba 50b4 94ba b010 aab9 d2e1 cfb8
000003d0: 1395 5639 0c47 af39 15b9 8439 c017 63b8
000003e0: e703 8d39 8847 8cb9 1637 8ab9 0e5d 2fb9
000003f0: 06e5 a639 6d74 b739 0403 a83a 68df 0638
-0.00016010164 -0.0004967091 -0.00028464186 -0.0004017709 -0.0002490884 0.00017079822 -0.00044106477 0.00011697237
-0.00040662024 0.0015535491 0.0015413328 0.00057163386 0.0016135267 0.0012560419 0.00021145845 0.0010509369
0.0004830761 -0.0003886829 -0.00066033495 0.00036946777 -0.00034543744 -0.00033830164 -0.0004940296 -0.0009302449
-0.0006439596 -0.0002976564 -0.0011654416 -0.0010208669 0.00016998732 -0.0001323784 -0.00038553652 -0.0005967129
-0.00024579858 -0.001050945 -4.027976e-05 0.00015686167 -0.00023189551 -0.00035171324 -3.6498488e-05 -1.9659063e-05
-0.00056301185 -0.00046575538 -0.00029598674 -0.00015813469 -0.0001808592 0.0028290753 0.0029141074 0.0023283095
0.003436884 0.0029066205 0.0023655621 0.0032833803 0.0032622314 0.0020429248 0.00880306 0.0088292
0.009069295 0.008297112 0.008102225 0.0077784113 0.007914004 0.007771349 0.007815842 0.0009967168
0.00057659484 0.0011111579 0.0005357775 0.0007576711 0.000617475 0.0012268189 0.0009718692 0.0009935664
0.0011581888 0.0008399561 0.0016795543 0.00075938675 0.00073205965 0.0013651983 0.0008349752 0.0009084592
0.0014094106 -0.0003810121 0.0006152799 0.0002739267 -0.0010389963 -0.00036583212 -0.00012313365 -0.0016180249
-0.0002632595 -0.0002390932 0.0041715903 0.0055974564 0.004715644 0.003867412 0.0041942876 0.004045223
0.003854895 0.0035222003 0.0038929903 0.0006741025 0.0005142746 0.0011351312 0.0008255524 0.0009333662
0.00063096685 0.0011594469 0.00075076753 0.00066565577 0.000110086454 0.0001245976 -1.913738e-05 -0.00013634749
0.00036951856 0.0006061828 -9.3079405e-05 4.6618774e-05 5.3460967e-06 0.00011227605 0.00048113713 0.0004145183
0.00022659406 0.00048451294 0.0006799563 -6.0361446e-05 0.00022523463 0.00024668546 -0.0008705744 -0.00074006786
-0.0006862823 -8.2385784e-05 -0.0010088341 -0.0012867912 -0.0010997658 -0.0013429462 -0.00114765 0.0029783715
0.0035859644 0.0035228268 0.002594327 0.0031492969 0.0037301546 0.0027357 0.0034663775 0.0030073544
0.00076807034 0.0011397263 0.00071660517 0.0007265281 0.00037497256 0.0009647904 0.00085817993 0.0009771802
0.0008343848 0.0014060233 0.0018116387 0.0019390668 0.0012164541 0.0009571678 0.0012679647 0.0011403088
0.0009326537 0.0007286016 0.00033035505 -0.00014540476 -0.00012490197 -0.0003489189 0.00026062405 0.00029462902
0.00017137208 0.00027976552 -0.0002866315 6.98246e-05 -7.50525e-05 0.0005132543 -0.00013355092 -3.4665332e-05
-5.2870084e-05 0.0006656131 -8.435265e-05 0.00014161554 0.0033746352 0.0036787395 0.0043119937 0.002856023
0.0032634502 0.0033794614 0.003434551 0.0029316435 0.0030985847 0.00059757393 0.00032179922 8.605737e-05
0.0005286978 0.0004955689 0.00042266262 0.0005880945 -9.554043e-05 -0.00014029609 0.001007355 0.0019634268
0.002347786 0.0013765842 0.0015107763 0.0026307737 0.0013752197 0.0016811844 0.0021951853 0.00081376167
0.001082543 0.0011958306 0.0012441638 0.0006633622 0.0009597624 0.0009386271 0.0005476076 0.0016559105
0.0008293049 -4.4352862e-05 -0.00029285395 -6.7454996e-05 0.00028581757 -4.0750358e-05 -1.8319479e-06 -8.106882e-05
-0.0001978976 0.000752567 -0.000103260216 -0.0001566271 0.0008400141 -7.466835e-05 -0.00038992695 0.0003867299
0.0011360459 0.00049571926 -0.0007841527 -0.00056509045 -0.0012246544 -0.0006289636 -0.0006604004 -0.0002748387
-0.0009685621 -0.0011345241 -0.0003243736 -9.9125915e-05 0.00020464165 0.00033431535 0.000253149 -5.4143136e-05
0.00026896523 -0.00026756176 -0.00026362453 -0.00016723966 0.00031832623 0.00034991224 0.0012818282 3.2156153e-05

momentum_buffer f4 [64]
00000000: dcb2 2a3b 1077 a8bb 1fff 24bc bdd1 aebc
00000010: 6205 f4b9 33bd 413b f8f4 4d3b 6b1c 73bb
00000020: 5074 56ba 1434 853a 3534 203a 390a 6f3b
00000030: 8707 fbba 12cd fe39 8370 8e3b cbb2 18b8
00000040: 8bc3 2b3b 5e25 29bb 1cda 8fba 6ae0 013b
00000050: fa18 0cbb 1bb4 cfbb f1c8 c53b b293 7cbb
00000060: f77e c039 69b1 3e3b 8dbd 0cbb b4ad 77bb
00000070: ec39 f7ba bed0 7139 0355 93ba 5ed8 6bbc
00000080: b5ad 1d3b b323 abbb b70e 9abb 0c00 36bb
00000090: c0f0 0fbb d835 4a39 af4e 9cbb 462c 03bb
000000a0: 3e16 c7bb 6aa5 ccbb 8910 16bb 48c3 063b
000000b0: 9e1b 7a39 58cc 473a 0f2f 013b 5779 04bc
000000c0: de91 823a 2b96 dbbc 5b85 9bb9 4316 62bc
000000d0: fdcd 21ba c3c3 32ba 7774 02bb f7c4 553c
000000e0: 5262 c13a 0017 b4b6 6a8e c1bb 1fe3 c639
000000f0: 98e4 843b 950a 6fbc b4f9 a03a c0c5 e1ba
0.002604655 -0.0051411465 -0.010070591 -0.021340245 -0.00046543317 0.0029562234 0.003142653 -0.0037095796
-0.0008180784 0.0010162615 0.0006111295 0.00364746 -0.0019152024 0.00048599445 0.0043469085 -3.6406138e-05
0.0026209082 -0.0025809626 -0.0010975036 0.00198176 -0.0021377192 -0.006338609 0.006035917 -0.0038540182
0.0003671569 0.0029097444 -0.0021475286 -0.0037792744 -0.0018861867 0.00023061314 -0.0011240545 -0.014394848
0.0024059836 -0.0052227615 -0.004701461 -0.0027771024 -0.0021963567 0.0001928428 -0.004770122 -0.0020015403
-0.0060756495 -0.006245305 -0.002289804 0.0020563174 0.00023852146 0.0007621697 0.0019711887 -0.00808557
0.0009961685 -0.026805004 -0.0002966326 -0.013799253 -0.0006172357 -0.0006819332 -0.0019905844 0.013047448
0.0014754033 -5.3670956e-06 -0.0059068697 0.0003793472 0.004055571 -0.014589925 0.0012281449 -0.0017225072

momentum_buffer f4 [64, 64, 3, 3]
00000000: 73ad f8b9 5587 38ba c049 7fb6 5ae9 33ba
00000010: 9902 24b9 10e4 d4b6 4a36 88ba 2c01 cab9
00000020: 8c68 8ab9 629d 2d3b 6a24 353b 4254 163b
00000030: a5b0 453b ceff 333b 36c1 4d3b 95ea 5b3b
00000040: 621f 763b a503 773b 7ace 10bb a9e2 3fbb
00000050: 319e 26bb 6e36 0ebb 3a7d 21bb 1dac 2dbb
00000060: b5bb 80ba 643b c6ba a134 beba 88b3 94bb
00000070: 5195 82bb 8d96 87bb e987 8abb fea1 8dbb
00000080: 3605 59bb 9c94 8fbb a8c3 8abb bc98 83bb
00000090: 26c1 c0b8 e755 20b9 aa65 01b9 3ff5 20b8
000000a0: 2d32 89b9 17ac c2b9 244c 91b6 d4e7 83b9
000000b0: 906d f4b8 a09a 66ba fb29 0fba 9dcf a3b9
000000c0: 6306 16ba b04b bbba a07f 83ba bbd1 82ba
000000d0: 4576 93ba 9023 87ba ef52 063b c73b 063b
000000e0: daba 2f3b b733 113b 7706 c83a c55b 233b
000000f0: d914 1b3b b630 223b 5b24 2f3b d388 46ba
00000100: cb20 a4ba 45bd 9bba 84d7 5dba 1e8f d5ba
00000110: f8a0 91ba a89b 54ba 883d 04ba 8bc5 84ba
00000120: e008 44b7 3dbc 5bba c653 35ba 28f6 7d38
00000130: c580 c0b9 4ab1 a6b9 bf1c a239 4020 a4b9
00000140: a081 14ba 59b9 bfba 7b19 0eba b62a 7aba
00000150: 2e1c 97ba c262 c5ba 5df9 e7ba cf54 bbba
00000160: bc7d 96ba dc29 c4ba f5d8 0a3a d637 933a
00000170: a419 973a a937 9d3a b0fa 913a e987 a53a
00000180: 6de8 8e3a 13c4 803a 5a58 c33a 008b 41b8
00000190: f85d 31ba c326 a6ba 60ee 25ba fe40 a2ba
000001a0: e438 15ba c03f ce37 ee1f 4fba 0aef 4aba
000001b0: 36c9 61ba ee73 89ba 802a 3bba e8a8 bfb9
000001c0: dc8a aaba 2624 7cba 9aa2 1bba da16 7bba
000001d0: 4ee6 5aba 6ac7 9eba d062 92ba f201 82ba
000001e0: 48fb 8eba 2255 a3ba 4a96 44ba eb24 27ba
000001f0: e89b 37ba f538 52ba c1c0 073a 23cf 4a3a
00000200: 7868 423a 70f5 f339 4606 183a 4484 5f39
00000210: b54f f039 984e 9fb8 e0f4 a739 5a58 b6b8
00000220: 6779 09b8 7294 58b8 a240 fdb9 7eab 9c39
00000230: dc43 3538 fe7d e6b8 b192 7f39 b995 183a
00000240: ce6a 223b 7b63 303b ef37 303b e22a 003b
00000250: c56a 0c3b 406f 313b 8b57 3e3b 5322 1b3b
00000260: 338b 423b 9bc6 edba 5619 d8ba 2704 8dba
00000270: 6e45 84ba 6002 96ba 64fd d8ba ca2c e1ba
00000280: b08e eeba 820b 89ba 06b9 243a f930 723a
00000290: 82c1 3a3a 64a0 4539 2890 8439 9485 073a
000002a0: 3d90 1d3a a87f 163a ee10 883a 5eba 133b
000002b0: b5d3 2b3b 7045 393b e3f6 203b 6ecf 2a3b
000002c0: e722 2b3b 38e6 343b 0579 493b 1ba6 523b
000002d0: da72 1eba 71dc c9b9 e249 0aba 7013 51ba
000002e0: e817 42ba 0666 9bb9 b216 45ba cc97 b2b9
000002f0: cbf9 74b9 eab9 3e3b 6f52 0a3b 5ef2 2d3b
00000300: 34ab 033b f49c 123b d7a8 063b a08f 0d3b
00000310: da82 213b 22f1 183b f0a1 893a 9e5c 3d3a
00000320: 5e5e d53a 2829 7039 fe5f 0d3a c1b7 de3a
00000330: 6cea 9e3a b5ed 473a d86f cb3a 63a3 c03a
00000340: 28a5 a43a ccde f83a d042 f23a 088a af3a
00000350: 17f6 b53a 0235 f43a 48ee de3a 78e2 0b3b
00000360: f070 92b9 1a11 1bba 4ac6 e1b9 e874 22ba
00000370: 8622 f338 fe29 a0b9 08ba 80ba ef96 1bba
00000380: a8e4 02ba 2a17 9fba ada2 afba f0b5 c7ba
00000390: b35d d2ba 0ebe aaba 5b2a ecba d536 c3ba
000003a0: 8baf f7ba 6978 b3ba 126a ed39 85f6 743a
000003b0: 52cb cc39 fa71 e438 c769 413a ea67 cd39
000003c0: 659b 2d39 018e 313a 7f5d 3f3a d268 6dba
000003d0: 02c9 a9ba ac72 aaba b1fb bdba a4cf 03bb
000003e0: 1e45 d8ba 904e a1ba 5985 f6ba 68f3 7bba
000003f0: 5262 0aba b47f abb8 92dd 10ba a074 31b7
-0.00047431476 -0.0007039209 -3.804089e-06 -0.000686308 -0.00015641226 -6.3446423e-06 -0.0010392156 -0.00038529315
-0.00026399305 0.0026491513 0.0027640113 0.0022938405 0.0030165103 0.0027465704 0.003139568 0.003355657
0.0037555327 0.0037691381 -0.0022095726 -0.0029279387 -0.002542388 -0.0021699923 -0.0024641291 -0.0026500293
-0.0009821566 -0.0015123901 -0.0014511534 -0.0045380034 -0.003985085 -0.00413782 -0.0042276275 -0.0043222895
-0.0033114678 -0.0043817293 -0.00423475 -0.00401601 -9.19125e-05 -0.0001529079 -0.00012340271 -3.8375376e-05
-0.0002616806 -0.0003713078 -4.3302007e-06 -0.00025158993 -0.00011655234 -0.00087968446 -0.00054612727 -0.00031244467
-0.00057229976 -0.0014289524 -0.0010032542 -0.0009980717 -0.0011250457 -0.0010310281 0.002049621 0.0020482407
0.0026814253 0.0022156069 0.0015260716 0.0024926525 0.002366355 0.0024748272 0.002672455 -0.0007573489
-0.001252198 -0.0011881968 -0.0008462595 -0.0016293263 -0.0011110594 -0.0008110353 -0.0005044569 -0.0010129673
-1.1684577e-05 -0.00083822367 -0.0006917085 6.054915e-05 -0.00036717035 -0.00031794078 0.00030920465 -0.00031304546
-0.00056650676 -0.0014627381 -0.0005420667 -0.00095431076 -0.0011528784 -0.0015059339 -0.0017698217 -0.0014292243
-0.0011481564 -0.0014966088 0.00052966113 0.001123185 0.0011528027 0.0011994737 0.0011137333 0.0012629005
0.0010903009 0.000982406 0.001490365 -4.614424e-05 -0.00067660166 -0.0012676347 -0.0006329771 -0.0012378988
-0.0005692376 2.45868e-05 -0.0007901181 -0.0007741308 -0.00086130516 -0.001048682 -0.0007139817 -0.00036556204
-0.0013011354 -0.00096184236 -0.000593701 -0.0009578295 -0.0008350358 -0.0012113873 -0.0011168364 -0.0009918793
-0.0010908628 -0.0012461285 -0.00074992015 -0.00063760456 -0.0007004128 -0.00080193515 0.0005178564 0.0007736554
0.000741608 0.00046531437 0.00057992747 0.0002131621 0.00045835754 -7.59635e-05 0.00032035168 -8.694893e-05
-3.277641e-05 -5.1636664e-05 -0.00048304076 0.0002988241 4.321696e-05 -0.000109907225 0.00024373342 0.000582065
0.0024782899 0.0026914764 0.0026888808 0.001955681 0.0021425944 0.0027074367 0.002904388 0.0023671582
0.002968502 -0.0018140854 -0.0016487043 -0.0010758684 -0.0010091492 -0.00114448 -0.0016555008 -0.0017179486
-0.0018200483 -0.00104557 0.0006283674 0.0009238865 0.0007124172 0.00018847134 0.00025284407 0.0005169746
0.0006010568 0.0005741068 0.0010381022 0.0022541503 0.0026218717 0.0028270148 0.0024561218 0.002606358
0.0026113333 0.0027603041 0.00307423 0.0032142464 -0.0006044336 -0.0003850195 -0.00052752916 -0.00079756137
-0.0007404075 -0.00029639917 -0.00075183355 -0.00034063903 -0.00023362708 0.0029102513 0.0021106263 0.0026542167
0.0020091059 0.0022371383 0.0020547414 0.00216005 0.0024644644 0.0023337086 0.0010500532 0.0007223579
0.0016278734 0.00022903515 0.0005393027 0.0016992019 0.0012124307 0.00076266687 0.0015521003 0.001469713
0.0012561427 0.0018987297 0.0018483046 0.0013392577 0.0013882545 0.001863152 0.0017008269 0.0021344703
-0.00027931435 -0.0005915329 -0.0004306308 -0.000619723 0.000115935734 -0.00030548865 -0.0009821067 -0.00059352716
-0.0004993179 -0.0012137641 -0.0013399922 -0.0015236717 -0.0016049653 -0.0013026611 -0.0018017994 -0.001489366
-0.001889692 -0.0013692501 0.0004528319 0.00093445956 0.00039061398 0.00010893117 0.0007378128 0.0003917807
0.00016556455 0.00067731744 0.0007300004 -0.0009056452 -0.0012953582 -0.0013004146 -0.0014494566 -0.0020112777
-0.0016500091 -0.0012306739 -0.0018808051 -0.00096111605 -0.0005278933 -8.177702e-05 -0.00055261806 -1.0577176e-05

momentum_buffer f4 [64]
00000000: 0274 9dba c054 26ba 700f 89ba adc0 2fbb
00000010: 7db9 94bb 54f5 31ba d806 a0b8 adee 47b7
00000020: b6e4 d9b9 d8fa d5b8 dc6c 5839 d238 f9ba
00000030: 48ad 78ba 7d2b d8b8 fe0c d9ba 1c69 26ba
00000040: 19cb 1dbb b8df c6b8 567d f9b9 80b1 67bb
00000050: c823 0638 9a6c 1436 2e3d 8fba 8ce0 8bb9
00000060: 699f 55ba 03ad 2f39 d3e1 0d38 337a d5ba
00000070: 2034 0fba ff6b 85bb 43a9 05ba 1107 09ba
00000080: 3da9 8fba d89b 9bb8 d85e 9fb7 555a 9dbb
00000090: e445 183a a5c6 11b9 9046 52b9 94e0 b5ba
000000a0: 76cd 1db9 39b6 c0bb 88f3 3139 aca7 2ab9
000000b0: 0554 3bb9 0c77 4a3a 3085 85b7 4dcd 05b9
000000c0: d938 14bc c126 37ba f392 e239 3bbb 0339
000000d0: 7d84 063a f5d2 13ba eb01 9c37 50ef f9b9
000000e0: 494f a7bb 206c 1137 4ddb 5e38 809e b237
000000f0: c8af 4936 4360 65b8 3884 83ba 374a 51bb
-0.0012012722 -0.0006345026 -0.0010456871 -0.0026817725 -0.0045387135 -0.0006788571 -7.630669e-05 -1.1916895e-05
-0.00041559868 -0.00010203355 0.00020639919 -0.0019014126 -0.000948627 -0.00010307783 -0.0016559658 -0.000634806
-0.0024077354 -9.4830466e-05 -0.00047586364 -0.00353536 3.1981413e-05 2.2116933e-06 -0.0010928267 -0.00026679446
-0.0008149059 0.00016753752 3.3827335e-05 -0.0016287029 -0.00054627843 -0.004071712 -0.00050987693 -0.0005227188
-0.0010960471 -7.420004e-05 -1.8998442e-05 -0.004802028 0.00058087544 -0.00013902278 -0.00020053447 -0.0013876134
-0.00015049227 -0.0058810976 0.00016970758 -0.00016274926 -0.0001786501 0.0007723428 -1.5916856e-05 -0.00012760349
-0.009046757 -0.0006986671 0.00043215565 0.00012562882 0.00051314366 -0.000563904 1.8597542e-05 -0.00047671283
-0.005105887 8.667848e-06 5.3133164e-05 2.129306e-05 3.0053652e-06 -5.4687505e-05 -0.0010033911 -0.0031935105

momentum_buffer f4 [1, 64]
00000000: 2f1b 7fbd 02cb 0d3d 2aba 3e3b 9f92 27bd
00000010: 320c babd 4fd2 1e3c 97d7 ab3c cb3d 7f3a
00000020: 8668 183c 001f b03c 2acf d6bb d703 62bc
00000030: b8fa 8b3d a820 d7ba 4cf7 b0bc 4420 8dbc
00000040: a8d0 b6bc 5a82 24ba faa8 633c 2c60 e3bc
00000050: fcf7 69ba a11d 293a caf0 e9bb 1401 983c
00000060: 224e 17ba 4727 30bb df90 4439 434c 7a3d
00000070: 6376 053d 11ce 3bbd 3a96 b53c 4f5e 2abc
00000080: bf28 cabc 93fa ea3c 3f29 b6bb 7219 98bd
00000090: af76 06bb 50bc 6c37 a6c3 0c3d 276e 6f3d
000000a0: 7e51 6739 9104 93bd 64ae 6b38 2aeb a03c
000000b0: 34f4 28ba 8b95 4aba f05e 7c3c 0c7a 6a3c
000000c0: eba6 81bd 6a4a 343d 82ef 03bb 12f1 b538
000000d0: 56f0 04ba bc93 923b f034 eaba b621 3bbb
000000e0: bfd0 60bd 961d 15bb a734 1bba 5691 c03b
000000f0: 509a 0cba 80a3 b838 f478 6e3d 1ff3 1ebd
-0.062281784 0.03461743 0.0029102662 -0.040911313 -0.09084357 0.009693696 0.020976825 0.0009736686
0.009302264 0.021499157 -0.0065554576 -0.013794861 0.0683493 -0.001641293 -0.021602295 -0.0172273
-0.022316292 -0.00062755274 0.013895268 -0.02775582 -0.0008925197 0.00064512534 -0.0071393 0.018555202
-0.00057718356 -0.002687888 0.00018745985 0.061107885 0.032583605 -0.045850817 0.02216636 -0.0103984615
-0.024677632 0.028683936 -0.005559116 -0.07426728 -0.0020517518 1.4110541e-05 0.034366272 0.05845466
0.00022060235 -0.07178605 5.619078e-05 0.019643385 -0.00064450805 -0.0007727972 0.015403494 0.014311325
-0.06330665 0.04401628 -0.0020131771 8.6756554e-05 -0.0005071213 0.0044731777 -0.001786856 -0.0028554029
-0.054886576 -0.002275323 -0.00059206266 0.0058767004 -0.00053635705 8.804258e-05 0.05822082 -0.038806077

bn0.weight f4 [3]
00000000: f2ad a73f be93 9a3f b533 903f
1.3099959 1.2076337 1.126578

bn0.bias f4 [3]
00000000: d65f c7bc 2c60 4ebe cd0c 613d
-0.02433769 -0.20153874 0.05494385

bn0.running_mean f4 [3]
00000000: 7d0f fa3e 62d5 e53e 48c9 d03e
0.48839942 0.4488936 0.40778565

bn0.running_var f4 [3]
00000000: 1fbd 813d ed9e 713d d54f 753d
0.063349 0.058989454 0.059890587

conv1.weight f4 [32, 3, 5, 5]
00000000: bb91 793c b353 893b cc61 44bd 816f b33b
00000010: 855c a9bc be28 483c f3d4 1d3d e907 853d
00000020: 93ff f33c 0e10 c43b f05a 5e3d 9bca 3d3d
00000030: 0bad 6bbc 9925 de3c dd47 ec3d e2f1 c43d
00000040: 41c8 593c 3acc d0bd 3bcf 023c ccba 8bbd
00000050: c8d9 0c3c b171 723c 3df4 66bc 9e4b 86bc
00000060: f56b a53b 8090 cc3c 45b4 8fbc 6b85 ebbb
00000070: e036 183d 0ef2 a23b 3e55 92bb d377 b0bd
00000080: 5fec 8fbc e1e0 d1bd 7b8b 2abd f0f6 e1bc
00000090: 66c5 a2bc c23e 0ebd e840 f2bc 20b9 cc3d
000000a0: 4dd3 75bd 8cda 51bc db86 c43d c678 083e
000000b0: 53f4 763c 673d 013e 6be1 db3c e70b 823c
000000c0: edfd e63b 1c2b 113d e238 49bd 8859 cebb
000000d0: bda7 1cbd ceb8 cebd 40c6 d4bd 08c5 0cbd
000000e0: 98a8 8abd a7d7 843c c121 6bbd 9c56 45bc
000000f0: 2ac3 763d 6a16 8bbd db1d f3bc f8fe 853a
00000100: 3a29 29bd ae22 15bd ccf6 093c db29 25bd
00000110: 7475 953c e4c6 4d3d 24e8 6dbd 746e 81bc
00000120: 4201 5d3d 970a 8dbd be2c e1bb e6cf 85bd
00000130: 90ce e9bd 196e 40be 587f 9bbd 6220 50bd
00000140: 5289 d5bd 365e debd 54ce e7bd 0f39 25be
00000150: 5ffd 603c 7c8c da3d 811f 13bd 42c8 02be
00000160: 7fb5 26bd 44e4 95bd 2725 053d d82d 0ebc
00000170: 1e2c 89bd 25b8 64bc 76a6 bc3d 8344 413d
00000180: 9c4a 083d b6b4 793b 9d7d edbd 4bf6 fc3b
00000190: cdf4 fbbc 01b2 4a3d b7b1 5b3d 77e0 5cbd
000001a0: f974 0ebd b5d4 c3bd 907f 10bd 71c8 dfbc
000001b0: 76a4 393d 6a87 ee3d e733 f83c 653a 863d
000001c0: 1505 26bd 79cc a13b 1fbd b13d a587 7c3c
000001d0: b9e2 a73c 1a40 873c f72b e93b d5cf 85bc
000001e0: 7c47 fabc e755 f4bc c334 b43c 35ab ab3d
000001f0: 435b abbb a90f 9a3c ff20 513d ea5c b2bb
00000200: 3f75 2f3e a3e2 29bd 2e81 e43d 8cf4 7c3c
00000210: 5e8e 133d d129 ae3d 577a a33c ebb6 e53d
00000220: 29f0 953c 3369 893c 3d60 0c3d 33fc 4a3d
00000230: 204e ea3c 1260 ceba 3fb2 413c d3a1 993d
00000240: 40e1 7e3d 3d21 f43c 8c5e e43c 1321 8c3d
00000250: 40e7 c03d a963 5f3d e4d5 163d c181 69bd
00000260: 99ad 9d3c 4fa7 80bb 4465 a1bb 3eff 3a3d
00000270: 34ff d8bc 63ee cfbc 962e a7bd add0 f1bb
00000280: b3ab 823d e7ec 79bc 35c8 5a3c 9335 60bc
00000290: 604d 06bc 228b 88bc e3a1 203d 2acd 813b
000002a0: f361 ea3d d8df e53a 0a7d 923d 16c7 e83a
000002b0: a8e8 803d fb9a d93b a29c d5bc fbb2 54bc
000002c0: 79f6 edbd bd0f ecbc 4c34 69bd f8b3 a0bd
000002d0: edf1 8d3c 6983 d7bc c76a ccbd 87d7 b43c
000002e0: 2c5c 6b3c 115e a43c 71ec 693b 7885 c4bd
000002f0: 725d e6bc 2b1c 84bc 4748 193c 58e8 263d
00000300: fda6 8d3b cab0 b7bd 7fc7 91bc 4f7e e6bb
00000310: 4baf 18bc d29a 01bd 41f9 cf3d 6e59 43bd
00000320: 73ba 303c 4d90 f1bc 52a1 cd3c 6fc2 763d
00000330: 7e41 acbc 4670 83bc d42e 5bbd cfa3 a73c
00000340: 327c 91b9 743e a2bd cdbe b8bc 75de 323d
00000350: 0186 f53c fe8e 53bc 446f 15bd 12d0 e13c
00000360: 722a d63d aa79 cfbc 388c 263c 6c45 403d
00000370: 8047 6cbd afa3 e43d 7bb9 8e3c 865a fe3c
00000380: 7558 81bd 99a7 22bd a445 0d3d 1262 efbd
00000390: bc2e 17bd 84f6 24bc aa65 533d b0c0 343c
000003a0: 2906 fb3c 954d 6ebd 9692 f0bb cf61 81bd
000003b0: 15ab 693d e32c 8c3d e4b9 563c fbbe a23b
000003c0: bcc1 f43c b6f9 2e3d 42ee a2bc 232e 263d
000003d0: 141e c03c 1830 4abd 1605 6abc 3d64 253e
000003e0: 8f8f 8ebc 52f5 b73c a5aa b6bc 39b9 7ebc
000003f0: 4d56 433d 7410 0b3c f1b8 e4bc 0ae4 ebbb
0.015232499 0.004190886 -0.04794483 0.005475939 -0.020674 0.012216745 0.038533162 0.06495649
0.029784953 0.005983359 0.054285944 0.046335798 -0.014384518 0.027117537 0.11537144 0.09616448
0.013292373 -0.10195203 0.007983978 -0.06822738 0.008596845 0.014797614 -0.014096317 -0.016393479
0.00504827 0.024971247 -0.017542014 -0.0071875355 0.037161708 0.004972703 -0.004465728 -0.08616605
-0.017568765 -0.1024797 -0.041636925 -0.02758357 -0.019869518 -0.03472782 -0.029571965 0.09996247
-0.060015965 -0.012808453 0.09596034 0.13327321 0.0150729 0.1262108 0.026840886 0.015874816
0.0070493133 0.035441503 -0.049126513 -0.006297294 -0.038245905 -0.100938424 -0.10389376 -0.03436759
-0.06770438 0.016216112 -0.057405237 -0.012044575 0.060244717 -0.067913845 -0.029677322 0.0010223081
-0.041299082 -0.036410026 0.008420657 -0.04032312 0.018244483 0.050238505 -0.058082715 -0.015799738
0.053956278 -0.068867855 -0.0068717888 -0.06533794 -0.11416352 -0.18791999 -0.07592648 -0.050812133
-0.104265824 -0.10857813 -0.11318651 -0.16135047 0.013732283 0.106713265 -0.035918716 -0.12771705
-0.040700432 -0.07318929 0.032506134 -0.008677922 -0.06697868 -0.013959919 0.092114374 0.04718448
0.033274278 0.0038102097 -0.115962245 0.00771979 -0.030756379 0.049486164 0.05363628 -0.053925004
-0.034779523 -0.09562055 -0.035277903 -0.027317258 0.045322858 0.11646922 0.030298186 0.065541066
-0.04053219 0.004937705 0.0867865 0.0154132 0.020493852 0.016510058 0.0071158367 -0.016334454
-0.030551665 -0.029826118 0.021997815 0.083822645 -0.005229385 0.018806295 0.05105686 -0.005443205
0.1713457 -0.041475903 0.111574516 0.015439164 0.036024444 0.085040696 0.019955797 0.112165295
0.018302994 0.016773796 0.034271467 0.049556922 0.028601706 -0.0015745184 0.011822282 0.07501569
0.062226534 0.029801005 0.027877115 0.06842246 0.094191074 0.054538403 0.036825076 -0.05700851
0.019247817 -0.0039261947 -0.004925402 0.045653574 -0.026488878 -0.025382226 -0.081631824 -0.0073796124
0.06380405 -0.015254236 0.013353397 -0.013684648 -0.008197159 -0.016667906 0.039216887 0.003961225
0.114444636 0.0017538024 0.071527556 0.0017759528 0.06294376 0.0066407896 -0.026075665 -0.012982125
-0.116192766 -0.028816098 -0.05693464 -0.07846826 0.017327273 -0.026307778 -0.09981304 0.022075428
0.014365237 0.020064386 0.0035693909 -0.0959577 -0.02812073 -0.016126713 0.009355611 0.040748924
0.004322885 -0.08969267 -0.017795322 -0.0070341 -0.009319137 -0.03164179 0.10154963 -0.04769271
0.01078664 -0.029487753 0.025101338 0.06024402 -0.021027323 -0.016044747 -0.053511456 0.020463852
-0.00027749088 -0.07922068 -0.022551918 0.043669183 0.029971125 -0.01291251 -0.036483064 0.027565036
0.104573146 -0.025326569 0.010165267 0.046941206 -0.057685375 0.11164033 0.017422428 0.031049024
-0.063157 -0.039710615 0.034490243 -0.11688627 -0.036909804 -0.0100685395 0.051610626 0.011032268
0.030642586 -0.058179457 -0.007341693 -0.06317484 0.057047922 0.06844499 0.013105843 0.0049666143
0.029877536 0.04271861 -0.019889 0.040571343 0.023451842 -0.049362272 -0.014283439 0.16151519
-0.017402438 0.022455845 -0.022298167 -0.01554709 0.047689725 0.008487809 -0.027920218 -0.0071988152

conv1.bias f4 [32]
00000000: 286a c4bd e3aa 63be 2e21 e13d f0de 15be
00000010: 1699 e1bd a054 5b3d b1a1 6ebe 6eda 10be
00000020: 1160 4dbd da56 de3d ea97 a2bc 0249 a83d
00000030: fad0 f6bd 0c50 aabd 7d42 b7bc 84c1 9e3d
00000040: 7e87 9ebd fd6f 613d 547b cabc 6b2a 40bc
00000050: 9834 153e 877f ebbd 1825 a1bd 1164 453c
00000060: 5315 143e 35aa 4ebe a0f4 afbc eab6 0a3e
00000070: c3c5 083d 1190 dbbd fc03 013e 2899 cdbc
-0.0959056 -0.22233157 0.10992657 -0.14635825 -0.11015527 0.0535475 -0.23303868 -0.14145824
-0.050140444 0.10856409 -0.019847829 0.0821705 -0.12051578 -0.08316049 -0.022370571 0.07751754
-0.07740687 0.05503844 -0.02471701 -0.011728863 0.14570844 -0.11498933 -0.07868403 0.0120477835
0.1446126 -0.20182116 -0.021478951 0.13546339 0.033391725 -0.10720838 0.12599176 -0.025097445

conv2.weight f4 [32, 32, 3, 3]
00000000: 1292 433d 3d13 d8bd 89e7 b63c e343 dbbc
00000010: 969e 3fbd ea94 4fbd aa6f 9abd ea64 693d
00000020: 6af3 f5bb dd94 4cbe 83f6 7ebe 06b7 85bd
00000030: 945a 2dbd 8427 05bc 5265 bfbd 6df1 813c
00000040: 0312 31be ab6c 09be d12d 803c 02f4 3dbb
00000050: 6d38 563e ea93 de3c 985f 373c f24a 803d
00000060: 2308 813c 3cb7 babd dfa2 82bd 7ead 94bd
00000070: 169d 96bc 15ae d9bd 1790 3fbc 3634 a8bd
00000080: 46b1 41bb db18 96bd 1b99 de3d a375 213d
00000090: 2590 a83d 2e20 203c 0284 8dbd df96 4b3d
000000a0: d817 743d bf03 f0bb a95a 673e f9d4 5b3d
000000b0: fb4c 813d 3f2a 283b aae1 9d3d bde8 81bd
000000c0: ecf5 8abd c9bc 723c b061 0b3d 981a a93d
000000d0: b1e4 283e 174b 053e 6f8d e4bd 5536 a1bd
000000e0: 8672 c7bc 0abe bc3d 14b8 98bd 2769 91bd
000000f0: 3ae8 943c 92e6 8abd 63c7 a73d bcde 843c
00000100: 55be cebd 3818 b53d 3f73 743d a191 e13d
00000110: 8f0f afbd 74a5 81bd 4714 ebbd fe54 0d3c
00000120: 713d 6b3d 24fc a4bd 5b61 263d af92 963d
00000130: 34de 91bd 7346 cbbc 4d85 2d3d 38f8 813d
00000140: 6b85 8f3d 5da8 613d 47d4 473d 0705 cdbc
00000150: 440c b93c 3446 133d 9874 e0bb 6c28 743d
00000160: 950b 4fbd c189 2e3b bc20 7a3b 7c24 0f3d
00000170: 6079 643d fdfc ff3c 8a2f 1c3d 1c4f 99bd
00000180: 9d48 1c3d db45 1bbe 6156 76bd be5e d83d
00000190: bd27 a9bd bf89 65bd 15ce 7dbd 9eb6 39bd
000001a0: 8072 93bd 0bf0 c33c de11 203d de8e 843c
000001b0: 08a7 cebc 7b22 0fbd ee94 123d f87b 6dbd
000001c0: 92df babc 6105 123d 4dbd b43d 47c8 013d
000001d0: 0fac 2fbe 394a 053d d490 e2bc 1e5f 0bbe
000001e0: 9b6b 8ebc 2223 043d e26b d33d a529 1fbd
000001f0: 0d4e c63d 8046 973d fe27 8a3d f7b6 1a3e
00000200: 0baa b43d afb2 833d 23e7 ccbb 1268 69bd
00000210: 87fc 26bd 720a 62bc 6b96 83bd 5308 f3bd
00000220: 71e0 fabd c82f 793d 3fac 893c e7c8 d53d
00000230: dc58 f53b e3ab e6bd e26e 31be 59d2 db3c
00000240: 1d39 123e a516 21be f7ce 153d 0335 b8bd
00000250: dc64 e8bd b7fe b53d 85df b1bd 73fe 56be
00000260: 0df1 a03c 1b03 6dbc 35d7 ac3d d41e 8e3c
00000270: 2ed2 57bc 0f23 d1ba 03e1 c6bd 875c 893d
00000280: 4530 043e 8edb 813d fc50 ee3c cf62 b03c
00000290: caac 23bd 467a aebd cb30 e8bd a72a b23d
000002a0: 779c 023c cfa2 d23d 10a5 1cbd 1b7f 0ebd
000002b0: 9d25 843d ecf7 823d 2418 0f3d 260a e93d
000002c0: f3d9 723b b50c 4ebd f336 2ebe 924f ef3d
000002d0: f405 bd3c 08f5 0c3d 5d28 2abe 9b1f 413d
000002e0: ba84 2dbc 5b9d 8bbd 01b2 86bd 929c 4d3c
000002f0: 4843 0ebd 2279 5cbb c6da b6bc bc5a 343c
00000300: 1be3 d6bd 8c55 183d d5ee 403d 6839 01bb
00000310: d071 503d f089 eb3c e534 52bb 8314 183d
00000320: 3d76 093e 3a1c b33b c00c 973d cd69 413d
00000330: 56fe a1bd aa32 733d 79b2 eb3c b07d 0cbe
00000340: 1391 fc3c 5606 06bc 59b6 5a3d 18dc cbbc
00000350: 3a14 6bbd 01df 00be b61a 283d 25ec b73d
00000360: 8cd5 ce3b 523c 43bc 52a7 a8bc 69f0 04be
00000370: ace7 f6bd 984b 81bd c636 2cbd 1d85 2fbe
00000380: 485f 72bd 8b3e 313d 785d 443d 9a09 5abd
00000390: 04fb d7bc 1c82 d8bd 1f1a a7bb aba0 983d
000003a0: d51e 243e dbf9 cb3d 2ae9 a1bd 4190 223e
000003b0: bd44 d6bd 4309 e3bc a28b 7dbd 9cab be3d
000003c0: 4bc4 373d 91e3 8fbd 0232 ccbd 5972 b93d
000003d0: 238c 0d3d 8aea d73d 2ea9 84bd d1b1 c63d
000003e0: 053b 2abd 974f 50bd 1ffa 2b3d d0e1 c5bc
000003f0: 103c 4a3d 5f18 9b3d c016 7d3d ebcd ddbd
0.047746725 -0.105505444 0.022327201 -0.02676577 -0.0467821 -0.050679125 -0.075408295 0.056981005
-0.007505824 -0.19978662 -0.24898724 -0.065290496 -0.04232271 -0.008127097 -0.09345497 0.015862191
-0.17292027 -0.1342036 0.015646847 -0.0028984551 0.20919962 0.02717014 0.011192225 0.06264295
0.01575095 -0.091169804 -0.063787214 -0.072596535 -0.018385451 -0.10628907 -0.011692069 -0.082130834
-0.0029555126 -0.073289596 0.10869046 0.039418828 0.082306184 0.009773297 -0.06909944 0.04970443
0.05959305 -0.0073246653 0.22593178 0.053669903 0.06313511 0.0025659946 0.07709058 -0.063432194
-0.06785187 0.014815518 0.03402871 0.082570255 0.16493489 0.13016926 -0.11159789 -0.07871691
-0.024346601 0.092159346 -0.07456985 -0.07100134 0.01817714 -0.06782259 0.08192327 0.01621949
-0.10094897 0.0884251 0.05968022 0.11014105 -0.085478894 -0.06330386 -0.11478477 0.008626221
0.057431642 -0.080559045 0.04062019 0.073521964 -0.0712246 -0.024813866 0.042363454 0.06346172
0.07007869 0.055092204 0.048786428 -0.025026811 0.022588857 0.035955623 -0.0068498366 0.05960886
-0.050548155 0.00266324 0.0038166484 0.034946904 0.055779815 0.031248564 0.038131274 -0.07485792
0.038155187 -0.15163366 -0.06014097 0.10564946 -0.082595326 -0.056039568 -0.061964113 -0.045340173
-0.071995735 0.023918172 0.03907954 0.016181406 -0.025226131 -0.034944993 0.03578656 -0.057979554
-0.022811685 0.03564966 0.08825169 0.03168514 -0.17155479 0.032541487 -0.02765695 -0.13610503
-0.017385295 0.032260068 0.103233114 -0.038858075 0.09682856 0.07386494 0.06745909 0.15108858
0.088214956 0.064305656 -0.0062531396 -0.056984015 -0.040768173 -0.013796436 -0.06425174 -0.11866822
-0.1224984 0.060836583 0.016805766 0.1043871 0.0074873995 -0.112632535 -0.17327455 0.0268337
0.142796 -0.15731294 0.03657433 -0.08994486 -0.113473624 0.088864736 -0.08685211 -0.20995502
0.019646192 -0.014466072 0.08439485 0.017348684 -0.013172669 -0.0015955883 -0.09710886 0.06707101
0.12909038 0.06340705 0.02909135 0.02153149 -0.039959706 -0.085194156 -0.113374315 0.086995415
0.007971874 0.102849595 -0.038243353 -0.034789186 0.06452487 0.063949436 0.03493513 0.11378889
0.0037056177 -0.050305087 -0.17013149 0.11685099 0.023074128 0.034413368 -0.1661696 0.047149282
-0.0105907265 -0.068171225 -0.0657692 0.012549536 -0.034732133 -0.0033641537 -0.022321116 0.011007961
-0.10492536 0.03719096 0.047102768 -0.0019718055 0.05088979 0.028752297 -0.0032074985 0.037128936
0.1342401 0.0054660114 0.07375479 0.04722004 -0.07909839 0.05937449 0.028771626 -0.13719821
0.030830896 -0.008180222 0.053396557 -0.024885222 -0.057392336 -0.12585069 0.0410411 0.08980588
0.006312078 -0.011916237 -0.020587597 -0.12982334 -0.12055907 -0.063132465 -0.042044424 -0.17140622
-0.0591729 0.043272536 0.0479407 -0.053231813 -0.02636481 -0.105716914 -0.0050995494 0.0745252
0.16027386 0.099597655 -0.07905801 0.15875341 -0.104623295 -0.027714377 -0.061900742 0.09310076
0.044864934 -0.07025827 -0.09970476 0.09055013 0.034557473 0.10542782 -0.06477581 0.097018845
-0.04156019 -0.050857153 0.04198658 -0.024155527 0.049373686 0.07573008 0.061789274 -0.10830291

conv2.bias f4 [32]
00000000: 6fb7 143d 5508 473d e860 35bd 6dba 3e3e
00000010: 1b16 d5bc e2d2 30bd 4502 453c 6e5f 053d
00000020: 4129 f43c 5b93 1cbc 9c9d 5cbc 8ae5 403d
00000030: a763 aa3c db07 ecbb a138 643d eeb4 373d
00000040: c4c6 a93d 7ae6 103d eac5 e3bc e859 4ebd
00000050: a154 55bc d0c7 77bc 71f3 5d3c 19c5 ab3c
00000060: 095e 0a3e 828c 5cbc 7ff5 4c3d e658 833d
00000070: 0553 39bc d608 743d 1582 1d3d 5f1e 9e3c
0.03630775 0.04859193 -0.04428187 0.18625803 -0.026011517 -0.043169864 0.012024467 0.032561712
0.029804828 -0.009556617 -0.013465311 0.047093906 0.020799471 -0.007203085 0.055718068 0.044850282
0.08289865 0.03537605 -0.027804334 -0.05037871 -0.013020665 -0.015123323 0.0135468105 0.020968007
0.13512434 -0.013461234 0.05003881 0.064134404 -0.011311297 0.05957874 0.038454134 0.019301591
