Ratio_Reverse/checkpoint_step_0025.pth (torch_old, 541551 bytes, 24 tensors)

momentum_buffer f4 [3]
00000000: ba14 62bd 114b 1e3c f3ac 6fbd
-0.055195548 0.009661452 -0.058514547

momentum_buffer f4 [3]
00000000: c831 8abd 448e df3c 71a4 ed3d
-0.06747776 0.027289517 0.1160363

momentum_buffer f4 [32, 3, 5, 5]
00000000: dce5 e3bb daf8 e0bb d69e cebb 9eaf debb
00000010: ceeb d1bb 038e c9bb f8b8 c8bb 354c c3bb
00000020: 94c0 bbbb 0dcc b5bb 373b a6bb f216 a8bb
00000030: 02d6 9ebb 0581 84bb e074 7ebb a092 a0bb
00000040: a16a acbb d03f 8cbb 6262 62bb 8864 65bb
00000050: 515b afbb a8c7 afbb c188 6ebb e45f 54bb
00000060: 8979 4ebb 9ce2 61ba bc5e 16ba 80db 08ba
00000070: e866 9db9 8812 c7b9 d095 ad39 b07d 0cba
00000080: 005b b7b7 60a4 efb8 40c4 e838 702d 2b3a
00000090: e0b3 603a 644b d93a 3872 c43a 10eb b83a
000000a0: 6897 1f3a 20fd b239 2420 0a3b a24c 2d3b
000000b0: 9a79 103b 781c 0d3a b027 133a b097 f73a
000000c0: 8c69 143b 3a6a 173b faf2 823b 972b 693b
000000d0: 4541 913b 6809 993b 64ad 923b 42e9 803b
000000e0: 48fa 873b b274 983b bfbf 9a3b 56df a13b
000000f0: b6a1 a23b 8a9b ab3b 3894 d23b 55cd d63b
00000100: e5e7 cc3b bc33 993b f97b bc3b 3f9e cc3b
00000110: 1674 f73b b587 e13b f8ad a53b 6061 b83b
00000120: 13ec d83b 388f f23b 40c3 f13b 0b67 37bb
00000130: 1418 02ba 328a c13a b42a 123b 66c3 673b
00000140: 1128 bfbb 7088 75bb 602e 76ba 94ea 563a
00000150: c0d7 373b de46 a5bb 6e9d 8dbb 00a9 f2ba
00000160: d8c1 c839 9559 193b 07e4 88bb b450 79bb
00000170: 90e9 3bbb e025 14ba fc0b 963a f4a7 94bb
00000180: 1189 97bb 393b 75bb e435 86ba 3864 5a3a
00000190: 48c2 9db9 d773 343b 7e7b 953b 9e7a ad3b
000001a0: 26d9 d63b c367 13bb b01b 1ab9 bcfd 183b
000001b0: ac7b 9d3b bd08 cf3b 4ea5 89ba 105c 9fb9
000001c0: 40d1 f23a eb7b 933b fa9f c53b 8005 6a38
000001d0: 00c7 5138 eeae 953a ab40 7e3b 926c a33b
000001e0: f076 40b9 5836 173a 2448 7b3a 3e65 7d3b
000001f0: cea8 b13b 801a d039 778f 373b 72ac ad3b
00000200: 3c5a cc3b a352 eb3b aee7 81ba 42d8 843a
00000210: ce28 533b b38f b73b 42e5 033c f09f 05b9
00000220: 2a25 593a f66f 383b c3c7 be3b 3a80 f43b
00000230: c77e 9e3a 1b65 b43a 3aae 243b bbd7 a13b
00000240: aa2f d03b 2cec de3a e3db ae3a 142d 0a3b
00000250: a8ca 953b 2ecd c73b cf6c ebbb 809d abbb
00000260: 50be 483a b308 813b dec3 9f3b 104b d3bb
00000270: 13c7 80bb 665b 583b 884c e23b f0e6 0d3c
00000280: f111 efbb 03ca 97bb 642f 713b 89a5 f23b
00000290: 08b7 1b3c 142f bcbb e2a4 81bb 8ea9 233b
000002a0: 6224 f43b 7bba 213c 1bc4 acbb 4078 92bb
000002b0: 00dd 83b9 c6e8 a23b fe41 073c 6c42 a53a
000002c0: 85e8 2b3b acae 183c e87e 483c 58a5 673c
000002d0: 6c5e b53a 5b94 873b 40af 493c 3c9d 833c
000002e0: 69dd 8e3c 3868 623a 1877 863b 37fa 493c
000002f0: 7248 863c 8caf 953c 10c9 093b 92f3 623b
00000300: aea9 2e3c 4df1 823c bf1d 9d3c fbf2 673b
00000310: d4b3 6b3b f8ea 0c3c d26a 5a3c 921d 893c
00000320: 68ae 313a fa04 533b 1b3f 243c 59a3 623c
00000330: d850 733c 2021 383a f947 7a3b fc14 593c
00000340: cf92 913c e8e6 993c 80d6 4e38 83c1 7a3b
00000350: 92a5 513c 1e02 933c e427 a43c 6823 923a
00000360: ede5 463b 53b4 2f3c d0cd 883c e89c a33c
00000370: 6d82 3b3b 343e 513b e3df 083c 36a5 653c
00000380: 1808 923c 3ca9 9fba f638 57ba 442c b7ba
00000390: 20bc e6b8 0052 d438 6e29 81ba 7ca1 99ba
000003a0: b001 72ba 40c5 62ba ac1d 62ba 54fb d0ba
000003b0: 78c7 12ba 64f8 7cba fdd4 9aba 65dc c8ba
000003c0: 4d24 f9ba 9a36 19ba 888e 7cba cade 7fba
000003d0: e448 f6ba 2a16 1fbb aa97 abba 7ea9 c3ba
000003e0: e21e aaba 59ff 9bba d66d 8dbb 46ff 80bb
000003f0: 4b78 83bb f886 53bb ac2a 26bb f61c 92bb
-0.0069548916 -0.006865603 -0.006305556 -0.0067958375 -0.006406284 -0.0061509623 -0.0061255656 -0.0059600123
-0.005729744 -0.0055480064 -0.005072977 -0.0051296884 -0.004847289 -0.0040437006 -0.0038826987 -0.0049002916
-0.0052617346 -0.004280068 -0.0034543504 -0.0035002548 -0.005351462 -0.005364377 -0.003639743 -0.0032405788
-0.0031505546 -0.0008616836 -0.00057361624 -0.00052206963 -0.00030022045 -0.00037970045 0.0003310875 -0.0005359305
-2.1857675e-05 -0.00011427025 0.000110991765 0.0006529903 0.00085717253 0.0016578254 0.0014987653 0.001410814
0.000608793 0.00034139398 0.0021076286 0.0026443382 0.0022045136 0.00053829653 0.0005613519 0.0018889811
0.0022645919 0.0023104087 0.00399625 0.003557896 0.0044328296 0.0046703108 0.004476236 0.0039340565
0.004149709 0.004652583 0.004722565 0.004939954 0.004963125 0.0052370476 0.0064263605 0.006555239
0.00625323 0.0046753567 0.0057520834 0.0062444503 0.0075516803 0.0068826326 0.005056139 0.0056268424
0.006619939 0.007402327 0.007378012 -0.0027985002 -0.00049626944 0.0014765917 0.0022303285 0.003536427
-0.0058336337 -0.0037465356 -0.00093910657 0.0008198407 0.002805218 -0.0050438484 -0.0043217456 -0.0018513501
0.00038291398 0.0023399342 -0.0041775736 -0.0038042488 -0.002867315 -0.0005651396 0.0011447663 -0.004536623
-0.004624494 -0.0037419333 -0.0010239449 0.0008330974 -0.00030090124 0.0027534866 0.0045618406 0.005294158
0.006556648 -0.0022492267 -0.00014696899 0.0023344597 0.0048060026 0.0063181804 -0.0010501535 -0.00030395435
0.0018525496 0.004500856 0.0060310336 5.579507e-05 5.0014816e-05 0.0011419931 0.003879587 0.004987308
-0.00018354855 0.0005768291 0.000958564 0.0038665081 0.0054217344 0.00039692596 0.0028009096 0.005300098
0.0062363427 0.007181482 -0.0009910965 0.0010135251 0.0032220366 0.005601847 0.008050265 -0.0001274345
0.0008283431 0.0028142906 0.0058221533 0.007461575 0.0012092226 0.0013763042 0.0025128261 0.004939047
0.0063533382 0.001700764 0.0013340678 0.0021083998 0.0045712776 0.0060974574 -0.007184602 -0.0052372813
0.00076577533 0.0039378046 0.004875644 -0.006448157 -0.0039299815 0.0033013462 0.006906096 0.008661017
-0.00729584 -0.004632236 0.0036801929 0.0074049872 0.009504087 -0.005742917 -0.003956423 0.0024972889
0.007450626 0.009871121 -0.005272401 -0.0044699013 -0.00025150925 0.0049715964 0.00825548 0.0012608296
0.0026231122 0.009318989 0.012237288 0.014138542 0.0013837344 0.0041375584 0.012309849 0.016066186
0.017439561 0.00086367456 0.0041035526 0.012327722 0.016391966 0.018272184 0.0021024384 0.0034630043
0.010660572 0.015984202 0.019179223 0.003539263 0.003596534 0.008600943 0.013331132 0.016737733
0.0006778003 0.0032199011 0.010024811 0.01383289 0.014850818 0.0007023979 0.0038189872 0.013249632
0.0177702 0.018786862 4.9313996e-05 0.0038262315 0.012795823 0.017945345 0.020038553 0.0011149468
0.0030349449 0.010724145 0.016699702 0.01997228 0.0028611675 0.0031927945 0.00835416 0.01401644
0.017826125 -0.0012181173 -0.0008210087 -0.0013974984 -0.00011002296 0.000101242214 -0.0009854266 -0.00117211
-0.0009231819 -0.00086506084 -0.0008625637 -0.0015944042 -0.0005599181 -0.000965005 -0.0011812743 -0.0015324472
-0.0019008011 -0.0005844623 -0.0009634276 -0.0009760676 -0.0018790034 -0.0024274685 -0.0013091464 -0.0014927832
-0.0012979174 -0.0011901661 -0.004316072 -0.003936681 -0.004012143 -0.0032276493 -0.0025355024 -0.004459019

momentum_buffer f4 [32]
00000000: 9073 3ebc ae47 a9bc ae5a 16bd d1d5 6e3c
00000010: 309e d5bc 3c1d 823c af83 4b3b aeae 9e3b
00000020: 5abc b7bb fc89 0fbc 06fd 5eba d7bc 893c
00000030: 1c36 a83b 34b6 02bc ace4 05bd c718 98bc
00000040: 3629 e6bb 376e f8bb 2062 b6bb 8261 cc3c
00000050: 1721 403c 7ced 55bc 7f0e c2bc bd30 25bc
00000060: 7584 2bbc a909 a03c 8e06 dbbc fdcb 8b3b
00000070: 2a53 24bc 62d0 8b3b 1e5b 6bbc 7e09 ceba
-0.011624232 -0.020664062 -0.036707573 0.014577345 -0.026076406 0.01588308 0.0031053831 0.004842601
-0.00560717 -0.008760925 -0.00085063314 0.016813679 0.0051334035 -0.007978011 -0.03268878 -0.018566502
-0.0070239557 -0.007581498 -0.0055658966 0.02494884 0.011726639 -0.013057109 -0.023688553 -0.010082421
-0.010468592 0.019535856 -0.026736524 0.0042662607 -0.0100295935 0.0042667845 -0.014364986 -0.0015719382

momentum_buffer f4 [32, 32, 3, 3]
00000000: dd99 0fba 020a c236 2e88 9bb9 bea3 34b9
00000010: 9e29 243a baae 72ba a33d 2c3a 63fc 7eb9
00000020: 0e0f 3f38 9964 01ba b335 0f39 692e 12b9
00000030: e512 4139 33c6 1c3a f48a 0f38 9c78 d239
00000040: 12f3 e638 31dd 043a d7ea 2639 316e 3939
00000050: 62f6 8a39 10f4 0f3a a656 e639 5152 2239
00000060: 2f5b 1439 3cff 8b39 08ad 2d39 8649 5538
00000070: 934f 03ba f845 173a 6801 f038 8e7c d539
00000080: e2f0 8fb9 649b 24ba ded7 b539 45d2 3b38
00000090: d30f 4939 7421 cdb6 7900 2c37 dfdb 97b9
000000a0: b1d4 66ba bd11 6b39 10ea 1eba 5aba b639
000000b0: 2025 4a3a 70a3 ed38 9d71 c439 bad1 54b9
000000c0: a9c9 14b9 f50f d5b9 97b2 0eba f515 0fba
000000d0: c6df 1938 810f feb9 efe8 2bb9 fe21 7bb9
000000e0: 00a5 5a37 8ed0 85b9 1d3e 8239 d611 df39
000000f0: d3fb 1b39 956c 9f38 437c d9b9 b126 a7b9
00000100: 9184 8938 07dc c439 5e90 9fb8 ee5f 16ba
00000110: cade dbb9 7494 3739 e149 b2b9 e05a 92b9
00000120: 8808 4139 03c4 42b9 d6b9 f439 e2d6 4cba
00000130: d7a7 18ba afb6 51b9 16a5 3ab9 08c6 e7b8
00000140: c70d 283a 3e2d 22b9 5c86 8339 76d4 1439
00000150: 9954 e8b9 709b 3036 1c76 e3b9 296d 2a39
00000160: dcc3 83b8 a02d cdb9 1018 2d39 2c5c c239
00000170: 8624 d239 c978 58ba 84bf dd39 21d0 a3b8
00000180: 78f7 03ba f455 0fba c52b 4339 67d6 6a38
00000190: fe44 bfb9 e655 1939 3bce 02ba 8d6b 0dba
000001a0: a82e 6239 01ae 68b9 b7e2 05b9 cb07 1aba
000001b0: e49e bcb8 af3b 63ba 44de 5738 a837 3f39
000001c0: 899a e1b7 4ff6 1dba 801f a6ba f19b c0b8
000001d0: f300 133a cd67 87ba aa27 1bba 5833 4739
000001e0: 9d55 eeb7 8fd5 0e3a 3857 1838 b8de 65b9
000001f0: 1809 6739 b7ce aa39 aeb9 d2b9 f0e7 d738
00000200: 1eda 5c38 33ba 47ba 0989 c9b9 2f4f c239
00000210: 57b9 34ba 6745 00b9 c64d a5b9 86cc 96b9
00000220: d437 d339 5b0a f737 c19a 3bb9 b6d0 143a
00000230: 4c64 20ba 9ee6 bfb8 20f1 3a39 0d18 29b7
00000240: d295 8038 f37e cd39 10a9 d439 518f 0eb9
00000250: 983f b739 eafb ae39 9ea0 8bba 3cf0 f4b9
00000260: 4a74 3cba 0145 0eb8 6a64 81b9 3675 2739
00000270: e4d1 c0b9 27a5 8a39 b5a0 dfb8 d04a 11ba
00000280: f44b e4b8 38c5 84b9 c0e2 2fb9 a309 29ba
00000290: 4631 b539 c5e6 d639 6ed5 8a39 86a6 c738
000002a0: 7f63 eab9 49cf 5839 52e8 48ba 7f09 2dba
000002b0: c4a6 5ab8 e30d f539 d081 3ab8 a697 ebb9
000002c0: 405d 03b9 d458 23ba f8a2 39b9 77b1 5439
000002d0: 3d12 9839 0e3e 1739 f290 cfb9 2b32 1eba
000002e0: 009d 9d37 6191 9938 08da 37b9 7e26 bab9
000002f0: 186e e936 4d98 98b9 7161 4c3a 86c0 05ba
00000300: 97bc 5639 28a3 bfb9 1361 0eba a76f 5239
00000310: bce4 e5b9 f482 c8b8 7cde edb8 2c13 fe38
00000320: b499 7439 9855 fe39 7ee6 e038 e745 4eba
00000330: ec26 e1b9 e248 d039 9075 7fb9 3e91 e838
00000340: eb27 ecb8 6cde 7c39 eff6 1bb9 e85f bdb8
00000350: 7f5c c137 65a5 a039 434a 9839 4e71 6b38
00000360: 9bb3 87b9 5dae fdb9 c856 3cb9 9194 ceb9
00000370: 51f7 dc39 71ef ba38 dda3 f3b9 41e4 f8b8
00000380: 8184 dfb9 d2b0 db38 c48c 54ba dc7f c1b8
00000390: 3e7c 1239 5e11 f8b8 575e f1b9 6880 2239
000003a0: 59cf 1239 4c34 5a39 4c86 45ba 51d8 9339
000003b0: 62e3 b8b9 5adb 10ba b88b c539 790f 013a
000003c0: dbdf 9039 8a3a 5b38 9292 82b8 1504 5aba
000003d0: 4358 3238 cdf1 fbb9 3b6c 0cba 6049 dcb9
000003e0: 9d5b 2038 c11e d839 daa2 273a 9c92 57ba
000003f0: 1c47 18ba 973c 08b9 8810 d0b5 29b2 383a
-0.00054779445 5.7828156e-06 -0.00029665366 -0.00017227136 0.0006262305 -0.00092576037 0.0006570464 -0.00024317349
4.555197e-05 -0.00049359497 0.00013657547 -0.00013940934 0.00018412953 0.0005980462 3.4223267e-05 0.00040144182
0.0001101253 0.00050683605 0.00015918478 0.00017684024 0.0002650498 0.0005491385 0.00043933577 0.00015480189
0.00014148348 0.0002670231 0.00016563025 5.085163e-05 -0.0005009111 0.0005770619 0.00011444354 0.00040719326
-0.00027454557 -0.00062792585 0.00034683844 4.4780103e-05 0.00019174749 -6.1133705e-06 1.0252109e-05 -0.0002896478
-0.0008805497 0.00022417954 -0.00060621 0.00034852588 0.00077112205 0.00011331483 0.00037468682 -0.00020296025
-0.00014189504 -0.00040638415 -0.0005443482 -0.0005458289 3.6686448e-05 -0.00048458207 -0.00016394605 -0.00023949888
1.303223e-05 -0.00025523122 0.0002484181 0.00042547163 0.00014875764 7.601936e-05 -0.00041482048 -0.0003188155
6.5573615e-05 0.00037547966 -7.608601e-05 -0.00057363405 -0.00041936926 0.00017507543 -0.0003400585 -0.00027914997
0.00018409092 -0.00018574302 0.00046677765 -0.00078140025 -0.000582335 -0.00019999848 -0.00017799842 -0.000110518245
0.00064107444 -0.00015466378 0.00025086373 0.00014193528 -0.00044313518 2.631652e-06 -0.00043384812 0.00016253129
-6.2830484e-05 -0.0003913464 0.0001650753 0.00037071237 0.00040081533 -0.00082577445 0.00042295095 -7.811213e-05
-0.0005034129 -0.0005467825 0.00018612955 5.5989625e-05 -0.00036481762 0.00014623217 -0.0004989837 -0.00053947495
0.0002157042 -0.00022190066 -0.00012768326 -0.0005875795 -8.994134e-05 -0.00086682563 5.1466996e-05 0.00018235913
-2.6894051e-05 -0.00060257775 -0.0012674183 -9.18432e-05 0.00056077464 -0.0010330618 -0.0005918691 0.00018997246
-2.8411678e-05 0.0005448693 3.6320853e-05 -0.00021922111 0.00022033264 0.0003257894 -0.00040192663 0.000102952006
5.2655225e-05 -0.00076189934 -0.00038439807 0.0003706156 -0.0006894073 -0.00012232886 -0.00031529198 -0.0002876261
0.0004028665 2.9449517e-05 -0.0001789136 0.00056768523 -0.0006118461 -9.1505455e-05 0.00017828168 -1.0078785e-05
6.131422e-05 0.00039195232 0.00040561752 -0.00013595565 0.0003495186 0.00033375557 -0.0010652726 -0.00046718295
-0.0007188959 -3.3919703e-05 -0.00024679612 0.00015970026 -0.00036777474 0.0002644446 -0.00010663403 -0.0005542459
-0.000108860346 -0.0002532394 -0.00016773771 -0.00064482744 0.00034559722 0.00040989197 0.0002648043 9.520077e-05
-0.00044706088 0.00020676585 -0.0007664013 -0.00066008413 -5.2130563e-05 0.00046740388 -4.4466753e-05 -0.0004493568
-0.00012527872 -0.0006231193 -0.00017703685 0.00020284006 0.00029005288 0.000144236 -0.0003959011 -0.0006034697
1.8788967e-05 7.3226875e-05 -0.00017533463 -0.00035505363 6.9567577e-06 -0.00029105172 0.00077965023 -0.00051022356
0.00020478886 -0.0003655192 -0.00054313353 0.00020068754 -0.00043848704 -9.561135e-05 -0.000113424816 0.00012115235
0.00023326912 0.00048510428 0.00010724085 -0.00078686926 -0.00042944343 0.00039727153 -0.0002436249 0.000110896755
-0.00011260792 0.00024115451 -0.00014873942 -9.030086e-05 2.3050465e-05 0.00030640807 0.00029047029 5.613389e-05
-0.00025883023 -0.0004838583 -0.00017961406 -0.00039402072 0.00042145935 8.9137706e-05 -0.0004647066 -0.00011868077
-0.00042632598 0.00010475669 -0.0008108134 -9.226773e-05 0.00013969929 -0.000118287964 -0.0004603739 0.00015497359
0.00014000888 0.00020809582 -0.00075349654 0.00028199193 -0.00035264628 -0.000552585 0.00037678867 0.0004923265
0.00027632606 5.2268188e-05 -6.226184e-05 -0.00083166483 4.2520707e-05 -0.00048054606 -0.0005356704 -0.0004201634
3.8232294e-05 0.00041221644 0.0006394811 -0.00082234456 -0.0005808936 -0.00012992542 -1.5502019e-06 0.0007045591

momentum_buffer f4 [32]
00000000: cf80 dab7 3494 2dbd 04b2 b0bb a95b 4aba
00000010: db0b 8abb 51a3 4cba 6f43 bf3c 5265 05bb
00000020: d828 8a3b 5e19 27bc 7b88 01bc ddd2 43bc
00000030: 6c22 af3a 4869 8bbb 2d1c b6bc 9690 f3bc
00000040: 05a9 813b 087e 863b 94f5 f8ba c64b 2cbc
00000050: ce90 f1bb ce68 babc bf6e 58bc 9cc0 0d3c
00000060: f4d3 11bb 762c 883a 9448 b338 7373 4bbb
00000070: 28e5 4dbb c47d 1dbc 5f0c 15bc 51a8 38ba
-2.6047606e-05 -0.042377666 -0.005392315 -0.0007719347 -0.004212839 -0.00078063185 0.023347585 -0.002035458
0.0042162947 -0.010198919 -0.007906075 -0.011952129 0.0013361699 -0.004254494 -0.022230232 -0.02973203
0.0039569163 0.0041043796 -0.0018994086 -0.010516113 -0.0073719984 -0.022755053 -0.013209998 0.008651879
-0.0022251578 0.0010389227 8.548904e-05 -0.0031044155 -0.0031417105 -0.009612504 -0.009097188 -0.0007044124

momentum_buffer f4 [64, 32, 3, 3]
00000000: aa32 13b8 ac26 87b9 45bd 04b7 7997 3db9
00000010: f144 5737 1985 91b8 2c64 3d39 b021 00b9
00000020: efb1 c9b8 f219 d0b9 0337 82b9 f6d3 e4b9
00000030: 0447 89b9 65fb 24ba e1f0 15ba 4930 b6b9
00000040: ae15 45b9 eaad f2b9 2ca1 72b9 7f59 82b9
00000050: b6aa d538 761c 3039 7079 3738 0620 abb8
00000060: 3602 4939 5cad a139 6314 a338 a8ff 78b9
00000070: daa2 06ba a779 f737 c6a4 1239 c209 d239
00000080: 55b0 e8b8 b555 23b9 a61e 6db9 0808 03b9
00000090: 2791 20ba 1192 7fb9 58ee 36ba 9c34 df38
000000a0: 0725 3d39 1d19 39ba 1e27 5fb9 0f85 afb9
000000b0: b4fc c5b8 814c f539 e80c 7638 18e3 35b9
000000c0: 9bc2 cf38 ce8f 08ba f5e9 40b9 951b 9e39
000000d0: a722 f2b8 8042 7738 b69f 6c39 d79b 11b8
000000e0: 2b45 d738 5170 d4b8 de6e a2b8 a2aa 7fb8
000000f0: 88db e1b8 0e11 d839 8e23 103a c417 a2b9
00000100: 22a5 ae39 d00b d5b9 cf27 8c39 0a90 2639
00000110: a216 4239 ed4f 34b9 f128 37b9 d128 12ba
00000120: ad3f d538 68a1 35b8 e26d 9eb9 d02f c0b9
00000130: 7e67 c9b9 55a9 b139 6c80 5db9 b4f9 9238
00000140: 8c65 cfb9 4a83 9ab9 7c65 69b9 2fd5 3938
00000150: 256d b9b9 f49c 9b39 f1cb c839 9f27 04b9
00000160: 286a a1b9 e279 8339 59f9 e738 7843 dd39
00000170: fcdf 8039 c68d 78b9 b3c7 e839 6a10 7039
00000180: ec7b 143a 249b aab8 5d88 feb8 ff3f 29ba
00000190: daaa 6939 abb9 cdb9 b868 2537 3410 14ba
000001a0: 805c 7636 9a87 5d38 21c5 a2b8 f2c2 88b9
000001b0: 6dee 9739 dd6a 5336 06fc c7b9 cead 2c39
000001c0: 6ad6 d4b9 d3f2 1538 07e3 bc38 a04d 04ba
000001d0: ff02 8ab8 df82 afb9 2428 14b8 48ee 7539
000001e0: 2e93 7838 6037 7939 00a6 41b9 217f 72b9
000001f0: 7445 7739 16d3 ad38 6060 cc39 6206 64ba
00000200: d614 62b9 c9ab bdb7 2507 d8b8 22c5 6eba
00000210: 6346 84b9 5ec9 40ba 5788 f7b9 fcc4 55b8
00000220: 7bd6 4739 d141 dbb9 70b3 1cb9 730f 88b7
00000230: d0b8 82b8 aeed f139 62be 07ba b0ef 1bba
00000240: 66b8 b0b9 c2f3 0dba 6375 cdb9 14e7 c8b9
00000250: e930 55b8 70d4 a0b9 d062 3937 4463 56b9
00000260: e597 e4b9 14c1 7bb8 a594 4838 a1e5 23ba
00000270: e409 07b9 c52e 70b9 7bd4 d1b9 aa79 92b9
00000280: 5568 d8b9 28c9 6eb9 bc54 51b9 985e 1837
00000290: 4dc6 47ba 630c 39b9 1c1a 22b8 5b38 b239
000002a0: 88b5 8db9 8844 3139 0ab1 ddb9 8dcd d6b9
000002b0: 22c4 0c3a 4950 afb8 67fd ab39 1475 0038
000002c0: 9222 f237 2af5 aa39 0eb0 5039 5366 06ba
000002d0: 4fc8 a1b8 efb5 a1b9 c77c 10b9 cf03 66b9
000002e0: fce4 8fb9 5ea5 1f38 fb0c 46b9 ea2d 43ba
000002f0: 608b c6b7 d0de 3939 f0bb e9b9 747d 60b9
00000300: f255 e0b8 1387 8738 c3df 2cba f5ba 8839
00000310: 3308 6cb9 3ce5 cbb9 ec4e a5b8 0507 51b9
00000320: d190 68ba e013 3839 3945 8139 f36b 2eb9
00000330: a6d5 5b39 5313 82b9 7ac0 be38 ee10 45b9
00000340: 6649 9eb7 cd35 14ba 547a 6539 209a 04ba
00000350: 66de d8b9 31e1 b9b9 70b7 9739 eb75 6739
00000360: 2e9c b3b9 2de2 003a e49b 3939 5c4e 4a39
00000370: 65a0 41b9 9303 0cb7 c03c 8638 70b5 8539
00000380: 1845 96b9 691a dcb8 0c8f feb9 e78b 8136
00000390: 9ea6 8139 ceab 51b9 7077 c039 8a2f ed39
000003a0: e2e8 33ba 266b 5e39 a37b 14b9 557e 5d39
000003b0: f7a4 80b9 c599 6cb9 f95e 0cb9 d0e9 2eb9
000003c0: c85f d838 7614 2239 d4d9 9a37 8ec8 53b9
000003d0: fdf9 bab9 3e6a 8eb9 cd47 2cb9 4417 2f37
000003e0: 14bc 08ba 37ed 96b8 2e7d 2eb9 6efe f8b9
000003f0: 7c33 dc38 379b c7b9 9c7f 19ba 8945 91b8
-3.5094716e-05 -0.0002577802 -7.911881e-06 -0.00018080873 1.283105e-05 -6.93893e-05 0.00018061762 -0.00012219581
-9.6175696e-05 -0.00039692182 -0.0002483652 -0.00043645472 -0.00026183587 -0.0006293564 -0.00057197927 -0.0003474972
-0.0001879546 -0.00046287413 -0.0002313896 -0.00024862212 0.00010188429 0.0001679527 4.3743697e-05 -8.15988e-05
0.00019169677 0.00030837476 7.776243e-05 -0.00023746362 -0.0005135961 2.9501343e-05 0.00013985028 0.0004006159
-0.000110954665 -0.0001557682 -0.00022613499 -0.00012496125 -0.0006125145 -0.00024373109 -0.0006978265 0.00010643268
0.00018038238 -0.0007060932 -0.0002128151 -0.00033477737 -9.440762e-05 0.0004678704 5.866299e-05 -0.00017346104
9.906777e-05 -0.0005209417 -0.00018397703 0.0003015666 -0.00011545914 5.8951322e-05 0.00022566211 -3.471583e-05
0.000102648824 -0.00010129868 -7.7454126e-05 -6.0955652e-05 -0.00010769727 0.00041211437 0.0005498462 -0.00030916755
0.000333109 -0.00040635327 0.0002673254 0.00015884652 0.00018509713 -0.00017195912 -0.00017467492 -0.000557554
0.00010168492 -4.3304084e-05 -0.00030217977 -0.00036656717 -0.00038414815 0.00033886233 -0.00021124043 7.008333e-05
-0.00039557775 -0.00029470987 -0.00022258417 4.430598e-05 -0.0003536727 0.00029680843 0.0003829892 -0.00012603261
-0.00030787406 0.00025077077 0.00011061383 0.00042202673 0.00024580944 -0.00023703938 0.00044399276 0.00022894298
0.0005664218 -8.135129e-05 -0.000121370635 -0.00064563745 0.00022284259 -0.0003923898 9.859148e-06 -0.00056481664
3.6710699e-06 5.2816795e-05 -7.76148e-05 -0.00026085187 0.00028978605 3.1503653e-06 -0.0003814401 0.00016467946
-0.00040595542 3.5750516e-05 9.006826e-05 -0.00050469674 -6.580911e-05 -0.00033476108 -3.5323334e-05 0.00023453787
5.926488e-05 0.0002376712 -0.00018467754 -0.00023126278 0.00023581629 8.288601e-05 0.00038981717 -0.0008698461
-0.00021560802 -2.261055e-05 -0.000103010134 -0.00091083546 -0.00025229444 -0.0007354225 -0.00047213092 -5.0966613e-05
0.00019058019 -0.00041819972 -0.00014944165 -1.6219657e-05 -6.233307e-05 0.00046144187 -0.00051782106 -0.0005948497
-0.00033706723 -0.0005415046 -0.00039188107 -0.0003831914 -5.082871e-05 -0.00030675856 1.1049866e-05 -0.0002044561
-0.0004360072 -6.002288e-05 4.7822152e-05 -0.0006252174 -0.00012878288 -0.00022905607 -0.00040021897 -0.00027937937
-0.00041276464 -0.00022772385 -0.00019963359 9.08193e-06 -0.00076207967 -0.00017647589 -3.8648126e-05 0.00033992794
-0.00027028867 0.00016905565 -0.0004228431 -0.00040970408 0.0005369802 -8.3596045e-05 0.0003280446 3.0626616e-05
2.8864746e-05 0.00032607588 0.00019902011 -0.0005126942 -7.7143886e-05 -0.00030843864 -0.00013779393 -0.00021935928
-0.00027445692 3.8062564e-05 -0.00018887587 -0.00074455014 -2.366834e-05 0.00017725979 -0.00044581247 -0.0002140904
-0.00010697161 6.462461e-05 -0.00065946224 0.00026079235 -0.00022509768 -0.0003888997 -7.8825135e-05 -0.00019934408
-0.0008871677 0.00017555011 0.00024656372 -0.00016634147 0.00020965058 -0.0002480993 9.0957576e-05 -0.00018793691
-1.8869247e-05 -0.0005653769 0.00021884713 -0.0005058367 -0.0004136443 -0.0003545373 0.00028937636 0.00022073805
-0.00034257903 0.00049165153 0.00017701049 0.00019293412 -0.00018465666 -8.3454825e-06 6.4009335e-05 0.00025502918
-0.00028661708 -0.00010495337 -0.00048553234 3.8607864e-06 0.00024728937 -0.00019995795 0.00036710082 0.00045239582
-0.00068630103 0.00021211486 -0.00014160438 0.00021123265 -0.0002453697 -0.00022563997 -0.0001338682 -0.00016681035
0.00010317523 0.00015457146 1.8459665e-05 -0.0002019724 -0.0003566294 -0.00027163507 -0.00016429946 1.043623e-05
-0.0005216014 -7.196742e-05 -0.00016640566 -0.0004749181 0.00010500007 -0.00038071882 -0.0005855502 -6.927091e-05

momentum_buffer f4 [64]
00000000: ce12 e138 7345 d1bb 0a10 8f39 fb80 143a
00000010: dad2 bd39 3ae9 af39 ec96 ddb9 3ab0 4539
00000020: ae8e 3bbb 2423 573b 0d0f ca3a 4437 e0bb
00000030: 0b5a 03bb 9864 86ba d71d 5ebb fbc8 03bc
00000040: 3dce 2dbc 0ebf 90bb a695 a7ba b4e2 0f3a
00000050: 2719 cbbb f976 49b9 fb32 7cbc 321b 40bb
00000060: 936a c33a 520e 29bb eee0 ddbb 4cb3 ca39
00000070: 7c32 bc38 ede9 87b9 368e aabb c5ce c0bb
00000080: 12cb e13a 8961 99b9 4bc6 6cbb cf12 83bb
00000090: 5688 a33b d7fd db39 46b7 e337 caee 9abb
000000a0: ebd5 57bb 246d bcba b2b5 e5ba 085b f93a
000000b0: 5a59 80bc ac15 efba 76fe f139 0141 bf39
000000c0: 4cfb a9bb 08b2 5fbb 52fa 8839 4bdc 58b7
000000d0: 3f07 d6b8 79fd 3fbc 7413 a7bb b2d6 d8ba
000000e0: fc2c 3b3b d61d 2cb7 c517 3cb9 ec16 39bb
000000f0: d3f3 6ab9 cfc7 b2ba 618a 1abb c8e6 233b
0.00010732339 -0.006386453 0.00027287035 0.00056649715 0.00036205986 0.00033552368 -0.0004226485 0.00018853034
-0.002861898 0.0032827342 0.0015415862 -0.0068425257 -0.0020042683 -0.0010253368 -0.0033892298 -0.008043523
-0.010608253 -0.0044173067 -0.0012785688 0.00054887985 -0.0061980668 -0.00019213175 -0.015393014 -0.0029313085
0.0014909081 -0.002579589 -0.0067711985 0.0003866203 8.973942e-05 -0.00025923495 -0.005204941 -0.005884024
0.0017226657 -0.00029255103 -0.0036128934 -0.004000045 0.0049906177 0.0004196006 2.7145852e-05 -0.004728173
-0.0032933902 -0.0014375788 -0.0017525463 0.0019024322 -0.015667606 -0.0018240712 0.0004615669 0.0003647879
-0.0051874276 -0.0034133215 0.00026126445 -1.2925894e-05 -0.00010205665 -0.011718147 -0.0050987545 -0.0016543476
0.0028560748 -1.0258946e-05 -0.00017937932 -0.0028242422 -0.0002240681 -0.001363987 -0.0023581015 0.0025009383

momentum_buffer f4 [64, 64, 3, 3]
00000000: 9d6c b6b9 a3e1 9ab8 1ede ac38 6268 8339
00000010: 244b df39 a771 dd38 a908 9539 82ba 9838
00000020: 96e9 8239 ea7b f539 61e0 1f3a 677b 4b39
00000030: a87c 503a 035b 9d38 05d0 9938 2299 103a
00000040: f646 72b8 2971 5539 c9f7 8b39 8909 5939
00000050: 92a1 9c38 d260 ed39 51f9 4c38 8804 6fb9
00000060: 45bd 04b9 504f 7b38 9934 1db9 405e 193a
00000070: c228 5d3a 2950 be39 f74a 8db9 5775 91b9
00000080: eb83 8ab9 981d 9339 7ab2 1939 bc0e 8839
00000090: c168 c23a 4e04 4d39 a94f 6939 599c fc39
000000a0: e233 053a 70ef a939 1993 bb39 626e 4139
000000b0: 4e59 e638 c20f 74b9 66f7 7c38 b2e6 9938
000000c0: 03c6 a639 a787 8339 2e24 96b9 07a2 7c39
000000d0: 9791 a7b9 5fc1 ed38 436c 13ba 3cf8 e1b8
000000e0: 6be3 9239 619b 4bb9 793e c5b8 be71 11b8
000000f0: 3495 1b39 4977 ba39 bcc9 10b9 bb1c 3439
00000100: df6f 18b9 4563 3db9 011b 013a 8b33 8db9
00000110: dba9 d7b8 a663 11b8 b8d5 4639 f7f7 b3b6
00000120: 9a3d abb8 e9dc 85b9 8f10 0e3a 4285 c339
00000130: fd6a 27ba 983c b4b9 d210 ea39 e843 d739
00000140: aaeb 6739 f452 083a 30cd 38b9 1e16 73b8
00000150: ad33 5439 1e95 2ab9 cbb7 e339 9ec5 2439
00000160: 0ac4 3538 778c 29b8 7e80 c237 c7cb a339
00000170: 2185 a039 45e0 dd39 aa56 5939 0148 85b7
00000180: dd4f 52b8 952e 7039 a3bc f239 7d36 383a
00000190: 64de 8d39 5844 403a 35b7 093a d73c 3f3a
000001a0: 824d f4b9 4ae8 bfb9 d17e 003a 49bb fc38
000001b0: c45b 593a f11e e739 2d60 34b9 2fee 0c3a
000001c0: 6863 4438 f0b6 c6b9 d5b5 2d3a 5820 9cb9
000001d0: 6c85 c239 4ac8 953a 3445 19b9 7fa4 e838
000001e0: 4cb4 5939 d00b 60b6 bfe4 7ab9 6ad4 c639
000001f0: 4713 9b39 32ad 273a d9a8 c739 ff1e b038
00000200: f240 1837 e918 5339 8f4a 0d39 89e0 95b9
00000210: 7ac6 b639 8adf 5838 028a 0339 7915 8fb8
00000220: 0a47 a037 cb63 e538 9d8f 70b7 748d a1b7
00000230: 96a6 bc39 2632 14b9 0678 11b9 70d2 1d39
00000240: 5636 ef39 89ac 283a bda1 163a 1db7 853a
00000250: 763d 133a 1d5e ec39 131b 0938 1483 9739
00000260: 0668 243a aabc d839 c61f ba38 0ccc c838
00000270: 3c48 82b9 47e9 9eb9 2763 93b8 5452 c6b9
00000280: 1824 b537 4a16 95b9 1d05 0db8 8559 7739
00000290: 0978 103a bb95 2db9 d69d c3b7 a4f5 0d3a
000002a0: e80e c539 ddce c339 ca04 52b8 dd02 6cb9
000002b0: c1a0 2538 a67b 0ab9 cee7 a238 8f02 4d39
000002c0: b294 b1b9 6ac5 7d38 9612 d7b9 c980 6c39
000002d0: 35de a73a d189 b03a a1bf 1c3a b9b3 843a
000002e0: d080 2f3a 62c8 393a dd6b 803a e614 323a
000002f0: 8081 593a 2717 be39 70e8 6f39 1da1 a7b9
00000300: 698d 203a 4382 acb9 5351 bd39 2ff8 43b9
00000310: dc73 37b9 fbac a5b9 1dfa f239 8db2 1239
00000320: e9ac 423a 1651 343a 1f27 ec39 d299 393a
00000330: ea7c 053a 776e 183a 0e08 4d3a 2ae3 b738
00000340: 04f8 9439 6d99 9e39 9c5e 5fb8 eda5 5b39
00000350: 1aa2 74b8 ba54 8939 caef fbb9 ac41 2a3a
00000360: e026 9839 2650 02b9 fae7 9d37 aa2e a2b9
00000370: 342b ca39 bc11 2eb9 b651 08b9 21be 1b39
00000380: 98ba 1239 b94c a839 761c ae39 8b0f f439
00000390: 91ad 9439 08cd 5b39 e69e 0cba e7b1 b939
000003a0: 4628 cd39 01b1 d5b8 dd4e a539 68e5 ae39
000003b0: 4337 f539 becb 1439 e774 dc39 e8bb a239
000003c0: d007 073a 95c6 8839 c47e 6a3a 326a 44b8
000003d0: 4793 ba39 feab e0b8 d294 0738 7047 6439
000003e0: a735 4839 c3dd bfb8 b618 6cb9 16ad 8c38
000003f0: 0bd5 be39 8523 2239 442e 8f39 a47b 9f38
-0.00034794668 -7.38532e-05 8.242972e-05 0.00025064038 0.0004258986 0.000105592706 0.00028425947 7.2826646e-05
0.00024969567 0.00046822365 0.0006098804 0.0001940556 0.00079531455 7.503296e-05 7.334355e-05 0.00055159826
-5.7763384e-05 0.00020355418 0.0002669676 0.00020698285 7.4687545e-05 0.000452763 4.8869584e-05 -0.00022794504
-0.0001265901 5.991693e-05 -0.00014992281 0.0005850531 0.00084365543 0.00036299348 -0.0002694947 -0.0002774398
-0.00026419698 0.00028060074 0.00014657705 0.0002595092 0.0014832244 0.00019551927 0.00022250287 0.00048181674
0.00050812785 0.00032412587 0.00035777016 0.00018447035 0.00010983889 -0.00023275524 6.031189e-05 7.338579e-05
0.00031809518 0.00025087336 -0.00028637185 0.00024092953 -0.00031961195 0.00011337059 -0.0005623737 -0.00010775073
0.0002801673 -0.00019417472 -9.4053285e-05 -3.4676625e-05 0.00014837534 0.0003556556 -0.00013808062 0.0001717684
-0.00014537525 -0.00018061425 0.00049249834 -0.00026932018 -0.00010283637 -3.46635e-05 0.00018962368 -5.3634826e-06
-8.1653896e-05 -0.00025532328 0.00054193375 0.00037292583 -0.0006386487 -0.0003437742 0.0004464449 0.0004105859
0.00022117668 0.0005200349 -0.00017624046 -5.7956313e-05 0.00020237146 -0.00016268014 0.0004343375 0.00015713877
4.333634e-05 -4.0423558e-05 2.3186436e-05 0.0003124161 0.00030616767 0.000423195 0.00020727018 -1.5888365e-05
-5.014228e-05 0.00022905537 0.00046298382 0.00070271624 0.0002705931 0.0007334403 0.0005253435 0.00072951376
-0.00046597054 -0.00036603428 0.00049017096 0.00012051181 0.0008291567 0.00044082807 -0.00017201966 0.00053760683
4.682262e-05 -0.00037901802 0.00066265214 -0.00029778737 0.0003710197 0.0011427489 -0.00014616997 0.00011093262
0.00020761898 -3.3385477e-06 -0.00023927072 0.00037923764 0.00029578267 0.00063963525 0.0003808204 8.3981075e-05
9.075027e-06 0.00020131808 0.00013474583 -0.00028586786 0.00034861622 5.17066e-05 0.00012544545 -6.822771e-05
1.9106566e-05 0.00010938159 -1.4338552e-05 -1.9258565e-05 0.0003598227 -0.00014133062 -0.0001387299 0.00015051081
0.00045626116 0.0006434401 0.0005746147 0.0010201667 0.00056167634 0.00045083548 3.268856e-05 0.00028898625
0.0006271604 0.00041339296 8.8750894e-05 9.57475e-05 -0.0002484935 -0.00030309914 -7.027975e-05 -0.00037826842
2.1593689e-05 -0.000284361 -3.362178e-05 0.00023589104 0.00055110507 -0.00016554345 -2.331931e-05 0.00054153265
0.00037585874 0.00037347423 -5.007236e-05 -0.0002250778 3.948878e-05 -0.00013206768 7.767939e-05 0.00019551277
-0.00033870857 6.0503757e-05 -0.00041021843 0.0002255469 0.0012807312 0.0013468807 0.00059794827 0.0010124362
0.0006694915 0.00070870493 0.0009797771 0.0006793275 0.000829719 0.00036256874 0.00022879406 -0.0003197276
0.00061245874 -0.0003290345 0.0003610948 -0.00018689105 -0.00017495401 -0.00031600133 0.00046344186 0.0001399016
0.00074262783 0.0006878538 0.00045042575 0.0007080111 0.0005092161 0.00058148004 0.00078213296 8.7684326e-05
0.00028413546 0.0003025042 -5.3255455e-05 0.0002094728 -5.8325102e-05 0.00026193802 -0.00048053107 0.0006494771
0.00029020663 -0.00012427624 1.8823881e-05 -0.00030933815 0.0003856063 -0.0001660054 -0.0001300041 0.0001485278
0.00013993157 0.0003210062 0.0003320907 0.00046550887 0.00028358077 0.00020961848 -0.0005364254 0.00035418497
0.00039130653 -0.00010189601 0.0003153001 0.00033358787 0.00046771215 0.0001419028 0.0004204877 0.0003103905
0.00051510055 0.00026087897 0.0008945281 -4.6828944e-05 0.00035586415 -0.000107131884 3.2325108e-05 0.00021770387
0.00019093473 -9.148896e-05 -0.0002251592 6.70796e-05 0.00036398353 0.00015462756 0.00027309556 7.604741e-05

momentum_buffer f4 [64]
00000000: 40c4 3e3a fe86 22bb fcba 53bb 75ab 9cba
00000010: 2cd8 9fba be4a a6ba bcd6 2dbb d6fa 673a
00000020: bac4 41bb 69c7 103b 61df ee39 cc12 c8ba
00000030: f99d e1ba a54f c1bb 3fcd 053b a1c5 8db9
00000040: 0328 89bb 365a b2b8 f164 2a3b 157a adb8
00000050: d4be 25b9 11bb 05bb 8f0d 863a 39fc a339
00000060: d5c1 00bb 42bc bfbb 77d3 18b8 9a59 9aba
00000070: e55f 6db9 1206 5e39 7990 db3a 2c1e 0e3b
00000080: f9c1 cdbb fb86 53ba 28db 86ba 07e2 27bb
00000090: a9d3 21b9 944d f5bb 26c9 39bb 6d56 8db9
000000a0: 6aa2 7ebb 694c c039 1bb5 8039 6a83 04bc
000000b0: 5a72 bdbb c161 ebbb 3a75 9cb9 2b48 2b3a
000000c0: c073 0439 a03b d5b9 689b 03b9 62b1 5bbb
000000d0: 3133 63b9 e495 ebba 4bd8 09b9 f034 b239
000000e0: bfd6 25bb 720d 48b9 d52c 3bb9 af4e 55b9
000000f0: a4a3 f3bb fec4 493a ca20 1fbb 4ba2 c53a
0.00072771683 -0.00247997 -0.0032307496 -0.0011952954 -0.0012195162 -0.001268707 -0.0026525697 0.0008849328
-0.002956672 0.0022091514 0.00045561328 -0.0015264391 -0.0017213217 -0.005899387 0.0020416526 -0.0002704086
-0.004185678 -8.5045045e-05 0.0026000107 -8.2720224e-05 -0.00015806715 -0.002040569 0.001022743 0.00031277703
-0.0019646783 -0.0058512995 -3.6436566e-05 -0.0011775971 -0.00022637805 0.00021173831 0.001675143 0.0021685464
-0.006279227 -0.0008069125 -0.0010288702 -0.00256169 -0.00015433006 -0.0074860547 -0.0028348654 -0.00026958008
-0.003885413 0.00036678024 0.00024548997 -0.008087972 -0.005781454 -0.007183284 -0.0002984198 0.0006533886
0.00012631621 -0.0004067095 -0.00012551027 -0.0033522476 -0.00021667477 -0.0017973748 -0.00013145914 0.00033990247
-0.0025305 -0.00019078495 -0.00017850411 -0.00020342575 -0.007435279 0.00076968956 -0.0024281018 0.0015078274

momentum_buffer f4 [1, 64]
00000000: a46d 46ba 0b79 2cbc 7dfd 46bd 8fd7 9fbb
00000010: bec6 40bc 2385 8f3c 8926 2fbd 3fd8 50bc
00000020: d47a 85bc ef90 4cbc 0337 4a3a 0654 513c
00000030: f32a 6bbc 5c40 57bd a129 f7bc 1dcb 313a
00000040: 78c1 88bd 5951 d6b9 542f 53bc a098 18bd
00000050: c364 e7b9 e652 5abc 4cd0 73bb 781f 6e3b
00000060: 68f5 763c 7cd7 aebd 1c45 b4bb f362 923b
00000070: 7704 1f38 59f5 15bc 108d 34bc 3093 e3bb
00000080: d96b 71bd ac5d 2abc 011f 653c 9e2f a2bb
00000090: 0f1a 1abb b06a 4ebd 4f36 eebc 000b 95ba
000000a0: a060 37bd 2e05 823c 8e9a a4bb 58cf fbbd
000000b0: d478 7abd ac72 b7bd 40c9 1e3a 66fa b6bb
000000c0: d559 fab9 4b04 eeba 28f1 853c d922 10bd
000000d0: b7d9 033a ce0e 583c 2fec 1a3b 050a aa3a
000000e0: 5cb4 b1bc 84bf c9b9 5936 45b9 6805 57b7
000000f0: 3b5e 1dbd f0b5 1e3c 833f f0bc 8d43 03bc
-0.00075694383 -0.010526906 -0.04858159 -0.0048779915 -0.011766134 0.01751954 -0.04276136 -0.01274687
-0.01629392 -0.012485727 0.0007713886 0.01277638 -0.014353502 -0.052551612 -0.030171217 0.00067822804
-0.06677526 -0.0004087787 -0.012889702 -0.03725493 -0.00044134827 -0.013325429 -0.0037203012 0.0036334675
0.015073158 -0.08537194 -0.0055014025 0.004467362 3.7912712e-05 -0.009152734 -0.01101996 -0.0069450364
-0.058940742 -0.01039831 0.013984443 -0.004949524 -0.0023514067 -0.050394714 -0.02907863 -0.0011371076
-0.044769883 0.01587161 -0.005023307 -0.12295407 -0.061150387 -0.08957419 0.000605721 -0.005584049
-0.00047750646 -0.0018159238 0.016350344 -0.035189483 0.00050296955 0.013187123 0.0023639312 0.0012972957
-0.021692447 -0.00038480398 -0.0001880763 -1.2816257e-05 -0.038419943 0.009686932 -0.02932716 -0.008011711

bn0.weight f4 [3]
00000000: e643 863f 0d37 833f a2df 873f
1.0489471 1.0251175 1.0615122

bn0.bias f4 [3]
00000000: f9bf 1f3d 3efd e0bd 11e1 d6bc
0.03900144 -0.10985802 -0.026230367

bn0.running_mean f4 [3]
00000000: 1d28 f83e 838e e33e 4415 d03e
0.48468104 0.44444665 0.40641224

bn0.running_var f4 [3]
00000000: 1413 843d b5a6 743d 1602 783d
0.06448951 0.059729297 0.060548864

conv1.weight f4 [32, 3, 5, 5]
00000000: 901d 963c 6820 9a3b 6397 273d a658 54bd
00000010: c277 05bd f34b 283d 57f4 023d 7ea2 953d
00000020: 92eb 283d 2633 853d a659 ed3c 5a57 0abc
00000030: 7c5e ebbc babe b3bc 843f 953c aef1 0d3e
00000040: d43f e8bc f98e 8dbd 2a17 3ebd a04c 58bd
00000050: 5429 e2bc 94be 2abd 2c72 b23d 65c7 24bd
00000060: 8034 893b 2d30 a33c f8d6 133d ca7a eebc
00000070: 8c33 f33c 20c0 15bd 4540 0f3e 3dec 7abd
00000080: 8d22 623d d529 ccbc bc06 c73c 80c2 5ebb
00000090: 661f febb fd14 9d3d 3350 aebd 4058 92bd
000000a0: 3409 923d c787 c6bd af07 8f3c d8ad 093c
000000b0: af61 64bd 399a d0bc 1654 31bd d57d 4c3c
000000c0: 95a8 c5bd 7164 2bbd e144 ab3d 8c11 b8bd
000000d0: 5381 4bbb 23d1 2f3d f366 e9bc 3b0e 34bd
000000e0: f8c4 a0bd 3a20 ab3c 8519 34bd 78ca e33c
000000f0: ab37 26bd 568e a4bd 1c5a 883d cb91 6bbd
00000100: 0a7e 7dbd 481b b4bc e97c eb3c 3a34 02be
00000110: 9f8d 70bb 599e b3bd 5c99 3fbd 301e 463b
00000120: ad0b 97bc 5fc9 86bd b60f 41bb 0588 d53d
00000130: 4f69 7c3c 266f 883b e606 7f3d c7a8 483d
00000140: 8139 1bbd 4c49 09bd 7e2f cf3c 478e 13bc
00000150: 7eef b4bd cb9d ccbb 6c46 76bc 009b 873c
00000160: c508 10bd 4f53 303b 7ba8 b7bc 103b 4d3c
00000170: 878b 35bb 75a7 3dbc 0c13 2d3d 4edd 07bc
00000180: 9d62 a7bd 203b 36bc 33d0 61bd e486 31bd
00000190: 870a 0cbd 16ca b73c 5934 47bd 58d2 5d3b
000001a0: ce2f e4bc 9315 99bc 7b7f b4bb 6016 20bd
000001b0: 12dc 853d 3f01 01be 4323 953c ddeb 003d
000001c0: de39 88bc 219d 793c a681 49bd e4ab c1bc
000001d0: 8d90 2cbd 3d66 f8bc f042 653d 30c2 94bc
000001e0: 60cf 4ebd c125 933d c1ee 333d 39b3 4b3d
000001f0: df78 2c3b 5e14 3e3d c38c 47bd f935 13bb
00000200: 5b85 893d bc3f 3abd d47b 813d 2b40 3b3d
00000210: 1926 88bd 0780 56bc 580d 2bbd 625b 87bb
00000220: e45f 683d 6854 2cbd 306d d13c 0f10 21bd
00000230: e1d4 b2bc f3f0 153c efbe ef3c dcac bb3c
00000240: e892 aabb c850 c43d 7a23 213c 61c0 933d
00000250: 4fa8 1fbd adb4 cebd dfed ddbc a53e 323d
00000260: 6b7a ff3b abc7 933c 72e7 383d 47de 853c
00000270: c8d8 ae3d 1a35 dfbd 1a34 94bd 82b5 23bc
00000280: cb8c 90bc cef7 efbc 5247 7ebd a8c7 34bd
00000290: 1439 86bc 34cc 9b3d 60e7 1f3e 84d3 d63d
000002a0: c09e 053d d3d7 81bd c657 e8bd 0f09 8c3d
000002b0: 702e 043d 6820 2b3d 29a0 cf3a 4b47 533d
000002c0: 091b 1ebd 330c 4dbb f389 9bbd ed7d f43d
000002d0: 3e3b 32bd 46ef 133d 7829 2bbd 24eb efbb
000002e0: 0e0e 41bd d69c bc3a 70aa 853d d982 6bbd
000002f0: 987b c73a bf47 e9bc 22a0 123d 04ae 85bc
00000300: 4e8b 223c a299 81bc d54e 3b3d c65d 2a3d
00000310: 3fe8 de3c 2e35 8e3d 6c2d 52bd b4bc 78bd
00000320: b336 b53d f1f0 e23d 7359 ce3c 1a09 08bc
00000330: 4488 1bbd 1f17 02bb a566 86bb 4e74 1cba
00000340: e8f4 e33c 003a 03be 444e 9e3c 65a9 113d
00000350: 2253 e6bd 4719 1f3c 3c21 acbc 3464 383c
00000360: 0e54 3dbd a2cc 4fbd f573 a7bd 40a8 66bd
00000370: f0e6 f53b 406f fabc b692 bcbc 6049 4fbd
00000380: f6f0 c5bc 5b39 76bc 0476 b3bd 8f28 eebd
00000390: f6d0 c33c 614c db3c 218e a63d e120 cdbd
000003a0: aefe 8e3d 13c4 673b 3239 1cbc ddfd e03c
000003b0: aed1 45bd c730 c33c 4124 373a 56f0 4d3b
000003c0: 6d4b f03c bc0d 993a bf38 f6bb cb77 e0bc
000003d0: a929 dfbd a588 c73c 91fc 1fbd 3e33 a13b
000003e0: 4412 d3ba 9813 153d 2e79 0b3d e4e4 62bd
000003f0: 09cb 3dbc 6571 05bd fafc 923a 0424 2a3b
0.018324643 0.00470357 0.040915858 -0.051842354 -0.032584913 0.041088056 0.031971302 0.073063836
0.041240282 0.065038964 0.028973412 -0.008443678 -0.028731577 -0.021941531 0.018218763 0.13861725
-0.028350748 -0.069120355 -0.04640881 -0.05280745 -0.027607597 -0.041685656 0.08713183 -0.04022922
0.0041871667 0.019920433 0.036093682 -0.029111285 0.029687665 -0.036560178 0.1398936 -0.06126045
0.05520873 -0.02492229 0.024295203 -0.0033990443 -0.007755208 0.07670019 -0.085113905 -0.071457386
0.071306616 -0.09693866 0.017459719 0.008403264 -0.05575722 -0.025464164 -0.04329308 0.012481173
-0.09651295 -0.041843835 0.08362747 -0.08987722 -0.0031052425 0.042924058 -0.028491473 -0.043958884
-0.07850069 0.02088939 -0.04396965 0.027806506 -0.040580433 -0.08034961 0.06657812 -0.057512086
-0.06188778 -0.021985665 0.028746085 -0.12715235 -0.0036705506 -0.08770437 -0.046777114 0.0030230395
-0.018438185 -0.06581377 -0.0029458827 0.10426334 0.015405967 0.0041636406 0.06226244 0.048989084
-0.037896637 -0.033517167 0.0252912 -0.0090060895 -0.08834742 -0.0062443963 -0.015031438 0.016553402
-0.035164613 0.0026905125 -0.022419205 0.012526289 -0.0027701573 -0.011575569 0.042254493 -0.008292509
-0.08173106 -0.011122495 -0.055130195 -0.043341532 -0.034189727 0.02243523 -0.048633907 0.0033847298
-0.027854826 -0.018687045 -0.005508361 -0.03908384 0.06536116 -0.12598132 0.01820529 0.031474937
-0.016629156 0.015235216 -0.049195908 -0.023641534 -0.042130042 -0.030322189 0.05597204 -0.018159002
-0.050490737 0.07184935 0.043928865 0.049731467 0.0026317162 0.046406142 -0.048718225 -0.002246259
0.06714889 -0.045470938 0.063224465 0.045715492 -0.066478916 -0.013092048 -0.041760772 -0.0041307667
0.056732073 -0.042072684 0.02556476 -0.039321955 -0.021830024 0.009151685 0.029265849 0.022909574
-0.005205501 0.0958572 0.009835118 0.07214428 -0.03897887 -0.10093055 -0.027090965 0.043516774
0.007796576 0.018039545 0.0451426 0.016341342 0.085374415 -0.108988 -0.072365 -0.009992005
-0.01764526 -0.029292967 -0.062079735 -0.04413572 -0.016384639 0.07607308 0.15615606 0.10489562
0.0326221 -0.06339993 -0.113448665 0.06837665 0.03227085 0.041778952 0.0015840578 0.051581662
-0.0386 -0.003128779 -0.07594671 0.11938081 -0.04351353 0.03611686 -0.041787595 -0.007321732
-0.047132544 0.0014390002 0.06526649 -0.057497833 0.0015219329 -0.028476594 0.035797246 -0.016318329
0.009920908 -0.015820328 0.045729477 0.041593336 0.027210353 0.06943737 -0.05131285 -0.060726836
0.08848324 0.11081112 0.025189137 -0.008302951 -0.03797175 -0.0019850207 -0.0041015917 -0.00059682585
0.027826741 -0.12815094 0.01932443 0.035561938 -0.11246325 0.009710616 -0.021011941 0.011254359
-0.04622274 -0.050732262 -0.08176414 -0.0563128 0.0075043365 -0.030570626 -0.023019176 -0.050607085
-0.02416275 -0.015028323 -0.08762744 -0.1162883 0.023903351 0.026769819 0.08132578 -0.10016037
0.0698217 0.0035364672 -0.009535121 0.027464801 -0.04829567 0.02382697 0.0006986298 0.003142377
0.02933284 0.0011677067 -0.007514089 -0.027400872 -0.10896618 0.02435715 -0.039059225 0.0049194386
-0.0016103466 0.03639564 0.034051113 -0.05539407 -0.011584052 -0.032578845 0.0011214309 0.0025961408

conv1.bias f4 [32]
00000000: 33d2 72bc 9619 a23d b801 8bbc 679c 52bc
00000010: 1d0a ce3c c77a c43d 0c88 02bd 03c7 973d
00000020: 2b34 0cbd 12b9 913d 8b96 b73b c6fe 213d
00000030: 2366 edbd b998 b0bd 432b 823d 4978 973c
00000040: 1f7d 74bd c502 8e3c 6bbc bc3d c0bd 0f3d
00000050: 1d8d a0bd 9eda bf3b 38ec 423c 1529 e9bc
00000060: e790 91bd 9496 a1bc 9076 923d e592 a03d
00000070: 3566 513d 91f2 943d 622e 80bc 5f6b 9a3b
-0.014820623 0.079150364 -0.016968593 -0.012854672 0.025151307 0.095937304 -0.031868026 0.07411005
-0.03422944 0.071153775 0.005602663 0.03954961 -0.11591747 -0.086228795 0.06355908 0.018489974
-0.059689637 0.017335305 0.092156254 0.03509307 -0.07839415 0.0058549186 0.011897139 -0.028461972
-0.07107716 -0.019725122 0.0715152 0.07840518 0.051122863 0.07272828 -0.015647117 0.0047125067

conv2.weight f4 [32, 32, 3, 3]
00000000: 0b69 e0bd 976e 323a 8dd0 74bd 1728 0dbd
00000010: 6d2f 003e 972c 3ebe 3c65 063e 0eb4 47bd
00000020: 9311 0c3c c765 c0bd 28b3 fe3c 51db bfbc
00000030: f79d 283d a0cf fc3d 023a 363c be92 a83d
00000040: 84b3 c03c 81f8 d13d 5fb1 fe3c e039 083d
00000050: 5b21 4f3d 570c e63d 31e1 b63d 549b 003d
00000060: b4e9 e83c eef6 573d dfd0 ff3c 1d35 af3c
00000070: ed2d b9bd 8d04 003e dfe5 0c3d d96a bc3d
00000080: ecbe 34bd ca49 f3bd 718a 9a3d b9b3 7c3c
00000090: 8d5b 1d3d b275 b2ba 0912 ed3a 64ac 6dbd
000000a0: 62db 34be d9b0 343d 3914 f9bd 3120 8d3d
000000b0: 41cb 1c3e f3f7 5f3d 3f4f d43d 324c 53bc
000000c0: 3bb3 093b 2664 56bd 24d5 a3bd 5475 b6bd
000000d0: 4925 d93c 9273 9fbd c55c 02bd 5129 44bd
000000e0: d52a 1f3b 0929 45bd 81d3 543d fa6a b23d
000000f0: 76b0 f63c f5e6 7a3c 8e58 aabd 57dd b8bc
00000100: 6ff4 563d a810 ea3d 5b24 c93c d129 9abd
00000110: 932f 34bd 6a23 613d 0358 42bd e308 0fbd
00000120: eefa 3e3d 290e dfbc a953 d23d ac80 16be
00000130: 37be dabd a3b4 febc b7b7 fbbc dc54 8bbc
00000140: 024c 083e 59b4 f5bc e382 5b3d 69e1 093d
00000150: c490 b5bd 9804 3f3b 8cd9 a6bd b03b bb3c
00000160: d8e8 a4bc b646 a9bd 257a 143d 9041 9f3d
00000170: 402a ad3d 386f 25be e8a0 b53d f86a 37bc
00000180: 6698 cfbd d565 dfbd 4126 193d 6226 263c
00000190: 19c5 97bd b120 ed3c 4cfd cbbd 75a9 dcbd
000001a0: a5d1 333d ef38 35bd 2955 d2bc b530 f0bd
000001b0: dae8 65bc 23da 2cbe 6433 7a3c df1f 273d
000001c0: 4d6c a4b9 29f4 ebbd f469 81be 8453 8bbc
000001d0: 623b e93d 50fa 5abe 66bb ffbd c5db 053d
000001e0: bca2 4fbc c956 d23d 5833 2a3b da6c 55bd
000001f0: f4ea 153d 9be9 6f3d 6813 a5bd 020f a43c
00000200: d4c0 3a3c 8bf9 1bbe 78ef 9dbd 7e02 9a3d
00000210: a616 0dbe 0c64 c7bc b71b 7ebd 2f43 63bd
00000220: 70c8 a73d 1542 cf3b a2cc 08bd 9ba9 ec3d
00000230: 39f8 f7bd 8de5 8fbc 824c 133d 137e 13bb
00000240: eb26 043d 5ab0 c63d 0c66 ca3d 7717 55bb
00000250: 3a02 bf3d 85d6 b63d 1b15 4dbe bb4d a5bd
00000260: d9e0 06be 2c83 20bc 8603 54bd 5b67 fe3c
00000270: 7c12 98bd c5a4 563d f578 a4bc c6d4 eabd
00000280: cbe4 cebc bb82 57bd 1d39 f6bc da29 02be
00000290: 73e8 8e3d 3a0c b03d 1076 653d 3208 ae3c
000002a0: 6922 b5bd 1936 2a3d 4bd0 1cbe 7451 bdbd
000002b0: f2f3 013d 693d 0a3e fd4f e53c ecaf 4dbd
000002c0: 4a7f 613c be62 ddbd 3431 82bc d08b 723d
000002d0: 7df6 733d 2d6e fc3c 4104 9ebd d437 f2bd
000002e0: 8462 c33b b5af 8c3c 4e37 0ebd d3d7 90bd
000002f0: a7da 113b fb78 5ebd 85e2 213e df9b cebd
00000300: ddea 393d d95a 8ebd f608 d8bd 500f 2a3d
00000310: b06a b2bd d532 95bc 92e5 d2bc af85 ab3c
00000320: bee8 303d a874 c33d 9f79 9e3c 0e4b 24be
00000330: 5a49 b0bd 0c12 a13d fa92 50bd fa39 d33c
00000340: 1ead b2bc b8de 3f3d 99ab cabc a14b 6dbc
00000350: 9d61 db3b 075d 7f3d b5ed 6e3d 1412 2d3c
00000360: af51 4fbd f68a c4bd 3699 0fbd 21e2 9fbd
00000370: 05c7 ad3d 010f 993c f9a1 bdbd 06bb bfbc
00000380: 4fa4 adbd aea8 aa3c 081b 26be c349 93bc
00000390: 3a00 e93c 41c8 bebc a9bb bbbd af47 fe3c
000003a0: 3948 e63c b28c 2a3d 69c5 19be 3c01 693d
000003b0: 32a5 90bd f940 e3bd 8562 993d 2fbc c83d
000003c0: 3071 613d 57c6 1e3c 25f6 57bc bf08 24be
000003d0: 99d0 5e3c 4821 bbbd 3702 cbbd 6aef 9dbd
000003e0: e1a9 743c 79b4 ad3d d3fd 043e b29b 25be
000003f0: b7c3 ecbd 5e01 dbbc 9c97 e5ba 67e1 123e
-0.10957535 0.00068066403 -0.059769202 -0.03446206 0.12518091 -0.18571697 0.13124555 -0.048755698
0.008549112 -0.093944125 0.031091288 -0.023420008 0.041166272 0.12344289 0.011122229 0.08231114
0.0235231 0.102524765 0.031090437 0.03325832 0.05056892 0.112328224 0.089296706 0.031398132
0.02843175 0.052725725 0.031227527 0.021387631 -0.09041963 0.12501736 0.03439891 0.09200067
-0.04412739 -0.118793085 0.07545937 0.015423709 0.038417388 -0.0013615398 0.001808704 -0.058025733
-0.17661813 0.044113968 -0.1216206 0.06890906 0.1531191 0.054679822 0.103666775 -0.012896584
0.002101137 -0.052341603 -0.07999638 -0.08909097 0.026507037 -0.07785715 -0.031826753 -0.047890965
0.0024287004 -0.048134837 0.05195952 0.087118104 0.03011344 0.0153138535 -0.08317672 -0.02256648
0.052479204 0.11428958 0.024553468 -0.07527507 -0.043990683 0.054965414 -0.047447216 -0.034920584
0.046626024 -0.027228432 0.10269863 -0.14697522 -0.10680812 -0.031091994 -0.03072725 -0.017008238
0.13310245 -0.029993223 0.05359162 0.033662234 -0.088655025 0.0029147025 -0.081469625 0.02285561
-0.02013056 -0.0826544 0.0362493 0.07776177 0.08455324 -0.16155708 0.08868581 -0.011194937
-0.101364896 -0.10908095 0.037389997 0.010140987 -0.0741064 0.028946253 -0.09960422 -0.10774509
0.043901104 -0.04424375 -0.025675373 -0.1172804 -0.014032567 -0.16880088 0.015271042 0.04080188
-0.00031361208 -0.11521179 -0.25276148 -0.017007597 0.113882795 -0.21384549 -0.12486915 0.03268029
-0.012673076 0.10270459 0.0025970545 -0.052105762 0.036601022 0.058572393 -0.08060342 0.020026688
0.011398513 -0.15231912 -0.07711691 0.075200066 -0.13778171 -0.024339698 -0.06203815 -0.055483993
0.08192527 0.0063250163 -0.033398278 0.11555787 -0.121078916 -0.017565513 0.035961635 -0.0022505566
0.032263678 0.09701605 0.09882745 -0.0032515207 0.093265966 0.08927635 -0.20027582 -0.080714665
-0.1317171 -0.009796899 -0.051761173 0.031055143 -0.074254006 0.05240323 -0.020077208 -0.114663646
-0.025255581 -0.05261491 -0.03005653 -0.12711278 0.0697793 0.08596082 0.056020796 0.021244142
-0.08844454 0.041555498 -0.15313832 -0.092440516 0.031726785 0.13499989 0.027992243 -0.0502166
0.013763258 -0.10809849 -0.015892603 0.059215367 0.05956124 0.030814255 -0.07715655 -0.118270546
0.0059626717 0.017173627 -0.03472071 -0.07072415 0.002225557 -0.054314595 0.15809067 -0.10088324
0.04539 -0.069509216 -0.10548584 0.04151851 -0.08711755 -0.018212715 -0.025744233 0.020937769
0.04319071 0.09543735 0.019345103 -0.16044256 -0.08607741 0.0786477 -0.050921418 0.025784481
-0.021811064 0.04684326 -0.024740027 -0.014483363 0.006694986 0.062344577 0.058332164 0.010563392
-0.05061501 -0.09596817 -0.035058223 -0.078068025 0.084852256 0.018683912 -0.092594095 -0.02340461
-0.08478605 0.020832386 -0.16221249 -0.017979508 0.02844249 -0.023288848 -0.09166653 0.03104004
0.02811061 0.041638084 -0.15016712 0.056885943 -0.070627585 -0.11096377 0.07489494 0.09801518
0.055039585 0.009690843 -0.013181244 -0.16018961 0.013599538 -0.09137207 -0.09912532 -0.0771168
0.01493308 0.08481688 0.12987451 -0.16172674 -0.11560767 -0.02673405 -0.0017516497 0.14343797

conv2.bias f4 [32]
00000000: 9f3c 55bc ec26 87bc 1c55 96bc c51f 5a3a
00000010: 8b60 a13c 46bf 453d 432e 15bd 5cb5 bf3c
00000020: 2dec 73bd aa8a 28bd e13c 0fbc cdac 3fbc
00000030: 9f8a 0b3d 6564 e53b 7547 33ba 79c4 2cbd
00000040: ba6c 403d 5006 8abd f817 2fbc 9e2a 73bd
00000050: 2c31 c2bc 26eb d1bc 132e 843d 9300 713d
00000060: a554 8bbb 72bf edbc 5c61 00bd 6032 e3ba
00000070: 3452 02bd eb50 543d 3293 e0bc 3f11 d9b9
-0.0130149415 -0.016498052 -0.01835113 0.0008320774 0.019699356 0.048278116 -0.03642107 0.023401909
-0.059551407 -0.041147865 -0.008742542 -0.011698914 0.034067746 0.0070004934 -0.0006838956 -0.04217956
0.04697869 -0.06739485 -0.010686867 -0.059366815 -0.023705088 -0.025624823 0.064541005 0.05883844
-0.004252034 -0.029021952 -0.03134285 -0.0017333739 -0.031816676 0.051834982 -0.027413938 -0.00041402315
