Ratio_Reverse/checkpoint_step_0075.pth (torch_old, 541551 bytes, 24 tensors)

momentum_buffer f4 [3]
0	0xbe40ea8b	-0.18839471
1	0x3e21d43a	0.15803614
2	0xbd1a6bf2	-0.0377006

momentum_buffer f4 [3]
0	0x3d3ed977	0.04659411
1	0xbda56368	-0.08075601
2	0x3daba990	0.08381951

momentum_buffer f4 [32, 3, 5, 5]
0	0xbd389e43	-0.045072805
1	0xbd444ef5	-0.04792686
2	0xbd449321	-0.047991876
3	0xbd41f9c6	-0.047357343
4	0xbd3d3a52	-0.046198197
5	0xbd377f91	-0.04479939
6	0xbd439d4d	-0.047757436
7	0xbd4687e8	-0.048469454
8	0xbd436b75	-0.0477099
9	0xbd3fe4f6	-0.046849214
10	0xbd27c23a	-0.040956713
11	0xbd2fd46d	-0.042927194
12	0xbd2f09a4	-0.042733803
13	0xbd281180	-0.041032314
14	0xbd27b5f1	-0.040944997
15	0xbd14ef7c	-0.036361203
16	0xbd1b7da0	-0.037961602
17	0xbd16187d	-0.036644448
18	0xbd0f989d	-0.035057653
19	0xbd130730	-0.035895526
20	0xbd0c3d92	-0.034238406
21	0xbd15dba1	-0.036586408
22	0xbd118ea2	-0.035536416
23	0xbd0e9c51	-0.034817044
24	0xbd1193ff	-0.03554153
25	0xbd29dba6	-0.04146924
26	0xbd35be37	-0.044370856
27	0xbd37d054	-0.04487641
28	0xbd324632	-0.043523975
29	0xbd2f935a	-0.042865135
30	0xbd27d1e0	-0.040971637
31	0xbd389002	-0.04505921
32	0xbd396ed7	-0.04527172
33	0xbd3795b9	-0.04482052
34	0xbd33e7ea	-0.043922342
35	0xbd1bdcb1	-0.038052265
36	0xbd240c5b	-0.040050846
37	0xbd209c8c	-0.039211795
38	0xbd1db378	-0.038501233
39	0xbd1e177e	-0.038596623
40	0xbd09fdb6	-0.033689223
41	0xbd114c7e	-0.03547334
42	0xbd087388	-0.033313304
43	0xbd030f82	-0.03199721
44	0xbd07bce9	-0.033139143
45	0xbcff3b9a	-0.03115635
46	0xbd0997fb	-0.033592205
47	0xbd065abc	-0.032801375
48	0xbd035216	-0.032060705
49	0xbd05e39f	-0.03268778
50	0xbd3c6eac	-0.046003982
51	0xbd49b38e	-0.049243502
52	0xbd47ea25	-0.048807282
53	0xbd41c73f	-0.047309157
54	0xbd3e1967	-0.046410944
55	0xbd3def6a	-0.0463709
56	0xbd48b468	-0.049000174
57	0xbd4961f5	-0.049165685
58	0xbd4652fe	-0.04841899
59	0xbd40faae	-0.047114067
60	0xbd2e59ee	-0.042566232
61	0xbd34a69a	-0.044104196
62	0xbd2f889e	-0.042854898
63	0xbd2ac89d	-0.041695226
64	0xbd2a195a	-0.041528083
65	0xbd1d98ad	-0.03847568
66	0xbd1dfb6a	-0.038569845
67	0xbd1a5cdd	-0.037686218
68	0xbd111fc6	-0.035430692
69	0xbd143a72	-0.03618855
70	0xbd113611	-0.035451952
71	0xbd17a324	-0.037020817
72	0xbd15c168	-0.0365614
73	0xbd0fee53	-0.035139393
74	0xbd1028b4	-0.035195068
75	0xbcb0c49a	-0.021578122
76	0xbca8b644	-0.020594724
77	0xbca2d052	-0.019874725
78	0xbc9cac78	-0.019125208
79	0xbc89485f	-0.016758142
80	0xbcb512e2	-0.02210373
81	0xbcaf7d78	-0.021422133
82	0xbca30b24	-0.019902773
83	0xbc982982	-0.01857448
84	0xbc812a0f	-0.015767125
85	0xbc9f7718	-0.019465968
86	0xbca0cfc5	-0.019630322
87	0xbc9578c6	-0.018246066
88	0xbc873dc6	-0.016508948
89	0xbc5eddee	-0.013602717
90	0xbc8f1c99	-0.017469691
91	0xbc8fe6aa	-0.017566044
92	0xbc8d5b93	-0.01725558
93	0xbc787450	-0.01516445
94	0xbc4856e1	-0.012227745
95	0xbc81ae03	-0.015830046
96	0xbc839ea8	-0.016066864
97	0xbc802865	-0.015644262
98	0xbc5abd3c	-0.013350781
99	0xbc2e8f70	-0.010654315
100	0xbbc44147	-0.005989227
101	0xbb8f1355	-0.004366318
102	0xbb8585dd	-0.0040747956
103	0xbb59f542	-0.0033257757
104	0xba9b006c	-0.0011825687
105	0xbbb3856f	-0.005478553
106	0xbb9c412e	-0.004768512
107	0xbb7de3d6	-0.0038740537
108	0xbaf9e60c	-0.0019065752
109	0x3956d220	0.00020486908
110	0xbb3be086	-0.0028667762
111	0xbb3dc370	-0.00289556
112	0xbb055d66	-0.002034986
113	0x38780880	5.9135724e-05
114	0x3b1c176a	0.0023817667
115	0xba7ab710	-0.00095640216
116	0xbaa06b60	-0.0012239031
117	0xba56d440	-0.000819508
118	0x3ad9128c	0.0016561314
119	0x3b7bd62e	0.0038427222
120	0x3a6bd090	0.0008995617
121	0x3ae51ad8	0.0017479314
122	0x3ad9740c	0.0016590371
123	0x3b84de6c	0.004054835
124	0x3bcdbfad	0.006278953
125	0xbc8a44f6	-0.016878586
126	0xbc81ec5e	-0.015859779
127	0xbc6f5b76	-0.014609208
128	0xbc5944fb	-0.013261075
129	0xbc336b5b	-0.0109508885
130	0xbc7fd920	-0.0156157315
131	0xbc75606d	-0.014976603
132	0xbc661866	-0.014043903
133	0xbc406cc4	-0.011744682
134	0xbc06f771	-0.008237706
135	0xbc528417	-0.0128488755
136	0xbc4e01a8	-0.012573637
137	0xbc3df13d	-0.01159316
138	0xbc0f8b6c	-0.008761268
139	0xbbc31b0e	-0.005954153
140	0xbc280d99	-0.010257148
141	0xbc275bdf	-0.010214775
142	0xbc1c34fc	-0.009534117
143	0xbbe7f436	-0.0070786728
144	0xbb8bad48	-0.0042626
145	0xbbe8da2a	-0.0071060853
146	0xbbecbf44	-0.007224949
147	0xbbdcf2ae	-0.006742797
148	0xbb965d16	-0.0045887334
149	0xbb095c18	-0.0020959433
150	0xbca46e76	-0.020072203
151	0xbc97043a	-0.018434633
152	0xbc7a3d2b	-0.015273373
153	0xbc6736c7	-0.014112181
154	0xbc59147a	-0.013249511
155	0xbc9ca59e	-0.019121941
156	0xbc9438a4	-0.018093415
157	0xbc7802da	-0.015137399
158	0xbc63a04e	-0.0138932
159	0xbc4bf2f7	-0.012448064
160	0xbc9f721a	-0.019463588
161	0xbc9e9512	-0.019358192
162	0xbc7a8688	-0.015290864
163	0xbc5d583a	-0.013509804
164	0xbc42fafd	-0.011900661
165	0xbc8e5aee	-0.017377343
166	0xbc8b3ef4	-0.016997792
167	0xbc5d9cd2	-0.013526158
168	0xbc38d179	-0.011280411
169	0xbc2e92a4	-0.010655079
170	0xbc9258d6	-0.017864626
171	0xbc8d4681	-0.017245533
172	0xbc67a35a	-0.014138067
173	0xbc3d3d12	-0.011550205
174	0xbc2d9a04	-0.010595802
175	0xbbdc3adb	-0.0067208833
176	0xbbc70c8a	-0.006074493
177	0xbb148e09	-0.0022667667
178	0xbad9b7c1	-0.0016610549
179	0xb8eab7a0	-0.00011192192
180	0xbbcafe9a	-0.0061949017
181	0xbbac751b	-0.0052629835
182	0xbabb9b2a	-0.001431321
183	0xb9b9f85c	-0.00035470992
184	0x39bbc5c4	0.00035814766
185	0xbbc8beaf	-0.006126247
186	0xbbbefbec	-0.0058283713
187	0xbaff0526	-0.001945649
188	0xb90c69dc	-0.00013390876
189	0x3a6a0f58	0.0008928678
190	0xbb90cd38	-0.004418995
191	0xbb9d3e7e	-0.0047987094
192	0xba3e1962	-0.0007251707
193	0x3ac4a048	0.0015001381
194	0x3b2a24ba	0.0025961832
195	0xbb832ff8	-0.004003521
196	0xbb936a68	-0.0044987686
197	0xba427dda	-0.0007419266
198	0x3a78d1e0	0.0009491723
199	0x3ae9e568	0.0017844858
200	0xbc8f4030	-0.017486662
201	0xbc7f693a	-0.015589053
202	0xbc436d4c	-0.011927914
203	0xbc29b99c	-0.010359194
204	0xbc1d058e	-0.009583844
205	0xbc8d06ae	-0.0172151
206	0xbc821dcd	-0.01588335
207	0xbc33c07d	-0.010971186
208	0xbc13f27a	-0.009029979
209	0xbc0beef0	-0.008540854
210	0xbc8dddb5	-0.017317632
211	0xbc86ed3c	-0.016470544
212	0xbc45adc4	-0.012065355
213	0xbc13f04e	-0.009029461
214	0xbbf830e6	-0.0075741885
215	0xbc810470	-0.015749186
216	0xbc7f0e24	-0.015567336
217	0xbc375b37	-0.011191181
218	0xbc055ac6	-0.008139318
219	0xbbdb6aa7	-0.0066960636
220	0xbc70e2b5	-0.014702489
221	0xbc73b642	-0.014874997
222	0xbc35941a	-0.011082673
223	0xbc06c716	-0.008226177
224	0xbbdfe0eb	-0.0068322322
225	0x3cc66b21	0.024221005
226	0x3cdaf74b	0.026729247
227	0x3cd70bee	0.026250806
228	0x3cddec21	0.027090134
229	0x3cddf859	0.02709596
230	0x3cd7c013	0.026336705
231	0x3ce78878	0.028263316
232	0x3ce7a197	0.028275294
233	0x3ce16610	0.027514488
234	0x3ce1679b	0.027515223
235	0x3ce1a366	0.027543735
236	0x3cfb690a	0.030689735
237	0x3cf77c2d	0.030210579
238	0x3ce73f12	0.028228316
239	0x3ce00492	0.02734593
240	0x3ce4e7e1	0.0279426
241	0x3d0025bc	0.031285986
242	0x3cfeeaf6	0.031117897
243	0x3cf392d1	0.029733093
244	0x3ce79684	0.028270014
245	0x3cdf6e3e	0.027274247
246	0x3cf6c0fd	0.03012132
247	0x3cf72e66	0.030173492
248	0x3cf2b8be	0.029629108
249	0x3cf2abd6	0.029622953
250	0x3ca2f508	0.01989223
251	0x3cb61ee6	0.02223153
252	0x3cb45b88	0.022016302
253	0x3cb642bd	0.02224862
254	0x3cb96134	0.022629358
255	0x3cadd9e8	0.02122207

momentum_buffer f4 [32]
0	0x3b63c19e	0.0034752856
1	0xbcbb62f5	-0.022874335
2	0xbca91276	-0.020638686
3	0xbc22ac10	-0.009928718
4	0xbd420498	-0.047367662
5	0x3c2551de	0.010090319
6	0xbcc06d7f	-0.023489712
7	0x3bbd6eec	0.005781045
8	0x3d0f41c9	0.034974847
9	0x390e2c00	0.00013558567
10	0xbbcfdc89	-0.0063434285
11	0x3b19c5cd	0.0023463846
12	0xbc52cb76	-0.012865892
13	0x3c037fa0	0.008026034
14	0xbcba4596	-0.02273826
15	0x3d6f3b38	0.058406085
16	0x3b962f1c	0.0045832526
17	0x3b25842c	0.0025255783
18	0x3b6a135a	0.00357171
19	0xbd3de2dc	-0.046358928
20	0x3ce01dd6	0.027357977
21	0x3cba795c	0.022762947
22	0xbd77b823	-0.06047834
23	0xbc1f50dd	-0.009723869
24	0xbd114e1a	-0.035474874
25	0x3cc7ab8c	0.024373792
26	0xbc9b38d3	-0.018947994
27	0x3ceaa70a	0.028644104
28	0xbcad278e	-0.021137025
29	0xbcc10372	-0.023561213
30	0xbb4a839a	-0.0030901195
31	0xbab6ca88	-0.0013945857

momentum_buffer f4 [32, 32, 3, 3]
0	0xba0ad909	-0.0005296623
1	0xb8875841	-6.45374e-05
2	0xb9bc938c	-0.00035968085
3	0xb92ea994	-0.00016657106
4	0x3a0f3d2a	0.0005464131
5	0xba80c1cc	-0.0009823381
6	0x3a274da5	0.00063821144
7	0xb9a788b4	-0.00031954574
8	0xb7d21458	-2.5043424e-05
9	0xba4a8576	-0.00077255757
10	0xb9847df0	-0.00025270833
11	0xb98860d0	-0.00026012072
12	0xb8fe57f0	-0.000121280435
13	0x3942aac4	0.00018564897
14	0xb8f00c40	-0.000114463735
15	0x38bd3980	9.0229325e-05
16	0xb9975df4	-0.00028870965
17	0x39b39111	0.00034249623
18	0x398da35d	0.0002701533
19	0x3766fa80	1.3767392e-05
20	0x39287086	0.00016063647
21	0x3a2bdc8b	0.0006555996
22	0x39960a82	0.00028618058
23	0x38a38bcc	7.798485e-05
24	0x395cf18a	0.00021070815
25	0x38f4cd64	0.00011673084
26	0x38a84530	8.0237514e-05
27	0x39310910	0.00016883411
28	0xb9d29104	-0.00040162366
29	0x3a158124	0.00057031424
30	0x397126b9	0.00022997976
31	0x3a03a39e	0.0005021634
32	0xb9839489	-0.00025096934
33	0xba0ea1e8	-0.0005440996
34	0x39d627d8	0.00040846947
35	0x380b73e4	3.3248114e-05
36	0x392585bc	0.00015785446
37	0xb9298ec4	-0.0001617028
38	0xb8e4a15e	-0.00010901944
39	0xb99efd87	-0.00030325
40	0xba841c2d	-0.0010079198
41	0x38efd4b1	0.00011436025
42	0xba1adf36	-0.0005907895
43	0x3972dc31	0.00023160946
44	0x3a313082	0.00067592424
45	0x3999278a	0.00029211893
46	0x3a1c609a	0.00059653225
47	0xb670f140	-3.5903213e-06
48	0xb7264998	-9.911506e-06
49	0xb9593a54	-0.00020716462
50	0xb9b8c1d5	-0.0003523963
51	0xb9ff317e	-0.00048674265
52	0x391e446c	0.00015093543
53	0xb9bca508	-0.00035981112
54	0xb8ff35a8	-0.00012169342
55	0xb954d5a2	-0.0002029748
56	0x3720b4a8	9.5788055e-06
57	0xb969c7e6	-0.0002229508
58	0x399044ac	0.00027516985
59	0x39da75fc	0.00041668105
60	0x3925a90b	0.000157986
61	0x38b02e2e	8.4009356e-05
62	0xb9deab5b	-0.0004247081
63	0x38bff7ec	9.153769e-05
64	0x3a1bfdd8	0.00059506064
65	0x3a6d52a4	0.0009053147
66	0x396a5bc3	0.00022350163
67	0xb908cc30	-0.00013046036
68	0x3840d4d0	4.5974564e-05
69	0x39aa96f8	0.00032537407
70	0xb86d9430	-5.6643214e-05
71	0x38357b40	4.326855e-05
72	0x39b49a4a	0.0003444723
73	0x381d4a41	3.750087e-05
74	0x3a37bbba	0.00070088694
75	0xba2f9f67	-0.0006699473
76	0xb9e2869a	-0.00043206365
77	0xb7c54b40	-2.3519271e-05
78	0xb901715c	-0.00012344628
79	0xb795924c	-1.7830309e-05
80	0x3a45da9b	0.00075475284
81	0xb9ae35df	-0.00033228003
82	0x3911b674	0.00013896247
83	0x390696b2	0.00012835374
84	0xba27caf3	-0.0006400786
85	0xb90cdd22	-0.00013433819
86	0xb9fc92fe	-0.00048174703
87	0xb8a389f0	-7.7981385e-05
88	0xb98657a8	-0.0002562378
89	0xba0518a9	-0.0005077222
90	0x38ebce16	0.0001124406
91	0x3987f1c7	0.00025929345
92	0x39bc6616	0.00035934214
93	0xba68efac	-0.00088858115
94	0x399b3b02	0.00029607868
95	0xb9097a2c	-0.0001311085
96	0xba1dfef8	-0.0006027068
97	0xba334839	-0.000683907
98	0x38ec5348	0.00011268869
99	0xb826373c	-3.9628925e-05
100	0xba0164b6	-0.00049359666
101	0x389aacdb	7.375489e-05
102	0xba14bcfd	-0.00056739134
103	0xba2ab07c	-0.00065112836
104	0x39143805	0.00014135249
105	0xb99938b9	-0.00029224696
106	0xb97fc37b	-0.00024391517
107	0xba2c5f32	-0.00065754645
108	0xb85b0335	-5.2216656e-05
109	0xba4c66de	-0.0007797311
110	0x39062b61	0.00012795396
111	0x3947a112	0.00019038122
112	0x37a481a2	1.9610688e-05
113	0xba0c3aae	-0.000534932
114	0xbaa5f71c	-0.0012662145
115	0xb8aca87c	-8.232982e-05
116	0x3a185005	0.00058102637
117	0xbaba1648	-0.0014197314
118	0xba7b3c94	-0.0009583917
119	0xb89faed2	-7.6142736e-05
120	0xb9d19913	-0.00039977636
121	0x393e12dc	0.00018126838
122	0xb9801576	-0.00024430052
123	0xba1df965	-0.00060262374
124	0xb92ad0f0	-0.00016290299
125	0x373f7db0	1.1413751e-05
126	0xb9c90379	-0.00038340295
127	0x38fc91f2	0.00012043481
128	0xb88ab9dc	-6.614972e-05
129	0xba3e4ef7	-0.00072596915
130	0xb9ba9791	-0.0003558961
131	0x3980754c	0.00024501455
132	0xba275dfc	-0.0006384549
133	0xb8b5cfa0	-8.669426e-05
134	0xb9db9f20	-0.00041889492
135	0xb93ddea4	-0.00018107385
136	0x3a03da4d	0.0005029783
137	0x390e5003	0.00013571982
138	0xb8c4e0db	-9.387891e-05
139	0x3a275f98	0.0006384789
140	0xba08186e	-0.00051916286
141	0xb7da7c9e	-2.6045655e-05
142	0x396d9a12	0.00022659477
143	0x38430adf	4.6501747e-05
144	0x39ac75d3	0.00032894182
145	0x3a330a0a	0.0006829804
146	0x3a2f8423	0.000669541
147	0x389f806a	7.60563e-05
148	0x3a1fbbd7	0.0006093359
149	0x3a18ff54	0.00058363867
150	0xba7669a2	-0.0009399896
151	0xb99d72a6	-0.00030030793
152	0xba0e8bcc	-0.00054377015
153	0xb9bb6a68	-0.00035746698
154	0xb9f703db	-0.00047114384
155	0x35c3ff00	1.4602847e-06
156	0xba3323a2	-0.0006833618
157	0x37a30960	1.943548e-05
158	0xb99723c0	-0.000288276
159	0xba6535a5	-0.00087436504
160	0xb9c51e47	-0.00037597326
161	0xb9ef61fa	-0.0004565863
162	0xb8c212b2	-9.254123e-05
163	0xba092e36	-0.0005233021
164	0x39e1a403	0.00043037542
165	0x39e8565e	0.00044314837
166	0x39b2f974	0.00034136663
167	0x393409ee	0.00017169837
168	0xb9e4c71f	-0.00043635906
169	0x3976310f	0.00023478664
170	0xba3e752c	-0.0007265385
171	0xba17e3cc	-0.0005794137
172	0x391eefcc	0.00015157385
173	0x3a3d1c45	0.00072139903
174	0xb89a17b0	-7.3477044e-05
175	0xb9b71b6c	-0.0003492491
176	0x381ac9c0	3.6904356e-05
177	0xba4894c9	-0.0007651565
178	0xb9501ea8	-0.00019847846
179	0x3980c1d6	0.00024558482
180	0x3994109d	0.00028241138
181	0x390a3466	0.00013180226
182	0xb9d57337	-0.00040712368
183	0xba1987c1	-0.0005856716
184	0x37c8d08d	2.3938972e-05
185	0x3892c128	6.997801e-05
186	0xb9326449	-0.00017012762
187	0xb9bc657e	-0.00035933772
188	0xb7112904	-8.652223e-06
189	0xb94a7db1	-0.00019311045
190	0x3a69ac6d	0.0008913938
191	0xb9dc09ff	-0.00041969118
192	0x39853d83	0.00025413567
193	0xb991b3f2	-0.00027790625
194	0xb9f5ad92	-0.00046859361
195	0x395f2489	0.00021280548
196	0xb9d0ecbf	-0.0003984924
197	0xb8a042a9	-7.641811e-05
198	0xb9a36742	-0.00031166716
199	0xb9f1d3fe	-0.00046125049
200	0xb8fa91a0	-0.00011948054
201	0x39ad70f0	0.00033081276
202	0xb9d91631	-0.00041406
203	0xba8e6eca	-0.0010866758
204	0xba0e993a	-0.00054397027
205	0xb89c2548	-7.445604e-05
206	0xba05a1ec	-0.00050976756
207	0x395a993b	0.00020847183
208	0x3597fc40	1.1323791e-06
209	0x398ae32c	0.00026490667
210	0xb8baeb40	-8.91299e-05
211	0x37906884	1.7214807e-05
212	0x388a5c61	6.59756e-05
213	0x399d0280	0.00029947236
214	0x39a714c1	0.00031868185
215	0x381708ce	3.6009405e-05
216	0xb97ab584	-0.00023909478
217	0xb9ee58df	-0.00045461112
218	0xb935a019	-0.00017321146
219	0xb9c8ac50	-0.00038275355
220	0x39df4e0c	0.00042592024
221	0x38af11e6	8.347984e-05
222	0xb9ee5ae2	-0.0004546261
223	0xb8eb5583	-0.00011221601
224	0xb9e3c011	-0.00043439915
225	0x37333284	1.0680993e-05
226	0xba6709a9	-0.000881339
227	0xb903d9a6	-0.00012574214
228	0x3863f422	5.4348384e-05
229	0xb9443e8a	-0.00018715314
230	0xb9fc672a	-0.0004814205
231	0x386dab8b	5.6664965e-05
232	0x388bab3f	6.6599336e-05
233	0x393fcca0	0.00018291408
234	0xba4094c9	-0.00073463895
235	0x39878bb8	0.00025853305
236	0xb9ba2d0b	-0.00035510244
237	0xba0a20a4	-0.0005269146
238	0x39bab6fc	0.0003561302
239	0x39fe2caa	0.00048479933
240	0x39a23fe4	0.0003094665
241	0x383e8666	4.54247e-05
242	0xb8717a69	-5.757288e-05
243	0xba3ab851	-0.0007122802
244	0x39396c20	0.00017683255
245	0xb9beb2eb	-0.00036372928
246	0xb9d6f23c	-0.0004099774
247	0xb98f2348	-0.00027301372
248	0x392a95b8	0.00016268238
249	0x39faf1c0	0.00047863834
250	0x3a3e2001	0.0007252694
251	0xba3e5c8e	-0.00072617165
252	0xba0a554b	-0.0005276992
253	0xb8aa5b54	-8.123243e-05
254	0x369921f0	4.563706e-06
255	0x3a3e67a5	0.0007263369

momentum_buffer f4 [32]
0	0x388633a8	6.39924e-05
1	0xb7facb00	-2.9896852e-05
2	0xbd179773	-0.037009668
3	0xbb02e5ee	-0.0019973475
4	0xbd38f214	-0.04515274
5	0xbbac3a4f	-0.0052559744
6	0x3c05848c	0.008149277
7	0x3aa23b7c	0.0012377347
8	0xbba63020	-0.005071655
9	0xbd2e737d	-0.042590607
10	0x3c4643bc	0.01210111
11	0x3c82395f	0.015896497
12	0xbadb1627	-0.0016714976
13	0xba8d330e	-0.0010772662
14	0xbbd6c532	-0.006554269
15	0xbb96c0af	-0.0046006064
16	0xbc7bf59f	-0.015378385
17	0xbc591e84	-0.013251904
18	0x3c14b440	0.009076178
19	0xb9d76340	-0.00041081943
20	0x3ce02ac1	0.027364137
21	0xbd1d47e8	-0.038398653
22	0xbcfd9364	-0.03095407
23	0x3ad55953	0.0016277231
24	0xbc2235fc	-0.009900566
25	0xb9ce154c	-0.0003930725
26	0x3acdf163	0.0015712198
27	0xbb4ca8ed	-0.0031228617
28	0xbb2c8a50	-0.0026327558
29	0x3cd68694	0.026187219
30	0xbba86313	-0.0051387637
31	0xbaa838ab	-0.0012834271

momentum_buffer f4 [64, 32, 3, 3]
0	0xb81fb6a7	-3.8078662e-05
1	0xb98a2abb	-0.00026353248
2	0xb714d11c	-8.8701745e-06
3	0xb93c71c4	-0.00017971458
4	0x36542a40	3.1615054e-06
5	0xb8932081	-7.0155605e-05
6	0x3939cecc	0.00017720013
7	0xb906282d	-0.00012794202
8	0xb8c7309b	-9.498113e-05
9	0xbad0bb29	-0.0015924919
10	0xbabb5359	-0.0014291807
11	0xbad9c42c	-0.001661425
12	0xbab4f943	-0.0013807196
13	0xbae27f7f	-0.0017280428
14	0xbae393a1	-0.0017362722
15	0xbabbf7a9	-0.0014340776
16	0xbaa46f94	-0.001254546
17	0xbad012db	-0.001587476
18	0xb9cc661b	-0.00038985987
19	0xb9cf3778	-0.00039523444
20	0xb8a45dde	-7.8376135e-05
21	0x3881bcfa	6.186399e-05
22	0xb84a096a	-4.816932e-05
23	0xb956e2ab	-0.00020493071
24	0x38ace027	8.243351e-05
25	0x395dd06f	0.0002115385
26	0xb84c214e	-4.8668408e-05
27	0xb97a0930	-0.0002384528
28	0xba06c09f	-0.0005140397
29	0x37b9a11f	2.2128746e-05
30	0x391bc367	0.00014854745
31	0x39d39e9e	0.00040363235
32	0xb8da7e1b	-0.00010418539
33	0xb91e0080	-0.0001506824
34	0xb96b0682	-0.00022413771
35	0xb9035289	-0.0001252388
36	0xba7f96a3	-0.00097499246
37	0xba22a2e1	-0.00062040804
38	0xba963a03	-0.0011461381
39	0xb9606119	-0.00021398476
40	0xb91b7266	-0.00014824569
41	0xba9117eb	-0.001106975
42	0xba0937a0	-0.0005234424
43	0xba2bee7a	-0.0006558668
44	0xba0675b3	-0.0005129233
45	0x39f0b717	0.0004591278
46	0x385e0035	5.2929117e-05
47	0xb935bfae	-0.00017332911
48	0x38ccd556	9.767215e-05
49	0xba074a0e	-0.00051608763
50	0xb93ea327	-0.00018180591
51	0x399d4429	0.00029996157
52	0xb8eed93a	-0.00011389186
53	0x3877a12d	5.9039496e-05
54	0xb96d2966	-0.00022617503
55	0xb9f5e82b	-0.0004690302
56	0xb9b1565f	-0.00033824422
57	0xba1b9784	-0.00059353583
58	0xba10cd29	-0.00055237353
59	0xba0d136d	-0.0005381618
60	0xba25b63a	-0.00063214044
61	0xb8d86198	-0.00010317861
62	0x38213d90	3.8442726e-05
63	0xb98e0510	-0.00027088122
64	0x39ba27cc	0.00035506336
65	0xb9bd3d49	-0.0003609455
66	0x39a3a48e	0.00031212386
67	0x39540c8a	0.00020222567
68	0x3981f68d	0.00024788492
69	0xb919168d	-0.00014599618
70	0xb9236708	-0.00015583273
71	0xba0730f7	-0.00051571376
72	0x38ae776c	8.3192106e-05
73	0xb8265793	-3.9659044e-05
74	0xb9945d03	-0.0002829806
75	0xb9bd619b	-0.0003612161
76	0xb9b6ca7f	-0.00034864616
77	0x39bfa25b	0.00036551323
78	0xb9462beb	-0.00018899112
79	0x38ff93b5	0.0001218686
80	0xb9b32e1d	-0.00034175898
81	0xba02bd7e	-0.0004987343
82	0xb9e92761	-0.00044470563
83	0xb961b766	-0.00021525993
84	0xb9fdc4fe	-0.0004840269
85	0x390cc050	0.00013423082
86	0x393c0f5f	0.00017934803
87	0xb95f0a40	-0.00021270756
88	0xb9e0f8a9	-0.00042909876
89	0x389db0da	7.5192846e-05
90	0xba7e6ae1	-0.0009705257
91	0xba28112e	-0.00064112514
92	0xba511213	-0.00079754106
93	0xbaa5a287	-0.0012636938
94	0xba14b7c0	-0.0005673133
95	0xba470ee9	-0.00075934693
96	0xb9dcd48f	-0.00042120038
97	0xba878826	-0.0010340258
98	0xba8af079	-0.0010600231
99	0xbb0bd831	-0.0021338577
100	0xba9ac015	-0.0011806512
101	0xbaeaa0d0	-0.0017900709
102	0xbab6ada0	-0.0013937242
103	0xbaf2dbbb	-0.001852862
104	0xbaa6cd11	-0.001272591
105	0xbaa36c46	-0.0012468181
106	0xbaa3dd96	-0.0012501951
107	0xbab57772	-0.0013844802
108	0x39921b84	0.0002786779
109	0xb70a10d2	-8.229357e-06
110	0xb9cf3a30	-0.0003952547
111	0x3920fad4	0.0001535223
112	0xb9d66e05	-0.00040899232
113	0x37b8e0b3	2.2039143e-05
114	0x38a89d07	8.040113e-05
115	0xba053367	-0.0005081207
116	0xb8aaa7ad	-8.137464e-05
117	0xb9b469f4	-0.00034411217
118	0xb82f2026	-4.1753192e-05
119	0x39630141	0.00021648874
120	0x37006cee	7.654757e-06
121	0x393ffbc1	0.00018308965
122	0xb97ed23e	-0.00024301649
123	0xb99aa7c8	-0.00029498176
124	0x393005f2	0.00016786883
125	0x36a31f4c	4.861422e-06
126	0x39d38913	0.00040347184
127	0xba5c20fd	-0.00083972496
128	0xb98d29e2	-0.0002692482
129	0x381854bb	3.6318535e-05
130	0xb80d1868	-3.363975e-05
131	0xba676ede	-0.0008828471
132	0xb91c00af	-0.00014877574
133	0xba1f196a	-0.00060691556
134	0xb9c430cf	-0.00037420398
135	0xbb32c79f	-0.0027279628
136	0xbb2240c6	-0.0024757846
137	0xbb47ffd6	-0.003051748
138	0xbb2ececa	-0.002667355
139	0xbb23f7c1	-0.00250195
140	0xbb249531	-0.002511334
141	0xbafd90c5	-0.0019345513
142	0xbb3aabe3	-0.00284838
143	0xbb3cdb7f	-0.0028817353
144	0xb992ccb0	-0.00027999794
145	0xb9fb4dd6	-0.00047932443
146	0xb9ca6d0a	-0.00038609683
147	0xb98f31b2	-0.0002731211
148	0x38bbba18	8.9515175e-05
149	0xb94fcba4	-0.0001981692
150	0x38cef2d5	9.8680764e-05
151	0xb87efc58	-6.0793333e-05
152	0xb9a5676a	-0.00031548302
153	0xb84fb555	-4.9521524e-05
154	0x38a6956a	7.9433274e-05
155	0xba1bf754	-0.00059496355
156	0xb8e0c8b0	-0.00010718533
157	0xb94283cd	-0.00018550381
158	0xb9bcb11e	-0.00035990117
159	0xb97d531f	-0.00024158925
160	0xb9b903c9	-0.0003528877
161	0xb93f8537	-0.00018264806
162	0xb948d4d3	-0.0001915277
163	0x38d785cc	0.000102769205
164	0xba1c9c20	-0.0005974192
165	0xb929c350	-0.00016189856
166	0x389c3c1c	7.449856e-05
167	0x3a05d367	0.0005105049
168	0xb983b316	-0.00025119697
169	0x39a192ee	0.00030817784
170	0xb95b856d	-0.00020935173
171	0xba630c00	-0.0008661151
172	0x37f9f060	2.9795046e-05
173	0xba1c1960	-0.0005954709
174	0xb8e8a61b	-0.000110935616
175	0xb9ec8fa4	-0.00045120448
176	0xb9ed8af6	-0.00045307697
177	0xb9007bd6	-0.00012253164
178	0xb9971730	-0.0002881824
179	0xba80ef5b	-0.0009836958
180	0xb8b15cf4	-8.4573316e-05
181	0xb9799b8d	-0.00023804438
182	0xb7d4112a	-2.5280362e-05
183	0xb96072db	-0.00021405092
184	0xb940da49	-0.00018391864
185	0x39400f35	0.00018316212
186	0xb94c461f	-0.00019481078
187	0xba28c318	-0.00064377626
188	0x3912cf25	0.00014000812
189	0xb99f28ca	-0.00030357233
190	0xba6fcb50	-0.00091474224
191	0xba470953	-0.0007592637
192	0xba0e66cd	-0.00054321886
193	0xb9bf775d	-0.00036519291
194	0xba98ecf8	-0.0011667302
195	0xb9244334	-0.00015665294
196	0xba23cfa4	-0.00062488974
197	0xba660b2f	-0.000877547
198	0xbada2bdf	-0.0016645155
199	0xbaf80e45	-0.0018925151
200	0xbb29efb8	-0.0025930237
201	0xbaae4509	-0.001329572
202	0xbab2ab48	-0.0013631368
203	0xbaead04a	-0.0017914858
204	0xbaa2a499	-0.0012408673
205	0xbae8fbb1	-0.0017775205
206	0xbac12eaa	-0.0014738638
207	0xb9349a18	-0.00017223542
208	0xb78b8ef1	-1.6636654e-05
209	0xba135a41	-0.0005621054
210	0x397e5778	0.00024255912
211	0xb9fa8c88	-0.0004778842
212	0xb9cd055e	-0.00039104646
213	0xb9b686f3	-0.0003481429
214	0x39957cd5	0.00028512502
215	0x3962e4a8	0.0002163822
216	0xb9aa5865	-0.00032490786
217	0x39ea5126	0.00044692418
218	0x38b21988	8.492457e-05
219	0x3947a631	0.0001904003
220	0xb9684d7c	-0.0002215411
221	0xb8a78f5f	-7.9898855e-05
222	0x389d3727	7.496616e-05
223	0x3968900e	0.00022178909
224	0xb9ab53ea	-0.00032678182
225	0xb8d92300	-0.000103538856
226	0xb9f42c12	-0.00046572142
227	0x36ec5e07	7.0442943e-06
228	0x3982923d	0.00024904488
229	0xb93953fe	-0.00017674264
230	0x39c2962d	0.00037114453
231	0x39ebdd91	0.00044987773
232	0xba2caf44	-0.0006587396
233	0x3961ed8f	0.0002154617
234	0xb8f9ca28	-0.000119109
235	0x396f7a0e	0.00022838285
236	0xb96976f4	-0.00022264925
237	0xb94df831	-0.00019642782
238	0xb8df3e13	-0.00010645031
239	0xb912f750	-0.00014015776
240	0x38eded6a	0.000113452625
241	0x392aef35	0.00016301575
242	0x37efa5b6	2.8568185e-05
243	0xbb3685b6	-0.0027850694
244	0xbb43b8ec	-0.002986486
245	0xbb3ad554	-0.00285085
246	0xbb2ed21e	-0.0026675533
247	0xbb24141c	-0.00250364
248	0xbb43349b	-0.0029785994
249	0xbb1ff83d	-0.0024409436
250	0xbb2576b6	-0.002524776
251	0xbb3624e8	-0.0027792994
252	0x38f60072	0.00011730277
253	0xb996f32d	-0.0002879141
254	0xba17b5d5	-0.0005787288
255	0xb88d0eb3	-6.726142e-05

momentum_buffer f4 [64]
0	0xbb08d308	-0.0020877738
1	0xbbcce414	-0.006252775
2	0x3a1b747a	0.0005930137
3	0xbaf1253e	-0.001839794
4	0xbb51137c	-0.0031902483
5	0xb888d3b6	-6.5244196e-05
6	0xb95c8c9b	-0.00021033215
7	0x39e4d036	0.00043642678
8	0xba93b6ef	-0.0011269728
9	0x3b968173	0.0045930683
10	0x3a83c40e	0.0010052936
11	0xbb974681	-0.004616559
12	0xb924750d	-0.00015683864
13	0x3b41af74	0.002955404
14	0x3ba5370f	0.005041964
15	0xbc4631d7	-0.012096844
16	0xbc61beb3	-0.013778376
17	0x3cd4085e	0.025882896
18	0x3b85ee6e	0.004087261
19	0xbb6db7e0	-0.0036272928
20	0xbbe30cf7	-0.0069290358
21	0x3b7a32ac	0.0038177175
22	0xbcd62a00	-0.026143074
23	0xbbd31629	-0.0064418507
24	0x3afaa41c	0.0019122395
25	0xb98d236f	-0.00026920016
26	0xbbb50e5c	-0.0055253934
27	0x3be0c309	0.0068591875
28	0x38eed08d	0.0001138757
29	0xbadcb04e	-0.0016837211
30	0xbc1cddb6	-0.009574344
31	0xbb0d9898	-0.0021605846
32	0x3c0cbbc0	0.008589685
33	0xba4087b0	-0.0007344438
34	0x3c2e4af3	0.0106379865
35	0xbbb8b0b2	-0.005636298
36	0x3acaaf7a	0.0015463673
37	0xbad8f454	-0.0016552308
38	0xbb36d039	-0.0027895106
39	0x3bf7a467	0.00755744
40	0xbbed543d	-0.007242708
41	0xba30387c	-0.0006722284
42	0xbb04d417	-0.0020268017
43	0xbbbe4646	-0.005806717
44	0xbceccdaf	-0.028906671
45	0x3be9ec30	0.0071387514
46	0x39a01db4	0.0003053971
47	0xb8aae0c8	-8.1481005e-05
48	0xbbdbcdac	-0.0067078676
49	0xba60373d	-0.0008553153
50	0x3abc1ed0	0.0014352445
51	0x3a00f462	0.00049192284
52	0xba783b5f	-0.0009469296
53	0xbcc564f7	-0.024095995
54	0x3bab8157	0.0052339244
55	0xbb072a9b	-0.002062476
56	0xb950f430	-0.00019927393
57	0xb83d405c	-4.512105e-05
58	0xb9458e8c	-0.00018840487
59	0x3bd8bb0c	0.0066140946
60	0x396d9452	0.00022657335
61	0x3adf915a	0.0017056868
62	0xbbfdd031	-0.0077457656
63	0x3b9b8d9d	0.004747106

momentum_buffer f4 [64, 64, 3, 3]
0	0xb9c0f5a4	-0.0003680411
1	0xb8c96fb6	-9.605235e-05
2	0x38a67832	7.937885e-05
3	0x396fc74b	0.00022867059
4	0x39d48c1d	0.00040540184
5	0x38ec8e6c	0.00011279885
6	0x3986b7ef	0.00025695513
7	0x38739831	5.8077454e-05
8	0x39832b47	0.0002501851
9	0xb94da368	-0.00019611197
10	0x3890a321	6.89684e-05
11	0xb9cc40a0	-0.00038958061
12	0x396b30ff	0.00022429599
13	0xb9c5b3e5	-0.000377088
14	0xb9e87448	-0.00044337125
15	0xb737a360	-1.0945689e-05
16	0xba06fa49	-0.000514899
17	0xb9ae309a	-0.00033224077
18	0x398494d4	0.00025287888
19	0x3941fc23	0.00018499843
20	0x3862e902	5.4099604e-05
21	0x39ea4120	0.0004468048
22	0x37eafe29	2.8013326e-05
23	0xb97fcd7c	-0.00024395244
24	0xb90110db	-0.00012308678
25	0x381682cb	3.5884597e-05
26	0xb92d8ae2	-0.00016550304
27	0x39e704f1	0.00044063435
28	0x3a35a133	0.00069286226
29	0x393de826	0.00018110927
30	0xb9d6c609	-0.00040964808
31	0xb9dc2b2b	-0.00041993833
32	0xb9e02d52	-0.00042758376
33	0x3915a22f	0.00014270165
34	0x3676ba30	3.6765232e-06
35	0x38dbb6f7	0.000104768136
36	0x3a6267df	0.0008636694
37	0xb99b6738	-0.00029640808
38	0xb97a5481	-0.00023873338
39	0xb83111f8	-4.2216823e-05
40	0x38b8f97b	8.820273e-05
41	0xb88ee89f	-6.814417e-05
42	0xb9160205	-0.00014305867
43	0xb9722f99	-0.0002309665
44	0xb9a0a64c	-0.0003064148
45	0xb9890ad7	-0.00026138753
46	0x38325ee2	4.2526874e-05
47	0x3842af69	4.6416568e-05
48	0x39959adb	0.0002853487
49	0x3973f01c	0.00023263734
50	0xb9a0dace	-0.000306806
51	0x395a746c	0.0002083347
52	0xb9acbc12	-0.0003294652
53	0x38a4d82c	7.8603945e-05
54	0xba3b5e55	-0.00071475405
55	0xb9964471	-0.00028661222
56	0x38cba8e1	9.7112505e-05
57	0xb9c67652	-0.00037853658
58	0xb99e11a7	-0.0003014926
59	0xb979870f	-0.00023796804
60	0xb860b350	-5.357276e-05
61	0x3907d761	0.00012954838
62	0xb9b822b2	-0.00035121065
63	0x3917be58	0.00014471391
64	0xb919d66e	-0.00014671098
65	0xb946731f	-0.00018925637
66	0x39f6e393	0.00047090332
67	0xb98415a1	-0.00025193117
68	0xb8cd88c1	-9.800634e-05
69	0xb82ac3d9	-4.0713556e-05
70	0x39614006	0.00021481523
71	0x37c4ecf7	2.3475366e-05
72	0xb915c363	-0.00014282535
73	0xb9aeef94	-0.00033366366
74	0x39fab410	0.00047817873
75	0x39a105c1	0.000307126
76	0xba37f902	-0.0007018001
77	0xb9c6dfc5	-0.00037932224
78	0x39cb784f	0.00038808814
79	0x39b7f3d7	0.00035086155
80	0x394128da	0.00018421133
81	0x3997b23f	0.00028933768
82	0xb9a3ac80	-0.00031218305
83	0xb928ffbe	-0.00016117
84	0xb72c9dda	-1.0288752e-05
85	0xb9880e80	-0.00025950745
86	0x39b5cd71	0.00034676076
87	0xb8299088	-4.0427345e-05
88	0xb8850d11	-6.344368e-05
89	0xb9188fd9	-0.00014549437
90	0xb9003dbf	-0.00012230033
91	0x390f92f6	0.0001369229
92	0x38e48020	0.00010895752
93	0x39acbd9f	0.00032947675
94	0x38b50a76	8.632701e-05
95	0xb917ef58	-0.00014489645
96	0xb8bb608c	-8.934838e-05
97	0x392a08a6	0.00016215685
98	0x39cf5647	0.00039546398
99	0x391e0e25	0.00015073323
100	0xb948b892	-0.00019142244
101	0x397d4c16	0.00024156304
102	0x37fab5bf	2.9886955e-05
103	0x398e43de	0.00027134916
104	0xba74f420	-0.0009344239
105	0xba6069aa	-0.0008560667
106	0xb78f13a4	-1.7056074e-05
107	0xb9e72ae4	-0.0004409171
108	0x3a41e2d3	0.0007396165
109	0x39d4245e	0.00040462887
110	0xb9911848	-0.00027674646
111	0x39fb8604	0.000479743
112	0x38356966	4.3251923e-05
113	0xb9f0b8ee	-0.0004591415
114	0x3a0eaae9	0.0005442338
115	0xb9b8c7af	-0.0003524399
116	0x39729f2a	0.00023138212
117	0x3a63fe75	0.000869728
118	0xb9b59f19	-0.00034641547
119	0xb8f78c88	-0.00011804054
120	0xb7b2ff1c	-2.1338048e-05
121	0xb93a4424	-0.00017763727
122	0xb9e864b8	-0.0004432553
123	0x390a8698	0.00013210846
124	0x38a8cf78	8.049508e-05
125	0x39c4a610	0.0003750776
126	0x39c1f705	0.00036995873
127	0x38730105	5.7936664e-05
128	0xb704d13a	-7.9165275e-06
129	0x3943b583	0.00018664268
130	0x38e1e29a	0.00010771044
131	0xb9987e20	-0.0002908567
132	0x39aff1f7	0.0003355888
133	0x37f9bf52	2.9772204e-05
134	0x3900276c	0.00012221717
135	0xb9324d77	-0.00017004261
136	0xb89b22a9	-7.397432e-05
137	0x34611b40	2.0964671e-07
138	0xb8b4fcac	-8.630133e-05
139	0xb8cfd227	-9.909673e-05
140	0x39822af9	0.0002482755
141	0xb95b28a5	-0.00020900609
142	0xb976173d	-0.00023469045
143	0x37da8c3c	2.6052927e-05
144	0xb987009c	-0.0002574966
145	0x3797d9ce	1.8102026e-05
146	0xb7192b7e	-9.129637e-06
147	0x39f28022	0.00046253303
148	0x38910286	6.914609e-05
149	0xb8504b8e	-4.966143e-05
150	0xb9f8ee56	-0.0004747982
151	0xb957b3ce	-0.0002057098
152	0x3899e5e8	7.338432e-05
153	0x39dc0bef	0.0004197056
154	0x394b44de	0.00019385244
155	0x394f31a1	0.00019759547
156	0xb96626a3	-0.00021948903
157	0xb9290555	-0.00016119082
158	0x381c2ee6	3.7236976e-05
159	0xb9b82b76	-0.00035127596
160	0x38fc219f	0.00012022559
161	0xb964f817	-0.00021836195
162	0x3790e322	1.7271905e-05
163	0x39818af5	0.00024708328
164	0x3a0b7bbe	0.0005320868
165	0xb9123b85	-0.00013945818
166	0xb773ca8a	-1.4531086e-05
167	0x3a089301	0.00052098936
168	0x39c3a41e	0.00037315575
169	0x39b8d06d	0.00035250504
170	0xb8b2dcca	-8.5288266e-05
171	0xb9337b20	-0.00017116638
172	0x38045fc7	3.1560452e-05
173	0xb96a302c	-0.00022333924
174	0x38a3c8a3	7.809817e-05
175	0x3923c9ae	0.00015620023
176	0xb9e3b70b	-0.00043433192
177	0xb7a1b7ec	-1.9278341e-05
178	0xb9fef3ee	-0.00048628397
179	0x38afa653	8.3756306e-05
180	0x3994c663	0.0002837657
181	0x39d71183	0.00041021043
182	0xb9d72140	-0.0004103277
183	0x39250c65	0.00015740244
184	0xb92a9331	-0.00016267296
185	0xb94e788d	-0.000196906
186	0x38d37d9c	0.000100846606
187	0xb95fd4b4	-0.00021346175
188	0xb917f0ae	-0.00014490142
189	0x39ef8c11	0.0004568999
190	0x39a48a00	0.00031383336
191	0xb9904be8	-0.00027522375
192	0x3a369ff7	0.00069665856
193	0xb981c704	-0.00024753076
194	0x39cc1e1d	0.00038932348
195	0xb9096e5d	-0.00013106452
196	0xb90939e9	-0.00013086911
197	0xb99e48ec	-0.0003019044
198	0xb9aef523	-0.00033370507
199	0xba1d5bfb	-0.0006002781
200	0x36290d4c	2.5190702e-06
201	0xb899f777	-7.3417024e-05
202	0xb978efcf	-0.00023740459
203	0xb731b978	-1.0593205e-05
204	0xb96fd592	-0.00022872377
205	0xb9000623	-0.00012209317
206	0xb68f4900	-4.2702304e-06
207	0xb85b2baa	-5.2254334e-05
208	0x3906a76b	0.00012841604
209	0x39242991	0.00015655743
210	0xb90fa43a	-0.00013698722
211	0x38bf804e	9.131488e-05
212	0xb94bd76d	-0.00019439841
213	0x38f9024b	0.00011873672
214	0xba2ac0f8	-0.000651374
215	0x39e3d32b	0.00043454146
216	0x392b754c	0.00016351527
217	0xb96f4641	-0.00022818988
218	0xb80e94a8	-3.3993885e-05
219	0xb9cdddb0	-0.00039265817
220	0x39a2e133	0.00031066834
221	0xb9367153	-0.00017399089
222	0xb943623a	-0.00018633241
223	0x38f06d79	0.00011464483
224	0x391dc311	0.00015045355
225	0x396fe572	0.00022878291
226	0x397203fa	0.000230804
227	0x39d8c085	0.0004134217
228	0x394029b0	0.00018326077
229	0x38db4ff1	0.00010457624
230	0xba126ab6	-0.0005585359
231	0x3985e4fb	0.0002553834
232	0x399da2ba	0.00030066614
233	0xb9049a39	-0.00012645953
234	0xb8d4095f	-0.00010110693
235	0xb8bbef2e	-8.9614055e-05
236	0x392c13fe	0.00016410646
237	0xb98ff1d4	-0.0002745526
238	0xb7842aaf	-1.5755502e-05
239	0x368af266	4.1409394e-06
240	0x3882f20f	6.24397e-05
241	0xb95ac289	-0.0002086257
242	0x3a0c54be	0.0005353204
243	0xb9506444	-0.00019873778
244	0x39818ad3	0.0002470823
245	0xb93abd6f	-0.00017808912
246	0xb891c6a5	-6.951139e-05
247	0x3924c820	0.00015714811
248	0x39297351	0.00016160055
249	0xb92b53ba	-0.00016339021
250	0xb988b9e8	-0.00026078452
251	0x3893c151	7.045514e-05
252	0x39bc4a3b	0.0003591346
253	0x391fe2f2	0.00015247965
254	0x398d6274	0.0002696697
255	0x389d6ac0	7.506227e-05

momentum_buffer f4 [64]
0	0x381b9588	3.709414e-05
1	0xbb1447d3	-0.0022625818
2	0xbb7a9e12	-0.003824119
3	0xbaf574d3	-0.0018726833
4	0xba34bbb0	-0.00068944227
5	0x3bc83b41	0.0061105792
6	0xbb2826b3	-0.0025657832
7	0x3aa31637	0.0012442534
8	0xbb12e487	-0.0022414045
9	0x3b7b0d0c	0.0038307337
10	0x395dfbd1	0.00021170011
11	0x3b4d89f8	0.0031362753
12	0xba1c67c1	-0.0005966388
13	0xbc10888f	-0.008821621
14	0x3b11b57e	0.0022233422
15	0xb92907fd	-0.00016120072
16	0xbb9c047e	-0.0047612777
17	0xb9964114	-0.00028658716
18	0x3b69ab4b	0.0035655077
19	0xb96603b3	-0.00021935887
20	0xb92607d2	-0.00015833907
21	0xbb222ec1	-0.0024747106
22	0x3ad9fe6a	0.0016631607
23	0x3ada1a93	0.001664
24	0x3aca2345	0.0015421888
25	0xbbf00d36	-0.0073257936
26	0x391385eb	0.00014068901
27	0x3b8f898a	0.0043804096
28	0xb90baf10	-0.00013321289
29	0x39cc3a67	0.00038953425
30	0x3aaa6e1e	0.0013002788
31	0x3b3733ca	0.0027954453
32	0xbc070551	-0.008241014
33	0xbaad9ccd	-0.0013245583
34	0x3bae17c7	0.005312893
35	0xbaa26944	-0.0012390991
36	0x38f9a04f	0.00011903105
37	0xbc0126b0	-0.007882759
38	0xbb5d5a98	-0.0033775922
39	0xba0eeadc	-0.0005451867
40	0xbb8ac53b	-0.0042349375
41	0x3b8c1ee7	0.004276145
42	0x375dee42	1.32281e-05
43	0xbc16859e	-0.00918713
44	0xbbb3ec8d	-0.0054908455
45	0xbc05ace7	-0.008158899
46	0xb9945506	-0.00028292107
47	0x3aa34a32	0.0012458025
48	0x39c981cd	0.00038434417
49	0xb9f11e5e	-0.00045989727
50	0x3ba4cb6d	0.005029133
51	0xbb55d93c	-0.0032630702
52	0x3934583e	0.0001719901
53	0x3b12eed8	0.0022420194
54	0x3a2b589b	0.00065363356
55	0x3a0a1262	0.00052670215
56	0xbb1b6eaa	-0.0023717084
57	0xb8f25b1e	-0.00011556431
58	0xb937ff48	-0.0001754734
59	0xba0dcc94	-0.00054092077
60	0xbbecd47d	-0.007227479
61	0x3b28b457	0.0025742257
62	0xbb493083	-0.0030699081
63	0x3b280127	0.0025635452

momentum_buffer f4 [1, 64]
0	0x3ae1304d	0.0017180532
1	0xbbcca4bb	-0.0062452233
2	0xbd115a9e	-0.03548681
3	0xbc1123c0	-0.008858621
4	0xbbeffd48	-0.0073238946
5	0x39ae729e	0.00033273263
6	0xbd379b2d	-0.04482572
7	0xbcadf812	-0.021236453
8	0xbc1db381	-0.009625317
9	0xbc922931	-0.017841907
10	0x3a195530	0.0005849181
11	0x3a94a5b1	0.0011340884
12	0x3a8dbbef	0.0010813455
13	0xbd270ed9	-0.040785644
14	0xbd088323	-0.033328187
15	0x3aabdeee	0.0013112703
16	0xbd7a631f	-0.061129685
17	0xb994888a	-0.0002833049
18	0xbd03f496	-0.032215677
19	0xbd40bec4	-0.04705693
20	0xb9e27e02	-0.00043199962
21	0xbc7be83d	-0.015375194
22	0xbc331294	-0.010929722
23	0xbba4cd7c	-0.0050293785
24	0x3bc43fd6	0.005989055
25	0xbd6f0604	-0.058355346
26	0xbc156598	-0.00911846
27	0xbc436775	-0.011926522
28	0x3a3e5ae8	0.0007261471
29	0xbc86e308	-0.016465679
30	0xbac35042	-0.0014901238
31	0x3b0cca6b	0.0021482955
32	0xbd436474	-0.04770322
33	0xbbfcd83f	-0.007716208
34	0xbb4080ae	-0.0029373574
35	0xba63fc0d	-0.0008696921
36	0xb90482b0	-0.00012637186
37	0xbd193707	-0.037405994
38	0xbcb7766e	-0.022395339
39	0xba82ecbb	-0.0009988764
40	0xbcee8610	-0.02911666
41	0x3b6464f0	0.0034850203
42	0xbba30fa2	-0.004976229
43	0xbdcc5cd0	-0.0997864
44	0xbd386f8d	-0.045028258
45	0xbd4a25f2	-0.049352594
46	0x3a00f026	0.00049185974
47	0xbc6ce12e	-0.014457984
48	0x3acc0910	0.0015566666
49	0xbaf641c4	-0.001878791
50	0x3be896e9	0.007098068
51	0xbc76bdab	-0.015059869
52	0x3a31720d	0.0006769009
53	0x3c2115b9	0.009831839
54	0xbb988d2b	-0.0046555004
55	0x3baef194	0.005338857
56	0xbc853dec	-0.016264878
57	0xb9d8ec60	-0.00041374844
58	0xb9430ea8	-0.00018602109
59	0x3b0dc321	0.0021631198
60	0xbd11dd9d	-0.035611738
61	0x3b4ab03e	0.0030927802
62	0xbca5c8ea	-0.020237405
63	0xbbe74613	-0.007057914

bn0.weight f4 [3]
0	0x3f8e91a1	1.1138192
1	0x3f80d4b1	1.0064908
2	0x3f8b4f36	1.0883548

bn0.bias f4 [3]
0	0x3d289816	0.041160665
1	0xbe65271c	-0.223782
2	0xbcea3ecf	-0.028594403

bn0.running_mean f4 [3]
0	0x3ef8281d	0.48468104
1	0x3ee38e83	0.44444665
2	0x3ed01544	0.40641224

bn0.running_var f4 [3]
0	0x3d841314	0.06448951
1	0x3d74a6b5	0.059729297
2	0x3d780216	0.060548864

conv1.weight f4 [32, 3, 5, 5]
0	0x3ce01a32	0.02735624
1	0x3c8cb81a	0.01717763
2	0x3d587cd1	0.05285341
3	0xbd20b333	-0.039233398
4	0xbcafa101	-0.021439077
5	0x3d447bc6	0.047969602
6	0x3d2cdaa8	0.042200714
7	0x3daaa0b5	0.08331434
8	0x3d519bd5	0.051174004
9	0x3d963d77	0.07335942
10	0x3cfcd47b	0.030863037
11	0xbb758215	-0.0037461568
12	0xbcc674cd	-0.024225617
13	0xbc9b8f9c	-0.018989377
14	0x3ca37ce9	0.019957023
15	0x3e0a4ff1	0.13507058
16	0xbce9e720	-0.028552592
17	0xbd917b62	-0.071036115
18	0xbd4b3ddb	-0.049619537
19	0xbd63f166	-0.055650137
20	0xbcfd4798	-0.030917928
21	0xbd2e37df	-0.04253375
22	0x3da9ce13	0.08291259
23	0xbd35281b	-0.0442277
24	0x39c01d45	0.000366429
25	0x3cf17a9e	0.029477414
26	0x3d4829e4	0.048868075
27	0xbc80204a	-0.015640397
28	0x3d2b2156	0.04177984
29	0xbcc9ce95	-0.024634639
30	0x3e16727d	0.14692111
31	0xbd459f58	-0.048247665
32	0x3d8963d2	0.06708492
33	0xbc4fe1be	-0.0126880985
34	0x3d0ea558	0.034825653
35	0x3a5b0924	0.0008355549
36	0xba9899e1	-0.0011642539
37	0x3da6d9e5	0.08147029
38	0xbda2ee11	-0.07955564
39	0xbd8816e5	-0.06644992
40	0x3d90d910	0.070726514
41	0xbdc0e750	-0.09419119
42	0x3c84dbf8	0.01621817
43	0x3bcfd6b1	0.006342732
44	0xbd671fdd	-0.05642687
45	0xbcdc35e5	-0.026881168
46	0xbd2cc237	-0.042177405
47	0x3c3525cf	0.011056378
48	0xbdc88d32	-0.09792556
49	0xbd305bf0	-0.04305643
50	0x3dbbf62f	0.09177815
51	0xbd9e15bb	-0.077189885
52	0x3c0001bf	0.007812916
53	0x3d55b886	0.05217793
54	0xbc9ee906	-0.019398224
55	0xbd10422a	-0.03521935
56	0xbd899bae	-0.06719147
57	0x3cfc67e0	0.03081125
58	0xbd0ce3c3	-0.034396898
59	0x3d105aa2	0.035242684
60	0xbd161491	-0.036640707
61	0xbd99412b	-0.07483133
62	0x3d8d5621	0.069011934
63	0xbd6276ab	-0.05528895
64	0xbd7646f2	-0.060126252
65	0xbcb6d4ce	-0.02231827
66	0x3ce1ef01	0.027579786
67	0xbe043777	-0.12911783
68	0xbc0caef2	-0.008586632
69	0xbdba87c9	-0.0910793
70	0xbd494793	-0.049140524
71	0x3a8e9951	0.0010879432
72	0xbcb58d5b	-0.02216213
73	0xbd90b69f	-0.07066082
74	0xbbfdeb64	-0.007749008
75	0x3df72f96	0.12069623
76	0x3ce93189	0.028466003
77	0x3c60961f	0.013707667
78	0x3d8f4c29	0.06996948
79	0x3d5e189a	0.05422268
80	0xbc8177eb	-0.015804252
81	0xbc6c5a3d	-0.014425811
82	0x3d2108ad	0.039314914
83	0x3b17bbfa	0.0023152814
84	0xbda4cee5	-0.080472745
85	0x3c488d38	0.0122407
86	0x3b29e645	0.0025924605
87	0x3cf51b82	0.029920343
88	0xbcd05ca9	-0.025434809
89	0x3c040ef5	0.008060207
90	0xbbed0a3b	-0.0072338856
91	0x3cdaa69a	0.02669077
92	0x3c1fb075	0.0097466605
93	0xbb51fab0	-0.003204029
94	0x3d3de8e9	0.0463647
95	0x3ba0ea93	0.004910776
96	0xbd8c2681	-0.068432815
97	0x39a82adb	0.00032075387
98	0xbd43cf1a	-0.04780493
99	0xbd2387e3	-0.039924514
100	0xbc97e26d	-0.018540585
101	0x3d06cbfd	0.032909382
102	0xbd26f924	-0.040764943
103	0x3c177d0a	0.00924612
104	0xbcc749db	-0.02432721
105	0x390b46a9	0.00013282396
106	0x3c28bdd9	0.010299169
107	0xbcdcdd94	-0.026961125
108	0x3d950ee8	0.07278234
109	0xbdf6f911	-0.120592244
110	0x3d070fda	0.0329741
111	0x3d38ef2f	0.04514998
112	0xbbc41531	-0.0059839715
113	0x3cac26f9	0.021014677
114	0xbd3e7498	-0.04649791
115	0xbc4c50fe	-0.012470482
116	0xbcfffb8d	-0.031247878
117	0xbcae5b85	-0.021283874
118	0x3d73e6ec	0.059546396
119	0xbc8cc03b	-0.017181506
120	0xbd2b9126	-0.04188647
121	0x3d9fd2f8	0.07803911
122	0x3d4bc80b	0.049751323
123	0x3d502d1b	0.050824266
124	0x3a2b68fb	0.00065387756
125	0x3d8d2afa	0.06892963
126	0xbcf76358	-0.030198738
127	0x3c39972c	0.011327546
128	0x3d9ed6ed	0.077558376
129	0xbd18202f	-0.037140068
130	0x3db2df06	0.087339446
131	0x3d883b81	0.066519745
132	0xbd496eb8	-0.049177855
133	0xba721dcd	-0.0009236008
134	0xbd0e1250	-0.034685433
135	0x3c8512c5	0.016244302
136	0x3d995c2f	0.07488286
137	0xbcdd1444	-0.026987202
138	0x3d0c3360	0.034228683
139	0xbd0dac21	-0.034587983
140	0xbbcf4cb9	-0.0063262847
141	0x3cbf2703	0.023334032
142	0x3d2832ed	0.04106419
143	0x3cf1dd2f	0.029524414
144	0xbb256ac8	-0.0025240649
145	0x3dd98628	0.106212914
146	0x3ca534f7	0.020166857
147	0x3da539dd	0.08067677
148	0xbd0d081e	-0.03443157
149	0xbdcc81dd	-0.09985707
150	0xbcbae57e	-0.022814509
151	0x3d329a4c	0.04360418
152	0xb9d4befb	-0.00040578083
153	0x3c01644e	0.00789745
154	0x3d064816	0.03278359
155	0x3cae31ef	0.021264045
156	0x3db13b28	0.08653861
157	0xbdee81fc	-0.11645886
158	0xbda8e903	-0.082475685
159	0xbcc58d9c	-0.024115376
160	0xbc2ecdef	-0.010669216
161	0xbccb9fda	-0.024856497
162	0xbd8ccccd	-0.06875
163	0xbd5d183a	-0.053978182
164	0xbcfd2972	-0.030903552
165	0x3d9fe6fc	0.07807729
166	0x3e1f272c	0.15542287
167	0x3dc3e1dc	0.09564564
168	0x3c9f92e5	0.019479224
169	0xbda3e02e	-0.08001743
170	0xbde1e653	-0.11030259
171	0x3d8ccf90	0.06875527
172	0x3cdd5923	0.027020043
173	0x3d009a4b	0.031397145
174	0xbc679119	-0.014133715
175	0x3d6b5728	0.057456166
176	0xbd0dd183	-0.034623634
177	0xbc10cae5	-0.008837436
178	0xbda98059	-0.082764335
179	0x3ddcff43	0.10790875
180	0xbd0eff3f	-0.03491139
181	0x3d27b841	0.040947203
182	0xbd42c479	-0.047550652
183	0xbc82c09a	-0.01596098
184	0xbd700ccc	-0.058605954
185	0x3c3e1c4f	0.011603429
186	0x3d937333	0.07199707
187	0xbd7a898f	-0.061166342
188	0xbbc76578	-0.006085094
189	0xbd2410ae	-0.04005497
190	0x3d2cbed5	0.04217418
191	0xbc329578	-0.010899894
192	0x3babd96f	0.005244426
193	0xbccda293	-0.025101935
194	0x3cfdb369	0.030969338
195	0x3d3ebb6a	0.04656545
196	0x3d0334a3	0.03203262
197	0x3d893524	0.06699589
198	0xbd6a456a	-0.057195105
199	0xbd93db8b	-0.07219609
200	0x3de74cdc	0.11293957
201	0x3e05a94b	0.13052861
202	0x3d10f5a8	0.035390526
203	0xbacf6ca9	-0.001582523
204	0xbd09a8f6	-0.0336084
205	0x3cd508f2	0.026005242
206	0x3c9fe946	0.019520413
207	0x3c196e93	0.009364742
208	0x3d063a18	0.032770246
209	0xbe003d5e	-0.1252341
210	0x3d4ad5ca	0.04952029
211	0x3d7b3a81	0.06133509
212	0xbdca52a9	-0.098790474
213	0x3c855e73	0.016280388
214	0xbc9de942	-0.019276265
215	0x3d1b8c95	0.037975866
216	0xbcb07824	-0.021541663
217	0xbd186b24	-0.037211552
218	0xbd998d84	-0.07497695
219	0xbd63792d	-0.055535484
220	0x3d01ae8e	0.03166061
221	0xbbe3f62d	-0.0069568367
222	0xbbe179e2	-0.0068809846
223	0xbd26fa70	-0.04076618
224	0xbcae246a	-0.021257598
225	0xbc4dceb7	-0.012561492
226	0xbdb59d5e	-0.08867906
227	0xbdee1fdd	-0.11627171
228	0x3caad1d7	0.020852013
229	0x3cbd72b4	0.023125984
230	0x3da63082	0.08114721
231	0xbdd14e52	-0.102200165
232	0x3d88b58f	0.066752546
233	0x3a2cddfd	0.0006594358
234	0xbc53a747	-0.0129183
235	0x3cd38d24	0.025824137
236	0xbd5b4ad7	-0.05353817
237	0x3c9bdc0b	0.019025823
238	0xbb741d61	-0.0037248957
239	0xba6f1097	-0.00091195985
240	0x3cd60f8e	0.026130464
241	0xbbdce8c5	-0.0067416155
242	0xbc7146cc	-0.014726352
243	0xbd0ee1cf	-0.034883317
244	0xbdea1241	-0.11429263
245	0x3cb2c8dc	0.021824293
246	0xbd3c8a64	-0.046030417
247	0xbb1aa224	-0.0023595178
248	0xbc1805bb	-0.00927871
249	0x3ceb8bd3	0.028753197
250	0x3d31f371	0.043445054
251	0xbd4987d1	-0.04920179
252	0xbbb194c9	-0.005419348
253	0xbce5c74c	-0.028049134
254	0x3b82bb1b	0.00398959
255	0x3c3260c5	0.0108873295

conv1.bias f4 [32]
0	0x3b745c80	0.003728658
1	0x3ddb43c7	0.10706287
2	0x3aad125d	0.0013204325
3	0xbd04bc76	-0.032406293
4	0x3ce07246	0.02739824
5	0x3dbed318	0.09317607
6	0xbd34f08a	-0.04417471
7	0x3d9b70e4	0.075898916
8	0xbc80c712	-0.015719924
9	0x3d8e363a	0.06943937
10	0x3b8a0063	0.004211472
11	0x3d169dc1	0.03677154
12	0xbe03642f	-0.12831186
13	0xbdaba299	-0.083806224
14	0x3d1a47cf	0.03766614
15	0x3d380598	0.04492721
16	0xbd4eeb3c	-0.050517306
17	0x3c06be5c	0.008224096
18	0x3ddccd8f	0.10781395
19	0x3c80debe	0.015731212
20	0xbdc7d7b9	-0.09757943
21	0x3d13709e	0.035996072
22	0x3c605035	0.013690998
23	0xbc010621	-0.007874996
24	0xbdaf0905	-0.08546642
25	0xbcff226d	-0.031144345
26	0x3d7f6fe2	0.06236256
27	0x3d882887	0.06648355
28	0x3d469ba5	0.048488278
29	0x3d7c60a6	0.06161561
30	0x3b7b2bd3	0.0038325682
31	0x3c3bc0a5	0.011459504
