Ratio_Reverse/checkpoint_step_0190.pth (torch_old, 541551 bytes, 24 tensors)

momentum_buffer f4 [3]
-0.2542937 0.27154696 -0.09531081
00000000: c932 82be 3408 8b3e 5032 c3bd

momentum_buffer f4 [3]
0.010197614 -0.23413712 0.18300243
00000000: e513 273c a4c1 6fbe fd64 3b3e

momentum_buffer f4 [32, 3, 5, 5]
-0.057522524 -0.061040115 -0.059581384 -0.059490792 -0.058845475 -0.05897586 -0.062671125 -0.062044412
-0.06278839 -0.061755378 -0.05959021 -0.063068874 -0.06273945 -0.0625929 -0.06161926 -0.05910163
-0.06253944 -0.061346423 -0.06113858 -0.06095997 -0.0601368 -0.06274602 -0.061291087 -0.06216602
-0.06161291 -0.07172774 -0.07522875 -0.074211344 -0.073307626 -0.073213026 -0.072474256 -0.077148244
-0.07592029 -0.076822475 -0.0758975 -0.07326258 -0.0763866 -0.07511867 -0.07583009 -0.07537789
-0.07224474 -0.07541872 -0.0730797 -0.07304103 -0.073580936 -0.0723124 -0.07475956 -0.07345328
-0.07430936 -0.07413245 -0.06192001 -0.06549604 -0.06316931 -0.061900847 -0.061781712 -0.063425355
-0.06630411 -0.06455204 -0.06496743 -0.06383435 -0.06310408 -0.06551505 -0.06353489 -0.063777454
-0.06329553 -0.06204031 -0.06328568 -0.06213421 -0.061345156 -0.061864395 -0.061641358 -0.062882975
-0.0617776 -0.062234726 -0.06193871 -0.024648577 -0.023030095 -0.019918447 -0.016146723 -0.01155649
-0.025351916 -0.024017617 -0.0199309 -0.015161343 -0.009724965 -0.02364582 -0.022891767 -0.01900266
-0.014057912 -0.00867585 -0.022959441 -0.022253197 -0.019390011 -0.01450251 -0.009345676 -0.022071805
-0.021732226 -0.018830776 -0.014271402 -0.00953239 -0.017805427 -0.015602034 -0.012729142 -0.008698948
-0.0041735843 -0.017760493 -0.016469363 -0.012832045 -0.007188376 -0.0023189855 -0.016109822 -0.015330877
-0.011868772 -0.006363057 -0.0014031287 -0.015447576 -0.015103463 -0.012142701 -0.0066311704 -0.002019783
-0.014151813 -0.01299987 -0.010632977 -0.0057060514 -0.001256404 -0.024316007 -0.022367131 -0.018114392
-0.013135217 -0.008274225 -0.02396617 -0.022427492 -0.018365063 -0.011927063 -0.0053632916 -0.022262909
-0.020918507 -0.01698463 -0.010323882 -0.0045023537 -0.020882156 -0.020028336 -0.016460447 -0.010583397
-0.004978093 -0.01827513 -0.01793452 -0.014707776 -0.009703543 -0.0046757394 -0.030200202 -0.026232801
-0.01459687 -0.007925582 -0.0052092513 -0.030413669 -0.025671894 -0.01138347 -0.0032900125 0.0006660917
-0.030720357 -0.026639536 -0.011624597 -0.00289236 0.0019347491 -0.02849658 -0.025262052 -0.013071963
-0.0034753038 0.0016372064 -0.026550332 -0.02393301 -0.014954561 -0.005886048 0.00017178431 -0.007047686
-0.0042248825 0.007489324 0.01334186 0.016763147 -0.0074418206 -0.0031101638 0.011104713 0.018607508
0.02187888 -0.006836546 -0.0026459177 0.01132783 0.019497 0.023538169 -0.004744882 -0.0020773262
0.010241416 0.019110449 0.024093531 -0.0021082708 -0.00031437306 0.009074144 0.016673684 0.021916527
-0.022164173 -0.018096108 -0.006152641 0.0012233024 0.004199896 -0.023013953 -0.018195692 -0.0023890324
0.0066316137 0.010004011 -0.022539428 -0.017671492 -0.0026128758 0.007349946 0.011948738 -0.020533064
-0.017191324 -0.00427829 0.005904207 0.011283798 -0.0172795 -0.015153939 -0.005735941 0.0032084929
0.009029749 0.035944905 0.043196358 0.04318774 0.04208451 0.04057266 0.03731499 0.04393501
0.044588152 0.042398497 0.041140128 0.03786169 0.044896405 0.045415 0.042787336 0.041091453
0.03808413 0.044535447 0.044759125 0.042576466 0.040348068 0.03617136 0.041634366 0.04230708
0.039976895 0.0381393 0.038254626 0.045084324 0.04568126 0.044546977 0.0441066 0.038942564
00000000: bd9c 6bbd 3305 7abd 9c0b 74bd 9eac 73bd
00000010: f407 71bd ac90 71bd b859 80bd 4822 7ebd
00000020: 3397 80bd 35f3 7cbd dd14 74bd 412a 81bd
00000030: 8a7d 80bd b530 80bd 7a64 7cbd 8d14 72bd
00000040: ae14 80bd 6346 7bbd 736c 7abd 29b1 79bd
00000050: 0152 76bd fc80 80bd 5d0c 7bbd cca1 7ebd
00000060: d25d 7cbd fee5 92bd 8811 9abd 1efc 97bd
00000070: 4f22 96bd b6f0 95bd 626d 94bd e6ff 9dbd
00000080: 197c 9bbd 1a55 9dbd 2670 9bbd b10a 96bd
00000090: 9470 9cbd d1d7 99bd ce4c 9bbd b95f 9abd
000000a0: 0df5 93bd 2175 9abd cfaa 95bd 8996 95bd
000000b0: 9ab1 96bd 8618 94bd 8a1b 99bd ac6e 96bd
000000c0: 812f 98bd c1d2 97bd d69f 7dbd ca22 86bd
000000d0: e95e 81bd be8b 7dbd d20e 7dbd 27e5 81bd
000000e0: 73ca 87bd dc33 84bd a50d 85bd 95bb 82bd
000000f0: b63c 81bd c12c 86bd 951e 82bd c19d 82bd
00000100: 16a1 81bd fb1d 7ebd ec9b 81bd 7180 7ebd
00000110: 0f45 7bbd 8565 7dbd a67b 7cbd cac8 80bd
00000120: 820a 7dbd d7e9 7ebd 72b3 7dbd d0eb c9bc
00000130: 9ca9 bcbc 032c a3bc 2246 84bc 6f57 3dbc
00000140: d2ae cfbc 98c0 c4bc 2046 a3bc 4867 78bc
00000150: 7655 1fbc e1b4 c1bc 8487 bbbc 77ab 9bbc
00000160: 2853 66bc 2725 0ebc 7015 bcbc 564c b6bc
00000170: cdd7 9ebc f09b 6dbc 9b1e 19bc eecf b4bc
00000180: c807 b2bc 0043 9abc 99d2 69bc be2d 1cbc
00000190: b0dc 91bc ac9f 7fbc e48d 50bc 0886 0ebc
000001a0: 90c2 88bb 747e 91bc c2ea 86bc 7f3d 52bc
000001b0: 788c ebbb 1ffa 17bb bff8 83bc 5c2e 7bbc
000001c0: 3d75 42bc 3181 d0bb 30e9 b7ba d417 7dbc
000001d0: 8474 77bc 2ef2 46bc 4a4a d9bb 565e 04bb
000001e0: 02dd 67bc 68fd 54bc f035 2ebc d4f9 babb
000001f0: ecad a4ba 5d32 c7bc 463b b7bc a264 94bc
00000200: 1835 57bc 9d90 07bc b454 c4bc dcb9 b7bc
00000210: 5472 96bc ba69 43bc 8dbe afbb b460 b6bc
00000220: 4a5d abbc 5a23 8bbc 8025 29bc 7b88 93bb
00000230: 0e11 abbc 7712 a4bc 0fd8 86bc fc65 2dbc
00000240: 451f a3bb bab5 95bc 6aeb 92bc e2f8 70bc
00000250: 9cfb 1ebc f236 99bb 6a66 f7bc 2ce6 d6bc
00000260: b627 6fbc 4dda 01bc 5eb2 aabb 1626 f9bc
00000270: dd4d d2bc bc81 3abc 409d 57bb a89c 2e3a
00000280: 42a9 fbbc 283b dabc 1875 3ebc c08d 3dbb
00000290: 6897 fd3a a971 e9bc 5df2 cebc c92b 56bc
000002a0: ecc1 63bb 8897 d63a 1580 d9bc 290f c4bc
000002b0: fa03 75bc c0df c0bb 0021 3439 46f0 e6bb
000002c0: e270 8abb 0169 f53b d197 5a3c de52 893c
000002d0: 84da f3bb e4d3 4bbb 8bf0 353c c66e 983c
000002e0: 563b b33c 1b05 e0bb 2267 2dbb 5d98 393c
000002f0: 2cb8 9f3c 1ed3 c03c f57a 9bbb c023 08bb
00000300: 9dcb 273c 848d 9c3c cc5f c53c ea2a 0abb
00000310: 70d2 a4b9 b8ab 143c 4097 883c 4a8a b33c
00000320: a491 b5bc 4a3e 94bc 189c c9bb 3857 a03a
00000330: 489f 893b c287 bcbc 220f 95bc 5091 1cbb
00000340: 024e d93b dde7 233c 9ba4 b8bc cec3 90bc
00000350: c83c 2bbb d1d7 f03b a4c4 433c f534 a8bc
00000360: d2d4 8cbc e630 8cbb 1478 c13b aedf 383c
00000370: bd8d 8dbc 3a48 78bc 90f4 bbbb 9445 523b
00000380: 83f1 133c f73a 133d aaee 303d a1e5 303d
00000390: cf60 2c3d 842f 263d 9ad7 183d 32f5 333d
000003a0: 11a2 363d 0caa 2d3d 8d82 283d dc14 1b3d
000003b0: 4be5 373d 1405 3a3d c641 2f3d 834f 283d
000003c0: 1bfe 1b3d cd6a 363d 5855 373d a964 2e3d
000003d0: 0444 253d 6c28 143d cc88 2a3d 304a 2d3d
000003e0: d0be 233d f437 1c3d e2b0 1c3d 57aa 383d
000003f0: 461c 3b3d e476 363d 1fa9 343d 3d82 1f3d

momentum_buffer f4 [32]
0.030342666 -0.023715861 -0.043658637 -0.026974091 -0.112870164 0.030819185 -0.05869203 0.041829098
0.101036206 -0.017800268 -0.015372965 -0.0046588015 -0.026519839 0.011159582 -0.06666679 0.1308184
0.023819596 -0.012861945 0.017760402 -0.08771322 0.059270263 0.07031652 -0.09802806 0.0064748945
-0.085678436 0.035063915 -0.052563835 0.05628662 -0.045141514 -0.051621795 0.010576965 0.017945308
00000000: 2f91 f83c c447 c2bc 66d3 32bd c5f8 dcbc
00000010: 7928 e7bd 8478 fc3c 0e67 70bd fd54 2b3d
00000020: 12ec ce3d ded1 91bc e3de 7bbc dca8 98bb
00000030: 2240 d9bc aed6 363c 9988 88bd 42f5 053e
00000040: 5021 c33c e8ba 52bc 437e 913c fda2 b3bd
00000050: 60c5 723d 1c02 903d efc2 c8bd 5a2b d43b
00000060: 2d78 afbd 2e9f 0f3d 2d4d 57bd cd8c 663d
00000070: 4fe6 38bd 6071 53bd 024b 2d3c 0a02 933c

momentum_buffer f4 [32, 32, 3, 3]
-0.00048142904 4.193154e-05 -0.00019272762 -0.00015346591 0.0006095546 -0.0008434187 0.0006440324 -0.00027210542
0.00010018059 -0.0005476234 5.2279094e-05 -1.9408762e-06 5.7473895e-05 0.0004583475 0.00012771727 0.00025929906
-2.4893205e-05 0.00056742557 0.00019218578 0.00013517789 0.00045821376 0.00051392213 0.00035326957 0.00030935387
7.707489e-05 0.00017247634 0.00029274286 0.00012827932 -0.00043190518 0.00060716295 0.00020122057 0.00047762113
-0.00020929053 -0.0005473455 0.00040550806 9.117203e-05 0.00020440055 -5.2119896e-05 5.652651e-05 -0.00027354917
-0.0009036363 0.00027440483 -0.0005731507 0.0003246006 0.0008306396 0.00025541915 0.00058457255 3.7077465e-05
-1.541138e-05 -0.00020291287 -0.00029786784 -0.00045711902 0.00017294136 -0.00030210175 -0.000111942645 -0.0001487025
9.6726755e-05 -0.00022570298 0.0003006666 0.00048411635 0.00015108856 9.899604e-05 -0.00038128893 -0.0002089797
0.00026237546 0.00060719723 -1.2397068e-06 -0.00039752014 -0.00019941304 0.00025693863 -0.00017370435 -7.2162016e-05
0.00025321645 -5.7914498e-05 0.00060605624 -0.0007382746 -0.0005084468 -0.00010783918 -0.0001721498 -7.79845e-05
0.00068177056 -0.00021124998 0.00016543304 8.822826e-05 -0.0005095927 -8.510135e-05 -0.0005042025 7.34526e-05
-0.00016085443 -0.0004683172 0.00018330169 0.00034335983 0.00046232267 -0.000824873 0.00037255976 -2.9433519e-05
-0.0005242191 -0.0005940786 0.00021446482 -9.026233e-06 -0.00046356142 0.00010501807 -0.00055785495 -0.00062611536
0.00016074558 -0.00028304363 -0.0002286504 -0.0006338421 -6.6898996e-05 -0.00076907553 0.00018797905 0.00018131806
2.0456153e-05 -0.0004931765 -0.00127252 -9.0439535e-05 0.00059497106 -0.0010397518 -0.0005978107 0.00023891797
-5.3171476e-05 0.0005180326 6.198359e-05 -0.00026757253 0.00015169356 0.00030988423 -0.00042217516 2.6771022e-05
-0.00013662818 -0.00077101775 -0.00044111884 0.00018098851 -0.0006874729 -0.00017524361 -0.0004796489 -0.00024400145
0.0004544714 9.86079e-05 -0.00016819306 0.0005788144 -0.00057712547 -0.00011493853 0.00016843616 -8.363619e-06
0.00018068675 0.0005548978 0.0005837637 -4.5269815e-05 0.00047750806 0.000477842 -0.0009888945 -0.00036814372
-0.00059901737 -3.20127e-05 -0.00026058336 0.00013083848 -0.00038811896 0.00022358465 -0.00016817747 -0.0005836452
-0.00017544092 -0.0003188784 -0.00015385164 -0.00053930166 0.0005172555 0.00040956444 0.00033383706 0.00025286502
-0.00045573837 0.00022948474 -0.00066601473 -0.00023668131 0.00042207655 0.00092688145 0.00032792054 -1.7900951e-05
0.00029304146 -0.00022658659 0.00025496318 0.0006092702 0.00029460815 0.00015003812 -0.00037399426 -0.00059145316
1.6003884e-05 9.345657e-05 -0.00018454554 -0.0003582091 2.9127736e-05 -0.00025427117 0.00089902006 -0.0003224745
0.0002153338 -0.00027905527 -0.00040904322 0.0001924015 -0.00040242248 -2.617509e-05 -0.00020681498 -0.00011373639
0.00032998057 0.00037333491 -0.0001266687 -0.0006636108 -0.0005480391 0.00016104121 -0.00015322493 0.00020844786
0.00013007979 0.0005460072 -8.296911e-05 0.00010155272 0.00029785102 0.00030834906 0.00036831494 0.00020027504
-0.00025004553 -0.00044142394 -0.00011583787 -0.00038688738 0.0004356125 0.0001293033 -0.00046200075 -0.00010963837
-0.0004011937 3.8561746e-05 -0.00084649306 -9.602583e-05 6.913053e-05 -0.00016827 -0.00044293946 7.196168e-05
7.192318e-05 0.00021360998 -0.0007204639 0.0002932302 -0.00029953395 -0.0005173467 0.00039553107 0.00055105233
0.00030710263 8.99853e-05 2.7320613e-05 -0.0008533288 1.55522e-05 -0.0005262566 -0.0005467867 -0.00042591215
1.8830513e-05 0.00037490565 0.0005976698 -0.0008310935 -0.0005273304 -3.6823298e-05 0.00010591351 0.0007246462
00000000: 5068 fcb9 a6df 2f38 ed16 4ab9 b1eb 20b9
00000010: 84ca 1f3a df18 5dba 48d4 283a 5fa9 8eb9
00000020: 0b18 d238 628e 0fba 4046 5b38 0040 02b6
00000030: 2010 7138 5c4e f039 d8eb 0539 88f2 8739
00000040: c0d1 d0b7 49bf 143a 7a85 4939 8abe 0d39
00000050: 693c f039 bbb8 063a 0a37 b939 c630 a239
00000060: 44a3 a138 c4da 3439 487b 9939 b882 0639
00000070: 5571 e2b9 042a 1f3a bcfe 5239 3969 fa39
00000080: 0075 5bb9 bc7b 0fba 5f9a d439 9c33 bf38
00000090: 5b54 5639 509b 5ab8 e116 6d38 266b 8fb9
000000a0: 01e2 6cba fedd 8f39 7e3f 16ba 282f aa39
000000b0: 48bf 593a c7e9 8539 003e 193a a083 1b38
000000c0: b047 81b7 02c5 54b9 252b 9cb9 7aa9 efb9
000000d0: 9857 3539 6963 9eb9 c0c2 eab8 06ed 1bb9
000000e0: c8d9 ca38 afaa 6cb9 caa2 9d39 ffd0 fd39
000000f0: 876d 1e39 189c cf38 bce7 c7b9 9021 5bb9
00000100: 708f 8939 512c 1f3a 0064 a6b5 406a d0b9
00000110: 8819 51b9 b8b5 8639 6824 36b9 b055 97b8
00000120: 23c2 8439 38e9 72b8 bfdf 1e3a c588 41ba
00000130: 4a49 05ba b827 e2b8 1c83 34b9 9c8b a3b8
00000140: d9b8 323a fc82 5db9 1878 2d39 3007 b938
00000150: 3096 05ba 7078 b2b8 752c 04ba 900a 9a38
00000160: 08ab 28b9 7888 f5b9 ac34 4039 fa04 b439
00000170: e663 f239 4a3c 58ba 2054 c339 00e8 f6b7
00000180: c06b 09ba f1bb 1bba f6e1 6039 606f 17b7
00000190: 290a f3b9 263d dc38 033d 12ba e421 24ba
000001a0: d08d 2839 7965 94b9 e0c1 6fb9 6c28 26ba
000001b0: 204c 8cb8 c99b 49ba 3e1c 4539 3220 3e39
000001c0: 4199 ab37 8448 01ba b0ca a6ba 5baa bdb8
000001d0: d5f7 1b3a 4848 88ba 66b6 1cba 0e86 7a39
000001e0: 7004 5fb8 94cc 073a 30fd 8138 fa48 8cb9
000001f0: ee0f 1f39 f577 a239 6457 ddb9 5592 e037
00000200: d943 0fb9 201e 4aba f845 e7b9 bcc7 3d39
00000210: 8637 34ba 99c1 37b9 6379 fbb9 a4da 7fb9
00000220: 1e46 ee39 b7cb ce38 fb5c 30b9 94bb 173a
00000230: 3c4a 17ba 270b f1b8 3d9e 3039 7851 0cb7
00000240: bb76 3d39 9076 113a b807 193a 18e0 3db8
00000250: 0c5a fa39 de86 fa39 cb9d 81ba 6a03 c1b9
00000260: 6007 1dba 6045 06b8 e89e 88b9 b031 0939
00000270: 727c cbb9 0c72 6a39 cc58 30b9 c4ff 18ba
00000280: 90f6 37b9 222f a7b9 3c53 21b9 ec5f 0dba
00000290: 6e98 073a cfba d639 da06 af39 f892 8439
000002a0: 2bf0 eeb9 d7a1 7039 7e97 2eba a82d 78b9
000002b0: 284a dd39 f6f9 723a c0ec ab39 002a 96b7
000002c0: 5ca3 9939 e097 6db9 94ac 8539 6eb7 1f3a
000002d0: a375 9a39 8d53 1d39 a914 c4b9 c00b 1bba
000002e0: 1440 8637 1dfe c338 9182 41b9 03ce bbb9
000002f0: 5657 f437 b34f 85b9 37ac 6b3a cb11 a9b9
00000300: 3acb 6139 2a4e 92b9 da74 d6b9 62bf 4939
00000310: 3bfc d2b9 9492 dbb7 79dc 58b9 c285 eeb8
00000320: 3e01 ad39 2abc c339 5fd2 04b9 2bf6 2dba
00000330: 48aa 0fba 2cdd 2839 01ab 20b9 cc92 5a39
00000340: 0766 0839 ec21 0f3a b4ff adb8 b4f8 d438
00000350: e328 9c39 e9a9 a139 651a c139 ec00 5239
00000360: 8b18 83b9 eb6e e7b9 fced f2b8 25d7 cab9
00000370: ec62 e439 9795 0739 b138 f2b9 a7ed e5b8
00000380: 4f57 d2b9 5cbd 2138 30e7 5dba 7a61 c9b8
00000390: 2cfa 9038 a271 30b9 543a e8b9 22ea 9638
000003a0: 77d5 9638 7efc 5f39 84dd 3cba b1bc 9939
000003b0: c40a 9db9 8d9e 07ba 485f cf39 7f74 103a
000003c0: 9e02 a139 7db6 bc38 922e e537 edb1 5fba
000003d0: 1876 8237 7cf4 09ba 3c56 0fba f64c dfb9
000003e0: 38f6 9d37 fc8e c439 f1ac 1c3a bedd 59ba
000003f0: 8b3c 0aba b772 1ab8 e21d de38 2ff6 3d3a

momentum_buffer f4 [32]
-0.0006139055 -0.010950112 -0.06463683 -0.0007651689 -0.0857711 -0.0043123965 0.009775645 0.0040484807
-0.012346832 -0.085200764 0.017412523 0.051398546 -0.0007354744 -0.0032407143 -0.0100849075 -0.0024701462
-0.016364746 -0.031117206 0.024085198 0.0046796678 0.089229025 -0.086011484 -0.07953562 0.00013156953
-0.015303641 0.00034808647 -0.00040981013 0.014046885 -0.0028422577 0.07808256 -0.0036959464 -0.0012889117
00000000: 80ee 20ba 1968 33bc 5060 84bd 9e95 48ba
00000010: c2a8 afbd 014f 8dbb 072a 203c 1ea9 843b
00000020: 5e4a 4abc bd7d aebd b5a4 8e3c 4887 523d
00000030: dacc 40ba 2a62 54bb 2b3b 25bc 2de2 21bb
00000040: 5c0f 86bc 83e9 febc 524e c53c e657 993b
00000050: b5bd b63d ca26 b0bd 92e3 a2bd edf5 0939
00000060: 1fbc 7abc 607f b639 c9db d6b9 e824 663c
00000070: 2c45 3abb c0e9 9f3d b137 72bb b3f0 a8ba

momentum_buffer f4 [64, 32, 3, 3]
-5.08282e-05 -0.0002768047 -1.7663451e-05 -0.00019682744 -6.4475125e-06 -7.436554e-05 0.00016113301 -0.00013425876
-9.742285e-05 -0.0018133749 -0.0016768037 -0.0019607658 -0.0016002763 -0.001971278 -0.0020239006 -0.0016399837
-0.0014971434 -0.0018610428 -0.0004834929 -0.00054210075 -0.0003074674 -4.4030254e-05 -0.00021825873 -0.00045127925
-2.736348e-05 3.9456332e-05 -0.0002793211 -0.00024027487 -0.00051415316 1.965386e-05 0.0001411783 0.00039634464
-0.00010969548 -0.00015458443 -0.00022501747 -0.0001275168 -0.0012153584 -0.0009197423 -0.0014923026 -0.00046630274
-0.0004672319 -0.0014495712 -0.00078715687 -0.0009852755 -0.00085996854 0.0004609696 5.0332786e-05 -0.00017217138
9.857543e-05 -0.00051961496 -0.00018332213 0.00030004143 -0.00011742056 5.8053323e-05 -1.5932546e-06 -0.00024137582
-0.00010525731 -0.0003634227 -0.00032213842 -0.0002987148 -0.00041938882 0.00011972956 0.00027174462 -0.00029478315
0.00033111963 -0.00038294116 0.00027768017 0.00017099509 0.00021324125 -0.0001775397 -0.00017347398 -0.00054249185
7.668209e-05 -5.6835906e-05 -0.00029374252 -0.0003602612 -0.00036274153 0.00036172557 -0.00018774686 0.0001056515
-0.00034152338 -0.0007481709 -0.00066781027 -0.0004617393 -0.0007229178 -8.274493e-05 -8.463681e-05 -0.0004274026
-0.00061617437 -0.00016983852 -0.0007988073 -0.0004640912 -0.0005358933 -0.0011350099 -0.0004204586 -0.0005289348
-0.00031967525 -0.00089697324 -0.0008573371 -0.0018165302 -0.0009575943 -0.001692857 -0.0011767581 -0.0017140531
-0.001267514 -0.0010965378 -0.0011701782 -0.0014246346 0.00027444717 -6.3005714e-06 -0.00039132062 0.00015385929
-0.0004105461 1.9545783e-05 8.056555e-05 -0.00050544017 -8.0492624e-05 -0.0003857903 -7.552283e-05 0.00021005164
-2.1787486e-05 0.00015918736 -0.0002463122 -0.00031490356 0.00014857479 5.355483e-06 0.0001439851 -0.0010858455
-0.0006473148 -0.00015474248 -0.00026130048 -0.0012601755 -0.0003284873 -0.000849925 -0.000771701 -0.0028695595
-0.0025765977 -0.003087968 -0.0028202485 -0.0026168237 -0.002557245 -0.0020957782 -0.0029544826 -0.0029211573
-0.00041208707 -0.0007529787 -0.00085633673 -0.00039656914 -0.00021113636 -0.0006930501 -2.9991714e-05 -0.0003791319
-0.0008111664 -0.00010958416 4.263014e-05 -0.0006743313 -0.0001500465 -0.00022326683 -0.0004431627 -0.000287739
-0.0004047697 -0.00028099434 -0.00021590362 4.6792313e-05 -0.00069987314 -0.00019266862 6.3435155e-06 0.00040241765
-0.00028562365 0.00021283556 -0.00033430435 -0.0008990464 5.2557807e-06 -0.00057507324 -0.00017017049 -0.00046600954
-0.00044015836 -0.00018177934 -0.0002893642 -0.00095555675 -0.00011700942 -0.00028708062 -0.00014258729 -0.0002569941
-0.00025204377 3.8110324e-05 -0.00027152654 -0.00073549617 -2.736743e-05 -0.00060512254 -0.0011956351 -0.0010923455
-0.00082785235 -0.00066282897 -0.0015086924 -0.0004347739 -0.0009236983 -0.0012069703 -0.0017126382 -0.0019215477
-0.0025797444 -0.0014121087 -0.0014328422 -0.0018384273 -0.0012948428 -0.0018387894 -0.0015146405 -0.00018200836
-1.8563958e-05 -0.00056814135 0.00022796543 -0.000485721 -0.0004029181 -0.00035133638 0.00028347527 0.00020951967
-0.00041685443 0.00028008086 -0.00020696792 0.00010920967 -0.00039559172 -0.0003807025 -1.29688415e-05 3.3257482e-05
-0.0006271899 -0.000103565944 -0.00047513406 6.332035e-06 0.00024471676 -0.00019143401 0.00036630192 0.00044975532
-0.0006680682 0.0002146478 -0.00013709589 0.00020935916 -0.00023818803 -0.00022480729 -0.000132534 -0.00016743448
9.420075e-05 0.00014429764 8.30866e-06 -0.0025735688 -0.0029423349 -0.0027768004 -0.0025196632 -0.002534367
-0.0029331306 -0.0023607272 -0.00258868 -0.0027702597 5.0135313e-05 -0.00036706674 -0.0006583326 -0.00014041322
00000000: 5d30 55b8 1920 91b9 f92b 94b7 7763 4eb9
00000010: b657 d8b6 b2f4 9bb8 d0f5 2839 d0c7 0cb9
00000020: 7f4f ccb8 c4ae edba 32c8 dbba 3180 00bb
00000030: 5dc0 d1ba 8f30 01bb 6ba3 04bb b9f4 d6ba
00000040: cc3b c4ba 3cee f3ba 527d fdb9 c41b 0eba
00000050: 9333 a1b9 20ad 38b8 62dc 64b9 ad99 ecb9
00000060: a08a e5b7 ea7d 2538 d871 92b9 4bf2 7bb9
00000070: 3cc8 06ba 58de a437 4309 1439 7acc cf39
00000080: 500c e6b8 f117 22b9 abf2 6bb9 08b6 05b9
00000090: a94c 9fba dc1a 71ba 5e99 c3ba 187a f4b9
000000a0: cef6 f4b9 8aff bdba 3459 4eba 5c24 81ba
000000b0: 836f 61ba 4bae f139 6b1c 5338 e788 34b9
000000c0: 48ba ce38 c536 08ba 293a 40b9 e14e 9d39
000000d0: af3f f6b8 487e 7338 d0d7 d5b5 d419 7db9
000000e0: 97bd dcb8 c589 beb9 b0e4 a8b9 d29c 9cb9
000000f0: 6ae1 dbb9 5117 fb38 f278 8e39 208d 9ab9
00000100: 209a ad39 7ec5 c8b9 9a95 9139 254d 3339
00000110: 8399 5f39 f329 3ab9 91e6 35b9 0336 0eba
00000120: 62d0 a038 1763 6eb8 7401 9ab9 71e1 bcb9
00000130: 582e beb9 fca5 bd39 eadd 44b9 3891 dd38
00000140: 7e0e b3b9 e620 44ba fd0f 2fba 9a15 f2b9
00000150: 3182 3dba 5987 adb8 0b7f b1b8 0215 e0b9
00000160: c386 21ba ae16 32b9 0d67 51ba 4451 f3b9
00000170: 317b 0cba 9dc4 94ba ff70 dcb9 37a8 0aba
00000180: 169a a7b9 db22 6bba ebbe 60ba a418 eeba
00000190: 1107 7bba dbe2 ddba 733d 9aba 14aa e0ba
000001a0: b622 a6ba b4b9 8fba aa60 99ba ceba baba
000001b0: ade3 8f39 7f69 d3b6 2a2a cdb9 4a55 2139
000001c0: 913e d7b9 40f6 a337 4df5 a838 847f 04ba
000001d0: 26ce a8b8 e643 cab9 0362 9eb8 4f41 5c39
000001e0: 45c4 b6b7 88eb 2639 7723 81b9 a419 a5b9
000001f0: beca 1b39 40b3 b336 b5fa 1639 ee52 8eba
00000200: 90b0 29ba 5e42 22b9 28ff 88b9 792c a5ba
00000210: d238 acb9 80cd 5eba fa4b 4aba 380f 3cbb
00000220: 23dc 28bb 825f 4abb ebd3 38bb 047f 2bbb
00000230: 7497 27bb 5359 09bb fe9f 41bb e370 3fbb
00000240: 640d d8b9 8c63 45ba c97b 60ba 9cea cfb9
00000250: 7c64 5db9 cead 35ba b796 fbb7 39c6 c6b9
00000260: 75a4 54ba 8cd0 e5b8 c4cd 3238 9cc5 30ba
00000270: cd55 1db9 bc1c 6ab9 4a58 e8b9 addb 96b9
00000280: 4537 d4b9 6c52 93b9 3064 62b9 dd42 4438
00000290: b177 37ba 1707 4ab9 62da d436 95fb d239
000002a0: c2bf 95b9 9c2c 5f39 9245 afb9 fcad 6bba
000002b0: d05a b036 83c0 16ba cb6f 32b9 be52 f4b9
000002c0: 0ec5 e6b9 059c 3eb9 ceb5 97b9 547e 7aba
000002d0: f462 f5b8 4f83 96b9 7c83 15b9 2abd 86b9
000002e0: be24 84b9 a6d8 1f38 ad5b 8eb9 50ce 40ba
000002f0: 1c93 e5b7 16a1 1eba dbb6 9cba 082d 8fba
00000300: 3b04 59ba b3c1 2dba 51bf c5ba 5df2 e3b9
00000310: 5824 72ba 3433 9eba 9a7a e0ba 71dc fbba
00000320: ee10 29bb 8116 b9ba 35ce bbba 62f7 f0ba
00000330: b7b7 a9ba 8903 f1ba e786 c6ba 7fd9 3eb9
00000340: ccb9 9bb7 52ef 14ba 010a 6f39 5ea8 feb9
00000350: c03e d3b9 9233 b8b9 689f 9439 82b2 5b39
00000360: 418d dab9 d1d7 9239 8705 59b9 7f07 e538
00000370: 6c67 cfb9 0699 c7b9 c094 59b7 f37d 0b38
00000380: 006a 24ba 8b31 d9b8 6a1b f9b9 c477 d436
00000390: 544d 8039 adbb 48b9 360c c039 23cd eb39
000003a0: 4c21 2fba 1413 6139 66c1 0fb9 6c87 5b39
000003b0: 1dc2 79b9 3fba 6bb9 d3f8 0ab9 5a91 2fb9
000003c0: a48d c538 9a4e 1739 6c65 0b37 52a9 28bb
000003d0: 30d4 40bb fbfa 35bb ef20 25bb 9f17 26bb
000003e0: c439 40bb 6eb6 1abb d8a6 29bb 3f8d 35bb
000003f0: 6248 5238 dd72 c0b9 f493 2cba e33b 13b9

momentum_buffer f4 [64]
-0.002024959 -0.009902332 0.0006393341 -0.0033936896 -0.0066533685 0.00022437301 -0.0013670166 -0.00022292556
-0.0016190346 0.008152776 0.00072394585 -0.006710109 0.004097906 0.008034444 0.012937975 -0.017334452
-0.0257818 0.049240608 0.012529343 -0.01009609 -0.011230107 0.009210683 -0.04536379 -0.012978088
0.0022844756 -0.0023772516 -0.012377542 0.01786023 9.862007e-05 -0.0025573687 -0.015659839 -0.00019201836
0.022299193 -0.0009990537 0.026041145 -0.011089033 0.0009809023 -0.0070470804 -0.0047005443 0.027581716
-0.01372669 4.1553176e-05 -0.010308519 -0.011719156 -0.048534833 0.021266233 0.00029173243 -0.001667257
-0.010365267 0.007609138 0.0015576321 -4.1529252e-05 -0.00063058623 -0.04487035 0.018534807 -0.0039639776
-0.0029598905 -0.00013528731 -0.00068433146 0.016615117 -0.0005968222 0.0070560807 -0.0149575705 0.011141824
00000000: 2db5 04bb 643d 22bc fc98 273a aa68 5ebb
00000010: 8004 dabb ac45 6b39 772d b3ba 20c1 69b9
00000020: c935 d4ba 3993 053c 2fc7 3d3a 79e0 dbbb
00000030: ba47 863b e7a2 033c cdf9 533c fb00 8ebc
00000040: 5a34 d3bc 85b0 493d e047 4d3c 126a 25bc
00000050: 7cfe 37bc 68e8 163c 62cf 39bd 0ca2 54bc
00000060: 24b7 153b aacb 1bbb 2dcb 4abc 9e4f 923c
00000070: 3fd2 ce38 8799 27bb 1049 80bc 8958 49b9
00000080: ccac b63c aef2 82ba 3d54 d53c c7ae 35bc
00000090: 9f91 803a 32eb e6bb 0607 9abb 0df3 e13c
000000a0: e9e5 60bc 6249 2e38 10e5 28bc b401 40bc
000000b0: 76cc 46bd 8636 ae3c aaf3 9839 dd87 daba
000000c0: 15d3 29bc 1356 f93b 7629 cc3a b22f 2eb8
000000d0: ed4d 25ba f9c9 37bd 4fd6 973c 41e4 81bb
000000e0: b9fa 41bb e9db 0db9 b564 33ba 6d1c 883c
000000f0: 0f74 1cba b236 e73b 9910 75bc 328c 363c

momentum_buffer f4 [64, 64, 3, 3]
-0.00034680552 -7.8342404e-05 9.936243e-05 0.0002540053 0.00042831528 0.00013709521 0.00027616642 7.6451346e-05
0.00026874448 -0.00023052472 -3.4205663e-05 -0.000613884 0.00020915753 -0.00052357686 -0.0007007795 -3.4945275e-05
-0.00069679547 -0.00057320483 0.0002966519 0.00022722143 6.996607e-05 0.0004968394 6.202451e-05 -0.00023736773
-8.477068e-05 6.002202e-05 -0.00016785253 0.00032791423 0.0005417271 8.961988e-06 -0.00054593064 -0.00060295855
-0.00061168097 -2.746531e-05 -0.00019637877 -7.7185454e-05 0.00083293644 -0.00035473242 -0.0004187742 -4.665565e-05
-1.6364698e-05 -0.00027216258 -0.00016896137 -0.0003577931 -0.00047444823 -0.00025347096 4.2746724e-05 4.9659488e-05
0.00029760823 0.00023078414 -0.00030346977 0.00022135623 -0.0003333112 8.181035e-05 -0.0011776112 -0.0007520062
-0.0003673842 -0.0008719236 -0.0007955761 -0.0007303421 -0.00054074696 -0.0003510158 -0.0008257144 0.00014839185
-0.00012449623 -0.00016610527 0.0004796464 -0.00022311803 -7.7676064e-05 -2.3216226e-05 0.00024835527 3.5128705e-05
-0.000106944426 -0.00029049726 0.0005420034 0.000343824 -0.00066184864 -0.0003122192 0.0004324805 0.00040399065
0.0002687215 0.00033351232 -0.00026704694 -0.00023286535 5.9728358e-05 -0.0002060241 0.0002659991 2.3800862e-05
-2.5692667e-05 -0.00022130886 -0.000112804075 0.00014710515 0.00011800957 0.00034143837 9.796681e-05 -0.00013450744
-7.347298e-05 0.00017714888 0.0004090538 0.000286944 -0.00016733356 0.00017788813 0.00018093649 0.00030787932
-0.000970449 -0.0007438212 6.543758e-06 -0.00044997712 0.0009805912 0.00047674967 -0.0002769054 0.00076998415
0.00012245662 -0.0004370842 0.00080058136 -0.00029221282 0.0002634159 0.0011368974 -0.00016861799 4.1325202e-05
0.0002501829 4.20337e-06 -0.00027500812 0.00039676667 0.00027710307 0.000557783 0.00042020215 7.1724164e-05
5.6679783e-06 0.00021318668 0.00012177621 -0.0002635903 0.00034438184 3.5220066e-05 0.00014086171 -7.337569e-05
4.5821835e-05 0.00012093368 3.4883054e-05 3.466962e-05 0.00038110252 -6.824118e-05 -9.38847e-05 0.00016904868
0.0001401698 0.00037788838 0.00033265437 0.0009067879 0.00044325943 0.00031181436 -3.245901e-05 0.00017492234
0.00046414032 0.0005498253 0.00023831177 0.00019345236 -0.00011965749 -0.00013234436 3.4423047e-05 -0.00030644756
0.00012729134 -0.00024617254 -2.545151e-05 0.00016205871 0.00045380308 -0.00021113936 -9.820462e-05 0.00045759993
0.00027880454 0.00026275392 -0.0001503474 -0.0005995476 -0.00046930663 -0.0007205119 -0.00037860853 -0.0003754115
-0.00094321655 -0.00048916554 -0.001004591 -0.000400914 0.0007268638 0.0007582941 -0.000100513964 0.0006458726
0.00021767723 0.00015924887 0.0006182729 0.00020216632 0.00027419714 0.0005043489 0.00031609088 -0.00030907063
0.0007500697 -0.00024116576 0.00036584324 -9.375223e-05 -0.00013176753 -0.00032413492 -0.000154653 -0.00051282754
7.233405e-05 0.0001798428 -0.000118938784 0.0001165362 3.456034e-05 3.360773e-05 0.00019240753 8.147639e-05
0.0002532564 0.00029686932 1.333466e-05 0.00024902544 -1.3553602e-05 0.00026641693 -0.00048635347 0.0006223584
0.00021839874 -0.00011605632 4.2154825e-05 -0.0003342631 0.0004215332 -0.00011375542 -0.00014946307 0.00019309245
0.00018674212 0.0002727188 0.00032331137 0.00046612433 0.00023780597 0.00022740083 -0.00051164755 0.00031806488
0.00042036545 -9.0204914e-05 0.0001495792 0.00021786026 0.00043398803 -3.0637257e-06 0.00033380077 0.0002991237
0.0003601588 0.00018337982 0.00085334055 -0.000115864255 0.00030419944 -0.00013653735 1.0435619e-05 0.00022150142
0.00019571136 -8.431807e-05 -0.00019773858 9.1549045e-05 0.00035929042 0.00015256523 0.00026964257 7.526659e-05
00000000: 73d3 b5b9 c24b a4b8 cc60 d038 042c 8539
00000010: 818f e039 37c1 0f39 6eca 9039 8154 a038
00000020: 46e6 8c39 02b9 71b9 0d78 0fb8 0fed 20ba
00000030: 4c51 5b39 a640 09ba 84b4 37ba 3492 12b8
00000040: 27a9 36ba 2043 16ba f287 9b39 4a42 6e39
00000050: bfba 9238 543e 023a 2813 8238 eae5 78b9
00000060: eac6 b1b8 27c0 7b38 9201 30b9 e7eb ab39
00000070: b102 0e3a 725b 1637 c91c 0fba dd0f 1eba
00000080: 3759 20ba 4e65 e6b7 06eb 4db9 a0de a1b8
00000090: 6b59 5a3a 61fb b9b9 ec8e dbb9 1fb0 43b8
000000a0: ec46 89b7 0bb1 8eb9 392b 31b9 2d96 bbb9
000000b0: 5dbf f8b9 4ce4 84b9 f24a 3338 7849 5038
000000c0: 4d08 9c39 a5fe 7139 061b 9fb9 dc1b 6839
000000d0: 46c0 aeb9 9991 ab38 135a 9aba 4822 45ba
000000e0: 799d c0b9 cd91 64ba 358e 50ba 6e74 3fba
000000f0: eac0 0dba 8b08 b8b9 c174 58ba a299 1b39
00000100: 348b 02b9 8b2c 2eb9 0d79 fb39 caf4 69b9
00000110: 05e6 a2b8 77c0 c2b7 ae35 8239 2957 1338
00000120: 5a47 e0b8 e24d 98b9 3c15 0e3a 4743 b439
00000130: e97f 2dba 5ab1 a3b9 8dbe e239 b5ce d339
00000140: 30e3 8c39 44db ae39 6f02 8cb9 512d 74b9
00000150: d684 7a38 2c08 58b9 cb75 8b39 f6a7 c737
00000160: 9586 d7b7 250f 68b9 3a91 ecb8 3d40 1a39
00000170: e87b f738 1503 b339 8873 cd38 910a 0db9
00000180: 8115 9ab8 0ac1 3939 4676 d639 f970 9639
00000190: 4376 2fb9 7b87 3a39 c5b9 3d39 dd6a a139
000001a0: bb65 7eba fffc 42ba 7492 db36 e8ea ebb9
000001b0: 2e87 803a 42f4 f939 9d2d 91b9 c3d8 493a
000001c0: b367 0039 7328 e5b9 1bde 513a 2434 99b9
000001d0: 151b 8a39 f203 953a 0ccf 30b9 9954 2d38
000001e0: fb2a 8339 ac0a 8d36 f72e 90b9 1f05 d039
000001f0: 2548 9139 2f38 123a 944e dc39 9e6a 9638
00000200: 902f be36 dd8a 5f39 1b62 ff38 7e32 8ab9
00000210: 268e b439 42b9 1338 47b4 1339 46e1 99b8
00000220: d230 4038 c69d fd38 654f 1238 396a 1138
00000230: b7ce c739 b41c 8fb8 f7e3 c4b8 a942 3139
00000240: 8bfa 1239 521f c639 1d68 ae39 81b5 6d3a
00000250: 4665 e839 047b a339 9924 08b8 5c6b 3739
00000260: dc57 f339 2722 103a 54e3 7939 79d9 4a39
00000270: a0f0 fab8 ebc5 0ab9 7761 1038 b2aa a0b9
00000280: 8279 0539 b810 81b9 b480 d5b7 4eee 2939
00000290: 6bec ed39 4a65 5db9 34f3 cdb8 06ea ef39
000002a0: 832c 9239 3cc2 8939 93a6 1db9 f52a 1dba
000002b0: 450d f6b9 bce0 3cba fa7f c6b9 e1d2 c4b9
000002c0: 3142 77ba 583b 00ba 7bac 83ba c431 d2b9
000002d0: 018b 3e3a 41c8 463a 06cb d2b8 c74f 293a
000002e0: 4940 6439 0bfc 2639 9813 223a 9cfc 5339
000002f0: 1ec2 8f39 4836 043a 00b9 a539 c20a a2b9
00000300: 53a0 443a 71e1 7cb9 a6ce bf39 d89c c4b8
00000310: 142b 0ab9 a7f0 a9b9 592a 22b9 466f 06ba
00000320: 0cb2 9738 2f94 3c39 c66e f9b8 e564 f438
00000330: e2f4 1038 06f6 0c38 01c1 4939 4ede aa38
00000340: 80c7 8439 20a5 9b39 eeb7 5f37 a18f 8239
00000350: 4764 63b7 e0ad 8b39 42fd feb9 c425 233a
00000360: f701 6539 4363 f3b8 66cf 3038 0940 afb9
00000370: 3a01 dd39 fa8f eeb8 30b9 1cb9 dc78 4a39
00000380: 35d0 4339 b3fb 8e39 1e82 a939 2662 f439
00000390: 8e5b 7939 7272 6e39 1620 06ba f2c1 a639
000003a0: 7f64 dc39 652c bdb8 5cd8 1c39 6b71 6439
000003b0: e388 e339 689a 4db6 fb01 af39 b4d3 9c39
000003c0: b2d3 bc39 a549 4039 b7b2 5f3a 26fc f2b8
000003d0: f57c 9f39 772b 0fb9 a414 2f37 d642 6839
000003e0: de37 4d39 ebd3 b0b8 0c58 4fb9 05fe bf38
000003f0: 255f bc39 ebf9 1f39 d05e 8d39 71d8 9d38

momentum_buffer f4 [64]
0.00019641503 -0.0035952996 -0.0065351906 -0.0026387095 -0.0014710284 0.016335294 -0.004738137 0.0024521633
-0.004200577 0.006779923 0.00016816793 0.008281282 -0.0011230345 -0.012543301 0.0042455215 -0.00019670819
-0.008727802 0.00011586944 0.0061441646 -0.00046417865 -0.00015365802 -0.0040059565 0.0039555756 0.0047822213
0.0064098574 -0.011838029 0.0003222099 0.010201955 -5.3473355e-05 0.0008779281 0.001702988 0.00648324
-0.013057915 -0.0017315827 0.011494469 -0.0014093043 -0.0008291772 -0.012317438 -0.005362614 -0.0008727356
-0.007321212 0.011391441 8.697722e-05 -0.016832223 -0.010152344 -0.013502456 -0.00021685062 0.0032815114
-0.00015111429 -0.0005381595 0.011855185 -0.004339147 1.1710313e-05 0.009660542 0.001563357 0.00073373783
-0.0042926273 -9.740121e-05 -0.00017553374 -0.0005915895 -0.011100905 0.007495925 -0.004920567 0.004463346
00000000: c2f4 4d39 1e9f 6bbb 2725 d6bb 33ee 2cbb
00000010: 86cf c0ba 98d1 853c 6042 9bbb 79b4 203b
00000020: fea4 89bb 1e2a de3b 3c56 3039 37ae 073c
00000030: c932 93ba 6b82 4dbc 041e 8b3b 7443 4eb9
00000040: 0eff 0ebc effe f238 fd54 c93b 015d f3b9
00000050: 431f 21b9 6644 83bb c69d 813b 2eb4 9c3b
00000060: c809 d23b 4bf4 41bc 48ee a839 1a26 273c
00000070: 9448 60b8 c224 663a cc36 df3a 5c71 d43b
00000080: ddf0 55bc 46f6 e2ba 4c53 3c3c 68b8 b8ba
00000090: 245d 59ba 14cf 49bc deb8 afbb 4bc8 64ba
000000a0: c7e6 efbb 2ba3 3a3c 8a67 b638 bbe3 89bc
000000b0: 0456 26bc 6839 5dbc 6562 63b9 a00e 573b
000000c0: 6f74 1eb9 4613 0dba 403c 423c 672f 8ebb
000000d0: 6977 4437 4047 1e3c 8ee9 cc3a 5058 403a
000000e0: 2ba9 8cbb e043 ccb8 7b0f 38b9 e614 1bba
000000f0: 92e0 35bc 60a0 f53b b53c a1bb 4341 923b

momentum_buffer f4 [1, 64]
0.004412446 -0.014651622 -0.06669256 -0.019437164 -0.011336064 -0.09149047 -0.10324917 -0.050760716
-0.021743344 -0.060040366 0.0005190584 -0.03547824 -0.008122655 -0.070295595 -0.091972806 0.0024185793
-0.12122854 -0.0006467905 -0.10376024 -0.10732659 -0.00043355353 -0.025108319 -0.046696495 -0.031414133
-0.028036326 -0.10568548 -0.017723834 -0.065022185 0.0008340574 -0.044633992 -0.008212168 -0.02445963
-0.08235271 -0.014364218 -0.051870205 -0.0039767004 -0.0036283447 -0.070697054 -0.05004808 -0.0027521977
-0.06397725 -0.04480436 -0.0102264155 -0.19334537 -0.09775215 -0.10400197 7.572455e-05 -0.045999687
0.000903585 -0.0019913702 -0.05510869 -0.0358039 0.0004686968 -0.027448667 -0.016279705 0.0037066971
-0.028003484 -0.0004253663 -0.00018587026 0.004440056 -0.062101442 -0.04584463 -0.036689166 -0.042768937
00000000: 4896 903b 5b0d 70bc 1c96 88bd b03a 9fbc
00000010: e6ba 39bc 5b5f bbbd 4d74 d3bd 78ea 4fbd
00000020: 191f b2bc e3ec 75bd 6b11 083a a251 11bd
00000030: e214 05bc 23f7 8fbd 3d5c bcbd 0781 1e3b
00000040: ab46 f8bd 608d 29ba 4080 d4bd 0bce dbbd
00000050: 924e e3b9 f6af cdbc d344 3fbd 1bac 00bd
00000060: 70ac e5bc a171 d8bd 9331 91bc 5a2a 85bd
00000070: a5a4 5a3a 22d2 36bd 548c 06bc 905f c8bc
00000080: 8aa8 a8bd e657 6bbc da75 54bd fb4e 82bb
00000090: 86c9 6dbb 9ec9 90bd 37ff 4cbd 375e 34bb
000000a0: 8106 83bd c784 37bd b28c 27bc 54fc 45be
000000b0: 4732 c8bd fcfe d4bd 4fce 9e38 2b6a 3cbd
000000c0: 90de 6c3a a681 02bb a6b9 61bd 1ca7 12bd
000000d0: 6bbb f539 07dc e0bc 045d 85bc 0fec 723b
000000e0: 9067 e5bc b303 dfb9 2be6 42b9 e47d 913b
000000f0: 155e 7ebd 94c7 3bbd 6147 16bd 7b2e 2fbd

bn0.weight f4 [3]
1.1181681 1.0078279 1.0910866
00000000: 2220 8f3f 8100 813f baa8 8b3f

bn0.bias f4 [3]
0.040291693 -0.22826436 -0.02933135
00000000: e708 253d 22be 69be 4d48 f0bc

bn0.running_mean f4 [3]
0.48468104 0.44444665 0.40641224
00000000: 1d28 f83e 838e e33e 4415 d03e

bn0.running_var f4 [3]
0.06448951 0.059729297 0.060548864
00000000: 1413 843d b5a6 743d 1602 783d

conv1.weight f4 [32, 3, 5, 5]
0.027922612 0.018038621 0.05364787 -0.038486447 -0.020799087 0.0484479 0.04296914 0.08406545
0.05186512 0.0739038 0.03089852 -0.0034958073 -0.024020914 -0.018908652 0.019949384 0.13456783
-0.028860861 -0.071493044 -0.05018324 -0.05616172 -0.03150047 -0.04295412 0.08229823 -0.04485549
-0.00021087745 0.030504445 0.050200056 -0.014316185 0.042955756 -0.023507949 0.14783551 -0.046897724
0.06835647 -0.011447315 0.035915066 0.0014310193 -0.00036148354 0.08213907 -0.07890043 -0.06584899
0.07081029 -0.09389937 0.01624292 0.0062798127 -0.056388766 -0.026946623 -0.04206292 0.01101028
-0.097997926 -0.04308064 0.09301205 -0.07562105 0.009240162 0.05342681 -0.018207053 -0.03396799
-0.065698795 0.0322029 -0.033084635 0.03636718 -0.035812363 -0.07385902 0.06978474 -0.054590695
-0.05949696 -0.021975838 0.027906133 -0.12890749 -0.008576713 -0.09098079 -0.0490057 0.0012735397
-0.022101676 -0.07069124 -0.007757312 0.121657126 0.029288068 0.014333459 0.07045231 0.054528218
-0.014758413 -0.013506665 0.039963555 0.0027703566 -0.08027157 0.012983467 0.0033041066 0.030393345
-0.02519376 0.0080013955 -0.0067417827 0.027130134 0.01006175 -0.003140153 0.046147015 0.0052025435
-0.068156086 0.0004753301 -0.047881667 -0.04024653 -0.017777972 0.033453453 -0.040354893 0.009499768
-0.024248851 0.000855883 0.010900475 -0.026544847 0.072904915 -0.120652944 0.03339178 0.045525335
-0.0057712304 0.020933485 -0.04681656 -0.012313789 -0.03111176 -0.021269724 0.059242338 -0.017685594
-0.04196544 0.07782463 0.049493104 0.05030338 -6.8380155e-05 0.0704659 -0.02883371 0.012422538
0.07840356 -0.036488816 0.08877731 0.067810774 -0.048086826 -0.00018855442 -0.03432159 0.017378021
0.075908005 -0.026151536 0.034653287 -0.034482006 -0.005533409 0.02404743 0.041606065 0.029725034
-0.0026227024 0.106621824 0.02054392 0.08092391 -0.03443969 -0.10011299 -0.022483742 0.04367236
-0.0008425123 0.007347251 0.032115422 0.021629976 0.08665589 -0.116917424 -0.083093755 -0.024946487
-0.010253112 -0.024633428 -0.06923153 -0.05466396 -0.03185025 0.07809543 0.15526915 0.09496195
0.018533854 -0.08118412 -0.110328004 0.06859298 0.026520336 0.030590396 -0.01526009 0.057764474
-0.03445074 -0.009224446 -0.083216645 0.10722185 -0.034484047 0.041142993 -0.048008233 -0.01658132
-0.059382733 0.012061687 0.07223625 -0.06157997 -0.0067296526 -0.040924158 0.042311735 -0.010833897
0.004718131 -0.025907028 0.029852305 0.04653765 0.032005858 0.06656035 -0.05783848 -0.07315804
0.1143442 0.13164389 0.035957616 -0.0012317233 -0.03339822 0.027584141 0.02081916 0.00985121
0.032946892 -0.12519273 0.051158775 0.06268528 -0.09818789 0.016457079 -0.019382201 0.039298538
-0.020357814 -0.03667127 -0.07485712 -0.055767782 0.032738365 -0.005902702 -0.00622768 -0.040482633
-0.021368178 -0.012151909 -0.08849856 -0.1159965 0.02103031 0.023289118 0.08131445 -0.10217251
0.066794224 0.0007597651 -0.01284303 0.025821213 -0.05371162 0.01893692 -0.0037559606 -0.0009309016
0.025997702 -0.007113765 -0.015005091 -0.035129994 -0.114431635 0.021731261 -0.046379857 -0.0026957365
-0.009572597 0.028493395 0.044174828 -0.048680294 -0.0048578936 -0.02752512 0.0044305082 0.011467666
00000000: f6bd e43c bbc5 933c debd 5b3d f7a3 1dbd
00000010: d962 aabc 4e71 463d 6900 303d 822a ac3d
00000020: 8570 543d e05a 973d e51e fd3c ea19 65bb
00000030: 82c7 c4bc 51e6 9abc e46c a33c 26cc 093e
00000040: 9d6d ecbc f26a 92bd f18c 4dbd d509 66bd
00000050: a306 01bd a9f0 2fbd f98b a83d 64ba 37bd
00000060: fc1e 5db9 75e4 f93c 939e 4d3d 6f8e 6abc
00000070: 60f2 2f3d be93 c0bc 3162 173e d417 40bd
00000080: 7afe 8b3d 858d 3bbc ad1b 133d 0a91 bb3a
00000090: 8085 bdb9 8738 a83d 8c96 a1bd d6db 86bd
000000a0: fc04 913d 504e c0bd df0f 853c e3c6 cd3b
000000b0: e8f7 66bd 2abf dcbc 2b4a 2cbd 7664 343c
000000c0: 23b3 c8bd 5375 30bd 1a7d be3d 36df 9abd
000000d0: 0c64 173c 12d6 5a3d f526 95bc 0522 0bbd
000000e0: 178d 86bd 30e7 033d c183 07bd c1f5 143d
000000f0: fcaf 12bd 6643 97bd 4deb 8e3d 7e9a 5fbd
00000100: 16b3 73bd ac06 b4bc 679b e43c 5300 04be
00000110: 5785 0cbc 2354 babd 33ba 48bd e7ec a63a
00000120: 930e b5bc 92c6 90bd 0d31 febb 5f27 f93d
00000130: 88ed ef3c e2d6 6a3c 4d49 903d fb58 5f3d
00000140: 45cd 71bc 0f4b 5dbc d3b0 233d df8e 353b
00000150: 6c65 a4bd 9cb8 543c b689 583b 77fb f83c
00000160: 2563 cebc 4918 033c 2cea dcbb 0440 de3c
00000170: 0ada 243c 06cb 4dbb a704 3d3d 197a aa3b
00000180: 6b95 8bbd ba35 f939 911f 44bd 8cd9 24bd
00000190: 1ca3 91bc 7d06 093d 2c4b 25bd eaa4 1b3c
000001a0: 87a5 c6bc 565d 603a e897 323c 9474 d9bc
000001b0: 2c4f 953d e418 f7bd d2c5 083d c678 3a3d
000001c0: 971c bdbb b37c ab3c b9c2 3fbd c6bf 49bc
000001d0: 17de febc d83d aebc 18a8 723d 61e1 90bc
000001e0: f4e3 2bbd 8562 9f3d 48b9 4a3d eb0a 4e3d
000001f0: 5167 8fb8 6d50 903d ac34 ecbc e787 4b3c
00000200: 0c92 a03d 4c75 15bd e1d0 b53d 60e0 8a3d
00000210: b1f6 44bd b1b6 45b9 cc94 0cbd 5a5c 8e3c
00000220: a875 9b3d bf3b d6bc 9bf0 0d3d 013d 0dbd
00000230: 9951 b5bb 1eff c43c 1f6b 2a3d ea81 f33c
00000240: a5e1 2bbb 8b5c da3d b94b a83c 6fbb a53d
00000250: a210 0dbd 0a08 cdbd d32f b8bc cae1 323d
00000260: 0bdc 5cba 35c1 f03b 768b 033d 5931 b13c
00000270: a578 b13d 6772 efbd 0f2d aabd 935c ccbc
00000280: abfc 27bc 0bcc c9bc 43c9 8dbd 51e7 5fbd
00000290: 6875 02bd 7ff0 9f3d e0fe 1e3e 697b c23d
000002a0: 4fd4 973c dc43 a6bd a6f3 e1bd 7a7a 8c3d
000002b0: 2d41 d93c b698 fa3c 7505 7abc 719a 6c3d
000002c0: 381c 0dbd 2122 17bc 7d6d aabd 2197 db3d
000002d0: 253f 0dbd 8e85 283d 48a4 44bd 8cd5 87bc
000002e0: 4f3b 73bd 629e 453c 99f0 933d 473b 7cbd
000002f0: 6b84 dcbb 17a0 27bd 124f 2d3d a880 31bc
00000300: 8d9a 9a3b fa3a d4bc d28c f43c 439e 3e3d
00000310: 9318 033d cb50 883d 0be8 6cbd e2d3 95bd
00000320: 4b2d ea3d a8cd 063e 4b48 133d c771 a1ba
00000330: 92cc 08bd 23f8 e13c f18c aa3c f866 213c
00000340: 52f3 063d 8632 00be dd8b 513d 2461 803d
00000350: bc16 c9bd ffd0 863c 6cc7 9ebc 81f7 203d
00000360: 6ec5 a6bc 9d34 16bd b14e 99bd c26c 64bd
00000370: aa18 063d 746b c1bb 9111 ccbb 1ed1 25bd
00000380: 510c afbc cd18 47bc bc3e b5bd 938f edbd
00000390: c247 ac3c d2c8 be3c 3188 a63d d23f d1bd
000003a0: 69cb 883d f92a 473a 926b 52bc 0287 d33c
000003b0: b700 5cbd 9a21 9b3c 9026 76bb c007 74ba
000003c0: 22f9 d43c 961a e9bb ead7 75bc 78e4 0fbd
000003d0: 225b eabd c205 b23c cef8 3dbd f4aa 30bb
000003e0: 62d6 1cbc fb6a e93c aaf0 343d fd64 47bd
000003f0: f72e 9fbb 5c7c e1bc cc2d 913b e1e2 3b3c

conv1.bias f4 [32]
0.0048313937 0.10857271 0.0021869591 -0.033064518 0.027180469 0.09320172 -0.044338144 0.07615835
-0.01576268 0.06945869 0.0043713064 0.036782056 -0.1286004 -0.08349483 0.036034595 0.044108585
-0.05003504 0.0079982625 0.10835987 0.014824586 -0.098645225 0.036883183 0.013754734 -0.006670903
-0.08543594 -0.0319595 0.062398348 0.06511291 0.048951846 0.061679333 0.0047284192 0.011960976
00000000: ab50 9e3b 5e5b de3d 1653 0f3b a96e 07bd
00000010: 93a9 de3c 8be0 be3d ea9b 35bd e9f8 9b3d
00000020: bc20 81bc 5c40 8e3d 2d3d 8f3b c8a8 163d
00000030: d3af 03be 56ff aabd 0399 133d 34ab 343d
00000040: 8bf1 4cbd 250b 033c c8eb dd3d d2e2 723c
00000050: 8206 cabd d212 173d 895b 613c 9797 dabb
00000060: 0af9 aebd f7e7 02bd 6995 7f3d eb59 853d
00000070: bb81 483d 78a3 7c3d dbf0 9a3b f8f7 433c

conv2.weight f4 [32, 32, 3, 3]
-0.108074725 0.00068928406 -0.058993243 -0.033982072 0.123485625 -0.18317576 0.1294978 -0.048047893
0.008396394 -0.092322424 0.031159079 -0.02300481 0.04094912 0.12224921 0.011076069 0.08150625
0.023671396 0.10121438 0.030667974 0.03308272 0.04991498 0.11083299 0.08836653 0.031021716
0.028068297 0.05226137 0.030836517 0.021226548 -0.089030765 0.12355097 0.03406357 0.09088214
-0.043292228 -0.11704887 0.07454064 0.015408014 0.03792034 -0.0011743922 0.001819843 -0.057214495
-0.17402619 0.043526582 -0.11995527 0.06809058 0.15103473 0.05417956 0.10241403 -0.0125730075
0.0023287523 -0.051452663 -0.07876849 -0.08767334 0.026265392 -0.076713555 -0.031421755 -0.04728366
0.0023484058 -0.04746208 0.051222965 0.08589032 0.029692993 0.015089252 -0.08205522 -0.021783868
0.052073874 0.112983905 0.024726065 -0.073893055 -0.043106664 0.054560214 -0.04658332 -0.034306183
0.04604421 -0.026862103 0.10123185 -0.14487988 -0.10531375 -0.030687047 -0.030253643 -0.01676612
0.13125344 -0.0291828 0.05325528 0.033485476 -0.08703066 0.0032991327 -0.080018885 0.022890346
-0.019497469 -0.08123543 0.035943985 0.077016324 0.08355666 -0.15912001 0.08780018 -0.010867876
-0.099787325 -0.107283704 0.037031244 0.010108471 -0.07290841 0.02867431 -0.09812931 -0.10608962
0.043431517 -0.043537747 -0.025154421 -0.11554252 -0.013802986 -0.16646715 0.015025766 0.04029403
-0.0002833283 -0.11363233 -0.2492695 -0.016758913 0.112288475 -0.21057273 -0.122797556 0.032487903
-0.012148945 0.10166761 0.002855315 -0.051038515 0.036480796 0.05807316 -0.07946454 0.019782469
0.011471038 -0.15019564 -0.076019466 0.074398525 -0.13592228 -0.023987236 -0.06098478 -0.054734536
0.08075997 0.006183077 -0.03294529 0.11394027 -0.11944923 -0.017332235 0.035449903 -0.0022545324
0.03198896 0.09581181 0.09759265 -0.002986992 0.092155665 0.08820776 -0.19737376 -0.07950545
-0.1298288 -0.00936848 -0.050806966 0.0308885 -0.07291272 0.05197957 -0.019476872 -0.112799026
-0.024630072 -0.051585026 -0.029655557 -0.12546985 0.068687 0.08477353 0.055215113 0.020844417
-0.08720926 0.040955167 -0.15112892 -0.09042933 0.031974167 0.13377625 0.028374575 -0.0488204
0.014220233 -0.10602554 -0.015144921 0.05886306 0.058827013 0.030484563 -0.07603284 -0.1165531
0.0059822258 0.017007126 -0.034171935 -0.06966006 0.0022596712 -0.053587053 0.15580826 -0.09960799
0.044767454 -0.06860683 -0.1041049 0.040948305 -0.085928015 -0.018017245 -0.025228018 0.021280166
0.0427193 0.09426285 0.019659886 -0.15815756 -0.08477316 0.07809984 -0.050158575 0.025378726
-0.021647666 0.046018183 -0.0244064 -0.014369301 0.0064516403 0.061491124 0.05748748 0.010308938
-0.049903437 -0.094643876 -0.034550045 -0.076977424 0.08367063 0.018465094 -0.09131213 -0.023075674
-0.083566375 0.0206915 -0.15981671 -0.01766203 0.028197102 -0.022835135 -0.09033705 0.030754853
0.027852183 0.04111963 -0.14814115 0.05613142 -0.0696957 -0.10945881 0.073881894 0.09661774
0.054242425 0.009553444 -0.013052156 -0.15793481 0.013427888 -0.09007492 -0.09770985 -0.076032
0.014768512 0.08367328 0.12811601 -0.1594864 -0.11403542 -0.026416346 -0.0017840873 0.1414925
00000000: 4856 ddbd 12b1 343a e6a2 71bd c930 0bbd
00000010: 08e6 fc3d 6d92 3bbe 129b 043e decd 44bd
00000020: 0791 093c 8a13 bdbd 5341 ff3c 9574 bcbc
00000030: 44ba 273d cb5d fa3d 6778 353c c0ec a63d
00000040: 84ea c13c 7c49 cf3d 673b fb3c bf81 073d
00000050: a673 4c3d 68fc e23d 83f9 b43d 4121 fe3c
00000060: 7cef e53c 0510 563d dd9c fc3c 4ce3 ad3c
00000070: c355 b6bd 4a08 fd3d 3e86 0b3d 6a20 ba3d
00000080: 3153 31bd 51b7 efbd c3a8 983d e571 7c3c
00000090: 5c52 1b3d 10ee 99ba cc87 ee3a bf59 6abd
000000a0: ec33 32be ee48 323d 1cab f5bd 1373 8b3d
000000b0: d9a8 1a3e 63eb 5d3d 72be d13d 04ff 4dbc
000000c0: fb9d 183b 07c0 52bd 6051 a1bd 158e b3bd
000000d0: 852a d73c ff1b 9dbd 19b4 00bd 83ac 41bd
000000e0: b6e7 193b 9967 42bd 2ccf 513d 44e7 af3d
000000f0: b83e f33c e938 773c 910c a8bd 1574 b2bc
00000100: 6a4b 553d 1b64 e73d 518e ca3c 3e55 97bd
00000110: 9d90 30bd 887a 5f3d 27ce 3ebd a484 0cbd
00000120: db98 3c3d ea0d dcbc a552 cf3d 645b 14be
00000130: bcae d7bd 6763 fbbc 7dd6 f7bc 1a59 89bc
00000140: 4d67 063e c410 efbc 3522 5a3d 1128 093d
00000150: 213d b2bd 4336 583b f1e0 a3bd 8984 bb3c
00000160: 28b9 9fbc c35e a6bd 003a 133d bcba 9d3d
00000170: c11f ab3d 5bf0 22be 95d0 b33d 2d0f 32bc
00000180: 4c5d ccbd 8fb7 dbbd 13ae 173d 009e 253c
00000190: 0151 95bd 63e6 ea3c 05f8 c8bd 8445 d9bd
000001a0: 3fe5 313d a354 32bd a510 cebc 8fa1 ecbd
000001b0: eb25 62bc 5d76 2abe a12e 763c 5a0b 253d
000001c0: ae8b 94b9 11b8 e8bd 8140 7fbe fd49 89bc
000001d0: 80f7 e53d 61a0 57be 497d fbbd 0912 053d
000001e0: 5e0c 47bc 1c37 d03d 3d20 3b3b c30d 51bd
000001f0: e36c 153d 1fde 6d3d 4ebe a2bd d80e a23c
00000200: 05f1 3b3c e3cc 19be 18b0 9bbd 415e 983d
00000210: 362f 0bbe e180 c4bc 2dcb 79bd 5231 60bd
00000220: 7c65 a53d 699b ca3b a4f1 06bd 8459 e93d
00000230: cca1 f4bd 55fc 8dbc eb33 113d c7c0 13bb
00000240: db06 033d fb38 c43d a8de c73d 69c1 43bb
00000250: 1cbc bc3d 45a6 b43d 591c 4abe c1d3 a2bd
00000260: d7f1 04be 417e 19bc f71a 50bd e109 fd3c
00000270: 4453 95bd 88e8 543d f68d 9fbc 2d03 e7bd
00000280: 01c5 c9bc d24a 53bd 36f0 f2bc 2b7b 00be
00000290: c5ab 8c3d bf9d ad3d 3e29 623d e9c1 aa3c
000002a0: c59a b2bd 9bc0 273d 8ac1 1abe 0333 b9bd
000002b0: 58f7 023d a4fc 083e cc71 e83c e6f7 47bd
000002c0: fbfb 683c eb23 d9bd 6722 78bc 641a 713d
000002d0: 98f4 703d c3ba f93c 1bb7 9bbd 64b3 eebd
000002e0: 8c06 c43b 8752 8b3c dff7 0bbd efa9 8ebd
000002f0: fe16 143b 197e 5bbd 338c 1f3e 46ff cbbd
00000300: 145e 373d bd81 8cbd f334 d5bd 69b9 273d
00000310: 07fb afbd e798 93bc fdaa cebc be53 ae3c
00000320: 6ffa 2e3d e20c c13d c50d a13c 0ef4 21be
00000330: 8d9d adbd cff2 9f3d 1473 4dbd 0ce7 cf3c
00000340: 7256 b1bc 907d 3c3d eeef c7bc 376d 6bbc
00000350: 4868 d33b 1ede 7b3d fe77 6b3d d2e6 283c
00000360: 8c67 4cbd a6d4 c1bd 5984 0dbd 57a6 9dbd
00000370: 825b ab3d 1c44 973c db01 bbbd 3209 bdbc
00000380: d924 abbd 3881 a93c fea6 23be f6af 90bc
00000390: 9cfd e63c c010 bbbc a202 b9bd 9af1 fb3c
000003a0: 432a e43c 0f6d 283d 50b2 17be 0fea 653d
000003b0: 9fbc 8ebd f12b e0bd 644f 973d 86df c53d
000003c0: 4e2d 5e3d 0c86 1c3c b6d8 55bc aab9 21be
000003d0: a500 5c3c 3379 b8bd 1a1c c8bd aab6 9bbd
000003e0: a1f7 713c e65c ab3d d830 033e 6750 23be
000003f0: 678b e9bd 1867 d8bc 09d8 e9ba 69e3 103e

conv2.bias f4 [32]
-0.012798592 0.0063635204 -0.019994855 0.00073440897 0.014278706 0.050205585 -0.049694575 0.021897346
-0.06920492 -0.032020837 -0.009318447 0.0020928553 0.032242008 0.007791427 0.0038005877 -0.027862241
0.045609314 -0.07319307 -0.005153354 -0.062369525 -0.0003482897 -0.011790191 0.07274627 0.05407026
-0.0053416705 -0.029789625 -0.032036323 0.006932615 -0.029597765 0.07989895 -0.019327518 0.0019090889
00000000: 30b1 51bc 1485 d03b 40cc a3bc 5a85 403a
00000010: 3cf1 693c 5fa4 4d3d 8a8c 4bbd 1062 b33c
00000020: 4fbb 8dbd 4828 03bd 66ac 18bc 4928 093b
00000030: 3210 043d 3a4f ff3b 4813 793b 5b3f e4bc
00000040: d5d0 3a3d 40e6 95bd 77dd a8bb 3077 7fbd
00000050: a79a b6b9 a52b 41bc fffb 943d c778 5d3d
00000060: 2e09 afbb 5f09 f4bc 8538 03bd fd2a e33b
00000070: 0377 f2bc 10a2 a33d be54 9ebc 653a fa3a
