Ratio_Reverse/checkpoint_step_0245.pth (torch_old, 541551 bytes, 24 tensors)

momentum_buffer f4 [3]
00000000: e263 113e 8c48 44be ffb0 a43c
0.14198259 -0.191683 0.02010393

momentum_buffer f4 [3]
00000000: aa9e debc f966 923e 7f34 0cbe
-0.027175266 0.28594187 -0.136919

momentum_buffer f4 [32, 3, 5, 5]
00000000: 5bbf 3c3d 969f 323d ee40 373d 6928 3b3d
00000010: 3a3f 413d dcb8 473d 2201 403d c38f 443d
00000020: 1ebc 4b3d b9f2 543d 349f 5f3d 7f47 5e3d
00000030: 2c1d 683d 9d18 733d 1268 773d cdde 7a3d
00000040: c8cc 7c3d b255 853d 54db 893d ff0c 883d
00000050: eba2 823d 2811 833d 6388 893d 787a 8b3d
00000060: 1625 893d e6d8 323d 7199 283d 02a3 2a3d
00000070: f4ed 303d 4e6c 343d d17d 3d3d a50e 313d
00000080: f8a1 363d 7205 3c3d d977 443d cf5e 4f3d
00000090: 8c1d 4e3d 8fad 593d 5a2a 603d 6ef4 623d
000000a0: cb90 673d 74c3 683d 8b96 793d 54ad 803d
000000b0: df64 7c3d dd90 723d 8cb3 723d af19 7e3d
000000c0: 8821 813d dd43 7e3d c10c d43c 2b3f ba3c
000000d0: 4d02 c63c d79a d33c 4fbe da3c af9b db3c
000000e0: fd89 cc3c a3ba d83c 4a0b e63c 55a6 f93c
000000f0: f67c 013d 016e 013d 183d 0f3d f08d 173d
00000100: 81fa 1a3d 2792 183d 7f76 203d ac88 2c3d
00000110: bedd 373d d753 333d cf64 253d ade3 283d
00000120: 9b0c 333d 1941 393d f020 363d d049 873c
00000130: 390a 8b3c da0b 8f3c 22fd 903c 1aec 903c
00000140: 2ad4 853c 1909 8b3c 2a2d 953c 1614 983c
00000150: 822e 9a3c b9e6 9f3c c470 a13c 873f aa3c
00000160: 3743 b03c c022 b73c 9115 b23c 06e8 b43c
00000170: cf72 b73c 051b bf3c 890b c83c 0567 bf3c
00000180: e5c9 bf3c 61f7 c03c a27e c63c 542e ce3c
00000190: d8a6 483b a4a8 843b 29fe 833b d586 8e3b
000001a0: 257a 893b 5994 663b f4df 833b 92c4 943b
000001b0: 2272 b83b f296 aa3b 14fd cb3b b401 d23b
000001c0: b855 df3b b904 023c 02b3 043c 9e8d 073c
000001d0: 3cd5 063c 76a2 0a3c bc25 203c 8940 243c
000001e0: 558b 253c 6dc2 333c 679c 2a3c 3e3e 373c
000001f0: 41b5 3d3c 535d 0fbc 6cec 07bc db0b f0bb
00000200: f493 d1bb 86ce d7bb eb13 02bc b57d f3bb
00000210: 548f e3bb 81a0 b5bb b131 9bbb 8e68 a7bb
00000220: 97d9 96bb df5e 88bb 37a6 17bb 3e0f e2ba
00000230: 4155 1cbb 2a67 0bbb e17a ddba b4f5 cab9
00000240: ce3f e039 7bfb 373a 6875 163a e08f 073a
00000250: 88ec 843a a3f8 cc3a 6b39 0e3d e5af 133d
00000260: 82eb 173d 1cbb 0f3d 680f 0c3d 911b 083d
00000270: 6d9a 083d 8f5d 0b3d e46f 043d 6ab3 033d
00000280: 2883 073d 314d 023d f7a1 073d 486f 023d
00000290: 265c 043d 3429 143d 46f8 103d 1b24 123d
000002a0: 71c2 0b3d a1f9 0a3d 2fe6 0b3d cf44 0c3d
000002b0: a1f0 0a3d eb13 073d 11f0 0a3d 556d 2d3c
000002c0: 1743 343c 1d0c 493c 6071 203c 5c1b 1c3c
000002d0: 67ba 0e3c 0e39 103c cf26 213c 52b3 023c
000002e0: bcbc e73b 9d0e 103c 0c8c 003c 65da 0b3c
000002f0: 0852 ed3b 8d66 e73b d0a5 353c 1b7b 1d3c
00000300: 216e 283c f7d9 0e3c 6121 123c 52a0 263c
00000310: f3bb 163c fac5 183c 495b f63b bb6d 063c
00000320: 93ef bc3b 5eb3 f23b 9e5c 093c ec7d db3b
00000330: 64d5 a63b cc8e 6f3b 9403 833b 746e c23b
00000340: 8814 9d3b b4dd 4b3b 96c5 563b 0cbb 263b
00000350: cdb0 693b c99d 623b 929d 593b 0eda af3b
00000360: e98c 823b 2769 953b a55a 793b c9e6 853b
00000370: 8d14 a13b fb6f 713b 79c9 583b cb5e 293b
00000380: 9154 723b 7b42 f2bc 5ea0 fabc e17f 05bd
00000390: 60dc 00bd 3303 f9bc bec8 dfbc be25 edbc
000003a0: 4229 f8bc ec23 f9bc 0363 f0bc 3d3a d2bc
000003b0: 4275 d8bc d5af e7bc dd99 ebbc c8eb e8bc
000003c0: 8aeb c3bc d3f8 bfbc 20be cdbc 39f7 cdbc
000003d0: 75a9 d0bc f4ac bfbc 5a2f b6bc e5b3 bcbc
000003e0: c081 b9bc 7e19 b5bc a7df 13bd 2370 18bd
000003f0: e797 1ebd 9963 1cbd 13a2 16bd 2ca1 0dbd
0.04608093 0.043609224 0.044739656 0.045692835 0.04717944 0.04876028 0.04687608 0.047988664
0.04973995 0.05198929 0.054595187 0.054267403 0.056668445 0.059349645 0.060401984 0.061247636
0.061718732 0.06510486 0.06731287 0.06643104 0.063787304 0.06399757 0.06715467 0.068104684
0.06696527 0.04366388 0.041161958 0.041659363 0.04319568 0.0440486 0.046262566 0.043226857
0.04458806 0.04590363 0.047965858 0.050627526 0.050321147 0.053144034 0.05472789 0.055408888
0.05653457 0.056827024 0.060934585 0.0628306 0.061619636 0.059220184 0.05925326 0.062036213
0.06305224 0.06207644 0.025884988 0.022735199 0.024171019 0.02583067 0.026702074 0.026807634
0.024968142 0.026456183 0.028081555 0.030474821 0.031613313 0.03159905 0.034970373 0.037000597
0.037836555 0.037248757 0.039175507 0.042122528 0.044889204 0.043781128 0.04037934 0.041232754
0.043713193 0.045228098 0.044465005 0.016514689 0.016972648 0.017461706 0.017698828 0.017690707
0.01633652 0.016972112 0.018210012 0.018564265 0.018821005 0.019519197 0.019707091 0.020782245
0.021516426 0.022355437 0.0217388 0.022083294 0.022393612 0.023328314 0.024419563 0.023364553
0.0234117 0.02355546 0.024230305 0.025168575 0.0030617025 0.004048424 0.004028101 0.0043495693
0.004195469 0.0035183637 0.0040245 0.0045400346 0.00562884 0.0052059824 0.0062252376 0.0064088944
0.0068156384 0.007935696 0.008099319 0.00827351 0.00822955 0.008461585 0.009774622 0.010025152
0.01010402 0.010971648 0.010413266 0.011184273 0.011578859 -0.008750278 -0.008296113 -0.007325632
-0.006395811 -0.006585899 -0.007939319 -0.007430757 -0.0069445763 -0.005542815 -0.0047361483 -0.0051088994
-0.0046035754 -0.0041617 -0.0023139843 -0.0017246974 -0.0023854526 -0.0021271207 -0.0016897583 -0.00038711505
0.00042772148 0.00070183695 0.0005739541 0.00051712804 0.0010141293 0.0015638064 0.034722727 0.036056418
0.037089832 0.03509055 0.03419438 0.033229414 0.033350397 0.03402477 0.03233327 0.032153524
0.033084065 0.031811897 0.033113446 0.031844407 0.032314442 0.036172107 0.035393022 0.035678964
0.03412098 0.03392947 0.034155067 0.03424531 0.033920888 0.03297798 0.03392035 0.010585149
0.011002324 0.012270954 0.009792656 0.009528007 0.008711434 0.008802665 0.009835913 0.007977324
0.0070720594 0.008792547 0.00784589 0.008535956 0.007242445 0.0070617856 0.011086896 0.00961187
0.010280163 0.008718959 0.008919091 0.010170059 0.009200084 0.009324545 0.0075182063 0.008204873
0.005765864 0.007406636 0.008383898 0.0066983607 0.005091356 0.003655362 0.0039982293 0.005933577
0.0047937073 0.0031107487 0.003277158 0.0025441078 0.003565836 0.003457891 0.0033205491 0.0053665703
0.003984083 0.0045596543 0.0038048413 0.0040863496 0.00491578 0.0036840427 0.0033079071 0.0025843855
0.0036976675 -0.029572716 -0.030594047 -0.032592658 -0.031460166 -0.030397033 -0.027317401 -0.028948661
-0.03029311 -0.030412637 -0.029344087 -0.025662536 -0.0264231 -0.028282085 -0.028759891 -0.028432742
-0.023916025 -0.023434078 -0.025115073 -0.025142299 -0.025471428 -0.0233979 -0.022239376 -0.023035
-0.022644877 -0.022106882 -0.036101963 -0.037216317 -0.038719084 -0.03818092 -0.03677566 -0.034577534

momentum_buffer f4 [32]
00000000: ddbf 4ebd 102b 8f38 88dc 093d c910 063d
00000010: 2eb5 c33d 6f8b f4bc b527 5e3d b210 febc
00000020: 5ed1 b8bd 401f b53c 8995 763c c79d 1e3b
00000030: 663b 043d d262 aabc 8459 da3d 0c27 e9bd
00000040: 474b 9bbc 84e0 b83c 87cc e1bc 938c d73d
00000050: faa9 28bd 8b04 a4bd 1bed e33d b0fc 8bbc
00000060: 1179 973d d9b5 09bd bd0f 383d 5467 0bbd
00000070: b79e 073d 9c10 2a3d 9ee1 c4bc c313 0abd
-0.050475944 6.8267924e-05 0.03365758 0.03273085 0.09556042 -0.029851643 0.054237086 -0.03101382
-0.090243086 0.022109628 0.0150503 0.002420293 0.03228321 -0.020799074 0.10661605 -0.11384401
-0.018956793 0.022567995 -0.027563347 0.10524859 -0.041177727 -0.08008679 0.11129209 -0.017088264
0.073961385 -0.03362069 0.044936884 -0.03403409 0.033110347 0.041519746 -0.024033364 -0.033710252

momentum_buffer f4 [32, 32, 3, 3]
00000000: bb29 16ba a07a c3b8 f14a a0b9 e971 66b9
00000010: 89e0 053a b372 73ba 5444 173a 2a75 c0b9
00000020: dcae 2537 a289 9eba c7c1 32ba 2ea3 14ba
00000030: 2020 11ba 6a9d 85b9 a0bb dfb9 6aca b0b9
00000040: 2b66 40ba 8069 1e37 af14 8bb8 e2a8 a1b9
00000050: 6e80 2238 0489 a739 3c88 87b8 121e a8b8
00000060: a392 88b8 22aa 4db9 92a3 b7b8 5624 26b9
00000070: d28b 4fba 0918 6139 fdc7 96b8 36bc 0f39
00000080: 9341 19ba 3fc0 4fba 8b4a d838 9eda 7db9
00000090: 3a98 1339 5e9c 26b9 03e7 13b8 b292 abb9
000000a0: 1896 84ba a9b7 3f39 8e9e 23ba fb9c 6839
000000b0: 9846 3f3a 657e 4139 1172 e439 d389 11b9
000000c0: 6eaf 9db8 94c4 abb9 dfea e3b9 3c9d 00ba
000000d0: 5708 cc38 c81c c6b9 5c89 12b9 b840 5eb9
000000e0: 6f5e fc37 ffaf 7fb9 4a41 8939 fa49 e939
000000f0: 4711 1539 d922 9538 5e4c ceb9 e030 71ba
00000100: 8fdd 14ba 7e6e 8cb9 ac5c 3aba 1852 9dba
00000110: 2e44 87ba c72a e7b9 377d 76ba 1a79 5fba
00000120: 7308 8438 96ad 9ab9 6cf0 b539 6578 6eba
00000130: cb7a 38ba 308e a6b9 5068 b6b9 34ef 8eb9
00000140: 311c fa39 9efa 34ba 9395 8cb9 d471 8bb9
00000150: ecb3 83ba 95dc 11ba a4c8 66ba 7fe1 e2b9
00000160: 02d5 29ba 5c2f 67ba 0040 e1b8 8002 a636
00000170: f99b 2d39 4cd7 8fba 98a7 4938 3f04 a6b9
00000180: ebec 4fba c1b5 70ba ed4f a2b8 fe14 d6b8
00000190: b13d 12ba 2576 0c38 0816 2bba 3cfa 40ba
000001a0: 2691 ae38 9da6 cab9 c214 b2b9 aae4 3fba
000001b0: debc 91b8 651a 54ba 7492 0539 a455 3539
000001c0: 8b9b 5ab7 064b 0dba 6e27 a6ba f778 dcb8
000001d0: 6661 183a 713b b9ba 111a 75ba d039 78b7
000001e0: 0cff dfb9 cb2f 2f39 fa1e 5cb9 066c 26ba
000001f0: 7aab 51b9 00e8 d037 3044 e0b9 e0b3 5538
00000200: 3684 f4b8 afde 4bba 80ed dfb9 e804 4f39
00000210: e23e 38ba 28f4 33b9 17e4 f8b9 ad6c a1b9
00000220: c7ca bc39 5cb6 1fb7 2068 56b9 46fb 083a
00000230: 361e 26ba e30f 15b9 f9d9 f838 d243 79b8
00000240: a3df b1b8 157c 5739 00a2 5e39 88d0 94b9
00000250: 5da9 3739 0aa9 1e39 37be 9fba 502a 27ba
00000260: 4dbb 69ba e040 00ba 96e2 1eba cc29 c4b8
00000270: 3719 65ba 956a 2cb9 9c6d dfb9 afde 8cba
00000280: aea5 19ba 6662 25ba 7f6c 44b9 b9e9 24ba
00000290: 22cb c239 3f5e c339 968b 8339 0df4 0639
000002a0: 12f4 f6b9 101f 4039 88a0 40ba f520 99ba
000002b0: 0893 17ba f0ca d4b7 aee6 15ba d6a5 80ba
000002c0: 0db4 21ba d4e9 8fba ea11 30ba 1892 82b9
000002d0: ed68 8e39 6f1d 0939 3979 cbb9 4274 22ba
000002e0: ad00 02b7 5df4 9638 93c2 6fb9 3fd9 d3b9
000002f0: 4292 91b7 baed 96b9 3ac5 483a 9ebb 04ba
00000300: f665 4a39 6ae2 c2b9 e376 09ba 38c1 3639
00000310: 26c5 f4b9 76b4 e1b8 bd29 00ba 02f6 13ba
00000320: 604d b1b6 5c48 1939 9bac 12ba 1d8d 81ba
00000330: e643 3cba d519 6ab9 0a76 f5b9 18a1 0a39
00000340: 101b 5fb8 af49 9e39 e07e 1cb9 acd6 31b8
00000350: 7a35 e638 8213 8e39 f917 9239 7585 f238
00000360: aebc 87b9 1773 fbb9 4ebb 3ab9 ddb8 d0b9
00000370: 9d2a d339 b9b4 9e38 cf1c f0b9 0361 02b9
00000380: f54c e4b9 6e00 50b7 846a 6aba fb42 10b9
00000390: fcf0 b937 4251 68b9 7c30 04ba d8cd 7137
000003a0: 0e76 8a37 c3e9 1539 d2e2 41ba b6cd 8939
000003b0: 7b6a adb9 0958 0dba 9902 bc39 b26a 043a
000003c0: 03a4 9139 3882 2538 d00d 19b8 e815 77ba
000003d0: 1e0a b9b8 10f1 25ba 005a 23ba 0015 0aba
000003e0: baf6 bdb8 b51c a339 a6cc 073a 7abb 73ba
000003f0: 456c 11ba b66d deb8 ca4d a137 a497 363a
-0.0005728264 -9.321165e-05 -0.00030573414 -0.00021976944 0.00051070057 -0.0009286806 0.00057703746 -0.00036708388
9.875479e-06 -0.0012095461 -0.0006819036 -0.00056700676 -0.0005536098 -0.0002548502 -0.00042673666 -0.00033720146
-0.0007339443 9.4420975e-06 -6.631889e-05 -0.0003083414 3.874342e-05 0.00031954807 -6.462677e-05 -8.016465e-05
-6.5122986e-05 -0.00019613703 -8.756587e-05 -0.0001584453 -0.0007917258 0.00021466626 -7.189808e-05 0.00013707657
-0.0005846258 -0.000792507 0.00010313567 -0.00024209401 0.00014075721 -0.00015889245 -3.5262678e-05 -0.00032724958
-0.0010115532 0.00018283598 -0.0006241583 0.00022183724 0.0007296591 0.00018453 0.00043572535 -0.00013879621
-7.51902e-05 -0.00032762124 -0.00043471807 -0.0004906242 9.7290314e-05 -0.00037786947 -0.00013974815 -0.0002119568
3.0084715e-05 -0.00024384259 0.0002617932 0.0004449634 0.00014216184 7.1113645e-05 -0.0003934828 -0.00092007034
-0.0005678767 -0.00026785204 -0.0007109146 -0.0012002615 -0.0010320002 -0.00044091625 -0.0009402814 -0.00085248204
6.295824e-05 -0.000295025 0.00034702139 -0.00090969197 -0.00070373405 -0.00031767925 -0.00034791464 -0.0002726257
0.0004770472 -0.00069038 -0.00026814322 -0.00026596955 -0.0010048128 -0.00055641803 -0.00088037015 -0.00043274087
-0.0006478579 -0.0008819008 -0.00010740757 4.9474766e-06 0.0001655667 -0.0010974198 4.807822e-05 -0.0003166515
-0.0007931727 -0.0009182357 -7.739649e-05 -0.00010208225 -0.0005578651 3.348863e-05 -0.0006526415 -0.00073615066
8.3240026e-05 -0.0003865258 -0.0003396627 -0.00073201454 -6.949318e-05 -0.00080910913 0.00012738426 0.00017293409
-1.3030028e-05 -0.00053899025 -0.0012676546 -0.00010512949 0.00058128533 -0.0014132095 -0.00093498925 -1.4795412e-05
-0.000427239 0.00016707105 -0.00020992375 -0.0006348494 -0.00019995673 2.4903566e-05 -0.00042775413 5.095068e-05
-0.00011659453 -0.0007777018 -0.00042710826 0.00019742886 -0.0007028413 -0.00017161726 -0.00047472186 -0.00030789283
0.00036009235 -9.519597e-06 -0.0002044742 0.0005225431 -0.0006336899 -0.00014215666 0.00011866162 -5.942939e-05
-8.481673e-05 0.00020550222 0.0002123192 -0.00028384128 0.00017515333 0.00015131026 -0.0012187426 -0.00063768495
-0.00089161546 -0.00048924796 -0.00060609856 -9.3537936e-05 -0.0008739414 -0.00016442903 -0.0004261554 -0.0010747517
-0.0005861175 -0.0006308913 -0.00018732435 -0.0006290931 0.0003715391 0.00037263517 0.00025090267 0.00012870152
-0.00047102623 0.00018322119 -0.000734814 -0.0011682796 -0.0005782102 -2.536687e-05 -0.0005718273 -0.0009815048
-0.0006168492 -0.001097972 -0.00067165366 -0.0002490438 0.00027162526 0.00013076303 -0.00038809495 -0.00061971333
-7.748761e-06 7.1980736e-05 -0.000228653 -0.00040406917 -1.7353454e-05 -0.0002878735 0.00076587836 -0.00050633575
0.00019302205 -0.00037171255 -0.0005243851 0.00017428852 -0.00046686194 -0.000107624495 -0.0004889032 -0.0005644263
-5.2840187e-06 0.00014618173 -0.0005595178 -0.0009883974 -0.00071817485 -0.00022325602 -0.00046817987 0.00013220718
-5.3192547e-05 0.00030191007 -0.00014924584 -4.2400017e-05 0.000109772154 0.00027098885 0.0002786515 0.000115643175
-0.00025889784 -0.000479602 -0.00017808119 -0.00039810585 0.00040276806 7.567689e-05 -0.0004579783 -0.00012433906
-0.00043544886 -1.2397866e-05 -0.00089422637 -0.00013757862 2.2165936e-05 -0.00022155515 -0.0005042625 1.4412646e-05
1.6505855e-05 0.0001429683 -0.00073961646 0.00026283943 -0.00033076465 -0.00053918414 0.0003586009 0.0005051299
0.00027778753 3.946034e-05 -3.6490906e-05 -0.00094255665 -8.823372e-05 -0.00063301716 -0.00062313676 -0.00052674115
-9.058179e-05 0.0003111117 0.00051803363 -0.00092976505 -0.00055474445 -0.0001060622 1.9228919e-05 0.0006965345

momentum_buffer f4 [32]
00000000: f6d8 51ba ae1d 363b 5436 633d 9c1b 90b9
00000010: f2e1 b33d ccda cb3a ca74 1dbc 8202 96bb
00000020: 8907 863c 3ef2 863d 0029 edbc 9bd1 71bd
00000030: e006 1e3a 8817 5d3b 3684 1b3c 627c 41bb
00000040: 3878 803c c4f3 003d 74b6 ddbc ffdf 72bb
00000050: f890 bcbd c4e9 813d 12c7 903d 9043 4a3a
00000060: 0abc a03c b1c5 b1b9 f9a0 d839 b813 a9bc
00000070: d08f 97ba 9e95 b5bd d0e1 6d3b d0e6 b3b8
-0.0008005047 0.0027788687 0.055471733 -0.0002748639 0.0878333 0.0015552877 -0.009610364 -0.0045779357
0.016361015 0.06589173 -0.028950214 -0.059037786 0.0006028246 0.003373595 0.009491971 -0.00295236
0.015682325 0.031482473 -0.02706454 -0.0037059782 -0.09207338 0.063434154 0.0706922 0.0007715756
0.019620914 -0.00033907362 0.00041318664 -0.020639285 -0.0011563245 -0.08866428 0.0036297925 -8.578377e-05

momentum_buffer f4 [64, 32, 3, 3]
00000000: 6106 3eb8 d4ef 8cb9 2c2d 4cb7 707d 47b9
00000010: d88f fd34 ccf1 96b8 8ace 3139 9141 02b9
00000020: 3e88 beb8 e6a9 2039 9f7f c439 d917 2039
00000030: 7904 e939 d84f 3639 7165 4939 2874 fa39
00000040: b57d 3d3a bee0 de39 e01f 76b9 6adf 70b9
00000050: 21ff 2d39 dacc 7139 9a8a 1339 f002 8238
00000060: 9a1d 8539 3461 d339 e8b5 6d39 1a97 74b9
00000070: 76e2 04ba e525 e437 c44a 2539 fb57 d739
00000080: 4eee c6b8 5b4b 19b9 602e 63b9 8bc2 fdb8
00000090: 626d 24ba 778b 57b9 c91e 37ba b577 5f39
000000a0: fc72 b839 a332 12ba 492b beb8 f9b9 0cb9
000000b0: 7d93 8938 77dd f139 7b3d 5f38 7de2 32b9
000000c0: e59a cf38 a122 08ba b339 40b9 2c17 9e39
000000d0: be2a f0b8 13b0 7438 581d e539 8a52 5439
000000e0: 254e a039 549e 8038 53df e738 a0eb ca38
000000f0: f421 e837 3cd4 143a c153 333a 7477 93b9
00000100: e21a b539 0eb4 c0b9 6432 b439 efbc 7b39
00000110: 5fb7 9839 4df7 1eb9 e077 2bb9 92e0 0bba
00000120: bafe bd38 c01f abb7 6090 8cb9 77f1 b8b9
00000130: 91f0 aeb9 af40 c539 6c02 37b9 4033 1239
00000140: 7ae4 a8b9 60ca dab9 b6fa adb9 cbfa 0cb8
00000150: bff3 cdb9 e764 8c39 257a c539 5785 11b9
00000160: c7b5 9cb9 a343 9239 d744 b339 b2e2 2a3a
00000170: b7d6 003a 5633 ec38 a456 4c3a 8a2a 153a
00000180: 1c38 793a 53ba a039 cd9e 8239 3e6e f6b9
00000190: f37b 123a 420a d238 771c b139 f933 f0b7
000001a0: 691b 343a 53f0 173a df81 2a3a 882f 253a
000001b0: da66 9139 a280 54b6 8f87 c6b9 4dc3 2139
000001c0: ae4d d5b9 2ba2 0338 937c a838 3300 04ba
000001d0: 54f0 93b8 80fd 97b9 6578 13b6 e481 8a39
000001e0: c9f5 7738 eb48 6a39 854c 53b9 3207 7ab9
000001f0: a462 5739 6ebe 3638 fe41 0a3a 402b 30ba
00000200: 0626 4838 9367 6f39 b296 7139 faeb f3b9
00000210: a356 df38 e078 83b9 571e 0239 dc38 693a
00000220: e292 9d3a 3885 243a 3cbb 8a3a 077f a53a
00000230: c93c a23a 5e49 f73a 2351 833a 31a4 783a
00000240: fa52 68b9 a27b 98b9 fe3d 89b8 962a a6b8
00000250: e6ac e239 be78 9439 e780 af39 de09 a739
00000260: ca95 5539 6fb4 07b9 825a 4037 98db 30ba
00000270: c225 3eb9 2365 82b9 1849 e2b9 001a a4b9
00000280: caaf dcb9 11b7 7cb9 45e2 3fb9 cff8 ff38
00000290: 7da1 0fba c07a 16b9 3965 f038 3f23 193a
000002a0: 0d7f 59b9 00e1 bc39 bf30 f0b8 171e 98b9
000002b0: 80a3 1c3a 7807 00b8 16e4 093a e10b 3a39
000002c0: ccdd 2739 587a fb39 03b9 9339 c693 e3b9
000002d0: 5596 61b8 6406 3fb9 0b3a b138 25a4 04b9
000002e0: 0edb 88b8 7172 bb39 d296 35b8 ef14 f2b9
000002f0: 3c9c b939 aa30 4339 5cfd b6b9 8ad8 f2b8
00000300: f4ff 3db7 1082 8739 4c08 f4b9 3a4e d439
00000310: 153d 0638 84a6 1bb9 ec04 aa39 8ba7 0c39
00000320: eedd 04ba c0e6 3b3a e13e 3a3a 9526 ab39
00000330: 228a 5b3a 4d32 ab39 b89c 2f3a 23e7 2eb9
00000340: b4e4 76b7 b3c9 12ba 3de7 8739 a273 f1b9
00000350: 5438 c2b9 1d77 b5b9 35f0 9539 a01e 6739
00000360: ad6f 93b9 8068 0b3a 2f58 8739 150d 8939
00000370: afd3 d0b8 7485 0839 5725 4839 7384 cf39
00000380: 010b 87b8 d7fe d8b8 0480 f4b9 0443 e536
00000390: 58be 8139 935e 37b9 155a c439 b38f eb39
000003a0: ecbf 2cba c3c7 6139 ac8e 15b9 654b 5839
000003b0: e502 7fb9 3ed9 58b9 53a5 eeb8 b35c 1bb9
000003c0: b9e3 bc38 77ed 1439 25ff e836 aba0 fa39
000003d0: e42a f339 dca6 1e3a d853 4a3a dbb0 8f3a
000003e0: 3a3b 1e3a 651a 953a a226 9d3a 6f85 713a
000003f0: c37e cc38 a296 9db9 5611 11ba 581c 80b8
-4.530547e-05 -0.00026881567 -1.2169865e-05 -0.00019024848 4.7229582e-07 -7.1975956e-05 0.00016956977 -0.00012422192
-9.085283e-05 0.00015322081 0.00037479118 0.00015267673 0.00044444556 0.00017386617 0.00019206644 0.0004777026
0.00072285096 0.00042510586 -0.00023472263 -0.00022971412 0.00016593609 0.00023059864 0.00014070646 6.19943e-05
0.00025389792 0.00040317478 0.00022669847 -0.00023325943 -0.00050691457 2.7197364e-05 0.00015763479 0.00041073546
-9.4857634e-05 -0.00014619289 -0.00021665683 -0.000121002166 -0.0006272403 -0.00020555953 -0.00069854833 0.00021311532
0.00035180885 -0.00055770035 -9.0679685e-05 -0.0001342072 6.560141e-05 0.00046132106 5.32246e-05 -0.00017059776
9.8993805e-05 -0.00051931484 -0.00018332042 0.00030153373 -0.00011452053 5.8338115e-05 0.00043700146 0.00020248644
0.000305758 6.1330065e-05 0.00011056536 9.675999e-05 2.7672366e-05 0.00056773773 0.00068407884 -0.00028127024
0.0003454304 -0.00036755245 0.0003436982 0.00024007609 0.0002912832 -0.00015160181 -0.00016352488 -0.0005335893
9.059669e-05 -2.0399573e-05 -0.0002681045 -0.0003527512 -0.00033367102 0.0003762296 -0.00017453142 0.00013942737
-0.00032213685 -0.0004173098 -0.00033183926 -3.361217e-05 -0.00039282252 0.0002677806 0.00037665773 -0.0001387795
-0.00029890073 0.00027897683 0.0003419283 0.00065187656 0.00049148075 0.00011262919 0.0007794893 0.0005690238
0.0009506957 0.000306564 0.00024913848 -0.00047002913 0.0005587928 0.00010015491 0.0003378128 -2.8634431e-05
0.00068705395 0.0005796004 0.00065043377 0.0006301333 0.00027733186 -3.1665336e-06 -0.00037866502 0.00015426912
-0.00040684402 3.1383865e-05 8.034068e-05 -0.000503543 -7.054271e-05 -0.00028989837 -2.1974786e-06 0.00026418187
5.9118294e-05 0.00022343143 -0.00020151034 -0.00023844538 0.00020540744 4.3569533e-05 0.0005274116 -0.0006720312
4.7719128e-05 0.000228314 0.0002303969 -0.00046524388 0.00010649606 -0.00025076326 0.00012409069 0.00088967173
0.0012021924 0.00062759547 0.0010584365 0.0012626358 0.0012377735 0.001886647 0.0010018687 0.00094849156
-0.00022156155 -0.00029083813 -6.544216e-05 -7.923429e-05 0.00043234898 0.0002831872 0.0003347464 0.00031860074
0.00020369064 -0.0001294182 1.1465165e-05 -0.0006746589 -0.00018133878 -0.00024870885 -0.00043160538 -0.0003129989
-0.00042092643 -0.0002410079 -0.00018299471 0.00012205692 -0.0005479081 -0.00014350843 0.00011462946 0.0005841739
-0.00020742063 0.00036025792 -0.000114531715 -0.00029014118 0.0005975291 -3.0524534e-05 0.00052601227 0.00017742768
0.00016008987 0.00047965604 0.0002817587 -0.00043406914 -5.3784188e-05 -0.0001821756 8.450829e-05 -0.0001264965
-6.5257875e-05 0.00035752685 -4.3294225e-05 -0.00046173434 0.00035402353 0.00018614778 -0.00034902513 -0.00011579793
-1.1324872e-05 0.0002584611 -0.00046545488 0.00040494074 3.2004977e-05 -0.00014843984 0.00032428594 0.00013413855
-0.00050684705 0.00071678683 0.00071047066 0.00032644407 0.00083747704 0.0003265314 0.0006699073 -0.00016680038
-1.4715992e-05 -0.00055995135 0.00025921492 -0.00046053255 -0.0003704453 -0.00034611757 0.00028598463 0.00022041285
-0.0002812123 0.0005318001 0.00025814908 0.00026140423 -9.957642e-05 0.00013019686 0.00019087397 0.000395808
-6.439351e-05 -0.0001034715 -0.00046634686 6.8325335e-06 0.00024746615 -0.00017487472 0.0003745115 0.00044929757
-0.0006589878 0.00021532089 -0.00014262897 0.00020627452 -0.00024319773 -0.00020680294 -0.000113795184 -0.00014816485
9.006955e-05 0.00014202842 6.9438415e-06 0.00047803423 0.00046380528 0.00060520857 0.0007718182 0.0010962741
0.0006036047 0.0011375664 0.0011989663 0.00092133036 9.751089e-05 -0.00030057604 -0.00055338943 -6.108795e-05

momentum_buffer f4 [64]
00000000: 646c ae3a 784e 263c d05c a5b9 5519 463b
00000010: 0427 1d3c 26b1 a4b9 3db4 f7b9 5b5b 693a
00000020: 6adf 2d3a d8a0 08bc 543a 02ba a930 af3b
00000030: 0aa5 cebb 4eb5 21bc 516b 8bbc 395c 733c
00000040: 4837 e13c 60d8 5dbd e1bc 44bc 5494 1f3c
00000050: ce7b 1e3c fc8f 2cbc c46f 4d3d 3062 603c
00000060: b140 acbb 0f85 753a 9472 803c a564 babc
00000070: 9191 d538 c993 803a 864e 803c 0f4b 7cbb
00000080: e595 ebbc f9a1 113a 84be f8bc 4502 2c3c
00000090: 2681 52bb 7093 d23b e264 933b 659a 16bd
000000a0: 2f73 4d3c ec96 91ba 1825 053c 441f 503c
000000b0: 4a3c 573d 5424 e5bc 3220 1439 103e 123b
000000c0: b525 5a3c 8d7f 2cbc 2e74 1cba ca09 733a
000000d0: cf80 9538 14d3 393d a43f d6bc 6b2f 603b
000000e0: c1fb 363b e153 c2b8 840d 0aba e129 88bc
000000f0: bf8d 6f3a 1ecc 14bc 75c5 6f3c bcdb 52bc
0.0013307449 0.010150544 -0.00031540403 0.0030227501 0.009591822 -0.00031412503 -0.000472458 0.00089018577
0.00066327176 -0.008339129 -0.0004967798 0.005346377 -0.0063062953 -0.009869887 -0.017018946 0.014853531
0.02749218 -0.05416143 -0.012007923 0.009739954 0.009673072 -0.010532375 0.050155416 0.013695285
-0.0052567353 0.00093658356 0.015679635 -0.02275307 0.00010183745 0.0009809668 0.015662443 -0.0038496887
-0.028757999 0.0005555447 -0.030364282 0.010498588 -0.0032120435 0.0064262673 0.00449811 -0.036768336
0.012539669 -0.00111076 0.00812652 0.012702767 0.05254773 -0.027971424 0.00014126374 0.0022314824
0.013314654 -0.010528457 -0.000596824 0.0009271173 7.128866e-05 0.045367315 -0.026153393 0.003420795
0.0027921053 -9.2662645e-05 -0.0005266296 -0.016621532 0.0009138248 -0.009081868 0.01463448 -0.012869772

momentum_buffer f4 [64, 64, 3, 3]
00000000: e572 bfb9 e423 c4b8 a67f c338 1b38 7339
00000010: 0279 d639 93ee 0639 125b 8439 64d4 6d38
00000020: dc2f 8539 c37d 12ba 759c 6db9 04d8 04ba
00000030: b955 b0b8 5415 17ba 44d3 f7b9 109a 3db9
00000040: 2ee4 15ba c8d0 88b9 a616 2939 2de5 bf38
00000050: 5f4d e3b7 e91b b139 2ee0 6db8 4f79 9ab9
00000060: 0056 43b9 6cc2 d536 3baa 3bb9 e849 b839
00000070: 2b01 263a e0db 2639 fc44 fab9 f0f0 efb9
00000080: c1ac e7b9 9256 d938 6069 f2b6 0468 f038
00000090: ddf5 243a 9b44 0eba 476f c5b9 a4be a0b9
000000a0: f2c0 17b9 e040 37b9 465e a6b9 9898 c0b9
000000b0: 59ec b3b9 6110 86b9 a155 4a38 4729 6338
000000c0: 8a02 9a39 1796 7939 88de 9db9 1972 6039
000000d0: df42 acb9 cee4 a738 307e 47ba 902e a6b9
000000e0: 3e94 a538 509a e5b9 791d b6b9 29bf 8eb9
000000f0: 2773 e2b8 2804 b738 2d81 cab9 1b96 0a39
00000100: b314 22b9 e9c7 45b9 2469 ef39 c9b1 87b9
00000110: 68db d4b8 ff3c 44b8 51fc 5a39 56c6 2337
00000120: f520 06b9 76a7 a8b9 2903 ff39 e789 9f39
00000130: 7871 3aba 5a45 ceb9 768d bf39 f7e2 a539
00000140: 7d4e 2039 a08a 7738 2641 0eba fed0 a6b9
00000150: cae9 73b9 3345 edb9 e490 7039 9fce 6cb9
00000160: b0f0 4eb9 e59f 53b9 84f6 efb8 92c5 1539
00000170: a3f4 fd38 5749 b039 e40e c038 fbdf 08b9
00000180: e20f a8b8 624e 3239 f227 d839 6af9 f1b9
00000190: ff40 33ba c61e 7bb8 7844 ecb9 036f c2b8
000001a0: 9390 96ba 6596 9dba 09e1 91b9 3348 17ba
000001b0: 9d9e dfb8 33d3 8eb9 761d 40ba 8576 37b9
000001c0: 7576 e0b9 b360 48ba ae72 c338 199e 29ba
000001d0: f5b4 6f38 e210 123a 7818 1eba 9667 a8b9
000001e0: 03af 93b9 98c3 c9b9 e3be 21ba a159 5ab8
000001f0: 1e03 74b8 ad94 8939 0a75 ad39 305b 6a38
00000200: dd93 2ab7 d668 3239 6af5 e838 2305 98b9
00000210: 06ca b039 b79c 2338 6bc9 0339 1710 47b9
00000220: a674 e1b8 a50f a0b7 9ccc 08b9 e832 19b9
00000230: 3c31 7539 a489 8ab9 694d 90b9 fbd1 ca37
00000240: 57f2 00ba d11b 25b9 f35d 9ab8 7bfe 8339
00000250: 7c36 92b8 9c59 8eb8 cf7d 12ba 6f66 67b9
00000260: 82ef 2039 7f48 61b9 98ff 8cb9 c78f 19b9
00000270: 5673 1aba 5c71 d8b9 632d 11b9 268c 16ba
00000280: f5f6 11b8 6d21 acb9 0424 47b9 40b1 e338
00000290: d3b4 d439 5fe3 8bb9 cbd6 dfb8 7e9e e239
000002a0: abb8 9739 9563 9239 407a 21b9 e757 f6b9
000002b0: eb80 58b9 24dd cfb9 6f1b 32b9 2c25 29b8
000002c0: 3e74 1bba 960f 5fb9 0b1a 2bba 1cc3 40b8
000002d0: ef91 e6b9 806d 57b9 483a 4bba 6bba f6b9
000002e0: 94b3 2dba 1b11 fcb9 186b bab9 d9c6 10ba
000002f0: 77aa 9fb9 78d6 da38 ed7f 0938 c3d8 f7b9
00000300: 188c f639 3b8c d0b9 02bb 9a39 0b48 8bb9
00000310: ad64 61b9 4857 bab9 2e4c 01ba 76c3 3fba
00000320: 08bc 37b7 bfe5 89b9 792e ccb9 7031 23b8
00000330: 838f dcb9 c791 84b9 1c59 02b7 3ae5 f6b8
00000340: f4b6 7838 2a02 e738 9c95 4fb9 1d13 0038
00000350: f603 67b9 a83b d438 a4cd 2eba ce39 e939
00000360: 980c 6139 4800 36b9 8c16 0338 be1f b3b9
00000370: 989e be39 73bd f0b8 40f1 1bb9 d230 1e39
00000380: 9c2b 4a39 8ad2 7239 36b9 5c39 de3f d039
00000390: 845a 3439 c95d 9638 831d 1aba 768f 6b39
000003a0: 38ee 8a39 d121 13b9 e084 7cb9 9228 92b9
000003b0: 74b1 9136 a23c efb9 309a 81b9 0966 40b9
000003c0: 2e95 29b9 2c96 f2b9 8963 b239 50ea 98b9
000003d0: d6d1 5e39 baca 49b9 37ef 09b9 5d37 1839
000003e0: 20b6 2139 c996 56b9 428b 90b9 3e8b 5938
000003f0: e66f bc39 dc7e 2039 8643 8d39 073e 9e38
-0.00036515962 -9.3526935e-05 9.322101e-05 0.00023195187 0.0004090742 0.00012868112 0.00025244855 5.6703007e-05
0.00025403395 -0.0005588198 -0.00022660366 -0.0005067589 -8.408301e-05 -0.0005763371 -0.00047268916 -0.00018081837
-0.00057179003 -0.00026095496 0.00016125533 9.150277e-05 -2.7096537e-05 0.00033780865 -5.6713987e-05 -0.0002946355
-0.00018628687 6.3705284e-06 -0.00017897126 0.0003515028 0.00063325715 0.00015912903 -0.00047735113 -0.00045765145
-0.00044188465 0.00010363491 -7.2244293e-06 0.00011463466 0.000629274 -0.0005427093 -0.00037657676 -0.00030659616
-0.0001447236 -0.00017476408 -0.00031732226 -0.00036734785 -0.00034317633 -0.00025570675 4.82403e-05 5.415946e-05
0.0002937506 0.00023802403 -0.00030111172 0.0002140481 -0.0003285622 8.005799e-05 -0.0007610051 -0.0003169668
7.8954254e-05 -0.00043793255 -0.00034735704 -0.00027226776 -0.000107979686 8.726894e-05 -0.00038624686 0.00013216624
-0.00015457235 -0.00018861856 0.00045663968 -0.00025881667 -0.00010149815 -4.678685e-05 0.00020884095 9.761736e-06
-0.00012791513 -0.00032168225 0.00048639745 0.00030429589 -0.0007112245 -0.00039343053 0.00036535755 0.00031640354
0.00015288028 5.9018494e-05 -0.0005426578 -0.000318177 -0.00023261379 -0.0004525572 0.0002294216 -0.00022583686
-0.00019735354 -0.00020182093 -0.00011442325 0.00014283348 0.00012109547 0.00033623978 9.158047e-05 -0.0001305341
-8.013823e-05 0.00017004603 0.00041228492 -0.0004615293 -0.0006837993 -5.9871723e-05 -0.0004506444 -9.2713184e-05
-0.0011487178 -0.001202297 -0.0002782422 -0.00057709514 -0.00010663013 -0.00027241706 -0.0007328609 -0.00017496392
-0.00042812867 -0.0007643804 9.319685e-05 -0.0006470397 5.715057e-05 0.0005571974 -0.0006030868 -0.00032120635
-0.0002816842 -0.00038483436 -0.0006170107 -5.2058724e-05 -5.8177036e-05 0.00026241448 0.00033084332 5.5874872e-05
-1.0167217e-05 0.00017014457 0.00011108334 -0.00028995526 0.00033719855 3.900818e-05 0.00012568168 -0.00018984113
-0.000107505635 -1.9080771e-05 -0.00013046194 -0.00014610181 0.00023383362 -0.0002642396 -0.00027523495 2.4178056e-05
-0.0004918924 -0.00015745989 -7.360792e-05 0.0002517587 -6.971971e-05 -6.787779e-05 -0.0005588205 -0.00022068036
0.00015348013 -0.00021484679 -0.00026893313 -0.00014644778 -0.000589182 -0.0004128319 -0.00013845185 -0.00057429296
-3.480069e-05 -0.000328313 -0.00018991536 0.00010857219 0.00040570516 -0.0002668155 -0.00010673477 0.00043224165
0.00028938553 0.00027921484 -0.00015399698 -0.0004698627 -0.00020647391 -0.0003964688 -0.00016985623 -4.032736e-05
-0.0005930102 -0.00021272743 -0.0006527013 -4.5958077e-05 -0.00043977748 -0.0002054479 -0.000775252 -0.0004705967
-0.00066261855 -0.0004807793 -0.00035556476 -0.00055227947 -0.0003045385 0.00010434998 3.2782486e-05 -0.0004727301
0.00047025154 -0.0003977733 0.000295125 -0.00026565822 -0.00021495177 -0.00035541714 -0.0004932311 -0.0007315198
-1.0951429e-05 -0.0002630185 -0.00038944537 -3.890827e-05 -0.00042068594 -0.00025285615 -7.769351e-06 -0.00011772891
5.9298196e-05 0.000110153414 -0.00019796792 3.053538e-05 -0.00022031352 0.000101200596 -0.0006668216 0.0004448429
0.00021462364 -0.00017356977 3.1253832e-05 -0.0003416519 0.00036357786 -0.000114793795 -0.00014871825 0.00015086241
0.00019280467 0.0002315735 0.00021049831 0.00039720436 0.00017199857 7.170026e-05 -0.00058790314 0.0002246479
0.00026498898 -0.0001403161 -0.00024082093 -0.00027877517 4.341995e-06 -0.00045630807 -0.00024719676 -0.00018348558
-0.0001617267 -0.00046269724 0.00034024965 -0.00029166276 0.0002124974 -0.00019244375 -0.00013154453 0.00014516474
0.00015422003 -0.00020464802 -0.00027569575 5.186651e-05 0.00035941525 0.00015306048 0.00026943925 7.5455806e-05

momentum_buffer f4 [64]
00000000: f08a 1aba 62a1 643b 913b cc3b 5abf 293b
00000010: 3123 c63a dbd6 a3bc 8deb af3b f9a5 30bb
00000020: a6c3 933b f81d eabb 0049 5739 a587 34bc
00000030: b517 973a 824a 4c3c 426b acbb efa3 bdb9
00000040: 8f11 1a3c 2368 2fba 6a7c d5bb 3ecc 2d3a
00000050: 537a 22b9 c2f5 4d3b 9f66 76bb c73b d1bb
00000060: c530 1ebc 8976 3d3c abb9 afb9 119b 61bc
00000070: b65c a2b9 6a5b 92ba 5586 efba 012b d2bb
00000080: 612a 503c a9bc 1a3b d281 7bbc c2b3 c63a
00000090: 31e2 c23a 9c5b 413c a593 923b 4c7c cd39
000000a0: 2ecd f73b 471a 53bc dd3f ceb9 8a15 973c
000000b0: d7af 393c 29fd 623c 49d9 cdb9 fe1c 42bb
000000c0: 6cd0 903a fcea 7138 288c 66bc 7f4d 643b
000000d0: b06f 0e39 58de 47bc d865 fdba e8d6 c1ba
000000e0: 0d6e 603b 52e7 dfb8 83ef 37b9 25fe 03ba
000000f0: 5c2c 2d3c 38a4 1dbc 7218 ba3b 6cd8 a5bb
-0.0005895337 0.003488623 0.006232687 0.0025901408 0.0015116689 -0.019999912 0.005368656 -0.0026954396
0.004509407 -0.007144686 0.00020531192 -0.011018668 0.0011527451 0.012468936 -0.0052618096 -0.0003617103
0.0094036 -0.0006691238 -0.0065150755 0.0006629861 -0.00015495093 0.0031427 -0.0037597788 -0.0063853
-0.009655182 0.0115639055 -0.00033516934 -0.013769881 -0.00030968123 -0.001116616 -0.0018274287 -0.006413818
0.012705416 0.0023610985 -0.015350776 0.0015159773 0.0014868436 0.0118016265 0.004473167 0.00039193255
0.007562301 -0.012884683 -0.00039338964 0.018442888 0.011333427 0.013854303 -0.00039262537 -0.0029619331
0.0011048443 5.7677724e-05 -0.014071502 0.003483623 0.00013583782 -0.012199007 -0.001933272 -0.0014788778
0.0034245283 -0.000106765554 -0.00017541465 -0.0005035124 0.010569658 -0.009621672 0.0056791836 -0.0050612

momentum_buffer f4 [1, 64]
00000000: f774 2c3b f0db 943b 91e2 1b3d ff46 2d3c
00000010: cad8 803b e52a 0e3e b97e a43d 7e58 3c3d
00000020: 37cb 843c 34f9 583d e915 0b3a 1c2e 613d
00000030: 0213 f23b 50df fb3c fd45 a03d fcd8 ff3a
00000040: 2730 923d 86df 2339 6b58 d23d 8a76 963d
00000050: 4399 e1b9 3fa6 083c d325 273d 960c 4d3d
00000060: 1c07 793d 2f75 4e3d 5e33 163c 3837 ab3d
00000070: 2f6b c13a 06a4 083d 6a61 413c bdbc 2a3d
00000080: 4be5 243d 4b33 cd3b 32c5 aa3d 6f27 a83b
00000090: 0e41 153b 265d 0b3d 57af ff3c 0de0 773a
000000a0: 9bbf 223d 2bc7 983d 04e7 7c3a 7729 f93d
000000b0: eb35 8b3d 2613 593d 6a45 0c3a dfb7 173d
000000c0: 4a3f 153b 99f1 063b 577d ca3d 2256 bf3c
000000d0: a092 273a 02bf 743d 059c b83c b59a 0e3c
000000e0: 4fe1 a03c b6f7 dfb9 558a 42b9 498e fc3a
000000f0: 8bd9 d13c 5d61 863d 4e28 d33c 7f51 6e3d
0.0026314834 0.00454282 0.038057867 0.010576009 0.0039320933 0.1388355 0.08031983 0.04598283
0.016210182 0.052972034 0.0005305694 0.054975614 0.00738752 0.030746132 0.07825849 0.0019519622
0.071380906 0.0001562816 0.10270771 0.07346828 -0.00043029533 0.008340417 0.040807556 0.05006083
0.060797796 0.050404724 0.00916752 0.083601415 0.0014756675 0.03335955 0.0118030105 0.0416839
0.040257733 0.006262218 0.08338393 0.005131654 0.0022774371 0.03402438 0.031211538 0.00094556884
0.03973351 0.07459863 0.0009647461 0.12166112 0.067973934 0.052996777 0.00053509197 0.037040588
0.002277332 0.002059078 0.09887188 0.023356501 0.0006392393 0.05975247 0.022535333 0.008703877
0.019638686 -0.00042718434 -0.00018552814 0.0019268478 0.025616428 0.06561539 0.025776055 0.05818319

bn0.weight f4 [3]
00000000: 2220 8f3f 8100 813f baa8 8b3f
1.1181681 1.0078279 1.0910866

bn0.bias f4 [3]
00000000: 1a07 253d 83bf 69be 644a f0bc
0.040289976 -0.22826962 -0.029332347

bn0.running_mean f4 [3]
00000000: 1d28 f83e 838e e33e 4415 d03e
0.48468104 0.44444665 0.40641224

bn0.running_var f4 [3]
00000000: 1413 843d b5a6 743d 1602 783d
0.06448951 0.059729297 0.060548864

conv1.weight f4 [32, 3, 5, 5]
00000000: 5ebf e43c e9c7 933c cdbe 5b3d 16a3 1dbd
00000010: 3861 aabc dd71 463d 5801 303d ce2a ac3d
00000020: 5e71 543d 145b 973d ff1e fd3c de14 65bb
00000030: f2c6 c4bc 0fe6 9abc eb6c a33c 1acc 093e
00000040: 7c6e ecbc 386b 92bd a18d 4dbd 760a 66bd
00000050: 5a07 01bd 35f1 2fbd a08b a83d 29bb 37bd
00000060: e431 5eb9 12e7 f93c 09a0 4d3d d885 6abc
00000070: b1f3 2f3d db90 c0bc 6362 173e 5216 40bd
00000080: 09ff 8b3d 7c85 3bbc f41c 133d bfad bb3a
00000090: 97ea bcb9 c538 a83d 5196 a1bd a1db 86bd
000000a0: ef04 913d 3c4e c0bd e90f 853c e0c4 cd3b
000000b0: e7f7 66bd 4abf dcbc 184a 2cbd c063 343c
000000c0: 40b3 c8bd 6675 30bd b07d be3d 6ade 9abd
000000d0: e56c 173c 6cd7 5a3d 3124 95bc a020 0bbd
000000e0: 518c 86bd b1e8 033d 5682 07bd f5f6 143d
000000f0: 11af 12bd ea42 97bd b1eb 8e3d b999 5fbd
00000100: 64b2 73bd e805 b4bc 159c e43c 4100 04be
00000110: 7885 0cbc 2554 babd 19ba 48bd c0f2 a63a
00000120: 7a0e b5bc aac6 90bd 4932 febb 9927 f93d
00000130: 75ef ef3c d5d9 6a3c 5449 903d 4359 5f3d
00000140: dac7 71bc 6946 5dbc 7fb1 233d e29a 353b
00000150: 7565 a4bd 67bc 543c 5f9c 583b 81fc f83c
00000160: b362 cebc fa17 033c 09e4 dcbb 0241 de3c
00000170: 7cdb 243c 32c9 4dbb 6e04 3d3d 9f7d aa3b
00000180: 7495 8bbd 5c55 f939 9f1f 44bd e6d9 24bd
00000190: 83a1 91bc d506 093d fd4a 25bd c7a5 1b3c
000001a0: a1a5 c6bc 1aa5 603a 409a 323c cb73 d9bc
000001b0: 284f 953d e518 f7bd 1ac6 083d 0579 3a3d
000001c0: a91a bdbb 4d7c ab3c 08c3 3fbd 5abf 49bc
000001d0: f6dd febc fe3d aebc b1a7 723d ace2 90bc
000001e0: 26e4 2bbd 7562 9f3d e2b8 4a3d 4d0a 4e3d
000001f0: 3df3 91b8 b750 903d b231 ecbc be8c 4b3c
00000200: 1992 a03d dd74 15bd 28d1 b53d 99e0 8a3d
00000210: 9ff5 44bd 168f 44b9 9f94 0cbd d15e 8e3c
00000220: d775 9b3d 033a d6bc def0 0d3d 0f3d 0dbd
00000230: f947 b5bb 8500 c53c 886b 2a3d 3d82 f33c
00000240: 15e5 2bbb 925c da3d 6b4c a83c 76bb a53d
00000250: c610 0dbd 1b08 cdbd e92e b8bc ede1 323d
00000260: dd00 5dba 01bb f03b c18a 033d 5632 b13c
00000270: b178 b13d ae72 efbd 5d2d aabd 5f5e ccbc
00000280: dff9 27bc 73cb c9bc 8ac9 8dbd 15e8 5fbd
00000290: 8376 02bd 86f0 9f3d d9fe 1e3e 0e7b c23d
000002a0: 37d2 973c 5c44 a6bd aef3 e1bd 5d7a 8c3d
000002b0: 2040 d93c e096 fa3c 5e0b 7abc c49a 6c3d
000002c0: 0e1c 0dbd 4124 17bc ad6d aabd e196 db3d
000002d0: b53e 0dbd ae85 283d f2a4 44bd 3ad7 87bc
000002e0: 3d3c 73bd 66a0 453c 8df0 933d e43b 7cbd
000002f0: fe8c dcbb 23a1 27bd 304f 2d3d a580 31bc
00000300: 6e93 9a3b 093d d4bc 0e8a f43c 289e 3e3d
00000310: 7418 033d 9750 883d eae8 6cbd 38d4 95bd
00000320: e02d ea3d b0cd 063e d448 133d 3565 a1ba
00000330: 82cc 08bd 5efb e13c 808f aa3c f468 213c
00000340: 4af3 063d 8832 00be 828d 513d 9b61 803d
00000350: ad16 c9bd 01d1 863c 27c8 9ebc c8f8 203d
00000360: 30c3 a6bc 2334 16bd d84e 99bd 356d 64bd
00000370: a619 063d af5f c1bb e60a ccbb 08d1 25bd
00000380: 020d afbc 2916 47bc 9f3e b5bd 6f8f edbd
00000390: 7748 ac3c 7bc9 be3c 4488 a63d ce3f d1bd
000003a0: 72cb 883d ba42 473a 976a 52bc 3a87 d33c
000003b0: c900 5cbd a421 9b3c 5924 76bb 74fd 73ba
000003c0: 04f9 d43c 441e e9bb 27d9 75bc 9ee4 0fbd
000003d0: 2e5b eabd b405 b23c 12f9 3dbd ecb0 30bb
000003e0: abd7 1cbc af6a e93c 93f1 343d 4964 47bd
000003f0: de25 9fbb d57a e1bc 7635 913b 9de6 3b3c
0.027923282 0.01803966 0.05364876 -0.03848561 -0.02079831 0.048448432 0.04297003 0.08406602
0.051865928 0.07390419 0.03089857 -0.0034955065 -0.024020646 -0.018908529 0.019949397 0.13456765
-0.028861277 -0.071493566 -0.050183896 -0.05616232 -0.03150115 -0.042954642 0.08229756 -0.044856224
-0.00021190156 0.03050569 0.05020145 -0.014314137 0.04295701 -0.023506572 0.14783625 -0.046896286
0.068357535 -0.011445399 0.035916284 0.0014318748 -0.00036032937 0.08213953 -0.07889999 -0.0658486
0.07081019 -0.09389922 0.016242938 0.006279573 -0.05638876 -0.026946682 -0.04206285 0.01101011
-0.09799814 -0.04308071 0.09301317 -0.07561953 0.009242271 0.0534281 -0.018205734 -0.03396666
-0.06569732 0.032204334 -0.033083282 0.03636833 -0.035811488 -0.0738581 0.06978548 -0.05458996
-0.0594963 -0.021975473 0.027906457 -0.12890722 -0.008576743 -0.090980805 -0.0490056 0.001273714
-0.02210163 -0.07069142 -0.0077574593 0.12165756 0.029288987 0.014334162 0.07045236 0.054528486
-0.014757121 -0.013505557 0.039964195 0.0027710726 -0.08027164 0.012984372 0.0033052189 0.03039384
-0.025193548 0.008001322 -0.006741051 0.027130608 0.010062095 -0.003140044 0.046146803 0.0052029635
-0.06815615 0.0004755658 -0.04788172 -0.040246867 -0.01777721 0.03345378 -0.040354718 0.009499974
-0.0242489 0.0008569524 0.010901034 -0.026544472 0.072904885 -0.12065295 0.03339205 0.04552557
-0.0057710004 0.020933295 -0.046816856 -0.012313688 -0.031111699 -0.021269795 0.059241954 -0.01768621
-0.041965626 0.07782451 0.049492724 0.050302792 -6.9594455e-05 0.07046645 -0.02883229 0.012423692
0.07840366 -0.036488403 0.08877784 0.0678112 -0.048085805 -0.0001874532 -0.034321424 0.017379196
0.075908355 -0.026150709 0.034653537 -0.03448206 -0.0055322614 0.0240481 0.041606456 0.029725188
-0.0026229073 0.10662188 0.020544251 0.08092396 -0.034439825 -0.100113116 -0.022483306 0.04367249
-0.00084306096 0.0073465114 0.032114748 0.021630447 0.08665598 -0.11691795 -0.083094336 -0.024947343
-0.010252445 -0.024633145 -0.06923206 -0.05466469 -0.031851303 0.07809548 0.15526904 0.09496127
0.018532855 -0.08118507 -0.11032806 0.068592764 0.026519835 0.03058952 -0.015261499 0.057764784
-0.034450583 -0.009224952 -0.083217 0.10722137 -0.03448363 0.041143112 -0.048008867 -0.01658212
-0.05938362 0.012062168 0.07223616 -0.061580554 -0.0067306748 -0.040925156 0.042311847 -0.010833894
0.004717282 -0.02590801 0.029850986 0.04653755 0.032005742 0.06655996 -0.05783931 -0.07315868
0.11434531 0.13164401 0.035958126 -0.0012313487 -0.03339816 0.027585682 0.02082038 0.009851683
0.032946862 -0.12519276 0.051160343 0.06268617 -0.09818778 0.016457083 -0.01938255 0.039299756
-0.020356745 -0.036670815 -0.074857414 -0.05576821 0.032739304 -0.005901299 -0.006226885 -0.04048255
-0.021368507 -0.0121512795 -0.08849835 -0.115996234 0.021030648 0.023289433 0.08131459 -0.10217248
0.06679429 0.00076011906 -0.012842796 0.025821317 -0.053711686 0.01893694 -0.0037558286 -0.0009307482
0.025997646 -0.0071142036 -0.015005386 -0.035130136 -0.114431724 0.021731235 -0.04638011 -0.0026960922
-0.009572904 0.028493254 0.044175696 -0.048679624 -0.004856809 -0.027524391 0.004431422 0.011468557

conv1.bias f4 [32]
00000000: d65e 9e3b 9c5b de3d cf6a 0f3b 6f6f 07bd
00000010: d6a8 de3c 94e0 be3d fd9b 35bd 28f9 9b3d
00000020: d320 81bc 5140 8e3d 243e 8f3b c8a8 163d
00000030: d4af 03be 4aff aabd f196 133d 11aa 343d
00000040: dcf0 4cbd f809 033c d8eb dd3d 02db 723c
00000050: fc06 cabd da13 173d f05a 613c 8489 dabb
00000060: 06f9 aebd e7e8 02bd 5c95 7f3d 3d59 853d
00000070: 3a82 483d 95a3 7c3d 46fc 9a3b c0fa 433c
0.0048330827 0.10857317 0.0021883731 -0.033065256 0.027180117 0.09320179 -0.044338215 0.07615882
-0.015762722 0.06945861 0.0043714214 0.036782056 -0.12860042 -0.08349474 0.03603262 0.0441075
-0.05003439 0.007997982 0.10835999 0.014822723 -0.098646134 0.036884166 0.013754591 -0.006669225
-0.08543591 -0.031960394 0.0623983 0.065111615 0.04895232 0.06167944 0.0047297804 0.011961639

conv2.weight f4 [32, 32, 3, 3]
00000000: 4856 ddbd 32b1 343a e6a2 71bd c930 0bbd
00000010: 08e6 fc3d 6d92 3bbe 129b 043e decd 44bd
00000020: 0791 093c 8a13 bdbd 5341 ff3c 9574 bcbc
00000030: 44ba 273d cb5d fa3d 6778 353c c0ec a63d
00000040: 84ea c13c 7c49 cf3d 673b fb3c bf81 073d
00000050: a673 4c3d 68fc e23d 83f9 b43d 4121 fe3c
00000060: 7cef e53c 0510 563d dd9c fc3c 4ce3 ad3c
00000070: c355 b6bd 4a08 fd3d 3e86 0b3d 6a20 ba3d
00000080: 3153 31bd 51b7 efbd c3a8 983d e571 7c3c
00000090: 5c52 1b3d 10ee 99ba cc87 ee3a bf59 6abd
000000a0: ec33 32be ee48 323d 1cab f5bd 1373 8b3d
000000b0: d9a8 1a3e 63eb 5d3d 72be d13d 04ff 4dbc
000000c0: fb9d 183b 07c0 52bd 6051 a1bd 158e b3bd
000000d0: 852a d73c ff1b 9dbd 19b4 00bd 83ac 41bd
000000e0: b6e7 193b 9967 42bd 2ccf 513d 44e7 af3d
000000f0: b83e f33c e938 773c 910c a8bd 1574 b2bc
00000100: 6a4b 553d 1b64 e73d 518e ca3c 3e55 97bd
00000110: 9d90 30bd 887a 5f3d 27ce 3ebd a484 0cbd
00000120: db98 3c3d ea0d dcbc a552 cf3d 645b 14be
00000130: bcae d7bd 6763 fbbc 7dd6 f7bc 1a59 89bc
00000140: 4d67 063e c410 efbc 3522 5a3d 1128 093d
00000150: 213d b2bd cd36 583b f1e0 a3bd 8984 bb3c
00000160: 28b9 9fbc c35e a6bd 003a 133d bcba 9d3d
00000170: c11f ab3d 5bf0 22be 95d0 b33d 2d0f 32bc
00000180: 4c5d ccbd 8fb7 dbbd 13ae 173d 009e 253c
00000190: 0151 95bd 63e6 ea3c 05f8 c8bd 8445 d9bd
000001a0: 3fe5 313d a354 32bd a510 cebc 8fa1 ecbd
000001b0: eb25 62bc 5d76 2abe a12e 763c 5a0b 253d
000001c0: ae8b 94b9 11b8 e8bd 8140 7fbe fd49 89bc
000001d0: 80f7 e53d 61a0 57be 497d fbbd 0912 053d
000001e0: 5e0c 47bc 1c37 d03d 4c20 3b3b c30d 51bd
000001f0: e36c 153d 1fde 6d3d 4ebe a2bd d80e a23c
00000200: 05f1 3b3c e3cc 19be 18b0 9bbd 415e 983d
00000210: 362f 0bbe e180 c4bc 2dcb 79bd 5231 60bd
00000220: 7c65 a53d 699b ca3b a4f1 06bd 8459 e93d
00000230: cca1 f4bd 55fc 8dbc eb33 113d c7c0 13bb
00000240: db06 033d fb38 c43d a8de c73d 68c1 43bb
00000250: 1cbc bc3d 45a6 b43d 591c 4abe c1d3 a2bd
00000260: d7f1 04be 417e 19bc f71a 50bd e109 fd3c
00000270: 4453 95bd 88e8 543d f68d 9fbc 2d03 e7bd
00000280: 01c5 c9bc d24a 53bd 36f0 f2bc 2b7b 00be
00000290: c5ab 8c3d bf9d ad3d 3e29 623d e9c1 aa3c
000002a0: c59a b2bd 9bc0 273d 8ac1 1abe 0333 b9bd
000002b0: 58f7 023d a4fc 083e cc71 e83c e6f7 47bd
000002c0: fbfb 683c eb23 d9bd 6722 78bc 641a 713d
000002d0: 98f4 703d c3ba f93c 1bb7 9bbd 64b3 eebd
000002e0: 8c06 c43b 8752 8b3c dff7 0bbd efa9 8ebd
000002f0: fe16 143b 197e 5bbd 338c 1f3e 46ff cbbd
00000300: 145e 373d bd81 8cbd f334 d5bd 69b9 273d
00000310: 07fb afbd e798 93bc fdaa cebc be53 ae3c
00000320: 6ffa 2e3d e20c c13d c50d a13c 0ef4 21be
00000330: 8d9d adbd cff2 9f3d 1473 4dbd 0ce7 cf3c
00000340: 7256 b1bc 907d 3c3d eeef c7bc 376d 6bbc
00000350: 4868 d33b 1ede 7b3d fe77 6b3d d2e6 283c
00000360: 8c67 4cbd a6d4 c1bd 5984 0dbd 57a6 9dbd
00000370: 825b ab3d 1c44 973c db01 bbbd 3209 bdbc
00000380: d924 abbd 3881 a93c fea6 23be f6af 90bc
00000390: 9cfd e63c c010 bbbc a202 b9bd 9af1 fb3c
000003a0: 432a e43c 0f6d 283d 50b2 17be 0fea 653d
000003b0: 9fbc 8ebd f12b e0bd 644f 973d 86df c53d
000003c0: 4e2d 5e3d 0c86 1c3c b6d8 55bc aab9 21be
000003d0: a500 5c3c 3379 b8bd 1a1c c8bd aab6 9bbd
000003e0: a1f7 713c e65c ab3d d830 033e 6750 23be
000003f0: 678b e9bd 1867 d8bc 09d8 e9ba 69e3 103e
-0.108074725 0.0006892859 -0.058993243 -0.033982072 0.123485625 -0.18317576 0.1294978 -0.048047893
0.008396394 -0.092322424 0.031159079 -0.02300481 0.04094912 0.12224921 0.011076069 0.08150625
0.023671396 0.10121438 0.030667974 0.03308272 0.04991498 0.11083299 0.08836653 0.031021716
0.028068297 0.05226137 0.030836517 0.021226548 -0.089030765 0.12355097 0.03406357 0.09088214
-0.043292228 -0.11704887 0.07454064 0.015408014 0.03792034 -0.0011743922 0.001819843 -0.057214495
-0.17402619 0.043526582 -0.11995527 0.06809058 0.15103473 0.05417956 0.10241403 -0.0125730075
0.0023287523 -0.051452663 -0.07876849 -0.08767334 0.026265392 -0.076713555 -0.031421755 -0.04728366
0.0023484058 -0.04746208 0.051222965 0.08589032 0.029692993 0.015089252 -0.08205522 -0.021783868
0.052073874 0.112983905 0.024726065 -0.073893055 -0.043106664 0.054560214 -0.04658332 -0.034306183
0.04604421 -0.026862103 0.10123185 -0.14487988 -0.10531375 -0.030687047 -0.030253643 -0.01676612
0.13125344 -0.0291828 0.05325528 0.033485476 -0.08703066 0.0032991648 -0.080018885 0.022890346
-0.019497469 -0.08123543 0.035943985 0.077016324 0.08355666 -0.15912001 0.08780018 -0.010867876
-0.099787325 -0.107283704 0.037031244 0.010108471 -0.07290841 0.02867431 -0.09812931 -0.10608962
0.043431517 -0.043537747 -0.025154421 -0.11554252 -0.013802986 -0.16646715 0.015025766 0.04029403
-0.0002833283 -0.11363233 -0.2492695 -0.016758913 0.112288475 -0.21057273 -0.122797556 0.032487903
-0.012148945 0.10166761 0.0028553186 -0.051038515 0.036480796 0.05807316 -0.07946454 0.019782469
0.011471038 -0.15019564 -0.076019466 0.074398525 -0.13592228 -0.023987236 -0.06098478 -0.054734536
0.08075997 0.006183077 -0.03294529 0.11394027 -0.11944923 -0.017332235 0.035449903 -0.0022545324
0.03198896 0.09581181 0.09759265 -0.0029869918 0.092155665 0.08820776 -0.19737376 -0.07950545
-0.1298288 -0.00936848 -0.050806966 0.0308885 -0.07291272 0.05197957 -0.019476872 -0.112799026
-0.024630072 -0.051585026 -0.029655557 -0.12546985 0.068687 0.08477353 0.055215113 0.020844417
-0.08720926 0.040955167 -0.15112892 -0.09042933 0.031974167 0.13377625 0.028374575 -0.0488204
0.014220233 -0.10602554 -0.015144921 0.05886306 0.058827013 0.030484563 -0.07603284 -0.1165531
0.0059822258 0.017007126 -0.034171935 -0.06966006 0.0022596712 -0.053587053 0.15580826 -0.09960799
0.044767454 -0.06860683 -0.1041049 0.040948305 -0.085928015 -0.018017245 -0.025228018 0.021280166
0.0427193 0.09426285 0.019659886 -0.15815756 -0.08477316 0.07809984 -0.050158575 0.025378726
-0.021647666 0.046018183 -0.0244064 -0.014369301 0.0064516403 0.061491124 0.05748748 0.010308938
-0.049903437 -0.094643876 -0.034550045 -0.076977424 0.08367063 0.018465094 -0.09131213 -0.023075674
-0.083566375 0.0206915 -0.15981671 -0.01766203 0.028197102 -0.022835135 -0.09033705 0.030754853
0.027852183 0.04111963 -0.14814115 0.05613142 -0.0696957 -0.10945881 0.073881894 0.09661774
0.054242425 0.009553444 -0.013052156 -0.15793481 0.013427888 -0.09007492 -0.09770985 -0.076032
0.014768512 0.08367328 0.12811601 -0.1594864 -0.11403542 -0.026416346 -0.0017840873 0.1414925

conv2.bias f4 [32]
00000000: 30b1 51bc f48a d03b 6fcb a3bc 558a 403a
00000010: 0bf5 693c 5fa4 4d3d ac8c 4bbd 0962 b33c
00000020: 53bb 8dbd 1227 03bd 2bac 18bc 7030 093b
00000030: 3210 043d 3650 ff3b b319 793b e03d e4bc
00000040: f7d0 3a3d 25e6 95bd 07db a8bb 3777 7fbd
00000050: 1183 b6b9 0425 41bc 4afc 943d c778 5d3d
00000060: 3907 afbb 5f09 f4bc 8538 03bd 2333 e33b
00000070: 9776 f2bc 4fa2 a33d 4554 9ebc a03e fa3a
-0.012798592 0.0063642208 -0.019994466 0.0007344832 0.014279614 0.050205585 -0.049694702 0.021897333
-0.06920495 -0.032019682 -0.009318392 0.0020933412 0.032242008 0.0077915443 0.0038009703 -0.027861536
0.04560944 -0.07319287 -0.005153063 -0.06236955 -0.00034811397 -0.01178861 0.07274683 0.05407026
-0.005341437 -0.029789625 -0.032036323 0.006933586 -0.029597564 0.07989942 -0.019327292 0.001909215
