Ratio_Reverse/checkpoint_step_0175.pth (torch_old, 541551 bytes, 24 tensors)

momentum_buffer f4 [3]
0	0xbe009516	-0.12556872
1	0x3e6a1c8d	0.22862454
2	0xbe652bdf	-0.22380017

momentum_buffer f4 [3]
0	0x3cbc40c4	0.022980101
1	0xbe58349e	-0.21113822
2	0x3e5007bf	0.20315455

momentum_buffer f4 [32, 3, 5, 5]
0	0xbd2a53c7	-0.041583803
1	0xbd358259	-0.044313762
2	0xbd32d8a8	-0.04366365
3	0xbd3228b8	-0.043495864
4	0xbd2e7b28	-0.04259792
5	0xbd3768dc	-0.044777736
6	0xbd4313f2	-0.047626443
7	0xbd420a95	-0.047373373
8	0xbd3fe5bc	-0.04684995
9	0xbd3ba25a	-0.045809127
10	0xbd375e70	-0.044767797
11	0xbd428170	-0.047486722
12	0xbd41d39d	-0.04732095
13	0xbd3d8e29	-0.046278153
14	0xbd39c785	-0.045356292
15	0xbd318320	-0.04333794
16	0xbd3d7f51	-0.046263997
17	0xbd3b0a79	-0.045664284
18	0xbd37705a	-0.04478488
19	0xbd361aa7	-0.04445901
20	0xbd34b2f8	-0.04411599
21	0xbd408a90	-0.047007143
22	0xbd3c731d	-0.046008218
23	0xbd3b0197	-0.045655813
24	0xbd384108	-0.044983894
25	0xbd4f82be	-0.050661795
26	0xbd5ad53e	-0.05342602
27	0xbd593831	-0.053032104
28	0xbd545e9e	-0.051848046
29	0xbd5223bf	-0.05130362
30	0xbd5a49e0	-0.05329311
31	0xbd6a6a0e	-0.057230048
32	0xbd66c91b	-0.056344133
33	0xbd651557	-0.055928554
34	0xbd602cc2	-0.054730184
35	0xbd5d51e2	-0.054033168
36	0xbd67c158	-0.05658087
37	0xbd637aca	-0.055537023
38	0xbd625e94	-0.055265978
39	0xbd5f733b	-0.05455325
40	0xbd57a3e7	-0.052646544
41	0xbd63515a	-0.055497505
42	0xbd5c1d21	-0.053738717
43	0xbd58c355	-0.05292066
44	0xbd58da87	-0.05294278
45	0xbd584f89	-0.052810226
46	0xbd63f416	-0.0556527
47	0xbd6043c7	-0.054752138
48	0xbd5df6e4	-0.05419053
49	0xbd5af54c	-0.05345659
50	0xbd2a30b3	-0.04155035
51	0xbd35b5ce	-0.044362836
52	0xbd303c41	-0.043026213
53	0xbd2afeb4	-0.04174681
54	0xbd28992f	-0.041161712
55	0xbd37cec4	-0.04487492
56	0xbd41428f	-0.047182616
57	0xbd3d841a	-0.04626856
58	0xbd3abb3f	-0.045588728
59	0xbd352a9f	-0.0442301
60	0xbd36f364	-0.04466571
61	0xbd3ef405	-0.046619434
62	0xbd38f279	-0.045153115
63	0xbd35ea69	-0.044413004
64	0xbd330606	-0.043706916
65	0xbd327e6d	-0.0435776
66	0xbd3675b3	-0.04454584
67	0xbd343983	-0.04400016
68	0xbd2cee3b	-0.04221938
69	0xbd2ca5fa	-0.042150475
70	0xbd30e224	-0.043184415
71	0xbd3809e8	-0.044931322
72	0xbd3585a7	-0.044316914
73	0xbd30bf2a	-0.04315106
74	0xbd2cb27b	-0.0421624
75	0xbcb3b2c1	-0.021935822
76	0xbca6c5ef	-0.020358054
77	0xbc8ec9f8	-0.01743029
78	0xbc7334e8	-0.014844157
79	0xbc3ea2ba	-0.011635477
80	0xbcc2abe7	-0.02376361
81	0xbcb73c95	-0.022367755
82	0xbc9982d0	-0.018739134
83	0xbc77f094	-0.015133042
84	0xbc30c7f2	-0.010789858
85	0xbcb2f231	-0.021844001
86	0xbcb0bcca	-0.021574397
87	0xbc96f8c8	-0.018429175
88	0xbc71e56a	-0.014764169
89	0xbc29ae1b	-0.010356451
90	0xbcaa3f58	-0.020782158
91	0xbca8e5ac	-0.020617329
92	0xbc99633a	-0.018724073
93	0xbc78f655	-0.015195449
94	0xbc392581	-0.0113004455
95	0xbca57fc2	-0.020202521
96	0xbca61d1b	-0.02027755
97	0xbc95e48a	-0.018297452
98	0xbc702ebb	-0.014659579
99	0xbc350426	-0.011048352
100	0xbc63a840	-0.013895094
101	0xbc3cc266	-0.011520958
102	0xbc0ea5fa	-0.008706564
103	0xbbc1bbb2	-0.0059122676
104	0xbb3b47a2	-0.0028576632
105	0xbc732b28	-0.014841832
106	0xbc59bdd2	-0.013289886
107	0xbc2381ca	-0.009979675
108	0xbbb61b62	-0.0055574635
109	0xbaf72ed0	-0.0018858556
110	0xbc55ee8e	-0.013057364
111	0xbc4cbcd1	-0.012496189
112	0xbc1d06e3	-0.009584161
113	0xbbb1add8	-0.005422335
114	0xbacd7780	-0.0015675873
115	0xbc42eecf	-0.011897757
116	0xbc40e6de	-0.011773793
117	0xbc1c8a84	-0.009554509
118	0xbbb45801	-0.005503655
119	0xbb150ec6	-0.0022744401
120	0xbc365ee5	-0.011131023
121	0xbc24f1fe	-0.010067461
122	0xbc098f84	-0.008396033
123	0xbb954d91	-0.004556366
124	0xbaaca4ec	-0.0013171709
125	0xbcc6af60	-0.024253547
126	0xbcb5969d	-0.022166545
127	0xbc93f76d	-0.018062318
128	0xbc6c05d6	-0.014405688
129	0xbc34980c	-0.011022579
130	0xbcc87bc6	-0.024473082
131	0xbcb9a534	-0.022661783
132	0xbc9b7b09	-0.018979566
133	0xbc64542d	-0.013936085
134	0xbc0e47db	-0.008684124
135	0xbcb91cd8	-0.022596762
136	0xbcb002dc	-0.021485738
137	0xbc948476	-0.018129569
138	0xbc551d36	-0.013007453
139	0xbc0ac2c8	-0.008469291
140	0xbcaa585a	-0.020794082
141	0xbca52f3d	-0.020164127
142	0xbc8dfeb0	-0.017333359
143	0xbc56687f	-0.013086437
144	0xbc143615	-0.009046097
145	0xbc99c3be	-0.018770095
146	0xbc96ff07	-0.018432153
147	0xbc824fb1	-0.01590714
148	0xbc457e80	-0.012054086
149	0xbc094b4c	-0.008379769
150	0xbcc42924	-0.023945399
151	0xbc9bad34	-0.019003488
152	0xbc0cb6a2	-0.008588465
153	0xbb62abf1	-0.0034587348
154	0xb9ec9f80	-0.00045132264
155	0xbcbf2971	-0.02333519
156	0xbc91cd23	-0.017798012
157	0xbbb02ad9	-0.0053762016
158	0x3a8e2581	0.0010844917
159	0x3bb87105	0.0056287074
160	0xbccb3937	-0.024807556
161	0xbc9f6bd2	-0.019460592
162	0xbbbf8478	-0.005844649
163	0x3ab41d0e	0.0013741569
164	0x3be000aa	0.0068360167
165	0xbcbd2600	-0.023089409
166	0xbc9ad02a	-0.018898088
167	0xbbf3ef1d	-0.007444276
168	0x3a9a1af7	0.0011757304
169	0x3be945aa	0.0071189003
170	0xbcacb379	-0.021081673
171	0xbc929377	-0.017892582
172	0xbc1be7b4	-0.009515692
173	0xbac5b592	-0.0015084019
174	0x3bad3fb6	0.005287136
175	0xbb3954fc	-0.0028279414
176	0x3aaa1293	0.0012975506
177	0x3c411c8f	0.011786594
178	0x3c851511	0.016245397
179	0x3ca4d8da	0.020122934
180	0xbb1f0524	-0.0024264539
181	0x3b490816	0.0030674986
182	0x3c7fd536	0.015614798
183	0x3cb243a2	0.021760765
184	0x3cd34d56	0.025793713
185	0xbb4d32ee	-0.0031310874
186	0x3b260f60	0.0025338754
187	0x3c7a8d30	0.015292451
188	0x3cb653a5	0.022256682
189	0x3cdee1df	0.027207313
190	0xbabdf1c2	-0.0014491605
191	0x3b132ee0	0.002245836
192	0x3c629b12	0.013830917
193	0x3cb42b06	0.021993171
194	0x3ce6df2e	0.028182592
195	0x3aad3f8d	0.0013217792
196	0x3b791c8a	0.0038011395
197	0x3c4d8785	0.012544517
198	0x3c9e219c	0.019303136
199	0x3cd22722	0.025653426
200	0xbcaf3c3b	-0.021391025
201	0xbc847ded	-0.016173327
202	0xbbbf5ce7	-0.0058399322
203	0xb94bb2de	-0.00019426222
204	0x3b43372e	0.0029787528
205	0xbcae57fe	-0.021282192
206	0xbc7d4986	-0.015459424
207	0xbaebdfd2	-0.0017995781
208	0x3bb4ae67	0.0055139544
209	0x3c1b075a	0.009462202
210	0xbcb42323	-0.02198941
211	0xbc813748	-0.01577343
212	0xbb1f91f3	-0.0024348467
213	0x3bc442a9	0.005989392
214	0x3c3bf14c	0.011471104
215	0xbca59b5f	-0.020215688
216	0xbc830b94	-0.015996732
217	0xbb89d054	-0.004205743
218	0x3ba27753	0.004958072
219	0x3c3ca06f	0.01151286
220	0xbc89c30f	-0.016816644
221	0xbc687dff	-0.014190196
222	0xbbbbaad5	-0.005727152
223	0x3b0cae17	0.002146607
224	0x3c13f906	0.00903154
225	0x3d1593e5	0.036517996
226	0x3d2a9a66	0.041651152
227	0x3d2bbc5a	0.041927673
228	0x3d2c0bb1	0.042003337
229	0x3d250229	0.040285263
230	0x3d1aa3fc	0.037754044
231	0x3d2d7055	0.042343456
232	0x3d3195f8	0.043355912
233	0x3d2e7f3e	0.042601816
234	0x3d285be2	0.04110325
235	0x3d1a6d3b	0.037701827
236	0x3d2c74a3	0.04210342
237	0x3d2ea54c	0.042638108
238	0x3d2ce7e5	0.04221334
239	0x3d27f1d1	0.0410021
240	0x3d19395a	0.03740821
241	0x3d2bbaf8	0.041926354
242	0x3d2cb07e	0.042160504
243	0x3d2a3108	0.041550666
244	0x3d22ceca	0.03974799
245	0x3d106a8a	0.035257854
246	0x3d21e634	0.03952618
247	0x3d23def4	0.040007547
248	0x3d1fdc90	0.039028704
249	0x3d19506a	0.037430204
250	0x3d15e6a0	0.036596894
251	0x3d2a425d	0.041567195
252	0x3d2d4261	0.042299632
253	0x3d2c5799	0.042075727
254	0x3d28b089	0.041183982
255	0x3d187322	0.037219174

momentum_buffer f4 [32]
0	0x3cfdc159	0.030975984
1	0xbcddc7ee	-0.027072873
2	0xbd7af153	-0.0612653
3	0xbcdbd730	-0.026836008
4	0xbdd0397c	-0.10167214
5	0x3d3a1307	0.045428302
6	0xbd8a4215	-0.067508854
7	0x3d7522a9	0.059847508
8	0x3dd5395a	0.104113296
9	0xbc8eb2ae	-0.017419185
10	0xbc38ba42	-0.011274876
11	0xbadb9208	-0.0016751895
12	0xbd08db89	-0.03341249
13	0x3c1f55c1	0.009725035
14	0xbd914f14	-0.07095161
15	0x3def45a6	0.11683206
16	0x3cf839ca	0.030300993
17	0xbbc968cb	-0.0061465255
18	0x3c65871d	0.014009264
19	0xbdc7cc1c	-0.09755728
20	0x3d7a08ac	0.061043426
21	0x3d8585cb	0.065196596
22	0xbda9174b	-0.08256396
23	0xbc0236b9	-0.007947617
24	0xbdc02f79	-0.09384055
25	0x3d216257	0.039400425
26	0xbd5fb4ce	-0.05461579
27	0x3d7da95d	0.061929096
28	0xbd66e511	-0.0563708
29	0xbd69e3bd	-0.057101954
30	0x3b3a0b48	0.0028388072
31	0x3c5e4502	0.013566257

momentum_buffer f4 [32, 32, 3, 3]
0	0xba094027	-0.00052356947
1	0xb88ca1ba	-6.705844e-05
2	0xb9bc6b37	-0.00035938036
3	0xb9461384	-0.00018890022
4	0x3a07d8d5	0.0005182152
5	0xba84fb72	-0.0010145737
6	0x3a1fe231	0.0006099074
7	0xb9be5080	-0.000362996
8	0xb89ddd5c	-7.527575e-05
9	0xb9286be2	-0.00016061918
10	0x39b1550b	0.00033823433
11	0x39d18c7c	0.00039968255
12	0x39fe7bd1	0.00048538906
13	0x3a454b26	0.00075261516
14	0x3a096dee	0.0005242516
15	0x3a3452e6	0.0006878808
16	0x398ff938	0.00027460768
17	0x3a7bc037	0.00096035324
18	0x3949dc74	0.00019250979
19	0xb8fd918c	-0.0001209109
20	0x38bb8a84	8.9426554e-05
21	0x3a1e73aa	0.0006044457
22	0x3940259b	0.00018324556
23	0xb636dd00	-2.7248752e-06
24	0x39484b9a	0.0001910165
25	0x37cf42ca	2.4707424e-05
26	0xb7794800	-1.485832e-05
27	0x3a352fad	0.00069117063
28	0x38c33ce4	9.309666e-05
29	0x3a87a57d	0.0010349002
30	0x3a486b56	0.0007645389
31	0x3a84eb02	0.0010140839
32	0x39644c27	0.00021772143
33	0xb776d780	-1.4712918e-05
34	0x3a718884	0.0009213763
35	0x3a050413	0.00050741545
36	0x38dc25ad	0.00010497435
37	0xb95c6642	-0.00021018929
38	0xb91718ee	-0.00014409769
39	0xb9b6651c	-0.00034789077
40	0xba8a1a31	-0.001053637
41	0x389b1668	7.3951494e-05
42	0xba264c64	-0.00063437806
43	0x39485bc9	0.00019107679
44	0x3a255d2a	0.0006308133
45	0x3a623bc4	0.00086301216
46	0x3a978a20	0.001156155
47	0x39f7b44e	0.0004724585
48	0x3a11c6ca	0.0005560933
49	0x39bdb500	0.00036183745
50	0x390cd866	0.00013432055
51	0x38411e98	4.604328e-05
52	0x3a329314	0.00068120775
53	0x38d8eda0	0.00010343944
54	0xb8d3d744	-0.000101013604
55	0xb933e400	-0.00017155707
56	0xb80f5885	-3.4176297e-05
57	0xb95321af	-0.00020135076
58	0x399d0166	0.00029946415
59	0x39c9f7ce	0.00038522336
60	0x3925ac54	0.00015799823
61	0x38bb2113	8.9230154e-05
62	0xb9f599b9	-0.00046844574
63	0x3adb48a8	0.0016730027
64	0x3b0c7a6f	0.002143528
65	0x3b1c47b1	0.0023846442
66	0x3af1b59e	0.0018440967
67	0x3abff42c	0.0014644912
68	0x3acd70ca	0.0015673873
69	0x3b00dc5f	0.0019662601
70	0x3acc5e95	0.0015592152
71	0x3aced0a0	0.0015778728
72	0x3a11acec	0.00055570784
73	0x39707758	0.00022932643
74	0x3a6b09fe	0.00089660275
75	0xb9e8d1ce	-0.00044406805
76	0xb9635bbc	-0.0002168258
77	0x392f99fa	0.00016746661
78	0x38e4471e	0.00010885134
79	0x3950ee8d	0.00019925293
80	0x3a7a20dc	0.00095416396
81	0x399e30fa	0.000301726
82	0x3a404471	0.00073344173
83	0x3a47095f	0.0007592644
84	0xb7786e00	-1.4807563e-05
85	0x39ed39de	0.00045247277
86	0x390e2baa	0.00013558441
87	0x3a0ef920	0.00054539926
88	0x39af6b17	0.0003345839
89	0x38e0bbb8	0.00010716118
90	0x3a0354d1	0.0005009892
91	0x3a26c41a	0.0006361619
92	0x3a455d60	0.00075288676
93	0xb9ff9fad	-0.00048756358
94	0x3a31368d	0.0006760143
95	0x398ad669	0.0002648116
96	0xb94d09ee	-0.00019554023
97	0xb99d49b7	-0.00030000295
98	0x3a009bd5	0.0004906033
99	0xb8e5c654	-0.000109565124
100	0xba1552fd	-0.0005696265
101	0x38315fed	4.2289426e-05
102	0xba2cd3c5	-0.00065928354
103	0xba42a669	-0.000742531
104	0x38b25a9c	8.504579e-05
105	0xb9c51ccc	-0.00037596223
106	0xb9b15392	-0.00033822336
107	0xba3db262	-0.0007236359
108	0x35eb6a90	1.7539878e-06
109	0xba3d8b2a	-0.0007230515
110	0x3937f551	0.00017543627
111	0x39780120	0.00023651542
112	0x386fce36	5.717409e-05
113	0xba03fe81	-0.00050351775
114	0xbaa33d3a	-0.001245416
115	0xb892302a	-6.970794e-05
116	0x3a1966b6	0.0005851792
117	0xba7b4fa1	-0.0009586756
118	0xb9f56e68	-0.000468123
119	0x39f95e3b	0.00047563188
120	0x381d6df0	3.7534104e-05
121	0x3a27f46a	0.0006406965
122	0x398fac40	0.00027403422
123	0xb93595a0	-0.00017317245
124	0x398f5310	0.00027336972
125	0x3a003d9f	0.0004891995
126	0xb9d854ad	-0.0004126182
127	0x38906566	6.885342e-05
128	0xb90fa96c	-0.00013700657
129	0xba492614	-0.00076732156
130	0xb9d775f3	-0.00041095875
131	0x392f560b	0.00016721354
132	0xba3376d7	-0.00068460166
133	0xb916914e	-0.00014359245
134	0xba02a520	-0.0004983712
135	0xb95d1e54	-0.000210875
136	0x39eb5a0c	0.00044889783
137	0x38bc2a39	8.972403e-05
138	0xb90ad30e	-0.0001323933
139	0x3a1991ed	0.00058582315
140	0xba184233	-0.00058082043
141	0xb8924f6d	-6.976617e-05
142	0x393834a6	0.0001756722
143	0xb7a1f306	-1.9305862e-05
144	0x3a460ba7	0.0007554837
145	0x3a9063e6	0.00110161
146	0x3a877ff6	0.0010337818
147	0x3a0c03a9	0.00053411216
148	0x3a8a232d	0.0010539048
149	0x3a7bd202	0.0009606184
150	0xb9fa6b39	-0.00047763603
151	0x391537cd	0.00014230535
152	0xb932c584	-0.00017048983
153	0x3885cc60	6.380002e-05
154	0xb871d500	-5.765725e-05
155	0x39eaa14b	0.0004475213
156	0xb9a0a459	-0.00030640027
157	0x39d3d955	0.0004040698
158	0x38e4be1c	0.00010907298
159	0xba0469a7	-0.0005051144
160	0xb73a73a0	-1.1113385e-05
161	0xb8d28738	-0.00010038767
162	0xb808686d	-3.252218e-05
163	0xb9eeece3	-0.00045571392
164	0x39ed37dd	0.00045245784
165	0x3a07dd3e	0.0005182809
166	0x39db8a24	0.00041873858
167	0x39686f19	0.00022166631
168	0xb9cb693a	-0.00038797577
169	0x399324fa	0.00028065575
170	0xba3612f7	-0.0006945575
171	0x3b1227af	0.0022301485
172	0x3b3ff26f	0.0029288789
173	0x3b62967c	0.003457456
174	0x3b355139	0.002766682
175	0x3b220128	0.0024719927
176	0x3b37c0a7	0.0028038414
177	0x3b0982bb	0.0020982462
178	0x3b2cf3cd	0.0026390434
179	0x3b45a976	0.003016082
180	0x398a59eb	0.00026388405
181	0x39196e41	0.0001463229
182	0xb9be2716	-0.00036268745
183	0xba26bf35	-0.00063608895
184	0xb70435e8	-7.880364e-06
185	0x38986534	7.266775e-05
186	0xb9874137	-0.00025797795
187	0xb9dab4f3	-0.00041715018
188	0xb812ea39	-3.502725e-05
189	0xb927aa97	-0.00015989911
190	0x3a763586	0.0009392131
191	0xb9d1be78	-0.00040005497
192	0x39a08e48	0.00030623586
193	0xb971f9d6	-0.00023076622
194	0xb9e5a60b	-0.00043801995
195	0x397c48bb	0.00024059687
196	0xb9c61a56	-0.00037785125
197	0xb89157cf	-6.9304944e-05
198	0xba10579b	-0.00055062183
199	0xba45102d	-0.0007517364
200	0xb99e6ddf	-0.0003021797
201	0x38efdccc	0.00011437535
202	0xba3b44e9	-0.00071437523
203	0xbaa89b70	-0.0012863707
204	0xba408f6f	-0.0007345592
205	0xb9be1867	-0.00036257805
206	0xba3ef124	-0.00072838576
207	0x39966a6b	0.00028689517
208	0x38d8f75a	0.000103457554
209	0x398f296e	0.00027305953
210	0xb6ade02a	-5.181898e-06
211	0x38f650d0	0.000117452466
212	0x38c5aab5	9.425489e-05
213	0x39abca67	0.00032766463
214	0x39b635a2	0.00034753705
215	0x3765db00	1.3700454e-05
216	0xb969153d	-0.00022228523
217	0xb9e0cbc3	-0.00042876424
218	0xb91ceff5	-0.0001496671
219	0xb9c0b451	-0.0003675544
220	0x39eb5408	0.000448853
221	0x38e6c55e	0.00011004017
222	0xb9ec8813	-0.0004511481
223	0xb8df9c16	-0.00010662542
224	0xb9e09aa8	-0.00042839837
225	0xb87346db	-5.8001704e-05
226	0xba6e9b9e	-0.0009102168
227	0xb911d9b0	-0.00013909373
228	0xb6471ca0	-2.9669973e-06
229	0xb9639a74	-0.00021705945
230	0xb9fe4eb0	-0.00048505282
231	0x36f589d0	7.3176125e-06
232	0x37c68590	2.3665634e-05
233	0x39266648	0.00015869096
234	0xba425ead	-0.00074146205
235	0x398e8413	0.00027182754
236	0xb9b43056	-0.00034368288
237	0xba0d937e	-0.0005400701
238	0x39c166f0	0.00036888523
239	0x3a01557b	0.0004933697
240	0x39948036	0.00028324284
241	0x38804e75	6.1181294e-05
242	0xb8246162	-3.919134e-05
243	0xba0fe379	-0.0005488913
244	0x39a7b996	0.00031990994
245	0xb9740adf	-0.00023273703
246	0xb97b9922	-0.00023994272
247	0xb8f44f5c	-0.000116496085
248	0x399fd438	0.0003048496
249	0x3a2bb39c	0.0006549896
250	0x3a685ce4	0.00088639394
251	0xba162613	-0.00057277194
252	0xba049edb	-0.00050590717
253	0xb87bb54a	-6.0011902e-05
254	0xb828b2b9	-4.022077e-05
255	0x3a4511a6	0.00075175834

momentum_buffer f4 [32]
0	0x3a21c399	0.0006170809
1	0xbcac5acb	-0.021039387
2	0xbd8e3ef7	-0.06945603
3	0xb9f8be40	-0.00047443993
4	0xbdb65c1a	-0.08904286
5	0xbb9e6e0f	-0.0048348974
6	0x3c2a7678	0.010404222
7	0x3bb0cd6b	0.0053955815
8	0xbc4b950e	-0.012425674
9	0xbdc114aa	-0.094277695
10	0x3c8ed9cd	0.01743784
11	0x3d5186cf	0.051153954
12	0xbaf43e92	-0.001863437
13	0xbb587636	-0.0033029444
14	0xbc38404f	-0.011245801
15	0xbb372242	-0.0027944003
16	0xbcb783e8	-0.022401765
17	0xbd162855	-0.036659557
18	0x3cd017e5	0.025402019
19	0x3bf6adae	0.0075280285
20	0x3db3512b	0.08755716
21	0xbdc7b921	-0.097521074
22	0xbda5c310	-0.08093846
23	0x3afbecca	0.0019220349
24	0xbcfee655	-0.03111569
25	0x3b45bad9	0.0030171184
26	0x3a0a3bea	0.000527321
27	0x3c950195	0.018189231
28	0xbbc30272	-0.0059512192
29	0x3d87789f	0.066148035
30	0xbc091ac2	-0.008368196
31	0xbad7bbc8	-0.0016459161

momentum_buffer f4 [64, 32, 3, 3]
0	0xb82fc88b	-4.191002e-05
1	0xb992223a	-0.0002787279
2	0xb7fc303b	-3.00632e-05
3	0xb946117d	-0.00018889266
4	0xb7508e44	-1.243089e-05
5	0xb8b760f9	-8.7441826e-05
6	0x392d58c6	0.00016531636
7	0xb915b841	-0.00014278387
8	0xb8e4cacc	-0.00010909661
9	0xbae50bef	-0.001747487
10	0xbad1ac2e	-0.0015996748
11	0xbaf180e7	-0.0018425257
12	0xbac62653	-0.0015117623
13	0xbaf4b570	-0.0018669795
14	0xbaf45a87	-0.0018642702
15	0xbac9b608	-0.0015389333
16	0xbab5636f	-0.0013838838
17	0xbade4f9a	-0.0016960979
18	0xb9e7f918	-0.00044245343
19	0xba0263c2	-0.00049739715
20	0xb97b8b71	-0.00023989171
21	0x374bb840	1.2142642e-05
22	0xb9161cb2	-0.00014315805
23	0xb9bcb1fc	-0.00035990763
24	0x3709eca3	8.220933e-06
25	0x38bef046	9.1046604e-05
26	0xb962f75c	-0.00021645188
27	0xb9790959	-0.00023749973
28	0xba06085c	-0.000511294
29	0x37cef7aa	2.4672441e-05
30	0x3915d43d	0.00014288812
31	0x39d085b6	0.00039772474
32	0xb8df0543	-0.00010634449
33	0xb91ec3f9	-0.0001514106
34	0xb969d165	-0.00022298617
35	0xb9023cdf	-0.00012420442
36	0xba9e4469	-0.0012074831
37	0xba793d95	-0.00095077726
38	0xbac7bffa	-0.0015239709
39	0xb9e966f6	-0.00044517935
40	0xb9fecf9a	-0.0004860133
41	0xbac1078b	-0.001472698
42	0xba47e514	-0.0007625383
43	0xba836b6e	-0.0010026523
44	0xba68939c	-0.0008872093
45	0x39f25d99	0.00046227573
46	0x385a1780	5.1997136e-05
47	0xb939d79a	-0.00017723293
48	0x38d0f7b1	9.964349e-05
49	0xba07ee2d	-0.0005185332
50	0xb940abfb	-0.00018374615
51	0x399d0ad2	0.00029953435
52	0xb8f1fc0e	-0.00011538724
53	0x3871f534	5.768724e-05
54	0xb8f7d67c	-0.000118178286
55	0xb9c51239	-0.00037588345
56	0xb96accf1	-0.00022392326
57	0xb9fd3e01	-0.00048302117
58	0xb9eb39cd	-0.00044865758
59	0xb9dadea2	-0.00041746075
60	0xba07926f	-0.00051716616
61	0x3614e728	2.218827e-06
62	0x39306048	0.00016820536
63	0xb99a9d9d	-0.000294906
64	0x39a25bef	0.00030967544
65	0xb9dbdced	-0.00041935538
66	0x3994d5e5	0.00028388124
67	0x3921e09f	0.00015437834
68	0x39414e64	0.00018435117
69	0xb93f797d	-0.00018260437
70	0xb955a967	-0.0002037637
71	0xba1a63d7	-0.0005889511
72	0x38ab882a	8.179278e-05
73	0xb85a0174	-5.1976604e-05
74	0xb9a405ba	-0.00031284784
75	0xb9bbe41d	-0.00035837377
76	0xb9bb07bb	-0.0003567318
77	0x39b17672	0.0003384832
78	0xb94aa110	-0.00019324222
79	0x38e29661	0.0001080453
80	0xb9be4c3a	-0.00036296417
81	0xba3b5d09	-0.0007147347
82	0xba2ef468	-0.00066739926
83	0xb9dc08bb	-0.00041968175
84	0xba268d70	-0.0006353473
85	0xb8214042	-3.8445236e-05
86	0xb6b943f0	-5.5213386e-06
87	0xb9bb3ac3	-0.000357112
88	0xba195df5	-0.00058504875
89	0xb8dcc8c6	-0.000105278144
90	0xba9facb9	-0.0012182213
91	0xba6a3b4c	-0.00089352275
92	0xba7e433f	-0.00096993515
93	0xbac8093a	-0.0015261539
94	0xba52f282	-0.0008047001
95	0xba7457e3	-0.00093209575
96	0xba2fe00b	-0.0006709105
97	0xbaa495f3	-0.0012556895
98	0xbaa237cd	-0.0012376249
99	0xbb1ace87	-0.0023621635
100	0xbacca86b	-0.0015614157
101	0xbb1777fa	-0.0023112283
102	0xbad888fc	-0.0016520317
103	0xbb13c444	-0.0022547403
104	0xbaeeaf50	-0.0018210206
105	0xbac21285	-0.0014806545
106	0xbad57305	-0.0016284889
107	0xbaf98d82	-0.0019039365
108	0x399058bf	0.0002753194
109	0xb6afc15e	-5.2379173e-06
110	0xb9cc3f54	-0.00038957095
111	0x3921621d	0.00015390707
112	0xb9d65e52	-0.00040887535
113	0x37ad091a	2.0627445e-05
114	0x38aad270	8.145429e-05
115	0xba04c9c5	-0.00050654664
116	0xb8abadf4	-8.186317e-05
117	0xb9c5fefa	-0.0003776474
118	0xb875daa5	-5.861618e-05
119	0x396cab07	0.00022570427
120	0xb78b03b7	-1.6571821e-05
121	0x393ef27a	0.00018210142
122	0xb97038bf	-0.00022909323
123	0xb9a263b7	-0.0003097334
124	0x393100ca	0.0001688033
125	0x379ef374	1.8948434e-05
126	0xb78579a2	-1.5911475e-05
127	0xbaa20c67	-0.0012363315
128	0xba489221	-0.00076511694
129	0xb998ba06	-0.00029130297
130	0xb9cebf9f	-0.0003943415
131	0xbab2665c	-0.0013610828
132	0xb9f6accd	-0.00047049523
133	0xba81aa0d	-0.0009892598
134	0xba6757bc	-0.0008825024
135	0xbb53afc2	-0.0032300805
136	0xbb3fe9bd	-0.0029283606
137	0xbb625ea0	-0.0034541264
138	0xbb4b3fe8	-0.0031013433
139	0xbb3df29b	-0.0028983715
140	0xbb3bb5e0	-0.0028642341
141	0xbb16e036	-0.0023021824
142	0xbb4fc7fa	-0.0031704889
143	0xbb4f5733	-0.0031637668
144	0xba02f295	-0.0004995254
145	0xba56a290	-0.0008187676
146	0xba72f718	-0.0009268387
147	0xb9edb1fa	-0.00045336765
148	0xb981a0d7	-0.00024724632
149	0xba4063d6	-0.00073390955
150	0xb8b63f1c	-8.690191e-05
151	0xb9d7b50f	-0.00041142895
152	0xba5e7ef9	-0.00084875483
153	0xb8e96ab4	-0.00011130181
154	0x38091ae9	3.2688407e-05
155	0xba36f5da	-0.0006979384
156	0xb9215f50	-0.00015389663
157	0xb96d7c72	-0.00022648441
158	0xb9f699c2	-0.00047035335
159	0xb998fc1c	-0.00029179535
160	0xb9d6b5ad	-0.0004095262
161	0xb99ff474	-0.00030508975
162	0xb962f0ab	-0.00021642695
163	0x385c9985	5.2595064e-05
164	0xba3542d8	-0.00069145625
165	0xb9451cce	-0.00018798115
166	0x379ba17f	1.8552642e-05
167	0x39dd6e62	0.00042234646
168	0xb9910f70	-0.00027668057
169	0x397736f1	0.00023576223
170	0xb99ef974	-0.00030321965
171	0xba8c09f5	-0.001068412
172	0xb92e4178	-0.00016618322
173	0xba460cf1	-0.0007555029
174	0xb997e5a2	-0.00028972054
175	0xba1c8ee8	-0.00059722224
176	0xba17c487	-0.0005789478
177	0xb9975f00	-0.00028871745
178	0xb9d80830	-0.0004120483
179	0xba8fd822	-0.0010974447
180	0xb909e228	-0.00013149588
181	0xb9a388a3	-0.00031191585
182	0xb9325775	-0.00017007983
183	0xb98f37e2	-0.0002731672
184	0xb9921ebe	-0.00027870195
185	0x378c53af	1.6728269e-05
186	0xb999745f	-0.00029269137
187	0xba45a7ba	-0.0007539947
188	0xb871bfb7	-5.7637426e-05
189	0xba034fd7	-0.00050091505
190	0xba92e760	-0.0011207871
191	0xba806df1	-0.000979839
192	0xba3d3d2c	-0.0007218893
193	0xba18a2ec	-0.0005822617
194	0xbab6bf7e	-0.0013942567
195	0xb9a6794d	-0.00031752363
196	0xba5d031f	-0.0008430946
197	0xba8ffae7	-0.0010984809
198	0xbb028d43	-0.0019920624
199	0xbb10d487	-0.0022099332
200	0xbb3d0fd1	-0.0028848539
201	0xbad290fd	-0.0016064938
202	0xbad9df05	-0.0016622251
203	0xbb07cd6a	-0.0020721802
204	0xbabd8b0c	-0.0014460995
205	0xbb048d13	-0.0020225688
206	0xbae10491	-0.0017167499
207	0xb9397d94	-0.00017689756
208	0xb794c67f	-1.7735407e-05
209	0xba143bde	-0.0005654673
210	0x396e2a61	0.00022713236
211	0xba00168e	-0.00048861734
212	0xb9d45765	-0.00040500905
213	0xb9b7f958	-0.00035090256
214	0x3994dd47	0.00028393624
215	0x395f3024	0.00021284871
216	0xb9e4d6ff	-0.00043647733
217	0x3988fda8	0.0002612893
218	0xb964de80	-0.00021826662
219	0x38cc4cc8	9.74178e-05
220	0xb9d17ec3	-0.0003995803
221	0xb9c4b561	-0.0003751917
222	0xb71c714e	-9.324705e-06
223	0x3832dcb4	4.2644053e-05
224	0xba1f062e	-0.00060662895
225	0xb8d91b34	-0.00010352433
226	0xb9fa947c	-0.00047794345
227	0x36c3b868	5.8329206e-06
228	0x3980e23b	0.00024582617
229	0xb94b3d32	-0.00019382386
230	0x39bf4ae5	0.0003648616
231	0x39ecab3b	0.00045141004
232	0xba2f3622	-0.00066837866
233	0x39621df3	0.00021564197
234	0xb903412d	-0.00012517413
235	0x39669e17	0.00021993402
236	0xb96e37ff	-0.00022718309
237	0xb94f0cc2	-0.00019745811
238	0xb8e077b3	-0.00010703448
239	0xb910dbb9	-0.00013814763
240	0x38ea5355	0.00011173511
241	0x39267d97	0.0001587778
242	0x37d6b66c	2.5595735e-05
243	0xbb46e300	-0.0030347705
244	0xbb624995	-0.0034528722
245	0xbb59a72a	-0.003321121
246	0xbb3f6582	-0.002920479
247	0xbb432a65	-0.0029779908
248	0xbb5f907c	-0.003411322
249	0xbb2f76ab	-0.0026773612
250	0xbb4365a5	-0.0029815224
251	0xbb5084a6	-0.0031817346
252	0x383a3097	4.439111e-05
253	0xb9c6c3b2	-0.00037911307
254	0xba38b9de	-0.00070467393
255	0xb90ef71b	-0.00013634229

momentum_buffer f4 [64]
0	0xbb0a07cf	-0.0021061783
1	0xbc2f9958	-0.010717712
2	0x3a6f4e2e	0.0009128776
3	0xbb331ba5	-0.002732971
4	0xbbdcf574	-0.0067431275
5	0x392f3204	0.00016707933
6	0x3ab3bc1e	0.001371268
7	0x39272d54	0.00015943247
8	0xbac894cb	-0.0015303133
9	0x3c120ab1	0.008913682
10	0x3a50a8ec	0.00079597416
11	0xbbd84bb5	-0.006600822
12	0x3b4644ba	0.0030253367
13	0x3bee1b59	0.0072664437
14	0x3c35f86b	0.011106591
15	0xbc85f58d	-0.01635244
16	0xbcd4c285	-0.02597166
17	0x3d3854b1	0.045002643
18	0x3c402363	0.011727187
19	0xbc2e949a	-0.010655547
20	0xbc3b3a46	-0.011427468
21	0x3c14ad0f	0.0090744635
22	0xbd471a7c	-0.04860924
23	0xbc388f2f	-0.011264606
24	0x3b327a97	0.0027233714
25	0xbaf4cc71	-0.0018676651
26	0xbc23825c	-0.009979811
27	0x3c63299d	0.013864902
28	0x38b79584	8.7539695e-05
29	0xbb2ec541	-0.0026667865
30	0xbc8dd79d	-0.017314726
31	0xbb02df97	-0.0019969696
32	0x3c9c50c6	0.019081485
33	0xba395e5b	-0.000707125
34	0x3cbb9b7f	0.022901295
35	0xbc424ce2	-0.011859151
36	0x3af10fd2	0.0018391556
37	0xbc0e14b1	-0.008671925
38	0xbb9f9aa3	-0.004870729
39	0x3cdb84d2	0.026796732
40	0xbc81ee94	-0.015860833
41	0xb9af35e1	-0.00033418744
42	0xbc0a48e7	-0.008440233
43	0xbc3d60ed	-0.011558753
44	0xbd58e215	-0.052949984
45	0x3c9155a7	0.017741038
46	0x38ab5697	8.170044e-05
47	0xbaa5a9f3	-0.001263915
48	0xbbfd83cb	-0.007736658
49	0x3b839e62	0.0040166834
50	0x3aadaade	0.0013249775
51	0x38625fc6	5.3971795e-05
52	0xba0e639c	-0.0005431713
53	0xbd37d112	-0.04487712
54	0x3c758ac8	0.014986701
55	0xbb4fe1bb	-0.003172024
56	0xbb101097	-0.0021982545
57	0xb88226b1	-6.20609e-05
58	0x398cde9e	0.00026868744
59	0x3c625a6e	0.013815505
60	0xba118619	-0.0005551293
61	0x3bb20a95	0.0054333904
62	0xbc7644c1	-0.015031041
63	0x3c0cf683	0.008603695

momentum_buffer f4 [64, 64, 3, 3]
0	0xb9b8d295	-0.0003525211
1	0xb89af754	-7.389361e-05
2	0x38e2f113	0.00010821423
3	0x39808d18	0.00024519186
4	0x39e4bbb5	0.00043627401
5	0x39209165	0.00015312953
6	0x39922072	0.00027871464
7	0x38cae546	9.674816e-05
8	0x3998457b	0.00029043466
9	0x3a96153f	0.0011450424
10	0x3aba902a	0.0014233638
11	0x3a5209a8	0.0008012303
12	0x3ad5ad96	0.0016302343
13	0x3a7f46bd	0.0009738019
14	0x3a3f149c	0.0007289143
15	0x3aac00ef	0.0013122837
16	0x3a3e529b	0.0007260234
17	0x3a518715	0.0007992846
18	0x39cdd115	0.00039256425
19	0x39a2de29	0.0003106457
20	0x391cb4ed	0.0001494472
21	0x3a1b8410	0.00059324596
22	0x390fb3b6	0.0001370449
23	0xb9365d8f	-0.00017391726
24	0xb76b405f	-1.4022079e-05
25	0x38d5ee72	0.000102010454
26	0xb9016bd8	-0.00012342574
27	0x3a661301	0.00087766355
28	0x3a946aa7	0.0011323289
29	0x3a140584	0.0005646574
30	0x382f86c7	4.1848773e-05
31	0x379d5cd4	1.8759085e-05
32	0xb8129a3e	-3.495276e-05
33	0x3a10fee2	0.00055311446
34	0x39d9125b	0.0004140314
35	0x39fd7bb2	0.0004834808
36	0x3ac99121	0.0015378335
37	0x39e76380	0.00044133887
38	0x39b8d6e8	0.00035255332
39	0x3a39c961	0.0007087198
40	0x3a5499c6	0.0008110072
41	0x3a0325b2	0.00050028705
42	0x3a034c92	0.0005008663
43	0x39c3995e	0.00037307566
44	0x39645d75	0.0002177859
45	0xb97e1f1b	-0.00024234915
46	0x38630a17	5.4130414e-05
47	0x38755d85	5.849965e-05
48	0x39a1d21e	0.00030864862
49	0x397f9417	0.00024373863
50	0xb999fdb1	-0.0002937145
51	0x396f5857	0.00022825725
52	0xb9a97716	-0.00032322918
53	0x38bb665d	8.9359215e-05
54	0xb9b143df	-0.0003381064
55	0x38dfefdd	0.00010678147
56	0x39f1bab4	0.00046106207
57	0x38057f81	3.182842e-05
58	0x3907c73e	0.00012948827
59	0x39288b6c	0.00016073667
60	0x39b95e73	0.0003535632
61	0x3a127bea	0.00055879226
62	0x3835b256	4.331985e-05
63	0x392d28da	0.00016513784
64	0xb8e51902	-0.00010924229
65	0xb91be8e3	-0.00014868709
66	0x3a015625	0.0004933796
67	0xb95735b1	-0.00020524
68	0xb85f44e4	-5.3231503e-05
69	0x364a674c	3.0160472e-06
70	0x398c9bdd	0.00026819008
71	0x385c74a7	5.256073e-05
72	0xb8c272ea	-9.272045e-05
73	0xb992f722	-0.00028031418
74	0x3a0df050	0.00054145325
75	0x39c0eae1	0.00036796092
76	0xba279ed0	-0.00063942093
77	0xb9a2d261	-0.00031055792
78	0x39f21b5b	0.00046178218
79	0x39e49574	0.000435989
80	0x3992e25e	0.00028015947
81	0x3a200990	0.00061049405
82	0x37a1a7f4	1.9270905e-05
83	0x389f3566	7.591657e-05
84	0x39a19885	0.0003082195
85	0x385cba3c	5.262553e-05
86	0x3a0f14ba	0.00054581056
87	0x39899566	0.00026241987
88	0x396102e3	0.00021458748
89	0x381a365d	3.676709e-05
90	0xb8c553a8	-9.409274e-05
91	0x3924a99e	0.00015703446
92	0x39059be6	0.00012741945
93	0x39bbc06e	0.0003581079
94	0x38da36fa	0.0001040529
95	0xb90264b8	-0.00012435287
96	0xb86dedbb	-5.6726607e-05
97	0x39430a9d	0.00018600603
98	0x39dd3b72	0.00042196695
99	0x3aa25231	0.0012384114
100	0x3a5c3bcf	0.0008401246
101	0x3a8f6141	0.0010939018
102	0x3a8feb2d	0.0010980122
103	0x3aa68435	0.0012704196
104	0xb8d90688	-0.00010348583
105	0x39082432	0.00012983455
106	0x3a74a202	0.00093320024
107	0x39c38d48	0.0003729856
108	0x3ac50d95	0.0015033955
109	0x3a88cb0e	0.0010436492
110	0x395563ee	0.0002035049
111	0x3a96a0db	0.001149203
112	0x3a15280f	0.0005689868
113	0xb8812681	-6.158371e-05
114	0x3a91f5ae	0.001113584
115	0x38a97308	8.079974e-05
116	0x3a1b1ac9	0.0005916772
117	0x3aa06874	0.0012238161
118	0xb84b98bb	-4.8541213e-05
119	0x3911f6b8	0.00013920187
120	0x39a367a8	0.00031167013
121	0x38bf6224	9.12587e-05
122	0xb961815c	-0.00021505862
123	0x39e1a931	0.00043041402
124	0x39b0d644	0.00033728976
125	0x3a1d3274	0.0005996593
126	0x39e80d32	0.0004426032
127	0x38d163b2	9.984466e-05
128	0x380a562e	3.2982025e-05
129	0x39615693	0.00021489924
130	0x390174d6	0.00012345923
131	0xb987c478	-0.00025895587
132	0x39c44ed2	0.0003744276
133	0x3887cbeb	6.475284e-05
134	0x3930e1ab	0.00016868736
135	0xb7bd6e47	-2.2581908e-05
136	0x38c36445	9.317001e-05
137	0x392a9749	0.00016268821
138	0x38a241d4	7.7370234e-05
139	0x3875ac3b	5.8572954e-05
140	0x39ce0996	0.00039298524
141	0xb818cf59	-3.643273e-05
142	0xb8a5ecae	-7.911898e-05
143	0x393b9c5b	0.00017891957
144	0x3a12e85f	0.0005604084
145	0x3a568404	0.0008183124
146	0x3a3a34a5	0.00071031816
147	0x3aaa8658	0.0013010008
148	0x3a619f2f	0.0008606789
149	0x3a2b353e	0.0006531066
150	0x3995533e	0.00028481515
151	0x3a08145c	0.0005191022
152	0x3a46044d	0.00075537415
153	0x3a5f4a79	0.0008517872
154	0x39fbc7f2	0.00048023422
155	0x39ce4ed7	0.00039350122
156	0x385df1a5	5.2915555e-05
157	0xb614fa38	-2.2199365e-06
158	0x392ef3b0	0.00016684714
159	0xb8fc304e	-0.00012025294
160	0x399da85c	0.0003007081
161	0xb8ae96e4	-8.325072e-05
162	0x396f9709	0.00022849081
163	0x39d0693d	0.0003975126
164	0x3a29ec8c	0.00064820866
165	0x36619608	3.3614942e-06
166	0x38cc22e4	9.733977e-05
167	0x3a23b9a4	0.0006245619
168	0x3a045c35	0.00050491403
169	0x39f7b535	0.0004724652
170	0x37e96b03	2.7825596e-05
171	0x399b10f4	0.00029576535
172	0x39ebb8f1	0.00044960485
173	0x38f92752	0.00011880569
174	0x3a057919	0.00050915923
175	0x3a0c82a2	0.0005360042
176	0xb8d0c68b	-9.9551944e-05
177	0x39c65915	0.00037831874
178	0xb8fb0218	-0.00011969003
179	0x39dadfd3	0.00041746962
180	0x3ae52e61	0.0017485135
181	0x3aef9de9	0.0018281314
182	0x3a5ebac4	0.0008496458
183	0x3ad38509	0.001613767
184	0x3aa1abb5	0.0012334498
185	0x3a898b4e	0.0010493787
186	0x3ac2f7a5	0.0014874829
187	0x3a95141a	0.0011373789
188	0x3a8eb286	0.0010886944
189	0x3a4425a1	0.0007482414
190	0x3a0a3605	0.0005272332
191	0xb9115c8c	-0.00013862754
192	0x3a6d52ba	0.000905316
193	0xb8ec4fa4	-0.00011268191
194	0x39f64f6d	0.00046979953
195	0x3806adfc	3.2110125e-05
196	0xb7d0f694	-2.4910354e-05
197	0xb973071c	-0.00023176934
198	0x3a2d51e6	0.000661163
199	0x39c811e8	0.00038160314
200	0x3a682db6	0.0008856909
201	0x3a7f31ca	0.0009734897
202	0x3a46ffb2	0.0007591202
203	0x3a6bc224	0.0008993468
204	0x3a49a032	0.00076914125
205	0x3a61f5cc	0.00086196954
206	0x3a71c5cf	0.0009222896
207	0x3965f310	0.0002192969
208	0x39be27a6	0.00036269164
209	0x39c8bc74	0.0003828738
210	0x390be38c	0.00013340841
211	0x39b8b5f8	0.00035230792
212	0x3886949d	6.417299e-05
213	0x39c05240	0.00036682375
214	0xb9d27365	-0.00040140297
215	0x3a32017f	0.0006790384
216	0x39785e61	0.00023686282
217	0xb8dfbc60	-0.00010668556
218	0x38919196	6.941256e-05
219	0xb99f8184	-0.0003042334
220	0x39ed04f6	0.0004520786
221	0xb88b837a	-6.652526e-05
222	0xb8bf87d2	-9.132888e-05
223	0x3980d6ad	0.00024574008
224	0x397f9896	0.00024375538
225	0x398b13bb	0.00026526846
226	0x399ab6a6	0.00029509253
227	0x39f4ac02	0.00046667462
228	0x3980b0c7	0.00024545772
229	0x395674dc	0.00020452164
230	0xba041cd4	-0.0005039696
231	0x39af3585	0.00033418476
232	0x39d1094a	0.00039870507
233	0xb8b20541	-8.48868e-05
234	0x39618be4	0.00021509785
235	0x3997078d	0.0002880659
236	0x3a037165	0.00050141505
237	0x38768b98	5.8780977e-05
238	0x39d57e24	0.00040720508
239	0x39c1c535	0.0003695876
240	0x39f2e3b7	0.00046327498
241	0x3990a474	0.00027588347
242	0x3a753d33	0.00093551277
243	0xb8ec417f	-0.000112655565
244	0x39a6ae74	0.00031791965
245	0xb8f21b1a	-0.00011544507
246	0x36c9b1ab	6.01095e-06
247	0x39706bd0	0.00022928347
248	0x39621022	0.0002155905
249	0xb84cd2ca	-4.8833703e-05
250	0xb92df26c	-0.00016588875
251	0x38f70f3e	0.00011780717
252	0x39bc6dbd	0.00035939916
253	0x3920d580	0.00015338324
254	0x398d5644	0.0002695789
255	0x389dd829	7.526606e-05

momentum_buffer f4 [64]
0	0x3ab025cf	0.0013439002
1	0xbb2f1d54	-0.0026720362
2	0xbbdd68f5	-0.0067568966
3	0xbb27c583	-0.0025599904
4	0xbac5807a	-0.0015068196
5	0x3c5dd5f4	0.01353978
6	0xbba555dd	-0.005045636
7	0x3b2e60d3	0.0026608005
8	0xbb72e4e0	-0.003706269
9	0x3be661e7	0.007030714
10	0x393da0ec	0.00018084393
11	0x3c06faa6	0.00823847
12	0xba9ae426	-0.0011817261
13	0xbc6ee9a1	-0.014582069
14	0x3b959135	0.004564429
15	0x386a2b12	5.583006e-05
16	0xbc18b8e8	-0.009321429
17	0xb8b23675	-8.497845e-05
18	0x3bcc8adb	0.006242139
19	0xba0466cb	-0.0005050718
20	0xb920b4ce	-0.00015326144
21	0xbb8c84ee	-0.0042883074
22	0x3b6f5b4c	0.0036522923
23	0x3bb07095	0.0053845146
24	0x3bc97480	0.006147921
25	0xbc5d4a65	-0.013506507
26	0x39d06287	0.0003974626
27	0x3c3a6c02	0.01137829
28	0x386b3928	5.6081597e-05
29	0x3a69b198	0.0008914708
30	0x3b0ad186	0.0021182015
31	0x3bb12c92	0.0054069245
32	0xbc762742	-0.015024008
33	0xbb0d9785	-0.0021605205
34	0x3c3be28b	0.011467586
35	0xba915dff	-0.0011090635
36	0xba3df676	-0.00072465034
37	0xbc61cbc2	-0.01378149
38	0xbbb78e30	-0.005601667
39	0xba95bbe7	-0.0011423797
40	0xbbea4a17	-0.0071499455
41	0x3c13a999	0.009012603
42	0x391b0de9	0.00014787134
43	0xbc93e801	-0.018054964
44	0xbc3158ac	-0.010824364
45	0xbc77d408	-0.015126236
46	0xb981a132	-0.00024724897
47	0x3b422a74	0.0029627355
48	0x3887838c	6.461804e-05
49	0xba160c17	-0.00057238474
50	0x3c2f5bcc	0.010703038
51	0xbb9f2920	-0.0048571974
52	0x3883f2fd	6.291827e-05
53	0x3bf9e292	0.0076258862
54	0x3afafca0	0.0019148774
55	0x3ac0b581	0.001470253
56	0xbba4bc56	-0.005027334
57	0xb8b08718	-8.417497e-05
58	0xb937fd83	-0.0001754668
59	0x3a0c738d	0.00053577946
60	0xbc539670	-0.012914285
61	0x3bd1c2d0	0.0064013973
62	0xbbabb2d1	-0.0052398224
63	0x3ba49be4	0.0050234664

momentum_buffer f4 [1, 64]
0	0xbb566f09	-0.003271999
1	0xbc4227b9	-0.011850291
2	0xbd92eb43	-0.07173779
3	0xbc89ef5a	-0.016837765
4	0xbc66b483	-0.014081123
5	0xbd902f50	-0.07040274
6	0xbde41bee	-0.1113814
7	0xbd45680f	-0.04819494
8	0xbcb8ea9c	-0.022572808
9	0xbd55eec1	-0.052229647
10	0x3a046f0a	0.00050519465
11	0xbce292de	-0.027657922
12	0xbc26ec3e	-0.01018816
13	0xbda3b94f	-0.07994329
14	0xbdbcd142	-0.092196
15	0xba82066f	-0.000992013
16	0xbe0b7136	-0.13617405
17	0xb9fb62c8	-0.00047948048
18	0xbdb6ca0a	-0.08925255
19	0xbdde962b	-0.10868486
20	0xb9e5d28f	-0.00043835162
21	0xbce8e970	-0.028431624
22	0xbd226ad0	-0.039652646
23	0xbd196fdb	-0.03746019
24	0xbcb3e7a8	-0.021961048
25	0xbdf659df	-0.1202886
26	0xbca07b65	-0.01959009
27	0xbd7d5fe2	-0.06185902
28	0xbaf95e3b	-0.0019025275
29	0xbd2a59ed	-0.041589666
30	0xbc4b9d02	-0.01242757
31	0xbcb4fbbe	-0.022092696
32	0xbdc3ad8a	-0.09554584
33	0xbc78e02a	-0.015190164
34	0xbd310c3a	-0.04322455
35	0xbb317268	-0.0027076248
36	0xbb4b6f44	-0.0031041661
37	0xbdabf18b	-0.0839568
38	0xbd57ff9b	-0.052734
39	0xbb35d262	-0.0027743806
40	0xbd73cc07	-0.059520748
41	0xbd06fe06	-0.0329571
42	0xbc3c957c	-0.011510249
43	0xbe5df3d8	-0.2167505
44	0xbde075e8	-0.10959989
45	0xbdedd930	-0.11613691
46	0x394f65dd	0.00019779005
47	0xbd2a6d4e	-0.041608147
48	0x3a864b74	0.0010245875
49	0xbb4427f3	-0.0029931038
50	0xbd211448	-0.039325982
51	0xbd447ede	-0.047972552
52	0x3a0025dc	0.0004888454
53	0xbc8e1b9e	-0.017347153
54	0xbca983dc	-0.020692758
55	0xbb4fcd71	-0.0031708146
56	0xbd298c22	-0.041393407
57	0xb9e9c13d	-0.00044585197
58	0xb94306ba	-0.00018599155
59	0xba9d5b8e	-0.0012005435
60	0xbd8dc713	-0.06922736
61	0xbd0c9f67	-0.034331705
62	0xbd1f9333	-0.03895874
63	0xbd4332ae	-0.047655754

bn0.weight f4 [3]
0	0x3f8f2021	1.118168
1	0x3f810081	1.0078279
2	0x3f8ba8ba	1.0910866

bn0.bias f4 [3]
0	0x3d250a17	0.040292826
1	0xbe69bb92	-0.22825459
2	0xbcf0464d	-0.029330397

bn0.running_mean f4 [3]
0	0x3ef8281d	0.48468104
1	0x3ee38e83	0.44444665
2	0x3ed01544	0.40641224

bn0.running_var f4 [3]
0	0x3d841314	0.06448951
1	0x3d74a6b5	0.059729297
2	0x3d780216	0.060548864

conv1.weight f4 [32, 3, 5, 5]
0	0x3ce4bc89	0.027921932
1	0x3c93c341	0.01803744
2	0x3d5bbcc3	0.053646814
3	0xbd1da4f6	-0.038487397
4	0xbcaa6448	-0.020799771
5	0x3d4670c8	0.0484474
6	0x3d2fff60	0.042968154
7	0x3dac29f9	0.08406443
8	0x3d546fb4	0.05186434
9	0x3d975a94	0.07390323
10	0x3cfd1f8d	0.030898834
11	0xbb651b2c	-0.0034958823
12	0xbcc4c76e	-0.024020877
13	0xbc9ae5b6	-0.018908363
14	0x3ca36dda	0.019949842
15	0x3e09cc50	0.13456845
16	0xbcec6b8c	-0.028859876
17	0xbd926a46	-0.07149176
18	0xbd4d8b62	-0.050181754
19	0xbd660858	-0.0561603
20	0xbd010521	-0.031499032
21	0xbd2fef64	-0.04295291
22	0x3da88cbf	0.0822997
23	0xbd37b8b6	-0.04485389
24	0xb95b83be	-0.00020934545
25	0x3cf9e15b	0.030502966
26	0x3d4d9c91	0.05019814
27	0xbc6a969a	-0.014318133
28	0x3d2ff0bc	0.04295419
29	0xbcc096f0	-0.023509473
30	0x3e1761d5	0.14783414
31	0xbd4019e0	-0.046899676
32	0x3d8bfd7c	0.06835458
33	0xbc3b94dd	-0.011449066
34	0x3d131a28	0.035913616
35	0x3abb7a92	0.0014303497
36	0xb9be0d15	-0.0003624937
37	0x3da83820	0.0821383
38	0xbda196e9	-0.07890112
39	0xbd86dc1f	-0.065849535
40	0x3d910526	0.0708106
41	0xbdc04e44	-0.09389928
42	0x3c8510d5	0.016243378
43	0x3bcdcc57	0.0062804627
44	0xbd66f76b	-0.0563883
45	0xbcdcbe04	-0.026946075
46	0xbd2c49e6	-0.042062663
47	0x3c3466fa	0.01101088
48	0xbdc8b2b6	-0.097997114
49	0xbd3074b5	-0.04308005
50	0x3dbe7c0e	0.09301005
51	0xbd9ae084	-0.07562354
52	0x3c175abe	0.009237943
53	0x3d5ad427	0.05342498
54	0xbc952a81	-0.018208744
55	0xbd0b2405	-0.033969898
56	0xbd868e63	-0.06570127
57	0x3d03e4ef	0.03220075
58	0xbd0785cd	-0.033086587
59	0x3d14f416	0.03636559
60	0xbd12b11c	-0.035813436
61	0xbd974429	-0.073860474
62	0x3d8eeab6	0.06978361
63	0xbd5f9b4f	-0.054591473
64	0xbd73b3c2	-0.059497602
65	0xbcb4074f	-0.021976141
66	0x3ce49af6	0.027905922
67	0xbe040064	-0.12890774
68	0xbc0c837c	-0.00857627
69	0xbdba5417	-0.0909807
70	0xbd48ba05	-0.049005527
71	0x3aa6ef30	0.0012736078
72	0xbcb50ddd	-0.022101337
73	0xbd90c668	-0.07069093
74	0xbbfe2d08	-0.007756833
75	0x3df926dd	0.12165616
76	0x3cefe9c7	0.029286278
77	0x3c6ad0ff	0.014332055
78	0x3d904928	0.070452034
79	0x3d5f5847	0.054527547
80	0xbc71d65b	-0.014760579
81	0xbc5d5316	-0.013508579
82	0x3d23af6b	0.039962213
83	0x3b357cec	0.0027692867
84	0xbda4656e	-0.08027159
85	0x3c54b1ea	0.012981871
86	0x3b586f98	0.00330255
87	0x3cf8f920	0.03039223
88	0xbcce6491	-0.025194438
89	0x3c0317bd	0.008001265
90	0xbbdcf3d0	-0.006742932
91	0x3cde3dbc	0.027129047
92	0x3c24d683	0.010060909
93	0xbb4dd168	-0.0031405333
94	0x3d3d04bf	0.046147104
95	0x3baa7351	0.005201735
96	0xbd8b9598	-0.06815642
97	0x39f8eaf3	0.00047477297
98	0xbd441fb8	-0.04788181
99	0xbd24d93f	-0.040246245
100	0xbc91a653	-0.017779505
101	0x3d0905a3	0.03345264
102	0xbd254bc7	-0.04035547
103	0x3c1ba2b3	0.00949924
104	0xbcc6a5d7	-0.024249
105	0x3a5ffd7d	0.00085445476
106	0x3c3292de	0.010899274
107	0xbcd97663	-0.026545709
108	0x3d954f2e	0.07290493
109	0xbdf718e4	-0.120652944
110	0x3d08c51e	0.03339111
111	0x3d3a7827	0.045524742
112	0xbbbd20a8	-0.005771715
113	0x3cab7cee	0.020933595
114	0xbd3fc252	-0.046816178
115	0xbc49c17e	-0.012314199
116	0xbcfedeb9	-0.031112062
117	0xbcae3e04	-0.021269806
118	0x3d72a87e	0.059242718
119	0xbc90dfb4	-0.017684795
120	0xbd2be3e4	-0.04196538
121	0x3d9f6299	0.07782478
122	0x3d4ab994	0.049493387
123	0x3d4e0ba7	0.05030408
124	0xb88cd7b4	-6.715898e-05
125	0x3d904fd2	0.070464745
126	0xbcec3a11	-0.028836282
127	0x3c4b7f1b	0.012420441
128	0x3da091e1	0.07840324
129	0xbd157657	-0.03648981
130	0x3db5d042	0.08877613
131	0x3d8adfe5	0.06780986
132	0xbd44f8c0	-0.04808879
133	0xb9472f48	-0.00018995733
134	0xbd0c9566	-0.034322165
135	0x3c8e57bf	0.017375825
136	0x3d9b753f	0.07590722
137	0xbcd63f30	-0.026153177
138	0x3d0defcd	0.03465252
139	0xbd0d3d3b	-0.034482222
140	0xbbb55ec7	-0.00553498
141	0x3cc4fc06	0.024045955
142	0x3d2a6a25	0.041605134
143	0x3cf380f5	0.029724577
144	0xbb2bdfe7	-0.0026225985
145	0x3dda5c66	0.10662155
146	0x3ca849f3	0.020543074
147	0x3da5bb65	0.08092383
148	0xbd0d10ae	-0.034439735
149	0xbdcd07f5	-0.10011283
150	0xbcb8323a	-0.022484887
151	0x3d32e129	0.04367176
152	0xba5cc95b	-0.0008422338
153	0x3bf0c52c	0.0073477235
154	0x3d038c29	0.03211609
155	0x3cb12ee0	0.021628797
156	0x3db17860	0.08665538
157	0xbdef7239	-0.11691708
158	0xbdaa2cd3	-0.08309331
159	0xbccc5a78	-0.024945483
160	0xbc280218	-0.010254405
161	0xbcc9ce03	-0.024634367
162	0xbd8dc911	-0.06923116
163	0xbd5fe696	-0.054663263
164	0xbd027424	-0.03184904
165	0x3d9ff053	0.0780951
166	0x3e1efee4	0.1552692
167	0x3dc27bba	0.09496255
168	0x3c97d6c3	0.018535024
169	0xbda64356	-0.08118312
170	0xbde1f3cb	-0.11032828
171	0x3d8c7a6a	0.06859286
172	0x3cd941e5	0.026520679
173	0x3cfa9a93	0.030591285
174	0xbc79ff1c	-0.015258577
175	0x3d6c9972	0.057763524
176	0xbd0d1cea	-0.034451403
177	0xbc17207d	-0.009224054
178	0xbdaa6d63	-0.08321645
179	0x3ddb9758	0.10722226
180	0xbd0d404a	-0.03448514
181	0x3d2884e4	0.04114236
182	0xbd44a3ab	-0.04800765
183	0xbc87d3ce	-0.016580489
184	0xbd733a1b	-0.059381586
185	0x3c45998b	0.012060533
186	0x3d93f065	0.07223586
187	0xbd7c3ac2	-0.061579473
188	0xbbdc7d2f	-0.0067287902
189	0xbd279eb4	-0.040922835
190	0x3d2d4e76	0.042311154
191	0xbc31828d	-0.010834348
192	0x3b9a9fdc	0.0047187638
193	0xbcd4388e	-0.025905874
194	0x3cf4905a	0.029853988
195	0x3d3e9dfe	0.04653739
196	0x3d031845	0.032005567
197	0x3d8850e7	0.06656056
198	0xbd6ce723	-0.057837617
199	0xbd95d37e	-0.073157296
200	0x3dea2c03	0.11434176
201	0x3e06cd8e	0.1316435
202	0x3d13472c	0.035956547
203	0xbaa18d42	-0.0012325423
204	0xbd08cd09	-0.03339866
205	0x3ce1f1af	0.027581064
206	0x3caa87a3	0.02081663
207	0x3c216293	0.009850162
208	0x3d06f2f3	0.03294654
209	0xbe003286	-0.12519273
210	0x3d518880	0.051155567
211	0x3d805ff8	0.062683046
212	0xbdc9174e	-0.09818898
213	0x3c86cff1	0.016456576
214	0xbc9ec751	-0.01938215
215	0x3d20f4bc	0.039295897
216	0xbca6ca49	-0.020360129
217	0xbd1635ca	-0.03667239
218	0xbd994ee4	-0.0748575
219	0xbd646c63	-0.055767428
220	0x3d061663	0.032736193
221	0xbbc17d00	-0.0059047937
222	0xbbcc1cfe	-0.006229042
223	0xbd25d1ba	-0.040483214
224	0xbcaf0c32	-0.02136812
225	0xbc471d92	-0.012153046
226	0xbdb53efc	-0.08849904
227	0xbded8ff1	-0.1159972
228	0x3cac460f	0.0210295
229	0x3cbec72f	0.023288338
230	0x3da687ff	0.08131408
231	0xbdd13fe7	-0.102172665
232	0x3d88cb3d	0.066793896
233	0x3a470053	0.0007591296
234	0xbc526de9	-0.012843587
235	0x3cd38664	0.025820918
236	0xbd5c00d1	-0.053711716
237	0x3c9b2102	0.018936638
238	0xbb762cfe	-0.0037563439
239	0xba7421fb	-0.0009312925
240	0x3cd4f8fa	0.025997628
241	0xbbe9184a	-0.007113491
242	0xbc75d79d	-0.0150050195
243	0xbd0fe473	-0.035129976
244	0xbdea5b11	-0.11443151
245	0x3cb20566	0.02173109
246	0xbd3df876	-0.04637953
247	0xbb30a7cd	-0.0026955486
248	0xbc1cd5eb	-0.009572486
249	0x3ce96b26	0.028493475
250	0x3d34eec7	0.04417303
251	0xbd476682	-0.048681743
252	0xbb9f3b62	-0.004859374
253	0xbce17f4e	-0.027526524
254	0x3b91234f	0.004429258
255	0x3c3bdce6	0.0114662405

conv1.bias f4 [32]
0	0x3b9e3d5b	0.0048290915
1	0x3dde5ad8	0.10857171
2	0x3b0f360c	0.0021852283
3	0xbd076d1a	-0.03306303
4	0x3cdeaacb	0.02718105
5	0x3dbee07c	0.09320161
6	0xbd359b49	-0.044337545
7	0x3d9bf87c	0.07615754
8	0xbc81214c	-0.015762947
9	0x3d8e405f	0.069458716
10	0x3b8f3a9e	0.0043710014
11	0x3d16a8c8	0.036782056
12	0xbe03afda	-0.12860051
13	0xbdaaff79	-0.08349509
14	0x3d139c26	0.036037587
15	0x3d34ac64	0.044109717
16	0xbd4cf2a1	-0.050036076
17	0x3c030c94	0.007998604
18	0x3dddeb8e	0.10835944
19	0x3c72ed84	0.014827136
20	0xbdca0588	-0.09864336
21	0x3d1710ae	0.03688114
22	0x3c615c6e	0.013754947
23	0xbbdaaa44	-0.0066731293
24	0xbdaef8d0	-0.08543551
25	0xbd02e631	-0.03195781
26	0x3d7f9561	0.06239832
27	0x3d855b26	0.06511526
28	0x3d488107	0.048951175
29	0x3d7ca373	0.061679315
30	0x3b9ae1cf	0.0047266255
31	0x3c43f456	0.01196011
