Ratio_Reverse/checkpoint_step_0125.pth (torch_old, 541551 bytes, 24 tensors)

momentum_buffer f4 [3]
0.00672213 -0.0196349 -0.07898852
00000000: 5045 dc3b 5fd9 a0bc bcc4 a1bd

momentum_buffer f4 [3]
-0.035856046 0.12968794 0.024001895
00000000: cadd 12bd eacc 043e 9f9f c43c

momentum_buffer f4 [32, 3, 5, 5]
-0.0031183138 -0.0064755306 -0.0060038688 -0.004916188 -0.0020879277 -0.0020994903 -0.0051237536 -0.004893908
-0.0027647302 -0.00040489528 0.0021327524 0.0005498901 0.0021979944 0.005215484 0.006388401 0.006803339
0.0064950036 0.009979326 0.01233711 0.011992721 0.009000496 0.00805273 0.011381169 0.0131602995
0.012539262 -0.006492265 -0.010036891 -0.010031952 -0.008274069 -0.0060691442 -0.005350383 -0.009598815
-0.008856082 -0.007143521 -0.004848143 -0.002160373 -0.003761308 -0.0013691238 0.0006311489 0.0014815736
0.002174602 0.0016615894 0.006134411 0.00825653 0.007515263 0.004795138 0.0035986123 0.0066955783
0.00849787 0.007886883 -0.011130778 -0.014766529 -0.013844226 -0.011829415 -0.009368649 -0.01067703
-0.013201471 -0.012342682 -0.010111815 -0.007412674 -0.006354293 -0.007174897 -0.004139802 -0.001462884
-0.00045421068 -0.0018662554 -0.00019679219 0.0032935226 0.0064864233 0.005787749 0.0015120078 0.0015887646
0.004578147 0.0070676226 0.0065688333 0.004959261 0.0057152403 0.0060802656 0.005364108 0.004347875
0.004141256 0.004594519 0.0057265023 0.005523254 0.0052978885 0.0070029236 0.0064528934 0.007104351
0.007285513 0.0078132935 0.009431594 0.009069902 0.008862566 0.009440212 0.009684926 0.010595144
0.010094201 0.009992281 0.010592169 0.01047735 0.0026645097 0.0040575727 0.004051377 0.0037028322
0.0029115444 0.002595029 0.0030640191 0.0036858034 0.00463457 0.004187407 0.005210033 0.004768353
0.005018994 0.006093274 0.006492342 0.00766883 0.0070539513 0.0069992854 0.008448757 0.008422694
0.009251644 0.009716712 0.009109282 0.010227585 0.010098427 -0.00016383782 0.00092995923 0.0018286359
0.0021236376 0.0016297384 -0.00031010178 0.00034397937 0.0010434312 0.0025343432 0.0037383644 0.0024229982
0.0024098586 0.0027719047 0.0048338496 0.006090819 0.005563521 0.0052924217 0.005471344 0.0072054896
0.008191472 0.008336102 0.007865706 0.0077676955 0.008948344 0.009402679 0.02312014 0.025174148
0.026573712 0.024274496 0.023942277 0.023227943 0.024198977 0.025411878 0.023320733 0.023715291
0.022967925 0.022929667 0.025302809 0.023665357 0.0244201 0.026167165 0.026223607 0.02768698
0.026630351 0.026990231 0.025242198 0.025665175 0.026466336 0.026186213 0.027583336 0.021114731
0.022133667 0.024430921 0.021810336 0.022427969 0.02099068 0.021876438 0.024211261 0.022151817
0.02210253 0.020922367 0.021276698 0.023854626 0.022448834 0.022795595 0.023534486 0.0230727
0.025732338 0.02486699 0.025716929 0.023455113 0.022977088 0.025008 0.023971617 0.025153795
0.029903283 0.03189635 0.033603426 0.032015957 0.031971876 0.029547304 0.03053591 0.0335062
0.032437757 0.03226119 0.029631903 0.030203594 0.03285421 0.03274324 0.033549167 0.032236226
0.031975284 0.034407992 0.03438229 0.035474796 0.032565292 0.031985976 0.03335058 0.033389542
0.035085548 -0.0036858134 -0.0038872485 -0.006162056 -0.0047532804 -0.0039547323 -0.0012252615 -0.0021430487
-0.0037833678 -0.0038283346 -0.0035260727 -0.000115353614 0.00079895195 -0.00128694 -0.0020233174 -0.0026872386
0.0012933216 0.0031552871 0.0013736069 0.0012891204 0.0001786456 0.0012713296 0.0030794153 0.0018232242
0.0026344433 0.0031284161 -0.008862936 -0.008960857 -0.010668693 -0.00965125 -0.008211207 -0.0072874594
00000000: a05c 4cbb b030 d4bb 1abc c4bb f917 a1bb
00000010: 9dd5 08bb 9a97 09bb 29e5 a7bb 135d a0bb
00000020: 7a30 35bb 2048 d4b9 a6c5 0b3b 8026 103a
00000030: 3a0c 103b a7e6 aa3b cb55 d13b 8bee de3b
00000040: 0ad4 d43b 5480 233c 9721 4a3c 1e7d 443c
00000050: d176 133c 99ef 033c 1578 3a3c 4c9e 573c
00000060: 7a71 4d3c 11bd d4bb c671 24bc 0e5d 24bc
00000070: f68f 07bc acdf c6bb 4452 afbb 5944 1dbc
00000080: 1a19 11bc 3314 eabb 2cdd 9ebb 0b95 0dbb
00000090: 4780 76bb 2c74 b3ba b073 253a 5c31 c23a
000000a0: c483 0e3b b0c9 d93a 2b03 c93b 6646 073c
000000b0: 9842 f63b 8820 9d3b b2d6 6b3b 9566 db3b
000000c0: a63a 0b3c fc37 013c de5d 36bc 50ef 71bc
000000d0: e4d2 62bc 2ad0 41bc f67e 19bc b6ee 2ebc
000000e0: fc4a 58bc f638 4abc 07ac 25bc 04e6 f2bb
000000f0: ac37 d0bb 661b ebbb 2da7 87bb 3ebe bfba
00000100: 2023 eeb9 249d f4ba 005a 4eb9 24d8 573b
00000110: 108c d43b 28a7 bd3b 902e c63a 183e d03a
00000120: 4804 963b 8497 e73b 5e3f d73b 4c81 a23b
00000130: e946 bb3b f73c c73b 66c5 af3b 9e78 8e3b
00000140: 60b3 873b 9e8d 963b 62a5 bb3b 6afc b43b
00000150: e999 ad3b c878 e53b cb72 d33b 9ecb e83b
00000160: 50bb ee3b 5403 003c f986 1a3c ed99 143c
00000170: 4c34 113c 1eab 1a3c 86ad 1e3c 4197 2d3c
00000180: 2662 253c aab6 233c c78a 2d3c 31a9 2b3c
00000190: 0e9f 2e3b 63f5 843b 6ac1 843b 37ab 723b
000001a0: 9ccf 3e3b 5d11 2a3b b6cd 483b 858d 713b
000001b0: 97dd 973b 8436 893b edb8 aa3b d83f 9c3b
000001c0: 6076 a43b 16aa c73b b6bd d43b cf4a fb3b
000001d0: d524 e73b 435a e53b a86c 0a3c 57ff 093c
000001e0: 3594 173c d832 1f3c 193f 153c 9a91 273c
000001f0: df73 253c e1cb 2bb9 82c8 733a d7ae ef3a
00000200: ba2c 0b3b f29c d53a 2895 a2b9 2158 b439
00000210: bec3 883a 3917 263b 59ff 743b 2acb 1e3b
00000220: b8ee 1d3b d8a8 353b 4565 9e3b 7e95 c73b
00000230: 324e b63b 0d6c ad3b f648 b33b 071c ec3b
00000240: 8635 063c 2594 083c 2adf 003c 2788 fe3b
00000250: 139c 123c b20d 1a3c 7366 bd3c 043a ce3c
00000260: 1db1 d93c 4fdb c63c 9822 c43c 8748 be3c
00000270: ef3c c63c 922c d03c 1f0b bf3c 9246 c23c
00000280: 3b27 bc3c ffd6 bb3c d647 cf3c dadd c13c
00000290: a90c c83c 865c d63c e4d2 d63c cecf e23c
000002a0: e527 da3c 9e1a dd3c bac8 ce3c c63f d23c
000002b0: eecf d83c 7884 d63c 73f6 e13c cdf8 ac3c
000002c0: aa51 b53c 5b23 c83c 97ab b23c dcba b73c
000002d0: a6f4 ab3c 3736 b33c b256 c63c ba77 b53c
000002e0: 5d10 b53c 6265 ab3c 784c ae3c c76a c33c
000002f0: 9ee6 b73c d4bd ba3c 65cb c03c f502 bd3c
00000300: a0cc d23c dcb5 cb3c 4fac d23c f024 c03c
00000310: 723a bc3c 94dd cc3c 2060 c43c 550f ce3c
00000320: bbf7 f43c bfa5 023d bfa3 093d 2a23 033d
00000330: f1f4 023d 300d f23c 7226 fa3c cc3d 093d
00000340: 74dd 043d 4f24 043d 9bbe f23c 876d f73c
00000350: 2392 063d c71d 063d da6a 093d 220a 043d
00000360: 84f8 023d 65ef 0c3d 72d4 0c3d 054e 113d
00000370: 2f63 053d ba03 033d 9e9a 083d 79c3 083d
00000380: ddb5 0f3d b08d 71bb 35c1 7ebb 12eb c9bb
00000390: 68c1 9bbb b396 81bb f498 a0ba 6472 0cbb
000003a0: 61f2 77bb cce4 7abb af15 67bb 00ea f1b8
000003b0: c270 513a 8aae a8ba a299 04bb 621c 30bb
000003c0: ac84 a93a efc8 4e3b 990a b43a b4f7 a83a
000003d0: d052 3b39 bea2 a63a 04d0 493b 41f9 ee3a
000003e0: a0a6 2c3b 1d06 4d3b d935 11bc 8fd0 12bc
000003f0: becb 2ebc 4720 1ebc 4c88 06bc a4cb eebb

momentum_buffer f4 [32]
-0.014476779 -0.021177024 0.0021860856 0.012413635 0.017015053 0.009715151 0.004376386 -0.0073958854
-0.0032761106 0.01297615 0.010438855 0.004066072 0.01465123 -0.01695703 0.041666 -0.032446116
-0.0038465862 0.01462221 -0.013192867 0.053894877 0.012030541 -0.027886052 0.031057253 -0.028312555
0.00057796994 -0.00576076 -0.011126829 0.006521379 -0.017228018 0.0047282143 -0.0130875865 -0.028807895
00000000: 0330 6dbc 707b adbc 6e44 0f3b 8f62 4b3c
00000010: 2763 8b3c 4c2c 1f3c c967 8f3b 2f59 f2bb
00000020: 04b4 56bb eb99 543c bb07 2b3c af3c 853b
00000030: b60b 703c 78e9 8abc f8a9 2a3d 38e6 04bd
00000040: 0217 7cbb fe91 6f3c e526 58bc e0c0 5c3d
00000050: bf1b 453c 4a71 e4bc c86b fe3c bbef e7bc
00000060: e882 173a c2c4 bcbb 4e4d 36bc 4bb1 d53b
00000070: c621 8dbc 23ef 9a3b 516d 56bc 89fe ebbc

momentum_buffer f4 [32, 32, 3, 3]
-0.00059470226 -0.00026182522 -0.0005256271 -0.00026486375 0.0003124605 -0.0011881948 0.0005201582 -0.0005656149
-0.00024542853 -0.0021825728 -0.0016410949 -0.0011953703 -0.0015619217 -0.001254983 -0.0010799596 -0.0013417165
-0.0017397611 -0.00064257765 -0.00057035364 -0.001105924 -0.00068434887 -0.00019436324 -0.0008839715 -0.0008454103
-0.0005845714 -0.0010510178 -0.000890894 -2.8970899e-05 -0.0007252818 0.00013050628 4.6979032e-05 0.00017687865
-0.00070704985 -0.0006744374 0.0001082018 -0.00041620366 1.9246141e-05 -0.00038735135 -0.00024946497 -0.00044598445
-0.0012416127 -3.6971604e-05 -0.00074261747 -8.72133e-06 0.0005065027 0.00029625982 0.0005134265 -0.00026004625
1.8708903e-05 -0.0002628324 -0.0005907174 -0.00041435505 0.000120608136 -0.00058032764 -0.0001354967 -0.00023839835
-0.00011565967 -0.00023200737 0.00023421504 0.00028776223 0.00015357157 3.7788308e-05 -0.0005554197 2.2526656e-05
0.00031054823 0.0004091239 0.00021382885 -0.0003618351 -0.00040663494 0.0003849424 -0.00019850855 -0.00031984277
0.0002898075 -9.369192e-05 0.0004912731 -0.00070676365 -0.0005425373 -0.00022771409 -0.00017293103 -0.00013371294
0.00055955973 -0.0010416684 -0.0004944222 -0.00033072807 -0.0013605349 -0.0007772311 -0.0009349452 -0.0008078007
-0.00088797696 -0.0009451988 -0.0003433661 -0.000245682 -1.244701e-05 -0.0013454142 -0.00022211227 -0.000511057
-0.001056623 -0.0012027171 -0.0002755847 -0.00048359143 -0.00092998194 -0.00022587925 -0.001030175 -0.0011014641
-0.00016787167 -0.00076233136 -0.00070202415 -0.0009812814 -3.1983112e-05 -0.00077161565 7.800053e-05 0.00021496211
2.4550562e-05 -0.0005964508 -0.0012304139 -7.3273644e-05 0.0005211411 -0.0021956621 -0.0015528332 -0.00039223302
-0.0011979749 -0.000444709 -0.00057472446 -0.0013981574 -0.000794397 -0.00034800795 -0.00050552725 -3.9318806e-05
-0.0003241453 -0.00084711623 -0.0005000895 -9.196703e-06 -0.000771152 -0.00022570722 -0.0006626402 -0.00028486384
0.00034337208 -6.2286286e-05 -0.00020346588 0.00047410844 -0.0007415996 -0.00015674402 5.8216723e-05 -0.00016662618
0.00026566014 0.0005025035 0.00036118657 5.003898e-05 0.00043815013 0.00026519323 -0.00092819973 -0.00042676387
-0.0008274285 -0.0013698788 -0.0012315107 -0.0005044904 -0.0017430343 -0.0007740956 -0.00081266905 -0.0019521874
-0.001183418 -0.0010140686 -0.00013913891 -0.0006060821 0.00022003904 0.00043073617 0.00028398624 -1.7015089e-05
-0.0004195988 0.00019415085 -0.0009007927 -0.00041967293 0.00017719492 0.0006532476 0.00012847403 -0.00027628167
1.773052e-05 -0.00049828284 -5.842978e-05 0.0002884267 0.00022294074 7.60138e-05 -0.00044999685 -0.00068355066
-6.97535e-05 -2.8475597e-07 -0.00029643386 -0.0004682106 -8.461383e-05 -0.00023888689 0.0008189278 -0.00059902895
0.00023572413 -0.0003390159 -0.0006520105 0.00021793324 -0.00044659595 -0.0002498031 -0.0011668082 -0.001647437
-0.00084695494 -0.00053385325 -0.0016586697 -0.0018534446 -0.0013787048 -0.0013354757 -0.0013500256 0.00017734435
-5.4146734e-05 3.7161772e-06 -8.462728e-05 -1.3703992e-05 -0.00017996422 0.00034002686 0.0003048605 -0.00018799634
-0.0002452996 -0.0004671686 -0.00022161618 -0.00038281683 0.00041710024 3.9700833e-05 -0.00044860007 -0.00011881017
-0.00048390997 -0.00022903619 -0.00103417 -0.00020431913 -0.00019423795 -0.00035954153 -0.0005759398 -0.00019139612
-0.00012672582 6.0211118e-05 -0.00074246153 0.00024547445 -0.0003503611 -0.00054168585 0.0003454685 0.0004975528
0.00027785206 2.584389e-05 -4.4324363e-05 -0.0008210732 3.2833887e-05 -0.0005703137 -0.0005081976 -0.00040961787
-3.149203e-05 0.00040823332 0.0006132941 -0.00090358197 -0.00055391743 -0.00013756525 -0.0001431685 0.0007162678
00000000: cbe5 1bba 9645 89b9 3dca 09ba 69dd 8ab9
00000010: bdd1 a339 34bd 9bba 3a5b 083a c645 14ba
00000020: dcac 80b9 7f09 0fbb 021a d7ba f9ad 9cba
00000030: 65b9 ccba 3e7e a4ba 6e8d 8dba 89dc afba
00000040: b208 e4ba a872 28ba c983 15ba a7f4 90ba
00000050: e065 33ba fccd 4bb9 53ba 67ba 869e 5dba
00000060: ec3d 19ba 4ec2 89ba e28a 69ba 8806 f3b7
00000070: d620 3eba 83d8 0839 5a0b 4538 8078 3939
00000080: 5059 39ba bacc 30ba 66ea e238 e935 dab9
00000090: c672 a137 6b15 cbb9 9fca 82b9 05d3 e9b9
000000a0: 9cbd a2ba f511 1bb8 37ac 42ba d451 12b7
000000b0: d2c6 043a 5253 9b39 7897 063a d156 88b9
000000c0: 10f1 9c37 c4cc 89b9 60da 1aba cb3d d9b9
000000d0: 00ef fc38 2121 18ba 1e14 0eb9 92fa 79b9
000000e0: 508e f2b8 0147 73b9 9f97 7539 cbde 9639
000000f0: 0e08 2139 e37e 1e38 9699 11ba a0f7 bc37
00000100: 14d1 a239 ae7f d639 3f37 6039 afb4 bdb9
00000110: 9e31 d5b9 18d2 c939 bc26 50b9 92b0 a7b9
00000120: 4ef1 9739 777c c4b8 c8c8 003a 1b46 39ba
00000130: 1039 0eba 89c6 6eb9 d254 35b9 4b35 0cb9
00000140: 6baf 123a 9788 88ba 1d9c 01ba 9265 adb9
00000150: fa53 b2ba 19bf 4bba 1c17 75ba 96c2 53ba
00000160: 20c7 68ba 38c7 77ba d105 b4b9 e1ce 80b9
00000170: 80d3 50b7 9c58 b0ba cfe6 68b9 74f8 05ba
00000180: 627e 8aba 7da4 9dba 5a7c 90b9 8b8a fdb9
00000190: 08ca 73ba 00da 6cb9 f006 87ba 015f 90ba
000001a0: b506 30b9 31d7 47ba 0b08 38ba 579e 80ba
000001b0: 9b25 06b8 4046 4aba 3794 a338 7467 6139
000001c0: eef1 cd37 235b 1cba d745 a1ba 7daa 99b8
000001d0: 309d 083a 19e5 0fbb 7088 cbba a0a4 cdb9
000001e0: 5e05 9dba d527 e9b9 1ba9 16ba 6142 b7ba
000001f0: 153f 50ba d674 b6b9 5c85 04ba 3fea 24b8
00000200: 0cf2 a9b9 0211 5eba 7018 03ba 8a4b 1ab7
00000210: 2227 4aba d2ab 6cb9 08b5 2dba c759 95b9
00000220: 9f06 b439 b29f 82b8 7559 55b9 c291 f839
00000230: e867 42ba a75b 24b9 bb2d 7438 60b8 2eb9
00000240: 4d48 8b39 70ba 033a a45d bd39 f2e0 5138
00000250: 84b7 e539 a209 8b39 6e52 73ba 47bf dfb9
00000260: c9e7 58ba 818d b3ba a46a a1ba c73f 04ba
00000270: 8776 e4ba adec 4aba 4c09 55ba 8ae0 ffba
00000280: eb1c 9bba 7fea 84ba d1e5 11b9 7be1 1eba
00000290: 48ba 6639 6ed4 e139 fde3 9439 a0bb 8eb7
000002a0: 99fd dbb9 f994 4b39 2d23 6cba 8c07 dcb9
000002b0: 66cd 3939 b43e 2b3a fcb6 0639 e6d9 90b9
000002c0: 00bc 9437 329f 02ba 8012 75b8 fa37 9739
000002d0: 33c5 6939 9969 9f38 8eed ebb9 4f30 33ba
000002e0: a048 92b8 90e0 98b4 ae6a 9bb9 2a7a f5b9
000002f0: b472 b1b8 b67d 7ab9 50ad 563a 2708 1dba
00000300: b72c 7739 f2bd b1b9 afeb 2aba 0285 6439
00000310: 1825 eab9 01f8 82b9 96ef 98ba d0ee d7ba
00000320: 2f06 5eba 49f2 0bba b867 d9ba 48ef f2ba
00000330: a8b5 b4ba 210b afba 58f3 b0ba 83f5 3939
00000340: 9d1b 63b8 7063 7936 ed79 b1b8 33ea 65b7
00000350: c7b4 3cb9 a245 b239 afd5 9f39 e220 45b9
00000360: 8e9b 80b9 4fee f4b9 a461 68b9 ceb4 c8b9
00000370: 3fae da39 7284 2638 1532 ebb9 b929 f9b8
00000380: 4cb5 fdb9 6f29 70b9 fd8c 87ba 803e 56b9
00000390: 5aac 4bb9 d980 bcb9 aafa 16ba 81b1 48b9
000003a0: b4e1 04b9 328b 7c38 c0a1 42ba 06b3 8039
000003b0: acb0 b7b9 ecff 0dba ff1f b539 346e 023a
000003c0: acac 9139 55cb d837 ece8 39b8 4a3d 57ba
000003d0: 1eb7 0938 1b81 15ba 9038 05ba fbc1 d6b9
000003e0: 4f16 04b8 2608 d639 78c5 203a 5cde 6cba
000003f0: c534 11ba 643f 10b9 801f 16b9 ebc3 3b3a

momentum_buffer f4 [32]
-0.0013536052 -0.0068320874 0.004075985 0.00078554417 0.04267321 -0.0021919035 -0.006886269 -0.00638262
0.014406906 -0.009764283 -0.033207335 -0.022407793 0.0026640666 0.001632189 -0.004268887 -0.004400054
-0.0022312473 0.010302364 0.0039171814 0.0071194377 -0.031019475 0.004648091 0.006014708 0.0028706475
-0.009566692 -0.0007484692 0.00064844824 -0.012151249 0.0036093888 -0.020621462 0.006510225 -0.0010672703
00000000: 746b b1ba b4df dfbb d78f 853b faec 4d3a
00000010: 1bca 2e3d 0aa6 0fbb 36a6 e1bb 4c25 d1bb
00000020: f20a 6c3c 5ffa 1fbc 6a04 08bd 8c90 b7bc
00000030: 9f97 2e3b 2def d53a 05e2 8bbb 542e 90bb
00000040: 1e3a 12bb 3fcb 283c b35b 803b 2c4a e93b
00000050: 8e1c febc 034f 983b 0717 c53b 7921 3c3b
00000060: 9dbd 1cbc eb34 44ba a0fc 293a 0816 47bc
00000070: 7f8b 6c3b 57ee a8bc ba53 d53b a6e3 8bba

momentum_buffer f4 [64, 32, 3, 3]
-1.963364e-05 -0.00023349242 2.8362223e-05 -0.00016810719 3.3952012e-05 -3.1057363e-05 0.00018605945 -0.00010032029
-5.4921176e-05 0.00010921333 0.00028151748 8.115951e-06 0.00034660537 3.0515213e-05 -2.5065903e-05 0.0003282794
0.0005360193 0.0001622216 -0.00030339713 -0.00029487204 2.5528885e-05 0.00014659288 5.0065e-05 -0.00010785903
0.00012092253 0.00024801647 -5.534288e-06 -0.00023547043 -0.00051196036 2.3714108e-05 0.00014982032 0.00040536068
-9.9753815e-05 -0.00015000516 -0.0002237334 -0.00012293275 -0.0004074088 -4.2596366e-05 -0.00053948513 0.00036238786
0.00043693697 -0.0004847873 5.521338e-05 -6.714998e-05 0.00012296272 0.00046340667 5.2779305e-05 -0.00017431981
0.0001002852 -0.0005192303 -0.00018368375 0.00030318063 -0.00011501492 5.7225025e-05 0.00053002324 0.00034362922
0.00042364965 0.00015954791 0.00025627308 0.00021787208 0.000108780805 0.0006964002 0.00079556176 -0.00026466954
0.0003556024 -0.00034949277 0.00032399863 0.00021027958 0.00026721257 -0.0001309793 -0.00015133643 -0.00051139906
0.00010376214 -1.111822e-05 -0.00026264184 -0.00033558364 -0.00032057887 0.00038712414 -0.00014949116 0.00016444264
-0.00030328793 -0.00022294084 -0.00012301457 7.7865385e-05 -0.00020307073 0.00045390727 0.0004760997 5.508169e-06
-0.00016094434 0.00032718055 0.0011269358 0.001402564 0.0012241559 0.00088128884 0.0015212047 0.0012901862
0.0017310465 0.0010767152 0.000981077 0.0005801474 0.0016051559 0.0010677846 0.0013381143 0.00097421574
0.0016098595 0.0015217296 0.0016239594 0.001546157 0.00027919648 -3.1883028e-06 -0.0003868527 0.00015419099
-0.00040671736 2.6233798e-05 8.028901e-05 -0.00050429924 -7.4884796e-05 -0.0003187466 -1.3810586e-05 0.00023702063
3.873745e-05 0.000220122 -0.00021721923 -0.00026107166 0.00020106249 3.039177e-05 0.0002684252 -0.0009595492
-0.00031909908 -9.5096744e-05 -0.00016362575 -0.00095196534 -0.0002875529 -0.000740731 -0.00045418227 0.0017260927
0.0019503952 0.0012886038 0.0018807898 0.0019879423 0.0018802608 0.0026782444 0.0017067557 0.0015780109
-0.00033911463 -0.00054867746 -0.00039121287 -0.00031860493 2.0000258e-05 -0.00019586284 6.566339e-05 -0.000106398984
-0.00028890802 -5.176806e-05 8.441171e-05 -0.0006092374 -0.000111568675 -0.00018283085 -0.00037841598 -0.00024196877
-0.0003532414 -0.00019527112 -0.00019994404 8.9273264e-05 -0.0006088239 -0.00016741423 6.646728e-05 0.00050885335
-0.0002493941 0.00029952492 -0.00020334197 0.00022514115 0.0010716729 0.00043349428 0.0010147784 0.0006379628
0.000616164 0.0010043524 0.0007992568 7.438562e-05 -8.90558e-05 -0.00024251714 -1.166831e-05 -0.00020450461
-0.00017322195 0.00022309716 -0.00014516743 -0.0006085531 0.00019056485 0.00027667705 -0.00033139123 -0.00015789382
4.963987e-05 0.00022294768 -0.00056144467 0.00040618185 -6.4801425e-05 -0.0002950901 0.0010899538 0.0008075999
0.00010802311 0.0014692813 0.0013781756 0.00092978403 0.001576079 0.00095921004 0.0012558897 -0.00017692836
-1.5744914e-05 -0.0005565756 0.00022311806 -0.00049141195 -0.00040173373 -0.00035128396 0.00028533448 0.00021998533
-0.00035384882 0.00038334407 4.880794e-05 0.00015419765 -0.00028735143 -0.00011877277 4.3557957e-05 0.00016980668
-0.00035405348 -0.00010239549 -0.00047099014 8.970745e-06 0.00025276342 -0.00017787643 0.0003782477 0.00045170914
-0.0006643286 0.0002167083 -0.00013110117 0.00021638643 -0.00023350687 -0.0002089877 -0.00011729213 -0.00015062687
0.00010369187 0.00015334309 1.7766613e-05 0.0013820927 0.0012126866 0.0014026512 0.0015976726 0.0017819876
0.0013743727 0.0018935213 0.0018442272 0.0016406355 0.0001630634 -0.00022468303 -0.0004822179 -3.776117e-05
00000000: ecb2 a4b7 a5d5 74b9 69eb ed37 ee45 30b9
00000010: b267 0e38 9743 02b8 f418 4339 0c63 d2b8
00000020: 2a5b 66b8 7609 e538 a398 9339 be29 0837
00000030: 96b8 b539 ecfa ff37 9e44 d2b7 ea1c ac39
00000040: a583 0c3a 071a 2a39 4611 9fb9 0e99 9ab9
00000050: dd26 d637 bab6 1939 e2fc 5138 6032 e2b8
00000060: ca97 fd38 3508 8239 2cb3 b9b6 9de8 76b9
00000070: 1435 06ba a9ed c637 1619 1d39 9786 d439
00000080: ec32 d1b8 b44a 1db9 fa99 6ab9 82e7 00b9
00000090: 7c99 d5b9 80a9 32b8 3c6c 0dba e0fe bd39
000000a0: b014 e539 0d2b feb9 ea94 6738 dfd2 8cb8
000000b0: 8eef 0039 64f5 f239 595f 5d38 9ec9 36b9
000000c0: 3550 d238 f51c 08ba 3b9b 40b9 37f4 9e39
000000d0: 2a34 f1b8 e704 7038 42f1 0a3a 2229 b439
000000e0: 4b1d de39 514c 2739 645c 8639 9774 6439
000000f0: 4021 e438 a08e 363a 3f8d 503a 58c3 8ab9
00000100: 2570 ba39 203c b7b9 5cde a939 7f7e 5c39
00000110: aa18 8c39 7d57 09b9 10b0 1eb9 690f 06ba
00000120: e09a d938 6488 3ab7 31b3 89b9 46f1 afb9
00000130: 5e13 a8b9 ecf6 ca39 bac0 1cb9 3c6e 2c39
00000140: 9e02 9fb9 3ac5 69b9 79fd 00b9 a94b a338
00000150: 62ef 54b9 67fa ed39 059d f939 d0d2 b836
00000160: 2bc3 28b9 6e89 ab39 b1b5 933a 3dd6 b73a
00000170: db73 a03a 4b06 673a 2963 c73a 771b a93a
00000180: 48e4 e23a 9120 8d3a 7b97 803a 0815 183a
00000190: 1864 d23a e8f4 8b3a aa63 af3a 8362 7f3a
000001a0: ec01 d33a c674 c73a 09db d43a 6ba8 ca3a
000001b0: 1e61 9239 a0f6 55b6 7ed2 cab9 54ae 2139
000001c0: ae3c d5b9 a710 dc37 d660 a838 f332 04ba
000001d0: 780b 9db8 721d a7b9 04b4 67b7 be88 7839
000001e0: 057a 2238 8dd0 6639 58c5 63b9 72e0 88b9
000001f0: 4dd4 5239 d4f1 fe37 6cbb 8c39 428a 7bba
00000200: c14c a7b9 ad6e c7b8 f492 2bb9 508d 79ba
00000210: b2c2 96b9 9e2d 42ba 501f eeb9 0f3e e23a
00000220: 67a4 ff3a 5ee6 a83a d584 f63a 2348 023b
00000230: 1573 f63a 7c85 2f3b 38b5 df3a 42d5 ce3a
00000240: 32cb b1b9 1fd5 0fba b41b cdb9 6e0a a7b9
00000250: 3ac6 a737 8860 4db9 c4b4 8938 8522 dfb8
00000260: 9478 97b9 8821 59b8 3106 b138 3bb5 1fba
00000270: faf9 e9b8 48b6 3fb9 2266 c6b9 ffb8 7db9
00000280: 4233 b9b9 b1c1 4cb9 12a8 51b9 3838 bb38
00000290: 7b99 1fba ea8b 2fb9 5964 8b38 9264 053a
000002a0: 1cc1 82b9 8e09 9d39 3238 55b9 de13 6c39
000002b0: 6077 8c3a 9e46 e339 5002 853a f53c 273a
000002c0: 1186 213a 79a4 833a 3785 513a 7aff 9b38
000002d0: 78c3 bab8 334c 7eb9 03c3 43b7 4a70 56b9
000002e0: eaa2 35b9 30ef 6939 1638 18b9 4f87 1fba
000002f0: 5dd2 4739 f70e 9139 94be adb9 4d90 25b9
00000300: 6834 5038 10c7 6939 ea2d 13ba cef4 d439
00000310: 00e6 87b8 53b6 9ab9 c8dc 8e3a 1db5 533a
00000320: 778a e238 e694 c03a e6a3 b43a c0bc 733a
00000330: 7094 ce3a 7f73 7b3a aa9c a43a d885 39b9
00000340: f213 84b7 28e7 11ba ccf4 6939 19d2 00ba
00000350: ca9f d2b9 892c b8b9 f298 9539 ddab 6639
00000360: c984 b9b9 92fb c839 20b7 4c38 1eb0 2139
00000370: a8a7 96b9 a515 f9b8 00b2 3638 220e 3239
00000380: 41a0 b9b9 29bd d6b8 3aef f6b9 0e81 1637
00000390: 5585 8439 5784 3ab9 8c4f c639 60d3 ec39
000003a0: 5626 2eba 313c 6339 3478 09b9 cae5 6239
000003b0: 86d9 74b9 b523 5bb9 bcfa f5b8 98f1 1db9
000003c0: 2675 d938 b9ca 2039 8309 9537 5627 b53a
000003d0: 03f3 9e3a 2ad9 b73a ff68 d13a 9591 e93a
000003e0: 4c24 b43a 0830 f83a ffb9 f13a 980a d73a
000003f0: 00fc 2a39 e498 6bb9 31d2 fcb9 bf61 1eb8

momentum_buffer f4 [64]
0.00092261954 0.0019801133 -5.5543172e-05 0.0017817462 0.006986425 -2.0397056e-05 -0.0016636454 0.0007648046
-0.00047609687 -0.0005888117 -0.0011193076 0.0014105339 -0.004776309 -0.005527424 -0.011036324 0.0003777466
0.010206594 -0.031679638 -0.006745267 0.0044910433 0.002962893 -0.00260931 0.02204616 0.0070795715
-0.0058907312 -0.00087656075 0.006402966 -0.013543652 8.4424144e-05 -0.00016210631 0.00556306 -0.0061505437
-0.018441653 -0.00033324756 -0.020078605 0.0038268163 -0.0032400535 0.0034296403 0.000985272 -0.024448618
0.0007306824 -0.0015791075 0.0024708644 0.009658077 0.02175028 -0.017669292 0.00021173028 0.0011258213
0.0028685937 -0.008047436 0.00011752233 0.0006326042 -0.0005943293 0.021491356 -0.018947605 0.00058087823
0.0027492763 -0.00012157778 -0.00084102555 -0.010229916 0.0011255924 -0.008108352 0.0064904136 -0.007345832
00000000: f3db 713a cac4 013b 07f7 68b8 7b89 e93a
00000010: 61ee e43b 581a abb7 ad0e daba 2b7d 483a
00000020: a49c f9b9 7c5a 1aba bbb5 92ba aae1 b83a
00000030: 9582 9cbb 651f b5bb b3d1 34bc 4a0c c639
00000040: 8f39 273c 82c2 01bd 6707 ddbb 9a29 933b
00000050: 192d 423b f500 2bbb 269a b43c c0fb e73b
00000060: 0907 c1bb ffc8 65ba f9cf d13b 32e6 5dbc
00000070: de0c b138 15fb 29b9 544a b63b 808a c9bb
00000080: f312 97bc bbb7 aeb9 e37b a4bc 53cb 7a3b
00000090: 1457 54bb d1c3 603b 3e24 813a 7848 c8bc
000000a0: 448b 3f3a 0efa ceba 3aee 213b e93c 1e3c
000000b0: a52d b23c 31bf 90bc ea03 5e39 4b90 933a
000000c0: 04ff 3b3b 65d9 03bc 5276 f638 59d5 253a
000000d0: c4cc 1bba a40e b03c 0238 9bbc 1446 183a
000000e0: 342d 343b 93f7 feb8 4578 5cba 619b 27bc
000000f0: 9d88 933a e5d8 04bc 89ad d43b 4eb5 f0bb

momentum_buffer f4 [64, 64, 3, 3]
-0.0003693079 -0.0001074483 7.070402e-05 0.00022126452 0.00038866745 0.00010318107 0.00024827267 4.1042105e-05
0.00023701623 -0.00070542964 -0.00042490033 -0.000804188 -0.00029989803 -0.00088758755 -0.0008741189 -0.00050666905
-0.0010116735 -0.0007487577 0.00027385785 0.00020493144 5.8503472e-05 0.00046623455 3.5993286e-05 -0.0002477589
-0.00010829171 4.661477e-05 -0.00016613254 0.0001950475 0.00047397104 1.0471595e-05 -0.00066590396 -0.0006347272
-0.0005934753 -0.000108381646 -0.00019930767 -4.8650643e-05 0.0006505058 -0.00050147483 -0.00042353218 -0.00028656377
-0.00014995791 -0.00028362387 -0.0003686885 -0.00045003643 -0.0005081145 -0.00025877892 5.021444e-05 5.1374995e-05
0.0002923974 0.00023931776 -0.00030367935 0.00021405944 -0.00032945178 7.584361e-05 -0.000927743 -0.00050315296
-0.0001046952 -0.0005904726 -0.00051596545 -0.0004387039 -0.00025263175 -6.685692e-05 -0.00053058047 9.269458e-05
-0.00018842297 -0.00022063333 0.00042221576 -0.00029446112 -0.00012954147 -7.6354016e-05 0.00017585239 -7.433644e-06
-0.00015404743 -0.00033154798 0.0004791031 0.00028340745 -0.00071447954 -0.00039210854 0.00035555038 0.00032710817
0.00016410979 0.00012831634 -0.0004786168 -0.00030279811 -0.00016962508 -0.0004099809 0.00020910782 -0.00018729112
-0.00018722069 -0.00025421905 -0.00013027817 0.00014000761 0.000108339635 0.0003165117 8.5036605e-05 -0.00014882597
-0.00010828965 0.00015840636 0.00038849574 -0.00030839507 -0.00059307006 -7.50771e-05 -0.00038417388 -0.00010690223
-0.0012379241 -0.0012458895 -0.00039132335 -0.00073792617 0.00021045907 -2.584109e-05 -0.0006257682 -3.943695e-06
-0.00033438948 -0.0007724969 0.00012407817 -0.0006771885 -4.3118107e-05 0.00075317494 -0.00043014373 -0.00019180943
-0.000110868095 -0.00024497844 -0.00050822494 4.5732326e-05 1.996616e-05 0.0003196203 0.000331689 2.1442665e-05
-5.3213058e-05 0.00016265409 7.525354e-05 -0.00032735412 0.00030692248 -1.8149876e-05 7.5309996e-05 -0.00016267363
-5.083649e-05 1.8525516e-05 -9.771809e-05 -9.5040916e-05 0.00025367152 -0.00023971012 -0.00025039044 2.2128135e-05
-0.00026045818 2.2158907e-05 2.2902472e-05 0.0004456974 3.4500226e-05 -5.0574414e-05 -0.0004948848 -0.00024350856
6.618727e-05 4.1651594e-05 -0.00014146819 -8.4533945e-05 -0.00051052304 -0.0004124536 -0.00016500746 -0.0006057466
-0.00010435948 -0.00040332176 -0.00017583145 5.8037112e-05 0.00031777026 -0.00030989223 -0.0001875492 0.00032681643
0.00019763847 0.00017317163 -0.00027392345 -0.0006656332 -0.0004281766 -0.000641005 -0.00040823207 -0.00029657537
-0.00084996753 -0.0004628567 -0.0008920101 -0.0002849831 -0.00016504503 -4.81552e-06 -0.00072268874 -0.0002737827
-0.0005681872 -0.00051603536 -0.00028060158 -0.0005752675 -0.0004205439 0.00028524382 0.00015875977 -0.00039015262
0.0005526286 -0.0003719481 0.00029809016 -0.00023203254 -0.00022455622 -0.00036927356 -0.0005012365 -0.0007138922
-0.00013045064 -0.00025152645 -0.00039329854 -0.00019214248 -0.0004199307 -0.00029024517 -0.00019281903 -4.5891244e-05
9.6815325e-05 0.00013529387 -0.00015153791 3.4433724e-05 -0.0002377838 8.657345e-05 -0.0007261011 0.00038329823
0.00016359346 -0.00022999033 -3.1393905e-05 -0.00040571534 0.0002968919 -0.00018516544 -0.00021222625 8.149028e-05
0.00012593137 0.00023335779 0.0002543161 0.00043098337 0.00019713306 0.00013810431 -0.00054179697 0.00027206083
0.0003439727 -0.00011061927 -0.000105893465 -7.292565e-05 0.00017799533 -0.00027024775 2.1770407e-05 3.3276436e-05
8.1549006e-05 -0.00015978912 0.00057378836 -0.0002538516 0.00022071507 -0.00019995098 -0.00012081214 0.00013517955
0.00014636516 -0.00021683551 -0.00029695613 4.1394273e-05 0.00035881932 0.00015235976 0.00026929693 7.5343894e-05
00000000: ab9f c1b9 de55 e1b8 ef46 9438 3e03 6839
00000010: 10c6 cb39 ea62 d838 982a 8239 a024 2c38
00000020: 8f87 7839 95ec 38ba 28c5 deb9 25d0 52ba
00000030: a23b 9db9 feac 68ba 2025 65ba fcd1 04ba
00000040: 219a 84ba 4748 44ba 9494 8f39 dde2 5639
00000050: a061 7538 f170 f439 7ff7 1638 a3e5 81b9
00000060: ab1a e3b8 3a84 4338 dd33 2eb9 aa85 4c39
00000070: 517f f839 28af 2f37 0f90 2eba d263 26ba
00000080: 7493 1bba f44a e3b8 3ffd 50b9 3b0e 4cb8
00000090: b586 2a3a 6875 03ba 870d deb9 f03d 96b9
000000a0: 053e 1db9 5ab3 94b9 884c c1b9 def2 ebb9
000000b0: fd32 05ba b8ac 87b9 589d 5238 7b7b 5738
000000c0: ea4c 9939 5ff1 7a39 2737 9fb9 2575 6039
000000d0: 45ba acb9 3a0e 9f38 c733 73ba 06e6 03ba
000000e0: cf8f dbb8 f2c9 1aba db41 07ba d701 e6b9
000000f0: a973 84b9 8935 8cb8 a716 0bba 0665 c238
00000100: 6893 45b9 cf59 67b9 d75c dd39 e761 9ab9
00000110: 86d5 07b9 4020 a0b8 0465 3839 846e f9b6
00000120: cb87 21b9 9ed3 adb9 2130 fb39 4e96 9439
00000130: e94b 3bba eb93 cdb9 2a69 ba39 b77f ab39
00000140: e314 2c39 a88c 0639 dcee fab9 e0c0 9eb9
00000150: 63dd 31b9 b4f2 d6b9 f443 5b39 9463 44b9
00000160: ac50 44b9 b448 85b9 489b 08b9 02cf 1239
00000170: 6634 e338 7bf1 a539 ae55 b238 2b0e 1cb9
00000180: 9019 e3b8 e219 2639 04af cb39 16b0 a1b9
00000190: 4278 1bba b672 9db8 f26a c9b9 b330 e0b8
000001a0: d741 a2ba 1d4d a3ba 882a cdb9 6371 41ba
000001b0: adae 5c39 51c5 d8b7 980a 24ba 1554 84b6
000001c0: ff50 afb9 6481 4aba fb1a 0239 5a85 31ba
000001d0: b7d9 34b8 b770 453a ea84 e1b9 7420 49b9
000001e0: db81 e8b8 7370 80b9 663a 05ba b6d0 3f38
000001f0: 017d a737 b692 a739 8be6 ad39 c6df b337
00000200: 1631 5fb8 208e 2a39 70d1 9d38 baa0 abb9
00000210: 70ea a039 9040 98b7 bfef 9d38 5f93 2ab9
00000220: 4439 55b8 3e67 9b37 00ee ccb8 b450 c7b8
00000230: 37ff 8439 b25a 7bb9 d646 83b9 cf9f b937
00000240: 1b8e 88b9 e4e1 b937 af1e c037 7eac e939
00000250: 56b4 1038 dd1f 54b8 28bb 01ba 5556 7fb9
00000260: 05ce 8a38 0fb3 2e38 1457 14b9 d147 b1b8
00000270: 9fd4 05ba 963e d8b9 da05 2db9 f7ca 1eba
00000280: 92db dab8 ee74 d3b9 655f 38b9 e06c 7338
00000290: 679a a639 0879 a2b9 dba8 44b9 8f58 ab39
000002a0: 2c3d 4f39 6895 3539 629d 8fb9 e37d 2eba
000002b0: e47c e0b9 1e09 28ba fb07 d6b9 ac7d 9bb9
000002c0: 5bd0 5eba 93ab f2b9 c9d5 69ba c969 95b9
000002d0: f00f 2db9 0095 a1b6 d272 3dba 7e8a 8fb9
000002e0: 66f2 14ba 8c46 07ba b51d 93b9 8ccd 16ba
000002f0: 727c dcb9 c78c 9539 c078 2639 668d ccb9
00000300: 47de 103a 0702 c3b9 fc48 9c39 c34d 73b9
00000310: da76 6bb9 0f9b c1b9 6a65 03ba 7f24 3bba
00000320: 94c9 08b9 4fdf 83b9 a333 ceb9 db79 49b9
00000330: 252a dcb9 0c2c 98b9 772f 4ab9 597b 40b8
00000340: 5509 cb38 acdd 0d39 26e6 1eb9 ee6c 1038
00000350: 9a55 79b9 c48e b538 d257 3eba 6bf5 c839
00000360: 498a 2b39 8f29 71b9 f3ac 03b8 31b6 d4b9
00000370: 28a8 9b39 f828 42b9 0d89 5eb9 c3e5 aa38
00000380: 720c 0439 81b1 7439 bb55 8539 9cf5 e139
00000390: 81b5 4e39 18d0 1039 6107 0eba 63a3 8e39
000003a0: 3c57 b439 45fc e7b8 1f13 deb8 a9ef 98b8
000003b0: 42a4 3a39 0ab0 8db9 989f b637 4d92 0b38
000003c0: 4a05 ab38 118d 27b9 496a 163a 6317 85b9
000003d0: c06f 6739 efa9 51b9 865c fdb8 fcbe 0d39
000003e0: 9979 1939 575e 63b9 c7b0 9bb9 c39e 2d38
000003f0: ea1f bc39 c3c2 1f39 6c30 8d39 f201 9e38

momentum_buffer f4 [64]
-0.0004558805 0.000915202 0.0018205164 0.0008291881 0.000292751 -0.013281891 0.0019877218 -0.0012289432
0.0012971011 -0.0025988792 0.00020975119 -0.0065340577 2.916849e-06 0.0032699695 -0.0022039434 -0.00035456053
0.0032873328 -0.0007039453 -0.0026356538 0.00028285955 -0.00015941737 0.0004586489 -0.001042235 -0.0047457432
-0.0069828904 0.0031717764 -0.00012698396 -0.010056657 -0.00045140638 -0.00024301079 -0.00029510498 -0.00061045215
0.0034098485 0.0008722426 -0.010586902 -6.504853e-05 0.0006875195 0.0032272395 0.0008805217 9.2065e-05
0.002759944 -0.008713824 -0.00010746025 0.00650305 0.0041194847 0.0040953844 -0.0004310167 -0.00085855054
0.0011988026 0.00018615455 -0.00959725 0.0007094423 8.718837e-05 -0.0095559815 -0.0010585632 -0.00048818803
-0.00023035027 -0.00011758119 -0.00017533063 -0.001190975 0.0027755862 -0.0058834995 0.0018822175 -0.001971402
00000000: 3f03 efb9 2bea 6f3a 659e ee3a df5d 593a
00000010: 607c 9939 4a9c 59bc 7044 023b 7e14 a1ba
00000020: 7e03 aa3a f551 2abb a8f0 5b39 a61b d6bb
00000030: 16bf 4336 fc4c 563b 0970 10bb 4fe4 b9b9
00000040: 4b70 573b f888 38ba efba 2cbb c44c 9439
00000050: 4629 27b9 d076 f039 9a9b 88ba 2e82 9bbb
00000060: bbd0 e4bb 94dd 4f3b ff26 05b9 adc4 24bc
00000070: bdaa ecb9 b6d0 7eb9 52b8 9ab9 c006 20ba
00000080: c477 5f3b 36a7 643a af74 2dbc aa6a 88b8
00000090: a73a 343a 1880 533b d0d2 663a 0513 c138
000000a0: 2de0 343b 6dc4 0ebc 485c e1b8 8a17 d53b
000000b0: befc 863b 9332 863b 15fa e1b9 5a10 61ba
000000c0: 2421 9d3a 7b32 4339 c93d 1dbc def9 393a
000000d0: e6d8 b638 b190 1cbc 7dbf 8aba 7df3 ffb9
000000e0: 2e8a 71b9 ec95 f6b8 f5d8 37b9 7d1a 9cba
000000f0: 9ce6 353b 5fca c0bb bdb4 f63a a332 01bb

momentum_buffer f4 [1, 64]
0.004023557 -0.0021458569 -0.009560472 0.0046178396 -0.00027215877 0.09702401 0.028738815 0.02210452
0.00013893322 0.025153052 0.000530846 0.0363012 0.0006100574 -0.015519946 0.030030113 0.0017911128
0.005333703 5.022764e-05 0.06224276 0.016800141 -0.00043042452 -0.0020691466 0.01995084 0.039217103
0.049319867 -0.01416929 0.0028645496 0.055898983 0.0022768704 0.008152191 0.0045948825 0.012044534
-0.014505174 0.0021899303 0.058738016 -0.00036687564 0.001114508 -0.011008086 0.0012953626 0.00027618217
-0.0004986046 0.05573126 -0.003538452 0.008622888 0.0068324828 -0.024968378 0.0006411272 0.017383326
0.0025050943 0.004218324 0.07176452 -0.0007263465 0.00054994505 0.049422573 0.014313714 0.004177745
-0.0054818564 -0.00040996762 -0.00018602112 0.003806667 -0.010558781 0.044471316 0.00806211 0.03645655
00000000: 0bd8 833b 81a1 0cbb 87a3 1cbc 3f51 973b
00000010: 88b0 8eb9 86b4 c63d aa6d eb3c 8a14 b53c
00000020: 9aae 1139 c60d ce3c 7928 0b3a 91b0 143d
00000030: 42ec 1f3a 5f47 7ebc b601 f63c c6c3 ea3a
00000040: 58c6 ae3b 85ab 5238 44f2 7e3d 73a0 893c
00000050: 9aaa e1b9 859a 07bb f26f a33c 1da2 203d
00000060: a103 4a3d 4f26 68bc 2bbb 3b3b 55f6 643d
00000070: 8c37 153b c490 053c ab90 963b 7056 453c
00000080: 1ca7 6dbc ef84 0f3b 4697 703d 3759 c0b9
00000090: af14 923a 425b 34bc 28c9 a93a 8bcc 9039
000000a0: cab4 02ba 7646 643d 60e5 67bb 0347 0d3c
000000b0: 05e3 df3b 7c8a ccbc 5111 283a 7a67 8e3c
000000c0: 822c 243b de39 8a3b 47f9 923d 4a68 3eba
000000d0: 302a 103a 536f 4a3d 1184 6a3c 77e5 883b
000000e0: 25a1 b3bb ecf0 d6b9 aa0e 43b9 4679 793b
000000f0: bdfe 2cbc 8e27 363d f116 043c 7753 153d

bn0.weight f4 [3]
1.1179401 1.007779 1.0909923
00000000: a918 8f3f e7fe 803f a3a5 8b3f

bn0.bias f4 [3]
0.040352628 -0.22808172 -0.029298304
00000000: cc48 253d 418e 69be ff02 f0bc

bn0.running_mean f4 [3]
0.48468104 0.44444665 0.40641224
00000000: 1d28 f83e 838e e33e 4415 d03e

bn0.running_var f4 [3]
0.06448951 0.059729297 0.060548864
00000000: 1413 843d b5a6 743d 1602 783d

conv1.weight f4 [32, 3, 5, 5]
0.027894635 0.017997483 0.05361026 -0.038521573 -0.020829344 0.048423223 0.042931587 0.08402939
0.051831573 0.07387694 0.03089321 -0.0035103846 -0.024033366 -0.018915724 0.019946469 0.13458554
-0.028850002 -0.0714757 -0.050161272 -0.056141924 -0.03147801 -0.04293831 0.08232268 -0.044830594
-0.00018809536 0.030455709 0.050137907 -0.014377615 0.042901445 -0.02355999 0.14779149 -0.04696115
0.0682974 -0.011505203 0.035864115 0.0014009505 -0.00040044668 0.08210618 -0.078932576 -0.06587856
0.07080337 -0.09391484 0.016239122 0.006279718 -0.056393214 -0.02694707 -0.04207087 0.011009844
-0.09799708 -0.043082308 0.09295527 -0.07569255 0.009175132 0.05337025 -0.018261164 -0.03402579
-0.06576706 0.03213921 -0.033144813 0.03631562 -0.035851844 -0.07390469 0.069747746 -0.054624144
-0.059527215 -0.021993201 0.027889743 -0.12891906 -0.008579333 -0.09098745 -0.04901402 0.0012635359
-0.022105973 -0.07069232 -0.007758729 0.12161438 0.029249389 0.014303678 0.070430875 0.054513533
-0.014807213 -0.013549811 0.03993259 0.002748301 -0.08028117 0.012948239 0.003270195 0.030369978
-0.025206497 0.008002494 -0.006765863 0.027108131 0.010045227 -0.0031452118 0.046155136 0.00518736
-0.068170056 0.00046592293 -0.04788038 -0.040233966 -0.017811775 0.033430174 -0.04037208 0.009489546
-0.024250826 0.00082389964 0.010874019 -0.02656298 0.07290097 -0.12064922 0.033373512 0.045509122
-0.005780425 0.020937692 -0.046801407 -0.012320519 -0.031117583 -0.021270275 0.059256207 -0.01766236
-0.041961554 0.07783384 0.049504854 0.05032665 -3.551077e-05 0.070401914 -0.028893648 0.012374778
0.078369975 -0.036515336 0.08871725 0.06775734 -0.048134413 -0.00021998667 -0.034335542 0.017328208
0.07586548 -0.026188124 0.03463563 -0.034484718 -0.005568072 0.024016023 0.041582573 0.0297168
-0.0026169838 0.1066054 0.020527603 0.08091417 -0.034438536 -0.10010076 -0.022505702 0.043662835
-0.0008291506 0.007366108 0.032139193 0.021606449 0.0866449 -0.116902985 -0.08307158 -0.024914797
-0.01027906 -0.02465007 -0.069216326 -0.05463876 -0.0318131 0.07808768 0.15526922 0.094986
0.018570343 -0.081138566 -0.110333376 0.068593495 0.026535554 0.030620126 -0.015215406 0.057749335
-0.0344592 -0.009207705 -0.08319699 0.10725148 -0.03450425 0.041133877 -0.047987897 -0.016553145
-0.059347447 0.012040014 0.07222555 -0.061561458 -0.0067005204 -0.04088459 0.042304534 -0.01083759
0.0047409777 -0.025871005 0.029902497 0.046538346 0.032006495 0.06657815 -0.057810083 -0.073116004
0.11428328 0.13160002 0.035934795 -0.0012442836 -0.03340443 0.027515281 0.020763455 0.009832295
0.032942817 -0.12519073 0.051087476 0.062628195 -0.09821131 0.016453044 -0.019373098 0.039241705
-0.020408208 -0.03669266 -0.074858375 -0.055752907 0.03269277 -0.0059472234 -0.0062545915 -0.04049213
-0.021359239 -0.012169146 -0.08850562 -0.116007775 0.021022514 0.023281816 0.081308134 -0.10217244
0.06679305 0.00075560366 -0.012845952 0.025822567 -0.053703066 0.018941412 -0.0037541396 -0.0009293396
0.02600486 -0.0070965565 -0.014992235 -0.03511854 -0.11442407 0.021736337 -0.04636371 -0.0026804216
-0.00955931 0.028505355 0.044143274 -0.048703082 -0.004882423 -0.027548311 0.004410831 0.011442917
00000000: 4a83 e43c 756f 933c 6f96 5b3d ccc8 1dbd
00000010: 4da2 aabc 6e57 463d 08d9 2f3d 9a17 ac3d
00000020: 584d 543d cb4c 973d c213 fd3c 7b0e 66bb
00000030: 9fe1 c4bc 26f5 9abc c766 a33c cbd0 093e
00000040: d756 ecbc da61 92bd e875 4dbd 13f5 65bd
00000050: 16ef 00bd 15e0 2fbd cb98 a83d 49a0 37bd
00000060: 773b 45b9 407e f93c 685d 4d3d 1790 6bbc
00000070: 6db9 2f3d e100 c1bc a756 173e 565a 40bd
00000080: 82df 8b3d 5280 3cbc 40e6 123d 19a0 b73a
00000090: 0bf3 d1b9 4927 a83d 67a7 a1bd 57eb 86bd
000000a0: 5b01 913d 6c56 c0bd e807 853c 18c6 cd3b
000000b0: 92fc 66bd 1ac0 dcbc 8152 2cbd a262 343c
000000c0: b1b2 c8bd 1377 30bd 555f be3d b204 9bbd
000000d0: 4b53 163c c39a 5a3d 7098 95bc a05e 0bbd
000000e0: e1b0 86bd 67a4 033d dbc2 07bd b0bf 143d
000000f0: 62d9 12bd 585b 97bd e8d7 8e3d 91bd 5fbd
00000100: cfd2 73bd 162b b4bc 0879 e43c 5c03 04be
00000110: 5590 0cbc a157 babd edc2 48bd 3b9d a53a
00000120: 9617 b5bc 23c7 90bd f03c febb f610 f93d
00000130: 6a9c ef3c f959 6a3c 103e 903d 9549 5f3d
00000140: f499 72bc 0700 5ebc 5b90 233d d71c 343b
00000150: 746a a4bd da24 543c c550 563b 76ca f83c
00000160: db7d cebc e51c 033c 2cb4 ddbb df11 de3c
00000170: bc94 243c e61f 4ebb 2b0d 3d3d bbfa a93b
00000180: be9c 8bbd 1e47 f439 381e 44bd 5fcc 24bd
00000190: 00ea 91bc 14ee 083d 325d 25bd 0a7a 1b3c
000001a0: aba9 c6bc f8fa 573a f128 323c 9b9a d9bc
000001b0: 1b4d 953d f016 f7bd aab2 083d c667 3a3d
000001c0: b869 bdbb 8685 ab3c d5b2 3fbd 01dc 49bc
000001d0: 4dea febc 003f aebc a3b6 723d a7b0 90bc
000001e0: e1df 2bbd 5967 9f3d 9ac5 4a3d 5123 4e3d
000001f0: 66f1 14b8 e12e 903d 5fb2 ecbc 95bf 4a3c
00000200: 7080 a03d 1b91 15bd 64b1 b53d 5cc4 8a3d
00000210: 9728 45bd 39ac 66b9 6da3 0cbd e3f3 8d3c
00000220: 5c5f 9b3d 7a88 d6bc 17de 0d3d d93f 0dbd
00000230: 6074 b6bb 40bd c43c 7d52 2a3d a670 f33c
00000240: b481 2bbb ef53 da3d 8129 a83c 54b6 a53d
00000250: 6c0f 0dbd a101 cdbd e15d b8bc cdd7 323d
00000260: 5b5b 59ba 645f f13b 63a4 033d 0200 b13c
00000270: e272 b13d d56a efbd 6f21 aabd 1e1a ccbc
00000280: 8169 28bc f2ee c9bc 4ac1 8dbd e4cc 5fbd
00000290: 744e 02bd 6fec 9f3d e5fe 1e3e 0588 c23d
000002a0: d520 983c fa2b a6bd 77f6 e1bd bf7a 8c3d
000002b0: 1761 d93c 0fd7 fa3c 0a4a 79bc 918a 6c3d
000002c0: 1725 0dbd eadb 16bc 2f63 aabd aaa6 db3d
000002d0: 5454 0dbd ff7b 283d f58e 44bd 769a 87bc
000002e0: 4f16 73bd 7b43 453c fdea 933d de27 7cbd
000002f0: 0a90 dbbb 9a76 27bd 8547 2d3d 2690 31bc
00000300: 345a 9b3b 6eef d3bc 15f6 f43c fe9e 3e3d
00000310: 3e19 033d 205a 883d 44ca 6cbd d8bd 95bd
00000320: 5a0d ea3d 28c2 063e 5d30 133d 3b17 a3ba
00000330: 15d3 08bd ba67 e13c 1f18 aa3c a217 213c
00000340: 0cef 063d 0032 00be 1a41 513d 3643 803d
00000350: 0323 c9bd 89c8 863c 55b4 9ebc e9bb 203d
00000360: 1d2f a7bc 0b4b 16bd 594f 99bd 295d 64bd
00000370: dbe8 053d ede0 c2bb 51f3 ccbb 13db 25bd
00000380: 92f9 aebc 1961 47bc 6f42 b5bd 7c95 edbd
00000390: 6837 ac3c 82b9 be3c e184 a63d c93f d1bd
000003a0: cbca 883d b413 463a d477 52bc d989 d33c
000003b0: bff7 5bbd 052b 9b3c 0308 76bb ed9e 73ba
000003c0: 2508 d53c 3b8a e8bb fea1 75bc 75d8 0fbd
000003d0: 2b57 eabd 6710 b23c e0e7 3dbd 03aa 2fbb
000003e0: a79e 1cbc 1084 e93c 94cf 343d e27c 47bd
000003f0: bcfc 9fbb ffac e1bc bb88 903b 137b 3b3c

conv1.bias f4 [32]
0.004787434 0.108508095 0.002142415 -0.03303654 0.027184628 0.093201496 -0.04433734 0.076144464
-0.01575064 0.06945604 0.004365389 0.036781803 -0.12859648 -0.08350978 0.036108784 0.044154413
-0.05005711 0.008007016 0.1083391 0.014855548 -0.09859642 0.0368497 0.013751905 -0.0067239194
-0.085443296 -0.031922072 0.062392086 0.06517656 0.048929345 0.06167162 0.0046892664 0.011937921
00000000: e8df 9c3b 7e39 de3d c267 0c3b 5351 07bd
00000010: 4cb2 de3c 6de0 be3d 129b 35bd a1f1 9b3d
00000020: 7c07 81bc f83e 8e3d 890b 8f3b 84a8 163d
00000030: ccae 03be 2d07 abbd cee6 133d 42db 343d
00000040: af08 4dbd dc2f 033c e4e0 dd3d af64 733c
00000050: ebec c9bd b6ef 163d ac4f 613c 5354 dcbb
00000060: e5fc aebd b8c0 02bd d88e 7f3d 4a7b 853d
00000070: 236a 483d 619b 7c3d 6ba8 993b 4597 433c

conv2.weight f4 [32, 32, 3, 3]
-0.108074725 0.00068875373 -0.058993243 -0.033982072 0.123485625 -0.18317576 0.1294978 -0.048047893
0.008396394 -0.09232249 0.031155549 -0.023007646 0.040947936 0.12224921 0.0110736685 0.08150625
0.023667576 0.10121438 0.030667922 0.033082712 0.04991498 0.11083299 0.08836653 0.031021435
0.02806827 0.05226137 0.030836217 0.021226525 -0.089030765 0.12355097 0.03406357 0.09088214
-0.04329223 -0.11704887 0.07454064 0.015407205 0.03792034 -0.0011753301 0.0018193409 -0.057214495
-0.17402619 0.043526582 -0.11995527 0.06809058 0.15103473 0.05417956 0.10241403 -0.012573636
0.0023284352 -0.051452663 -0.07876849 -0.08767334 0.026265405 -0.076713555 -0.031421755 -0.04728366
0.0023483275 -0.04746208 0.051222965 0.08589032 0.029692993 0.015089252 -0.08205522 -0.021785652
0.052074067 0.112983964 0.024725258 -0.073893115 -0.043108057 0.054560293 -0.046584435 -0.034307163
0.04604421 -0.026862107 0.10123185 -0.14487988 -0.10531375 -0.030687053 -0.030253645 -0.01676612
0.13125344 -0.029185468 0.053255245 0.03348546 -0.08703066 0.0032967401 -0.080018885 0.022888944
-0.01949962 -0.08123543 0.035943985 0.077016324 0.08355666 -0.15912001 0.08780018 -0.010869263
-0.099787325 -0.107283704 0.037031244 0.010108244 -0.07290841 0.02867431 -0.09812931 -0.10608962
0.043431517 -0.043537747 -0.025154434 -0.11554252 -0.013802986 -0.16646715 0.015025766 0.04029403
-0.00028326316 -0.11363233 -0.2492695 -0.016758913 0.112288475 -0.21057273 -0.122797556 0.032487903
-0.012152028 0.10166761 0.002853516 -0.051038742 0.036480796 0.05807316 -0.07946454 0.019782469
0.011470991 -0.15019564 -0.076019466 0.074398525 -0.13592228 -0.023987236 -0.06098478 -0.054734536
0.08075997 0.006183082 -0.03294529 0.11394027 -0.11944923 -0.017332235 0.035449903 -0.0022547406
0.03198896 0.09581181 0.09759265 -0.0029874477 0.092155665 0.08820776 -0.19737376 -0.07950545
-0.1298288 -0.009371747 -0.050807238 0.030887958 -0.07291272 0.05197954 -0.01947857 -0.112799026
-0.024632895 -0.051585145 -0.029655557 -0.12546985 0.068687 0.08477353 0.055215113 0.020844417
-0.08720926 0.040955167 -0.15112892 -0.09042976 0.031973347 0.13377625 0.028373018 -0.048823077
0.014218783 -0.10602583 -0.015146989 0.05886303 0.058827013 0.030484563 -0.07603284 -0.1165531
0.0059822258 0.017007126 -0.034171935 -0.06966006 0.002259628 -0.053587053 0.15580826 -0.09960799
0.044767454 -0.06860683 -0.1041049 0.040948305 -0.085928015 -0.018017245 -0.025229236 0.021277282
0.0427193 0.09426285 0.01965712 -0.15815756 -0.08477316 0.07809984 -0.05015862 0.025378726
-0.021647666 0.046018183 -0.0244064 -0.014369301 0.006451901 0.061491124 0.05748748 0.010308938
-0.049903437 -0.094643876 -0.034550045 -0.076977424 0.08367063 0.018465094 -0.09131213 -0.023075674
-0.083566375 0.0206915 -0.15981671 -0.01766203 0.028197102 -0.022835135 -0.09033705 0.030754853
0.027852183 0.04111963 -0.14814115 0.05613142 -0.0696957 -0.10945881 0.073881894 0.09661774
0.054242425 0.009553444 -0.013052156 -0.15793481 0.013427888 -0.09007492 -0.09770985 -0.076032
0.014768509 0.08367328 0.12811601 -0.1594864 -0.11403542 -0.026416346 -0.0017842008 0.1414925
00000000: 4856 ddbd 7b8d 343a e6a2 71bd c930 0bbd
00000010: 08e6 fc3d 6d92 3bbe 129b 043e decd 44bd
00000020: 0791 093c 9313 bdbd ec39 ff3c 887a bcbc
00000030: 06b9 273d cb5d fa3d 556e 353c c0ec a63d
00000040: 81e2 c13c 7c49 cf3d 4b3b fb3c bd81 073d
00000050: a673 4c3d 68fc e23d 83f9 b43d aa20 fe3c
00000060: 6eef e53c 0510 563d 3c9c fc3c 40e3 ad3c
00000070: c355 b6bd 4a08 fd3d 3e86 0b3d 6a20 ba3d
00000080: 3253 31bd 51b7 efbd c3a8 983d 806e 7c3c
00000090: 5c52 1b3d 890d 9aba f376 ee3a bf59 6abd
000000a0: ec33 32be ee48 323d 1cab f5bd 1373 8b3d
000000b0: d9a8 1a3e 63eb 5d3d 72be d13d a701 4ebc
000000c0: a998 183b 07c0 52bd 6051 a1bd 158e b3bd
000000d0: 8c2a d73c ff1b 9dbd 19b4 00bd 83ac 41bd
000000e0: 66e6 193b 9967 42bd 2ccf 513d 44e7 af3d
000000f0: b83e f33c e938 773c 910c a8bd d377 b2bc
00000100: 9e4b 553d 2364 e73d a08c ca3c 4655 97bd
00000110: 1392 30bd 9d7a 5f3d 52cf 3ebd ab85 0cbd
00000120: db98 3c3d ec0d dcbc a552 cf3d 645b 14be
00000130: bcae d7bd 6a63 fbbc 7ed6 f7bc 1a59 89bc
00000140: 4d67 063e 5d16 efbc 2c22 5a3d 0d28 093d
00000150: 213d b2bd 1f0e 583b f1e0 a3bd 9881 bb3c
00000160: abbd 9fbc c35e a6bd 003a 133d bcba 9d3d
00000170: c11f ab3d 5bf0 22be 95d0 b33d fe14 32bc
00000180: 4c5d ccbd 8fb7 dbbd 13ae 173d 0c9d 253c
00000190: 0151 95bd 63e6 ea3c 05f8 c8bd 8445 d9bd
000001a0: 3fe5 313d a354 32bd ac10 cebc 8fa1 ecbd
000001b0: eb25 62bc 5d76 2abe a12e 763c 5a0b 253d
000001c0: f082 94b9 11b8 e8bd 8140 7fbe fd49 89bc
000001d0: 80f7 e53d 61a0 57be 497d fbbd 0912 053d
000001e0: 4d19 47bc 1c37 d03d 0e02 3b3b 000e 51bd
000001f0: e36c 153d 1fde 6d3d 4ebe a2bd d80e a23c
00000200: d3f0 3b3c e3cc 19be 18b0 9bbd 415e 983d
00000210: 362f 0bbe e180 c4bc 2dcb 79bd 5231 60bd
00000220: 7c65 a53d 739b ca3b a4f1 06bd 8459 e93d
00000230: cca1 f4bd 55fc 8dbc eb33 113d 45c4 13bb
00000240: db06 033d fb38 c43d a8de c73d 0ec9 43bb
00000250: 1cbc bc3d 45a6 b43d 591c 4abe c1d3 a2bd
00000260: d7f1 04be f58b 19bc 401b 50bd be08 fd3c
00000270: 4453 95bd 80e8 543d 8691 9fbc 2d03 e7bd
00000280: edca c9bc f24a 53bd 36f0 f2bc 2b7b 00be
00000290: c5ab 8c3d bf9d ad3d 3e29 623d e9c1 aa3c
000002a0: c59a b2bd 9bc0 273d 8ac1 1abe 3d33 b9bd
000002b0: 7cf6 023d a4fc 083e 886e e83c b5fa 47bd
000002c0: e6f5 683c 1224 d9bd 142b 78bc 5c1a 713d
000002d0: 98f4 703d c3ba f93c 1bb7 9bbd 64b3 eebd
000002e0: 8c06 c43b 8752 8b3c dff7 0bbd efa9 8ebd
000002f0: 4416 143b 197e 5bbd 338c 1f3e 46ff cbbd
00000300: 145e 373d bd81 8cbd f334 d5bd 69b9 273d
00000310: 07fb afbd e798 93bc 8bad cebc b24d ae3c
00000320: 6ffa 2e3d e20c c13d f807 a13c 0ef4 21be
00000330: 8d9d adbd cff2 9f3d 2073 4dbd 0ce7 cf3c
00000340: 7256 b1bc 907d 3c3d eeef c7bc 376d 6bbc
00000350: 786a d33b 1ede 7b3d fe77 6b3d d2e6 283c
00000360: 8c67 4cbd a6d4 c1bd 5984 0dbd 57a6 9dbd
00000370: 825b ab3d 1c44 973c db01 bbbd 3209 bdbc
00000380: d924 abbd 3881 a93c fea6 23be f6af 90bc
00000390: 9cfd e63c c010 bbbc a202 b9bd 9af1 fb3c
000003a0: 432a e43c 0f6d 283d 50b2 17be 0fea 653d
000003b0: 9fbc 8ebd f12b e0bd 644f 973d 86df c53d
000003c0: 4e2d 5e3d 0c86 1c3c b6d8 55bc aab9 21be
000003d0: a500 5c3c 3379 b8bd 1a1c c8bd aab6 9bbd
000003e0: 9ef7 713c e65c ab3d d830 033e 6750 23be
000003f0: 678b e9bd 1867 d8bc d8db e9ba 69e3 103e

conv2.bias f4 [32]
-0.012801432 0.0063355896 -0.020014798 0.0007314215 0.014247538 0.050198697 -0.049681447 0.021903522
-0.06919932 -0.03208085 -0.009318339 0.0020828075 0.03223831 0.007785999 0.0037872684 -0.027891142
0.045599025 -0.07320558 -0.005158696 -0.062365014 -0.00034672776 -0.011842787 0.0727182 0.05407579
-0.005351886 -0.029792637 -0.032035135 0.006904016 -0.02961166 0.07987802 -0.019339737 0.0019035749
00000000: 19bd 51bc c79a cf3b 13f6 a3bc debc 3f3a
00000010: 816e 693c 269d 4d3d c67e 4bbd 046f b33c
00000020: 60b8 8dbd 3667 03bd f2ab 18bc b67f 083b
00000030: 510c 043d b221 ff3b d233 783b f77b e4bc
00000040: 0bc6 3a3d cfec 95bd 470a a9bb 7572 7fbd
00000050: 03c9 b5b9 4008 42bc 48ed 943d 937e 5d3d
00000060: e05e afbb b00f f4bc 4637 03bd 153b e23b
00000070: 2794 f2bc 1697 a33d 5e6e 9ebc 6081 f93a
