Ratio_Reverse/checkpoint_step_0235.pth (torch_old, 541551 bytes, 24 tensors)

momentum_buffer f4 [3]
000000 2e 12 0b 3e 1c b3 b5 bd 74 a1 9d bd
       0.13581154 -0.08872053 -0.0769681

momentum_buffer f4 [3]
000000 ba 13 29 be 1e 6f 9f 3d ee cd ef 3d
       -0.16511431 0.07784866 0.117092

momentum_buffer f4 [32, 3, 5, 5]
000000 54 6b ba 3c 0e 92 b1 3c ee ae b4 3c 32 a5 bf 3c
       0.022756256 0.02167609 0.02205607 0.023394201
000010 32 39 ce 3c f0 7d c7 3c 36 f9 c1 3c 50 12 c4 3c
       0.025173757 0.024352044 0.023678403 0.023934513
000020 8d b7 d2 3c bf e1 e1 3c 37 57 e7 3c 76 55 e8 3c
       0.02572229 0.027573464 0.02823983 0.028361063
000030 9a 50 ef 3c 1c ec 02 3d 97 ae 07 3d aa cb 08 3d
       0.029213239 0.031963453 0.033125486 0.033397354
000040 e4 c1 0a 3d 16 1d 11 3d 07 8e 1a 3d 4f 7e 1b 3d
       0.033876315 0.03542813 0.037733104 0.037962254
000050 46 dc 0f 3d 5a 8b 10 3d 87 a8 16 3d 6f d6 1c 3d
       0.03512218 0.035289146 0.036781814 0.038290437
000060 1f c6 1c 3d ae d3 75 3c 41 bd 5e 3c 95 16 5e 3c
       0.03827488 0.015004082 0.013594926 0.013555189
000070 1e 08 81 3c 9b 8b 8c 3c 21 15 89 3c 3f 65 6f 3c
       0.01575094 0.017156413 0.016733708 0.014611541
000080 6d 2b 7c 3c 9f 34 8b 3c 50 96 9b 3c 29 b3 9c 3c
       0.015391213 0.016992865 0.018992573 0.019128399
000090 fc 40 9b 3c 7b af a7 3c 45 d1 b6 3c 2f 58 bf 3c
       0.018951885 0.020469418 0.022316584 0.023357479
0000a0 1a 78 c1 3c dc da c0 3c b9 56 d4 3c 60 5c e5 3c
       0.02361684 0.02354186 0.025920259 0.02799815
0000b0 bf 56 e5 3c 9a f0 d1 3c 66 41 ce 3c 7e 30 d7 3c
       0.027995465 0.025627423 0.025177669 0.02626824
0000c0 22 aa e3 3c 15 17 e5 3c 95 2f d4 3b fa 11 94 3b
       0.027791087 0.027965108 0.006475399 0.0045187445
0000d0 9c e0 b2 3b bd 04 03 3c 15 ef 1d 3c 80 29 d9 3b
       0.0054589044 0.007996735 0.009639521 0.0066272616
0000e0 20 1a bd 3b 90 03 d9 3b 4f 1f 0e 3c b7 4a 35 3c
       0.0057709366 0.006622739 0.008674457 0.011065177
0000f0 9b 62 1e 3c 83 c4 1f 3c b6 1e 40 3c a1 06 67 3c
       0.009667064 0.009751442 0.011726072 0.014100702
000100 f4 77 7a 3c 4e 1b 5f 3c 14 2c 77 3c a2 20 85 3c
       0.015287388 0.01361735 0.015086193 0.016250912
000110 14 9a 9d 3c 5a 9e 9e 3c e2 62 81 3c c7 a4 83 3c
       0.01923851 0.019362617 0.015794221 0.016069783
000120 f5 eb 89 3c 22 55 9a 3c e7 5b 9d 3c 2c 09 10 bc
       0.016836146 0.018839423 0.019208862 -0.008791249
000130 f0 16 f3 bb 68 08 be bb ca e5 ab bb 5d a7 8c bb
       -0.007418506 -0.005799342 -0.005245899 -0.004292412
000140 79 dd 0e bc 78 17 f6 bb 26 2e a7 bb 2b 80 8d bb
       -0.008719795 -0.007510122 -0.005101937 -0.0043182573
000150 b0 33 34 bb a3 5d d4 bb 2a 31 cb bb 79 e5 74 bb
       -0.0027496628 -0.006480889 -0.006200929 -0.0037368222
000160 1d b5 1f bb fa 0d 47 ba 07 a5 92 bb da a7 8a bb
       -0.0024369427 -0.000759333 -0.004475239 -0.0042314352
000170 5a 64 3e bb a6 78 a0 ba 43 e4 11 3a 3a 6c 5a bb
       -0.0029051513 -0.0012242987 0.00055653247 -0.0033328668
000180 2e 51 5e bb e6 a7 20 bb 44 d6 26 ba 02 fd 9e 3a
       -0.0033922899 -0.0024514138 -0.00063643255 0.0012129846
000190 59 c1 12 bc 7f 5a ed bb 24 3a d2 bb 46 d9 bd bb
       -0.0089572305 -0.007243454 -0.0064156223 -0.0057937233
0001a0 6a 21 9c bb ee b5 03 bc 73 39 e8 bb 84 fc b8 bb
       -0.0047647255 -0.008038981 -0.0070869266 -0.0056453366
0001b0 cc eb 88 bb 2f b5 4d bb 4d 03 bd bb e9 04 b7 bb
       -0.0041785 -0.0031388511 -0.0057682157 -0.005585302
0001c0 4c dc 83 bb 98 30 1b bb 84 e0 9d ba f8 f1 73 bb
       -0.004024064 -0.0023680087 -0.001204506 -0.0037223082
0001d0 70 5b 7f bb da 83 3c bb ee b3 47 ba c4 7b c2 39
       -0.0038964413 -0.0028765113 -0.0007618059 0.00037094776
0001e0 3e 62 19 bb b0 51 d7 ba 5c cd ce ba a0 55 00 3a
       -0.0023404504 -0.0016427543 -0.0015777755 0.00048955716
0001f0 ce a8 04 3b cd c1 9c bc f5 a0 91 bc 95 d3 83 bc
       0.0020242217 -0.01913538 -0.017776946 -0.016092101
000200 7e 1f 74 bc 79 4a 60 bc d1 cc 91 bc 45 aa 88 bc
       -0.014900086 -0.013689631 -0.01779786 -0.016682753
000210 0e 33 7b bc 1f 2d 5e bc 46 1e 35 bc d4 01 7e bc
       -0.015331997 -0.013560562 -0.011054581 -0.015503366
000220 e8 79 73 bc 39 7e 59 bc d4 40 32 bc d5 9b 14 bc
       -0.014860608 -0.013274723 -0.010879714 -0.009070356
000230 65 b0 53 bc 0d cd 4f bc 88 f7 3b bc 8a 2e 18 bc
       -0.012920474 -0.012683165 -0.01147259 -0.0092884395
000240 9f f0 ef bb e2 17 2b bc c8 70 2e bc 3f 41 25 bc
       -0.0073223854 -0.010442706 -0.010647006 -0.010086357
000250 7c 68 04 bc 96 57 c8 bb 14 f1 3f ba 40 f7 6f 3a
       -0.008081552 -0.0061139567 -0.0007321995 0.00091539696
000260 4c 83 91 3b fd 6e 85 3b 9e 8c 3f 3b f0 d2 2f ba
       0.0044407006 0.0040720687 0.0029228101 -0.00067071524
000270 18 85 0f 3a fb 94 9b 3b bc a6 88 3b 12 84 88 3b
       0.00054748496 0.0047479845 0.004170267 0.0041661346
000280 e8 18 fc b9 00 3a 1f b8 4a f4 a6 3b 64 69 9b 3b
       -0.00048083742 -3.796257e-05 0.0050950395 0.004742788
000290 87 27 ad 3b 7e a9 1e 3b 38 a4 30 3b 02 9c bc 3b
       0.005284253 0.0024209912 0.002695335 0.0057559023
0002a0 e1 f5 d6 3b 83 b2 ef 3b 9e 91 79 3b 96 60 5f 3b
       0.006560073 0.0073149814 0.003808118 0.003408467
0002b0 57 5c 8d 3b d2 63 bd 3b 6d 50 f8 3b c8 3b 2c 3b
       0.0043139863 0.005779722 0.007577947 0.002628075
0002c0 6c 77 58 3b 42 54 f8 3b 1a 01 e7 3b 9e e3 df 3b
       0.0033030165 0.0075784037 0.007049692 0.006832554
0002d0 8c e9 df 3a ac ad 30 3b 4a 63 fd 3b 23 4f f4 3b
       0.0017083152 0.0026958985 0.0077327834 0.007455723
0002e0 f0 c9 e4 3b 76 ba 03 3b 1a 5e 27 3b 8d e3 f6 3b
       0.0069820806 0.0020100153 0.0025538267 0.0075344504
0002f0 e8 38 fa 3b 2c 32 ff 3b 01 90 82 3b 2c bf 66 3b
       0.0076361783 0.0077879634 0.0039844518 0.0035209162
000300 7f a9 f3 3b b4 ae 0b 3c 7e fa 20 3c 52 28 c0 3b
       0.007435977 0.008525539 0.009825347 0.0058641816
000310 ec 32 96 3b 90 8c d7 3b ca cd f4 3b b7 dd 15 3c
       0.004583707 0.0065780357 0.007470821 0.009147099
000320 92 b3 58 bc a9 57 40 bc 7e 00 f5 bb 1f 74 e0 bb
       -0.013226407 -0.01173965 -0.0074768653 -0.00684978
000330 7d 62 fc bb e4 c1 70 bc 2e a9 60 bc f2 e9 ee bb
       -0.0077021704 -0.014694665 -0.013712211 -0.007291072
000340 20 a8 d6 bb 27 0a ea bb 8f f6 75 bc 0c 77 6a bc
       -0.006550804 -0.0071423235 -0.015012397 -0.01431061
000350 34 bc 09 bc 10 a5 e2 bb 10 d0 ce bb 9b 1f 5b bc
       -0.0084066875 -0.0069166496 -0.006311424 -0.013374235
000360 1f 46 60 bc cb 41 17 bc e0 e4 e8 bb e2 f1 b1 bb
       -0.013688593 -0.009231995 -0.007107362 -0.005430446
000370 48 62 36 bc f4 2f 4e bc 14 2f 2c bc a4 f0 08 bc
       -0.0111318305 -0.012584675 -0.010509271 -0.008358154
000380 f0 c9 c1 bb f7 93 9a bc 7c fa 9b bc b4 43 ac bc
       -0.0059139654 -0.018869383 -0.019040339 -0.021028377
000390 e5 ac a2 bc 1a 4c 9d bc 64 5e 8a bc 2a 26 90 bc
       -0.019857833 -0.019201327 -0.016890712 -0.017596323
0003a0 37 d5 9a bc 77 c7 99 bc 10 ce 96 bc 42 cc 77 bc
       -0.018900497 -0.01877187 -0.018408805 -0.015124382
0003b0 64 25 7b bc 26 97 8a bc a4 61 8d bc 96 32 8d bc
       -0.015328739 -0.016917776 -0.017258473 -0.017236035
0003c0 2f f5 58 bc 4b 2d 57 bc 1f d2 6c bc 6a a8 70 bc
       -0.01324205 -0.013133357 -0.014454394 -0.014688591
0003d0 5e 36 7e bc 5a d1 4e bc 9d ba 4c bc 7b d7 55 bc
       -0.015515892 -0.0126231555 -0.012495664 -0.013051863
0003e0 90 86 53 bc 5d 60 5a bc be 0a a7 bc c0 e0 a6 bc
       -0.0129105 -0.013328639 -0.020390864 -0.020370841
0003f0 34 4b b2 bc c2 01 ae bc 40 a5 a6 bc 5f 0e 9c bc
       -0.021764375 -0.021241073 -0.02034247 -0.019049821

momentum_buffer f4 [32]
000000 ae 72 e3 bc 96 aa 88 bc 2c 4b 80 bc 74 39 60 3c
       -0.027764644 -0.016682904 -0.015660845 0.013685573
000010 03 70 98 bc a0 f8 18 39 a3 e0 47 3c b7 28 0b 3d
       -0.018608099 0.0001458847 0.012199554 0.033974376
000020 d2 5c 8c 3b 7d 6f 74 bb d2 17 e0 bb 92 41 96 bb
       0.004283526 -0.0037297898 -0.006838777 -0.0045854533
000030 db 3b b0 3c ed ab 93 3b c4 e2 06 3b 38 5b d8 b9
       0.021512916 0.004506579 0.002058194 -0.00041266694
000040 96 4f 05 3c be fc 60 bb 6c 56 36 bc 7c cf 6c 3d
       0.008136651 -0.0034330334 -0.011129003 0.05781506
000050 a0 d5 a1 3b a6 95 8c bc 96 54 49 bb 8c 0c 84 bc
       0.004938796 -0.017161202 -0.0030720583 -0.016119264
000060 94 a0 63 3c 71 61 ed 3b b2 c7 f3 bb 23 cb 91 3c
       0.013893265 0.007244282 -0.007439577 0.017797058
000070 a8 ae d4 bb e7 bc cf 3b 93 9e 84 bc e5 cb 83 3b
       -0.006490547 0.0063396576 -0.016188895 0.004022109

momentum_buffer f4 [32, 32, 3, 3]
000000 48 d7 16 ba 07 28 20 b9 1e 4b ef b9 4d bd 69 b9
       -0.00057541253 -0.000152737 -0.000456416 -0.00022291132
000010 fe 8d ed 39 9c 21 8b ba 12 1a 15 3a 42 56 df b9
       0.00045309955 -0.0010614875 0.00056877837 -0.00042598142
000020 9b da e5 b8 04 79 39 ba 65 81 74 b9 d1 22 a9 b8
       -0.000109602894 -0.00070752227 -0.00023317857 -8.065033e-05
000030 f0 91 bc b8 64 52 2d 39 ab 28 99 38 ae fe 95 38
       -8.9917216e-05 0.00016529259 7.3031835e-05 7.1523114e-05
000040 80 ac b6 b9 fd df fd 39 97 4e af b6 89 3f f8 b9
       -0.00034842268 0.00048422805 -5.2245555e-06 -0.00047349583
000050 a0 c6 73 b9 d4 86 b9 39 24 01 56 b9 b8 de a2 b9
       -0.0002324828 0.00035386404 -0.00020409055 -0.00031064986
000060 7b 0a 69 b8 99 c1 b6 b9 3e f9 98 b9 30 e2 c1 39
       -5.556129e-05 -0.00034857987 -0.000291774 0.0003698035
000070 d5 6c 72 b9 56 5f 30 3a 6d 82 e3 39 a3 a2 2b 3a
       -0.00023119462 0.00067280733 0.0004339399 0.0006547367
000080 d6 dd 2e b9 9a 03 a6 b9 e8 f7 14 3a 26 49 08 39
       -0.00016676573 -0.0003166467 0.0005682693 0.0001299722
000090 32 25 2a 39 52 7e 78 b9 1a a6 3a b9 b4 cf a6 b9
       0.0001622632 -0.00023698181 -0.0001780022 -0.00031816738
0000a0 48 af 8e ba e0 a6 5d 38 09 8d 22 ba 1a 94 1e 39
       -0.0010885978 5.284592e-05 -0.00062008254 0.00015123226
0000b0 bc ad 21 3a f1 92 bf 39 71 ad 2d 3a ae 72 28 37
       0.0006167551 0.0003653984 0.0006625271 1.0040281e-05
0000c0 96 ce b8 38 49 6b f8 b8 0e 05 a6 b9 a2 fa a3 b9
       8.812283e-05 -0.00011845545 -0.00031665753 -0.0003127652
0000d0 9a c8 9d 39 70 3c 87 b9 c8 b5 11 b9 fd 7d 53 b9
       0.00030094833 -0.00025794236 -0.00013895996 -0.00020169462
0000e0 a4 ce 23 b8 a0 aa 73 b9 65 b2 91 39 e5 02 cb 39
       -3.9054677e-05 -0.00023237849 0.0002778947 0.00038721334
0000f0 9a bf 35 39 04 8c ca 38 47 d3 e4 b9 88 a0 8c 3a
       0.00017332882 9.6581905e-05 -0.00043644963 0.0010728994
000100 dc f0 cb 3a b4 d7 ef 3a 0c df a7 3a c8 fd 6a 3a
       0.0015559453 0.0018298537 0.0012807562 0.0008964208
000110 cb cd 88 3a 6c 03 c2 3a bb 9d 8a 3a 83 0d 94 3a
       0.0010437308 0.0014802045 0.0010575572 0.0011295531
000120 6a f5 d8 39 73 c0 af 38 5e 79 43 3a 7d fd 09 ba
       0.00041381578 8.380497e-05 0.0007456745 -0.0005263908
000130 80 74 9c b9 20 f6 b0 38 dc bd 1f 38 d4 c2 0e 39
       -0.00029841438 8.438178e-05 3.8085374e-05 0.00013614754
000140 e0 88 66 3a 8f 2f fd b8 f4 03 cb 39 66 7b df 39
       0.00087941997 -0.000120728386 0.00038722123 0.00042625814
000150 ed a1 e2 b9 f2 da ec 38 55 e7 3f b9 e9 60 dc 38
       -0.00043226723 0.00011294139 -0.00018301357 0.000105084684
000160 68 e5 31 b7 b2 b6 70 b9 e5 52 5b 39 78 00 a6 39
       -1.0603435e-05 -0.00022956243 0.00020916348 0.00031662337
000170 9b 45 ee 39 85 15 51 ba d4 10 b6 39 3c b5 d7 b7
       0.00045446758 -0.0007975924 0.00034726283 -2.5714391e-05
000180 27 a5 07 ba 6e 31 28 ba 22 6c 53 39 bd c0 62 b9
       -0.0005174451 -0.0006416057 0.0002016281 -0.0002162484
000190 fa 09 34 ba 41 2b 03 b9 c0 ba 48 ba e0 e3 60 ba
       -0.00068679417 -0.00012509247 -0.00076572224 -0.0008578878
0001a0 ef 9f 98 b8 8e 88 00 ba e1 f8 eb b9 44 53 63 ba
       -7.277715e-05 -0.0004903161 -0.00045008122 -0.00086717703
0001b0 39 7b a6 b8 e9 f8 4f ba 84 76 ff 38 a9 f4 43 39
       -7.938449e-05 -0.0007933514 0.00012181423 0.00018687792
0001c0 d0 5f 99 37 86 7e 0b ba 6d ed a0 ba ce be 50 b8
       1.8283637e-05 -0.00053212827 -0.001227779 -4.9768765e-05
0001d0 5e 63 21 3a 2f 2c d2 ba 0b 1b 8c ba f5 95 f3 b8
       0.00061564695 -0.0016034896 -0.0010689212 -0.000116150746
0001e0 8e 9b 26 ba b8 02 b4 37 b0 8d ad b9 c6 ef 5d ba
       -0.0006355577 2.1458938e-05 -0.00033102697 -0.000846621
0001f0 9c 21 ac b9 b7 4d d6 b8 02 49 f0 b9 a8 ed 52 38
       -0.00032831437 -0.00010218791 -0.00045830762 5.0289236e-05
000200 8d d9 71 b9 06 2a 51 ba 3b 59 de b9 30 ec 88 38
       -0.00023064595 -0.0007978979 -0.00042409622 6.528979e-05
000210 d7 4d 3b ba 85 6b 23 b9 c9 72 1f ba 4d c9 93 b9
       -0.0007145083 -0.00015584946 -0.0006082473 -0.00028188006
000220 c4 81 c3 39 9c 5c b9 36 df 82 21 b9 0e ab 11 3a
       0.0003728998 5.524211e-06 -0.0001540291 0.00055568
000230 a5 bb 1f ba 88 27 a8 b8 16 88 2c 39 69 0f cd b7
       -0.000609333 -8.0182275e-05 0.00016453894 -2.444508e-05
000240 94 eb ff 39 9f 07 5d 3a 8e da 4a 3a 24 e1 98 39
       0.0004881291 0.00084316166 0.00077382557 0.00029159442
000250 3d 71 54 3a b0 18 3d 3a eb 34 27 ba d8 80 12 b8
       0.0008104032 0.00072134566 -0.000637843 -3.4929108e-05
000260 8d d0 ae b9 50 2c 0d ba 70 e8 18 ba 7c 19 92 b8
       -0.0003334325 -0.0005385326 -0.0005832976 -6.966569e-05
000270 c2 c8 6a ba 34 5d b6 b8 85 fe c8 b9 7f 45 92 ba
       -0.0008956307 -8.695797e-05 -0.00038336604 -0.0011159627
000280 86 7d 01 ba 3d 9f 14 ba c8 b6 45 b9 ca 09 1c ba
       -0.0004939664 -0.00056694803 -0.00018855475 -0.00059523864
000290 09 af c6 39 24 b5 cc 39 d6 44 97 39 0d 24 13 39
       0.00037895914 0.00039044872 0.0002885225 0.00014032442
0002a0 39 ff de b9 37 71 7a 39 77 85 3a ba a8 91 3c 3a
       -0.00042533295 0.00023884034 -0.0007115225 0.00071933353
0002b0 fe 1a c7 3a 42 c6 0a 3b db 14 a7 3a 84 b6 8c 3a
       0.0015190539 0.00211753 0.0012747304 0.0010735546
0002c0 7c db c2 3a 0e e1 24 3a ba 1a a5 3a 9b 11 e2 3a
       0.0014866437 0.0006289639 0.0012596466 0.0017247678
0002d0 c1 42 85 39 4c 64 a9 38 3a 79 fa b9 80 2a 23 ba
       0.00025417472 8.07723e-05 -0.00047774037 -0.00062242895
0002e0 ec d2 36 b8 06 21 bb b6 f9 f4 5d b9 8a a3 db b9
       -4.3588618e-05 -5.5768787e-06 -0.00021167462 -0.0004189278
0002f0 7f 36 a6 b8 a1 9b 9c b9 4d 98 50 3a db 6f 05 ba
       -7.9256475e-05 -0.0002987059 0.0007957265 -0.0005090215
000300 2b eb 4d 39 54 34 b4 b9 32 85 09 ba 89 bb 6c 39
       0.0001963793 -0.00034371263 -0.0005245983 0.00022576576
000310 0c a2 d0 b9 19 b8 ac b8 c7 f0 06 ba de 41 7b ba
       -0.00039793586 -8.23589e-05 -0.0005147573 -0.0009584705
000320 b1 14 08 ba 65 ff 99 38 84 63 7c ba 2a cb c0 ba
       -0.00051910715 7.3431795e-05 -0.0009627866 -0.0014708985
000330 d2 50 56 ba 24 98 1f ba b0 a4 6c ba f2 9b f6 38
       -0.00081754953 -0.00060880394 -0.0009027226 0.00011759241
000340 1d 1f 15 b8 bb 4e 55 39 74 3e 20 b9 04 bf 8c b7
       -3.5553345e-05 0.00020342592 -0.00015282055 -1.677825e-05
000350 62 0d d4 37 dd 1d ae 39 5f c9 b9 39 42 fb 9b 38
       2.5278601e-05 0.00033210116 0.00035435983 7.4377764e-05
000360 18 be 8d b9 c1 23 f8 b9 e3 f8 47 b9 56 7e d3 b9
       -0.00027035247 -0.00047328885 -0.00019070836 -0.00040339184
000370 40 c9 d8 39 32 0e 88 38 9e 36 ec b9 08 ea db b8
       0.00041348673 6.4876294e-05 -0.0004505412 -0.000104863255
000380 56 42 e7 b9 5e bc dd b8 f4 2f 80 ba 53 2c 68 b9
       -0.00044109178 -0.00010573187 -0.0009779916 -0.00022141756
000390 b8 bc 94 b8 a6 e1 a0 b9 9e eb 19 ba 04 e1 5e b8
       -7.0923415e-05 -0.000306857 -0.00058715965 -5.3138487e-05
0003a0 55 e1 5f b8 70 d8 8a 38 e2 2f 3c ba 64 99 8b 39
       -5.33772e-05 6.6206674e-05 -0.0007178766 0.0002662643
0003b0 3a f0 c0 b9 cd 72 09 ba 9a 56 b9 39 32 cd f1 39
       -0.00036800076 -0.0005243242 0.00035350473 0.00046119984
0003c0 8d 14 99 39 e0 8e 0d 38 9c 63 9b b8 c9 c7 29 ba
       0.00029197746 3.3750082e-05 -7.40953e-05 -0.00064766087
0003d0 ce 5c 7e 39 24 3d a9 b9 40 28 b6 b9 49 77 60 b9
       0.000242579 -0.00032279745 -0.00034743734 -0.00021406742
0003e0 26 93 4e 39 15 75 17 3a 31 1e 56 3a 5c bd 2c ba
       0.00019700508 0.00057776395 0.0008167951 -0.0006589496
0003f0 fe 3f 14 ba b5 e8 ce b8 45 e1 34 b8 06 5a 37 3a
       -0.00056552875 -9.8661905e-05 -4.3125143e-05 0.00069943105

momentum_buffer f4 [32]
000000 ad 7c 11 3a 7a 10 c0 bb 6e 7e 7b bc ee 74 42 3a
       0.0005549889 -0.005861339 -0.015349967 0.00074179366
000010 c9 00 07 3b 51 82 c2 b8 6c c4 86 b9 14 90 9c b9
       0.0020599833 -9.274914e-05 -0.00025704817 -0.00029861985
000020 1c e1 3e 3c 0a 1d d2 bc c1 f1 28 3c 3e e5 b5 ba
       0.01165035 -0.025648613 0.010311545 -0.0013877524
000030 9c 27 c4 ba 00 95 b9 3a 58 e6 34 ba 3f 4d 9a bb
       -0.0014965418 0.0014158785 -0.0006900779 -0.0047089155
000040 d9 6e 08 3b 48 52 45 3c 1c 63 69 bb 57 ce f4 3b
       0.0020818023 0.012043543 -0.0035612052 0.0074708867
000050 68 7a 9a bc d6 32 a2 bc 8a f9 a5 bc 83 50 17 3a
       -0.018857196 -0.019799631 -0.020260591 0.000577219
000060 7d 48 15 3b 0f 96 6b bb 10 35 94 ba 84 da 46 bc
       0.0022778802 -0.0035947596 -0.0011307318 -0.012137059
000070 89 5f 81 ba 49 b6 92 bc 86 e0 8b ba b0 82 21 ba
       -0.0009870391 -0.017909186 -0.0010671772 -0.00061611366

momentum_buffer f4 [64, 32, 3, 3]
000000 b8 c7 3d b8 c2 43 8c b9 a1 8f fc b7 37 79 46 b9
       -4.5247114e-05 -0.00026753364 -3.0107623e-05 -0.00018927908
000010 b4 03 da 35 98 41 af b8 b6 e7 2a 39 04 e3 0d b9
       1.6243343e-06 -8.356868e-05 0.00016298782 -0.00013531378
000020 fc 78 e8 b8 5b 49 75 ba f4 c5 35 ba b7 5a 5e ba
       -0.00011085157 -0.0009356939 -0.00069340994 -0.00084821455
000030 e8 c2 3c ba 84 e0 7f ba 50 53 6c ba 56 8c 42 ba
       -0.0007200674 -0.00097609335 -0.00090151 -0.00074214244
000040 79 cf 00 ba 10 6d 42 ba fe a1 ca b9 5e d3 c8 b9
       -0.00049137283 -0.0007416764 -0.00038649136 -0.00038304453
000050 64 ee 48 b8 03 68 8d 37 fb 14 ab b8 6e 63 4a b9
       -4.7905734e-05 1.6856944e-05 -8.157823e-05 -0.00019301262
000060 a8 cd 3d 38 db c1 3f 39 82 55 ab b7 12 59 7b b9
       4.5252644e-05 0.00018287396 -2.0424606e-05 -0.00023970407
000070 fb a2 06 ba d9 1a b7 37 4d fc 15 39 32 b9 d0 39
       -0.00051359803 2.1827802e-05 0.00014303737 0.00039810833
000080 e1 9c df b8 b4 b8 1f b9 92 06 6b b9 4c 6f 03 b9
       -0.000106626896 -0.00015232229 -0.00022413794 -0.00012534595
000090 98 9c 6b ba 7e 14 01 ba 54 37 6c ba f3 ed 1d b9
       -0.0008987873 -0.0004924013 -0.000901093 -0.0001506133
0000a0 94 b6 2e b7 c6 a6 5d ba e8 54 fb b9 cb a5 0d ba
       -1.0413718e-05 -0.0008455332 -0.0004793771 -0.0005403428
0000b0 c7 21 8c b9 d8 76 f3 39 32 00 83 38 6d 26 2a b9
       -0.00026728047 0.00046437117 6.246603e-05 -0.00016226778
0000c0 1f a6 d2 38 9b 4e 06 ba 26 f4 38 b9 c6 3e 9e 39
       0.00010044523 -0.00051234075 -0.0001763856 0.00030182878
0000d0 69 ab e1 b8 3c ff 8c 38 8f fe 66 39 92 24 4a 37
       -0.00010760764 6.723261e-05 0.0002202934 1.2048653e-05
0000e0 50 15 e2 38 7b 0a 0e b9 6f 6f 90 b8 e0 e7 b2 b8
       0.000107804895 -0.0001354608 -6.887211e-05 -8.5308915e-05
0000f0 df ea 34 b9 cb 64 c9 39 78 5a 00 3a 5b da 94 b9
       -0.00017253634 0.00038412804 0.00048962934 -0.00028391447
000100 9f 4a b3 39 50 9a be b9 6e 62 ac 39 c8 50 6a 39
       0.00034197138 -0.00036354596 0.00032879732 0.00022346072
000110 c3 bc 91 39 cb b4 1a b9 d0 8c 2c b9 93 82 0a ba
       0.00027797194 -0.00014753935 -0.00016455655 -0.00052837393
000120 ac b9 d3 38 3a 85 57 37 de 0c 84 b9 61 5c b5 b9
       0.00010095848 1.2846018e-05 -0.0002518659 -0.00034591838
000130 52 4a 9c b9 61 c4 ce 39 c8 09 36 b9 a7 8e 3f 39
       -0.00029810012 0.00039437696 -0.00017360516 0.00018268322
000140 2e 24 9f b9 fe b1 db b9 52 8b d1 b9 79 da 11 b9
       -0.000303538 -0.0004190355 -0.00039967388 -0.00013909665
000150 27 31 e2 b9 e4 11 2f 39 c0 05 74 39 6d 77 25 b9
       -0.000431427 0.00016695965 0.00023271795 -0.00015780116
000160 8d 4b ca b9 3e 0e 20 39 68 f9 82 b9 fa 06 74 38
       -0.00038584732 0.00015264095 -0.00024981354 5.818063e-05
000170 d6 4d b5 b8 72 46 10 ba 62 f4 f7 38 82 20 9a b8
       -8.645251e-05 -0.0005503661 0.00011823398 -7.349347e-05
000180 21 5e 9b 39 b9 7c c3 b9 7d 37 d3 b9 36 61 87 ba
       0.00029634035 -0.00037286224 -0.00040286398 -0.0010328654
000190 14 ef 8e b8 a8 66 1b ba ff 7a ae b9 f8 be 4b ba
       -6.8156194e-05 -0.0005928078 -0.00033279505 -0.0007772292
0001a0 83 1b e2 b8 a6 5e 54 b9 ff b3 35 b9 86 22 6a b9
       -0.00010781644 -0.00020253155 -0.00017328559 -0.0002232884
0001b0 4e c3 91 39 7c f0 8d b6 6a 96 c2 b9 d3 7f 21 39
       0.00027802069 -4.2301235e-06 -0.0003711463 0.00015401775
0001c0 f4 c1 d4 b9 7c ac 2f 38 fe 78 ac 38 a1 60 03 ba
       -0.00040580297 4.188389e-05 8.224136e-05 -0.0005011652
0001d0 18 90 6c b8 e4 38 b2 b9 8f c5 4a b8 de fb 6b 39
       -5.6400982e-05 -0.00033993192 -4.8344544e-05 0.00022505174
0001e0 2c bc 43 37 d0 6f 3f 39 68 f1 72 b9 b0 ff 93 b9
       1.1666718e-05 0.00018256833 -0.0002316885 -0.00028228527
0001f0 da 83 35 39 00 16 92 37 c0 f7 c1 39 4a b3 38 ba
       0.00017310624 1.74148e-05 0.00036996417 -0.0007045759
000200 24 a7 9c 38 47 b4 b7 36 e4 14 e3 38 6d 25 0c ba
       7.469792e-05 5.474812e-06 0.00010828095 -0.0005346153
000210 94 77 0b b9 ab bd d9 b9 7d c3 91 37 8b eb 7a ba
       -0.0001330062 -0.0004153078 1.7376378e-05 -0.0009571842
000220 ab c6 2c ba 79 c1 a0 ba 21 f3 6c ba 85 ab 33 ba
       -0.0006590883 -0.0012264691 -0.00090389146 -0.00068538665
000230 ed b4 36 ba 32 ac 0b b9 bf b4 80 ba 36 66 86 ba
       -0.0006969709 -0.00013320221 -0.0009819492 -0.001025385
000240 43 c6 94 b9 07 17 89 b9 8c c4 b8 38 1d 0b 55 b9
       -0.00028376476 -0.00026147833 8.8104134e-05 -0.00020317403
000250 72 07 bf 39 9f 1d b2 39 67 78 41 39 3f 9e 6c 39
       0.00036435906 0.00033972875 0.00018450768 0.00022565665
000260 1d 0b 5b 39 54 66 69 b8 22 bd 86 38 8d 78 13 ba
       0.00020889608 -5.564683e-05 6.424847e-05 -0.00056255684
000270 dd 78 00 b9 80 8d 59 b9 0e 0c b2 b9 53 22 8e b9
       -0.00012252056 -0.00020747446 -0.00033959787 -0.00027109924
000280 03 31 cf b9 e5 97 31 b9 38 77 4a b9 c6 c1 de 38
       -0.00039518633 -0.0001693662 -0.00019308634 0.00010621878
000290 ad ef 12 ba 77 b1 28 b9 c2 4a b2 38 8b ab 0f 3a
       -0.00056051725 -0.0001608784 8.501626e-05 0.0005480579
0002a0 a5 13 71 b9 3e 2a ab 39 d4 c5 25 b9 bd 9d 06 ba
       -0.00022990869 0.00032647135 -0.00015809323 -0.0005135199
0002b0 8f 60 ba 39 be 3d 81 b9 02 da 84 39 84 b1 ea b8
       0.00035548626 -0.000246508 0.0002533943 -0.00011191054
0002c0 b3 f2 d2 b8 48 34 62 39 d2 c5 bc 37 0f f7 30 ba
       -0.000100587866 0.00021572516 2.2503464e-05 -0.0006750682
0002d0 25 f3 af b8 65 88 6e b9 c9 9b 55 38 2b 7d 4a b9
       -8.3899395e-05 -0.0002274826 5.0928244e-05 -0.0001931085
0002e0 17 ff 22 b9 26 31 96 39 22 76 27 b9 75 d8 1b ba
       -0.00015544552 0.00028646848 -0.00015970369 -0.00059450354
0002f0 35 72 88 39 28 6a 74 b9 c3 81 4e ba 6f c3 0f ba
       0.00026025032 -0.000233092 -0.00078776124 -0.0005484139
000300 0e 12 f5 b9 ef fc 83 b9 8b e2 7a ba 25 96 94 b8
       -0.00046743493 -0.00025174717 -0.00095705007 -7.0851565e-05
000310 1d 29 03 ba 5f 3a 2c ba 21 3d 25 ba 25 40 65 ba
       -0.000500338 -0.0006569977 -0.00063033594 -0.0008745215
000320 f6 65 cc ba 26 9f b8 b9 9d 49 c5 b9 61 22 50 ba
       -0.0015594352 -0.0003521379 -0.00037629614 -0.0007939693
000330 0a b2 8d b9 08 6e 51 ba 9e 44 f6 b9 15 ac 2d b9
       -0.00027026265 -0.0007989113 -0.000469719 -0.00016562671
000340 ff 6d 9d b7 ea 5c 13 ba 24 e6 77 39 c2 ea fd b9
       -1.876708e-05 -0.000562145 0.0002364149 -0.0004843083
000350 76 6d cd b9 03 58 b6 b9 24 0a 95 39 c8 15 67 39
       -0.00039182202 -0.0003477932 0.0002842705 0.00022037991
000360 3e 5a a6 b9 45 fd 08 3a 27 28 9c 39 9e 8c 67 39
       -0.00031729223 0.00052257284 0.00029784554 0.0002208226
000370 4d 5a 0d b9 f0 4e 09 39 7b 5e 08 39 cd b1 ae 39
       -0.00013480448 0.00013094745 0.00013005167 0.00033320338
000380 6c 93 c1 b8 34 72 d8 b8 e6 fe e9 b9 f0 83 db 36
       -9.2304166e-05 -0.000103209546 -0.00044631137 6.542068e-06
000390 cc 32 82 39 ae 99 23 b9 67 e2 c3 39 9e aa ec 39
       0.0002483338 -0.00015602142 0.0003736198 0.00045140547
0003a0 d8 33 27 ba b9 63 63 39 11 05 1b b9 3c df 51 39
       -0.000637827 0.00021685557 -0.0001478384 0.00020014954
0003b0 f4 3b 83 b9 d8 29 75 b9 c5 8a 15 b9 2d 45 3a b9
       -0.00025030936 -0.00023380609 -0.00014261443 -0.00017764112
0003c0 20 59 b9 38 86 ca 10 39 7a 23 dc 35 d4 65 98 ba
       8.838088e-05 0.00013808356 1.6401602e-06 -0.0011627027
0003d0 5c 31 97 ba 61 2a 8a ba 47 97 84 ba b5 9f 26 ba
       -0.0011535096 -0.0010541194 -0.0010115885 -0.00063561957
0003e0 f4 6b 97 ba 41 c8 41 ba ae 7a 25 ba 4c c3 75 ba
       -0.0011552558 -0.0007392206 -0.0006312531 -0.000937511
0003f0 01 73 07 39 d0 7b 83 b9 95 04 08 ba 6f d0 ad b8
       0.00012917446 -0.00025078515 -0.0005188671 -8.2881066e-05

momentum_buffer f4 [64]
000000 62 34 96 ba 3a 45 1f 3a 42 e2 08 b8 c1 1d 35 3a
       -0.0011459703 0.0006075684 -3.2635646e-05 0.0006909036
000010 1b 97 e1 39 f8 3c 0a b9 fa d7 f7 b8 7e 6a 4b 3a
       0.00043027927 -0.00013183418 -0.000118181066 0.0007759704
000020 3c 84 89 ba b8 67 ab ba 8f 14 9e 3a 9b 77 f4 ba
       -0.001049168 -0.0013077175 0.001206057 -0.0018651368
000030 7d 8d 3c bb 0e 97 10 bb 17 5f 7f ba b1 c8 03 bb
       -0.0028770857 -0.0022062692 -0.00097416475 -0.0020108635
000040 ee 1d b7 39 8f e3 85 bb 25 58 ae ba b9 eb 34 3b
       0.0003492678 -0.004085965 -0.0013301416 0.0027606322
000050 3b 02 06 bb ea f6 3b bb 99 fc 90 b8 84 d5 0d bb
       -0.0020448107 -0.0028681108 -6.913505e-05 -0.0021642158
000060 d0 57 cd 39 57 8b 7f ba d6 84 54 bb 18 a5 b4 ba
       0.00039166072 -0.0009748241 -0.003242781 -0.0013782112
000070 7e ce 87 38 d5 be 6b 3a 03 0c 42 bb 1b de 90 ba
       6.475764e-05 0.0008992975 -0.002960921 -0.0011052521
000080 bb 87 95 bb 25 02 48 ba 1a 08 6a ba a4 32 0a bb
       -0.0045632995 -0.0007629714 -0.0008927599 -0.0021087313
000090 e9 5f 17 ba 25 e5 6b 3b 2e d5 de 3a f5 b8 2e bc
       -0.00057744846 0.0035994735 0.0017000788 -0.010664214
0000a0 6e aa 1b 3a 18 80 b7 b9 5c c3 39 3a fe 29 57 3b
       0.0005938177 -0.00034999917 0.0007086301 0.0032831426
0000b0 71 8f 2e ba 33 93 5f bb fe fd 38 39 24 e0 01 3b
       -0.00066589477 -0.0034114837 0.00017642227 0.0019817436
0000c0 88 24 11 bb 47 15 74 bb 00 08 ae 3a a2 ae 10 3a
       -0.0022147018 -0.0037244128 0.0013277531 0.00055191864
0000d0 55 9b 33 39 e1 27 64 ba 17 ba b7 bb 4b aa 8b ba
       0.00017128636 -0.0008703452 -0.0056069004 -0.001065561
0000e0 3b 70 60 ba 1c 88 df 37 29 1f 61 39 74 fa f6 3a
       -0.00085616455 2.6647052e-05 0.0002146928 0.0018842951
0000f0 ee 1d 24 39 2d 7b 9d ba 5f f4 18 ba bb ed 4b 39
       0.00015651408 -0.0012014859 -0.0005834754 0.0001944815

momentum_buffer f4 [64, 64, 3, 3]
000000 b4 4d b5 b9 78 d3 b4 b8 d4 2d a9 38 62 fc 81 39
       -0.00034580904 -8.622458e-05 8.067084e-05 0.00024792837
000010 c1 9f d9 39 5a 42 eb 38 0c f3 89 39 54 69 6f 38
       0.0004150849 0.00011218032 0.0002631176 5.7080135e-05
000020 c7 8e 78 39 ae 3e 22 ba 53 f2 a3 b9 39 36 1d ba
       0.00023704312 -0.00061891496 -0.00031270328 -0.00059971545
000030 e4 5d 25 b9 bf 55 31 ba 88 77 1b ba cf 0b 85 b9
       -0.00015770603 -0.00067647913 -0.00059305923 -0.00025376535
000040 cc 63 31 ba 06 aa bd b9 f6 76 5a 39 ef 92 0b 39
       -0.0006766885 -0.00036175566 0.00020834417 0.0001331081
000050 0d 6c a3 37 c9 c3 cb 39 62 a3 02 b8 54 d7 92 b9
       1.948143e-05 0.0003886505 -3.1146577e-05 -0.00028007722
000060 3b 96 2f b9 78 34 03 b7 64 67 49 b9 3d 6e ac 39
       -0.00016745266 -7.820425e-06 -0.0001920737 0.0003288853
000070 90 19 24 3a d0 16 0e 39 d4 eb ff b9 f1 c6 e8 b9
       0.00062599126 0.00013550674 -0.00048813096 -0.0004439871
000080 c4 8c e4 b9 14 e3 9e 38 a9 e9 18 37 dc e9 f0 38
       -0.00043592427 7.576324e-05 9.114309e-06 0.000114876515
000090 fd 0e 23 3a 63 e1 0c ba d5 c0 ce b9 8e 4c ad b9
       0.000622019 -0.00053741614 -0.00039435053 -0.0003305417
0000a0 73 d0 27 b9 07 12 6c b9 e1 c5 bb b9 5c 5c cd b9
       -0.00016004014 -0.0002251343 -0.0003581485 -0.0003916946
0000b0 1d 20 cd b9 a7 e7 81 b9 6f 7b 54 38 78 d7 68 38
       -0.00039124573 -0.00024777392 5.0659695e-05 5.551378e-05
0000c0 27 c1 a0 39 95 0f 7d 39 ce 1a 9d b9 d5 3e 6a 39
       0.00030661488 0.00024133765 -0.00029965345 0.00022339386
0000d0 6c d1 ab b9 3d b2 a9 38 77 b0 3b ba 44 54 8c b9
       -0.00032771693 8.0917474e-05 -0.0007159779 -0.00026765664
0000e0 fb cd fe 38 56 60 bc b9 8f 5b 88 b9 66 79 47 b9
       0.00012150031 -0.0003592993 -0.00026008158 -0.00019023343
0000f0 72 2f 3b b7 aa 83 4f 39 0d 63 92 b9 58 f2 17 39
       -1.1157115e-05 0.00019790107 -0.0002792109 0.00014490762
000100 77 09 24 b9 0f 4b 54 b9 1d 5a f8 39 a4 ab 89 b9
       -0.00015643785 -0.00020245857 0.00047369386 -0.00026258559
000110 6c cc f0 b8 f8 ba 2f b8 e1 c5 51 39 b7 fb c9 b5
       -0.00011482168 -4.189738e-05 0.00020005509 -1.5048926e-06
000120 e6 fe d3 b8 a8 c8 9b b9 56 a3 03 3a 5a 79 b1 39
       -0.000101087426 -0.00029713404 0.00050215924 0.00033850485
000130 55 2d 32 ba 41 54 c5 b9 38 94 d2 39 33 d4 bb 39
       -0.0006796916 -0.00037637542 0.00040164753 0.0003582552
000140 ad 62 39 39 eb 6b 0b b8 0c da 26 ba 5f 81 d4 b9
       0.00017679734 -3.324069e-05 -0.0006364889 -0.0004053218
000150 08 02 aa b9 ac de 12 ba 62 c7 08 39 48 ce 9f b9
       -0.0003242644 -0.00056026387 0.00013044247 -0.00030480535
000160 a8 d8 9e b9 a2 fa a0 b9 7f a7 bd b8 47 8e 27 39
       -0.0003029753 -0.00030704314 -9.043421e-05 0.00015979364
000170 2f 35 03 39 31 e0 ba 39 8a 97 d9 38 50 4f 0d b9
       0.00012512946 0.0003564372 0.00010375593 -0.00013476354
000180 55 8a 8d b8 a3 d7 38 39 2e 65 d3 39 bf 25 1a ba
       -6.74917e-05 0.00017627938 0.0004032044 -0.00058802584
000190 b7 63 55 ba 3e d2 89 b9 fc cb 19 ba bc a2 64 b9
       -0.0008140164 -0.0002628732 -0.0005866883 -0.00021804398
0001a0 9d 7a b0 ba 74 d4 b1 ba eb 2d d2 b9 f7 20 48 ba
       -0.0013464276 -0.0013567344 -0.00040088533 -0.00076343067
0001b0 f8 c9 a3 b9 a3 3b 01 ba 1e 90 80 ba e2 13 f3 b9
       -0.0003124026 -0.0004929846 -0.0009808575 -0.00046363386
0001c0 7d 92 3e ba cf 24 8d ba 21 07 56 b9 a5 5b 76 ba
       -0.0007269753 -0.0010768416 -0.00020411286 -0.00093978114
0001d0 95 7e 7f b9 48 f5 2d 3a cc b9 07 ba 3c 6a 84 b9
       -0.0002436585 0.0006635976 -0.0005177527 -0.00025256153
0001e0 b6 34 4d b9 72 1b ae b9 48 72 16 ba c4 f1 92 37
       -0.0001956996 -0.00033208315 -0.0005739075 1.7517137e-05
0001f0 a0 8b 15 b7 c0 dc 9b 39 8b 69 b6 39 be 79 66 38
       -8.913601e-06 0.00029728375 0.0003479238 5.4949654e-05
000200 31 be 9e b7 b5 5d 48 39 ac c5 f2 38 03 50 98 b9
       -1.8923633e-05 0.00019108395 0.000115762785 -0.00029051313
000210 88 57 ac 39 96 99 71 37 12 90 d7 38 c2 28 35 b9
       0.00032871612 1.4400479e-05 0.00010278834 -0.00017276689
000220 ba 22 a8 b8 22 b0 1c b7 62 a5 e9 b8 2d 15 01 b9
       -8.0173326e-05 -9.339334e-06 -0.00011141111 -0.00012310287
000230 97 d5 7a 39 89 73 82 b9 33 4b 8f b9 3b 08 d7 35
       0.00023921426 -0.00024881613 -0.00027331113 1.6021144e-06
000240 5e 14 0d ba 26 cf 5f b9 17 66 3f b9 56 39 27 39
       -0.0005381758 -0.00021344106 -0.00018253211 0.0001594772
000250 2f 3e 3b b9 1e 1f 81 b9 24 78 36 ba 34 70 be b9
       -0.00017856875 -0.00024627981 -0.00069606514 -0.00036323222
000260 b5 06 48 b8 ff f4 4a b9 18 f7 9c b9 6c bf 46 b9
       -4.7689962e-05 -0.0001935549 -0.00029938738 -0.00018954062
000270 c8 82 27 ba ab fc 02 ba 6b 7b 81 b9 54 fd 2a ba
       -0.00063900324 -0.0004996757 -0.0002469675 -0.0006522734
000280 e6 ab 05 b9 f3 2d e5 b9 ec a5 74 b9 4c 63 6c 38
       -0.00012747906 -0.00043712519 -0.00023331464 5.6359262e-05
000290 1d 3d b3 39 13 e0 a5 b9 a9 b7 23 b9 80 ed c2 39
       0.00034187073 -0.000316382 -0.0001561331 0.00037179515
0002a0 5b a1 70 39 94 40 79 39 64 3b 56 b9 5f 7f 38 ba
       0.00022948293 0.00023770548 -0.00020430755 -0.0007038023
0002b0 99 3b e1 b9 73 a1 21 ba 3c c7 bb b9 32 12 63 b9
       -0.00042959748 -0.00061657204 -0.0003581586 -0.00021655185
0002c0 43 4d 47 ba a4 e1 b5 b9 41 c9 47 ba 12 bf 1b b9
       -0.00076027605 -0.00034691126 -0.0007621237 -0.00014853131
0002d0 d3 fd af b9 ce ab f5 b8 63 de 57 ba 97 7f cd b9
       -0.00033567715 -0.000117145115 -0.00082347373 -0.0003919571
0002e0 73 a3 1e ba 6c 63 12 ba 3e cd 9f b9 87 49 06 ba
       -0.00060515775 -0.0005584273 -0.0003047976 -0.0005122651
0002f0 96 02 cd b9 a0 8e d0 b6 de f7 b3 b8 3d 8b 1b ba
       -0.00039102574 -6.215487e-06 -8.581554e-05 -0.0005933529
000300 f4 4f af 39 e4 34 11 ba 02 52 10 39 f6 65 d2 b9
       0.0003343817 -0.00055391924 0.0001376346 -0.00040130288
000310 7e d6 be b9 4f bf 00 ba f0 68 13 ba d4 12 59 ba
       -0.00036399433 -0.00049113197 -0.0005623242 -0.00082806987
000320 9e 37 3b b9 47 c9 97 b9 9f 81 e7 b9 a9 2f 2b b9
       -0.00017854429 -0.00028950928 -0.0004415633 -0.00016325586
000330 c4 7a ef b9 87 a8 99 b9 75 17 ec b8 3f cc 62 b6
       -0.000456771 -0.00029307997 -0.00011257726 -3.3795511e-06
000340 6e 1c 28 39 fa ce 27 39 21 d7 c8 b8 fb 09 dd 38
       0.0001603232 0.00016003466 -9.576814e-05 0.0001053996
000350 52 6f 56 b9 64 8c 33 39 18 54 21 ba 75 70 ea 39
       -0.000204501 0.0001712307 -0.00061541935 0.00044715745
000360 36 d6 50 39 d9 83 48 b9 d6 bb e9 b7 90 dc c5 b9
       0.00019916226 -0.00019122603 -2.7863232e-05 -0.000377391
000370 f4 d9 a9 39 ec 81 3f b9 5c b8 69 b9 e8 17 a9 38
       0.0003239658 -0.00018263579 -0.00022289291 8.063001e-05
000380 cb 9b dd 38 80 5c 80 39 86 97 6d 39 0c 29 cf 39
       0.0001056712 0.0002448298 0.00022658528 0.000395127
000390 31 0d 4c 39 01 75 cd 38 49 e5 15 ba 7d df 86 39
       0.0001945987 9.7969554e-05 -0.0005718065 0.00025724983
0003a0 d0 d0 9a 39 b0 b4 0f b9 33 fd 9d b8 8f c2 c9 b8
       0.00029528746 -0.00013704854 -7.5335054e-05 -9.620666e-05
0003b0 c0 9b e1 38 75 0b 84 b9 85 b4 7d b7 6b f9 25 b8
       0.00010757847 -0.00025185538 -1.5122006e-05 -3.9571354e-05
0003c0 f4 6c 66 38 05 bf 69 b9 8e f8 fa 39 77 52 6a b9
       5.4937744e-05 -0.00022291772 0.00047868903 -0.000223467
0003d0 01 47 81 39 00 f2 50 b9 88 68 9f b8 0d 69 27 39
       0.000246577 -0.00019926578 -7.601181e-05 0.00015965496
0003e0 f4 20 0d 39 17 6f 3c b9 a3 2a 93 b9 ad c3 80 37
       0.00013459084 -0.00017970461 -0.00028069792 1.5349908e-05
0003f0 58 ba bc 39 64 b3 20 39 08 a2 8d 39 04 ba 9d 38
       0.0003599699 0.00015325617 0.00027014338 7.5209915e-05

momentum_buffer f4 [64]
000000 39 c6 82 39 b2 89 95 ba 9f 69 84 ba 4d 8e 49 b8
       0.0002494322 -0.0011408834 -0.0010102278 -4.8054662e-05
000010 96 32 c7 39 26 4f 40 bb 84 38 bd b9 7b f5 8e b8
       0.00037993927 -0.002934405 -0.00036090997 -6.816812e-05
000020 0a bf 84 ba c4 7d 06 ba 5e cc 41 39 c7 60 2b bb
       -0.0010127735 -0.0005130435 0.00018482047 -0.0026150213
000030 4d ea 24 b9 ea f6 bc ba 5e 32 f8 b8 15 22 f0 b8
       -0.00015727543 -0.0014416848 -0.00011834943 -0.0001145044
000040 c0 e5 70 ba 45 2b d7 38 43 c3 34 3a 37 d6 09 38
       -0.0009189509 0.000102600585 0.00068955513 3.286285e-05
000050 1b fc 1c b9 c1 42 0a ba d4 b2 6b ba ac 1e 62 ba
       -0.00014971236 -0.00052742293 -0.0008991186 -0.0008625786
000060 d3 67 ab 39 ee 37 e4 ba 4a 07 ca b8 5b 26 d3 ba
       0.00032693017 -0.0017411688 -9.633468e-05 -0.0016109453
000070 c0 38 2b b7 e6 fc 84 b9 0f e7 28 3a 9e 79 3b b8
       -1.0205607e-05 -0.00025365426 0.0006443122 -4.469754e-05
000080 f5 6f 12 bb 08 2b 2b ba 17 f4 8c ba e7 30 94 ba
       -0.0022344564 -0.00065295445 -0.0010753897 -0.0011306078
000090 f6 91 2f 39 46 41 f0 ba 3e 74 84 ba 3d 2f 35 ba
       0.00016743675 -0.001833 -0.0010105444 -0.0006911641
0000a0 25 82 09 ba 51 a5 51 ba 1f df 33 b9 b5 a8 d9 ba
       -0.00052455283 -0.00079973513 -0.0001715389 -0.0016606065
0000b0 54 9c 63 ba c9 95 cb ba ef 0f 50 b9 fe 78 1e ba
       -0.00086826575 -0.001553231 -0.00019842362 -0.0006045251
0000c0 19 1a e9 39 be 9d ce b9 97 89 3a ba be 03 96 ba
       0.00044460667 -0.0003940891 -0.00071158394 -0.0011445207
0000d0 68 36 c2 b4 68 d8 96 39 13 a2 c5 b9 f5 e2 84 39
       -3.6174902e-07 0.00028771465 -0.00037695523 0.00025346098
0000e0 37 59 bd b9 63 ba b7 b8 0d 00 38 b9 48 73 14 39
       -0.0003611536 -8.760837e-05 -0.00017547626 0.00014157325
0000f0 e0 dd 9d ba 38 10 d4 ba f7 ca 40 ba be ff 2f 39
       -0.0012044273 -0.001617915 -0.0007354463 0.00016784572

momentum_buffer f4 [1, 64]
000000 3d c5 e2 3a 6a 48 13 bb 13 a7 6e 3b 19 8d 6e 3b
       0.0017301213 -0.0022473582 0.0036415502 0.0036400019
000010 11 19 56 3b ce 1e 8b 3d aa 1f da 3c e8 70 d1 3c
       0.003266875 0.06792985 0.026626427 0.025566533
000020 85 f8 e9 ba bf 4e dc 3c da 3c 02 3a e9 0a d8 3c
       -0.0017850554 0.026893018 0.0004968174 0.02637239
000030 53 3d a4 3a 36 70 84 3b f0 13 24 3d b6 d7 e8 39
       0.0012530483 0.004041697 0.040058076 0.00044411205
000040 08 4a b0 3c 99 52 2b ba cb 90 0c 3d ae 88 f7 3c
       0.021519676 -0.00065354403 0.034317773 0.030216541
000050 cc 0d e4 b9 79 20 4f b9 7a bc a2 3c d1 13 fe 3c
       -0.00043497828 -0.00019753155 0.019865263 0.031015309
000060 68 c1 d4 3c c4 8c 87 b8 f6 eb f2 3b d4 6d 34 3d
       0.02597113 -6.463521e-05 0.0074133826 0.044050053
000070 5a bf 0e 3a a8 c7 6b 3c 0c 8a b3 3a 6b 5c 86 3c
       0.0005445384 0.0143908635 0.0013697757 0.01640149
000080 20 11 a5 3b 00 1a 50 bb e1 63 25 3d 16 e5 26 ba
       0.005037442 -0.0031753778 0.040378455 -0.0006366534
000090 c1 11 25 39 d8 b1 01 bb 32 32 20 3c c8 9c 6e b9
       0.0001574224 -0.001978984 0.0097775925 -0.00022755854
0000a0 e6 c3 61 bb ed 8a 06 3d 52 ce b4 ba c6 5c 12 3d
       -0.003444904 0.032847334 -0.0013794398 0.035733007
0000b0 8f 4d 69 3c 6a e6 94 ba eb ab d5 37 f2 0e a4 3c
       0.014239683 -0.0011360173 2.5471634e-05 0.020026658
0000c0 2a ae b7 3a b9 11 c0 39 a4 a1 48 3d 60 10 38 3b
       0.0014013697 0.00036634298 0.048982278 0.0028085932
0000d0 5a db 06 3a 69 55 e1 3c 58 09 52 3c 1b c0 47 3b
       0.000514438 0.027506547 0.012819611 0.0030479494
0000e0 91 14 f5 3b 5d af e9 b9 21 ec 42 b9 e0 db 7d 3a
       0.0074792583 -0.0004457188 -0.00018589247 0.0009683948
0000f0 d1 91 af 3b a1 92 e5 3c 20 33 37 ba d3 b8 f3 3c
       0.005357959 0.02802402 -0.0006988514 0.029751217

bn0.weight f4 [3]
000000 22 20 8f 3f 81 00 81 3f ba a8 8b 3f
       1.1181681 1.0078279 1.0910866

bn0.bias f4 [3]
000000 2c 07 25 3d 83 bf 69 be 61 4a f0 bc
       0.040290043 -0.22826962 -0.029332342

bn0.running_mean f4 [3]
000000 1d 28 f8 3e 83 8e e3 3e 44 15 d0 3e
       0.48468104 0.44444665 0.40641224

bn0.running_var f4 [3]
000000 14 13 84 3d b5 a6 74 3d 16 02 78 3d
       0.06448951 0.059729297 0.060548864

conv1.weight f4 [32, 3, 5, 5]
000000 5f bf e4 3c e9 c7 93 3c cd be 5b 3d 16 a3 1d bd
       0.027923284 0.01803966 0.05364876 -0.03848561
000010 38 61 aa bc dd 71 46 3d 58 01 30 3d ce 2a ac 3d
       -0.02079831 0.048448432 0.04297003 0.08406602
000020 5e 71 54 3d 14 5b 97 3d 01 1f fd 3c b3 14 65 bb
       0.051865928 0.07390419 0.030898573 -0.0034954965
000030 f3 c6 c4 bc 0b e6 9a bc ef 6c a3 3c 1a cc 09 3e
       -0.024020648 -0.018908521 0.019949405 0.13456765
000040 75 6e ec bc 38 6b 92 bd a1 8d 4d bd 76 0a 66 bd
       -0.028861264 -0.071493566 -0.050183896 -0.05616232
000050 5a 07 01 bd 35 f1 2f bd a0 8b a8 3d 29 bb 37 bd
       -0.03150115 -0.042954642 0.08229756 -0.044856224
000060 eb 22 5e b9 0f e7 f9 3c 09 a0 4d 3d 0e 86 6a bc
       -0.00021184578 0.030505685 0.05020145 -0.014314188
000070 b1 f3 2f 3d e0 90 c0 bc 63 62 17 3e 52 16 40 bd
       0.04295701 -0.023506582 0.14783625 -0.046896286
000080 09 ff 8b 3d af 85 3b bc f4 1c 13 3d 3c ad bb 3a
       0.068357535 -0.011445447 0.035916284 0.0014318596
000090 e5 ed bc b9 c5 38 a8 3d 51 96 a1 bd a1 db 86 bd
       -0.000360354 0.08213953 -0.07889999 -0.0658486
0000a0 ef 04 91 3d 3c 4e c0 bd ec 0f 85 3c 23 c5 cd 3b
       0.07081019 -0.09389922 0.016242944 0.006279604
0000b0 e7 f7 66 bd 48 bf dc bc 18 4a 2c bd dd 63 34 3c
       -0.05638876 -0.026946679 -0.04206285 0.011010137
0000c0 40 b3 c8 bd 66 75 30 bd b0 7d be 3d 6a de 9a bd
       -0.09799814 -0.04308071 0.09301317 -0.07561953
0000d0 b8 6c 17 3c 6c d7 5a 3d 31 24 95 bc a0 20 0b bd
       0.009242229 0.0534281 -0.018205734 -0.03396666
0000e0 51 8c 86 bd b1 e8 03 3d 56 82 07 bd f5 f6 14 3d
       -0.06569732 0.032204334 -0.033083282 0.03636833
0000f0 11 af 12 bd ea 42 97 bd b1 eb 8e 3d b9 99 5f bd
       -0.035811488 -0.0738581 0.06978548 -0.05458996
000100 64 b2 73 bd e7 05 b4 bc 16 9c e4 3c 41 00 04 be
       -0.0594963 -0.02197547 0.027906459 -0.12890722
000110 64 85 0c bc 25 54 ba bd 19 ba 48 bd 0a f3 a6 3a
       -0.008576725 -0.090980805 -0.0490056 0.0012737226
000120 78 0e b5 bc aa c6 90 bd 16 32 fe bb 99 27 f9 3d
       -0.022101626 -0.07069142 -0.0077574356 0.12165756
000130 75 ef ef 3c cf d9 6a 3c 54 49 90 3d 43 59 5f 3d
       0.029288987 0.014334156 0.07045236 0.054528486
000140 e9 c7 71 bc 78 46 5d bc 7f b1 23 3d 7e 9a 35 3b
       -0.014757135 -0.013505571 0.039964195 0.0027710493
000150 75 65 a4 bd 5a bc 54 3c bd 9b 58 3b 81 fc f8 3c
       -0.08027164 0.01298436 0.0033051812 0.03039384
000160 b3 62 ce bc fb 17 03 3c 39 e4 dc bb 02 41 de 3c
       -0.025193548 0.008001323 -0.0067410734 0.027130608
000170 79 db 24 3c 4c c9 4d bb 6e 04 3d 3d 7b 7d aa 3b
       0.010062092 -0.00314005 0.046146803 0.0052029467
000180 74 95 8b bd d7 53 f9 39 9f 1f 44 bd e6 d9 24 bd
       -0.06815615 0.00047555447 -0.04788172 -0.040246867
000190 83 a1 91 bc d5 06 09 3d fd 4a 25 bd c7 a5 1b 3c
       -0.01777721 0.03345378 -0.040354718 0.009499974
0001a0 a1 a5 c6 bc 60 a2 60 3a 40 9a 32 3c cb 73 d9 bc
       -0.0242489 0.00085691176 0.010901034 -0.026544472
0001b0 28 4f 95 3d e5 18 f7 bd 1a c6 08 3d 05 79 3a 3d
       0.072904885 -0.12065295 0.03339205 0.04552557
0001c0 c5 1a bd bb 4d 7c ab 3c 08 c3 3f bd 5a bf 49 bc
       -0.0057710134 0.020933295 -0.046816856 -0.012313688
0001d0 f6 dd fe bc fe 3d ae bc b1 a7 72 3d ac e2 90 bc
       -0.031111699 -0.021269795 0.059241954 -0.01768621
0001e0 26 e4 2b bd 75 62 9f 3d e2 b8 4a 3d 4d 0a 4e 3d
       -0.041965626 0.07782451 0.049492724 0.050302792
0001f0 6f e0 91 b8 b7 50 90 3d b2 31 ec bc bd 8c 4b 3c
       -6.955943e-05 0.07046645 -0.02883229 0.012423691
000200 19 92 a0 3d dd 74 15 bd 28 d1 b5 3d 99 e0 8a 3d
       0.07840366 -0.036488403 0.08877784 0.0678112
000210 9f f5 44 bd 70 9b 44 b9 9f 94 0c bd d1 5e 8e 3c
       -0.048085805 -0.00018749922 -0.034321424 0.017379196
000220 d7 75 9b 3d 03 3a d6 bc de f0 0d 3d 0f 3d 0d bd
       0.075908355 -0.026150709 0.034653537 -0.03448206
000230 58 48 b5 bb 85 00 c5 3c 88 6b 2a 3d 3d 82 f3 3c
       -0.0055323057 0.0240481 0.041606456 0.029725188
000240 20 e5 2b bb 92 5c da 3d 6b 4c a8 3c 76 bb a5 3d
       -0.0026229098 0.10662188 0.020544251 0.08092396
000250 c6 10 0d bd 1b 08 cd bd e9 2e b8 bc ed e1 32 3d
       -0.034439825 -0.100113116 -0.022483306 0.04367249
000260 bc ff 5c ba 2e bb f0 3b c1 8a 03 3d 56 32 b1 3c
       -0.00084304414 0.0073465323 0.032114748 0.021630447
000270 b1 78 b1 3d ae 72 ef bd 5d 2d aa bd 5f 5e cc bc
       0.08665598 -0.11691795 -0.083094336 -0.024947343
000280 f9 f9 27 bc 73 cb c9 bc 8a c9 8d bd 15 e8 5f bd
       -0.010252469 -0.024633145 -0.06923206 -0.05466469
000290 83 76 02 bd 86 f0 9f 3d d9 fe 1e 3e 0e 7b c2 3d
       -0.031851303 0.07809548 0.15526904 0.09496127
0002a0 37 d2 97 3c 5c 44 a6 bd ae f3 e1 bd 5d 7a 8c 3d
       0.018532855 -0.08118507 -0.11032806 0.068592764
0002b0 20 40 d9 3c e0 96 fa 3c 55 0b 7a bc c4 9a 6c 3d
       0.026519835 0.03058952 -0.015261491 0.057764784
0002c0 0e 1c 0d bd 3f 24 17 bc ad 6d aa bd e1 96 db 3d
       -0.034450583 -0.00922495 -0.083217 0.10722137
0002d0 b5 3e 0d bd ae 85 28 3d f2 a4 44 bd 3a d7 87 bc
       -0.03448363 0.041143112 -0.048008867 -0.01658212
0002e0 3d 3c 73 bd 5e a0 45 3c 8d f0 93 3d e4 3b 7c bd
       -0.05938362 0.01206216 0.07223616 -0.061580554
0002f0 e0 8c dc bb 23 a1 27 bd 30 4f 2d 3d a8 80 31 bc
       -0.006730661 -0.040925156 0.042311847 -0.010833897
000300 89 93 9a 3b 09 3d d4 bc 0e 8a f4 3c 28 9e 3e 3d
       0.0047172946 -0.02590801 0.029850986 0.04653755
000310 74 18 03 3d 97 50 88 3d ea e8 6c bd 38 d4 95 bd
       0.032005742 0.06655996 -0.05783931 -0.07315868
000320 e0 2d ea 3d b0 cd 06 3e d4 48 13 3d f7 65 a1 ba
       0.11434531 0.13164401 0.035958126 -0.0012313713
000330 82 cc 08 bd 5d fb e1 3c 80 8f aa 3c df 68 21 3c
       -0.03339816 0.02758568 0.02082038 0.009851663
000340 4a f3 06 3d 88 32 00 be 82 8d 51 3d 9b 61 80 3d
       0.032946862 -0.12519276 0.051160343 0.06268617
000350 ad 16 c9 bd 01 d1 86 3c 27 c8 9e bc c8 f8 20 3d
       -0.09818778 0.016457083 -0.01938255 0.039299756
000360 30 c3 a6 bc 23 34 16 bd d8 4e 99 bd 35 6d 64 bd
       -0.020356745 -0.036670815 -0.074857414 -0.05576821
000370 a6 19 06 3d 29 60 c1 bb 2b 0b cc bb 08 d1 25 bd
       0.032739304 -0.0059013558 -0.0062269173 -0.04048255
000380 02 0d af bc 33 16 47 bc 9f 3e b5 bd 6f 8f ed bd
       -0.021368507 -0.012151289 -0.08849835 -0.115996234
000390 77 48 ac 3c 7b c9 be 3c 44 88 a6 3d ce 3f d1 bd
       0.021030648 0.023289433 0.08131459 -0.10217248
0003a0 72 cb 88 3d 72 41 47 3a 9d 6a 52 bc 3a 87 d3 3c
       0.06679429 0.00076009997 -0.012842801 0.025821317
0003b0 c9 00 5c bd a4 21 9b 3c 80 24 76 bb 36 fe 73 ba
       -0.053711686 0.01893694 -0.0037558377 -0.0009307595
0003c0 04 f9 d4 3c 3a 1e e9 bb 20 d9 75 bc 9e e4 0f bd
       0.025997646 -0.007114199 -0.01500538 -0.035130136
0003d0 2e 5b ea bd b4 05 b2 3c 12 f9 3d bd dc b0 30 bb
       -0.114431724 0.021731235 -0.04638011 -0.0026960885
0003e0 a2 d7 1c bc af 6a e9 3c 93 f1 34 3d 49 64 47 bd
       -0.009572895 0.028493254 0.044175696 -0.048679624
0003f0 3a 26 9f bb d5 7a e1 bc 23 35 91 3b 87 e6 3b 3c
       -0.004856852 -0.027524391 0.004431383 0.011468536

conv1.bias f4 [32]
000000 5a 5e 9e 3b 9c 5b de 3d 19 6a 0f 3b 6f 6f 07 bd
       0.004833025 0.10857317 0.0021883307 -0.033065256
000010 d9 a8 de 3c 94 e0 be 3d fd 9b 35 bd 28 f9 9b 3d
       0.027180122 0.09320179 -0.044338215 0.07615882
000020 ce 20 81 bc 51 40 8e 3d 1d 3e 8f 3b c8 a8 16 3d
       -0.015762713 0.06945861 0.004371418 0.036782056
000030 d4 af 03 be 4a ff aa bd f1 96 13 3d 12 aa 34 3d
       -0.12860042 -0.08349474 0.03603262 0.044107504
000040 dc f0 4c bd f8 09 03 3c d8 eb dd 3d 49 db 72 3c
       -0.05003439 0.007997982 0.10835999 0.0148227895
000050 fc 06 ca bd da 13 17 3d 0d 5b 61 3c d9 89 da bb
       -0.098646134 0.036884166 0.013754618 -0.0066692648
000060 06 f9 ae bd e7 e8 02 bd 5c 95 7f 3d 3d 59 85 3d
       -0.08543591 -0.031960394 0.0623983 0.065111615
000070 3a 82 48 3d 95 a3 7c 3d ed fb 9a 3b bf fa 43 3c
       0.04895232 0.06167944 0.004729739 0.011961638
