Ratio_oneone/checkpoint_step_0140.pth (torch_old, 541535 bytes, 24 tensors)

momentum_buffer f4 [3]
000000 b6 b8 7f bd 52 aa 76 bd 42 ac c7 3c
       -0.062432013 -0.060221024 0.024374131

momentum_buffer f4 [3]
000000 d8 c7 4a 3e 7d a6 26 bd b3 ad a0 bd
       0.19802797 -0.04068612 -0.078456305

momentum_buffer f4 [32, 3, 5, 5]
000000 1b 93 ad 3d 33 dd b1 3d 9e ed a7 3d 9e af 8b 3d
       0.08475324 0.086847685 0.08199619 0.06820606
000010 70 66 78 3d f6 cb a7 3d 24 3b ac 3d 43 e4 a8 3d
       0.060644567 0.08193199 0.08409718 0.082466625
000020 41 e4 8f 3d f7 2d 83 3d ff 3d 9b 3d 59 4d 9b 3d
       0.07025958 0.064052515 0.07580184 0.07583112
000030 02 1a 9c 3d 8f 81 87 3d 51 4b 7d 3d 18 cd 9b 3d
       0.07622148 0.06616508 0.061839405 0.07607478
000040 d9 a8 95 3d bc 44 94 3d 88 3d 81 3d d7 2c 6b 3d
       0.07307596 0.072396725 0.06310564 0.05741581
000050 5d ba 97 3d 48 b2 91 3d 98 76 89 3d 3c 95 6c 3d
       0.07408593 0.071140826 0.06712073 0.05775951
000060 2b b9 61 3d b5 cb ae 3d 65 2f b5 3d b2 4c ab 3d
       0.05510823 0.08534948 0.088469304 0.08364238
000070 04 1b 91 3d 3f 6a 84 3d 2a 18 aa 3d 77 3c af 3d
       0.07085231 0.06465577 0.0830539 0.08556455
000080 19 8e ac 3d 8a 5f 98 3d 20 11 8d 3d b7 ac 9a 3d
       0.084255405 0.07440098 0.06888032 0.07552474
000090 cc 1d 9c 3d c5 6e 9e 3d d3 23 8d 3d 2d 22 86 3d
       0.07622871 0.07735971 0.068915986 0.06549487
0000a0 e6 5c 9c 3d a5 73 96 3d dd f6 95 3d 08 1c 86 3d
       0.076349065 0.07346276 0.07322476 0.06548315
0000b0 3c 57 7c 3d 83 33 98 3d a0 8e 91 3d 3e 56 8a 3d
       0.06160663 0.074317 0.07107282 0.06754731
0000c0 b2 03 79 3d 86 4d 72 3d ac b9 c6 3d ef b1 cb 3d
       0.06079454 0.059155963 0.09703383 0.099460475
0000d0 a6 a5 c3 3d b6 15 af 3d b3 01 a6 3d fa 5e bf 3d
       0.09553079 0.08549063 0.08105793 0.09344287
0000e0 c2 eb c5 3d 2c 07 c8 3d 37 74 ba 3d 91 26 b2 3d
       0.09664108 0.09766993 0.091041975 0.08698762
0000f0 77 d0 ab 3d 08 fc af 3d 99 d7 b8 3d e8 67 b0 3d
       0.08389371 0.08592993 0.09025497 0.086135685
000100 bd bb aa 3d 23 cb ac 3d bf 22 ab 3d 01 2f b2 3d
       0.083365895 0.08437183 0.08356237 0.087003715
000110 c0 30 aa 3d b8 a1 a3 3d c0 5b ad 3d f5 ba a7 3d
       0.083100796 0.0798983 0.084647655 0.08189956
000120 b0 bb a5 3d e8 42 9e 3d ca 8d 9b 3d 78 26 2a bc
       0.08092439 0.07727605 0.075954035 -0.010385148
000130 19 8e 06 bc 62 6f ee bb 9e 41 d2 bb 87 cc c3 bb
       -0.00821259 -0.0072764615 -0.0064165136 -0.0059753093
000140 58 25 1a bc 36 54 ed bb 39 6b d7 bb 24 39 a8 bb
       -0.0094083175 -0.0072427047 -0.0065740612 -0.005133765
000150 8e 22 88 bb e9 88 9e bb 84 99 81 bb b1 fa 7c bb
       -0.00415451 -0.0048380983 -0.003955068 -0.0038601572
000160 a0 ad 6d bb 29 cd 3f bb d8 57 e1 b9 60 03 88 b8
       -0.0036266819 -0.0029266572 -0.00042980793 -6.485614e-05
000170 a0 ad e8 38 18 32 3e ba be 2c 91 ba 88 19 ae ba
       0.00011094962 -0.00072553894 -0.0011075956 -0.0013282755
000180 38 e2 e6 ba 48 09 1c ba d0 7a b4 ba ac 03 74 ba
       -0.0017615026 -0.0005952311 -0.0013769511 -0.00093084085
000190 91 90 e3 bb 07 d4 ad bb 84 d9 78 bb 37 7a 3a bb
       -0.006944724 -0.0053048166 -0.0037971446 -0.0028454193
0001a0 11 90 f1 ba 52 eb c3 bb 70 a5 5e bb 68 d7 05 bb
       -0.0018429776 -0.00597898 -0.003397312 -0.0020422582
0001b0 66 b9 7f ba ac b9 ea b9 3e 7c e4 ba d0 f9 9c 39
       -0.00097551045 -0.00044770294 -0.0017432047 0.00029940763
0001c0 c2 cf 02 3a 80 35 90 37 fc ca f2 39 fe e5 4d 3b
       0.0004990065 1.719105e-05 0.00046309072 0.0031417604
0001d0 74 dc 89 3b 4e 8a 8d 3b 5a ca 4c 3b 5a 32 65 3b
       0.0042071883 0.0043194657 0.003124854 0.0034972639
0001e0 43 77 20 3b a9 cd 2e 3b f6 c3 24 3b f8 33 50 3b
       0.0024485148 0.0026672876 0.0025141216 0.0031769257
0001f0 6e 49 6b 3b fd 98 11 bc ce e2 d5 bb f4 b9 b6 bb
       0.0035901922 -0.008886573 -0.0065272814 -0.0055763666
000200 91 d0 82 bb 9e 63 83 bb 14 61 14 bc 06 32 d8 bb
       -0.003992148 -0.004009678 -0.009056348 -0.00659776
000210 fc 8d bc bb a6 f8 89 bb 16 53 52 bb 5a 53 b8 bb
       -0.0057542305 -0.0042105494 -0.003209298 -0.0056251707
000220 08 b6 a0 bb 49 d3 90 bb 06 67 73 bb 63 00 25 bb
       -0.0049045123 -0.0044197184 -0.0037140264 -0.0025177232
000230 1b 88 aa ba 9e 7f bb ba 51 ef fa ba d4 07 de ba
       -0.0013010533 -0.0014305001 -0.0019144808 -0.0016939589
000240 80 b8 0d b9 d4 a3 04 bb fa 3f 5d bb 7e 12 1d bb
       -0.0001351554 -0.002023925 -0.0033760057 -0.002396732
000250 f3 a8 bf ba d0 a8 fe b8 bf ad ec 3c ae 8d 05 3d
       -0.0014622494 -0.000121431076 0.028891442 0.03260582
000260 92 47 14 3d 21 c8 1e 3d e5 fe 1b 3d b3 1e 12 3d
       0.036201067 0.038765077 0.038084883 0.03567381
000270 b8 4f 14 3d 28 e9 0e 3d 6a bb 13 3d bf 11 10 3d
       0.03620884 0.034890324 0.036067404 0.035173174
000280 aa d6 16 3d 1d 43 1c 3d af 2c 0e 3d 38 25 0f 3d
       0.036825813 0.03814994 0.034710582 0.034947604
000290 9f c0 0e 3d fb c2 00 3d 00 7b 09 3d 08 89 0d 3d
       0.034851667 0.031435948 0.033564568 0.03455451
0002a0 d9 93 12 3d 16 07 0c 3d d4 bb 05 3d 97 33 0d 3d
       0.03578553 0.034186445 0.03264983 0.034473028
0002b0 0c 25 18 3d 1c 9f 13 3d 3b b4 04 3d 8e f9 af 3c
       0.037144706 0.03604041 0.032398444 0.021481302
0002c0 ef 90 ca 3c fd 9c e6 3c cf e2 f9 3c 8e 15 f9 3c
       0.024727313 0.02815103 0.030503659 0.030405786
0002d0 7a af e2 3c 2d 89 e1 3c fa b8 db 3c 81 2e e8 3c
       0.027671564 0.02753123 0.026821602 0.028342487
0002e0 70 22 e0 3c 52 37 ec 3c 15 53 f0 3c fe 98 d9 3c
       0.027360171 0.028834973 0.029336492 0.02656221
0002f0 dc ce dd 3c 32 b2 dc 3c d0 32 bb 3c 6a 3e ce 3c
       0.027076177 0.026940439 0.022851378 0.025176246
000300 e2 2f d4 3c c8 28 e0 3c 63 cd d3 3c eb 32 c5 3c
       0.025901739 0.027363196 0.025854772 0.024072131
000310 7c 1a d6 3c 19 5f e9 3c 91 3a e1 3c 80 f6 c9 3c
       0.026135676 0.028487729 0.027493747 0.024653673
000320 04 f0 b5 3c fe fd d4 3c 5f 75 f0 3c 04 c3 00 3d
       0.022209175 0.02600002 0.029352842 0.03143598
000330 4f 3b fc 3c 55 67 ed 3c e2 b3 ef 3c e1 0d e5 3c
       0.03079 0.028979937 0.02926058 0.02796072
000340 f2 58 f3 3c a1 a6 e8 3c d0 db f3 3c d0 28 ff 3c
       0.029705498 0.028399767 0.0297679 0.03114739
000350 33 0d e2 3c fa a3 e3 3c 2b d2 df 3c ec fe c7 3c
       0.027594185 0.027788151 0.027321896 0.024413548
000360 af 90 d5 3c de 85 dd 3c cc ce e8 3c a2 d4 d8 3c
       0.026069967 0.027041372 0.028418921 0.026468579
000370 12 2f ce 3c 0d 0e de 3c 86 75 eb 3c ce 7c ec 3c
       0.02516893 0.02710631 0.028742563 0.028868105
000380 53 5a ce 3c 8a 86 68 3b d0 83 69 3b 9b e1 26 3b
       0.025189554 0.0035480582 0.0035631545 0.0025464061
000390 81 59 91 3a 8e 71 a7 3a 46 07 6b 3b d4 2d 32 3b
       0.0011089296 0.0012774931 0.003586249 0.002718796
0003a0 6c e2 33 3b 9c 2d 20 3b d6 e0 d8 3a 58 77 1a 3b
       0.002744819 0.0024441248 0.0016546499 0.002356967
0003b0 26 37 20 3b 2c 8e 69 3b ea 85 47 3b 4e 73 99 3a
       0.0024446934 0.003563772 0.003044481 0.0011707337
0003c0 4e a7 ad 3a 08 c1 cb 3a 96 e9 4f 3b bc a8 36 3b
       0.0013248713 0.0015545199 0.0031724921 0.002787157
0003d0 47 a0 c1 3a 80 9e 5a 38 4e f1 28 3a 64 a6 dd 3a
       0.0014772498 5.2122865e-05 0.00064446486 0.001691055
0003e0 b0 6b 22 3a 22 22 27 3a c3 21 46 3c bc e2 4a 3c
       0.0006195856 0.00063756306 0.01209301 0.012383159
0003f0 2d d2 3e 3c 80 5f 25 3c b2 08 28 3c 77 cd 47 3c
       0.0116467895 0.01009357 0.010255979 0.012194983

momentum_buffer f4 [32]
000000 17 bc 9b 3d 1d a7 10 bc 86 95 3d 3d 58 46 2b bc
       0.07604235 -0.008828905 0.046285175 -0.010453783
000010 c2 44 4b bc 36 03 63 bb 52 8f a0 bc aa 72 bc bc
       -0.01240653 -0.0034639365 -0.01959959 -0.023003895
000020 9a 38 da 3c 0f e8 03 bd 6f 01 a5 3d 2a 66 45 bd
       0.026638318 -0.03220373 0.08056914 -0.048193134
000030 57 07 eb 3b 56 e9 11 bc 69 56 87 3c d3 d0 aa ba
       0.007172506 -0.008905729 0.016520696 -0.0013032205
000040 fc 80 85 bb 0c 5f b1 bc ee 58 f9 bc 27 b9 f8 bc
       -0.004074214 -0.021651767 -0.030437913 -0.030361725
000050 52 ee 31 bd ec 82 0d 3e 50 84 0a bd 70 78 ad 3b
       -0.04344017 0.13819474 -0.03381759 0.0052938983
000060 34 99 2a 3c a9 02 8b bd f5 55 04 3d 9f 22 94 bc
       0.010412503 -0.06787617 0.032308538 -0.018082915
000070 a6 40 27 3b 68 36 2b bd 7f 4c 44 3d 7e 20 10 3d
       0.0025520711 -0.041799933 0.047924515 0.035187237

momentum_buffer f4 [32, 32, 3, 3]
000000 5f 9b e9 3a e8 35 75 3a a6 c2 a9 37 f3 af 13 3b
       0.0017822793 0.0009354041 2.023701e-05 0.0022535294
000010 5f d8 fb b9 5a 49 1b ba d5 87 0f 3b d5 c2 2f 3a
       -0.0004803566 -0.0005923711 0.002190103 0.00067047524
000020 ba 48 3e b9 00 39 d7 3a 74 72 b6 3a ea 72 a3 3a
       -0.00018146905 0.0016420186 0.0013919608 0.001247016
000030 43 7f 99 3a 5d 85 b9 3a f1 fc fe 3a d0 b6 7c 3a
       0.00117109 0.0014154125 0.0019454045 0.00096402783
000040 48 95 ae 3a 40 8f 9a 3a 82 fc a9 ba b5 8a 57 ba
       0.0013319636 0.0011791959 -0.001296893 -0.0008222268
000050 54 be 96 ba c8 e2 ed ba 9c 94 0a bb 4a a7 b1 ba
       -0.0011500814 -0.0018149251 -0.0021145707 -0.0013553884
000060 d4 df 47 bb 74 b4 c3 ba 1e 16 d8 ba c7 87 8d 3b
       -0.0030498402 -0.0014931099 -0.0016486084 0.0043191644
000070 7f ee 86 3b 41 80 4b 3b d3 2b 69 3b fd de 67 3b
       0.0041177864 0.0031051787 0.00355791 0.0035380714
000080 bc ca e7 3a a2 f5 4d 3b 54 94 31 3b 97 b2 da 3a
       0.0017684321 0.0031426926 0.0027096467 0.0016685304
000090 cd e5 ac bb 11 64 bc bb 25 8b b7 bb 3c d1 ae bb
       -0.005276418 -0.0057492335 -0.005601304 -0.0053350013
0000a0 4f 57 d7 bb c0 89 d1 bb 97 16 ba bb 08 89 d8 bb
       -0.0065716873 -0.006394595 -0.0056789625 -0.0066081323
0000b0 7d d4 ea bb 99 9d 80 3b 84 d6 43 3b e8 a0 52 3b
       -0.007166444 0.003925037 0.00298825 0.0032139365
0000c0 d8 ea 37 3b 65 af 56 3b a6 e3 26 3b 74 bb 8e 3b
       0.0028063562 0.0032758352 0.002546528 0.0043558422
0000d0 84 78 2f 3b 34 57 0b 3b bb 44 39 bd 36 53 47 bd
       0.0026774714 0.0021261694 -0.045231562 -0.04866334
0000e0 50 62 3d bd 3a eb 49 bd ce d1 4f bd 51 d9 51 bd
       -0.046236336 -0.049296595 -0.050737195 -0.05123264
0000f0 71 96 4f bd 69 d9 58 bd bb 25 55 bd ce d0 ec 3a
       -0.05068058 -0.052941713 -0.052037936 0.00180676
000100 94 b0 2a 3b 54 c9 8d 3a 8f e3 b1 3a 64 86 04 3b
       0.002604519 0.0010817447 0.0013571846 0.0020221705
000110 e4 66 ba 3a c7 70 8f 3a b5 25 79 3a 40 35 d4 b8
       0.0014221338 0.0010943644 0.0009504215 -0.00010118866
000120 6e 28 3c bc 93 b3 40 bc da 32 3c bc b0 5a 4c bc
       -0.011484249 -0.011761564 -0.011486733 -0.012472793
000130 53 02 55 bc f9 db 4a bc 78 dc 53 bc 12 05 64 bc
       -0.013001042 -0.012381547 -0.012930982 -0.0139172245
000140 06 a1 60 bc 40 d1 f0 b9 e4 ff 21 ba 4a 98 d8 ba
       -0.013710266 -0.0004593227 -0.0006179793 -0.0016524878
000150 8b 23 a8 ba b6 63 c8 ba ee 35 f8 ba 94 71 ab ba
       -0.0012827975 -0.0015288505 -0.0018936971 -0.0013080114
000160 f3 bc 8b ba 40 62 07 bb e1 e4 27 3b 73 d4 3e 3b
       -0.001066117 -0.0020657927 0.00256186 0.0029118329
000170 f5 72 e8 3a 9f 0e 7a 3b 64 62 30 3b 00 e7 00 3b
       0.0017734455 0.0038155688 0.0026914114 0.0019668937
000180 83 86 3e 3b 1b da 27 3b 02 a9 ed 3a 74 b5 8a bb
       0.0029071874 0.0025612179 0.0018132033 -0.0042330567
000190 01 af 4d bb a3 3e 5f bb 29 b9 84 bb c2 34 85 bb
       -0.0031384828 -0.0034064434 -0.004050393 -0.004065127
0001a0 2c e0 73 bb c0 c2 af bb 44 e1 8f bb f3 56 83 bb
       -0.0037212474 -0.005363792 -0.0043908674 -0.004008168
0001b0 45 94 a3 3b 9c 7f b5 3b d7 c7 a6 3b 3a 42 b0 3b
       0.0049920403 0.005538894 0.0050897407 0.0053789886
0001c0 66 d5 a5 3b 1f 44 ae 3b 80 91 af 3b d0 6c ac 3b
       0.0050608395 0.0053181793 0.005357921 0.005261995
0001d0 09 7e 93 3b 26 64 9a 3b 98 07 6f 3b 20 aa 1e 3b
       0.0045011085 0.0047116457 0.0036473032 0.002421029
0001e0 18 e3 6c 3b cc f8 33 3b ab bd 0a 3b 1c 78 a6 3a
       0.00361461 0.0027461527 0.002117018 0.001270059
0001f0 77 f5 01 3b b6 be 99 3a 28 2a 7a 3b 7c 5d 49 3b
       0.0019830146 0.001172981 0.00381721 0.0030725887
000200 75 c0 d1 3a 93 43 66 3b ee 7b 6f 3b 27 3a 13 3b
       0.0016002791 0.0035135492 0.0036542374 0.0022465081
000210 95 b4 1f 3b af b4 15 3b 82 72 7a 3a a0 57 03 bb
       0.002436911 0.0022843292 0.0009553806 -0.0020041242
000220 0b 96 b7 ba 4e 0b aa ba 8f 9c 0f bb c2 02 7b ba
       -0.0014006508 -0.001297334 -0.0021913385 -0.0009575301
000230 5b 6d e0 ba bc 99 18 bb 2c 84 14 bb 60 4f 5a ba
       -0.0017122434 -0.0023284992 -0.0022661788 -0.0008327868
000240 6b c7 65 3b f0 a5 d0 3a bb c0 80 3a e3 8e 3e 3b
       0.003506149 0.0015918594 0.0009823063 0.0029076866
000250 b8 6f 35 3b b0 a4 05 3a 2a 0c 2a 3b e9 01 c5 3a
       0.0027684998 0.0005098088 0.0025947192 0.0015030476
000260 ec e8 b0 b9 ec e9 55 3b bc 37 5d 3b 61 6c 4f 3b
       -0.00033742876 0.003264065 0.0033755144 0.0031650292
000270 cc 6d 17 3b 0c 2e 31 3b 60 13 de 3a dd 74 28 3b
       0.0023106216 0.0027035503 0.001694303 0.0025704422
000280 d2 31 38 3b ee 33 ad 3a 72 42 61 3b 94 7c 37 3b
       0.0028105867 0.0013214329 0.003437188 0.0027997838
000290 70 49 ed 3a 0a 78 4b 3b ae 4b 62 3b ac 74 c6 3a
       0.0018103551 0.003104689 0.0034529972 0.0015140972
0002a0 48 32 e7 3a cb b1 d3 3a 54 54 70 3a 37 c6 ac bc
       0.0017638886 0.0016151009 0.00091678393 -0.02109061
0002b0 4d 04 b7 bc 4a f5 aa bc e9 a4 c0 bc a1 9a c0 bc
       -0.022340918 -0.020868916 -0.023516135 -0.023511233
0002c0 a3 d1 af bc 85 7a ca bc 1e db ca bc be 5c c0 bc
       -0.021462267 -0.024716625 -0.024762686 -0.023481723
0002d0 8c ad ce bc e3 27 d8 bc bf 22 d5 bc 5c 7c d9 bc
       -0.025229238 -0.026386207 -0.026017545 -0.026548557
0002e0 09 63 ec bc a0 b6 eb bc 74 99 eb bc e8 00 fa bc
       -0.028855817 -0.028773606 -0.028759696 -0.03051801
0002f0 23 51 ee bc ca 01 04 3a ac 1a 9e b9 52 c4 13 3a
       -0.029091423 0.0005035667 -0.0003015598 0.0005636859
000300 70 6f 0f 3a 78 88 e0 39 50 78 29 3a 8c dd 9c 39
       0.00054716226 0.00042826287 0.00064647663 0.00029919704
000310 80 79 9b 37 bc 34 a3 39 14 17 e4 3a 89 5c 22 3b
       1.8534018e-05 0.00031129073 0.0017401897 0.0024774394
000320 99 24 f4 3a 76 2e d1 3a b1 ae df 3a 7e 19 8c 3a
       0.001862663 0.0015959281 0.0017065612 0.001068875
000330 5d 18 f9 3a 9a b3 85 3a b6 f1 df 39 39 e9 d8 bc
       0.0019004453 0.001020062 0.00042713963 -0.026478397
000340 bb 73 e5 bc 90 f1 dd bc 4b 20 ed bc f0 68 fb bc
       -0.028009286 -0.027092725 -0.028946063 -0.030689687
000350 c2 a9 ee bc d7 4d fa bc 3e 99 01 bd 80 c8 fa bc
       -0.029133681 -0.030554695 -0.031640284 -0.030613184
000360 6c 21 83 bb 82 5b 97 bb f4 e7 41 bb 24 c8 85 bb
       -0.004001787 -0.004619063 -0.0029587718 -0.0040826965
000370 f6 c0 97 bb ba a8 7d bb 24 75 9e bb 92 c3 97 bb
       -0.004631157 -0.0038705305 -0.0048357416 -0.004631468
000380 20 41 5a bb 36 3d 67 bb 0c a3 83 bb 6d 15 5c bb
       -0.0033302978 -0.0035284287 -0.0040172394 -0.0033582107
000390 02 5a 80 bb 97 de aa bb 97 87 93 bb 2c d0 8a bb
       -0.00391698 -0.005214523 -0.0045022476 -0.004236242
0003a0 fe 70 a4 bb fc 1a 8f bb d9 8a fa bb fa 5e eb bb
       -0.0050183525 -0.0043672305 -0.0076459465 -0.007182953
0003b0 78 66 c6 bb a9 26 f0 bb 3d 2f 01 bc 17 42 e9 bb
       -0.0060546957 -0.0073288274 -0.007884798 -0.007118474
0003c0 6e 52 0b bc 1c e2 fe bb 7c ab d9 bb 4c 62 aa 3b
       -0.0085035395 -0.007778419 -0.006642757 0.005199706
0003d0 e3 8c 91 3b d0 2f 70 3b 62 a1 8c 3b e7 30 83 3b
       0.004441844 0.0036649592 0.0042916993 0.0040036323
0003e0 13 a1 19 3b 4e df 52 3b 78 2d 29 3b cb ee d6 3a
       0.0023441955 0.0032176557 0.0025814455 0.001639807
0003f0 95 50 ff 39 8e 82 be 3a 30 82 c6 3a fe 8e fe 3a
       0.00048697428 0.0014534758 0.0015145 0.0019421277

momentum_buffer f4 [32]
000000 1a 3c 5f bc 1a 4a 6c 3b 78 df ed bc 2a 67 7f 3a
       -0.013625169 0.003605491 -0.029037222 0.00097428507
000010 fa 3b 9c 39 41 88 55 3c 4a 17 31 bc 80 5a 81 bc
       0.00029799325 0.013032974 -0.010808775 -0.015790224
000020 2d af b0 bc 7c aa 8b bc 5d c5 80 bd b2 95 05 3d
       -0.021567905 -0.017049067 -0.06287644 0.032613464
000030 58 a5 7b bb b6 8d 2e 3a 00 9d c6 b7 58 01 16 3c
       -0.0038398113 0.000665869 -2.3676548e-05 0.009155594
000040 b4 da b2 bb f0 21 44 3a a3 d1 21 3d 9a 2b 58 3c
       -0.0054582004 0.0007481864 0.039506566 0.013193989
000050 be f8 18 3d 20 65 c3 3c 38 44 9e 3b 0a 5b 9e bc
       0.037346594 0.023851931 0.0048299097 -0.01933052
000060 52 bb 86 bd 34 3e 5f 3d 7c d1 f2 bb b4 a2 1d bc
       -0.06578697 0.05450268 -0.0074102264 -0.009621311
000070 3a 16 0a bb 52 cd f3 bb e8 80 47 bd 61 af f6 3c
       -0.0021070377 -0.0074402476 -0.04870692 0.030112924

momentum_buffer f4 [64, 32, 3, 3]
000000 41 a2 45 3a 1e 1c d8 39 26 d3 1f b9 e0 5b c3 39
       0.00075391313 0.0004121968 -0.0001524208 0.0003726175
000010 53 5d 0d 3a 8e d6 d2 38 46 61 fb 39 3b 3a 45 3a
       0.00053926295 0.00010053544 0.00047946925 0.00075236306
000020 e8 67 2d 3a 23 56 96 38 00 ba ff b8 23 47 53 b8
       0.00066149095 7.1686016e-05 -0.00012193993 -5.037257e-05
000030 1c d6 b9 b9 81 10 03 39 e7 a9 19 3a 84 3d 13 38
       -0.00035445474 0.00012499282 0.0005861804 3.5104822e-05
000040 e3 3d a6 38 20 49 04 39 88 21 23 3a cd 66 b9 39
       7.927024e-05 0.00012615742 0.0006222953 0.00035362542
000050 61 51 f2 39 c4 a5 38 3a 46 57 3c 3a aa 9c 21 39
       0.0004621847 0.0007043744 0.00071846356 0.00015412518
000060 2f 6e ce 38 f8 2f 10 3a ba 15 58 3a d6 d9 8b b9
       9.843369e-05 0.0005500312 0.00082429836 -0.00026674446
000070 42 fc 42 b8 39 db 7a b9 92 02 35 b9 86 e0 92 b8
       -4.6488138e-05 -0.00023923525 -0.00017262463 -7.003643e-05
000080 e9 2f 97 b7 b0 dc 19 39 90 3d ce b8 eb b5 be b8
       -1.8022913e-05 0.0001467343 -9.8343124e-05 -9.093791e-05
000090 ba be 40 39 10 35 41 3a 14 75 8a 39 85 81 49 39
       0.00018381598 0.00073702727 0.0002640864 0.00019217104
0000a0 7e 19 8a b8 53 f6 81 39 66 c1 56 39 4c d3 45 b9
       -6.585101e-05 0.00024788323 0.00020480677 -0.00018866098
0000b0 23 a0 4c b9 78 f6 7d 39 69 98 86 b9 1a cc 41 39
       -0.00019514612 0.00024219777 -0.00025672026 0.00018481948
0000c0 91 f3 10 39 4f 75 eb b9 a3 0b ec b7 b4 8d eb 39
       0.00013823646 -0.00044910095 -2.8138811e-05 0.0004492827
0000d0 e1 4f d6 39 1b 2f 0e 39 fd 22 5c b9 6e ec d1 b8
       0.00040876775 0.00013559723 -0.00020993869 -0.00010009935
0000e0 ec 13 e3 b9 6a 43 8d 39 26 99 f0 b9 26 98 bd b9
       -0.00043311657 0.00026943843 -0.00045890472 -0.0003616225
0000f0 f8 6b 67 39 2b 26 8c b9 37 c3 b4 39 c6 a1 b0 39
       0.00022070098 -0.00026731318 0.00034477722 0.00033689867
000100 8e 87 2b b9 57 50 e9 38 82 df 02 ba 1b 0b 07 38
       -0.00016358329 0.0001112527 -0.00049924117 3.219685e-05
000110 1e e0 02 39 4e 7c 29 38 9e 7e 83 b9 e9 32 11 b9
       0.00012481256 4.0408508e-05 -0.00025080604 -0.00013847243
000120 47 b6 08 39 e0 3d bf b8 a7 e3 00 39 d5 50 8c b9
       0.00013037874 -9.119115e-05 0.00012291838 -0.00026763105
000130 be fa c6 39 65 14 d1 38 ac aa ea 39 ce 6e 15 3a
       0.0003795232 9.9696954e-05 0.00044759118 0.000570041
000140 39 e2 f2 38 b0 33 b6 39 13 dc 1e 39 e7 48 54 b9
       0.000115815965 0.00034752255 0.00015150038 -0.00020245054
000150 4a 08 78 b9 fa 6f b5 b7 87 4b 97 b9 95 65 ae 39
       -0.00023654211 -2.1629025e-05 -0.00028857237 0.0003326355
000160 bd 6d f5 b8 56 cd 41 39 06 18 c3 b8 ad 11 07 3a
       -0.00011702951 0.00018482408 -9.302799e-05 0.0005152475
000170 ba a0 a7 39 ae 1e 5b 3a 04 f5 8c 39 36 03 93 39
       0.00031972473 0.00083587586 0.00026885432 0.00028040417
000180 c0 1d 53 3a 76 1e a5 b8 08 92 45 3a 3a 5b 40 ba
       0.00080534443 -7.873487e-05 0.0007536714 -0.00073378126
000190 28 58 d2 b8 70 2c fa 39 d1 dd c0 b9 87 e5 b4 36
       -0.00010030001 0.00047716824 -0.0003678636 5.3911385e-06
0001a0 60 c5 d9 b9 7c 8f 5f b9 3c 74 4b b9 b6 08 a1 39
       -0.0004153652 -0.0002132039 -0.0001940289 0.00030714803
0001b0 5e b9 f5 39 b7 0f 40 3a de cd 1b 39 c1 c6 6f 3a
       0.0004686815 0.00073265604 0.00014858643 0.0009146743
0001c0 56 c4 bd 39 b7 53 3b 39 3f 76 3c 3a 5f 52 d6 39
       0.0003619517 0.00017864896 0.0007189251 0.00040878632
0001d0 61 35 5b 3a 6e c2 d9 38 e3 47 4b ba 46 e5 cd 39
       0.0008362141 0.00010383582 -0.00077545474 0.0003927147
0001e0 36 06 17 39 6a 10 14 38 58 c3 3d 38 f4 9c 6f 39
       0.00014402796 3.5301236e-05 4.524304e-05 0.00022851286
0001f0 2e e0 42 b9 71 c7 08 b7 31 f6 a2 b9 8d 67 6f b9
       -0.00018584795 -8.152668e-06 -0.00031082475 -0.00022831392
000200 c3 1f 29 38 e8 63 10 3a 08 2d 6e 36 8f 7a 89 b9
       4.032232e-05 0.0005508051 3.5490975e-06 -0.0002622199
000210 10 a5 70 b6 ec a5 4f b7 1e 34 e9 b9 96 e9 16 39
       -3.5858866e-06 -1.2376793e-05 -0.00044480053 0.00014392132
000220 d4 fe 3b b9 1d 59 2a b9 48 18 b2 b9 d6 59 0f b8
       -0.0001792864 -0.0001624566 -0.00033968897 -3.4177523e-05
000230 32 fe 96 b9 8e 55 cf 39 4b 03 91 b9 59 60 1e 37
       -0.0002879962 0.0003954586 -0.0002765901 9.439967e-06
000240 15 34 6e 3a 23 db 12 39 db 5c 57 3a 36 f6 34 3a
       0.00090867403 0.0001400528 0.00082154357 0.00069031434
000250 8e 38 33 3a 6b a8 35 3a 46 a5 b4 39 9b ce 2f 3a
       0.00068367354 0.0006929698 0.00034455414 0.0006706507
000260 6b 54 08 3a c5 cc e6 39 a0 a3 47 3a e2 07 a4 b7
       0.00052005675 0.00044021584 0.00076156296 -1.9553994e-05
000270 61 f3 bb b8 6c 39 d7 39 f9 f2 95 39 c8 7e 70 b9
       -8.962188e-05 0.00041050778 0.00028600523 -0.00022935413
000280 7b 2f b9 39 10 b4 ec 36 01 c5 b7 b9 96 52 3f ba
       0.00035321325 7.05431e-06 -0.0003505126 -0.0007298378
000290 e8 c5 cd 37 1b 15 9e b9 8a 0e 0d ba 05 89 8a b9
       2.4530062e-05 -0.00030151833 -0.00053808896 -0.000264235
0002a0 91 69 d7 39 46 7a 5c b7 15 d4 ac b8 2c 7b 63 39
       0.0004108665 -1.3141491e-05 -8.2411025e-05 0.00021694292
0002b0 8e e7 f0 b9 f4 f4 3b b9 7a 26 43 3a a2 68 af b7
       -0.0004594889 -0.00017924962 0.0007444393 -2.091035e-05
0002c0 09 57 87 b9 14 d5 17 b9 b7 ea c2 b9 a0 88 40 39
       -0.00025814053 -0.0001447986 -0.0003717744 0.00018361444
0002d0 dc df 74 3a c4 bb 03 3a bc 15 a1 39 d6 91 96 3a
       0.0009341219 0.00050252327 0.00030724506 0.0011487554
0002e0 ae 73 09 3a 84 be 20 3a 87 4b 7e 3a c8 57 12 3a
       0.0005243373 0.00061319047 0.00097005855 0.00055825384
0002f0 4c 25 fb 39 bf 65 4b b9 66 31 47 39 b2 48 00 3a
       0.0004790224 -0.00019397492 0.00018996521 0.0004893645
000300 4e f2 04 b7 f1 19 a6 39 05 98 08 3a e1 1d 10 3a
       -7.924229e-06 0.00031681315 0.0005210641 0.00054976164
000310 fc 9b 0d 39 5d 7f 34 3a e8 b0 18 39 0c 69 2a 3a
       0.00013504917 0.00068854337 0.00014561752 0.00065006386
000320 33 9d 9d b8 17 57 bd 39 74 a6 ba 39 9e ba 32 b9
       -7.515624e-05 0.00036113776 0.00035600702 -0.00017044923
000330 9a b4 dd b9 a3 70 9c b8 f3 64 56 b9 a6 5d ad 38
       -0.00042286963 -7.45964e-05 -0.00020446237 8.266726e-05
000340 e2 5e 25 b9 77 a2 4d 39 44 94 fd b8 46 f9 a4 b9
       -0.00015770973 0.00019610846 -0.00012091597 -0.0003146624
000350 eb 70 e2 39 52 b7 62 b8 a7 5b 40 b9 bb d6 f4 38
       0.0004319021 -5.405333e-05 -0.0001834469 0.00011674823
000360 33 77 ea b8 41 a4 96 38 ab 4d 1f 3a 97 4b 7a b9
       -0.00011180192 7.183152e-05 0.0006076942 -0.00023870017
000370 1b 1b 7b 39 56 30 f8 b8 33 ce d2 b9 ce 06 99 38
       0.00023947323 -0.00011834565 -0.00040207952 7.296876e-05
000380 26 28 01 b9 b8 26 aa 37 57 60 08 3a cd 7a 83 37
       -0.00012317355 2.0283609e-05 0.0005202344 1.56736e-05
000390 f1 96 5e 39 9d ff 32 39 5a df b9 37 80 1f 9d b4
       0.000212278 0.00017070626 2.2157725e-05 -2.9266448e-07
0003a0 b4 27 a7 39 16 bb 86 b7 05 eb d1 b8 e5 68 36 b9
       0.00031882303 -1.6061163e-05 -0.000100096724 -0.00017395949
0003b0 12 f1 6f ba d2 98 8c b9 2c fe 64 36 60 fd 84 b9
       -0.0009153049 -0.0002681674 3.4122595e-06 -0.0002536578
0003c0 0f 0e 95 b9 30 13 84 b4 d5 fc e8 b8 80 1f e1 37
       -0.0002842997 -2.4600877e-07 -0.00011109716 2.6836758e-05
0003d0 b7 b1 be 39 5a 3c 5d b9 74 48 55 b9 90 99 fa 39
       0.00036372032 -0.00021098685 -0.00020340254 0.0004779813
0003e0 a3 10 5d b9 de 92 8e 39 d4 4d 8e 38 fb 2b 4d b9
       -0.000210824 0.00027193775 6.785584e-05 -0.00019566707
0003f0 ce a2 8a b9 3e 2e 35 39 ab 12 10 39 e4 26 b9 b8
       -0.0002644271 0.00017278732 0.00013739865 -8.8287314e-05

momentum_buffer f4 [64]
000000 c6 1c ef 38 a4 af 0f 3a e8 81 29 38 f4 a7 79 3a
       0.000114017676 0.00054811896 4.0413724e-05 0.0009523623
000010 e5 cc 63 bb 74 ee 05 b9 69 af 3a bb 13 78 a1 bc
       -0.0034759578 -0.00012772699 -0.00284859 -0.019710576
000020 e1 b9 22 bb 8c 90 c9 3a 15 bf 75 bc ee 3f 57 39
       -0.002483003 0.0015378161 -0.014999171 0.00020527813
000030 2c 31 f1 ba 0c 79 c4 bb e6 dc 0a 3c a5 46 dd bb
       -0.0018401495 -0.005995875 0.008475518 -0.0067528063
000040 9f 9f ea 39 8d f4 86 3b 14 af fb 38 48 bf d2 3b
       0.00044750885 0.004118508 0.000120012235 0.006431494
000050 f9 2d 90 bc 32 fd ed ba 89 fb 57 bc cd d1 a5 3b
       -0.017600046 -0.0018157123 -0.013182529 0.0050604106
000060 0f a2 d3 3a ac 9a 53 b8 cd a1 fb b8 fb e0 c7 39
       0.001614632 -5.045037e-05 -0.000119987504 0.0003812386
000070 4b c6 01 bc c9 bb 30 bc dd 31 ae bb 8a 3d 5b b9
       -0.007920812 -0.010786959 -0.0053160028 -0.00020908393
000080 21 9e 1f bc 81 b5 bf bb 8a 48 04 ba b7 55 08 3c
       -0.009742291 -0.0058504944 -0.00050462096 0.008321217
000090 e1 92 0f b9 58 c9 5f 3b d8 ac b6 ba a0 9e 0d ba
       -0.0001369226 0.003414711 -0.001393701 -0.000540236
0000a0 32 9a 27 39 80 9d 2b 3c fb c5 ef 38 dc 27 c5 39
       0.00015983803 0.010474563 0.00011433285 0.00037604466
0000b0 8d bb 94 ba bc de 72 3b e0 0c 4a 3b 18 25 95 3a
       -0.0011347398 0.003705903 0.0030830428 0.0011378853
0000c0 6f bc 1c bc b9 9c 08 3c f9 7c 31 3c 67 f6 a8 b8
       -0.00956641 0.008338147 0.010833018 -8.05676e-05
0000d0 ca ae 92 3b 03 1d 92 bb 0b be ea ba 2e 4c 7d 3a
       0.004476403 -0.004459025 -0.001790942 0.0009662536
0000e0 5e 2b ef bb 6c 5a b0 ba f9 00 f0 bb 95 19 3d ba
       -0.007298871 -0.0013454682 -0.0073243347 -0.000721359
0000f0 40 1e 73 3b 1b 9b 2f 3c 57 b5 d8 b8 b0 17 a2 bb
       0.0037096888 0.010718132 -0.0001033346 -0.0049466714

momentum_buffer f4 [64, 64, 3, 3]
000000 c0 84 1e 3a d0 99 19 38 75 de 22 b9 74 2c 2c b9
       0.0006047003 3.662129e-05 -0.00015532396 -0.00016419758
000010 49 bb 84 b8 c4 13 17 39 29 ce ba 38 71 f9 97 39
       -6.329135e-05 0.00014407845 8.9075715e-05 0.00028986813
000020 6a 2d 99 39 8c ea 20 b9 6b db ef b9 c0 b3 29 ba
       0.0002921627 -0.00015346165 -0.0004574911 -0.0006473623
000030 26 92 9a b9 76 a6 2a ba 41 16 92 b9 6d cd 1e ba
       -0.00029482058 -0.000650979 -0.0002786387 -0.00060578325
000040 77 f1 d2 b9 ee 3f c7 b9 9b 0c 34 b9 00 7f 6f 39
       -0.00040234227 -0.0003800387 -0.00017170834 0.00022840127
000050 2f d0 9d 39 f5 96 d3 b8 53 cd fa b9 c6 33 cc 38
       0.00030100482 -0.00010089382 -0.00047836694 9.7371216e-05
000060 96 2e bb b9 17 d6 44 b8 db a6 0e 3a 57 e3 16 3b
       -0.0003570213 -4.692943e-05 0.00054417335 0.0023023689
000070 15 21 14 3b 00 73 15 3b fe ee 26 3b 8f a6 4d 3b
       0.0022602726 0.002280414 0.002547204 0.0031379794
000080 b1 aa 3c 3b 5c 74 28 3b 02 42 32 3b f9 e6 25 3b
       0.0028788263 0.0025704121 0.0027199988 0.0025314672
000090 fd f2 c4 39 24 55 19 38 13 39 be 39 20 57 18 3a
       0.00037565074 3.6557336e-05 0.00036282148 0.00058113225
0000a0 a0 59 00 37 13 d6 cc 39 5b c7 51 3a 8a f1 c7 39
       7.650262e-06 0.0003906941 0.00080024236 0.00038136198
0000b0 c5 cf 2c 3a b4 b0 c9 39 b8 57 43 b9 38 3a 51 38
       0.00065922394 0.00038469362 -0.00018629327 4.9883703e-05
0000c0 c2 a0 76 b9 fd 1e af b9 f8 a6 31 b5 ac dd d6 b8
       -0.00023520275 -0.0003340169 -6.618061e-07 -0.00010245605
0000d0 ff d8 4d b9 75 2d d2 39 17 02 1f b9 e5 61 5d b9
       -0.00019631161 0.0004008819 -0.000151642 -0.00021112671
0000e0 96 6c e5 b8 d2 60 74 39 a6 d5 10 39 4f c7 fe 39
       -0.000109397966 0.00023305722 0.000138125 0.00048595152
0000f0 30 36 e7 b6 9b 4e 94 39 17 8f 09 39 9c cc 9a 3b
       -6.8906447e-06 0.00028287325 0.00013118643 0.0047240984
000100 b8 2e bd 3b 5e 7b af 3b bc 41 da 3b ad 46 df 3b
       0.0057733916 0.0053552827 0.006660668 0.006813845
000110 01 9e d0 3b 64 b2 e4 3b 9c fc e7 3b 42 8b ca 3b
       0.006366492 0.0069792736 0.007079674 0.0061811516
000120 75 c3 83 ba 57 13 5a ba 08 2e 1f ba 15 04 7e ba
       -0.0010052758 -0.0008318922 -0.0006072228 -0.00096899393
000130 13 35 c3 b9 e5 76 36 ba 35 d5 55 ba 6f 88 46 ba
       -0.00037232842 -0.00069604657 -0.00081570755 -0.0007573431
000140 37 69 24 ba 9e 2d c1 38 c6 29 45 3a 77 cd 38 38
       -0.0006271782 9.211454e-05 0.00075211783 4.4060373e-05
000150 64 89 44 b8 ae 44 b9 39 b3 61 ef 39 43 d6 4b 3a
       -4.6857996e-05 0.0003533712 0.00045658424 0.0007775763
000160 f2 62 6d 3a c3 f9 31 3a 12 83 90 3a 86 04 77 3a
       0.00090555765 0.00067892316 0.001102539 0.0009422976
000170 f9 82 90 3a 45 32 9c 3a 02 87 b8 3a 02 9f 9f 3a
       0.0011025361 0.0011916837 0.0014078321 0.0012178125
000180 58 2d 1f 3b fc 55 fc 3a cd 9b ea 3a 83 e2 7c 39
       0.0024288502 0.00192517 0.0017899215 0.00024116975
000190 70 2f 22 36 d6 62 c4 39 09 21 35 3a 16 d0 51 3a
       2.4167493e-06 0.00037457672 0.00069095247 0.00080037245
0001a0 7e 16 e6 b7 f2 a8 9b 3a d6 52 81 3a 6a 23 07 3a
       -2.742861e-05 0.0011875911 0.0009866606 0.00051551184
0001b0 70 c7 2e 39 4f e9 88 b9 af 88 3e b9 64 27 0f 3a
       0.0001666823 -0.0002611377 -0.0001817073 0.0005460887
0001c0 66 22 01 ba d5 e3 f9 b8 5c 50 cf 39 bc 29 41 3a
       -0.0004926085 -0.00011915682 0.0003954199 0.00073685846
0001d0 61 73 f4 37 be 19 3a 3b df 74 44 3b 7e f8 29 3b
       2.9140794e-05 0.0028396691 0.0029976887 0.0025935466
0001e0 f2 b0 5a 3b 4f 60 54 3b b5 db 5d 3b ed 9f 5c 3b
       0.0033369628 0.0032406037 0.003385288 0.003366466
0001f0 ce 59 42 3b 75 7e 3f 3b e9 b1 ab 3a 90 d9 e2 3a
       0.0029655579 0.0029219661 0.0013099286 0.001730727
000200 2e 6e e5 3a de 1d 03 3b fa eb 1d 3b 71 f2 1f 3b
       0.001750415 0.0020006816 0.0024096952 0.002440598
000210 08 ee 19 3b 69 e0 0b 3b f2 1f 19 3b b0 64 57 3b
       0.0023487825 0.0021343476 0.0023364988 0.003286641
000220 0b d9 58 3b 57 4a 3a 3b 4e a2 66 3b 7a eb 3a 3b
       0.0033088352 0.0028425658 0.0035191956 0.0028521703
000230 39 2c 6c 3b 64 5e 5c 3b 7c 8b 85 3b 1f b7 84 3b
       0.00360371 0.0033625597 0.0040754657 0.00405015
000240 27 4d c8 b9 52 b4 8c b9 4d e0 17 b9 d7 c8 cf b9
       -0.00038204456 -0.0002683723 -0.00014484041 -0.00039631754
000250 39 19 d4 b9 0e f0 af b8 c1 5f e8 b9 09 17 f8 b7
       -0.00040454583 -8.389364e-05 -0.0004432183 -2.957463e-05
000260 d5 30 a3 b9 e8 b4 ab b7 89 c7 df b9 04 51 f0 b9
       -0.00031126165 -2.046903e-05 -0.0004268254 -0.00045836729
000270 cd 48 01 ba 13 04 77 b8 c4 36 f9 38 c3 8d 1a ba
       -0.00049318076 -5.8893183e-05 0.00011883446 -0.0005895758
000280 ff 49 f3 b8 00 e7 ed 38 41 c8 cc 3a e0 6b 0a 3b
       -0.00011600926 0.00011344068 0.0015623645 0.0021121427
000290 c8 8b d5 3a 1c 71 0f 3b e8 0e 01 3b 9e d0 fd 3a
       0.0016292268 0.0021887487 0.0019692723 0.0019364541
0002a0 10 e4 13 3b ef 25 2e 3b 82 52 26 3b 39 e7 9f 3b
       0.0022566356 0.0026572903 0.0025378768 0.004879859
0002b0 6b 86 b7 3b 0e 53 ac 3b 2b a0 c2 3b 4e 1a d3 3b
       0.0056007407 0.0052589243 0.0059395037 0.0064423447
0002c0 40 00 c0 3b d5 18 c8 3b bf 4f d5 3b fa 6a bc 3b
       0.005859405 0.006106476 0.0065097506 0.0057500573
0002d0 8d 9e 5d 3b f5 45 85 3b 66 58 53 3b 43 34 8f 3b
       0.0033816427 0.0040671774 0.0032248734 0.0043702438
0002e0 a1 70 a8 3b 69 d5 98 3b fa 3a 9a 3b c5 69 a7 3b
       0.0051403795 0.0046641123 0.0047067376 0.0051090443
0002f0 0a 9e 9a 3b cf 46 a7 3b 88 d9 a6 3b 39 d9 a2 3b
       0.0047185468 0.0051048766 0.0050918497 0.0049697426
000300 3f c2 b8 3b 44 96 cb 3b 76 d2 bc 3b 29 d8 d3 3b
       0.0056383903 0.0062129814 0.0057623936 0.0064649773
000310 e4 8c d2 3b 86 d3 cf 3b fc 90 07 3b 73 dd df 3a
       0.006425487 0.006342354 0.0020685783 0.0017079547
000320 0e 91 f2 3a 3c 17 02 3b bb 2f 06 3b ff 96 ca 3a
       0.0018506364 0.0019850275 0.0020475227 0.0015456377
000330 5d bf fe 3a 4d 5a 0d 3b 2a 3c a3 3a 08 de de 3a
       0.0019435693 0.0021568716 0.0012453843 0.0017003426
000340 fd 76 04 3b 9c ce c5 3a cd 25 12 3b ac 2d 4f 3b
       0.0020212524 0.0015091482 0.0022300363 0.0031612916
000350 00 5b 31 3b 12 a6 24 3b ab f6 43 3b 61 57 fd 3a
       0.0027062297 0.00251234 0.0029901664 0.0019328409
000360 d9 21 02 3a e1 64 52 3a 01 6d 99 3a 19 2a 99 3a
       0.000496415 0.00080258964 0.0011705459 0.001168552
000370 64 23 9f 3a 64 c2 7a 3a a4 98 ca 3a 98 58 b7 3a
       0.0012141285 0.00095657096 0.0015456867 0.0013988195
000380 85 87 ce 3a 2f fd d4 39 ec ed 2b b9 f8 1d 7f b8
       0.0015756941 0.00040624427 -0.00016396464 -6.082465e-05
000390 2f d1 a8 b9 88 29 47 b9 fb ad 4e b9 3a 02 0e ba
       -0.0003219931 -0.0001899359 -0.00019710504 -0.0005417202
0003a0 8a b1 b1 39 2c c2 1b 37 aa 96 24 b8 3f 67 12 39
       0.00033892348 9.283929e-06 -3.9240964e-05 0.00013962107
0003b0 d0 1d b8 39 72 fd 4b b9 cd b6 2f ba ae 53 b0 38
       0.00035117427 -0.00019454004 -0.00067029597 8.4079205e-05
0003c0 6a 95 cd 39 ca 3d 81 39 54 25 11 37 c5 9c 79 3b
       0.0003921197 0.00024650834 8.651365e-06 0.0038087827
0003d0 f3 4e 83 3b 74 96 79 3b 2b 75 9d 3b b0 7b 98 3b
       0.004007214 0.0038084062 0.0048052273 0.0046534166
0003e0 09 83 96 3b 7f 86 aa 3b dd 50 9b 3b 25 e0 90 3b
       0.0045932573 0.0052040215 0.0047398643 0.0044212514
0003f0 ce 9d c9 3a f5 4d 9c 3a bf e7 a7 3a b3 a5 52 3a
       0.0015382112 0.0011925088 0.0012810155 0.00080355554

momentum_buffer f4 [64]
000000 50 20 31 3b 21 4b 0a ba ba 43 6c b9 e3 0d 6e bb
       0.0027027316 -0.00052754773 -0.00022531944 -0.0036324195
000010 80 4d 94 39 1a c0 00 3a 47 92 17 bb 4f 88 16 3b
       0.00028286502 0.0004911438 -0.002312796 0.002296943
000020 cd e0 f3 b8 3b f0 1b b9 6a 7d b4 3a 29 b1 0e 3b
       -0.00011629015 -0.00014871445 0.0013770286 0.0021773076
000030 71 fc 2e 39 2e 03 25 bb 51 7a 6c b9 f7 4e 71 3b
       0.00016687975 -0.0025178897 -0.0002255228 0.0036820748
000040 88 d6 f1 b9 39 cd d5 ba d9 ed b9 37 79 dc 57 b9
       -0.0004612694 -0.0016311771 2.2164475e-05 -0.0002058613
000050 27 42 5a bb 7a dd b1 b9 1d 82 86 3a a4 72 f0 ba
       -0.003330359 -0.00033925084 0.0010262165 -0.0018344712
000060 08 ec ba ba 59 78 08 3b a2 b1 09 b9 9b 1c 98 3a
       -0.0014261017 0.0020823686 -0.00013131512 0.0011605205
000070 1c 93 94 ba 5d 48 09 3b 76 51 8e 39 05 5a 05 bb
       -0.0011335346 0.0020947673 0.00027145044 -0.0020347845
000080 98 27 a3 3a 02 a1 8f ba 41 71 ce bb 20 12 2c 3b
       0.0012447713 -0.0010958018 -0.006300122 0.002625592
000090 57 e5 6c 3a 66 bd 70 38 48 79 45 3b ba 1c 1c 39
       0.000903686 5.739685e-05 0.0030132104 0.00014888021
0000a0 96 1b 43 b8 c6 4a a7 38 43 10 0c b8 2c 54 4b ba
       -4.6517314e-05 7.977108e-05 -3.3393746e-05 -0.0007756378
0000b0 c0 d6 8a 39 0c f5 ee 3a 43 bb d8 3a 7c e5 38 3b
       0.00026481412 0.0018230989 0.00165353 0.0028212955
0000c0 4b d1 34 3a e4 10 89 3b 8a 6f d9 39 59 1f 71 b9
       0.0006897642 0.0041829217 0.00041472568 -0.00022995229
0000d0 3c 1e b0 3a 2b 50 fa ba 3f 50 8d 3a bb 85 83 bb
       0.0013436745 -0.0019097378 0.0010781361 -0.0040137446
0000e0 a2 d1 db bb 14 02 d7 3a 38 24 bc 39 6a a5 48 3a
       -0.00670834 0.0016403818 0.0003588514 0.0007654043
0000f0 bd 65 9b bb b0 a7 e2 b9 e3 5f 91 bb ae aa 5d 3a
       -0.0047423528 -0.00043231016 -0.0044364794 0.0008455914

momentum_buffer f4 [1, 64]
000000 e5 c1 c4 3c 64 34 4c bb a8 1f 40 3b a0 86 33 3d
       0.024018237 -0.0031159157 0.0029315744 0.04382956
000010 29 89 57 3a 90 15 80 39 29 c0 70 3c ed 3e ac bb
       0.00082220376 0.00024430128 0.014694252 -0.005256525
000020 dd 1f 16 39 dc 63 fe b9 64 bf 0b 3c 73 13 0e bc
       0.00014316985 -0.00048521056 0.008529518 -0.008671629
000030 8e 01 0d bb 29 62 a9 3d 2f 97 a9 ba d6 33 28 3b
       -0.002151582 0.08270676 -0.0012938733 0.0025665662
000040 78 fb d8 bb 32 f8 be 3c 6d e7 2d 39 ec 9f 92 3c
       -0.0066217743 0.023311708 0.00016584778 0.017898522
000050 1d 9a 4f 3d 09 68 ab b9 d6 4d 93 3c 69 46 8a 3c
       0.050684083 -0.00032693174 0.017981451 0.016879277
000060 fd c8 a1 3c 15 ed f0 3a d1 ab a1 b9 2d b3 df bb
       0.019749159 0.0018381203 -0.00030836326 -0.0068267793
000070 23 73 ad 3c 22 bb fc 3b b6 e6 75 3a 9f ae 02 3d
       0.021173066 0.0077127377 0.0009380387 0.031904813
000080 10 b4 a8 bb a8 a9 9e 3d 5a e6 04 3d 85 34 d2 3b
       -0.0051484182 0.07747203 0.032446243 0.006414952
000090 4d 3e c0 3c 9d 3c 59 bb fd 55 ad 3b 66 74 bc b9
       0.023467207 -0.00331477 0.0052897916 -0.00035944878
0000a0 46 37 6e 39 a6 2c ed 38 18 52 09 3b f1 26 aa 3c
       0.0002271804 0.00011309357 0.0020953473 0.020770522
0000b0 4f 9e 0e 39 08 8c 57 ba 85 ac d8 bb b8 66 25 bc
       0.0001360115 -0.00082224654 -0.006612363 -0.010095291
0000c0 e7 73 a5 3c 58 74 85 bc 59 cd 8f 3b 69 4b 1f 3c
       0.020196868 -0.016290829 0.004388493 0.009722569
0000d0 54 49 c5 3a 40 72 76 3c e9 47 62 3b 70 8f d4 3c
       0.0015051761 0.015041888 0.0034527725 0.025947303
0000e0 9b 95 9d 3d 6f 8c ec ba 98 07 ff 3b 48 0d 62 3c
       0.076945506 -0.0018047224 0.0077828877 0.013797112
0000f0 e0 4d a9 3d 8f 29 ee b9 8f 99 58 3d 76 f9 1a 3b
       0.082668066 -0.0004542586 0.05288082 0.0023647225

bn0.weight f4 [3]
000000 43 3d 8f 3f 79 2b 88 3f 2e 14 8e 3f
       1.119057 1.0638267 1.1099908

bn0.bias f4 [3]
000000 1d 33 b9 bb af 7d a5 bd 16 82 d4 bc
       -0.005651845 -0.08080613 -0.025940936

bn0.running_mean f4 [3]
000000 cf f5 fa 3e 75 2e e6 3e 64 fb cf 3e
       0.49015662 0.4495732 0.40621483

bn0.running_var f4 [3]
000000 de 14 84 3d dc ca 75 3d a2 e4 78 3d
       0.064492926 0.060007915 0.060764916

conv1.weight f4 [32, 3, 5, 5]
000000 c9 ec d9 3d e0 dd 2e bc 5d 4e 77 3d 1e 93 74 3d
       0.10640866 -0.010673016 0.060377467 0.059710614
000010 0d 1b 6e bd d8 65 4d 3d 5e a1 a7 3c 71 1c aa bc
       -0.058131266 0.050145954 0.020462688 -0.020765515
000020 36 a7 55 bd 25 9b e7 bd 6f e1 bd 3d 73 cf b2 3c
       -0.052161418 -0.11308888 0.09271514 0.021827435
000030 13 1e 31 3a 76 60 b7 37 ed 40 1e 3d eb 63 27 3d
       0.00067564956 2.1860218e-05 0.038636137 0.040866774
000040 89 b8 1d bd 31 2b 9e bc 71 56 30 3d 75 3a e8 bc
       -0.038506065 -0.019307705 0.043051187 -0.028348187
000050 e7 f8 52 bc 78 fd 07 3d da cf 63 bc a4 29 ef bd
       -0.012876726 0.03320071 -0.013904536 -0.11677864
000060 d0 cc f3 3c d8 53 c8 3b 35 16 6b 3d 75 67 b5 3d
       0.029760748 0.0061135106 0.057394225 0.088576235
000070 26 c2 2b bd 63 bc f8 bc b2 d0 00 3d ff b5 ea 3c
       -0.0419332 -0.030363267 0.031449027 0.028651236
000080 c9 dc 15 bd 7f 1e 8b 3d a9 8e af bc 67 36 2b 3d
       -0.03658751 0.06792926 -0.02143033 0.04179993
000090 92 6c 10 3d 23 5e 1f 3d e3 e2 19 bd 9a 62 02 bc
       0.03525979 0.038908135 -0.03756989 -0.007958079
0000a0 29 87 0b 3e 4a 1c cc 3c 21 57 92 3c a0 05 17 bd
       0.13625778 0.024915833 0.017863812 -0.0368706
0000b0 dd 72 1e 3c e3 71 9d 3d c5 fc 6f 3d 7b ab 8a 3c
       0.00967094 0.07687738 0.05859067 0.016927471
0000c0 dd a0 26 3c 74 5e 2e 3d 4e e3 c7 ba c9 e2 94 bc
       0.010170189 0.042570546 -0.0015250237 -0.018174546
0000d0 88 3f 0e bd 15 b7 8c bd e9 84 3c bd 46 1b 8d 3c
       -0.034728557 -0.068708576 -0.04602519 0.017224919
0000e0 96 24 5f 3d 6a 5d 4b bd 80 01 b6 3d 43 72 fe 39
       0.05447825 -0.049649633 0.08887005 0.00048531787
0000f0 ec 12 15 bb 25 13 88 bc 33 90 09 be e5 34 5e bd
       -0.0022746874 -0.016610691 -0.13433914 -0.054249663
000100 28 32 80 bd 91 99 06 3d 69 58 29 3d b7 1b 5f bd
       -0.062595665 0.032861296 0.04134408 -0.05446979
000110 53 b0 b6 bd 24 11 0e bd fb 29 0d 3e 85 ae 88 3d
       -0.0892035 -0.034684315 0.13785546 0.06673912
000120 98 31 b5 bd 9c cc eb bd b4 a2 f1 bd 81 8b 84 bd
       -0.0884735 -0.115136355 -0.11798611 -0.06471921
000130 26 56 3b 3d ce 30 82 3d 96 6b a7 3c de 4a 97 bb
       0.045736454 0.06356965 0.020437043 -0.004617079
000140 76 49 53 3d 6d c5 9b 3d 8e 5d 81 bd 28 3d 6d bd
       0.05158373 0.07606015 -0.06316672 -0.05791965
000150 4e e9 a0 3a a1 57 0e 3c 1d c9 3e bc 49 b6 f9 bc
       0.0012276561 0.008687885 -0.011644629 -0.030482428
000160 c5 40 31 3d 0c 91 f7 3d 3f 31 a5 bc 48 ca 77 bd
       0.04327466 0.12088212 -0.020165084 -0.060495645
000170 60 ab bc 3c ae 12 11 3d f7 c6 fa bb 63 3e 22 3d
       0.023030937 0.035418205 -0.007653113 0.039610278
000180 9d fc 36 38 87 30 fc 3d 20 7f ad bc bb 56 2b 3d
       4.3627446e-05 0.12313943 -0.021178782 0.04183076
000190 a4 01 b3 bc e1 e5 38 bd 46 27 e9 3c 6e 0a 96 bc
       -0.021851368 -0.045141105 0.02846111 -0.01831552
0001a0 39 b8 72 3d f7 de 1c 3d 07 f7 d6 3d df d1 44 3d
       0.05925772 0.038298573 0.104963355 0.04805171
0001b0 7b f0 da bc 54 ea 35 bd 10 50 e1 bd 9b 13 39 3d
       -0.026725998 -0.044412926 -0.11001599 0.045184713
0001c0 0d 86 25 3c e3 e9 2e bd 4f 0c ff bb 03 0b c9 bd
       0.010102761 -0.04270352 -0.0077834497 -0.098165534
0001d0 87 94 1c bd 41 90 88 3c 74 bf 28 bd 4d 17 84 3d
       -0.038227584 0.016670348 -0.04119821 0.06449757
0001e0 83 1c 05 bd 14 ed 81 3d c5 5b 91 bd f0 fd 73 3d
       -0.032497894 0.06344047 -0.07097582 0.059568346
0001f0 f4 73 9e 3d f7 6e df bc be a6 3f 3d af 13 b6 bb
       0.0773696 -0.027274592 0.046789877 -0.0055565457
000200 e2 bb dd 3d 6b 38 a3 3c 94 68 9a bb eb 0a 94 3d
       0.108268514 0.019924363 -0.0047121737 0.07228645
000210 28 e3 89 bd 4a 88 7e bd b7 00 75 bd 43 7b a7 bd
       -0.0673278 -0.062141694 -0.059815135 -0.08177807
000220 df bf 7a bd 39 3a d4 bc 84 46 24 3d 75 95 1e 3d
       -0.06121814 -0.025906669 0.04010631 0.038716752
000230 8a 01 72 bd 1d 99 94 bd 21 71 18 be 88 95 bf bd
       -0.0590835 -0.072557665 -0.14886905 -0.09354693
000240 9b 0a 85 3c 8a ca 07 bd f5 35 f2 bd 8b 21 4c bd
       0.016240409 -0.03315214 -0.11826698 -0.049836677
000250 d5 11 26 bc 14 85 88 3c d2 07 25 be 45 d0 d9 bd
       -0.010136087 0.01666502 -0.16116264 -0.106354274
000260 31 5f 96 bc 4d 83 28 3d f4 05 74 3d ee 81 8c 3c
       -0.018355938 0.041140843 0.05957599 0.017151799
000270 39 0e c5 3c cf 6a 21 bd 0e 5c e4 bc 21 b6 3c 3c
       0.024054633 -0.0394085 -0.027875926 0.011518032
000280 91 08 c8 3b ff 96 85 3d e8 eb 5d bd 87 e7 42 bd
       0.006104537 0.06522941 -0.054180056 -0.047584083
000290 c1 fb 82 3d 2c d6 b3 bc 4a 03 d8 bc 8b 5b ad bb
       0.063956745 -0.021952711 -0.026368756 -0.005290454
0002a0 26 2c fc 3c 0d f5 89 3d e8 7c 78 3c ad 49 96 bd
       0.03078277 0.06736193 0.015166499 -0.07338271
0002b0 40 7b ee 3d 00 31 95 3b a4 8b 79 bd 94 a9 7b bb
       0.11644602 0.0045529604 -0.060924187 -0.0038400637
0002c0 bf c0 18 bc 10 ec 89 3c 85 08 af bb 4d a1 7e 3d
       -0.009323298 0.016836196 -0.005341592 0.062165547
0002d0 ab 54 48 3c 0e a0 a8 bd 04 3f 40 bd c7 1f d3 3b
       0.012227218 -0.08233653 -0.046935096 0.006442997
0002e0 cf c5 02 bd 58 47 50 3c 4e e9 31 bd 11 8d 36 bd
       -0.031926926 0.012712322 -0.043435387 -0.044568125
0002f0 22 dd 37 38 f5 34 53 3d 56 b5 d0 bd 99 52 36 bc
       4.3836546e-05 0.051564176 -0.10190837 -0.011128091
000300 e5 0d 56 bd e3 0e 41 bb d2 33 11 bc 96 f7 e6 bc
       -0.052259345 -0.0029458336 -0.008862453 -0.02819423
000310 cc 7b 8c bc 44 8b c6 3d 06 46 1e bd e0 5f ef bb
       -0.017148875 0.096945316 -0.038641 -0.0073051304
000320 d5 5b 73 bc 54 cd 61 3c ef 93 b2 3d 75 0b 2d 3d
       -0.014853437 0.013781864 0.08719622 0.042247254
000330 5a 6e b6 bb 5b 7f ea 3d 37 77 00 3d 6c 34 80 bc
       -0.005567354 0.114500724 0.031363692 -0.015649997
000340 06 9c a5 3d 31 69 61 bc ea d2 63 3d 59 0b bc 3d
       0.080864 -0.01375799 0.055621065 0.09181852
000350 39 ad 89 bc de f2 fa bc c2 a5 26 bd 36 99 4b 3d
       -0.016806232 -0.030633386 -0.040685423 0.04970666
000360 d8 bd 27 bd 1a 5a e1 3c b8 9e 71 3d 32 73 48 bd
       -0.040952533 0.027508784 0.058989257 -0.048937984
000370 71 14 3d 3b 05 75 08 bd 90 44 9a 3c 1e b8 c3 3d
       0.0028851295 -0.033314724 0.018831521 0.09556602
000380 7a e4 87 bd 04 c9 4a bd f5 14 08 bd 05 8d 97 ba
       -0.06635375 -0.04950811 -0.03322311 -0.0011562413
000390 a8 92 3b bd a6 32 99 bc 7c 4c c9 bb 7a 70 90 bd
       -0.04579416 -0.018700909 -0.006143151 -0.07052703
0003a0 81 e7 d6 bd 31 45 42 bd ac 70 fc bc fb 38 81 bd
       -0.104933746 -0.047429267 -0.030815445 -0.06309696
0003b0 03 08 72 3d b4 f1 7b 3a ee 02 78 bd 21 02 01 be
       0.05908967 0.0009610907 -0.06054967 -0.12598468
0003c0 05 3b 6f 3d c6 31 79 bc 8d f8 29 bc fe 6f 63 bd
       0.058405895 -0.015209621 -0.0103742005 -0.055526726
0003d0 0a 8a 4b bd 1e 45 a5 3c 15 2e e3 3c f3 d7 35 3b
       -0.04969219 0.02017456 0.027731935 0.0027747124
0003e0 c7 0c 64 be bf e5 99 3c 18 04 89 bd 3d cf 77 bc
       -0.22270499 0.01878631 -0.06690234 -0.015125093
0003f0 9b 21 41 3d 59 36 2a bd 66 52 0a bd 5f 0f 52 bc
       0.04715119 -0.041555736 -0.033769988 -0.012821048

conv1.bias f4 [32]
000000 65 f7 2f bd 45 e2 c1 3d de 8d 30 3c 72 fa 9b bd
       -0.042960543 0.094669856 0.010776011 -0.07616128
000010 67 ce 98 bd 6c 8a 12 bd 2f 9e a9 3b 24 be 02 3e
       -0.07461243 -0.03577654 0.0051763277 0.12767845
000020 96 38 04 bd 99 7e f0 3d 3a 3c 58 3d 4a 8e 03 3e
       -0.032280527 0.117428966 0.05279181 0.12847248
000030 04 84 92 bd c2 58 b8 3c 5a 9f c0 bd 57 1d b6 bd
       -0.07154086 0.02250326 -0.09405394 -0.08892315
000040 8e 8f 85 3d 21 41 05 3d 48 23 18 3e 98 49 16 bc
       0.065215215 0.032532815 0.14857209 -0.00917282
000050 db 32 e7 bc c6 91 6b bc 78 22 01 bd 43 73 b6 3d
       -0.028222492 -0.014378017 -0.031527013 0.08908703
000060 1c dc 91 3c 38 9c 70 3c 70 3e b1 3c 09 cc 01 3d
       0.017805152 0.014685683 0.021636218 0.031688724
000070 2e bf 79 bd 9c 43 bc bd 73 a0 0f bb c8 7c e6 bd
       -0.06097334 -0.09192583 -0.0021915704 -0.11254269
