Ratio_oneone/checkpoint_step_0225.pth (torch_old, 541535 bytes, 24 tensors)

momentum_buffer f4 [3]
0	0xbbda7e00	-0.0066678524
1	0xbd86979d	-0.06571887
2	0xbdfc0630	-0.12305868

momentum_buffer f4 [3]
0	0x3d8c716a	0.068575695
1	0xbd39883a	-0.04529593
2	0x3cfcd218	0.0308619

momentum_buffer f4 [32, 3, 5, 5]
0	0x3dbb6a47	0.0915113
1	0x3dd0c913	0.10194602
2	0x3dd5fc5f	0.104485266
3	0x3dd6cd17	0.104883365
4	0x3dea30ac	0.11435065
5	0x3db1b27e	0.08676623
6	0x3dcd2077	0.10015958
7	0x3de1b243	0.11020329
8	0x3ddcc72b	0.10780176
9	0x3defc0ed	0.117067195
10	0x3da38962	0.07985188
11	0x3dc58256	0.09644
12	0x3de44f9d	0.111479975
13	0x3ddf2cb9	0.10897202
14	0x3dea4229	0.114384
15	0x3da079a7	0.07835703
16	0x3dc2395c	0.09483597
17	0x3de3e7b6	0.1112818
18	0x3de693d3	0.11258664
19	0x3ded7518	0.115945995
20	0x3d9acb03	0.07558253
21	0x3db1ffea	0.0869139
22	0x3dcbbae5	0.09947757
23	0x3dd4289f	0.1035931
24	0x3de5a48c	0.112130255
25	0x3df3a10a	0.1189595
26	0x3e0352dd	0.12824579
27	0x3e02e0fc	0.12781137
28	0x3e011f02	0.12609485
29	0x3e0abf6c	0.13549584
30	0x3dea8e2b	0.11452898
31	0x3e00fb8b	0.12595956
32	0x3e0802c5	0.13282306
33	0x3e04c937	0.12967382
34	0x3e0d9f38	0.13830268
35	0x3dd80cfc	0.105493516
36	0x3df6605f	0.120301
37	0x3e07dc9e	0.13267753
38	0x3e03cb5f	0.12870549
39	0x3e095292	0.13410404
40	0x3dd39470	0.103310466
41	0x3df10b20	0.117697
42	0x3e06c516	0.1316112
43	0x3e06b5da	0.13155308
44	0x3e0b0552	0.13576248
45	0x3dcceaec	0.10005745
46	0x3de0a327	0.10968619
47	0x3df617f8	0.120162904
48	0x3dfe5525	0.12418584
49	0x3e075f43	0.13219933
50	0x3e03a25a	0.12854901
51	0x3e0e219b	0.13880007
52	0x3e0ee24e	0.13953516
53	0x3e0f3573	0.13985233
54	0x3e1980a0	0.14990473
55	0x3dfd9bb0	0.12383211
56	0x3e0d11c4	0.13776308
57	0x3e1686c9	0.14699854
58	0x3e15a3ca	0.14613262
59	0x3e1f0ece	0.15532991
60	0x3de918ca	0.11381681
61	0x3e06b68d	0.13155575
62	0x3e161f5e	0.14660403
63	0x3e155aa7	0.14585362
64	0x3e1b101a	0.15142861
65	0x3de512c4	0.1118522
66	0x3e04f620	0.12984514
67	0x3e165151	0.14679457
68	0x3e18e491	0.14930941
69	0x3e1d6337	0.15369879
70	0x3de438d3	0.11143651
71	0x3dfb7be1	0.122794874
72	0x3e0a96bc	0.13534063
73	0x3e10aa54	0.14127475
74	0x3e18e677	0.14931665
75	0xbcb8c247	-0.022553576
76	0xbcb25807	-0.02177049
77	0xbcaf2ccf	-0.021383671
78	0xbcb7c7f1	-0.022434207
79	0xbcb6316c	-0.022240363
80	0xbcb8a102	-0.022537712
81	0xbcb3eab7	-0.021962507
82	0xbcad38de	-0.02114528
83	0xbca75104	-0.020424373
84	0xbca39769	-0.019969659
85	0xbc8e8d7e	-0.017401453
86	0xbc929b3e	-0.01789629
87	0xbc923984	-0.017849691
88	0xbc991f3b	-0.01869165
89	0xbc9ea230	-0.019364446
90	0xbc5b0a79	-0.013369196
91	0xbc638797	-0.013887308
92	0xbc6de552	-0.014520006
93	0xbc8647f2	-0.016391728
94	0xbc929989	-0.017895477
95	0xbc5f7523	-0.013638767
96	0xbc7937d2	-0.0152110625
97	0xbc80222b	-0.015641293
98	0xbc8ee8f3	-0.017445063
99	0xbc95a104	-0.018265255
100	0xbcb7792b	-0.022396645
101	0xbcb9cea9	-0.022681551
102	0xbcb4f552	-0.022089634
103	0xbcbf759e	-0.023371514
104	0xbcbc8379	-0.02301191
105	0xbcb5aaa2	-0.02217609
106	0xbcb18efd	-0.021674627
107	0xbca923fd	-0.020647043
108	0xbcaad05a	-0.020851303
109	0xbcaefe3d	-0.021361465
110	0xbc8df61a	-0.017329264
111	0xbc8d5dc5	-0.017256627
112	0xbc90c3b3	-0.017671442
113	0xbca24a81	-0.019810917
114	0xbcadfe76	-0.0212395
115	0xbc54e7fb	-0.012994762
116	0xbc5c6cc2	-0.013453664
117	0xbc71f896	-0.01476874
118	0xbc90033b	-0.017579665
119	0xbc98bb25	-0.018643925
120	0xbc5e0ad0	-0.013552383
121	0xbc73f418	-0.014889739
122	0xbc8bd4df	-0.017069278
123	0xbc92b3ca	-0.017907996
124	0xbc9d5d6c	-0.019209586
125	0xbcd400c9	-0.02587928
126	0xbcd19416	-0.025583308
127	0xbccfacda	-0.025350977
128	0xbcd0a320	-0.025468409
129	0xbcd3c289	-0.025849598
130	0xbcdf7446	-0.027277123
131	0xbcdc6a38	-0.026906118
132	0xbcd4ffc3	-0.026000863
133	0xbcce2886	-0.025165807
134	0xbccd4f70	-0.025062293
135	0xbcc1460d	-0.023592973
136	0xbcca0e2b	-0.024664959
137	0xbcc75291	-0.024331363
138	0xbccc8b77	-0.024968846
139	0xbcd2d84e	-0.025737908
140	0xbca4ed1f	-0.0201326
141	0xbcb0d672	-0.02158663
142	0xbcbdcb56	-0.023168247
143	0xbcc7c4eb	-0.02438589
144	0xbcc80843	-0.024418002
145	0xbcab7f02	-0.020934585
146	0xbcc30993	-0.023808276
147	0xbcc9eca6	-0.024648976
148	0xbccdcc65	-0.025121877
149	0xbcd143ea	-0.02554508
150	0x3ce91dda	0.028456617
151	0x3cf935b5	0.030421117
152	0x3d0796a1	0.033102635
153	0x3d0d4fd9	0.034499977
154	0x3d09aec5	0.03361394
155	0x3d000529	0.03125492
156	0x3d04fe15	0.032468874
157	0x3d0cceaa	0.034376778
158	0x3d0c68ae	0.034279518
159	0x3d07303c	0.033004984
160	0x3d02b42a	0.0319101
161	0x3d024ed2	0.03181345
162	0x3d070bf5	0.032970387
163	0x3d062d4b	0.03275804
164	0x3d0129f2	0.031534143
165	0x3cf814cd	0.030283356
166	0x3cf37fe8	0.029724076
167	0x3cf8362e	0.030299272
168	0x3d005e0f	0.0313397
169	0x3cfe229c	0.031022362
170	0x3cffe17a	0.031235445
171	0x3cf9de69	0.030501561
172	0x3cfc108b	0.030769607
173	0x3d00d9f7	0.031457867
174	0x3d013bf4	0.031551316
175	0x3d0aff23	0.033934724
176	0x3d0fe487	0.03513005
177	0x3d1b01e7	0.03784361
178	0x3d217e3f	0.03942704
179	0x3d204f82	0.039138325
180	0x3d1328e6	0.035927676
181	0x3d1426c0	0.036169767
182	0x3d1f5682	0.03890086
183	0x3d227da5	0.039670605
184	0x3d1daadf	0.038493033
185	0x3d159a43	0.03652407
186	0x3d1112f8	0.03541848
187	0x3d1979e5	0.037469763
188	0x3d1c1cbf	0.038113352
189	0x3d17f5e6	0.03709974
190	0x3d0d8bfc	0.034557328
191	0x3d0b76c7	0.03404882
192	0x3d0e12c0	0.03468585
193	0x3d1514ea	0.0363969
194	0x3d14eaa8	0.0363566
195	0x3d12e6e1	0.035864715
196	0x3d1084f3	0.03528304
197	0x3d11d59b	0.0356041
198	0x3d167875	0.03673597
199	0x3d1a42da	0.03766141
200	0x3d064e18	0.03278932
201	0x3d0adb6f	0.033900674
202	0x3d16a820	0.03678143
203	0x3d1d922d	0.038469482
204	0x3d194293	0.037417006
205	0x3d113880	0.035454273
206	0x3d1199a3	0.03554691
207	0x3d1b43e5	0.037906546
208	0x3d20133c	0.039080843
209	0x3d18f460	0.03734243
210	0x3d11026c	0.0354027
211	0x3d0d63d5	0.034519035
212	0x3d1430c2	0.03617931
213	0x3d169ee9	0.036772642
214	0x3d0fd0ca	0.035111226
215	0x3d0acda3	0.033887517
216	0x3d03d59c	0.032186136
217	0x3d092ed1	0.033491913
218	0x3d113809	0.03545383
219	0x3d0db6f8	0.03459832
220	0x3d0e107c	0.03468369
221	0x3d092c76	0.033489667
222	0x3d095416	0.033527456
223	0x3d140f81	0.0361476
224	0x3d1305a9	0.03589407
225	0x3bfb1c70	0.007663302
226	0x3c163e05	0.00917006
227	0x3c02553d	0.007954893
228	0x3bd97282	0.006635965
229	0x3c042dc5	0.008067553
230	0x3c083e1c	0.008315589
231	0x3c1b0ec5	0.009463971
232	0x3c0f0407	0.008728988
233	0x3c067b36	0.008208087
234	0x3c13657d	0.008996365
235	0x3be8dfd4	0.0071067605
236	0x3c1d66d6	0.0096070375
237	0x3c20ac08	0.00980664
238	0x3c0cd30f	0.008595242
239	0x3c0d5405	0.008625989
240	0x3bc2c7b2	0.0059442157
241	0x3c069041	0.008213104
242	0x3c135e5a	0.008994663
243	0x3bfec0a4	0.0077744294
244	0x3c0a2b04	0.008433107
245	0x3b869707	0.0041073593
246	0x3bd23010	0.006414421
247	0x3bdff8a8	0.006835062
248	0x3ba7e64a	0.005123888
249	0x3becc072	0.0072250897
250	0x3ca09fd1	0.019607456
251	0x3cac05f7	0.020998938
252	0x3ca10a6f	0.019658295
253	0x3c95c81e	0.0182839
254	0x3ca0c5e0	0.019625604
255	0x3ca55069	0.020179944

momentum_buffer f4 [32]
0	0xbbe9f738	-0.0071400665
1	0x3c32446b	0.01088057
2	0x3c802976	0.01564477
3	0xbcb6cff3	-0.022315955
4	0x3b1fc790	0.0024380423
5	0x3bab5d39	0.005229619
6	0xbc8ff36f	-0.017572133
7	0x3c8f9a73	0.017529702
8	0x3c0d3dad	0.008620662
9	0xbb68462c	-0.0035442216
10	0xbb8a9ea2	-0.0042303363
11	0x3d63f714	0.055655554
12	0xbc57c8af	-0.013170405
13	0xbc2c8842	-0.010530533
14	0xbca3db8e	-0.020002153
15	0x3bfe4582	0.007759751
16	0xbd198162	-0.037476905
17	0x3b1f2f25	0.0024289575
18	0xbcdf941e	-0.027292307
19	0xbc78bca8	-0.015181698
20	0xbb93b9ba	-0.0045082243
21	0xbd6e8a78	-0.058237523
22	0xbc52f1dd	-0.0128750475
23	0xbaab58ba	-0.0013072707
24	0xbbc24724	-0.005928891
25	0x3d6ef694	0.058340624
26	0x3c0a337c	0.008435126
27	0xbb4ef9a4	-0.0031581903
28	0xbc3f1bf0	-0.011664376
29	0x3cd4f360	0.025994956
30	0x3b92c753	0.0044793277
31	0x3b8fdf24	0.004390614

momentum_buffer f4 [32, 32, 3, 3]
0	0x3b88ce37	0.0041749734
1	0x3b3af4f9	0.0028527363
2	0x3a88518d	0.0010400281
3	0x3ba0c20b	0.004905944
4	0x3ad6e1f2	0.0016394241
5	0x3a679e0f	0.0008835503
6	0x3bae3ee0	0.005317554
7	0x3b678916	0.0035329512
8	0x3af2f303	0.0018535558
9	0x3c1b3cce	0.009474946
10	0x3c1a93d7	0.009434662
11	0x3c12e54e	0.008965803
12	0x3c15b552	0.009137468
13	0x3c201a2c	0.009771865
14	0x3c215070	0.009845838
15	0x3c144375	0.009049286
16	0x3c1ee0f4	0.009697188
17	0x3c19a7a3	0.009378347
18	0xbb3bb25e	-0.002864025
19	0xbb2e578d	-0.0026602477
20	0xbb525486	-0.0032093837
21	0xbb5cb792	-0.0033678752
22	0xbb82b118	-0.0039883964
23	0xbb6780ea	-0.0035324642
24	0xbb95b635	-0.00456884
25	0xbb5cf231	-0.0033713693
26	0xbb776958	-0.0037751999
27	0x3c9f76c8	0.019465819
28	0x3ca91e5a	0.020644356
29	0x3c9f667a	0.019458044
30	0x3c9773a1	0.018487753
31	0x3ca16084	0.019699343
32	0x3c9360b9	0.017990457
33	0x3c8de22e	0.017319765
34	0x3c9630a7	0.018333746
35	0x3c8dc2f8	0.017304882
36	0xbb54923b	-0.0032435793
37	0xbb760998	-0.003754234
38	0xbb8507ad	-0.004059753
39	0xbb52b7fc	-0.003215312
40	0xbb918a61	-0.004441545
41	0xbb930acb	-0.0044873706
42	0xbb3cc5a8	-0.0028804336
43	0xbb6fd2c2	-0.0036594127
44	0xbb93926a	-0.004503538
45	0x3c5b58c6	0.013387864
46	0x3c4f0ebe	0.012637792
47	0x3c54eab7	0.0129954135
48	0x3c4a605d	0.012352076
49	0x3c561bd5	0.013068159
50	0x3c4a9f29	0.012367048
51	0x3c65ed02	0.014033558
52	0x3c4ceed2	0.012508111
53	0x3c46ab15	0.01212575
54	0xbcc1c149	-0.023651736
55	0xbcd8ce81	-0.026465656
56	0xbcc7f5ee	-0.02440926
57	0xbcd33680	-0.025782824
58	0xbcd7f776	-0.026363116
59	0xbce09bfb	-0.027418127
60	0xbccc6aa3	-0.024953192
61	0xbcd8fe80	-0.026488543
62	0xbcd90e67	-0.026496125
63	0x3c69943c	0.014256533
64	0x3c7f17bb	0.015569623
65	0x3c6496cf	0.013951971
66	0x3c5ed486	0.013600474
67	0x3c72a2cb	0.014809321
68	0x3c68314c	0.01417191
69	0x3c542646	0.012948578
70	0x3c5b4646	0.013383454
71	0x3c49db46	0.012320345
72	0xbbcef206	-0.0063154725
73	0xbbdfcc5e	-0.0068297824
74	0xbbde02fb	-0.0067752576
75	0xbbe447bc	-0.006966559
76	0xbbfac195	-0.0076524713
77	0xbbf36338	-0.0074275993
78	0xbbdf165a	-0.0068080844
79	0xbc041387	-0.008061296
80	0xbc09cf9c	-0.008411314
81	0xba8a98fe	-0.001057416
82	0xba9733c6	-0.0011535815
83	0xbb198f96	-0.002343153
84	0xbb1971a4	-0.0023413682
85	0xbb1d46bb	-0.0023998457
86	0xbb3c4e44	-0.0028733173
87	0xbb1af880	-0.0023646653
88	0xbaf9e7a2	-0.0019066224
89	0xbb41d919	-0.0029578863
90	0x3b6676b2	0.0035165963
91	0x3b80b50f	0.003927834
92	0x3b18c8dd	0.0023313083
93	0x3ba96aa8	0.005170185
94	0x3b864244	0.004097255
95	0x3b3b068a	0.0028537833
96	0x3b9625f0	0.004582159
97	0x3b8f18ed	0.004366985
98	0x3b4aaad9	0.0030924587
99	0x3c04defb	0.008109803
100	0x3c171c2b	0.009223024
101	0x3c0c06bc	0.0085465275
102	0x3c039cf2	0.008033024
103	0x3c066ea4	0.00820509
104	0x3c05464a	0.008134434
105	0x3be85d21	0.00709118
106	0x3c0710c9	0.008243748
107	0x3c0a0616	0.008424303
108	0xbb37f5be	-0.0028070058
109	0xbb1c6d97	-0.0023869032
110	0xbb421639	-0.0029615297
111	0xbb22d8ec	-0.0024848534
112	0xbb422736	-0.0029625422
113	0xbb367a02	-0.0027843718
114	0xbb275d3a	-0.0025537745
115	0xbb35f2b8	-0.002776308
116	0xbb6efae7	-0.0036465467
117	0x3ca69bdb	0.02033799
118	0x3ca55dd8	0.02018635
119	0x3c9abba3	0.0188883
120	0x3c9accc9	0.018896477
121	0x3c9c1599	0.019053267
122	0x3c95fa7f	0.018307922
123	0x3c83f0a8	0.016105965
124	0x3c913f33	0.017730331
125	0x3c8b3b19	0.016995953
126	0x3ca9ed33	0.020742988
127	0x3cad398b	0.021145603
128	0x3ca0a459	0.019609617
129	0x3ca71abc	0.02039849
130	0x3cb152a6	0.021645855
131	0x3ca5df9b	0.020248225
132	0x3c9a7833	0.018856144
133	0x3ca2be7a	0.019866217
134	0x3c98952c	0.018625818
135	0x39de088d	0.0004234951
136	0x3a7c7e89	0.00096318923
137	0x3a204282	0.0006113426
138	0x399211a8	0.00027860445
139	0x3ab0af23	0.0013479929
140	0x395449ba	0.00020245361
141	0x39a9d817	0.0003239519
142	0x391d16eb	0.00014981224
143	0x3a9f88fd	0.0012171563
144	0x3c562261	0.01306972
145	0x3c38a8b9	0.011270695
146	0x3c23d969	0.010000565
147	0x3c467701	0.012113334
148	0x3c492449	0.012276717
149	0x3c165d6d	0.009177548
150	0x3c3ea35c	0.011635628
151	0x3c33c65d	0.010972586
152	0x3c07e6dc	0.008294787
153	0xba8c3a59	-0.0010698541
154	0xba55ab55	-0.00081508356
155	0xbabf7a00	-0.0014608502
156	0xbb1fc2d7	-0.0024377608
157	0xbaf520f7	-0.0018701841
158	0xbb57c1ec	-0.0032921983
159	0xbb13b47d	-0.0022538
160	0xbae7e14a	-0.0017691043
161	0xbb71e57b	-0.0036910463
162	0x3caebb0f	0.02132943
163	0x3cb1d11b	0.021706155
164	0x3ca8382e	0.020534601
165	0x3ca98677	0.020694
166	0x3cb51f97	0.02210979
167	0x3ca34efd	0.019935125
168	0x3c9a9e03	0.018874174
169	0x3ca20838	0.01977931
170	0x3c9b6155	0.01896731
171	0xbc3713e6	-0.011174178
172	0xbc4646d1	-0.012101845
173	0xbc3834f0	-0.01124309
174	0xbc49601c	-0.012290981
175	0xbc48fcba	-0.012267286
176	0xbc344a00	-0.011003971
177	0xbc47a466	-0.012185192
178	0xbc4b0c57	-0.012393079
179	0xbc4835de	-0.012219874
180	0xbc34f772	-0.011045324
181	0xbc440b34	-0.011965562
182	0xbc41df8c	-0.011833083
183	0xbc3846a0	-0.011247307
184	0xbc5d3289	-0.013500818
185	0xbc65c052	-0.0140229035
186	0xbc41ed61	-0.011836381
187	0xbc62600a	-0.013816843
188	0xbc570ae6	-0.013125157
189	0x3c3b0c3f	0.011416494
190	0x3c25a83f	0.010110914
191	0x3c2f24c8	0.010689922
192	0x3c461df5	0.012092103
193	0x3c3c3182	0.011486413
194	0x3c395e17	0.011313937
195	0x3c4ff660	0.012693018
196	0x3c433390	0.011914149
197	0x3c40eacb	0.011774729
198	0x3ac5c8c8	0.0015089745
199	0x3b22be05	0.0024832499
200	0x3ae39c0c	0.0017365231
201	0x3a93df2e	0.0011281723
202	0x3ad05d1f	0.0015896893
203	0x3a4704bb	0.00075919525
204	0x3a9ecbb5	0.0012115153
205	0x3a2ec2c5	0.0006666596
206	0xb7923c23	-1.743256e-05
207	0xbc8fd333	-0.017556762
208	0xbca0f156	-0.019646328
209	0xbc9f3688	-0.019435182
210	0xbc9deed8	-0.019278929
211	0xbcae6c52	-0.021291886
212	0xbca7b882	-0.020473722
213	0xbca2a691	-0.019854816
214	0xbcaeb4a1	-0.021326365
215	0xbcae0c69	-0.021246152
216	0xba512440	-0.0007978119
217	0xba91ccad	-0.001112362
218	0xb8f2dcb4	-0.000115805684
219	0xba26fd97	-0.00063701853
220	0xba91a09e	-0.001111049
221	0xba8e4121	-0.001085315
222	0xbab250cd	-0.0013604403
223	0xba9c0133	-0.0011902213
224	0xba03c728	-0.000502693
225	0x3bbf6e47	0.0058420035
226	0x3ba55986	0.0050460724
227	0x3baf6043	0.0053520515
228	0x3badb15d	0.0053006844
229	0x3b780bd3	0.0037848845
230	0x3b8573b1	0.0040726294
231	0x3baf09c2	0.0053417394
232	0x3b900b73	0.004395896
233	0x3b9b1486	0.004732671
234	0xbbc03dd8	-0.0058667473
235	0xbbaf5e45	-0.005351814
236	0xbba5df80	-0.0050620437
237	0xbbacfff0	-0.0052795336
238	0xbbc25645	-0.0059306943
239	0xbbc70bfd	-0.006074427
240	0xbbcfc476	-0.0063405586
241	0xbbbd9bd3	-0.005786398
242	0xbbb22fee	-0.0054378426
243	0x3c9d1744	0.019176133
244	0x3ca18bbb	0.019719949
245	0x3c99fd82	0.01879764
246	0x3c91b491	0.017786296
247	0x3c99c185	0.018769035
248	0x3c8bb563	0.017054265
249	0x3c83fbfb	0.016111365
250	0x3c896649	0.016772406
251	0x3c820ee6	0.015876245
252	0x3bad3ced	0.005286804
253	0x3bd37ff3	0.0064544617
254	0x3bda4f5e	0.0066622933
255	0x3bd62cdc	0.0065361094

momentum_buffer f4 [32]
0	0x3c8cbc05	0.017179498
1	0xbc08146e	-0.008305652
2	0x39361e20	0.00017368095
3	0x3b314708	0.0027050395
4	0x39ee49ec	0.00045449974
5	0x3b6c8927	0.0036092491
6	0xbb24212f	-0.0025044193
7	0xbb419df7	-0.0029543617
8	0x3a2491e7	0.00062778447
9	0xbb00f26e	-0.001967575
10	0xbc91e5dd	-0.017809803
11	0xbb840d73	-0.0040299236
12	0xbc96bc5a	-0.01840036
13	0xbc1a9be9	-0.009436586
14	0xb9c6500a	-0.00037825137
15	0x3affc0e6	0.0019512444
16	0xbc796fa7	-0.015224374
17	0xbc5cb8c9	-0.013471791
18	0xbc0d3dd1	-0.008620695
19	0x3b5e836e	0.003395285
20	0xbcb6748c	-0.02227237
21	0xba7bbedc	-0.00096033304
22	0x3ae5c1c2	0.0017529058
23	0x394cebe0	0.00019542826
24	0xbb139c36	-0.002252353
25	0xbcb610c3	-0.02222479
26	0xbab666a2	-0.0013916085
27	0x3bca6881	0.0061770086
28	0xbb8d309c	-0.004308773
29	0x3c626893	0.013818878
30	0x3c5c3d01	0.013442279
31	0xbaf65f32	-0.0018796681

momentum_buffer f4 [64, 32, 3, 3]
0	0x3a6ace36	0.00089571194
1	0x3a193818	0.00058448454
2	0xb76ca570	-1.4105215e-05
3	0x3a27a961	0.0006395784
4	0x3a5be881	0.0008388833
5	0x39bee6fc	0.0003641172
6	0x3a4958d3	0.00076807773
7	0x3a8c637b	0.00107108
8	0x3a773bad	0.00094311946
9	0x392a1fe8	0.0001622435
10	0xb8d73c6c	-0.00010263253
11	0xb85d6086	-5.27804e-05
12	0xb9801908	-0.00024432712
13	0x391e6f83	0.00015109596
14	0x3a18faf6	0.0005835736
15	0x3927d900	0.000160072
16	0x38ebd75a	0.000112457856
17	0x3907379a	0.00012895316
18	0x3a5b86d3	0.00083742774
19	0x3a1f8327	0.0006084912
20	0x3a3c9ab5	0.0007194684
21	0x3a8dc463	0.0010815974
22	0x3a948182	0.00113301
23	0x3a12d514	0.0005601209
24	0x39f673a3	0.00047006932
25	0x3a7536ea	0.0009354191
26	0x3a9db8b9	0.0012033201
27	0xb9995010	-0.00029242085
28	0xb891ca82	-6.951859e-05
29	0xb9884491	-0.00025991027
30	0xb9542c9f	-0.00020234518
31	0xb8cbd827	-9.720056e-05
32	0xb8242fda	-3.9145212e-05
33	0x38f8b74c	0.00011859703
34	0xb8f6463f	-0.000117432784
35	0xb8e246da	-0.00010789717
36	0x39398954	0.00017694134
37	0x3a40416c	0.00073339674
38	0x398852e9	0.00026001714
39	0x393f14d8	0.00018222944
40	0xb89389b7	-7.0351576e-05
41	0x397e7ccb	0.00024269817
42	0x3948b9d4	0.00019142713
43	0xb94e0343	-0.00019646906
44	0xb954d88c	-0.00020298566
45	0x381f4191	3.7969618e-05
46	0xb9f18748	-0.00046067894
47	0xb7c5d870	-2.3585017e-05
48	0xb89c2705	-7.4459276e-05
49	0xba2cb7c1	-0.0006588661
50	0xb981223a	-0.00024630298
51	0x3973ad10	0.00023238757
52	0x394ebd00	0.00019716099
53	0xb8b069f6	-8.412071e-05
54	0xb9b9465b	-0.0003533837
55	0xb97a4943	-0.0002386915
56	0xba14dc1f	-0.00056785526
57	0x38e5a34d	0.00010949988
58	0xba1f4524	-0.00060756714
59	0xba06122c	-0.0005114402
60	0x38352982	4.319242e-05
61	0xb9e04001	-0.00042772296
62	0x393bf586	0.00017925174
63	0xb8bae2a6	-8.911388e-05
64	0xba277ef0	-0.00063894596
65	0xb9a8aeb6	-0.00032173627
66	0xba6d3fa7	-0.00090503175
67	0xb9e30c73	-0.0004330609
68	0xb9a27838	-0.00030988618
69	0xb9bdb96c	-0.0003618704
70	0xba3c49ab	-0.0007182608
71	0xba176511	-0.0005775253
72	0x39146ade	0.00014154191
73	0xb8c83036	-9.545723e-05
74	0x38d958db	0.00010363917
75	0xb9629c40	-0.00021611247
76	0x39ddea1a	0.00042326824
77	0x38fb5a62	0.00011985448
78	0x3a0cece6	0.0005375877
79	0x3a2befd9	0.00065588724
80	0x3948c81d	0.00019148034
81	0x3a2a63a2	0.0006499832
82	0x39e82193	0.00044275503
83	0x3905ff39	0.00012778946
84	0x38c28790	9.275891e-05
85	0x39ab0afd	0.00032623849
86	0x38bf7104	9.1286405e-05
87	0x3a43951e	0.000746088
88	0x39adf172	0.00033177022
89	0x3a2e81b2	0.00066568993
90	0xb9e8d6a3	-0.00044410405
91	0x392a8ba2	0.0001626448
92	0xb7a1c888	-1.9286075e-05
93	0x3a209ce3	0.00061268936
94	0x3822ed0b	3.8844573e-05
95	0x3899710a	7.316664e-05
96	0x3a01c5ba	0.0004950423
97	0xb9cf5522	-0.00039545546
98	0x39f2214e	0.0004618265
99	0xba21dd99	-0.0006174683
100	0x36a19c06	4.8163374e-06
101	0x3a1a6d0b	0.00058908825
102	0xb97ceb53	-0.00024120258
103	0x38fad52f	0.000119606375
104	0xb9943e54	-0.00028275198
105	0xb8a036b7	-7.639586e-05
106	0xb89ed37e	-7.5734206e-05
107	0x39e819c1	0.00044269676
108	0x3867d55d	5.52734e-05
109	0x39a23251	0.00030936536
110	0xb9b617e0	-0.00034731533
111	0x3a16fee6	0.0005760029
112	0x37b48c55	2.152302e-05
113	0xb9768325	-0.00023509243
114	0x39fd543b	0.00048318677
115	0x3936ee28	0.00017445593
116	0x3a0a7d30	0.00052829366
117	0x39793f34	0.00023770035
118	0xba37bebb	-0.0007009317
119	0x39e9c62c	0.00044588873
120	0x399d967c	0.00030057493
121	0x3901be20	0.00012373226
122	0x38e3c9fe	0.000108618275
123	0x39d27918	0.00040144543
124	0xb8a66c9d	-7.9357276e-05
125	0x38afb1e2	8.3777835e-05
126	0xb99e7908	-0.00030226284
127	0xb969a3c6	-0.00022281622
128	0x3848578a	4.7765243e-05
129	0x3a124ded	0.000558107
130	0x3738568b	1.09874045e-05
131	0xb98566e1	-0.00025444388
132	0x36c686e5	5.9165636e-06
133	0xb5ceb857	-1.5401846e-06
134	0xb9e39fdc	-0.00043415918
135	0x390f2b6b	0.00013653717
136	0xb943e2f2	-0.00018681193
137	0xb930e36c	-0.00016869389
138	0xb9b5c778	-0.00034671626
139	0xb82a1c0a	-4.0557272e-05
140	0xb999a03a	-0.00029301812
141	0x39cd2f26	0.00039135775
142	0xb993db72	-0.00028201524
143	0x369a0597	4.5902084e-06
144	0x3a6dca3c	0.0009070968
145	0x391dc894	0.00015047408
146	0x3a54cdc9	0.00081178226
147	0x3a60ff23	0.000858294
148	0x3a61f401	0.0008619428
149	0x3a5d7118	0.0008447333
150	0x3a2047c7	0.0006114211
151	0x3a716cd5	0.00092096376
152	0x3a43a512	0.0007463257
153	0x39ff21be	0.0004866253
154	0x3a59b0ea	0.00083042553
155	0x380f37a1	3.4145665e-05
156	0xb80fd59d	-3.42928e-05
157	0x3a009ed3	0.0004906479
158	0x39ba9ba7	0.00035592655
159	0xb926486e	-0.00015857976
160	0x39e4ddfd	0.00043652943
161	0x38b0431c	8.404834e-05
162	0xb987f4ed	-0.0002593169
163	0xba2b8ee8	-0.0006544427
164	0x38b71f1b	8.731914e-05
165	0xb95b065c	-0.00020887837
166	0xb9f40c46	-0.0004654845
167	0xb955b227	-0.0002037963
168	0x3a09bdcd	0.0005254418
169	0x389b6fa2	7.411769e-05
170	0xb78a326d	-1.6474363e-05
171	0x39b4e394	0.00034501834
172	0xb9a7365a	-0.00031893217
173	0xb7ec4c3b	-2.816889e-05
174	0x3a684ef6	0.0008861864
175	0x3909af94	0.00013130746
176	0xb8b9f3fb	-8.866932e-05
177	0x372c6434	1.0275329e-05
178	0xb95a71d4	-0.00020832504
179	0x39bc8695	0.00035958426
180	0x3a134e24	0.0005619249
181	0x386885b3	5.5437627e-05
182	0xb962c78b	-0.00021627375
183	0x3a756cf2	0.00093622424
184	0x397019c6	0.00022897785
185	0x397d859e	0.00024177736
186	0x3a6151ee	0.00085952773
187	0x39bc6f1b	0.00035940934
188	0x395355b4	0.00020154455
189	0xb98908f2	-0.0002613734
190	0x38cb807f	9.7037286e-05
191	0x39bdec01	0.00036224726
192	0x3765d7ea	1.3699735e-05
193	0x39a1e9b4	0.00030882435
194	0x39f9fa4b	0.00047679464
195	0x3a265f42	0.0006346592
196	0x395562fc	0.00020350137
197	0x3a41b018	0.0007388606
198	0x393b7555	0.0001787742
199	0x3a337f4c	0.0006847277
200	0xb879fbb4	-5.9600643e-05
201	0x39f82e3b	0.0004733669
202	0x39ef247f	0.00045612824
203	0xb8ae3888	-8.307496e-05
204	0xb9bd5709	-0.00036113735
205	0xb8006453	-3.0611012e-05
206	0xb92e01fc	-0.00016594672
207	0x388dcc9e	6.761517e-05
208	0xb91be5f9	-0.00014867623
209	0x3957d55d	0.00020583482
210	0xb8c7c27b	-9.525284e-05
211	0xb98c5707	-0.0002676772
212	0x39fa4d2c	0.00047741213
213	0xb87586c4	-5.8538062e-05
214	0xb92eae14	-0.00016658782
215	0x3912f07e	0.00014013235
216	0xb932257f	-0.00016989371
217	0x3773cc64	1.4531517e-05
218	0x3a10df97	0.00055264815
219	0xb96f74b6	-0.00022836294
220	0x397e9059	0.00024277101
221	0xb8e95153	-0.000111254536
222	0xb9cc04fc	-0.00038913626
223	0x38a97445	8.080205e-05
224	0xb8e82f4a	-0.0001107143
225	0x3936899d	0.00017408138
226	0x3a313da2	0.0006761198
227	0x390ab32c	0.00013227452
228	0x39dc4523	0.0004201318
229	0x39cb0522	0.00038723001
230	0x394e3eaa	0.00019669035
231	0x399ff999	0.00030512808
232	0x3a257dc7	0.0006312993
233	0x3981771f	0.0002469355
234	0xb98a57a6	-0.00026386714
235	0xb9a93682	-0.00032274803
236	0xba89aaaa	-0.0010503132
237	0xb9e08018	-0.00042820047
238	0xb926ba47	-0.00015900387
239	0xb9d315ff	-0.00040261445
240	0xb9e7f7d2	-0.00044244394
241	0xb9271c38	-0.00015936873
242	0xb9890221	-0.00026132262
243	0x3861e684	5.3858865e-05
244	0x39c77b46	0.00038048084
245	0xb9358ae2	-0.00017313243
246	0xb9373666	-0.00017472505
247	0x3a026899	0.0004974693
248	0xb9332163	-0.00017083208
249	0x399c90ab	0.00029862425
250	0x38b7ac73	8.758241e-05
251	0xb91cd51c	-0.00014956709
252	0xb991fe6a	-0.00027846108
253	0x392012d1	0.00015265799
254	0x38cbdd3d	9.721003e-05
255	0xb898d8b1	-7.288287e-05

momentum_buffer f4 [64]
0	0xb920ed68	-0.0001534723
1	0xbc1d9ce9	-0.00961993
2	0x392b08ac	0.00016311061
3	0xb9e006f0	-0.00042729778
4	0x3a8d642a	0.0010787298
5	0xb977b564	-0.00023623329
6	0x3ac7ebe5	0.0015252797
7	0xbb01d997	-0.0019813532
8	0xbb33f221	-0.0027457552
9	0x39ac4d1c	0.00032863847
10	0xbaa9e68a	-0.0012962383
11	0xbb297986	-0.0025859787
12	0x3b520c40	0.0032050759
13	0x39877b70	0.00025841175
14	0xbb9b0432	-0.0047307247
15	0x3a621a42	0.00086251285
16	0xba640f5a	-0.00086997973
17	0xbaf8f2b1	-0.0018993226
18	0xb9814fc7	-0.00024664236
19	0xbb86ae3e	-0.0041101268
20	0x3aa7c82e	0.0012800747
21	0xbac996e6	-0.0015380054
22	0x3b8c45a7	0.004280764
23	0xbbc7315d	-0.0060788826
24	0xba49c176	-0.00076963694
25	0xb85415d5	-5.056507e-05
26	0x383819e8	4.3893146e-05
27	0xbb9e37c9	-0.0048284275
28	0x3a66bad0	0.0008801641
29	0x3baf8499	0.005356383
30	0xbabb4ed2	-0.0014290458
31	0x39879da0	0.00025866646
32	0xbab12ad5	-0.0013516793
33	0x3b36dd73	0.002790299
34	0xb8a9e351	-8.100889e-05
35	0xbb82fc77	-0.0039973813
36	0x38c1267e	9.210127e-05
37	0x39b0fb0d	0.00033756383
38	0xba22f013	-0.00062155834
39	0x3a80c68a	0.0009824794
40	0x39793644	0.00023766706
41	0xbc032f88	-0.008006938
42	0x396b5397	0.00022442486
43	0x39b4513f	0.00034392808
44	0x3af728ab	0.0018856724
45	0x3a06d5cf	0.00051435543
46	0xbb930344	-0.0044864733
47	0xba0f82d3	-0.00054745114
48	0x3b65d1ef	0.0035067757
49	0xbbef364f	-0.0073001753
50	0xbbe7264a	-0.007054125
51	0x3ab9a5de	0.0014163812
52	0x38fdb875	0.00012098338
53	0x3ab97a5c	0.0014150846
54	0xbb19626c	-0.0023404611
55	0xbbd8836c	-0.0066074636
56	0xbb227603	-0.0024789579
57	0x3b568023	0.0032730184
58	0x3a0536eb	0.0005081731
59	0xb8fb58d6	-0.0001198516
60	0xbba70620	-0.0050971657
61	0xbc262bca	-0.010142276
62	0xb8d17d05	-9.989183e-05
63	0xbc2fe097	-0.010734699

momentum_buffer f4 [64, 64, 3, 3]
0	0x3a2f773d	0.0006693488
1	0x38a06068	7.6473516e-05
2	0xb8dc16b2	-0.00010494645
3	0xb8e28cde	-0.00010802758
4	0xb81ffe08	-3.814514e-05
5	0x393f1600	0.00018223375
6	0x38fcfdf8	0.00012063602
7	0x399f749a	0.00030413718
8	0x39a36904	0.00031168025
9	0xba8ddcc2	-0.0010823237
10	0xbacbecee	-0.0015558281
11	0xbadaff39	-0.0016708142
12	0xba9b838a	-0.0011864763
13	0xbadb2fef	-0.0016722659
14	0xbaa5cc13	-0.001264932
15	0xbac02c31	-0.0014661608
16	0xbab86c19	-0.0014070302
17	0xbaae00e7	-0.0013275415
18	0xb94e5c8c	-0.00019680167
19	0x395f2fb0	0.00021284702
20	0x399c58c0	0.00029820763
21	0xb90d86ec	-0.0001349707
22	0xba032de3	-0.0005004091
23	0x38a50fa0	7.8707235e-05
24	0xb9c4ce3e	-0.00037537696
25	0xb871a86c	-5.7615733e-05
26	0x3a0cd790	0.00053726975
27	0x39d23db3	0.0004010029
28	0x39e9e620	0.0004461268
29	0x3a522079	0.0008015703
30	0x3a186dc3	0.00058146956
31	0x3aa16b0b	0.0012315226
32	0x3aaa92d4	0.0013013729
33	0x3a2b6ef4	0.00065396656
34	0x3a57aa91	0.00082270155
35	0x3a79c0ca	0.0009527324
36	0xb97895ac	-0.0002370688
37	0xba3fee2f	-0.0007321564
38	0xb9f9b0dd	-0.00047624754
39	0xb89ce167	-7.480644e-05
40	0xba4cf59b	-0.00078185805
41	0xb9f3a26f	-0.00046469594
42	0x39a71490	0.00031868042
43	0xb935885a	-0.000173123
44	0x38bce8a6	9.007873e-05
45	0x39dd87ea	0.0004225367
46	0xb9236760	-0.00015583402
47	0x38aa8682	8.131286e-05
48	0xb9477b56	-0.00019024065
49	0xb9983cb2	-0.0002903692
50	0x381a1489	3.6735586e-05
51	0xb8c8ae73	-9.569237e-05
52	0xb95144c1	-0.00019957406
53	0x39ce4d47	0.00039348958
54	0xb889e5b4	-6.5754546e-05
55	0xb9a3f809	-0.00031274583
56	0xb9bccd52	-0.0003601113
57	0x39c232cd	0.00037040413
58	0x38df331e	0.0001064299
59	0x39b7e639	0.0003507601
60	0x39ae3b22	0.00033231924
61	0x3a09807a	0.000524528
62	0x39954966	0.0002847418
63	0x3b7dbe10	0.0038718022
64	0x3b9a1f56	0.0047034426
65	0x3b937a20	0.0045006424
66	0x3bbd9d3d	0.0057865665
67	0x3bbd2cc9	0.005773161
68	0x3bb78b19	0.0056012985
69	0x3bcca341	0.0062450473
70	0x3bce0827	0.006287593
71	0x3bbad288	0.005701367
72	0xbabe9e2d	-0.001454299
73	0xbab2070c	-0.0013582422
74	0xba97deee	-0.0011586824
75	0xbab55470	-0.0013834368
76	0xba6a47c8	-0.0008937088
77	0xbaa4fe76	-0.0012588042
78	0xbaa48b1d	-0.0012553666
79	0xbaabd72e	-0.0013110393
80	0xba9e5ac0	-0.0012081489
81	0xba034cf2	-0.0005008719
82	0x38a54dcc	7.882304e-05
83	0xba3170bb	-0.00067688123
84	0xba41454f	-0.00073726935
85	0xb9d60f75	-0.00040828777
86	0xb9b3c773	-0.00034290142
87	0x38ddb31a	0.000105714615
88	0x393788db	0.00017503223
89	0xb894d4fb	-7.096861e-05
90	0x3a4fe67c	0.0007930768
91	0x3a117f52	0.0005550283
92	0x3a199b14	0.0005859595
93	0x3a60ef38	0.0008580568
94	0x3a8490c8	0.0010113949
95	0x3a40e705	0.00073586433
96	0x3b1949be	0.00233899
97	0x3aecf112	0.0018077216
98	0x3ad94960	0.0016577654
99	0xbae07baa	-0.0017126699
100	0xbb17d5d9	-0.0023168235
101	0xbb050d65	-0.0020302173
102	0xbaa91e3c	-0.0012902687
103	0xbacfb044	-0.0015845378
104	0xbb214372	-0.002460685
105	0xba26c5bd	-0.0006361863
106	0xba9b9d73	-0.0011872485
107	0xbad91c71	-0.0016564262
108	0xba4baa65	-0.0007769226
109	0xbacb86d5	-0.0015527854
110	0xbaf097be	-0.001835577
111	0xb9aba001	-0.00032734874
112	0xbae6ca1e	-0.0017607843
113	0xbae5d454	-0.0017534592
114	0xb98a2efe	-0.00026356423
115	0xb9836e5e	-0.00025068497
116	0xba9f8cb0	-0.0012172665
117	0x3b179a88	0.002313288
118	0x3b139e45	0.0022524756
119	0x3af3322b	0.001855438
120	0x3b386a96	0.0028139702
121	0x3b211380	0.0024578273
122	0x3b2bb792	0.0026201946
123	0x3b4536b0	0.003009241
124	0x3b1d41c4	0.0023995498
125	0x3b200a1f	0.0024420095
126	0xba632486	-0.0008664805
127	0xba03216b	-0.0005002233
128	0xb9d54129	-0.00040675074
129	0xb98a3c67	-0.00026366414
130	0x38a9bc39	8.093607e-05
131	0x3956c8ec	0.0002048348
132	0x391bfde9	0.00014876541
133	0xb93170ca	-0.00016922053
134	0x38f3a3e2	0.000116176685
135	0x398335fb	0.00025026486
136	0xb90ae8a2	-0.00013247368
137	0xba08730f	-0.00052051333
138	0x3a13a09c	0.00056315376
139	0xba00df49	-0.00049160846
140	0x39c54016	0.00037622516
141	0x3a52b488	0.00080377655
142	0x3a97b3fe	0.0011574028
143	0x3aa53c45	0.0012606463
144	0xba8e5e46	-0.0010861836
145	0xba91e78f	-0.0011131632
146	0xba87c3f7	-0.0010358085
147	0xba952977	-0.0011380155
148	0xbaa8ea01	-0.0012887121
149	0xba848ed6	-0.0010113369
150	0xba9654d0	-0.0011469368
151	0xba5dbb32	-0.0008458375
152	0xba9915af	-0.0011679436
153	0xba86f4a8	-0.0010296302
154	0xbadacb46	-0.001669266
155	0xbae28d47	-0.0017284536
156	0xbabf6dbb	-0.0014604846
157	0xbaa2e60d	-0.001242818
158	0xba8e2a71	-0.0010846389
159	0xbabe6a8e	-0.0014527605
160	0xba9bdf6f	-0.001189215
161	0xba7fc2b9	-0.0009756494
162	0x3a546224	0.00081017823
163	0x3ab2bd72	0.0013636781
164	0x3a86d1ff	0.0010285972
165	0x3ab632e6	0.0013900667
166	0x3a9d1592	0.0011984578
167	0x3aafd0f4	0.0013413713
168	0x3ace4c90	0.001573937
169	0x3b0321cd	0.002000916
170	0x3b055a39	0.0020347966
171	0x3ab42106	0.0013742752
172	0x3b06cfd0	0.0020570643
173	0x3b1d11a1	0.0023966806
174	0x3b19781c	0.0023417538
175	0x3b36397b	0.0027805257
176	0x3b3ee14b	0.0029125984
177	0x3b26fc4f	0.0025479977
178	0x3b3d6e68	0.0028904919
179	0x3b38d56f	0.0028203388
180	0x3af991aa	0.0019040604
181	0x3b203912	0.002444808
182	0x3ae5b7e0	0.0017526112
183	0x3b32d8e7	0.0027289928
184	0x3b5d188f	0.0033736562
185	0x3b4a8c87	0.0030906515
186	0x3b56a840	0.0032754093
187	0x3b6bfa65	0.00360074
188	0x3b615876	0.0034385002
189	0x3b0fd915	0.002194946
190	0x3af5cb4b	0.0018752603
191	0x3b087ab3	0.0020825088
192	0x3b3173c9	0.002707707
193	0x3b44a303	0.003000439
194	0x3b3ed63c	0.0029119393
195	0x3b79f504	0.0038140425
196	0x3b671867	0.0035262348
197	0x3b77e859	0.00378277
198	0x3ab277f0	0.0013616066
199	0x3a78b70a	0.0009487724
200	0x3a9e9c09	0.0012100945
201	0x3aba852b	0.0014230361
202	0x3ac12b7a	0.0014737688
203	0x3a930678	0.0011217138
204	0x3acce23b	0.0015631387
205	0x3aed13e7	0.0018087596
206	0x3a8a6436	0.001055843
207	0xbabc6341	-0.0014372842
208	0xba98cf9a	-0.001165855
209	0xba99cd25	-0.0011734111
210	0xba71d140	-0.0009224601
211	0xb80d9916	-3.3759592e-05
212	0x35a1ef80	1.2065138e-06
213	0xba04e2df	-0.0005069207
214	0xb90c9453	-0.00013406696
215	0xba40da4d	-0.0007356748
216	0xba38b9af	-0.0007046712
217	0xba2973c2	-0.00064640876
218	0xb9bfee73	-0.00036608017
219	0xb8e5a1d4	-0.00010949714
220	0xb9c28469	-0.00037101217
221	0xba3f495e	-0.00072970043
222	0x39a7b25d	0.00031985613
223	0xb8ebb800	-0.00011239946
224	0x37845956	1.5777227e-05
225	0x39d4fb97	0.0004062324
226	0xb92bf02c	-0.00016397302
227	0xb87f35a8	-6.084671e-05
228	0xb9a8d41b	-0.00032201488
229	0xb9472e12	-0.00018995281
230	0xb94eb5d2	-0.00019713424
231	0xba0e02e6	-0.0005417302
232	0x39b1b0f9	0.00033891926
233	0x371b5d0c	9.260384e-06
234	0xb7d24951	-2.5068091e-05
235	0x392228c4	0.0001546471
236	0x39c06167	0.00036693664
237	0xb93afe87	-0.00017833161
238	0xba2b5e21	-0.00065371586
239	0x38d6ae61	0.00010236796
240	0x39cd2de0	0.00039134827
241	0x398136fa	0.00024645758
242	0x371b52bc	9.257983e-06
243	0x3a809932	0.0009811281
244	0x3a4b3ebc	0.00077531836
245	0x3a0a974f	0.0005286829
246	0x3b02ccf3	0.0019958585
247	0x3ab5714a	0.0013842967
248	0x3aad8851	0.0013239478
249	0x3b278eb2	0.002556723
250	0x3ae0a181	0.0017137976
251	0x3abccace	0.0014403702
252	0x3a84528c	0.0010095402
253	0x3a442189	0.0007481804
254	0x3a8bb5d0	0.0010659043
255	0x39bd906e	0.00036156498

momentum_buffer f4 [64]
0	0xba8f61d6	-0.0010939192
1	0xbae527bd	-0.0017483156
2	0xb950b7a4	-0.00019904837
3	0x39ee9a7a	0.00045509991
4	0x3911d60d	0.00013908018
5	0x35886be6	1.0164192e-06
6	0xba49566c	-0.00076804194
7	0xbb3e5a64	-0.0029045576
8	0xb978d1c8	-0.00023729273
9	0xb91d93c9	-0.00015027741
10	0xba0f759b	-0.00054725417
11	0xbb304b8a	-0.0026900494
12	0x39368681	0.00017406979
13	0x3accdbbe	0.0015629453
14	0x396c3a69	0.00022528473
15	0xbb5f0c07	-0.0034034268
16	0xbad1db32	-0.001601076
17	0xb96f9766	-0.00022849216
18	0x37676ebb	1.3794454e-05
19	0x3967d22d	0.00022108173
20	0x3a8c5afa	0.0010708265
21	0xb9428c82	-0.00018553625
22	0xba69aa86	-0.00089136546
23	0x3a3d5bc4	0.0007223452
24	0x39b49513	0.00034443344
25	0xbb10e7f2	-0.0022110906
26	0xb8a12d8f	-7.685564e-05
27	0xbaffa0fb	-0.0019502932
28	0xba18604b	-0.00058126886
29	0xbb09d791	-0.0021033029
30	0x38552bf2	5.0824085e-05
31	0xb9b4498e	-0.00034387078
32	0xbacb3317	-0.0015502897
33	0x3a63fa69	0.0008696677
34	0xbadad216	-0.001669469
35	0xbaf10902	-0.0018389525
36	0xb98e5878	-0.00027150265
37	0xb814e8fe	-3.550294e-05
38	0xbb456db5	-0.0030125205
39	0x36cf02ae	6.1693927e-06
40	0x39461082	0.00018888901
41	0x38a9b036	8.09137e-05
42	0x39bedcc5	0.0003640411
43	0x3b26ceb0	0.0025452785
44	0xb92f1d22	-0.00016700153
45	0xbb2a36d1	-0.0025972615
46	0xbb2497f4	-0.0025114985
47	0xbb57d40f	-0.0032932793
48	0xb9307b1a	-0.00016830527
49	0xbb640263	-0.0034791462
50	0xb9f93754	-0.00047534204
51	0xb84ed5a4	-4.9313196e-05
52	0xbafff0b9	-0.0019526697
53	0x3a64e655	0.0008731832
54	0xbaf9edda	-0.0019068078
55	0xb9620424	-0.00021554582
56	0x3aac74cd	0.0013157368
57	0xba9d3391	-0.0011993517
58	0xb732aa58	-1.0649288e-05
59	0xba19ad2a	-0.000586229
60	0x399c288e	0.00029784854
61	0xb98abe34	-0.00026463124
62	0xb8afe514	-8.3873194e-05
63	0x3a3ceb80	0.0007206723

momentum_buffer f4 [1, 64]
0	0x3bc21bce	0.0059237247
1	0xbc0b4d40	-0.008502305
2	0x3b8899d6	0.0041687293
3	0x3d15bc3b	0.036556464
4	0x3a51d32d	0.0008004185
5	0x3bed0e90	0.007234402
6	0x3c408351	0.011750058
7	0xbd35d975	-0.044396836
8	0x3a0cfc28	0.00053781504
9	0xba24c285	-0.0006285089
10	0x3afd54db	0.0019327657
11	0xbd250e12	-0.04029662
12	0xbb0c3272	-0.0021392372
13	0x3d26c901	0.040719036
14	0xbbd11393	-0.0063805073
15	0xbd52c012	-0.051452704
16	0xbc99b1ee	-0.018761601
17	0x3c8d7b2a	0.017270643
18	0x3892fc05	7.008765e-05
19	0x3b733399	0.0037109612
20	0x3d34353c	0.04399608
21	0xba0f6fdb	-0.0005471685
22	0xbb6694bb	-0.0035183865
23	0x3c4894d7	0.012242517
24	0x3c9b570d	0.018962407
25	0xbd0ef574	-0.03490205
26	0x39869235	0.00025667404
27	0xbd131423	-0.035907876
28	0x3cb41ca0	0.021986306
29	0xbcdff262	-0.027337257
30	0x3b5daa24	0.0033823336
31	0x3ccc706f	0.024955956
32	0xbcdd2d81	-0.026999237
33	0x3d3de9fc	0.046365723
34	0x3d123c64	0.035702124
35	0xbcd7949b	-0.026315978
36	0x3c2cfeb1	0.01055877
37	0xbc007a53	-0.007841664
38	0xbd3234cb	-0.04350738
39	0xb8c9d844	-9.6247095e-05
40	0xbad227dc	-0.0016033608
41	0x3902c6d6	0.00012471838
42	0xbc4fb5de	-0.012677638
43	0xb8b9614a	-8.839609e-05
44	0x3aaeb2d0	0.0013328437
45	0xbd0afcd9	-0.03393254
46	0xbd127165	-0.035752673
47	0xbd53f433	-0.05174656
48	0xbca5b5c7	-0.02022828
49	0xbd94d3d3	-0.07266965
50	0xbc101252	-0.00879343
51	0xbc952234	-0.018204786
52	0xbc9313d8	-0.017953798
53	0x3c0ad3e4	0.00847337
54	0xbc69c74f	-0.01426871
55	0x3d0cb298	0.034350008
56	0x3d85f5f2	0.06541051
57	0xbc3bea83	-0.011469486
58	0x3b955b18	0.0045579784
59	0xb9abb924	-0.00032753602
60	0x3daaf0ba	0.08346696
61	0xb9d34672	-0.00040297542
62	0x3d512209	0.05105785
63	0x3bf6c83d	0.0075311945

bn0.weight f4 [3]
0	0x3f8f41ff	1.1192015
1	0x3f882e07	1.0639046
2	0x3f8e16a9	1.1100665

bn0.bias f4 [3]
0	0xbbbbbae5	-0.0057290667
1	0xbda57362	-0.08078648
2	0xbcd466c1	-0.025927903

bn0.running_mean f4 [3]
0	0x3efaf5cf	0.49015662
1	0x3ee62e75	0.4495732
2	0x3ecffb64	0.40621483

bn0.running_var f4 [3]
0	0x3d8414de	0.064492926
1	0x3d75cadc	0.060007915
2	0x3d78e4a2	0.060764916

conv1.weight f4 [32, 3, 5, 5]
0	0x3dd9feb2	0.106442824
1	0xbc2e941f	-0.010655432
2	0x3d776d1f	0.0604068
3	0x3d74c164	0.059754744
4	0xbd6dff78	-0.058104962
5	0x3d4d86cd	0.050177384
6	0x3ca7aea1	0.020469012
7	0xbcaa20c8	-0.020767584
8	0xbd558b32	-0.0521347
9	0xbde794f1	-0.11307705
10	0x3dbdf621	0.09275461
11	0x3cb2d655	0.021830717
12	0x3a2b867b	0.00065431715
13	0x380005f6	3.052313e-05
14	0x3d1e487e	0.038643353
15	0x3d278be6	0.040904902
16	0xbd1db5b6	-0.03850337
17	0xbc9e6988	-0.01933743
18	0x3d304bc4	0.043041006
19	0xbce83e26	-0.028349947
20	0xbc5255b8	-0.01283782
21	0x3d08128f	0.033220824
22	0xbc63f14c	-0.01391251
23	0xbdef2a47	-0.11677986
24	0x3cf3c4ae	0.02975687
25	0x3bc82fe0	0.006109223
26	0x3d6affbe	0.0573728
27	0x3db56436	0.08857004
28	0xbd2bb841	-0.041923765
29	0xbcf8d360	-0.030374229
30	0x3d00c9c9	0.031442437
31	0x3cea7743	0.028621322
32	0xbd16019f	-0.03662264
33	0x3d8b1845	0.067917384
34	0xbcafc793	-0.02145747
35	0x3d2b3ed3	0.04180796
36	0x3d104fed	0.035232473
37	0x3d1f29fd	0.038858403
38	0xbd19fada	-0.037592746
39	0xbc02d155	-0.007984479
40	0x3e0b88a4	0.13626343
41	0x3ccbe2e5	0.024888465
42	0x3c91de50	0.017806202
43	0xbd172fbb	-0.036910754
44	0x3c1dd8a9	0.009634175
45	0x3d9d74ec	0.07688317
46	0x3d6ff23e	0.05858063
47	0x3c8a5f40	0.016891122
48	0x3c260df9	0.010135167
49	0x3d2e36c7	0.04253271
50	0xbac1d8e4	-0.001478937
51	0xbc94a7c2	-0.0181464
52	0xbd0e1885	-0.034691352
53	0xbd8ca210	-0.068668485
54	0xbd3c763d	-0.0460112
55	0x3c8d7cef	0.017271487
56	0x3d5f3625	0.054494996
57	0xbd4b5db7	-0.04964992
58	0x3db60692	0.08887972
59	0x39f8cc8a	0.0004745464
60	0xbb10c179	-0.0022087975
61	0xbc87e602	-0.016589168
62	0xbe09943a	-0.1343545
63	0xbd5e3aa6	-0.05425515
64	0xbd80385e	-0.06260751
65	0x3d06dace	0.032923512
66	0x3d296be0	0.041362643
67	0xbd5f3879	-0.054497216
68	0xbdb6bd5c	-0.08922836
69	0xbd0e298a	-0.034707583
70	0x3e0d37e0	0.13790846
71	0x3d88bf64	0.0667713
72	0xbdb53432	-0.08847846
73	0xbdebd45a	-0.11515112
74	0xbdf1acd3	-0.11800542
75	0xbd848490	-0.06470597
76	0x3d3b62ed	0.04574864
77	0x3d8238bb	0.06358477
78	0x3ca79185	0.020455131
79	0xbb96b919	-0.004599702
80	0x3d535454	0.051594093
81	0x3d9bcaea	0.07607062
82	0xbd8154ed	-0.063150264
83	0xbd6d2b19	-0.05790243
84	0x3aa2e5d1	0.001242811
85	0x3c0e5749	0.008687803
86	0xbc3eb8f5	-0.011640777
87	0xbcf9a348	-0.030473366
88	0x3d314d2d	0.04328649
89	0x3df79738	0.120893896
90	0xbca54685	-0.020175228
91	0xbd77d102	-0.06050206
92	0x3cbca92a	0.023029882
93	0x3d1117d8	0.03542313
94	0xbbfa8a66	-0.007645893
95	0x3d22356a	0.03960172
96	0x38293c04	4.0348634e-05
97	0x3dfc3003	0.12313845
98	0xbcad72d8	-0.021172926
99	0x3d2b5d15	0.041836817
100	0xbcb3007e	-0.02185082
101	0xbd38e47d	-0.04513978
102	0x3ce92d6f	0.028464047
103	0xbc95ff0b	-0.01831009
104	0x3d72bb55	0.059260685
105	0x3d1cdbb3	0.03829546
106	0x3dd6f4bf	0.104959
107	0x3d44d210	0.048051894
108	0xbcdaeb05	-0.026723394
109	0xbd35e808	-0.044410735
110	0xbde1566e	-0.11002813
111	0x3d39077f	0.045173164
112	0x3c256b70	0.010096416
113	0xbd2eea56	-0.04270395
114	0xbbff083e	-0.007782965
115	0xbdc916f0	-0.09818828
116	0xbd1caa77	-0.038248505
117	0x3c887129	0.016655521
118	0xbd28c6b2	-0.041205116
119	0x3d84131a	0.06448956
120	0xbd053280	-0.032518864
121	0x3d81e3cf	0.06342279
122	0xbd916141	-0.07098628
123	0x3d73f4af	0.05955952
124	0x3d9e6f6d	0.077360965
125	0xbcdf64d1	-0.027269753
126	0x3d3fab1f	0.046794053
127	0xbbb5d27a	-0.0055487724
128	0x3dddbfc2	0.108275905
129	0x3ca34a04	0.019932754
130	0xbb9a3d81	-0.004707039
131	0x3d940da9	0.07229168
132	0xbd89dd45	-0.06731657
133	0xbd7e7c8b	-0.062130492
134	0xbd74f733	-0.05980606
135	0xbda77bc8	-0.08177906
136	0xbd7abada	-0.06121335
137	0xbcd428aa	-0.025898296
138	0x3d2450a4	0.040115967
139	0x3d1e9e40	0.038725138
140	0xbd720b64	-0.059092894
141	0xbd949aab	-0.07256063
142	0xbe186fce	-0.148864
143	0xbdbf91f8	-0.09354013
144	0x3c85101d	0.016243035
145	0xbd07d1a6	-0.03315892
146	0xbdf234d3	-0.11826482
147	0xbd4c1bd1	-0.049831215
148	0xbc25f9ea	-0.010130385
149	0x3c888c8a	0.016668577
150	0xbe25080d	-0.16116352
151	0xbdd9d204	-0.106357604
152	0xbc966cf6	-0.018362503
153	0x3d287ac9	0.041132722
154	0x3d73ff60	0.059569716
155	0x3c8c726b	0.017144402
156	0x3cc4f910	0.024044544
157	0xbd217886	-0.03942158
158	0xbce47074	-0.027885653
159	0x3c3ca8a3	0.0115148155
160	0x3bc7b8ed	0.006095043
161	0x3d859148	0.06521851
162	0xbd5df9d7	-0.054193344
163	0xbd42f097	-0.047592726
164	0x3d82fada	0.063955024
165	0xbcb3e56d	-0.021959985
166	0xbcd8117c	-0.026375525
167	0xbbad8f16	-0.005296598
168	0x3cfc1ea9	0.030776339
169	0x3d89f2bb	0.0673575
170	0x3c783b63	0.015150878
171	0xbd964ffa	-0.07339473
172	0x3dee76cf	0.11643755
173	0x3b94edde	0.0045449575
174	0xbd799489	-0.06093267
175	0xbb7bf977	-0.0038448253
176	0xbc18dcae	-0.009329958
177	0x3c89d94e	0.016827252
178	0xbbaf6074	-0.0053520743
179	0x3d7e960c	0.062154815
180	0x3c482e09	0.012218007
181	0xbda8a4a5	-0.082345285
182	0xbd404e33	-0.046949577
183	0x3bd2b0de	0.0064297756
184	0xbd02ccf0	-0.031933725
185	0x3c501a65	0.012701605
186	0xbd31f39b	-0.04344521
187	0xbd369c04	-0.04458238
188	0x3806446a	3.2011805e-05
189	0x3d532f41	0.051558737
190	0xbdd0b8e3	-0.10191514
191	0xbc367288	-0.011135705
192	0xbd5614f3	-0.052266072
193	0xbb419ed8	-0.002954414
194	0xbc1153f9	-0.008870118
195	0xbce719c1	-0.028210523
196	0xbc8c9a80	-0.017163515
197	0x3dc685dc	0.096935004
198	0xbd1e5102	-0.038651474
199	0xbbefd512	-0.007319101
200	0xbc733da3	-0.014846238
201	0x3c61e255	0.013786872
202	0x3db2951c	0.087198466
203	0x3d2d0c19	0.042247865
204	0xbbb65d6b	-0.0055653355
205	0x3dea8080	0.11450291
206	0x3d0078a6	0.03136506
207	0xbc8039ea	-0.015652616
208	0x3da59a39	0.08086056
209	0xbc615a8c	-0.013754498
210	0x3d63d500	0.055623055
211	0x3dbc0bf5	0.09181968
212	0xbc89b21c	-0.016808562
213	0xbcfaf3dd	-0.030633861
214	0xbd269f75	-0.040679414
215	0x3d4b9bf2	0.049709268
216	0xbd27b842	-0.040947206
217	0x3ce16304	0.027513035
218	0x3d719fbd	0.05899023
219	0xbd4870be	-0.048935644
220	0x3b3cad11	0.002878968
221	0xbd08788e	-0.033318095
222	0x3c9a4985	0.018833885
223	0x3dc3b6b4	0.09556332
224	0xbd87e6a5	-0.06635789
225	0xbd4ad84a	-0.049522676
226	0xbd082515	-0.03323849
227	0xba98bda0	-0.0011653192
228	0xbd3b967b	-0.045797806
229	0xbc9941cb	-0.01870813
230	0xbbc9ea3c	-0.006161956
231	0xbd9078fa	-0.070543244
232	0xbdd6ed6a	-0.10494502
233	0xbd424e86	-0.047438167
234	0xbcfc86d6	-0.030826014
235	0xbd814183	-0.063113235
236	0x3d71f71c	0.059073552
237	0x3a7835d1	0.00094684685
238	0xbd780d52	-0.06055958
239	0xbe01047e	-0.1259937
240	0x3d6f2cb9	0.05839226
241	0xbc796ca4	-0.015223656
242	0xbc2a2be3	-0.01038644
243	0xbd6377d2	-0.05553419
244	0xbd4b9304	-0.049700752
245	0x3ca52ff1	0.020164462
246	0x3ce317e5	0.027721355
247	0x3b35622d	0.0027676926
248	0xbe640d7b	-0.22270767
249	0x3c99d834	0.018779851
250	0xbd890de8	-0.066921055
251	0xbc782001	-0.015144349
252	0x3d41140f	0.04713827
253	0xbd2a3e13	-0.041563105
254	0xbd0a5ddc	-0.033780918
255	0xbc526d95	-0.012843509

conv1.bias f4 [32]
0	0xbd2fc77e	-0.04291486
1	0x3dc1ec28	0.09468871
2	0x3c30c05d	0.0107880505
3	0xbd9bf0b5	-0.076142706
4	0xbd98cf43	-0.07461407
5	0xbd128aae	-0.035776787
6	0x3baacf79	0.005212721
7	0x3e02b939	0.1276597
8	0xbd044670	-0.032293737
9	0x3df07fc5	0.1174312
10	0x3d585fa2	0.052825578
11	0x3e038414	0.12843353
12	0xbd928425	-0.07154111
13	0x3cb87749	0.022517817
14	0xbdc09031	-0.09402502
15	0xbdb61ef1	-0.0889262
16	0x3d85a65c	0.06525871
17	0x3d054425	0.03253569
18	0x3e182d26	0.14860973
19	0xbc160bf7	-0.009158126
20	0xbce734e9	-0.028223472
21	0xbc6a7c3f	-0.014311849
22	0xbd0107ae	-0.031501465
23	0x3db678fb	0.08909794
24	0x3c921d16	0.017836135
25	0x3c70185b	0.014654244
26	0x3cb1573e	0.021648046
27	0x3d01d649	0.0316985
28	0xbd79ae60	-0.060957313
29	0xbdbc719a	-0.09201355
30	0xbb0b8003	-0.0021286018
31	0xbde68ca1	-0.112572916
