Ratio_oneone/checkpoint_step_0255.pth (torch_old, 541547 bytes, 24 tensors)

momentum_buffer f4 [3]
0.16958413 -0.319981 0.18448666
00000000: 76a7 2d3e 8dd4 a3be 12ea 3c3e

momentum_buffer f4 [3]
-0.0013293922 0.2865033 -0.24419928
00000000: 003f aeba 8fb0 923e 600f 7abe

momentum_buffer f4 [32, 3, 5, 5]
0.088506445 0.07331018 0.044600587 0.015564766 -0.0032280535 0.09565171 0.074607074 0.04258728
0.009975898 -0.008795887 0.09205678 0.06803043 0.032288518 0.0009067734 -0.012756739 0.09371343
0.06843929 0.028287236 -0.006231301 -0.019923465 0.08391902 0.059446964 0.01910773 -0.013218742
-0.020819759 0.033058263 0.018278396 -0.01140048 -0.040091306 -0.057998456 0.041219015 0.019694421
-0.013554533 -0.044684306 -0.06348432 0.037503168 0.012539443 -0.02487094 -0.05642665 -0.06994783
0.041783243 0.014527009 -0.028492644 -0.063943766 -0.07693698 0.032586265 0.0058520176 -0.037120823
-0.069049306 -0.07729475 -0.014197884 -0.029381359 -0.056210913 -0.07975731 -0.09424511 -0.00789156
-0.028044993 -0.05693868 -0.08241531 -0.0979123 -0.012810182 -0.03566471 -0.06848256 -0.09390577
-0.10502115 -0.007368892 -0.03172794 -0.069841 -0.1001344 -0.11105711 -0.011295942 -0.036594145
-0.07595926 -0.104252435 -0.111216985 0.08154444 0.08047135 0.08132543 0.083396666 0.08490347
0.08722531 0.08667702 0.089589715 0.09304717 0.09243716 0.10235256 0.10197307 0.1008322
0.09806133 0.09376182 0.11133419 0.11217886 0.107940845 0.10059184 0.09417115 0.10619737
0.10632699 0.10388198 0.09813753 0.093523055 0.087536484 0.08533351 0.08618476 0.08812329
0.09042858 0.09339925 0.09259261 0.0956535 0.098689415 0.098022826 0.10814502 0.108220756
0.10682024 0.10351194 0.099296354 0.117662124 0.11863738 0.114167474 0.10651232 0.10102563
0.11303518 0.113550045 0.1097483 0.105283745 0.1005647 0.082952246 0.08057703 0.08051015
0.08287491 0.08399667 0.087611 0.08590197 0.08811147 0.091399156 0.09095535 0.10117127
0.09943924 0.09823697 0.09586717 0.0920714 0.10991769 0.10954127 0.104614824 0.09830048
0.09365156 0.10520342 0.103913985 0.10129443 0.096994616 0.09298542 -0.01176325 -0.007670929
-0.0011934438 0.004771729 0.006063138 -0.0023117643 -0.0012399103 0.00029193237 0.0032753414 0.0042109755
-0.00059180614 -1.7000828e-05 -0.0010880125 0.0001485413 0.0016409345 -0.0059849354 -0.0041199205 -0.0015725573
0.0010330924 0.0011476942 -0.0041495096 -0.0015891576 0.002096818 0.002292092 -0.0005102842 -0.014197821
-0.011215868 -0.0054348814 -0.0003566835 0.00071066397 -0.0062993546 -0.006569736 -0.0048118304 -0.0019847369
-0.0018104264 -0.005391141 -0.006152033 -0.006824384 -0.0056016436 -0.004695313 -0.011302577 -0.009617126
-0.0075917454 -0.005074326 -0.0053854007 -0.009221603 -0.0067464295 -0.003682592 -0.0036583482 -0.0060462425
-0.009098606 -0.006174846 -0.0004801997 0.0043236474 0.0043875566 -2.4912413e-05 -0.00040713442 0.00075942697
0.0037416003 0.0031324471 0.00054352405 0.0001500647 -0.0012164228 -0.0003664533 -0.000174933 -0.0046255765
-0.004084614 -0.0017828078 0.00056702225 -0.00042441406 -0.0029295133 -0.0010803414 0.00136546 0.0025660142
-0.00076579093 -0.057535358 -0.05940682 -0.061383806 -0.06232623 -0.059912503 -0.057778582 -0.06040912
-0.06332482 -0.06369059 -0.060781065 -0.057487756 -0.058907602 -0.062288366 -0.06439121 -0.062199775
-0.05552357 -0.05808721 -0.06215979 -0.06445992 -0.06169489 -0.055415362 -0.05712951 -0.060836017
-0.06414421 -0.060325462 -0.057031646 -0.058823477 -0.06061358 -0.06144443 -0.0592451 -0.05721587
00000000: de42 b53d a623 963d 1baf 363d 5c03 7f3c
00000010: c08d 53bb 0be5 c33d 98cb 983d 0070 2e3d
00000020: f371 233c a01c 10bc 4488 bc3d 8a53 8b3d
00000030: f740 043d 88b4 6d3a a401 51bc d4ec bf3d
00000040: e629 8c3d a2ba e73c f12f ccbb 8936 a3bc
00000050: bcdd ab3d a97e 733d d087 9c3c 6c93 58bc
00000060: 338e aabc 1a68 073d 93bc 953c 14c9 3abc
00000070: c836 24bd ca8f 6dbd 45d5 283d 3256 a13c
00000080: d513 5ebc e406 37bd 1104 82bd ec9c 193d
00000090: 3c72 4d3c 24be cbbc a21f 67bd cf40 8fbd
000000a0: e824 2b3d b102 6e3c 6869 e9bc f3f4 82bd
000000b0: 2391 9dbd 2d79 053d 48c2 bf3b 010c 18bd
000000c0: b969 8dbd b64c 9ebd 3e9e 68bc 2db1 f0bc
000000d0: 6a3d 66bd cd57 a3bd 9503 c1bd 9a4b 01bc
000000e0: 9dbe e5bc 8938 69bd 5cc9 a8bd 3e86 c8bd
000000f0: cce1 51bc 2915 12bd 9640 8cbd ab51 c0bd
00000100: 5415 d7bd bf76 f1bb 28f5 01bd cc08 8fbd
00000110: 4413 cdbd e971 e3bd 9d12 39bc bee3 15bd
00000120: 8790 9bbd 4d82 d5bd bbc5 e3bd c500 a73d
00000130: 2ace a43d f28d a63d dfcb aa3d dfe1 ad3d
00000140: 2fa3 b23d b983 b13d d07a b73d 848f be3d
00000150: b24f bd3d 389e d13d 42d7 d03d 1d81 ce3d
00000160: 61d4 c83d 3206 c03d 2e03 e43d 08be e53d
00000170: 1710 dd3d 1803 ce3d cedc c03d 027e d93d
00000180: f7c1 d93d 13c0 d43d 54fc c83d 0489 bf3d
00000190: 5446 b33d 56c3 ae3d a381 b03d fc79 b43d
000001a0: 9f32 b93d 1b48 bf3d 32a1 bd3d fbe5 c33d
000001b0: ad1d ca3d 31c0 c83d 237b dd3d d8a2 dd3d
000001c0: 92c4 da3d 11fe d33d e35b cb3d d7f8 f03d
000001d0: 28f8 f23d a3d0 e93d 2223 da3d 87e6 ce3d
000001e0: fd7e e73d ed8c e83d b7c3 e03d 019f d73d
000001f0: def4 cd3d dee2 a93d 9205 a53d 81e2 a43d
00000200: 52ba a93d 7206 ac3d 656d b33d 5fed af3d
00000210: c973 b43d 7b2f bb3d cc46 ba3d e232 cf3d
00000220: cda6 cb3d 7730 c93d 0256 c43d ee8f bc3d
00000230: 871c e13d 2c57 e03d 4c40 d63d c351 c93d
00000240: 64cc bf3d e474 d73d dbd0 d43d 7473 cf3d
00000250: 1da5 c63d 246f be3d a6ba 40bc 6b5c fbbb
00000260: 546d 9cba 2a5c 9c3b 4aad c63b f880 17bb
00000270: 7c84 a2ba 800e 9939 1ca7 563b 39fc 893b
00000280: 7023 1bba 009d 8eb7 a49b 8eba c0c1 1b39
00000290: a014 d73a 471d c4bb 6600 87bb 441e ceba
000002a0: d468 873a 3a6e 963a 9cf8 87bb 484b d0ba
000002b0: c56a 093b ec36 163b 98c4 05ba fa9d 68bc
000002c0: c3c2 37bc 1717 b2bb 4001 bbb9 da4b 3a3a
000002d0: d16a cebb f146 d7bb 8fac 9dbb 5c12 02bb
000002e0: d44b edba 2ba8 b0bb fe96 c9bb 159f dfbb
000002f0: fe8d b7bb 24db 99bb 722e 39bc 2691 1dbc
00000300: 2dc4 f8bb 8846 a6bb 0478 b0bb 3516 17bc
00000310: 2711 ddbb a457 71bb e6c0 6fbb 8f1f c6bb
00000320: 5212 15bc 5d56 cabb 50c3 fbb9 62ad 8d3b
00000330: 7ec5 8f3b 00fb d0b7 a874 d5b9 4814 473a
00000340: a335 753b be49 4d3b 487b 0e3a b05a 1d39
00000350: 6070 9fba 8820 c0b9 386e 37b9 2692 97bb
00000360: 3ad8 85bb 1aad e9ba 38a4 143a e483 deb9
00000370: 14fd 3fbb 3e9a 8dba 3cf9 b23a 932a 283b
00000380: 5cbf 48ba 32aa 6bbd 9154 73bd 966d 7bbd
00000390: ca49 7fbd d066 75bd 3ca9 6cbd 8e6f 77bd
000003a0: 71b0 81bd 3670 82bd 91f5 78bd 4878 6bbd
000003b0: 1949 71bd 1622 7fbd 8adf 83bd 31c5 7ebd
000003c0: af6c 63bd dbec 6dbd 449b 7ebd 9003 84bd
000003d0: c8b3 7cbd 38fb 62bd a200 6abd 302f 79bd
000003e0: 0a5e 83bd d517 77bd 049a 69bd e3f0 70bd
000003f0: f245 78bd 28ad 7bbd fdaa 72bd 305b 6abd

momentum_buffer f4 [32]
0.28859583 -0.098794036 0.0602735 0.06226386 -0.050032135 -0.08371651 -0.022195315 -0.14706208
0.042582847 -0.08435111 0.22899893 -0.34398347 0.14715451 0.036585484 0.12031482 -0.024013897
0.12729047 -0.078544736 0.016869135 -0.00256183 -0.077059515 0.41880864 -0.14043331 -0.015412964
0.0381461 -0.35829595 0.05756173 -0.04237414 0.047985703 -0.17578761 0.14779288 0.063533075
00000000: d5c2 933e 8754 cabd 58e1 763d 6408 7f3d
00000010: 7fee 4cbd 9073 abbd f3d2 b5bc 7197 16be
00000020: 5a6b 2e3d 46c0 acbd b27e 6a3e 9a1e b0be
00000030: acaf 163e a9da 153d 9e67 f63d cbb8 c4bc
00000040: 6f58 023e 10dc a0bd 2431 8a3c 60e4 27bb
00000050: 61d1 9dbd 166e d63e c0cd 0fbe a886 7cbc
00000060: 163f 1c3d 9172 b7be d9c5 6b3d 8290 2dbd
00000070: a88c 443d ab01 34be 0457 173e a11d 823d

momentum_buffer f4 [32, 32, 3, 3]
-0.020318644 -0.020180328 -0.020261584 -0.020061823 -0.021678653 -0.020910755 -0.020333374 -0.020505842
-0.020367177 -0.0545292 -0.055558097 -0.055129554 -0.054665186 -0.055218022 -0.054228395 -0.053760864
-0.054452024 -0.05409121 -0.011880898 -0.012145916 -0.012745685 -0.012733642 -0.013760312 -0.0132986875
-0.014072856 -0.01324365 -0.0135990875 -0.11441754 -0.113474146 -0.11186736 -0.11456571 -0.11353295
-0.11255281 -0.11359603 -0.11297083 -0.111326165 -0.011435494 -0.011892742 -0.012118835 -0.0111553315
-0.012495252 -0.012651068 -0.011250205 -0.012277577 -0.013268216 -0.059311323 -0.060392767 -0.058862273
-0.060028423 -0.05976344 -0.05925649 -0.057595786 -0.05955564 -0.058820147 -0.046428673 -0.050766304
-0.05077672 -0.05107625 -0.053723246 -0.05673051 -0.053376466 -0.05659104 -0.05848529 -0.08555368
-0.084475905 -0.08421208 -0.08569203 -0.08481569 -0.0835888 -0.08466075 -0.08468044 -0.083945476
-0.012650972 -0.013504505 -0.013925084 -0.013911989 -0.015075879 -0.015205526 -0.014568887 -0.016180893
-0.016735297 -0.02462789 -0.02474139 -0.025516564 -0.02522456 -0.025408037 -0.025569467 -0.024700006
-0.024538592 -0.025309883 -0.019224016 -0.018417047 -0.01900866 -0.018112523 -0.018779192 -0.018969705
-0.018934859 -0.018795073 -0.018908381 -0.074054934 -0.07413917 -0.07353758 -0.073628575 -0.07477336
-0.07377658 -0.07325158 -0.07370722 -0.07265171 -0.00959606 -0.009414506 -0.0101681845 -0.009240874
-0.009972409 -0.009947105 -0.009211114 -0.009640118 -0.010651207 -0.1136473 -0.114173725 -0.11296973
-0.114451095 -0.11461685 -0.11290429 -0.115225464 -0.1140268 -0.11242997 -0.10462735 -0.1043366
-0.10321585 -0.104558654 -0.103431016 -0.102196515 -0.10429898 -0.10352306 -0.102244794 -0.01092323
-0.010979597 -0.010950854 -0.011147873 -0.0106941275 -0.011500178 -0.011169497 -0.0119064115 -0.010509093
-0.06035753 -0.060893964 -0.05919763 -0.06108357 -0.059798554 -0.05974176 -0.06081955 -0.060488094
-0.059905253 -0.025769213 -0.025384402 -0.024509301 -0.026393684 -0.025700208 -0.025646959 -0.025756849
-0.02528915 -0.025712729 -0.1156167 -0.11498813 -0.1133386 -0.11559286 -0.1140301 -0.11315396
-0.11548911 -0.11451272 -0.11248359 -0.027464371 -0.029822327 -0.029420357 -0.03033863 -0.031611405
-0.030856322 -0.03172021 -0.033160046 -0.033251908 -0.034358256 -0.036281828 -0.0369033 -0.036424935
-0.039503913 -0.04053008 -0.039201025 -0.04167468 -0.04143041 -0.065673225 -0.06704546 -0.06583339
-0.066597946 -0.06731149 -0.06666119 -0.06690519 -0.06781 -0.06704376 -0.028346809 -0.027341168
-0.02712509 -0.028345404 -0.027901258 -0.027748588 -0.027559778 -0.0281263 -0.02791029 -0.029129213
-0.031931706 -0.032921515 -0.031993795 -0.03501052 -0.035543386 -0.034090415 -0.036423504 -0.037541047
-0.014651154 -0.015804397 -0.014600298 -0.014913948 -0.016154438 -0.015839301 -0.016028203 -0.01655031
-0.015699143 -0.052911766 -0.053513017 -0.052349206 -0.053137217 -0.054638073 -0.05346995 -0.051967617
-0.053052176 -0.05196633 -0.01593615 -0.016210133 -0.015867637 -0.015936248 -0.017329428 -0.017345771
-0.017193317 -0.017405879 -0.01713229 -0.12185907 -0.12150758 -0.11974219 -0.122197844 -0.12154319
-0.12044935 -0.121907696 -0.12155686 -0.11984869 -0.04115569 -0.040628273 -0.03991368 -0.03976378
00000000: 4973 a6bc 3751 a5bc 9ffb a5bc b158 a4bc
00000010: 6e97 b1bc 084d abbc 2d92 a6bc defb a7bc
00000020: 11d9 a6bc 035a 5fbd e390 63bd 87cf 61bd
00000030: 9ae8 5fbd 4b2c 62bd 981e 5ebd 5a34 5cbd
00000040: 1609 5fbd bf8e 5dbd 19a8 42bc aaff 46bc
00000050: 47d3 50bc c4a0 50bc ef72 61bc bde2 59bc
00000060: d691 66bc e5fb 58bc b5ce 5ebc be53 eabd
00000070: 2265 e8bd b71a e5bd 6da1 eabd f783 e8bd
00000080: 1682 e6bd 09a5 e8bd 405d e7bd f9fe e3bd
00000090: f05b 3bbc c6d9 42bc 148e 46bc dac4 36bc
000000a0: e3b8 4cbc 6d46 4fbc c852 38bc e427 49bc
000000b0: ee62 59bc 6ef0 72bd 685e 77bd 9119 71bd
000000c0: 5de0 75bd 82ca 74bd efb6 72bd 8fe9 6bbd
000000d0: 9df0 73bd 65ed 70bd fe2b 3ebd 54f0 4fbd
000000e0: 40fb 4fbd 5435 51bd e80c 5cbd 405e 68bd
000000f0: 48a1 5abd 02cc 67bd 458e 6fbd c536 afbd
00000100: b401 adbd 6277 acbd 4e7f afbd d9b3 adbd
00000110: 9b30 abbd 9e62 adbd f06c adbd 9beb abbd
00000120: 0646 4fbc 0042 5dbc 0926 64bc 1cef 63bc
00000130: d200 77bc 9920 79bc 57b2 6ebc cb8d 84bc
00000140: 7618 89bc 6ec0 c9bc 75ae cabc 1d08 d1bc
00000150: bda3 cebc 8424 d0bc 0f77 d1bc ab57 cabc
00000160: 2805 c9bc ac56 cfbc af7b 9dbc 59df 96bc
00000170: 0db8 9bbc b760 94bc d2d6 99bc 5b66 9bbc
00000180: 471d 9bbc 20f8 99bc c0e5 9abc 1daa 97bd
00000190: 47d6 97bd df9a 96bd 94ca 96bd c622 99bd
000001a0: 2d18 97bd ed04 96bd d0f3 96bd 6bca 94bd
000001b0: cb38 1dbc 4d3f 1abc 7598 26bc 0967 17bc
000001c0: 5163 23bc 2ff9 22bc 36ea 16bc 96f1 1dbc
000001d0: 6682 2ebc eabf e8bd ead3 e9bd ac5c e7bd
000001e0: 5665 eabd 3dbc eabd 5d3a e7bd 54fb ebbd
000001f0: e286 e9bd af41 e6bd dd46 d6bd 6dae d5bd
00000200: d562 d3bd d922 d6bd a4d3 d3bd 684c d1bd
00000210: b49a d5bd e603 d4bd b865 d1bd 59f7 32bc
00000220: c5e3 33bc 366b 33bc 91a5 36bc 6c36 2fbc
00000230: 3e6b 3cbc 4400 37bc 1c13 43bc 552e 2cbc
00000240: 7539 77bd f36b 79bd 3779 72bd c432 7abd
00000250: 54ef 74bd c7b3 74bd ec1d 79bd 5dc2 77bd
00000260: 365f 75bd f519 d3bc f3f2 cfbc bbc7 c8bc
00000270: 9137 d8bc 3e89 d2bc 9219 d2bc 0700 d3bc
00000280: 312b cfbc 80a3 d2bc 73c8 ecbd e67e ebbd
00000290: 111e e8bd f3bb ecbd 9d88 e9bd 43bd e7bd
000002a0: 8e85 ecbd a585 eabd cc5d e6bd f6fc e0bc
000002b0: f44d f4bc f602 f1bc b888 f8bc f67a 01bd
000002c0: 66c6 fcbc 0ded 01bd d4d2 07bd 2733 08bd
000002d0: 3ebb 0cbd 419c 14bd ea27 17bd 5032 15bd
000002e0: dbce 21bd df02 26bd 4191 20bd 12b3 2abd
000002f0: efb2 29bd af7f 86bd 214f 89bd a8d3 86bd
00000300: 8164 88bd 9bda 89bd a985 88bd 9705 89bd
00000310: f8df 8abd 3d4e 89bd 9137 e8bc 96fa dfbc
00000320: 7035 debc 9f34 e8bc 2e91 e4bc 0251 e3bc
00000330: 0bc5 e1bc 2069 e6bc 1fa4 e4bc 63a0 eebc
00000340: d2ca 02bd b6d8 06bd ed0b 03bd 3167 0fbd
00000350: f195 11bd 64a2 0bbd d030 15bd a4c4 19bd
00000360: 650b 70bc 3978 81bc 1736 6fbc a259 74bc
00000370: 5056 84bc 6cc1 81bc 944d 83bc 8494 87bc
00000380: 7d9b 80bc 02ba 58bd 7730 5bbd 1f6c 56bd
00000390: 69a6 59bd 2ccc 5fbd 4e03 5bbd ffdb 54bd
000003a0: 3d4d 59bd a5da 54bd 878c 82bc 1dcb 84bc
000003b0: d9fc 81bc bc8c 82bc 72f6 8dbc b818 8ebc
000003c0: 00d9 8cbc c696 8ebc 0459 8cbc 4091 f9bd
000003d0: f7d8 f8bd 653b f5bd dd42 fabd a3eb f8bd
000003e0: 26ae f6bd beaa f9bd cef2 f8bd 3b73 f5bd
000003f0: de92 28bd d569 26bd 877c 23bd 58df 22bd

momentum_buffer f4 [32]
-0.11475594 0.033606812 -0.07835932 0.0008573133 0.0017612282 0.013016349 -0.011744963 -0.055542655
-0.051154707 -0.055490527 -0.16100176 0.06382907 0.13087173 0.041856125 0.0010816449 0.010875643
0.061903693 0.057371244 0.10060194 -0.0032456596 0.19474341 0.04530049 -0.013565648 -0.038402338
-0.14648886 0.2221797 -0.027988415 -0.046771128 0.021816965 -0.08962071 -0.23229705 0.076133266
00000000: 2a05 ebbd 4ca7 093d da7a a0bd 52bd 603a
00000010: 03d9 e63a 8642 553c f26d 40bc b280 63bd
00000020: 9987 51bd 094a 63bd a5dd 24be d1b8 823d
00000030: 3d03 063e 5471 2b3d fbc5 8d3a c12f 323c
00000040: ba8e 7d3d 1cfe 6a3d 6408 ce3d 22b5 54bb
00000050: d16a 473e 028d 393d 7442 5ebc c54b 1dbd
00000060: 2d01 16be 1383 633e f647 e5bc 1593 3fbd
00000070: 7eb9 b23c 108b b7bd 47df 6dbe c2eb 9b3d

momentum_buffer f4 [64, 32, 3, 3]
-0.001074732 -0.0012882755 -0.0016471496 -0.001437313 -0.0011773888 -0.0014262405 -0.0012854576 -0.0009824934
-0.00092923094 -0.00013254423 -0.00018403953 -7.295748e-05 -0.000562381 5.892376e-05 0.00055631384 -0.00017637761
6.591127e-06 9.7083466e-05 -0.0010257843 -0.0011662242 -0.0008682509 -0.0009088354 -0.00082970073 -0.0012429793
-0.00146559 -0.0010189996 -0.0006639428 -0.00028592563 -7.468485e-05 -0.00027410928 -0.00020490606 -0.0001120732
-5.9606213e-05 9.962443e-05 -0.00014805353 -0.0001377842 0.00017691517 0.0007300157 0.0002472447 0.00018070605
-7.43502e-05 0.00023190367 0.00018883837 -0.00020064355 -0.00021261515 0.00020124004 -0.00030587244 0.00011070619
8.5537744e-05 -0.0005064103 -0.00011942948 0.0003832776 0.00033563122 2.9585739e-05 -0.00024528845 -0.00013201294
-0.0005111492 0.00022238921 -0.0004993316 -0.00044239554 0.00014488747 -0.0003329985 0.0002355307 -0.00022645446
-0.0007350543 -0.0005020344 -0.0010503685 -0.0005402127 -0.0005177699 -0.000547959 -0.00086683634 -0.0008393222
-0.00033613032 -0.00053149066 -0.0003350764 -0.0007560586 -5.1088988e-05 -0.0003222127 -8.5339416e-05 9.571474e-05
-0.00030348165 -0.00085499446 -0.0010255307 -0.0013919323 -0.0014950836 -0.0012313799 -0.0014902123 -0.00095918967
-0.0013509725 -0.0010398501 -0.0007357918 -0.00012201958 -0.00026916582 0.00016050585 -0.00043423037 -0.0003793252
0.00012458795 -0.0008131911 3.1669195e-05 -0.0009824581 -0.00034350064 0.00023723836 -0.00062807824 -0.0002345352
-0.0006372981 -0.00048252248 -0.00044534155 8.6785425e-05 -0.0022023537 -0.0018063969 -0.0021815347 -0.0017823717
-0.0022114145 -0.0021849151 -0.0019504162 -0.0021653217 -0.0015592295 -0.000257617 -0.000999063 0.00020514031
-0.00022720669 -0.0001997751 -0.00013498955 -0.00014999491 -0.0004224282 -0.00017820315 -0.00030399137 -0.00022591485
4.1489064e-05 0.000555113 5.895824e-06 -0.00025750388 2.075625e-07 -6.51532e-06 -0.000435807 0.00014022035
-0.00018301568 -0.00016713477 -0.00034628832 -3.9266677e-05 -0.00029308375 0.0003926442 -0.00027990708 6.790969e-06
-0.0019393064 -0.002523698 -0.0016060739 -0.0021434352 -0.0019669607 -0.0017291899 -0.0024620884 -0.0020032155
-0.0019413077 0.00010498158 0.00040539785 -0.00029124806 -0.0004018637 5.4266908e-05 -1.5122716e-05 -0.00048074272
5.1245624e-05 -0.00027525224 -0.0005591645 -0.00092036324 -0.00013291785 -0.00052258186 -0.00074130815 -0.00042561608
0.00016843498 -0.00022691465 -0.00023707 -0.00014397036 -0.0008192746 -0.0005350229 0.00040404755 -0.00037457084
-0.0005998304 -0.00047729455 -0.00071741024 -0.00015835417 -0.0021732904 -0.0023178146 -0.0022833673 -0.0019984562
-0.002347227 -0.001988429 -0.0021547228 -0.0023602005 -0.002191522 -0.0021870357 -0.0017503157 -0.0013765226
-0.00201796 -0.0016369333 -0.0013363326 -0.001492131 -0.0018593477 -0.0011942099 -0.00044279452 0.00012055482
-0.0005117182 -0.00019859214 -0.00019905024 -0.00065057934 -0.0009251237 -0.0006157495 -0.00072008034 2.3907742e-05
-0.00019702193 0.00010141425 -0.0001809296 -0.00036354465 0.00033563224 -0.00012290575 -0.00024835448 2.933284e-06
-0.00050169614 -0.00032288555 0.00015083211 -0.00061031675 -0.00013005722 -0.00055284216 -0.0007901834 -0.00029514567
-0.0005592724 -0.0015784941 -0.0010235971 -0.0013535968 -0.0013726912 -0.0013429539 -0.001310514 -0.0015845279
-0.0012020204 -0.0013624587 -0.00035003814 -0.00042399406 -0.0011562875 -0.0004981029 -0.00024738064 -0.00051365007
-0.00051250344 -0.00025223813 -0.0003716793 -6.5765555e-05 0.000244198 -0.00033407396 -0.00029966875 0.00035269733
-0.00034743315 0.00015011501 -6.614423e-05 -0.00033738645 -0.00047793452 9.890514e-06 6.343447e-05 -0.00030014568
00000000: 06de 8cba 5adb a8ba 2be5 d7ba 3964 bcba
00000010: 9d52 9aba b1f0 baba cd7c a8ba 02c7 80ba
00000020: a297 73ba 92fb 0ab9 bcfa 40b9 c000 99b8
00000030: c06c 13ba e824 7738 97d5 113a 01f2 38b9
00000040: 5a29 dd36 4a99 cb38 9c73 86ba fedb 98ba
00000050: 559b 63ba e93e 6eba 4680 59ba 77eb a2ba
00000060: 0a19 c0ba f48f 85ba 720c 2eba 4ae8 95b9
00000070: 20a0 9cb8 53b6 8fb9 0ddc 56b9 d708 ebb8
00000080: af01 7ab8 75ed d038 d13e 1bb9 2a7a 10b9
00000090: 4e82 3939 865e 3f3a 9fa0 8139 e97b 3d39
000000a0: 76ec 9bb8 2b2b 7339 ea02 4639 d863 52b9
000000b0: 72f1 5eb9 f603 5339 815d a0b9 ef2a e838
000000c0: ba62 b338 9fc0 04ba 3776 fab8 a6f2 c839
000000d0: a9f7 af39 e42e f837 0f9a 80b9 f46c 0ab9
000000e0: a4fe 05ba 2631 6939 94e5 02ba 53f1 e7b9
000000f0: efec 1739 4d96 aeb9 caf8 7639 6874 6db9
00000100: a9b0 40ba f59a 03ba 85ac 89ba 109d 0dba
00000110: f3ba 07ba e8a4 0fba 673c 63ba f605 5cba
00000120: a63a b0b9 bc53 0bba 31ad afb9 3c32 46ba
00000130: 6248 56b8 a8ee a8b9 40f8 b2b8 76ba c838
00000140: 9e1c 9fb9 b521 60ba 1a6b 86ba 7f71 b6ba
00000150: aef6 c3ba 4166 a1ba 3a53 c3ba 2172 7bba
00000160: 1d13 b1ba 944b 88ba 27e2 40ba c3e4 ffb8
00000170: d31e 8db9 764d 2839 6aa9 e3b9 2be0 c6b9
00000180: d3a3 0239 552c 55ba 8ad4 0438 d3c5 80ba
00000190: e017 b4b9 30c3 7839 9ea5 24ba 90ed 75b9
000001a0: 5a10 27ba 12fb fcb9 bb7c e9b9 9200 b638
000001b0: 5d55 10bb 9fc4 ecba 14f8 0ebb 789e e9ba
000001c0: 61ed 10bb cb30 0fbb 1ca5 ffba 12e8 0dbb
000001d0: 0f5f ccba c510 87b9 fef2 82ba ef1a 5739
000001e0: 553e 6eb9 b87a 51b9 fb8b 0db9 f447 1db9
000001f0: 5a79 ddb9 0bdc 3ab9 0861 9fb9 8ee3 6cb9
00000200: 8b04 2e38 0185 113a bed4 c536 9601 87b9
00000210: 58de 5e34 2c9e dab6 067d e4b9 1d08 1339
00000220: e6e7 3fb9 e640 2fb9 088e b5b9 46b2 24b8
00000230: 09a9 99b9 d0db cd39 7ec0 92b9 fbdd e336
00000240: 5330 feba a064 25bb e682 d2ba e078 0cbb
00000250: 20e8 00bb fca5 e2ba fd5a 21bb 6148 03bb
00000260: 7a73 feba 8e29 dc38 948b d439 a7b2 98b9
00000270: 3cb1 d2b9 a69c 6338 92b7 7db7 320c fcb9
00000280: 92f0 5638 bb4f 90b9 e594 12ba 8844 71ba
00000290: dd5f 0bb9 e0fd 08ba 5954 42ba 3925 dfb9
000002a0: ec9d 3039 f0ef 6db9 fe95 78b9 c0f6 16b9
000002b0: 96c4 56ba c740 0cba 58d6 d339 0c62 c4b9
000002c0: f03d 1dba 643d fab9 9610 3cba e00b 26b9
000002d0: c36d 0ebb 7ae6 17bb 8ca4 15bb 88f8 02bb
000002e0: efd3 19bb 4e50 02bb 4036 0dbb 98ad 1abb
000002f0: a39f 0fbb 5f54 0fbb d96a e5ba 6f6c b4ba
00000300: c03f 04bb 5e8e d6ba e227 afba 9c93 c3ba
00000310: 5bb5 f3ba 0987 9cba e026 e8b9 60d2 fc38
00000320: d424 06ba 2c3d 50b9 24b8 50b9 a48b 2aba
00000330: 0084 72ba 406a 21ba c6c3 3cba 7c8d c837
00000340: ac97 4eb9 5cae d438 ebb7 3db9 239a beb9
00000350: ccf7 af39 43e0 00b9 9335 82b9 6fd9 4436
00000360: 4284 03ba f748 a9b9 b028 1e39 aafd 1fba
00000370: f85f 08b9 9cec 10ba 4f24 4fba c8bd 9ab9
00000380: 239c 12ba 79e5 ceba 382a 86ba 2c6b b1ba
00000390: e0eb b3ba 0e06 b0ba 8ec5 abba efaf cfba
000003a0: 1d8d 9dba 8794 b2ba 5385 b7b9 854b deb9
000003b0: 928e 97ba 1f93 02ba deb2 81b9 79a6 06ba
000003c0: 8659 06ba d43e 84b9 f4dd c2b9 9deb 89b8
000003d0: b307 8039 a626 afb9 dc1c 9db9 3cea b839
000003e0: b027 b6b9 3168 1d39 eab6 8ab8 3ee3 b0b9
000003f0: 4993 fab9 6fef 2537 1f08 8538 df5c 9db9

momentum_buffer f4 [64]
-0.0014181281 0.031991296 -0.0001332318 0.0029970866 -0.024179328 -0.00017603913 -0.032954022 -0.082440294
0.0099400645 0.0056682206 -0.07762122 0.009583549 -0.039159738 -0.02290001 0.04249277 -0.038809977
0.0041331924 0.04059666 0.0015100997 0.053581037 -0.063531384 -0.001603336 -0.07170963 0.04936024
0.01193096 -5.0881765e-05 -5.6008415e-05 0.017184071 -0.02245207 -0.065911405 -0.015806172 -0.002561117
-0.03926215 -0.044887386 -0.000725608 0.055663567 0.0005804868 0.0054454203 -0.0022226947 -0.0030722846
0.0003810131 0.0761967 0.0004055364 0.00086697936 -0.017738545 0.009516763 0.03158979 0.0069470163
-0.04592114 0.066976935 0.0542914 -0.015048422 -0.011304907 -0.01696653 0.012568101 0.038488176
-0.0117902225 -0.02292893 -0.034614053 -0.0012916675 0.03571566 0.08111647 -9.8310564e-05 0.039800696
00000000: 7ce0 b9ba 4e09 033d 24b4 0bb9 c56a 443b
00000010: ba13 c6bc 2597 38b9 ccfa 06bd 75d6 a8bd
00000020: a7db 223c 7bbc b93b e0f7 9ebd 5104 1d3c
00000030: f665 20bd cd98 bbbc e60c 2e3d 36f7 1ebd
00000040: bb6f 873b af48 263d 8aee c53a ca77 5b3d
00000050: be1c 82bd 0727 d2ba 80dc 92bd f72d 4a3d
00000060: 137a 433c e169 55b8 94ea 6ab8 9cc5 8c3c
00000070: 67ed b7bc 8ffc 86bd f27b 81bc 6ad8 27bb
00000080: 59d1 20bd d6db 37bd bb36 3eba 7bff 633d
00000090: cf2b 183a 7f6f b23b a1aa 11bb 6258 49bb
000000a0: b6c2 c739 040d 9c3d 2d9e d439 0046 633a
000000b0: 6d50 91bc 32ec 1b3c 4c64 013d cca3 e33b
000000c0: ce17 3cbd 342b 893d a960 5e3d a88d 76bc
000000d0: 3738 39bc 64fd 8abc 70ea 4d3c c7a5 1d3d
000000e0: c72b 41bc 74d5 bbbc 77c7 0dbd 2b4d a9ba
000000f0: 954a 123d 6420 a63d 152c ceb8 0e06 233d

momentum_buffer f4 [64, 64, 3, 3]
0.0008771649 0.0003168142 0.00014157016 9.904889e-05 0.0002080129 0.0004338067 0.00033415272 0.0005479635
0.0005623512 0.003014599 0.002905999 0.0028796222 0.0028010174 0.0027171671 0.0032405425 0.002203957
0.002625421 0.0027848782 -0.0001269162 0.00028337652 0.0003852469 -5.694855e-05 -0.00042234448 0.00018183516
-0.0003053887 2.0228e-05 0.0006330084 0.0047988943 0.0049662776 0.005486622 0.0051234667 0.005946282
0.0061756987 0.0050948723 0.005383315 0.0056422483 0.004012211 0.004016921 0.0045639724 0.0039242213
0.0036211207 0.004258985 0.004218577 0.004103855 0.004654783 0.00041291938 -0.00016712298 7.031115e-05
-0.00020400908 -0.00031048412 1.9243253e-05 -8.688986e-05 -0.00019082299 0.00040271762 0.0048533203 0.0052435226
0.0059033236 0.0049391924 0.0052450653 0.006185858 0.0047230185 0.005402936 0.005789921 0.009839182
0.011253345 0.01147209 0.011753649 0.012133467 0.01232728 0.01226598 0.012570685 0.012277375
0.0027676087 0.0033783684 0.0037014328 0.0025658389 0.003592883 0.0033390827 0.0024800987 0.0029280602
0.0031428346 0.0008502444 0.0014771897 0.00096831156 0.0008198081 0.0011946785 0.001496071 0.0018229982
0.0019171159 0.0018175577 0.0058289776 0.0061850008 0.0068293335 0.0055411514 0.0062220227 0.0065658796
0.0069054156 0.0068221283 0.007195924 0.009334827 0.009968228 0.011380374 0.00942036 0.010385246
0.010608051 0.009565636 0.010148936 0.010752498 0.009303413 0.009834888 0.010653462 0.008970728
0.008713393 0.009763092 0.008318271 0.00937033 0.00941213 0.009356736 0.010029485 0.010096492
0.009722809 0.010034966 0.010576331 0.009706523 0.00966467 0.010024297 0.0048445663 0.00545833
0.0056818635 0.0057415594 0.006414998 0.006648177 0.006064671 0.0060438616 0.0064230734 0.017712357
0.01892924 0.019208334 0.017493188 0.018001629 0.019572867 0.016963217 0.018722238 0.019431455
0.0031901323 0.0036543915 0.0038842259 0.0029829098 0.0033448497 0.0037967458 0.0027624238 0.0035430433
0.0033794248 0.0039664963 0.0039549684 0.0035178603 0.0032582802 0.0041139107 0.0039278986 0.0028937268
0.0037844786 0.0036798227 0.0031147124 0.003793978 0.003005937 0.003852809 0.0037699998 0.003496607
0.0040074615 0.004569745 0.004191435 0.011104198 0.012361609 0.012221378 0.012453195 0.013456585
0.013065345 0.012345668 0.013196784 0.012652869 0.0067355405 0.0076211356 0.007319951 0.0076692933
0.008592581 0.008726457 0.0083403755 0.008883722 0.009043702 0.014128653 0.014721156 0.015613986
0.014711233 0.015876094 0.0165306 0.015529179 0.015989259 0.016897455 0.006025098 0.006001397
0.0067036813 0.0057288175 0.0060162437 0.0060729072 0.0058752657 0.0062978803 0.005862515 0.008636273
0.009452663 0.009781645 0.009347218 0.0108543625 0.011227139 0.009434431 0.010356099 0.0100383265
0.005562413 0.0063322173 0.00688481 0.0060618725 0.006526949 0.0064178277 0.0061518275 0.006345851
0.0067401896 0.00040618164 -0.0001640324 -6.090246e-05 -0.0003220545 -0.00019000337 -0.000197179 -0.0005417684
0.0003388715 9.218262e-06 -3.2758584e-05 0.00014662585 0.00035886257 -0.00019130325 -0.0006661215 8.962374e-05
0.00039256248 0.00024705956 1.0013442e-05 0.016107673 0.017459575 0.018054277 0.01673977 0.017620882
0.018281003 0.016617348 0.01703341 0.017458346 0.0021875587 0.0018990679 0.0022002696 0.0015038874
00000000: 8af1 653a 151a a639 7372 1439 78b8 cf38
00000010: 0a1e 5a39 8d70 e339 3831 af39 35a5 0f3a
00000020: c06a 133a 9490 453b 9372 3e3b 0bb8 3c3b
00000030: 4691 373b 8012 323b 485f 543b 4370 103b
00000040: 410f 2c3b 8182 363b cf14 05b9 2792 9439
00000050: f7fa c939 0adc 6eb8 1e6e ddb9 01ab 3e39
00000060: 941c a0b9 4daf a937 7af0 253a 0b40 9d3b
00000070: 28bc a23b 1fc9 b33b c1e2 a73b 07d9 c23b
00000080: 845d ca3b e3f2 a63b 8566 b03b 9ce2 b83b
00000090: de78 833b 60a0 833b 608d 953b c196 803b
000000a0: 5350 6d3b f58e 8b3b fd3b 8a3b a279 863b
000000b0: 2687 983b 1a7d d839 bc3d 2fb9 0374 9338
000000c0: 45eb 55b9 79c8 a2b9 926c a137 a338 b6b8
000000d0: a817 48b9 d823 d339 9a08 9f3b dbd1 ab3b
000000e0: ab70 c13b f3d8 a13b ccde ab3b bdb2 ca3b
000000f0: 8dc3 9a3b 1d0b b13b 61b9 bd3b 8534 213c
00000100: f35f 383c 6ff5 3b3c 6192 403c 73cb 463c
00000110: 5cf8 493c 40f7 483c 46f5 4d3c 0b27 493c
00000120: c560 353b 9e67 5d3b bd93 723b a227 283b
00000130: 9376 6b3b 83d4 5a3b 2789 223b b3e4 3f3b
00000140: 04f8 4d3b f0e2 5e3a 439e c13a 4ad6 7d3a
00000150: 64e8 563a c296 9c3a d017 c43a abf1 ee3a
00000160: bc47 fb3a 1e3b ee3a 0201 bf3b 8cab ca3b
00000170: 9ac8 df3b 8c92 b53b 1ce2 cb3b 9726 d73b
00000180: d346 e23b 298c df3b c9cb eb3b 1af1 183c
00000190: c751 233c c074 3a3c db57 1a3c e126 2a3c
000001a0: 64cd 2d3c 2fb9 1c3c b947 263c 3f2b 303c
000001b0: 586d 183c 8322 213c dc8b 2e3c f6f9 123c
000001c0: 9ec2 0e3c 60f5 1f3c 5b49 083c 0386 193c
000001d0: 5635 1a3c ff4c 193c b652 243c c26b 253c
000001e0: 6b4c 1f3c b369 243c 5948 2d3c 1c08 1f3c
000001f0: 9058 1e3c f33c 243c 2bbf 9e3b cadb b23b
00000200: ed2e ba3b b123 bc3b e734 d23b f3d8 d93b
00000210: 26ba c63b 960b c63b a578 d23b 8119 913c
00000220: 7e11 9b3c cc5a 9d3c e04d 8f3c 2778 933c
00000230: 4757 a03c 72f6 8a3c 615f 993c b72e 9f3c
00000240: 8a11 513b 847e 6f3b 7f8e 7e3b ec7c 433b
00000250: 4435 5b3b d3d2 783b c809 353b 6732 683b
00000260: 5779 5d3b 62f9 813b ae98 813b e78b 663b
00000270: df88 553b fccd 863b 9ab5 803b aea4 3d3b
00000280: 0405 783b 2e29 713b 3420 4c3b 63a4 783b
00000290: 41ff 443b 697f 7c3b 1a12 773b 5527 653b
000002a0: 0651 833b cdbd 953b 4e58 893b 62ee 353c
000002b0: 5988 4a3c 2d3c 483c 7c08 4c3c 0279 5c3c
000002c0: 0710 563c 7c45 4a3c 5337 583c fb4d 4f3c
000002d0: cfb5 dc3b b8ba f93b 33dc ef3b b24e fb3b
000002e0: e6c7 0c3c 6af9 0e3c 12a6 083c 088d 113c
000002f0: 092c 143c de7b 673c 0131 713c ced1 7f3c
00000300: 6207 713c 950e 823c 2e6b 873c 196e 7e3c
00000310: e8fb 823c 886c 8a3c 2f6e c53b 5ea7 c43b
00000320: 8eaa db3b ceb8 bb3b e923 c53b 3dff c63b
00000330: 4d85 c03b 735e ce3b 571a c03b 287f 0d3c
00000340: 58df 1a3c 3143 203c 1325 193c 7fd6 313c
00000350: 09f2 373c df92 1a3c a1ac 293c cb77 243c
00000360: e744 b63b 7d7e cf3b f999 e13b aca2 c63b
00000370: 04e0 d53b a44c d23b 4595 c93b dbf0 cf3b
00000380: cfdc dc3b c7f4 d439 1d00 2cb9 8571 7fb8
00000390: 6cd9 a8b9 a43b 47b9 d6c1 4eb9 7605 0eba
000003a0: 90aa b139 22a8 1a37 4366 09b8 94bf 1939
000003b0: b825 bc39 9398 48b9 a89e 2eba 61f4 bb38
000003c0: d8d0 cd39 c687 8139 68ff 2737 3df4 833c
000003d0: 6207 8f3c 90e6 933c d821 893c ab59 903c
000003e0: 0bc2 953c 1b21 883c a689 8b3c ce04 8f3c
000003f0: 255d 0f3b 25ea f83a 6632 103b 161e c53a

momentum_buffer f4 [64]
0.010715788 0.005720587 -0.00031679342 -0.01907707 0.00045984218 0.003847877 -0.0036698605 0.022084272
-0.0006314559 0.0006133163 0.008083997 0.023519682 0.000113463575 -0.017871724 -0.0034792584 0.03108141
0.0056910655 -0.0045362273 4.5659035e-05 -0.00155318 -0.021192815 -0.0005977087 0.008203465 -0.005528959
-0.006094889 0.016079472 5.917241e-05 0.012436168 -0.0031661205 0.019243788 -0.00062069634 -0.021141352
0.012143676 -0.008449889 -0.017910294 0.016616745 0.0051933033 0.001154285 0.025104776 -0.00024065963
-0.0018977036 8.1048434e-05 -0.0017290346 -0.019990807 -0.00043189444 0.01758089 0.018281233 0.026786717
0.0036994596 0.035082966 0.002323897 -0.0008655183 0.014456284 -0.009763695 0.013202504 -0.014510857
-0.03815198 0.012902832 0.0006084619 0.0050141066 -0.026273644 0.0007222205 -0.016816461 0.002256056
00000000: 4691 2f3c c373 bb3b 4b17 a6b9 8447 9cbc
00000010: f916 f139 aa2c 7c3b 0b82 70bb 13ea b43c
00000020: 4a88 25ba f6c6 203a be72 043c 59ac c03c
00000030: 4bf3 ed38 b967 92bc 4504 64bb 719e fe3c
00000040: 1e7c ba3b a2a4 94bb 0482 3f38 1394 cbba
00000050: 8e9c adbc 8daf 1cba d367 063c 452c b5bb
00000060: a2b7 c7bb 19b9 833c e42f 7838 12c1 4b3c
00000070: b07e 4fbb 26a5 9d3c 3ab6 22ba a130 adbc
00000080: 45f6 463c 6771 0abc 9cb8 92bc d71f 883c
00000090: 962c aa3b 614b 973a 88a8 cd3c 9459 7cb9
000000a0: 5ebc f8ba 8cf8 a938 c6a0 e2ba c3c3 a3bc
000000b0: e46f e2b9 cc05 903c 86c2 953c d16f db3c
000000c0: a272 723b 28b3 0f3d 864c 183b f3e3 62ba
000000d0: 0dda 6c3c e8f7 1fbc 514f 583c f2be 6dbc
000000e0: 4045 1cbd 6666 533c 3081 1f3a 604d a43b
000000f0: d33b d7bc 6653 3d3a adc2 89bc 57da 133b

momentum_buffer f4 [1, 64]
0.047741234 0.016593833 0.010307577 0.12242335 0.0013352504 0.020609533 0.018382546 0.111296944
0.0014901792 0.0025325117 0.039511044 0.10800757 0.0020231013 0.33559072 0.04007339 0.17687093
0.036097396 0.03707556 0.0007779683 0.092835955 0.1775489 -8.328963e-05 0.1122856 0.03967565
0.039428264 0.09587933 0.00093193963 0.1024385 0.044044018 0.11311477 0.0042234836 0.14146903
0.107206196 0.28454682 0.11942995 0.11192904 0.09245099 0.06456207 0.14067602 0.00056297414
0.0072449027 0.00012017661 0.050803833 0.18683307 0.001395212 0.109657675 0.11084838 0.14430538
0.18939209 0.16538091 0.033233833 0.15821628 0.084637284 0.07668411 0.07482699 0.13030466
0.27540147 0.058203045 0.010165121 0.054850463 0.2100886 0.0010782011 0.16741775 0.008106402
00000000: 508c 433d caef 873c 1de1 283c 18b9 fa3d
00000010: 9203 af3a 53d5 a83c fe96 963c a7ef e33d
00000020: 1e52 c33a 7ff8 253b 55d6 213d 1333 dd3d
00000030: 0296 043b 8cd2 ab3e ff23 243d a71d 353e
00000040: ddda 133d 8bdc 173d 92f0 4b3a c720 be3d
00000050: 61cf 353e c8ab aeb8 fef5 e53d ef82 223d
00000060: 887f 213d 625c c43d 694d 743a 47cb d13d
00000070: 8067 343d b7a8 e73d 2665 8a3b 42dd 103e
00000080: ec8e db3d 1fb0 913e b197 f43d 0d3b e53d
00000090: f256 bd3d 1e39 843d 600d 103e 8e94 133a
000000a0: a666 ed3b 5407 fc38 ae17 503d 2b51 3f3e
000000b0: 8cdf b63a 3494 e03d 7a04 e33d cac4 133e
000000c0: 00f0 413e 9d59 293e 3320 083d 7303 223e
000000d0: 5056 ad3d 8f0c 9d3d e53e 993d 966e 053e
000000e0: 6c01 8d3e 5166 6e3d 9c8b 263c e1aa 603d
000000f0: 7721 573e 6d52 8d3a 8f6f 2b3e b7d0 043c

bn0.weight f4 [3]
1.1192015 1.0639046 1.1100665
00000000: ff41 8f3f 072e 883f a916 8e3f

bn0.bias f4 [3]
-0.005729596 -0.08078641 -0.025927836
00000000: 56bf bbbb 5873 a5bd 9d66 d4bc

bn0.running_mean f4 [3]
0.49015662 0.4495732 0.40621483
00000000: cff5 fa3e 752e e63e 64fb cf3e

bn0.running_var f4 [3]
0.064492926 0.060007915 0.060764916
00000000: de14 843d dcca 753d a2e4 783d

conv1.weight f4 [32, 3, 5, 5]
0.106442824 -0.010655314 0.06040681 0.059754763 -0.05810497 0.050177395 0.020469002 -0.020767592
-0.052134696 -0.11307705 0.09275461 0.02183068 0.000654171 3.058032e-05 0.03864333 0.040904935
-0.03850341 -0.019337578 0.043040972 -0.02834995 -0.012837568 0.033220813 -0.013912597 -0.11677986
0.029756857 0.006109172 0.05737274 0.08857004 -0.04192377 -0.030374229 0.03144238 0.028621167
-0.03662267 0.067917384 -0.021457562 0.041807912 0.035232417 0.03885837 -0.037592765 -0.007984639
0.13626343 0.024888316 0.017805904 -0.036910776 0.009633955 0.07688317 0.058580585 0.016890936
0.010134942 0.04253269 -0.0014786344 -0.01814614 -0.03469129 -0.068668485 -0.046011142 0.017271793
0.054495033 -0.049649905 0.08887972 0.0004744866 -0.0022083602 -0.01658897 -0.1343545 -0.0542551
-0.06260751 0.032923665 0.041362688 -0.054497227 -0.08922836 -0.03470757 0.13790846 0.0667713
-0.08847846 -0.11515112 -0.11800542 -0.06470597 0.04574864 0.06358477 0.0204552 -0.0045996113
0.051594093 0.07607062 -0.063150264 -0.05790243 0.0012428906 0.008687766 -0.01164079 -0.030473307
0.04328649 0.120893896 -0.020175265 -0.06050206 0.023029882 0.03542313 -0.0076458785 0.03960172
4.0297353e-05 0.12313845 -0.021172885 0.041836817 -0.021850813 -0.04513978 0.028464062 -0.01831007
0.059260685 0.03829546 0.104959 0.048051894 -0.026723387 -0.044410735 -0.11002813 0.045173164
0.010096348 -0.04270395 -0.007782985 -0.09818828 -0.038248505 0.016655453 -0.041205116 0.06448956
-0.032518867 0.06342279 -0.07098628 0.05955952 0.077360965 -0.02726974 0.046794053 -0.0055487365
0.108275905 0.019932773 -0.004707025 0.07229168 -0.06731657 -0.062130492 -0.05980606 -0.08177906
-0.06121335 -0.025898263 0.040115967 0.038725138 -0.059092894 -0.07256063 -0.148864 -0.09354013
0.016243048 -0.03315892 -0.11826482 -0.049831215 -0.010130364 0.01666859 -0.16116352 -0.106357604
-0.0183625 0.041132722 0.059569716 0.01714441 0.02404455 -0.03942158 -0.027885653 0.011514832
0.006095028 0.06521851 -0.054193344 -0.047592726 0.063955024 -0.021959972 -0.02637551 -0.0052965917
0.030776344 0.0673575 0.015150829 -0.07339473 0.11643755 0.0045449473 -0.06093267 -0.0038448093
-0.009329944 0.016827252 -0.0053520827 0.062154815 0.012217995 -0.082345285 -0.046949577 0.0064297407
-0.031933725 0.012701583 -0.04344521 -0.04458238 3.1990297e-05 0.051558737 -0.10191514 -0.011135691
-0.052266072 -0.0029544176 -0.008870118 -0.028210528 -0.017163519 0.096935004 -0.038651474 -0.007319143
-0.014846162 0.013786942 0.087198466 0.042247865 -0.0055652717 0.11450291 0.03136506 -0.015652586
0.08086056 -0.013754445 0.055623055 0.09181968 -0.016808525 -0.030633826 -0.040679414 0.049709268
-0.040947206 0.027513083 0.05899023 -0.048935644 0.0028789884 -0.033318095 0.018833933 0.09556332
-0.06635789 -0.049522676 -0.03323849 -0.0011653571 -0.045797806 -0.018708132 -0.006162054 -0.070543244
-0.10494502 -0.047438167 -0.030826017 -0.063113235 0.059073552 0.000946767 -0.06055958 -0.1259937
0.05839226 -0.015223729 -0.010386501 -0.05553419 -0.049700752 0.020164462 0.027721353 0.0027676595
-0.22270767 0.018779848 -0.066921055 -0.015144421 0.04713827 -0.041563105 -0.033780918 -0.012843601
00000000: b2fe d93d a093 2ebc 226d 773d 69c1 743d
00000010: 7aff 6dbd d086 4d3d 9cae a73c cc20 aabc
00000020: 318b 55bd f194 e7bd 21f6 bd3d 41d6 b23c
00000030: ac7c 2b3a 5e43 0038 7848 1e3d ef8b 273d
00000040: c0b5 1dbd d769 9ebc bb4b 303d 283e e8bc
00000050: aa54 52bc 8c12 083d a9f1 63bc 472a efbd
00000060: a7c4 f33c 732f c83b aeff 6a3d 3664 b53d
00000070: 42b8 2bbd 60d3 f8bc bac9 003d f076 ea3c
00000080: a701 16bd 4518 8b3d c5c7 afbc c63e 2b3d
00000090: de4f 103d f429 1f3d dffa 19bd 01d2 02bc
000000a0: a488 0b3e 95e2 cb3c b0dd 913c c12f 17bd
000000b0: bcd7 1d3c ec74 9d3d 32f2 6f3d dc5e 8a3c
000000c0: 070d 263c c236 2e3d bdce c1ba 37a7 94bc
000000d0: 7418 0ebd 10a2 8cbd 2e76 3cbd 937d 8d3c
000000e0: 2f36 5f3d b35d 4bbd 9206 b63d 83c4 f839
000000f0: 23ba 10bb 97e5 87bc 3a94 09be 993a 5ebd
00000100: 5e38 80bd f7da 063d ec6b 293d 7c38 5fbd
00000110: 5cbd b6bd 8629 0ebd e037 0d3e 64bf 883d
00000120: 3234 b5bd 5ad4 ebbd d3ac f1bd 9084 84bd
00000130: ed62 3b3d bb38 823d aa91 a73c 56b8 96bb
00000140: 5454 533d eaca 9b3d ed54 81bd 192b 6dbd
00000150: 7de8 a23a 2257 0e3c 03b9 3ebc 28a3 f9bc
00000160: 2d4d 313d 3897 f73d 9946 a5bc 02d1 77bd
00000170: 2aa9 bc3c d817 113d 478a fabb 6a35 223d
00000180: f404 2938 0330 fc3d c272 adbc 155d 2b3d
00000190: 7a00 b3bc 7de4 38bd 772d e93c 00ff 95bc
000001a0: 55bb 723d b3db 1c3d bff4 d63d 10d2 443d
000001b0: 01eb dabc 08e8 35bd 6e56 e1bd 7f07 393d
000001c0: 276b 253c 56ea 2ebd 6908 ffbb f016 c9bd
000001d0: 77aa 1cbd 0471 883c b2c6 28bd 1a13 843d
000001e0: 8132 05bd cfe3 813d 4161 91bd aff4 733d
000001f0: 6d6f 9e3d ca64 dfbc 1fab 3f3d 2dd2 b5bb
00000200: c2bf dd3d 0e4a a33c 633d 9abb a90d 943d
00000210: 45dd 89bd 8b7c 7ebd 33f7 74bd c87b a7bd
00000220: daba 7abd 9828 d4bc a450 243d 409e 1e3d
00000230: 640b 72bd ab9a 94bd ce6f 18be f891 bfbd
00000240: 2410 853c a6d1 07bd d334 f2bd d11b 4cbd
00000250: d4f9 25bc 918c 883c 0d08 25be 04d2 d9bd
00000260: f46c 96bc c97a 283d 60ff 733d 6f72 8c3c
00000270: 13f9 c43c 8678 21bd 7470 e4bc b5a8 3c3c
00000280: cdb8 c73b 4891 853d d7f9 5dbd 97f0 42bd
00000290: dafa 823d 66e5 b3bc 7411 d8bc 088f adbb
000002a0: ac1e fc3c bbf2 893d 2f3b 783c fa4f 96bd
000002b0: cf76 ee3d c8ed 943b 8994 79bd 32f9 7bbb
000002c0: 9fdc 18bc 4ed9 893c 8660 afbb 0c96 7e3d
000002d0: fc2d 483c a5a4 a8bd 334e 40bd 93b0 d23b
000002e0: f0cc 02bd 4d1a 503c 9bf3 31bd 049c 36bd
000002f0: 522d 0638 412f 533d e3b8 d0bd 7972 36bc
00000300: f314 56bd e79e 41bb f953 11bc c419 e7bc
00000310: 829a 8cbc dc85 c63d 0251 1ebd 6cd5 efbb
00000320: 513d 73bc a0e2 613c 1c95 b23d 190c 2d3d
00000330: e25c b6bb 8080 ea3d a678 003d da39 80bc
00000340: 399a a53d 535a 61bc 00d5 633d f50b bc3d
00000350: 08b2 89bc caf3 fabc 759f 26bd f29b 4b3d
00000360: 42b8 27bd 1e63 e13c bd9f 713d be70 48bd
00000370: 69ad 3c3b 8e78 08bd 9f49 9a3c b4b6 c33d
00000380: a5e6 87bd 4ad8 4abd 1525 08bd e5be 98ba
00000390: 7b96 3bbd cc41 99bc 0eeb c9bb fa78 90bd
000003a0: 6aed d6bd 864e 42bd d886 fcbc 8341 81bd
000003b0: 1cf7 713d 7530 783a 520d 78bd 7e04 01be
000003c0: b92c 6f3d f36c 79bc 252c 2abc d277 63bd
000003d0: 0493 4bbd f12f a53c e417 e33c 9f61 353b
000003e0: 7b0d 64be 32d8 993c e80d 89bd 4e20 78bc
000003f0: 0f14 413d 133e 2abd dc5d 0abd f86d 52bc

conv1.bias f4 [32]
-0.042914655 0.09468871 0.010788119 -0.076142706 -0.07461407 -0.035776787 0.0052128555 0.1276597
-0.032293737 0.1174312 0.052825686 0.12843353 -0.07154111 0.022517817 -0.09402502 -0.0889262
0.06525871 0.03253569 0.14860973 -0.009158126 -0.028223472 -0.014311562 -0.031501453 0.08909794
0.017836137 0.014654166 0.021648087 0.0316985 -0.060957313 -0.09201355 -0.002128179 -0.112572916
00000000: 47c7 2fbd 28ec c13d a7c0 303c b5f0 9bbd
00000010: 43cf 98bd ae8a 12bd 9ad0 aa3b 39b9 023e
00000020: 7046 04bd c57f f03d bf5f 583d 1484 033e
00000030: 2584 92bd 4977 b83c 3190 c0bd f11e b6bd
00000040: 5ca6 853d 2544 053d 262d 183e f70b 16bc
00000050: e934 e7bc 0b7b 6abc ab07 01bd fb78 b63d
00000060: 171d 923c 0718 703c 5457 b13c 49d6 013d
00000070: 60ae 79bd 9a71 bcbd eb78 0bbb a18c e6bd

conv2.weight f4 [32, 32, 3, 3]
-0.0801976 -0.021151118 -0.019589147 -0.049611878 -0.30712208 -0.102781355 -0.0406693 0.0018693367
0.02187289 0.010856748 -0.053261623 -0.09974669 -0.035889994 0.007784034 0.067230776 -0.0017401199
0.02467636 -0.050552882 0.09347696 0.06027077 -0.036035262 0.0665124 -0.135862 -0.032981876
-0.12906137 0.01715096 -0.06548056 -0.037041403 0.0074480884 0.05185174 -0.029053356 -0.0041937605
-0.106523 0.04824776 0.0030268861 0.0317413 -0.03856802 -0.020816881 -0.008775196 0.11254691
0.012290304 0.05078005 0.047204494 0.02772077 -0.0998379 0.14493877 -0.05062201 0.116435714
-0.02731526 0.05449819 0.004767359 0.34709844 -0.02501038 -0.03255264 -0.06797914 -0.199852
0.10312416 -0.13405383 0.18706198 -0.108500235 -0.036078528 0.073879376 -0.00675011 -0.057525367
0.1293909 -0.0073012505 -0.005539835 0.12829582 0.17368412 0.073665075 0.051977344 -0.01546071
0.020676872 0.053208314 0.027090449 0.025328703 0.027671635 0.041134093 0.08817134 -0.022764057
-0.12213899 0.047868766 0.037231542 -0.10428264 -0.09361555 -0.09626883 -0.09061966 -0.047392942
0.058637682 -0.052084453 -0.07069571 0.07281125 -0.042998355 0.14661986 0.0059785037 -0.0099599995
-0.023214981 0.009970087 -0.02958584 -0.10337725 0.04155916 -0.020008858 0.071329884 0.020314768
0.04794077 -0.13244984 -0.010732799 0.04985221 -0.107120104 -0.023932928 -0.09266705 0.006396066
-0.094157666 -0.011312042 0.056867063 0.0151828015 -0.12331449 0.119941205 -0.028607236 -0.022249319
0.12791 -0.0033837953 0.085402004 -0.12809838 0.044535678 0.085397854 0.050909165 -0.014126839
-0.09343731 0.07400697 0.1473973 0.0771637 0.013005243 0.026076542 -0.030278789 -0.005591074
-0.016246442 -0.050021034 0.040490728 0.14586736 -0.05599323 0.02766357 -0.12617566 0.1022582
0.15546273 -0.113921896 0.0124068 0.00815787 0.13234021 -0.053767625 0.041049473 -0.021695297
-0.108275265 0.049385007 0.06170143 0.23917715 -0.06949532 0.010018143 0.04467392 -0.00931853
0.060869724 -0.0062548704 -0.05307673 -0.08301838 -0.071552224 0.03950726 0.16180915 -0.03453507
-0.027501812 -0.020047829 0.022276523 0.02625016 -0.10374214 -0.08085107 -0.055222884 0.024066566
0.11288032 -0.06373504 -0.057721697 -0.15410724 -0.010353384 0.0705684 0.044187374 0.20078437
0.0035931221 -0.14486626 0.085048944 -0.036557738 0.042923667 -0.013072728 -0.120019905 0.020047067
-0.0077418666 0.033513784 0.067116596 -0.03926613 -0.02252845 0.028512497 -0.10032162 0.07306452
0.055322755 -0.053726196 -0.008035499 -0.049548723 0.07582614 -0.07215736 -0.10759814 0.041966155
0.010294663 0.027457846 0.0069125835 -0.009011195 0.13519295 -0.06760391 0.019960282 -0.009301145
0.027811727 -0.116699964 0.09474102 0.11167388 -0.064786516 -0.05889992 0.019551694 -0.04037175
0.076844305 0.051727075 0.044236924 0.14058393 0.0061310977 -0.13451016 -0.02882672 0.08126605
0.05032708 0.14986184 -0.050396018 0.07863236 0.05823936 0.1439633 0.04327512 -0.062082622
-0.02102077 0.105976544 0.079842776 0.06851662 0.016813762 0.084051214 0.08643928 0.07532226
-0.030689137 0.065975666 -0.013017174 0.014502526 -0.24599 -0.09762482 0.03055731 0.11126933
00000000: a43e a4bd 1c45 adbc 6b79 a0bc d335 4bbd
00000010: 1b3f 9dbe 087f d2bd da94 26bd 8804 f53a
00000020: c62e b33c 80e0 313c dc28 5abd fe47 ccbd
00000030: 6301 13bd 3611 ff3b 4ab0 893d bc14 e4ba
00000040: 1426 ca3c 8a10 4fbd d970 bf3d 7cde 763d
00000050: b699 13bd a737 883d 681f 0bbe 0118 07bd
00000060: aa28 04be 2c80 8c3c ac1a 86bd bab8 17bd
00000070: 180f f43b 7d62 543d 4e01 eebc d06b 89bb
00000080: bb28 dabd 719f 453d b95e 463b 2a03 023d
00000090: 80f9 1dbd 2a88 aabc d7c5 0fbc ff7e e63d
000000a0: 455d 493c befe 4f3d 8059 413d ab16 e33c
000000b0: d077 ccbd d46a 143e 0659 4fbd d975 ee3d
000000c0: 41c4 dfbc 7e39 5f3d 8137 9c3b e3b6 b13e
000000d0: 92e2 ccbc eb55 05bd a638 8bbd 01a6 4cbe
000000e0: c232 d33d 6845 09be 2d8d 3f3e 5f35 debd
000000f0: 14c7 13bd 124e 973d 0730 ddbb b89f 6bbd
00000100: 0c7f 043e 543f efbb 8187 b5bb fb5f 033e
00000110: 40da 313e b7dd 963d 32e6 543d eb4e 7dbc
00000120: 8b62 a93c f6f0 593d caec dd3c 247e cf3c
00000130: a0af e23c 397c 283d 2d93 b43d b07b babc
00000140: 0224 fabd 0a12 443d 1a80 183d 2392 d5bd
00000150: 82b9 bfbd 9828 c5bd cd96 b9bd 1a1f 42bd
00000160: 112e 703d 8256 55bd eac8 90bd 111e 953d
00000170: 0b1f 30bd 8423 163e 53e7 c33b 442f 23bc
00000180: 582d bebc 9359 233c 015e f2bc 74b7 d3bd
00000190: f039 2a3d 9ee9 a3bc 6715 923d 286b a63c
000001a0: 8a5d 443d eea0 07be 9fd8 2fbc d531 4c3d
000001b0: c961 dbbd fd0e c4bc 39c8 bdbd 1796 d13b
000001c0: bcd5 c0bd 2556 39bc 70ed 683d 49c1 783c
000001d0: 4f8c fcbd bca3 f53d b959 eabc 3444 b6bc
000001e0: d7fa 023e aac2 5dbb 3fe7 ae3d 392c 03be
000001f0: 0b6b 363d 12e5 ae3d 2186 503d 4274 67bc
00000200: 0f5c bfbd f790 973d 51ef 163e 0008 9e3d
00000210: f113 553c 799e d53c 390b f8bc 5435 b7bb
00000220: 4217 85bc dbe2 4cbd 9bd9 253d 415e 153e
00000230: 2859 65bd b69e e23c 3134 01be bf6c d13d
00000240: 9f31 1f3e e24f e9bd e445 4b3c 96a8 053c
00000250: 3184 073e 713b 5cbd 7e23 283d 56ba b1bc
00000260: 6cbf ddbd ef47 4a3d a3ba 7c3d dbea 743e
00000270: 9053 8ebd 2323 243c 00fc 363d bfac 18bc
00000280: 8852 793d a8f5 ccbb fc66 59bd 8a05 aabd
00000290: f989 92bd 5dd2 213d 4cb1 253e a574 0dbd
000002a0: 7b4b e1bc 583b a4bc 417d b63c 930a d73c
000002b0: c276 d4bd 3f95 a5bd 6431 62bd 3f27 c53c
000002c0: cc2d e73d 8487 82bd 966d 6cbd 4ace 1dbe
000002d0: 3da1 29bc 2a86 903d d2fd 343d 6b9a 4d3e
000002e0: 967a 6b3b d257 14be 242e ae3d 91bd 15bd
000002f0: bad0 2f3d ff2e 56bc ffcc f5bd bf39 a43c
00000300: 7caf fdbb c045 093d 6d74 893d 86d5 20bd
00000310: 958d b8bc 0a93 e93c 6c75 cdbd daa2 953d
00000320: 1d9a 623d 0010 5cbd 53a7 03bc 9af3 4abd
00000330: bc4a 9b3d 3dc7 93bd 6a5c dcbd b4e4 2b3d
00000340: f2aa 283c 47ef e03c f482 e23b b1a3 13bc
00000350: 0570 0a3e eb73 8abd bf83 a33c d463 18bc
00000360: 6bd5 e33c 6400 efbd 9407 c23d 46b5 e43d
00000370: cbae 84bd 0b41 71bd e02a a03c d95c 25bd
00000380: 8c60 9d3d c5df 533d c731 353d 3cf5 0f3e
00000390: 60e7 c83b 08bd 09be 0326 ecbc d16e a63d
000003a0: c523 4e3d 6275 193e 0e6c 4ebd 010a a13d
000003b0: 658c 6e3d 1e6b 133e 4141 313d 594a 7ebd
000003c0: c033 acbc 3b0a d93d 9c84 a33d 7152 8c3d
000003d0: 04bd 893c 0b23 ac3d 1407 b13d 8f42 9a3d
000003e0: c967 fbbc 401e 873d fc45 55bc 019c 6d3c
000003f0: cde4 7bbe 86ef c7bd 5353 fa3c 2de1 e33d

conv2.bias f4 [32]
0.041403048 0.008966946 0.0074037486 0.011572567 0.047663942 0.012564466 0.042172607 0.068188466
0.03738024 0.058081876 -0.008175612 0.07783885 0.038483422 0.04675629 -0.0036974524 0.030644523
-0.0075651268 -0.016695747 -0.0322289 0.05109852 0.03702317 0.022204645 -0.0094159795 -0.007516532
0.05869167 0.0757084 0.013088941 -0.060635105 -0.041432843 -0.04038037 0.067150176 0.048915282
00000000: 3e96 293d 19ea 123c 259b f23b dd9a 3d3c
00000010: 443b 433d 31db 4d3c 2fbd 2c3d 65a6 8b3d
00000020: 061c 193d 43e7 6d3d 01f3 05bc fa69 9f3d
00000030: cba0 1d3d 8683 3f3d f550 72bb 390a fb3c
00000040: e2e4 f7bb 85c5 88bc 7302 04bd af4c 513d
00000050: 9ca5 173d 84e6 b53c 7b45 1abc 3e4d f6bb
00000060: ad66 703d 010d 9b3d ff72 563c 845c 78bd
00000070: 7cb5 29bd e365 25bd 0886 893d 645b 483d
