Ratio_Reverse_wo_GRL/checkpoint_step_0135.pth (torch_old, 541539 bytes, 24 tensors)

momentum_buffer f4 [3]
000000 0d e7 5f be 96 73 4e be 3e 46 93 3e
       -0.21865483 -0.2016128 0.28764528

momentum_buffer f4 [3]
000000 a4 66 24 3d 66 c3 26 3e 21 12 1f be
       0.04013695 0.16285476 -0.1553426

momentum_buffer f4 [32, 3, 5, 5]
000000 36 30 a1 bc 92 e6 c1 bc 28 90 c3 bc da b4 9f bc
       -0.01967631 -0.023669515 -0.02387245 -0.019495416
000010 8c 03 c2 bc e0 dd f7 bc 5c 34 e9 bc f8 18 e1 bc
       -0.023683332 -0.030257165 -0.02846735 -0.027477726
000020 4e 53 e9 bc 76 7c f8 bc 0c a3 ff bc 94 95 02 bd
       -0.028482106 -0.030332785 -0.031205676 -0.03188093
000030 4b d6 08 bd 37 f5 08 bd cf dc 07 bd 04 92 b9 bc
       -0.03340749 -0.03343698 -0.033169564 -0.022652633
000040 10 ea e1 bc a6 e8 eb bc 14 a9 e9 bc 14 f9 e0 bc
       -0.02757743 -0.028797459 -0.028523006 -0.02746252
000050 6c 51 32 bc b0 62 5a bc 30 8d 36 bc c0 0f 31 bc
       -0.01088367 -0.013329193 -0.01114206 -0.010806978
000060 a8 82 57 bc d0 16 89 3c c8 56 51 3c c4 98 53 3c
       -0.0131537095 0.01673451 0.012777038 0.01291484
000070 96 90 8f 3c a8 d1 79 3c b0 e4 e3 3b 4c 51 01 3c
       0.017524999 0.01524774 0.006954752 0.007892918
000080 38 8f 05 3c f0 17 0c 3c 8c 41 02 3c 10 c4 c9 3b
       0.008151822 0.008550629 0.007950198 0.0061574057
000090 d8 f6 88 3b 80 a0 43 3b e0 75 68 3b 30 55 85 3b
       0.0041798167 0.0029850304 0.003547065 0.004068993
0000a0 d4 65 87 3c 10 2b 1e 3c 30 93 fb 3b b8 43 01 3c
       0.016528048 0.009653822 0.007677458 0.007889681
0000b0 e8 f9 21 3c aa 62 f0 3c fc e2 cd 3c 52 0f cd 3c
       0.009886242 0.029343922 0.025132649 0.02503172
0000c0 6a 75 cd 3c 76 85 c7 3c e0 fa 01 3d 9c 8c de 3c
       0.025080401 0.024355631 0.031733394 0.027166657
0000d0 34 5f d6 3c 48 b0 f5 3c e8 cf ee 3c a8 8b b1 3c
       0.026168443 0.029991284 0.029151872 0.021673039
0000e0 da 2d b7 3c 76 ab b0 3c 92 a6 ae 3c de dd ab 3c
       0.02236073 0.021566134 0.021319661 0.020979818
0000f0 7c 79 97 3c 1a 27 83 3c c4 aa 64 3c cc f7 64 3c
       0.018490545 0.016009856 0.013956729 0.013975095
000100 a0 00 85 3c 3c 52 cd 3c 64 b1 98 3c 0e a4 80 3c
       0.01623565 0.025063626 0.018639274 0.015703227
000110 d8 fc 8a 3c 56 4f ac 3c 45 0e 18 3d 50 b9 03 3d
       0.016966268 0.021033924 0.037122983 0.03215915
000120 6e 54 02 3d 71 db 04 3d 70 a5 0b 3d 13 e2 09 3d
       0.0318188 0.032435838 0.03409332 0.033662867
000130 8a 9a 1c 3d 7d a2 0c 3d be eb e2 3c c3 31 01 3d
       0.038233317 0.03433465 0.027700301 0.031541597
000140 b3 9f 01 3d 0c a7 13 3d 6a 70 11 3d 9c 08 ef 3c
       0.03164644 0.03604798 0.035507597 0.02917891
000150 26 c1 05 3d 97 d0 e1 3c 06 ed 06 3d 45 40 1f 3d
       0.032654904 0.027565284 0.032940887 0.03887965
000160 3c da 05 3d f0 85 05 3d e6 49 04 3d e6 5c 15 3d
       0.032678828 0.032598436 0.032297038 0.036465548
000170 a2 dc 2f 3d d8 d4 1a 3d 07 16 14 3d c3 55 fb 3c
       0.04293502 0.03780064 0.03615382 0.030680543
000180 b1 d0 02 3d c2 da 0c 3d ef a4 07 3d 95 09 19 3d
       0.031937305 0.03438831 0.033116277 0.037362654
000190 50 47 06 3d ad 6a 19 3d dd eb 11 3d 49 37 f9 3c
       0.032782853 0.03745525 0.035625327 0.03042187
0001a0 18 b2 0e 3d 23 3b f5 3c 12 57 0d 3d f0 97 12 3d
       0.034837812 0.029935425 0.034506865 0.03578943
0001b0 55 59 02 3d 37 fc 14 3d 2c 54 d7 3c 73 1d fd 3c
       0.031823475 0.036373343 0.026285253 0.030897832
0001c0 57 dc 1e 3d bb 8a 10 3d df d3 13 3d 7a 4a fa 3c
       0.03878435 0.035288554 0.036090728 0.030553091
0001d0 30 5c 0f 3d 94 bf 33 3d 58 8d 24 3d b1 a5 21 3d
       0.035000026 0.043883875 0.04017386 0.039464656
0001e0 7c 05 f2 3c b2 98 f9 3c 6c ea 0d 3d 36 35 0f 3d
       0.02954363 0.030468319 0.03464739 0.034962855
0001f0 92 26 22 3d f0 6c d4 3c 12 2b f8 3c 7c 41 eb 3c
       0.039587565 0.025930852 0.030293975 0.028717749
000200 4a 3b d2 3c e7 9e 02 3d 27 1d b8 3c 86 bf d7 3c
       0.025663037 0.031889822 0.022474838 0.026336443
000210 a8 78 eb 3c 51 5a e2 3c 44 82 04 3d fd ed 9a 3c
       0.028744057 0.027630957 0.032350793 0.01891231
000220 2d db c1 3c 61 62 06 3d a1 1c 02 3d 96 a2 07 3d
       0.023664081 0.032808665 0.031765584 0.03311404
000230 86 ad cc 3c 1e 86 ea 3c 64 6e 1f 3d 5c 0a 1a 3d
       0.024985086 0.028628405 0.038923636 0.037607536
000240 e4 a2 16 3d e1 c8 ca 3c 32 90 ce 3c 95 47 f6 3c
       0.03677644 0.02475399 0.025215242 0.03006343
000250 c0 e8 fe 3c f5 8d 15 3d dd 0c 8f bc 35 6a 87 bc
       0.031116843 0.036512334 -0.017462188 -0.016530136
000260 d7 b7 82 bc f1 82 8a bc 2c b9 8a bc 73 7f 8b bc
       -0.015956802 -0.01690814 -0.016934 -0.017028546
000270 b9 92 87 bc 74 a4 7d bc f1 73 84 bc 6e 8f 88 bc
       -0.016549455 -0.015481103 -0.016168566 -0.016669955
000280 28 3b 93 bc c2 c6 94 bc 88 3e 8a bc ba 1c 8a bc
       -0.017972544 -0.018161181 -0.01687552 -0.016859401
000290 51 19 8d bc 90 55 87 bc 18 c7 86 bc 77 1d 83 bc
       -0.017223986 -0.016520292 -0.016452357 -0.01600526
0002a0 b4 e7 85 bc be 69 84 bc fd cf 87 bc 5d 64 7b bc
       -0.016345836 -0.016163703 -0.016578669 -0.015343753
0002b0 e2 f3 75 bc a3 ef 8b bc 79 4f 81 bc 30 67 29 bc
       -0.0150117595 -0.017082041 -0.015784966 -0.010339543
0002c0 ea 1d 2b bc 10 d6 1a bc 20 9b 29 bc 10 8e 2e bc
       -0.010444144 -0.009450451 -0.010351926 -0.0106539875
0002d0 e2 23 26 bc b0 65 26 bc 84 01 18 bc 72 1f 29 bc
       -0.010140391 -0.01015608 -0.009277705 -0.010322439
0002e0 d6 da 29 bc d0 4b 35 bc 6e 64 3b bc 4c 83 2f bc
       -0.010367116 -0.011065438 -0.0114375185 -0.010712456
0002f0 fd 03 33 bc 5f eb 34 bc de 91 2d bc 64 04 2e bc
       -0.010926244 -0.011042445 -0.0105938595 -0.010621164
000300 68 ae 26 bc e4 81 2f bc e4 b9 23 bc 48 95 2b bc
       -0.010173418 -0.010712121 -0.00999305 -0.010472603
000310 a0 7b 19 bc 80 14 1f bc 42 fd 28 bc b1 c3 24 bc
       -0.009367853 -0.009709477 -0.010314288 -0.010056422
000320 24 26 d4 bb df 1f d2 bb f7 77 c4 bb 30 90 ea bb
       -0.0064742733 -0.0064124907 -0.0059957462 -0.007158302
000330 a6 1d f4 bb 92 1f cf bb 36 53 e0 bb a5 54 d1 bb
       -0.0074498234 -0.006320902 -0.006845857 -0.0063882642
000340 81 7f e7 bb 63 da ef bb 6d 9c ea bb 19 0b f7 bb
       -0.00706476 -0.007319735 -0.0071597607 -0.0075391647
000350 a9 9a e7 bb 41 bc e6 bb 3f 94 f0 bb 23 d1 d7 bb
       -0.0070679975 -0.0070414846 -0.007341891 -0.0065862103
000360 a4 b1 d2 bb 47 9b ee bb a7 da d2 bb 25 ef ce bb
       -0.006429868 -0.007281694 -0.006434757 -0.0063151293
000370 82 81 db bb ae 5b ae bb 31 76 c3 bb 7d d3 d2 bb
       -0.006698788 -0.0053209877 -0.0059650172 -0.006433903
000380 70 78 b3 bb 20 0c 25 bd 87 87 04 bd 53 f6 04 bd
       -0.0054770038 -0.040294766 -0.03235581 -0.032461476
000390 ca 23 12 bd 30 cb 0e bd 54 de 31 bd 43 32 15 bd
       -0.035678662 -0.034861743 -0.04342492 -0.036424886
0003a0 3e 0a 0d bd 40 77 17 bd 92 a8 14 bd e9 29 1e bd
       -0.034433596 -0.03697896 -0.036293574 -0.038614187
0003b0 ec eb 13 bd 8c 97 06 bd aa cd 07 bd b0 f1 09 bd
       -0.036113665 -0.03285937 -0.03315512 -0.033677757
0003c0 46 c4 1a bd 21 ee 14 bd bc 7e 1e bd 91 d4 13 bd
       -0.037784837 -0.03635991 -0.038695082 -0.03609139
0003d0 9e 99 09 bd f0 7c 23 bd b0 dd 17 bd 5f 93 25 bd
       -0.033593766 -0.03991407 -0.037076652 -0.040423747
0003e0 d6 d5 20 bd b9 64 0e bd 62 ef 25 bd dc 13 01 bd
       -0.03926643 -0.034764025 -0.040511496 -0.03151308
0003f0 d2 f0 fd bc 46 d8 0c bd 1d df 03 bd c1 aa 2f bd
       -0.030998621 -0.034385942 -0.0321952 -0.042887453

momentum_buffer f4 [32]
000000 98 54 21 bd 60 8c 38 3d 0c 13 1c 3c a1 b6 fb 3c
       -0.039387316 0.045055747 0.0095260255 0.030726733
000010 f8 56 c2 3d 80 f0 1e bd bc 96 c7 bc b4 e4 3d bb
       0.09489244 -0.038803577 -0.024363868 -0.002897543
000020 e9 5f 38 bd e9 e8 4f bd a6 47 0f 3c f4 32 04 bd
       -0.045013342 -0.05075923 0.00874511 -0.032275155
000030 48 32 76 bd 20 12 64 ba aa f7 13 3d dd 71 e9 bc
       -0.060106546 -0.00087002106 0.036124863 -0.028496677
000040 3b e8 3b 3c d8 46 fa bb 28 fd 8d 3c 32 ab 86 3d
       0.011468942 -0.0076378398 0.017332628 0.06575622
000050 43 85 65 bb b8 dc 26 bd b9 af c1 bc 60 df ab 3c
       -0.0035022057 -0.040737838 -0.023643361 0.020980537
000060 22 a2 8c bc f6 f0 b1 3d 9f aa 37 bd 12 f3 fc 3d
       -0.017167155 0.08688538 -0.04484045 0.123510495
000070 32 5c 33 bd c5 5f 97 3b 60 58 a8 3d 88 c0 c1 3c
       -0.043789096 0.004619571 0.08219981 0.023651376

momentum_buffer f4 [32, 32, 3, 3]
000000 c8 78 34 3c 3c 06 22 3c 96 5e 0d 3c a0 50 2e 3c
       0.011015125 0.009889182 0.008628508 0.01063934
000010 66 1e 22 3c c7 17 1a 3c 3a 73 35 3c 62 d2 2a 3c
       0.009894943 0.009405083 0.011074835 0.010426136
000020 52 50 17 3c 92 d4 a6 bb cd 35 5c bb d7 be 33 bb
       0.009235458 -0.0050912583 -0.0033601404 -0.0027426982
000030 ef ba 91 bb ac c5 51 bb 7d 20 25 bb 3f 14 8d bb
       -0.004447333 -0.003200869 -0.0025196366 -0.004305392
000040 be 31 6f bb 67 8b 0e bb 9a 87 33 3c 4a 17 24 3c
       -0.0036498155 -0.002175057 0.010957623 0.010015318
000050 1e 07 15 3c 86 6f 3d 3c f1 ae 1f 3c 65 bc 23 3c
       0.009095935 0.011562234 0.009746299 0.009993647
000060 97 dd 37 3c 62 ff 37 3c 8a 8a 27 3c 6e 60 7b 3b
       0.011222265 0.011230322 0.010225901 0.0038357037
000070 6c 2d 4e 3b 2e a8 83 3b 39 70 92 3b 16 70 43 3b
       0.003146018 0.0040178513 0.0044689444 0.0029821447
000080 00 1b 86 3b 92 7c 6d 3b b6 cb 6a 3b 4c 55 3f 3b
       0.004092574 0.003623758 0.0035826988 0.0029195128
000090 15 5e aa bb ac ab 5b bb ad 0c be ba 82 4e 99 bb
       -0.0051992037 -0.0033519072 -0.0014499627 -0.0046785483
0000a0 f7 6e 75 bb b6 76 0a bb b7 ee a8 bb 2f 98 32 bb
       -0.0037450173 -0.0021127886 -0.00515541 -0.0027251353
0000b0 27 d6 1b bb 58 b6 aa 3b 90 c7 c8 3b 0e 65 6f 3b
       -0.0023778768 0.0052097254 0.0061273053 0.003652874
0000c0 0e 12 a4 3b 25 cc a5 3b 14 59 98 3b 60 65 b7 3b
       0.005007035 0.0050597363 0.004649291 0.0055968016
0000d0 0d 51 9f 3b 2e 7c 84 3b 5c 49 ba 3c 1e d7 a4 3c
       0.004861957 0.0040431237 0.022740059 0.020122107
0000e0 e0 a7 9d 3c 20 ed bb 3c 59 cd a9 3c 3d 10 9e 3c
       0.019245088 0.022940218 0.0207278 0.019294852
0000f0 ef 2f c2 3c dc e6 b7 3c 1d 86 af 3c 48 c1 04 3d
       0.023704497 0.02244895 0.021426255 0.03241089
000100 38 c8 09 3d be d9 09 3d e7 49 16 3d 78 b4 17 3d
       0.03363821 0.03365492 0.036691573 0.037037343
000110 f7 1a 1a 3d 73 db 1a 3d ff 86 23 3d 9d e8 20 3d
       0.037623372 0.03780694 0.039923664 0.039284337
000120 05 3e 81 3c ff 23 5d 3c d2 8e 4a 3c 3b 3f 83 3c
       0.015776644 0.013497352 0.012363153 0.016021362
000130 f4 ad 71 3c 89 03 50 3c 2f b5 5b 3c 26 4b 52 3c
       0.014750946 0.012696155 0.013409897 0.0128353
000140 f8 e5 3b 3c 14 2f 97 3c e4 ff 8a 3c 25 a5 5d 3c
       0.011468403 0.018455066 0.016967721 0.013528143
000150 2d ef 9d 3c fe da 90 3c 43 96 74 3c cb 08 9c 3c
       0.019279087 0.017682549 0.014928403 0.019047162
000160 90 a7 88 3c 57 37 75 3c b6 83 64 3c d4 75 6a 3c
       0.016681463 0.014966807 0.013947418 0.014310319
000170 bb e5 5f 3c 66 45 80 3c 3d ed 84 3c d5 ec 7e 3c
       0.013665612 0.015658092 0.016226405 0.015559395
000180 75 c8 89 3c 38 d1 8f 3c 5d 4e 7d 3c c0 41 a6 3c
       0.016819218 0.017555818 0.015460578 0.020295024
000190 d8 a3 a5 3c 10 6d a5 3c 70 2e ba 3c bb 8c b9 3c
       0.020219728 0.020193607 0.022727221 0.022650113
0001a0 b3 89 ad 3c a4 3e c5 3c ec 67 bd 3c 44 57 be 3c
       0.021183824 0.024077721 0.023120843 0.02323497
0001b0 20 c0 94 3c d8 ba 87 3c 1f c8 77 3c ea d4 9b 3c
       0.018158019 0.016568586 0.015123396 0.019022424
0001c0 36 a9 8b 3c b0 32 83 3c d5 d9 9c 3c 2a b0 8c 3c
       0.01704846 0.01601538 0.01914684 0.017173845
0001d0 46 87 85 3c 2a 72 82 3b 3b d4 82 3b f8 2e 23 3b
       0.016299855 0.0039808946 0.003992585 0.0024899822
0001e0 8d ed ad 3b 47 e0 b1 3b be ee 5e 3b a3 af c4 3b
       0.0053078593 0.0054283473 0.0034016813 0.006002383
0001f0 d1 68 bc 3b 41 68 89 3b c0 12 ce 3b d6 b4 f7 3b
       0.0057498 0.0041933362 0.0062888563 0.007559399
000200 b3 a9 23 3c a8 27 0b 3c 33 59 1d 3c 98 6a 5a 3c
       0.00998919 0.0084933415 0.009603786 0.013331078
000210 6b 13 17 3c de 27 2c 3c d7 7a 55 3c 20 2d ae 3c
       0.009220938 0.010507552 0.013029776 0.021261752
000220 c8 33 a4 3c 7e 02 9f 3c 22 fe b5 3c 82 a8 a3 3c
       0.020044222 0.019410368 0.022215907 0.019977812
000230 9b df 9d 3c 80 4d bc 3c d1 fd aa 3c c6 4e 9f 3c
       0.019271662 0.022986174 0.020872982 0.019446742
000240 63 89 98 3c 7d 43 98 3c be 40 8d 3c 58 b7 9a 3c
       0.018620199 0.018586868 0.017242786 0.018886253
000250 d1 e1 99 3c 7c 14 94 3c 7a 8c 9f 3c 52 95 9a 3c
       0.018784435 0.018076174 0.019476164 0.01887003
000260 76 f0 8e 3c fe c8 d5 3c a6 a0 ce 3c 3c c6 bc 3c
       0.017448645 0.026096817 0.025223088 0.023043744
000270 fc c8 d2 3c 25 31 cf 3c d5 7d bf 3c 56 36 da 3c
       0.025730602 0.025291989 0.023375431 0.026637238
000280 24 29 d3 3c 80 21 c8 3c 21 0e ab 38 9e 41 47 39
       0.025776453 0.024430037 8.156547e-05 0.00019002563
000290 06 ae bd ba 80 11 9a 3a 99 13 1f 3b 2e ff ef ba
       -0.0014471419 0.0011754483 0.0024273156 -0.0018310302
0002a0 35 9f 77 3a f5 4e a3 3a c4 81 aa ba 23 39 a6 3c
       0.0009446026 0.0012459444 -0.0013008644 0.020290917
0002b0 ee 32 9a 3c 13 cd 88 3c 46 16 ae 3c b9 05 a8 3c
       0.018823113 0.01669935 0.021250855 0.020510541
0002c0 e3 c6 92 3c 2d ba c0 3c 11 44 b2 3c 18 b3 9f 3c
       0.017917102 0.023526276 0.021760972 0.019494578
0002d0 c8 c4 ac 3b ea e4 a1 3b 27 d9 50 3b 64 b4 db 3b
       0.0052724816 0.0049406188 0.0031867714 0.006704854
0002e0 f4 91 ae 3b 5b 45 7f 3b 36 d7 ff 3b 55 45 b5 3b
       0.0053274576 0.0038951251 0.0078076376 0.0055319467
0002f0 fa 8b 7a 3b 5c 81 1d 3c 3c d2 29 3c fd 65 29 3c
       0.0038230405 0.009613361 0.010365065 0.010339257
000300 3b ab 23 3c f8 2d 1c 3c 2a d0 22 3c 1b 3c 26 3c
       0.009989555 0.009532444 0.0099373255 0.010146166
000310 75 71 11 3c b9 be 14 3c d9 49 ac 3c b4 06 a4 3c
       0.008877148 0.009078675 0.021031307 0.020022728
000320 e0 08 9a 3c 30 9d b5 3c 9d 63 aa 3c 1b cc 96 3c
       0.01880306 0.02216968 0.020799452 0.018407872
000330 29 b2 bf 3c b6 08 ad 3c 59 94 a5 3c e6 08 2c 3c
       0.023400383 0.021122318 0.02021234 0.010500168
000340 c1 c0 28 3c 27 4e 16 3c bc 4b 22 3c 0e d7 08 3c
       0.010299862 0.009173906 0.009905752 0.008352054
000350 a2 72 0b 3c 1e 37 24 3c 06 ee 15 3c 8d 9e 03 3c
       0.008511217 0.010022907 0.0091509875 0.008033407
000360 be a7 a6 3b a2 69 81 3b 26 6e 56 3b 3d b6 be 3b
       0.0050859144 0.00394936 0.0032719462 0.0058200643
000370 d1 83 c3 3b 29 9f 9d 3b 65 42 bd 3b be 2b ac 3b
       0.0059666415 0.004810233 0.005775737 0.005254238
000380 6e 17 a4 3b 95 bd 4a 3b 80 e1 60 3b 36 83 1b 3b
       0.005007676 0.0030935754 0.0034314096 0.002372933
000390 67 b3 01 3b 35 40 da 3a 32 6b 09 3b b2 ce ce 3a
       0.001979077 0.0016651215 0.0020968434 0.0015778153
0003a0 6f 31 18 3b c0 68 3e 3a 1a e1 d8 3c a7 8c d7 3c
       0.0023222824 0.0007263534 0.026474524 0.026312185
0003b0 db 3b df 3c cc 36 ec 3c d7 2b ef 3c 42 72 f3 3c
       0.027250221 0.028834723 0.02919571 0.029717568
0003c0 be bf e5 3c 18 94 e5 3c 7a e2 ef 3c 8c 5f 04 3d
       0.028045531 0.028024718 0.029282797 0.032317683
0003d0 ab 40 07 3d e5 a5 00 3d c0 b5 ff 3c 22 1d 00 3d
       0.033020657 0.03140821 0.031214595 0.031277783
0003e0 dd 3f fe 3c a2 63 eb 3c 6f 50 ec 3c 8a c3 e3 3c
       0.031036312 0.028734032 0.028846947 0.027803201
0003f0 78 74 91 3c 00 d4 82 3c 16 94 72 3c 5c d5 91 3c
       0.017755732 0.01597023 0.014805814 0.017801933

momentum_buffer f4 [32]
000000 b7 50 24 3d 94 36 84 bd e4 93 28 3b 46 cd da 3a
       0.04011604 -0.064557225 0.0025722915 0.0016693256
000010 6b f0 07 bc be 49 33 bd 6a 14 36 3c 67 bb 06 bc
       -0.008297066 -0.043771498 0.0111132655 -0.008223391
000020 50 fe c3 3a 72 74 21 bd af 15 a2 3b 77 9d 32 3d
       0.001495311 -0.03941769 0.0049464325 0.0436072
000030 72 34 28 3d 8c a5 c3 3b 1f 30 5c bc 88 fc 6e 3b
       0.04106564 0.0059706625 -0.013439207 0.0036466438
000040 2d cf d1 3b 02 40 e8 bc be 88 c1 3c 55 ec 27 3b
       0.006402871 -0.028350834 0.023624774 0.0025623043
000050 c7 af a0 b9 59 36 f8 3b 32 4a 78 bc a0 dc 8e 3b
       -0.00030648542 0.007574838 -0.015154408 0.0043597966
000060 c0 82 7c 3c 93 80 e4 ba 47 a5 c5 3a ac 2f 81 bd
       0.015412033 -0.0017433338 0.0015079164 -0.06307921
000070 b5 79 97 b9 77 c9 07 3c fc de 6d bb 89 a1 78 3d
       -0.00028891643 0.008287779 -0.003629624 0.060700927

momentum_buffer f4 [64, 32, 3, 3]
000000 64 16 26 ba a3 bb be b9 59 85 c4 b8 28 dc 85 ba
       -0.0006335734 -0.00036379424 -9.370846e-05 -0.0010212706
000010 2d db 9f b9 4d b5 a3 b9 5b 29 84 ba f6 90 c9 b9
       -0.00030490142 -0.00031224862 -0.0010083126 -0.00038445712
000020 bc f1 c5 b9 6f d5 47 39 1c ba 81 39 54 39 9b 38
       -0.00037754874 0.00019057629 0.0002474346 7.401654e-05
000030 dc db df 39 15 a2 23 b8 34 91 86 39 fd a4 a5 39
       0.00042697683 -3.901318e-05 0.00025666656 0.00031594178
000040 9e c0 e9 39 93 ee 2c 3a 6b cc 61 3a 55 06 2e 3a
       0.00044584734 0.00065968296 0.00086135295 0.0006638517
000050 0c 1c 7c 3a a1 ef da 39 51 21 06 3a 8b 67 5c 3a
       0.00096172164 0.00041758738 0.0005116659 0.0008407763
000060 f6 44 ae 38 f6 ae 94 39 92 fd 84 3a 82 ae 76 38
       8.3098115e-05 0.00028359116 0.0010146371 5.8813494e-05
000070 66 71 3e 39 e4 e3 eb 36 26 8b cf 39 4c c6 fc 38
       0.00018162056 7.0300757e-06 0.0003958579 0.00012053232
000080 9d 54 11 3a 02 42 42 b9 02 b7 1b b6 ce 6d 43 b9
       0.00055439194 -0.00018525872 -2.3203324e-06 -0.00018637555
000090 cf 4f b5 b8 7e fd c9 b9 09 c0 27 b9 e9 9e e8 b9
       -8.645618e-05 -0.00038526574 -0.000159979 -0.00044368886
0000a0 dc 30 07 ba be f3 2f ba 32 eb cb b8 31 96 87 b7
       -0.0005157122 -0.00067120406 -9.723603e-05 -1.6163192e-05
0000b0 29 49 00 ba 6b 70 07 b9 e3 73 ea 39 d6 10 3b ba
       -0.0004893714 -0.00012916482 0.000447183 -0.00071359926
0000c0 32 05 2c 3a 68 11 92 38 33 b1 eb 39 78 db e8 b9
       0.00065620535 6.965065e-05 0.00044954717 -0.00044414005
0000d0 51 d7 28 b9 76 58 b0 b8 68 ff 25 ba 52 37 ac b9
       -0.0001610194 -8.408811e-05 -0.0006332309 -0.00032847613
0000e0 0e 21 3d ba f2 08 39 39 18 80 4a 39 2d 56 d4 39
       -0.00072147034 0.00017646307 0.0001931194 0.00040499997
0000f0 60 48 b8 b8 6e b4 de 39 98 32 45 b8 f0 04 b6 b9
       -8.7872846e-05 0.0004247757 -4.701558e-05 -0.00034717424
000100 bd e7 fb b8 25 52 69 b9 9f 99 b6 b9 1c d6 73 39
       -0.00012011777 -0.00022251213 -0.00034828202 0.00023254048
000110 34 22 0a b9 9d e3 32 39 cc 7d ae b9 ca 4e c1 36
       -0.00013173447 0.00017060195 -0.00033281592 5.7610205e-06
000120 28 65 09 3a 1a a5 0a 39 6e 67 f8 b9 ca 0d 1c 3a
       0.0005241209 0.0001322221 -0.00047379307 0.00059529825
000130 c8 41 2f 3a a4 56 49 3a 66 e0 4f 3a 39 52 38 3a
       0.00066855224 0.0007680452 0.00079298613 0.0007031295
000140 dc 95 90 b8 b1 38 14 3a 2a fc fa b8 c1 c2 88 b9
       -6.8943686e-05 0.00056541996 -0.00011967898 -0.00026085044
000150 07 35 df 38 4d d8 23 39 76 8b cd b9 8d c7 a0 39
       0.00010643346 0.0001562547 -0.00039204553 0.00030666255
000160 d3 96 2e 3a da 7a 73 39 14 00 d0 b9 42 70 1f ba
       0.0006660048 0.00023220052 -0.0003967291 -0.00060820964
000170 79 f5 42 ba 20 e0 8b ba 26 c6 8b ba b1 ce 4d ba
       -0.0007437091 -0.0010671653 -0.0010663911 -0.0007850929
000180 8f 33 8b ba ba 50 6e ba a5 68 66 ba 48 e1 8b b9
       -0.0010620224 -0.00090910087 -0.0008789397 -0.00026679994
000190 ab 7a 39 39 70 6a f7 b9 46 03 ba b9 55 98 0a ba
       0.00017688672 -0.00047190813 -0.00035479123 -0.00052869815
0001a0 66 e7 28 39 92 b3 9e b8 3b 53 05 3a 8e af 07 ba
       0.00016107931 -7.567475e-05 0.00050859497 -0.0005176001
0001b0 3e 1d 34 3a 9b 6a 72 39 08 79 11 3a 83 1a 8c 3a
       0.00068708125 0.00023118632 0.0005549346 0.0010689053
0001c0 04 55 03 3a 02 d1 50 3a 22 2b 69 3a 7a d3 a2 3a
       0.0005009922 0.0007965715 0.0008894672 0.0012422644
0001d0 de 0c 66 3a 2e f0 38 b8 a8 c3 ae 36 c5 c5 4e 39
       0.0008775721 -4.4092703e-05 5.2083815e-06 0.00019719366
0001e0 50 fc 42 ba d6 2b 8f b8 22 bb ee 38 b9 dc a6 39
       -0.000743811 -6.8269364e-05 0.000113835806 0.00031826438
0001f0 1c df 22 39 27 31 78 38 9a 68 7f ba 3e f0 3f ba
       0.00015532639 5.9173584e-05 -0.0009743065 -0.00073218707
000200 fc 52 32 ba 59 f7 61 ba 0d 70 92 ba ec 2c 33 ba
       -0.0006802527 -0.00086199265 -0.001117231 -0.0006835002
000210 76 cd b4 38 20 36 12 ba 63 90 8b ba db d1 8a 3a
       8.621339e-05 -0.0005577523 -0.0010647889 0.0010591106
000220 8d 09 16 3a be 5d 90 39 e0 d8 8c 39 f7 64 22 3a
       0.0005723469 0.00027535664 0.00026864465 0.00061948545
000230 cb 62 02 3a 4f cd 15 3a f8 9c c0 39 fc a9 3a 3a
       0.0004973828 0.0005714492 0.00036738045 0.00071206666
000240 bc fa 63 b9 7f 50 26 ba 00 0b 64 b7 30 0b 2b b8
       -0.00021741813 -0.00063443923 -1.359242e-05 -4.0779996e-05
000250 08 33 ab 38 80 d5 85 37 22 82 84 b9 5c fa 05 b9
       8.163421e-05 1.5954254e-05 -0.00025273958 -0.00012777135
000260 48 80 ab b9 3d 1e 18 3a 49 6b 41 ba e2 5c db b8
       -0.0003271124 0.00058028457 -0.00073783525 -0.000104600345
000270 0a 8a 81 b9 e4 10 0b b9 1a 89 ce b9 8e f5 25 ba
       -0.00024707644 -0.00013262365 -0.0003939353 -0.0006330841
000280 3a a3 cf b9 f4 c6 ec b9 00 e4 58 36 d6 5b 4d b9
       -0.0003960373 -0.0004516166 3.2319222e-06 -0.00019584535
000290 ba ca 08 ba 50 9b 8c 38 12 79 81 b9 60 99 7d 36
       -0.0005218197 6.7046494e-05 -0.00024695002 3.7789214e-06
0002a0 41 ed ee b9 5e 32 20 ba db 71 09 ba 4e 9c 52 b9
       -0.00045571665 -0.0006111021 -0.0005243101 -0.00020085389
0002b0 93 78 a5 b8 04 50 ce 38 f0 0a a3 b9 6c 60 b0 39
       -7.890272e-05 9.8377495e-05 -0.00031097932 0.00033641176
0002c0 cb e9 8c 38 7a 7e 65 b8 0d ed e9 39 d0 4c 87 b9
       6.7192675e-05 -5.4715645e-05 0.0004461784 -0.00025806436
0002d0 e2 d6 cc 39 44 96 7f 38 a0 6e 9c 39 0c 84 d8 38
       0.00039070012 6.0936683e-05 0.0002983706 0.00010324278
0002e0 66 d6 1b 36 ed 40 73 b9 1f 66 00 3a c7 e0 ae 37
       2.3221596e-06 -0.00023198473 0.000489803 2.0847086e-05
0002f0 50 5f 99 b9 f6 3a 49 ba c4 fc d1 b9 b0 4f b6 b8
       -0.00029253447 -0.00076763274 -0.00040051911 -8.693279e-05
000300 32 ee e8 38 b0 73 cd b8 fe f1 c2 39 f9 1e 83 b9
       0.000111069894 -9.79671e-05 0.00037182862 -0.00025009344
000310 c3 d8 4a 39 73 67 cf 39 4b 36 aa 39 5c 20 4c b9
       0.00019344971 0.00039559192 0.00032465378 -0.00019467011
000320 c5 48 fe 38 af 18 a2 38 cd 6b d0 39 58 83 ee 36
       0.00012125218 7.72936e-05 0.0003975317 7.108243e-06
000330 94 fe 9e 39 3d f1 2b 39 2c ba 37 39 28 a8 06 ba
       0.00030325784 0.00016397699 0.00017521594 -0.00051367516
000340 52 ce 8c b9 60 1f 67 b9 ba 98 e8 39 a4 12 ca b9
       -0.00026856601 -0.00022041565 0.00044364278 -0.0003854233
000350 80 aa 82 b7 af 55 1a b9 e4 79 24 b9 fb 97 9d b9
       -1.5576603e-05 -0.00014718504 -0.00015685667 -0.00030058608
000360 52 a0 59 b9 5b b2 fb 38 ca ab f6 b8 0b 68 ba 39
       -0.00020754457 0.00012001834 -0.00011762192 0.00035554203
000370 1e 23 e5 b9 b0 71 78 b9 46 5a 1f b9 c6 b6 c2 39
       -0.00043704448 -0.00023693475 -0.00015197051 0.0003713874
000380 f5 a6 fc 38 37 47 9e 3a 3c db 82 3a 79 d9 2f 3a
       0.000120473946 0.0012075667 0.000998355 0.0006708126
000390 42 0e 7a 3a 00 69 2d 3a 58 f4 09 3a 10 c7 8e 3a
       0.0009538868 0.00066150725 0.00052625453 0.0010893065
0003a0 2e 1a 5d 3a c7 f4 80 3a e0 79 f9 b9 af d7 0b ba
       0.0008434382 0.0009838574 -0.00047583785 -0.00053345686
0003b0 86 2b 69 b9 ec 69 89 39 4e 23 04 b9 e4 ad dc b9
       -0.00022236825 0.00026209594 -0.00012601653 -0.00042091229
0003c0 63 67 c7 b9 a5 c4 2a 3a ae 50 45 b9 ba 49 d0 38
       -0.00038033267 0.00065142877 -0.0001881744 9.9319455e-05
0003d0 89 c8 1e 3a b8 ac 44 3a 66 77 54 3a e6 54 f2 b9
       0.0006057104 0.0007502544 0.000810495 -0.0004622109
0003e0 07 ea 02 3a f0 8b 5f 3a 43 fa ad 39 54 b6 30 3a
       0.0004993979 0.0008527627 0.0003318359 0.0006741036
0003f0 54 c7 a0 38 c7 e3 a1 36 7f 6c b2 b9 60 26 23 ba
       7.666522e-05 4.8246907e-06 -0.00034031642 -0.0006223675

momentum_buffer f4 [64]
000000 a4 ed cd b9 36 b0 82 b9 c0 6d fe b8 6a 9d 55 ba
       -0.00039277703 -0.0002492682 -0.00012132106 -0.00081487617
000010 72 ca 3b bc e5 c1 29 3b fe 36 b3 3b bd a3 0c bc
       -0.011461841 0.0025902924 0.005469202 -0.00858396
000020 72 d5 6a bb 88 a0 b5 38 0a 11 87 bc 48 9e aa 3c
       -0.003583279 8.660654e-05 -0.016487617 0.020827428
000030 c6 6d a7 bc 04 28 c6 bb cc ab 0b bb 96 4a 55 bb
       -0.020438086 -0.0060472507 -0.0021312116 -0.0032545677
000040 ee 6b 37 bb cf 5a 0f 3c fb 29 28 3c d2 25 c4 ba
       -0.0027987915 0.008749678 0.010263915 -0.0014964885
000050 7e f9 3a bb 93 13 32 b9 10 f2 94 b7 de 54 9e 3a
       -0.0028530057 -0.00016982695 -1.7755694e-05 0.0012079736
000060 e4 ef bc bc b2 27 4b bc 4a 32 5f bb f2 32 51 3b
       -0.023063608 -0.012399601 -0.0034057074 0.0031921235
000070 cd 53 f8 3a aa 51 69 3c 4d 3a 5d bc b6 85 1e 3b
       0.0018945873 0.014240662 -0.0135026695 0.0024188585
000080 e4 e3 ed bc aa a5 a7 3b 82 e2 7b 3c de 11 04 bc
       -0.02903933 0.0051161842 0.015373828 -0.0080609005
000090 95 6a 68 39 e4 b4 ae 3b ba c8 24 bc d2 96 88 39
       0.00022164949 0.0053316224 -0.010057623 0.0002605231
0000a0 c4 ec ec 3c a8 72 b0 3b 0e bd 54 bb d3 ce b2 b9
       0.028921492 0.005384762 -0.0032461318 -0.00034104902
0000b0 f8 da 98 3a fd c7 72 bb 10 d0 3c bc b9 af 2d bc
       0.0011661937 -0.0037045472 -0.011524215 -0.010600978
0000c0 16 a1 a2 39 f8 7d 32 ba fa 64 b5 bc 40 74 9f bb
       0.00031019066 -0.0006808932 -0.022142876 -0.004866153
0000d0 4c cc 25 3a b2 05 c6 3c d8 56 15 39 d1 a7 c3 3b
       0.0006324693 0.024172638 0.00014242099 0.005970933
0000e0 d2 fa 05 3c 92 56 21 3b d6 9a 80 39 5b 6b 09 3a
       0.008177476 0.002461825 0.00024529424 0.00052421325
0000f0 93 7e f5 3b a3 5b f0 bb ab ef c8 3c e1 73 08 39
       0.0074918955 -0.0073351427 0.024528345 0.00013013139

momentum_buffer f4 [64, 64, 3, 3]
000000 dc 45 e3 b9 d6 35 a2 b9 cf 8a eb b9 e1 d4 9a 38
       -0.00043348863 -0.0003093916 -0.00044926113 7.382944e-05
000010 f0 2f 90 b9 4c 10 fb 39 b0 02 b8 b7 88 71 98 37
       -0.00027501537 0.00047886593 -2.193576e-05 1.817268e-05
000020 b7 6d fc b9 74 ec bc 37 2c 67 db 39 ae fc 7e b8
       -0.0004814693 2.2521454e-05 0.00041847804 -6.0793645e-05
000030 3a 81 ab b7 92 13 6f 39 78 8f b4 38 a5 c7 2e ba
       -2.0444964e-05 0.00022800107 8.609792e-05 -0.00066673226
000040 e2 4d 10 b9 56 c2 97 39 36 71 c2 b9 c0 77 78 39
       -0.00013761924 0.00028945756 -0.00037086912 0.00023695733
000050 c6 87 91 b8 a6 c0 d4 b9 53 a0 95 39 88 71 43 39
       -6.9394286e-05 -0.00040579325 0.00028538945 0.00018638943
000060 4f 2e f3 b9 80 f4 37 39 71 8e 26 ba 23 48 12 b9
       -0.00046383074 0.00017543323 -0.0006353623 -0.00013950518
000070 3b 79 d5 b9 8d fa 36 39 6e 66 23 ba 54 fe b0 39
       -0.0004071685 0.0001745021 -0.000623322 0.00033758825
000080 0c 6c dc 38 1a 57 8f b9 03 f2 11 b7 e8 9e 83 b8
       0.00010510543 -0.0002733998 -8.699021e-06 -6.2761654e-05
000090 c5 47 09 ba 91 ee 65 b9 59 2d 4b 39 73 20 21 ba
       -0.000523683 -0.00021928015 0.00019376482 -0.0006146498
0000a0 ec 93 25 b9 70 39 ea 39 2e 5e 47 ba 38 99 3c b8
       -0.00015790731 0.00044674752 -0.00076052814 -4.496539e-05
0000b0 c0 06 a2 b8 69 75 9a ba e0 ca 81 ba d2 20 fc b9
       -7.726019e-05 -0.0011784259 -0.000990238 -0.0004808964
0000c0 a0 f6 b8 ba 9d 44 93 ba b8 af 3f ba 87 a5 c6 ba
       -0.0014111586 -0.0011235658 -0.0007312256 -0.0015155532
0000d0 64 45 bc ba 86 f3 8d ba 1a 0d 9d 38 66 d1 4e 39
       -0.0014363942 -0.0010830022 7.488784e-05 0.00019723698
0000e0 61 b0 8f 39 34 e4 35 36 46 3d e5 b9 15 44 88 38
       0.00027406498 2.7103933e-06 -0.00043723936 6.4976666e-05
0000f0 dc 4f 2f 39 ca 4c c6 39 9c df 25 b9 f6 71 4b ba
       0.0001671905 0.00037822715 -0.00015818927 -0.0007760817
000100 b3 d2 d2 b9 15 09 a1 39 aa 57 b2 ba 70 c0 07 b8
       -0.00040211304 0.0003071508 -0.0013606448 -3.236573e-05
000110 b8 e2 05 ba cc 00 65 ba 2c 13 1f ba ba 01 1d ba
       -0.0005107331 -0.00087357755 -0.00060682255 -0.0005989332
000120 d6 46 f1 b9 22 f0 9b b9 42 0b c2 b9 6a b3 f8 38
       -0.0004601988 -0.00029742817 -0.0003701095 0.0001185898
000130 a5 06 fc b9 82 54 05 39 7c 74 89 b8 e1 dc 01 b9
       -0.00048070136 0.0001271535 -6.554366e-05 -0.00012384682
000140 2d 53 01 ba c3 d5 11 b8 1c de b9 37 d6 b9 7e 39
       -0.00049333536 -3.4769775e-05 2.2157146e-05 0.00024292557
000150 48 86 03 3a 80 36 78 b9 28 01 a1 38 c6 cb d8 b9
       0.0005017263 -0.00023671426 7.6772936e-05 -0.00041350554
000160 9c ba a0 b6 ec fa e7 b9 e0 73 3c 38 29 36 a6 39
       -4.7900958e-06 -0.00044246705 4.493061e-05 0.0003170234
000170 86 5c af 39 70 47 3e 39 2f fd ba 38 f8 d5 73 3a
       0.00033447536 0.00018146425 8.91633e-05 0.0009301598
000180 0c 18 66 39 16 5b 61 b9 ce 78 da 39 31 a6 b2 b9
       0.00021943467 -0.00021491604 0.00041670207 -0.00034074628
000190 08 80 6f b8 80 44 ca b6 fd 3a 38 3a c0 80 11 37
       -5.710128e-05 -6.0280436e-06 0.0007027833 8.67265e-06
0001a0 70 85 98 39 d8 cd cd b9 13 5c 2d 3a 1c dc 08 39
       0.00029091118 -0.00039254013 0.00066131464 0.00013051968
0001b0 66 e7 ab ba 90 8d 5e ba 14 76 8e ba 48 a3 dc ba
       -0.0013115227 -0.00084897224 -0.001086893 -0.001683333
0001c0 b7 01 a8 ba 4e 63 7e ba 5b 3a fb ba 6f 2b 92 ba
       -0.0012817894 -0.00097041286 -0.0019167172 -0.001115186
0001d0 5a ce b9 ba 59 7b 8f ba fe 30 07 ba fa 34 25 ba
       -0.0014175877 -0.0010946795 -0.0005157142 -0.00063021446
0001e0 3b 68 52 ba da 22 d7 b8 86 9e af b9 9b 76 3e ba
       -0.0008026396 -0.000102584905 -0.0003349671 -0.00072655984
0001f0 4a 94 2b ba 88 18 95 39 4b 60 ad ba 9f 85 b6 ba
       -0.0006545229 0.00028437772 -0.001322755 -0.001392532
000200 a7 6f a0 ba 86 8b d5 ba da 42 83 ba bb 5b a7 ba
       -0.0012240306 -0.0016292192 -0.001001443 -0.0012768427
000210 f8 5d bb ba ac c0 83 ba 47 37 6a ba b1 4c 34 38
       -0.0014294973 -0.0010051928 -0.00089346286 4.298677e-05
000220 57 1e e8 39 c1 ec 9e b9 1b aa da 39 92 79 18 39
       0.00044273093 -0.00030312504 0.0004170694 0.00014541138
000230 23 61 10 b9 3c 25 ba b9 f8 22 0e b9 90 d5 a0 39
       -0.00013769096 -0.00035504426 -0.00013555202 0.00030676695
000240 0c ba cc 37 48 93 07 3a b6 67 40 39 26 b7 e9 38
       2.440533e-05 0.0005171788 0.00018349182 0.0001114442
000250 f7 0d 12 39 86 6c 91 3a ea 5a a4 b9 38 e5 95 b9
       0.00013928847 0.0011094965 -0.00031348254 -0.00028590276
000260 87 07 cf 38 b6 8d eb 39 ef 82 9e b8 e9 2c ea b9
       9.871931e-05 0.00044928276 -7.5584154e-05 -0.0004466542
000270 83 87 ca 39 2b c1 2b 37 e9 de f7 b9 fc 1b b0 39
       0.00038629406 1.023737e-05 -0.00047277592 0.00033590186
000280 97 1d db 37 1c c4 52 37 78 6b 75 b9 4a f0 8f b9
       2.6120613e-05 1.2562636e-05 -0.00023405056 -0.00027454115
000290 64 3c d4 b9 e6 89 c7 b9 e0 09 3a b7 c0 7d 5e 37
       -0.00040480786 -0.0003805898 -1.1088763e-05 1.326151e-05
0002a0 5c 29 92 b9 9c 2b 92 b9 1e 5d 8d b9 cc f2 48 39
       -0.00027878105 -0.00027879782 -0.00026962993 0.00019163935
0002b0 ce c6 f5 39 f0 81 3c ba 06 eb 1a b9 84 2e 35 b9
       0.00046878163 -0.0007190993 -0.00014774138 -0.00017278834
0002c0 ac e7 94 b9 c0 97 4d 39 50 f1 25 b8 7c c5 f7 b9
       -0.0002840137 0.00019606855 -3.9563805e-05 -0.0004725865
0002d0 60 be 25 b9 3a 12 06 3a d2 df 46 3a fc c8 06 b8
       -0.00015806546 0.00051144103 0.00075864524 -3.213527e-05
0002e0 db a6 54 3a 72 e3 2d 3a e4 7f 1a b9 86 db 21 3a
       0.00081120216 0.0006633318 -0.00014734227 0.0006174374
0002f0 3a c8 5f 39 0c 63 4b ba 0c df 88 b9 58 4f a3 38
       0.00021341527 -0.00077585946 -0.00026106124 7.7872246e-05
000300 cf f0 87 39 25 3b fa 39 11 3a 9a 39 2b 72 22 b9
       0.00025928623 0.00047727782 0.00029416432 -0.00015492055
000310 9e 6b a6 39 7a 13 29 b9 10 ec 42 b9 aa 9a 92 38
       0.00031742168 -0.00016124352 -0.00018589222 6.990631e-05
000320 5c 31 c9 38 44 58 22 b9 3f 67 01 38 d1 5f 56 b8
       9.593621e-05 -0.00015482405 3.0852152e-05 -5.1110812e-05
000330 d2 7e ea b9 b4 4c e5 b6 13 e8 8a b9 84 61 8e b6
       -0.00044726447 -6.8336612e-06 -0.0002649432 -4.243282e-06
000340 b7 76 94 38 28 be f3 39 88 4d d5 39 71 25 c4 b9
       7.079302e-05 0.0004649025 0.0004068429 -0.0003741193
000350 5d d5 96 39 89 fa a4 b8 2e f7 f8 39 24 b1 87 38
       0.00028769198 -7.866795e-05 0.0004748641 6.470297e-05
000360 93 58 10 39 65 df 16 3a fb bc 59 3a 68 0b 2b 39
       0.00013765907 0.0005755334 0.00083060534 0.0001631208
000370 3e 8f e6 38 42 bf d5 39 1e d1 25 b9 f6 3b d6 39
       0.000109939356 0.00040769024 -0.00015813528 0.00040861935
000380 43 2c 45 39 f1 fb 84 b9 f6 1d 4b 38 e0 0a 99 39
       0.00018803873 -0.00025364713 4.8426875e-05 0.00029190537
000390 29 db 5a b9 b9 f4 c0 38 0e 2b 4a 39 ab d7 e1 b9
       -0.00020871744 9.2008566e-05 0.0001928026 -0.0004307603
0003a0 10 36 cf b9 c0 d8 f1 b7 0d a6 12 ba 3e 9b 17 b9
       -0.00039522396 -2.883037e-05 -0.00055942015 -0.00014458314
0003b0 ac 0f 2d ba 78 fb e6 b9 9a 5f ee b8 aa b5 97 ba
       -0.00066017616 -0.00044056377 -0.000113665315 -0.0011574526
0003c0 af 7b 12 ba b4 3a a2 b9 05 c9 f5 b9 ec ce 21 ba
       -0.00055878883 -0.00030942785 -0.00046879813 -0.00061724964
0003d0 62 5f 5e ba 12 73 8e ba 5b 92 83 ba 48 dc 99 ba
       -0.0008482841 -0.0010868034 -0.0010038124 -0.0011738623
0003e0 1f e1 01 ba 4d 12 89 ba 40 06 06 ba 5e 9d 5c b9
       -0.0004954505 -0.0010457725 -0.00051126257 -0.00021039459
0003f0 d1 61 1d b9 ca 61 d3 b7 ba 93 e6 b9 70 40 8a b9
       -0.00015009126 -2.5198697e-05 -0.00043979083 -0.0002636942

momentum_buffer f4 [64]
000000 a5 f9 36 ba e0 0b b0 3b 09 0d 71 b9 aa 99 15 3b
       -0.0006979949 0.0053725094 -0.00022988407 0.0022827187
000010 6d c3 14 b9 2b 30 c1 b8 89 8a 29 3a 30 7e a0 3b
       -0.00014187182 -9.211929e-05 0.0006467482 0.004897855
000020 08 6a ee 37 3f 78 e7 38 be ff 2f bb 06 bd 9b 38
       2.8421186e-05 0.00011037336 -0.0026855315 7.426184e-05
000030 d3 da 99 3b f7 57 f5 36 de b6 64 b9 70 24 7a 3c
       0.0046952753 7.3118094e-06 -0.00021811898 0.015267476
000040 6b 70 f4 3b 37 d6 9a 3b ce af 53 3a d7 91 6e ba
       0.0074596903 0.0047252434 0.0008075208 -0.00091007113
000050 98 77 75 bc 07 30 77 3b 3a 40 94 3a a2 a7 2a bb
       -0.014982127 0.0037717836 0.0011310645 -0.0026039858
000060 8a bf 04 3c 69 94 01 bc df c9 de b9 3c 0f 08 bc
       0.008102307 -0.007908919 -0.00042493545 -0.008304413
000070 b5 8f 51 b9 c2 4f eb bb 4d cd 0f bb b6 e9 d0 39
       -0.00019985328 -0.0071811387 -0.0021942437 0.0003984698
000080 c4 68 a9 bb ad a4 c9 b9 de 51 9c 3a b4 7b 37 3c
       -0.0051699597 -0.000384604 0.0011926254 0.011198927
000090 80 e4 7c 39 4e a5 19 38 fc ac d5 b8 21 db d9 bb
       0.00024117716 3.6631995e-05 -0.00010188852 -0.0066484367
0000a0 37 db c3 ba a8 70 85 37 5a 7d 32 bb 43 b9 2b bc
       -0.001494265 1.5907295e-05 -0.002723536 -0.010481182
0000b0 fa 76 5b b6 6e c8 d9 3b d4 7d 00 3c ac 9c 29 3c
       -3.2702796e-06 0.0066462075 0.0078425 0.010352295
0000c0 5f 33 45 b9 ae c6 d2 ba 9f 0c ff bb 2c 12 d0 ba
       -0.00018806521 -0.001608094 -0.007783487 -0.0015874556
0000d0 d0 03 c4 3a 61 0c a0 bb 5b 0f cd 3a fa 1e 35 bb
       0.001495475 -0.004884288 0.0015644835 -0.0027636872
0000e0 1c 83 7e ba 00 55 a4 b6 c2 4b c0 38 56 0f 48 b9
       -0.0009708868 -4.897476e-06 9.1693844e-05 -0.000190792
0000f0 93 7b c3 ba b8 2a 00 3a b1 d5 6d 3b b9 50 4d 3c
       -0.0014914147 0.0004889178 0.00362907 0.012531453

momentum_buffer f4 [1, 64]
000000 51 8b be 3b a2 32 2b bc bd a1 15 3a 3d 98 86 3c
       0.0058149477 -0.0104490835 0.0005708 0.016430015
000010 f0 25 5e 36 36 92 2b b8 54 df 29 3c e3 66 27 bc
       3.310266e-06 -4.0905747e-05 0.010368187 -0.010217401
000020 7a 6d 3a 3a af a1 99 3b 82 60 37 3d be 03 6b 39
       0.000711165 0.0046884636 0.04476977 0.0002241274
000030 72 ff a5 bb 7e 5f da 39 e2 e4 ed 3a 3a 75 fd bb
       -0.005065852 0.00041651347 0.0018149877 -0.0077349218
000040 36 99 0e bd 2d fe 27 3d 1a 1a 40 3b 12 f5 50 3c
       -0.034814082 0.041013885 0.0029312433 0.012753742
000050 a6 36 ec 3d 12 7d 22 3c 8a 57 21 bc 38 14 76 3d
       0.11533861 0.009917514 -0.009847531 0.060077876
000060 eb 45 7e 3c 0a be d2 3d 59 50 6e 3a 44 1b b3 3d
       0.015519599 0.10290153 0.0009090952 0.08745435
000070 1d f2 c7 38 af b5 af 3d 30 1f 42 3d a5 ca a8 3b
       9.5341566e-05 0.08579575 0.047393024 0.0051511102
000080 a3 42 23 3d 48 a2 99 3c 80 ff 87 3a e0 34 91 b9
       0.03985847 0.01875414 0.0010375828 -0.0002769595
000090 98 3a b3 bb 4f ab da b8 90 09 4d ba 54 95 b5 3d
       -0.0054696314 -0.00010426959 -0.00078215543 0.08866373
0000a0 2d 40 30 3d 14 f3 64 39 fe 93 37 3d 49 ea ce 3d
       0.043029953 0.00021834328 0.04481887 0.1010328
0000b0 03 1c 2a 39 49 2e 60 bc a4 1e e3 3c 00 30 e6 b6
       0.00016222899 -0.01368291 0.027724572 -6.860122e-06
0000c0 18 a2 0e ba b6 d0 f6 3c a6 3e e6 3d 72 5a f5 3b
       -0.0005441024 0.030128818 0.11242418 0.0074875886
0000d0 92 18 c9 3b cb 6d 8b 3d ee cf ee 3a 3a 65 3c 3d
       0.006136962 0.06808051 0.0018219927 0.045994975
0000e0 46 e4 0f 3c 50 f5 ca 3b 86 bf df b8 87 51 45 3b
       0.008782452 0.0061937943 -0.00010669143 0.0030108409
0000f0 ae 08 16 3c ce 59 a1 bb 71 c5 9f bb cf a2 9e bc
       0.009157343 -0.0049240356 -0.004875832 -0.019364743

bn0.weight f4 [3]
000000 eb 33 92 3f 01 a8 86 3f 9c b8 8c 3f
       1.1422094 1.0520021 1.0993838

bn0.bias f4 [3]
000000 44 9f 61 bc 67 70 2a be 26 b2 c1 3c
       -0.013770882 -0.1664444 0.023644518

bn0.running_mean f4 [3]
000000 14 bc f9 3e a2 11 e5 3e dd d6 cf 3e
       0.48776305 0.44740015 0.40593615

bn0.running_var f4 [3]
000000 43 ea 84 3d d3 95 76 3d 6d 65 79 3d
       0.064899944 0.060201477 0.060887743

conv1.weight f4 [32, 3, 5, 5]
000000 1a a8 85 3d 11 8f ac 3b 56 e1 5f bd a1 51 be 3d
       0.065262035 0.0052660783 -0.054658256 0.09292913
000010 75 dc f8 ba e2 ba b0 3c 20 0e 26 3d 5d 31 a0 3d
       -0.00189866 0.021573488 0.040540814 0.07821915
000020 72 fb 68 bd 9a f8 5e 3d 73 92 23 3d 0b ff e8 3d
       -0.056880422 0.054436304 0.039934587 0.113767706
000030 c8 43 6b bc 71 9c f9 bc 3a f1 3e 3d 5c 16 bf 3b
       -0.014359422 -0.030470105 0.04661677 0.005831523
000040 f1 3e b2 3b 1a ed 20 3d e7 00 68 3c e3 86 df 3d
       0.005439632 0.039288618 0.014160371 0.109143995
000050 ae b8 d0 bc 46 1e 41 bc f6 10 a8 3c 52 99 50 3d
       -0.025478687 -0.011787003 0.0205159 0.050927468
000060 91 34 ce 3c 4a ce 7d bc e7 49 6d bc b5 c7 27 3b
       0.02517155 -0.015491078 -0.014482952 0.0025601212
000070 b6 21 2f 3d 5b 4f 99 bd dc 6f 94 bd a4 36 2d bc
       0.04275676 -0.07485839 -0.07247898 -0.010572109
000080 9e 96 0c bd 5e 7f 4f bd ad 0f d8 bc 20 e5 94 bd
       -0.034323327 -0.050658576 -0.026374662 -0.072702646
000090 21 ad 4d bc fe 1e b5 3b 14 80 f3 3c fb 62 81 bd
       -0.012553484 0.005527376 0.029724158 -0.06317707
0000a0 12 ea 35 3d b7 ae 8e bd 99 33 94 3b 8a 10 8a bd
       0.04441268 -0.06966918 0.0045227525 -0.06741436
0000b0 e7 76 d1 3a 1e 29 68 bd eb 46 40 bd f0 33 b6 bd
       0.001598087 -0.056679837 -0.046942633 -0.08896625
0000c0 a3 65 ba bd e0 ff 84 bd 68 52 ed bb a5 8c ec bc
       -0.09101417 -0.06494117 -0.0072424896 -0.028875658
0000d0 f9 13 84 bc f3 a9 73 bd 55 a2 06 3d d5 97 72 bb
       -0.016122805 -0.059488248 0.032869656 -0.0037016768
0000e0 4c f3 92 b9 1c b7 9f bc eb fc fb bc 7d 79 87 bd
       -0.0002802856 -0.019496493 -0.03076025 -0.06614969
0000f0 73 25 1f 3d 1b 2d 6e 3b 6e f3 3b 3d d3 0d f4 bc
       0.038854074 0.0036342803 0.04588645 -0.029791748
000100 5a c2 04 bd b1 e9 90 bc e2 8a cd 3c 20 5c 36 3d
       -0.03241191 -0.017689558 0.025090639 0.04452145
000110 8b 19 79 3d 08 dd 05 3e ec 3d c6 3c 32 e5 86 bc
       0.060815375 0.13072598 0.024199449 -0.01646671
000120 f0 3c f2 bc 30 46 e1 bd fe 8a 18 bd f6 ff a1 3d
       -0.029570073 -0.10999715 -0.03724193 0.07910149
000130 dc e5 59 bd 70 38 10 bd 5e 72 9c 3c ec 84 e7 3b
       -0.053197727 -0.035210073 0.019097503 0.007065406
000140 41 84 a3 3b dd 7b c4 3c 34 fd 4c 3d 6f b9 37 bd
       0.004990131 0.023984844 0.05004616 -0.044854578
000150 7a 82 60 bc 40 6d 96 bd 9f 97 87 3d c5 70 3e 3c
       -0.013702983 -0.073450565 0.06620716 0.011623566
000160 8b fa 83 bd 8d 59 33 bb c5 15 18 3d 94 bb be 3d
       -0.06444272 -0.002736661 0.037130136 0.093131214
000170 b8 82 87 bd 33 fc 78 bd ee 5d 47 3c 67 98 8f 3c
       -0.066167295 -0.06078739 0.012168391 0.017528726
000180 b7 fb 43 3d e9 33 dd bc b9 57 18 3b b5 74 df bc
       0.047847476 -0.027002292 0.0023245646 -0.02727733
000190 3b 72 53 3d 00 48 7d 3c 44 fc df 3d b1 9e 01 bc
       0.05162261 0.015459061 0.10936788 -0.00791137
0001a0 3c b2 fe bd d6 d3 9b bc 87 6e 86 3c 40 4b 5d 3d
       -0.12436339 -0.01902191 0.016410125 0.054026842
0001b0 e6 92 8a bc 9c e4 1e bb 6f 73 5e 3d 78 5d 8d bd
       -0.01691575 -0.0024245149 0.054309305 -0.069025934
0001c0 d5 94 4f bd b1 c2 f6 bb 12 f7 00 3d 23 b5 22 3d
       -0.050679047 -0.0075305332 0.031485625 0.039723527
0001d0 3b af cf 3c 15 1f 48 3d 32 a0 2e bd b7 29 71 3d
       0.025352111 0.048857767 -0.042633243 0.058877673
0001e0 5b ee 76 3d 4c 12 48 bd f1 87 0e bd 6c fc 65 3c
       0.060285907 -0.048845574 -0.034797613 0.014037233
0001f0 56 e8 0c bc 67 87 19 3d 42 20 61 3b 42 0a 04 3c
       -0.008600315 0.037482645 0.0034351503 0.008059086
000200 81 59 48 bd ae 96 fd 3c 91 63 04 3d a0 3a c2 bc
       -0.048913483 0.030955639 0.032321516 -0.023709595
000210 11 7e e7 bc 3b dd 65 3b 36 f6 c3 bd 4d 93 50 3d
       -0.028258355 0.003507449 -0.095684454 0.050921727
000220 4c 3d 44 bc 36 8f a0 bd 53 3e 12 bd 76 f1 9c 3c
       -0.011977505 -0.07839815 -0.03570397 0.019158106
000230 a9 b0 c8 3d 18 49 e9 3b 12 fa 9e 3c 95 c8 cc bc
       0.0979932 0.007119309 0.019406352 -0.024997989
000240 2e 1d 62 3b ff f1 0b bb 87 43 c4 bb 68 b3 42 3d
       0.0034502256 -0.0021353958 -0.005989495 0.047534376
000250 e3 49 a1 bd 44 8f df bc 8c e2 91 bd 3a b4 8c 3b
       -0.07875421 -0.027289994 -0.071232885 0.0042939456
000260 59 4c da bc bb 65 31 bd b5 83 29 bd 9f cb 1d 3b
       -0.026647734 -0.04330991 -0.04138537 0.0024077666
000270 67 34 3a 3d 2e ae 9a bc 3f 1c 3a 3c d9 1a 89 3c
       0.04546013 -0.018881883 0.011359273 0.016736435
000280 48 b5 b8 bd 50 db 32 bd ef dc f8 bb 54 db 21 bc
       -0.09018952 -0.043666184 -0.0075946967 -0.009878952
000290 fa 54 84 bc de 50 9c 3d 1f 44 5b ba 36 36 8e 3d
       -0.016153801 0.07632612 -0.0008364338 0.06943934
0002a0 c6 34 0d bd f7 a6 d4 bb f8 ef 36 3d 7c 46 95 bd
       -0.034474157 -0.0064896303 0.044662446 -0.072888345
0002b0 99 40 c5 3d 8d ca bb bd d6 4c 2a bd 3e 4b 18 bc
       0.09631462 -0.09169493 -0.041577183 -0.009295283
0002c0 6b ff cb bd 7e f9 92 3c ef df a7 3c ce 72 91 bc
       -0.099608265 0.017941233 0.020492522 -0.017754938
0002d0 72 37 7b 3b 05 29 b0 3b a7 3a 07 bc eb c4 1a bd
       0.0038332609 0.0053759837 -0.00825373 -0.03778545
0002e0 8d be 88 3d 06 73 54 bd bc 00 d8 3c 50 39 04 3d
       0.0667697 -0.051867507 0.026367538 0.03228122
0002f0 5d f3 83 bc 4a c4 73 3c de bf b9 3a 82 ea da bc
       -0.016107256 0.014878342 0.0014171561 -0.02672315
000300 dc 60 be 3d 53 1d a3 bd c7 8c d9 3c 09 fb 81 3d
       0.09295818 -0.079645775 0.026556386 0.06346709
000310 91 e1 ca bc f9 15 c7 3c 85 68 96 3d f8 51 c0 bd
       -0.024765762 0.02430247 0.07344154 -0.09390634
000320 cf e7 35 3c c1 93 0f 3d 9c 6b b6 3d b9 e3 98 3b
       0.011102631 0.03505302 0.089072436 0.0046658185
000330 7a ad b1 bc e4 54 42 3c 47 41 17 3b 9b 1d 34 bd
       -0.021689165 0.01186106 0.002307968 -0.043973546
000340 cb e0 56 bd 7d ae ba 3b 63 dd b9 bd c4 41 85 3d
       -0.052460473 0.00569707 -0.09075429 0.065066844
000350 b8 8b 8d 3d c7 49 bd ba 5a 2a f3 bc 4f 9d ab bc
       0.06911415 -0.0014441543 -0.02968328 -0.020949034
000360 a8 54 2d 3d 26 77 40 bd c4 e7 62 bc 70 01 7e bd
       0.042317063 -0.04698863 -0.013849203 -0.06201309
000370 63 66 ff bc 58 8a 44 bd d7 59 10 bc 30 95 c2 3c
       -0.031176751 -0.047983497 -0.008810482 0.023752779
000380 44 b1 fd bc c6 2a 18 3e a4 cf 2b bd 24 10 3b bd
       -0.030968316 0.14860067 -0.04194607 -0.04566969
000390 b4 a9 f9 3d c3 b0 be bd 54 c1 fb 3c 73 d4 ab bd
       0.121905714 -0.09311058 0.030731834 -0.08390131
0003a0 80 78 24 bd 87 db aa bd 8b f5 5f 3d 96 39 b5 3c
       -0.04015398 -0.08342653 0.054677527 0.022122186
0003b0 a6 4e 19 3d f9 d2 e5 bb f5 ef a6 3c 8d 28 85 bd
       0.03742852 -0.0070136753 0.020378092 -0.06501875
0003c0 b5 61 72 bc 24 cc 50 3d e9 99 ac bd e8 0b 03 bd
       -0.014793803 0.050975934 -0.084277935 -0.031993777
0003d0 8e 4f be bc ea 22 d6 3d b7 82 88 3c ed 93 bf bb
       -0.023231294 0.10455878 0.016663892 -0.0058464915
0003e0 c0 93 45 3d 26 c0 a7 bd 68 d1 fb 3c 3e fd 97 bc
       0.04823661 -0.08190946 0.030739501 -0.018553372
0003f0 cb 95 be bc a8 e8 96 3b fa 17 39 3d db 58 6f 3c
       -0.023264786 0.0046053715 0.04518888 0.014608587

conv1.bias f4 [32]
000000 ec 96 50 bd cd 70 52 bd 5c f9 52 bd 98 a0 3f 3d
       -0.05092518 -0.051377106 -0.05150734 0.046784014
000010 b1 d5 1c 3c 47 51 c5 3d 7a 49 3e 3d 18 e3 2f 3d
       0.009572432 0.09634643 0.04645679 0.042941183
000020 f4 18 54 3d ef cf 18 3b 86 70 c4 3d 0a 7f 95 bd
       0.05178161 0.0023317297 0.09591775 -0.072996214
000030 e4 e6 0f 3e ad 91 e9 3d 81 4b 9d 3d b1 54 c5 3d
       0.14052922 0.114047386 0.07680417 0.09635294
000040 58 60 ed 3d 52 eb e6 3d 9a 9a 05 3d f3 d3 2a be
       0.11590642 0.112753525 0.032618143 -0.16682415
000050 29 df 52 3d a8 70 3c 3e 38 c4 fb bc 3a 78 53 3d
       0.051482353 0.1840235 -0.030733213 0.05162833
000060 ca 21 71 bd bd 66 6a bc f7 d9 e6 bd 53 f1 c7 3d
       -0.058870114 -0.014306721 -0.11272042 0.09762826
000070 ae 3d 1c 3d a3 35 18 3d 98 7d e8 bd 20 c0 82 3d
       0.03814476 0.037160527 -0.1135208 0.06384301
