Ratio_Reverse_wo_GRL/checkpoint_step_0165.pth (torch_old, 541543 bytes, 24 tensors)

momentum_buffer f4 [3]
00000000: e5b8 b63e d5cf 48bf 558d 613e
0.35687938 -0.78442127 0.2202657

momentum_buffer f4 [3]
00000000: abe2 51be 8f01 ff3e c4be 9abd
-0.20496623 0.49805877 -0.07555917

momentum_buffer f4 [32, 3, 5, 5]
00000000: dfd1 103e 1ffa 173e 82ac 273e d24c 343e
00000010: a584 2d3e 6865 083e 830c 0f3e 7aee 223e
00000020: 3533 333e d705 2a3e f025 013e b5f2 043e
00000030: add9 163e b4fe 263e d0c0 1b3e c805 0b3e
00000040: 02bf 0f3e 6b07 1e3e ce47 263e 6900 163e
00000050: 6d5c 1f3e 6699 283e 3dae 393e 47fb 413e
00000060: a976 2f3e c00f 143e 9bad 1b3e 727c 2a3e
00000070: 33c2 353e d209 2f3e fff9 0b3e 92cb 123e
00000080: cfff 243e e806 353e 13d0 2b3e 272f 043e
00000090: a780 073e dc94 183e 9842 283e 70c8 1c3e
000000a0: 2cc7 0e3e 8c32 123e 45e6 1e3e 904e 263e
000000b0: c8f4 163e 2666 223e faff 2a3e 9987 393e
000000c0: 37aa 403e 4352 2f3e c5cb de3d b4f4 e93d
000000d0: dd91 013e b8fb 0a3e fd6a 043e 41e1 cf3d
000000e0: c4dd d93d f620 fa3d 29a4 0b3e 7d2d 013e
000000f0: 3811 bd3d 00b2 bf3d 44a6 de3d 0c5c fb3d
00000100: 5d83 e43d c648 cb3d 87c6 cf3d f516 e63d
00000110: ba59 f63d 0b89 d83d ea6f f13d 0996 fd3d
00000120: f29b 0c3e ec66 143e 6856 043e 6738 5b3d
00000130: 3803 313d e4a8 ba3c d8dc dcbb 3a1f 81bc
00000140: 1042 483d 8f66 1f3d 510f 9a3c ac6f 45bc
00000150: b8af 90bc 430b 493d be6f 1a3d 3172 843c
00000160: 62c8 26bc a8e8 07bc 4c14 833d bec1 513d
00000170: 0256 d43c 4854 73ba c04b 633a 9069 653d
00000180: ee6a 2a3d 0097 a63c 8061 13ba 0036 673a
00000190: 3952 6a3d e53f 3b3d 36c7 d13c 110e 63bb
000001a0: 0752 44bc d5f0 543d 9586 243d ea9f a33c
000001b0: 938d 16bc 149c 61bc 6bc9 5a3d 5266 1e3d
000001c0: a06f 8d3c 8cc5 e1bb 7b5e 8cbb 9e02 8b3d
000001d0: eba1 583d e76d e83c ac1a 1d3b f29f 9d3b
000001e0: a8fa 773d a294 323d d8ed b63c 0ecc 153b
000001f0: 8c51 833b 0ea9 d33d 1fa4 ba3d 7023 913d
00000200: 56d2 333d f0c8 1b3d dcff c63d 306e ad3d
00000210: fbd6 853d 31e3 1e3d 7e80 0f3d 4108 ca3d
00000220: 70e8 ac3d 5f39 833d 8f43 2b3d 87ab 393d
00000230: 1e26 eb3d d426 cc3d d561 9c3d df85 543d
00000240: 532d 5e3d 4e0b dc3d c25f b93d ccbd 8e3d
00000250: 60c9 4a3d b581 543d 5e00 6abc 6d1e 58bc
00000260: d1e7 5dbc a89d 91bc 1a84 9fbc 9f50 50bc
00000270: 8a82 45bc d19e 44bc 93a5 83bc f82f 95bc
00000280: d1fa 56bc 899c 51bc 89a0 4bbc 095a 87bc
00000290: 70ec 9abc 1e2e 2ebc 8f5e 2ebc 16ff 30bc
000002a0: 33e5 82bc f30d 97bc 9752 2dbc 9336 22bc
000002b0: 27c8 24bc d367 89bc cb01 99bc 8f9c 3bbc
000002c0: 2f76 3fbc 0af0 3ebc fded 82bc 52ae 92bc
000002d0: 0eb2 2abc 1077 2abc 6e53 2cbc f1ee 76bc
000002e0: d2fb 88bc 7ef8 2ebc ac05 2dbc e2f5 2fbc
000002f0: 9d55 7abc d411 8fbc f431 11bc 304d 12bc
00000300: 4468 15bc c5ea 71bc 1fb4 89bc 6dc7 05bc
00000310: 47d1 f9bb 10fd 0bbc 5812 66bc 8657 8bbc
00000320: d0a8 a7bb 6f96 9bbb cf16 a8bb 3417 26bc
00000330: d915 47bc cdea 85bb da2c 8abb a964 96bb
00000340: 6530 17bc 91c2 36bc 6abb 95bb f1a5 86bb
00000350: 57a9 8abb db4d 11bc 0b88 38bc bd20 4bbb
00000360: 7f3e 2ebb 2857 70bb 0ee2 03bc 2eb3 2ebc
00000370: 447f 44bb b125 faba 028b 29bb 62c8 02bc
00000380: ab1f 27bc c4ef 4dbd 09e3 72bd 3bf8 98bd
00000390: e578 abbd 6f1c b7bd 650d 57bd 7068 77bd
000003a0: 3b08 99bd 07cc b0bd 877e b9bd 2a3c 36bd
000003b0: 0136 56bd a7c5 88bd 5ffe a4bd 3600 b6bd
000003c0: 0e65 31bd 8794 54bd f4d1 8abd e461 a8bd
000003d0: a8cb b8bd 0919 42bd fbb6 65bd f2aa 8fbd
000003e0: 2440 a8bd e42d b3bd 52f9 47bd 1901 6fbd
000003f0: 3668 96bd 8969 a9bd 6340 b1bd 0a49 4abd
0.1414256 0.14841507 0.163744 0.1760743 0.16945131 0.13319933 0.13969617 0.15911284
0.17500003 0.1660379 0.12612128 0.1298321 0.14731474 0.16308099 0.15210271 0.13576424
0.14037707 0.15432517 0.16238329 0.14648594 0.15562601 0.16464767 0.18132873 0.18943511
0.17135109 0.14459133 0.15202944 0.16649035 0.17749862 0.1709359 0.13669585 0.14335468
0.16113208 0.17678416 0.16778593 0.12908612 0.1323267 0.14900535 0.16431653 0.15310836
0.13943166 0.14277095 0.15517528 0.16240907 0.14741814 0.15859279 0.1669921 0.18118133
0.18814932 0.17121224 0.1087871 0.114236265 0.12653299 0.13572586 0.12931438 0.10150386
0.106380016 0.12213318 0.13636841 0.12615009 0.092318 0.09360123 0.108715564 0.12273416
0.11157868 0.0992599 0.10145288 0.112348475 0.12028833 0.10573014 0.11788924 0.123821326
0.13731363 0.14492387 0.12923586 0.053520586 0.04321596 0.022785611 -0.006740194 -0.01576196
0.048891127 0.038916167 0.018806132 -0.01205055 -0.017661914 0.049083006 0.037704222 0.016167732
-0.010179611 -0.008295216 0.06400356 0.051210158 0.025919918 -0.0009282273 0.00086706504 0.056008875
0.041605882 0.020335674 -0.00056221336 0.00088199973 0.05720732 0.04571523 0.025607686 -0.0034645835
-0.0119824475 0.051987488 0.04016741 0.019973714 -0.009189027 -0.013770122 0.053414743 0.0386718
0.017265141 -0.0068900045 -0.004283724 0.067876086 0.052888792 0.028372718 0.0023972197 0.0048103267
0.06054178 0.04359878 0.02233021 0.0022857222 0.004007524 0.10334979 0.09113335 0.07086837
0.043901764 0.038033426 0.0971677 0.08468282 0.06535145 0.038790885 0.03503465 0.098648556
0.084427714 0.06407427 0.041812476 0.045329597 0.1148188 0.099683434 0.076358475 0.051885482
0.054242443 0.10744344 0.090514675 0.06969795 0.049508452 0.05188151 -0.014282314 -0.013190848
-0.013544039 -0.017775372 -0.01947217 -0.012714534 -0.012055049 -0.012000755 -0.016070163 -0.01821135
-0.013121323 -0.012793669 -0.012428411 -0.016522424 -0.01891157 -0.010631112 -0.010642662 -0.010803005
-0.015978431 -0.018439269 -0.010578773 -0.009900707 -0.010057486 -0.01677314 -0.018677613 -0.011450901
-0.011685892 -0.011653909 -0.015982622 -0.017905388 -0.010418428 -0.010404363 -0.010517938 -0.0150716165
-0.01672164 -0.010679362 -0.010560434 -0.010739775 -0.015279201 -0.017464556 -0.008862007 -0.008929536
-0.009119097 -0.014765446 -0.016809521 -0.008165223 -0.0076238248 -0.0085442215 -0.014042459 -0.017009508
-0.0051165596 -0.0047481577 -0.005129672 -0.010137368 -0.012151205 -0.0040868283 -0.0042167725 -0.0045896363
-0.009227847 -0.011154787 -0.0045694606 -0.004109137 -0.0042316127 -0.00886866 -0.011262904 -0.0030994855
-0.0026587544 -0.0036673043 -0.008049501 -0.010662837 -0.0029983083 -0.0019084719 -0.0025870209 -0.007982345
-0.010200421 -0.050277486 -0.05929855 -0.07469221 -0.08372668 -0.0894097 -0.05250301 -0.060402334
-0.07472273 -0.08632665 -0.09057336 -0.04449097 -0.052297596 -0.06678324 -0.0805633 -0.08886759
-0.043309264 -0.05189946 -0.06778327 -0.08221796 -0.09023219 -0.047387157 -0.056082707 -0.07015027
-0.08215359 -0.08748987 -0.048821755 -0.058350656 -0.073440954 -0.08272082 -0.08654859 -0.04938606

momentum_buffer f4 [32]
00000000: 413c c5bd d7ae 173e f3f9 c23b df05 833d
00000010: f946 a93e c06a 45be 390a 8dbd 251a 46bd
00000020: f5ba 9ebe 6390 7dbe af4f 083d 9147 3bbe
00000030: 4ce3 64be 167f 273c 7a6f 433e 0902 88bd
00000040: f515 013d 7277 62bd 7c97 453d 307b c63e
00000050: c353 86bb f864 0fbe 8ae9 92bd e6e6 653d
00000060: 8a71 b9bd 6824 ef3d d36c fdbd c4a3 923e
00000070: 5e40 21be 14f5 d13d 48ea 853e 8711 973d
-0.09630633 0.1481279 0.0059502064 0.06397604 0.3306196 -0.19279003 -0.068867154 -0.048364777
-0.31002012 -0.2476211 0.033279117 -0.18289019 -0.22352332 0.010223171 0.19085494 -0.06641013
0.03151508 -0.055289693 0.04824017 0.3876586 -0.0040993406 -0.1400336 -0.0717345 0.056128405
-0.09054859 0.11676866 -0.12374272 0.28640568 -0.1574721 0.10251823 0.26155305 0.0737639

momentum_buffer f4 [32, 32, 3, 3]
00000000: 0ce1 ac3c b0b3 ad3c 96d2 ac3c 1dd3 a33c
00000010: 68c2 a83c 3d18 b03c 2e11 9e3c a38f a43c
00000020: f47d a53c 1bdc 2c3c ad69 523c fcbc 5b3c
00000030: e2f7 3f3c 870a 5c3c 094f 653c 9ac8 413c
00000040: 54dc 543c f6f3 6b3c c4ee 013d bbd2 023d
00000050: b09c 033d 2c92 013d f96c fe3c 19f4 043d
00000060: d8f3 fa3c 487f 023d 814f 033d d06a c53c
00000070: d488 cd3c 05cb dc3c d11a ca3c fe23 cd3c
00000080: d9ea db3c 864f c13c e690 ce3c 50b6 d03c
00000090: d2cb 963c e684 ab3c 1cc2 bc3c dbf0 a13c
000000a0: 0cfe af3c 0c29 bb3c 1e09 9f3c 2e2f b83c
000000b0: 67f6 ba3c abd2 eb3c 3f89 fa3c 41d9 e83c
000000c0: 02d4 e63c 20aa f03c 7e02 f03c 7509 e73c
000000d0: 66e5 e93c 0063 e93c cc57 873d 927c 883d
000000e0: f665 8c3d 7ab8 843d c602 873d fbaf 893d
000000f0: 4533 833d 3e7a 873d e0d1 8a3d 4382 a83d
00000100: ed3a a63d 7e42 a13d d05c b23d b7d4 ad3d
00000110: be9f a93d 6232 b43d e4ec b23d 9801 ac3d
00000120: 928a b73c 1c16 a63c 4a92 a43c 4570 b43c
00000130: f8fc a83c c66c 9e3c ba11 993c d348 8f3c
00000140: 5713 883c 5315 4d3d fd66 513d 84cf 4c3d
00000150: 1021 4a3d 1849 4c3d 8a7c 4a3d f8be 423d
00000160: ae7f 3e3d a9a7 3f3d 6f24 263d c7ae 1c3d
00000170: de47 173d 6ea3 2e3d fde6 243d ef2f 203d
00000180: bb44 333d a176 2a3d 82e9 1f3d 6f49 473d
00000190: 7bd8 403d 71f4 3b3d feee 513d 87a9 4c3d
000001a0: 8177 403d 2207 5a3d 1a00 523d b7c3 4e3d
000001b0: 6677 7f3d a3b5 803d 3f76 813d ff5b 7e3d
000001c0: 78a8 7e3d 3189 803d ee1c 793d 3b16 783d
000001d0: 56b4 7a3d 37c0 073d 3489 033d 46cd 033d
000001e0: 14b7 0c3d 86ea 093d 93c4 063d f3cf 103d
000001f0: 8e96 0a3d a653 0a3d f8c7 393d 878e 3d3d
00000200: 7c57 423d b964 433d 4900 473d 1423 503d
00000210: 7380 443d 107f 493d 38c1 4e3d 351e 6b3d
00000220: 0c52 643d bcff 693d f354 6b3d dc64 5f3d
00000230: 11e6 653d 7712 6a3d 1e02 5f3d ef7b 623d
00000240: d498 4d3d 951e 563d aad7 5a3d 5060 4a3d
00000250: b844 533d a7c6 5b3d aeb2 483d cc4d 503d
00000260: 13c5 553d 80fa 813d f814 873d e3f7 8a3d
00000270: 0313 7c3d db93 843d 705f 893d 379f 7a3d
00000280: f11e 833d c83f 893d c98a cb3c a8c2 ba3c
00000290: 9d05 c33c 9b3d d23c 6c9a c83c 6bf9 b93c
000002a0: e131 cd3c 6c5b b73c 9814 b73c 3670 313d
000002b0: c23d 2d3d 3d0f 293d d188 323d 7384 303d
000002c0: 06b6 2a3d 2c9e 393d d8f4 313d 52ed 2c3d
000002d0: a8f5 f73c d2c8 f43c d8b8 f63c dc33 023d
000002e0: 9c56 f63c 58f1 f83c 1396 063d dc1a f43c
000002f0: 8e27 f13c 56e9 153d 912b 203d a8f7 213d
00000300: e074 183d 6a26 1d3d f663 203d da46 183d
00000310: 6b82 1a3d 28f2 1b3d 3cd9 7d3d 8d89 833d
00000320: c7b4 883d 068e 793d 2a61 813d 183e 843d
00000330: 6a5d 793d 7e44 7e3d 8771 853d 8d38 223d
00000340: 6070 2c3d b316 2c3d 8119 1e3d ad40 233d
00000350: b95d 283d 4034 1b3d 368e 233d bab3 233d
00000360: a34e 983c 9977 923c 1df7 8b3c 15be 9a3c
00000370: 801b 9e3c 67b7 923c b86e 973c 98a7 923c
00000380: 677f 8e3c 98ad 503a d120 683a 4aae dcb9
00000390: 802a 7f38 b419 02ba d09d b6b9 c089 4a38
000003a0: dad9 0d3a 6c83 aeba 5535 1b3d a485 133d
000003b0: 4c00 113d 66ff 273d a303 223d e65d 1d3d
000003c0: 3e71 253d 907c 1e3d 75fe 1c3d 7bc5 cebb
000003d0: 5caa bcbb 04cd fcbb 0610 00bc b8ce f6bb
000003e0: 2489 fcbb 844c 26bc e018 20bc 8c1e 2ebc
000003f0: f677 5e3d 99ff 603d 037c 683d 8e77 593d
0.021103404 0.021203846 0.021096509 0.019998128 0.020600513 0.021495933 0.019295301 0.020088023
0.02020166 0.010550524 0.012842578 0.013411757 0.011716815 0.013430244 0.013995894 0.011827612
0.012991983 0.014401427 0.031721845 0.03193925 0.03213185 0.03163354 0.031057822 0.032459352
0.030633852 0.031859666 0.032058243 0.024098784 0.025089659 0.026952276 0.02467099 0.025041576
0.026845383 0.02359749 0.025215577 0.025477558 0.018407736 0.020937394 0.023041777 0.01976817
0.021483444 0.022846721 0.019413527 0.022483435 0.022822572 0.028786978 0.030583022 0.028423907
0.028177265 0.029377997 0.029298063 0.028202752 0.028551769 0.02848959 0.06608543 0.06664385
0.06855385 0.064804986 0.06592326 0.06723019 0.06406263 0.06615113 0.06778312 0.082279705
0.08116708 0.078740105 0.08709109 0.08487838 0.082824215 0.08798672 0.087365896 0.083987415
0.022404943 0.020274214 0.020089287 0.02202619 0.020628437 0.019338977 0.01868521 0.01749078
0.016610784 0.050069164 0.051123608 0.05000259 0.049347937 0.049874395 0.049435176 0.047545403
0.046508484 0.046790753 0.04056209 0.03825262 0.036933772 0.042636327 0.04025935 0.039108213
0.04376672 0.04161704 0.03904105 0.048654016 0.047081452 0.045887414 0.05125331 0.04996636
0.046988968 0.05322946 0.051269628 0.050479617 0.062369727 0.062846445 0.06321382 0.062099453
0.062172383 0.06276167 0.060818605 0.060568076 0.061207138 0.033142295 0.03211327 0.032178186
0.034354284 0.033670925 0.03290231 0.035354566 0.033834986 0.03377118 0.04535672 0.046278503
0.047446713 0.04770348 0.048584256 0.050814703 0.04797406 0.049193442 0.050477237 0.057401855
0.05574231 0.057128653 0.05745406 0.054539546 0.05612761 0.057146516 0.05444538 0.055293974
0.050194576 0.05227526 0.05342833 0.049408257 0.051579207 0.053656247 0.048998527 0.050855443
0.052189898 0.06346607 0.06595796 0.06785562 0.06154157 0.06473514 0.067076564 0.061186995
0.06402386 0.067016184 0.024846451 0.022797897 0.023806388 0.025664141 0.024487697 0.02270194
0.025048198 0.02238246 0.022348687 0.043319903 0.042295225 0.041274298 0.04358751 0.043095063
0.041677497 0.04531686 0.04344639 0.042218514 0.030268505 0.029880915 0.030117437 0.03178774
0.030070595 0.03038852 0.032857966 0.029797964 0.029437806 0.03659948 0.03910405 0.039542824
0.037220836 0.038366713 0.03915783 0.037176944 0.037722033 0.038072735 0.06197475 0.0642272
0.066751055 0.06092646 0.06317361 0.06457156 0.060880102 0.062077038 0.06515794 0.039604712
0.042099357 0.042013835 0.03859854 0.0398566 0.041105006 0.037891626 0.039930545 0.039966322
0.018592184 0.017879294 0.017085606 0.018889466 0.019300222 0.017909719 0.018485412 0.01790218
0.017394735 0.0007960438 0.00088549877 -0.00042091525 6.083632e-05 -0.00049629365 -0.00034831325 4.8288843e-05
0.00054111856 -0.0013314313 0.03789266 0.03601612 0.035400674 0.04101505 0.03955425 0.038419627
0.0403912 0.03869301 0.038328607 -0.0063101626 -0.005757613 -0.0077148695 -0.00781632 -0.007531967
-0.007706778 -0.010150079 -0.009771556 -0.0106274 0.054313622 0.054931257 0.05675889 0.05309253

momentum_buffer f4 [32]
00000000: 3842 d13d 5bd8 83be d274 953b 67fb 993b
00000010: 65ee 4dbd ec05 58be c39f 0d3d 4aec 83bc
00000020: b172 9d3d f14a fcbd 19f6 dfbc f7e5 0c3e
00000030: 9412 133e 8894 273d 316d babd 7d17 9e3c
00000040: 5f0b babc fbde 07be fb5c 5d3d 7e91 46bc
00000050: 69fb 9eb9 3369 4e3d 9ab5 34bd e621 783d
00000060: d53d 383d 7aa2 cabb c87f a2b9 bccc 80be
00000070: e50c 77b9 849c 993c 6eda 73bc a33f 3f3e
0.10217708 -0.25751004 0.004561045 0.004699159 -0.05027618 -0.21096009 0.03457619 -0.016103882
0.07687891 -0.123189814 -0.027339028 0.137596 0.14362556 0.040913135 -0.09102858 0.01929831
-0.0227105 -0.13268654 0.05404375 -0.012119649 -0.00030323424 0.050393295 -0.0441185 0.060579203
0.044980843 -0.0061839195 -0.00030994252 -0.251562 -0.00023560559 0.01875139 -0.014883621 0.18676619

momentum_buffer f4 [64, 32, 3, 3]
00000000: 12de 133a bd77 243a 98f0 3a3a 6f52 f938
00000010: 0b2f 303a ae64 023a 0289 ea38 5b76 153a
00000020: b8e6 df39 c795 5e3a 3539 723a 0e36 2e3a
00000030: 833b 883a ee6b 163a 0c3f 483a a1aa 623a
00000040: a7f1 833a cab6 923a 2380 a73a c773 943a
00000050: f551 bd3a 7f41 573a 861c 823a 60de ae3a
00000060: 26fd 043a c34b 523a 4c29 cd3a aed7 a138
00000070: aa79 8039 8f46 0d39 da48 df39 6673 4139
00000080: cc78 313a 7368 19b9 920c a638 7fa6 81b8
00000090: 31c8 9939 735f e7b6 6166 2539 44f5 35b8
000000a0: 5694 01b9 67ab c8b9 3db7 8639 cc7c 9839
000000b0: 6889 84b9 ee29 5d3a 861a bf3a 9821 b439
000000c0: e2a9 d43a 5bdf 893a 1b6d c03a 72ff fd39
000000d0: b7ea 523a 339d 683a d2c5 13ba 5f00 97b9
000000e0: 8580 3aba 3894 1d39 2965 0239 fffd a039
000000f0: 849a e7b8 2f4c c139 9fb6 02b9 6932 b5b9
00000100: 3891 deb8 8d4a 40b9 b18c bcb9 38ad 7439
00000110: 9c92 d9b8 b7be 3339 fcb8 a4b9 564a 4a38
00000120: 251b 0639 a5f0 60b9 f321 5fba e61b bc38
00000130: 6a31 6f39 3cb1 ae39 090d 6939 af43 4f39
00000140: a79f 15ba c154 7b3a 0091 a039 3fbd 9c39
00000150: 7060 fb39 5408 0c3a c05b d638 fd61 383a
00000160: c537 8b3a 15f7 433a 448b 8839 c42a 19b7
00000170: a3de eeb8 4fe8 ccb9 3610 edb9 d260 27b9
00000180: 2645 d6b9 d472 95b9 a25a 87b9 a888 8039
00000190: 3eef 493a a063 6739 1ab0 2039 e8a1 7938
000001a0: d102 643a d34a d739 5cf9 8d3a 38c4 2539
000001b0: 4e40 e93a b81b b63a 7a29 d93a 3202 113b
000001c0: 54bd de3a 2020 fe3a e77e 013b 50b7 1c3b
000001d0: 5f7f 013b e925 70b8 6c89 17b8 9186 2739
000001e0: f4df 40ba d4c2 c7b8 77a5 d638 b8a1 9539
000001f0: 2b94 e438 ee48 bd37 1571 8239 e81a 263a
00000200: 04eb 443a ca2c 8a39 2074 0c39 1dbf 233a
00000210: 068b 923a 76ea 133a d4be d738 cff2 a93a
00000220: df58 6d3a 7e9c 423a e8d8 053a 2e81 723a
00000230: 8e6b 733a 8846 533a 7283 303a 37c9 913a
00000240: 1e05 d93a a749 af3a af2b f63a 6900 ec3a
00000250: be49 033b 5fbe f43a f1a6 c63a b490 e23a
00000260: e9d0 c13a 005c cb3a f499 8739 d563 593a
00000270: e987 3b3a 0ace 5f3a 418d 103a 01b5 9639
00000280: 0700 193a 2c84 f139 4dbb 273a 026d ce39
00000290: 8c85 32b8 20e8 2c3a 3c35 9339 e6ca dd39
000002a0: 7d38 ae38 0223 f6b8 6703 0fb9 1120 3db9
000002b0: 6248 60b8 ae20 2b39 cb47 8ab9 8268 c639
000002c0: 38cb 2439 9ed4 4fb7 93a9 023a 25c9 3bb9
000002d0: 00c0 cd39 e3cb 8f38 6f4f 9d39 ce4a e738
000002e0: b57e 2a37 aa4f 6fb9 6467 023a 3495 f237
000002f0: a125 97b9 8bbb 88ba 080c 58ba 6184 1eba
00000300: fc48 7ab9 a291 16ba 9558 4bb9 4ea6 28ba
00000310: 4897 9fb9 42f6 59b9 0c0f 073a 3005 d3b6
00000320: 3c2e a539 368c a939 46e5 2a3a cf41 8d39
00000330: 9934 043a 96a5 c739 be70 d039 c8f8 2fba
00000340: a781 00ba fc3a 13ba fa8c 6739 6c7e 30ba
00000350: fa76 dfb9 276d c1b9 8854 e0b9 5553 31ba
00000360: 9c8e 263a 0410 873a 3715 403a cd9b 903a
00000370: 5938 d339 11a3 0d3a 547d 1d3a a922 9d3a
00000380: aae2 6c3a 1e74 153b 38c8 123b f850 073b
00000390: fd5a 043b 1264 f63a 47d8 f63a 8487 0c3b
000003a0: c9e7 053b d68b 183b 056c 01ba b9a8 12ba
000003b0: 841e 7eb9 12b7 7a39 3988 21b9 7a08 ebb9
000003c0: ce9d d4b9 89b2 233a 2f0a 62b9 4a9d 853a
000003d0: 761f c63a e741 e13a 5467 e13a 17f1 e039
000003e0: 611b c03a 10c8 e63a f55b a03a 2e28 d53a
000003f0: d3b9 a038 c301 b936 a75f b2b9 f403 23ba
0.0005640696 0.0006273946 0.0007131188 0.000118886 0.0006720877 0.0004974109 0.00011183509 0.0005701535
0.00042705773 0.00084909465 0.0009240092 0.0006645628 0.0010393712 0.00057381287 0.0007638789 0.00086466415
0.0010066525 0.0011193391 0.0012779277 0.0011326008 0.0014443981 0.0008211359 0.0009926714 0.0013341419
0.00050731224 0.00080221536 0.0015652566 7.717252e-05 0.0002450471 0.00013473093 0.00042588153 0.00018448904
0.00067700143 -0.00014630127 7.917838e-05 -6.182212e-05 0.00029331588 -6.895448e-06 0.00015773765 -4.3382184e-05
-0.00012357658 -0.00038274677 0.00025694995 0.0002908468 -0.00025279378 0.0008436729 0.0014580048 0.00034357305
0.0016224945 0.0010518836 0.0014680953 0.00048446242 0.00080458395 0.0008873522 -0.00056370825 -0.0002880124
-0.0007114488 0.00015027903 0.00012435451 0.0003070682 -0.00011043719 0.0003686859 -0.00012465798 -0.0003456057
-0.00010612834 -0.00018338319 -0.00035962978 0.00023334182 -0.000103746745 0.00017141817 -0.00031418342 4.8229784e-05
0.00012789348 -0.00021451952 -0.0008511834 8.969735e-05 0.00022811224 0.00033319916 0.00022225468 0.00019766272
-0.0005707689 0.00095875195 0.00030625612 0.00029895638 0.00047946302 0.0005341817 0.00010221405 0.00070336444
0.0010621479 0.0007475478 0.00026043702 -9.129468e-06 -0.00011390194 -0.00039082995 -0.0004521624 -0.0001596243
-0.0004086878 -0.00028505048 -0.00025816733 0.0002451588 0.00077031914 0.0002206699 0.00015324392 5.9517013e-05
0.00086979294 0.00041063744 0.0010831761 0.00015808723 0.0017795654 0.0013893759 0.0016568147 0.0022126553
0.001699368 0.0019388236 0.0019759478 0.0023912974 0.0019759757 -5.7255766e-05 -3.612919e-05 0.00015976491
-0.00073575904 -9.525349e-05 0.000102351354 0.00028539984 0.00010899486 2.2564516e-05 0.00024879785 0.0006336407
0.00075118267 0.00026354782 0.000133947 0.00062464346 0.0011180348 0.00056425424 0.000102875434 0.0012966039
0.00090540753 0.0007423832 0.0005105869 0.00092508167 0.0009285741 0.0008059521 0.0006733454 0.0011122589
0.0016557311 0.001337339 0.0018781329 0.0018005493 0.0020032967 0.0018672458 0.0015155954 0.0017285557
0.0014786992 0.0015515089 0.0002586391 0.0008292769 0.0007153736 0.0008537477 0.00055142125 0.00028745088
0.0005836491 0.00046065578 0.00063984544 0.000393726 -4.2562882e-05 0.00065958686 0.00028077688 0.00042303576
8.307488e-05 -0.00011736715 -0.0001363881 -0.0001803639 -5.3473173e-05 0.00016320005 -0.000263749 0.00037843367
0.00015715964 -1.2387665e-05 0.0004984375 -0.00017908642 0.00039243698 6.856748e-05 0.00030004556 0.00011028872
1.0162291e-05 -0.00022822493 0.0004974513 2.8918126e-05 -0.00028829 -0.0010431869 -0.0008241539 -0.00060469477
-0.00023869047 -0.0005743747 -0.00019392588 -0.0006433473 -0.00030439557 -0.00020786471 0.00051520835 -6.288894e-06
0.000315057 0.00032338657 0.000651915 0.00026942647 0.0005043238 0.0003807961 0.0003975685 -0.00067127915
-0.0004902132 -0.00056163943 0.00022082395 -0.00067327055 -0.0004262252 -0.00036893153 -0.0004278759 -0.00067644316
0.0006353648 0.0010304456 0.000732738 0.001103276 0.00040287038 0.0005403022 0.000600775 0.0011988479
0.0009036461 0.0022804807 0.0022397172 0.0020647626 0.0020195835 0.0018798134 0.0018832766 0.0021443078
0.0020432344 0.0023276708 -0.00049370556 -0.00055945996 -0.00024234696 0.00023910057 -0.00015404903 -0.00044829008
-0.00040553365 0.00062445604 -0.00021556833 0.001019397 0.0015115577 0.0017185778 0.0017196932 0.00042904235
0.0014656597 0.0017607231 0.0012234437 0.0016262585 7.664007e-05 5.5136347e-06 -0.00034022072 -0.00062185456

momentum_buffer f4 [64]
00000000: a815 d1b8 e9f6 3fb9 7a98 00ba 5ef3 0d39
00000010: 4419 26bd 2434 28bb 50d8 7b3c 8ef5 dcbc
00000020: 293a 48ba f81e 4239 1559 85bd e4eb 123d
00000030: b14b b4bd 8a35 74bc 4896 94bb 3c71 68bb
00000040: 8358 12bc a604 f73c 2d60 b63c 303f 183b
00000050: bbdd dabc 747e 87ba d8d0 04b8 df96 233a
00000060: efa9 95bd dd54 86bd 6c23 703b 6878 023c
00000070: 0c59 4f3c 4fb7 dc3c 06be e1bb 6eb1 953b
00000080: 24a3 cdbd c6b4 463c c711 183d 7318 1a3c
00000090: 7c6b 283b d6c3 d63b 8a62 3fbd 8b61 90b9
000000a0: 3ace 873d bc7d ac3c 97ca 10bb 32e0 caba
000000b0: 170a 8d3a a68f 18bb f65c edbc 5ea4 c5bc
000000c0: 842b b63a 1080 4cb9 c7e0 8cbd 7e9b 6dbb
000000d0: 47ba 183b 1abd 6e3d 6141 823b ff71 5b3c
000000e0: a461 c93c 2824 553b 4ead d439 8efc bb39
000000f0: c5e6 523c ea21 94bd f2ac 523d 8755 de39
-9.9699304e-05 -0.0001830716 -0.0004905533 0.00013537469 -0.04055144 -0.0025665844 0.015371397 -0.026972558
-0.0007638061 0.00018512818 -0.06511132 0.035869494 -0.088034995 -0.014905343 -0.0045345165 -0.0035467884
-0.008932236 0.030153584 0.022262657 0.0023231022 -0.026717057 -0.0010337369 -3.1665753e-05 0.0006240438
-0.07307803 -0.06559155 0.0036642207 0.007963277 0.012655508 0.026942877 -0.0068891076 0.0045682704
-0.10040882 0.012128061 0.03712633 0.009405243 0.0025698831 0.006554107 -0.046724834 -0.00027538495
0.066311315 0.021056049 -0.002209341 -0.0015478192 0.0010760453 -0.002327898 -0.028974991 -0.024126228
0.0013898467 -0.00019502663 -0.068788104 -0.003625601 0.002330439 0.05828581 0.003975079 0.013393878
0.024582691 0.0032522772 0.00040564913 0.00035855587 0.012872403 -0.07233031 0.051434465 0.00042406862

momentum_buffer f4 [64, 64, 3, 3]
00000000: 2b2d 10ba 5ea4 fdb9 fb99 16ba 894c 4cb8
00000010: 5afb eeb9 d724 a939 830a 1eb9 ec50 1ab9
00000020: 3a05 22ba 7cd7 d637 d788 de39 6d8b 6bb8
00000030: 7aaf c1b7 7e51 6f39 c285 af38 a176 2fba
00000040: 2411 10b9 784d 9639 5d74 d8b9 3c0f 5339
00000050: ba12 aab8 5170 e6b9 8cff 8839 2bd2 4539
00000060: 04c8 f8b9 5b73 4339 576d 21ba 1cca 1bb9
00000070: 80a5 d7b9 7c3d 3739 9bd8 26ba caa5 aa39
00000080: 1797 d138 2001 97b9 d3b0 b1b7 d4e3 84b8
00000090: 9f1e 4bba ae50 3cba 105f 1aba 5c73 61ba
000000a0: cd4b 2cba 16f5 a4b9 ccf4 97ba 3ae9 2dba
000000b0: f8c3 7aba 49c5 1ebb 15c0 21bb 6e48 15bb
000000c0: 16a4 2ebb 911d 2ebb 6cd6 29bb 24b9 39bb
000000d0: 5e6f 47bb d1a4 42bb c58c 2dba 3069 01ba
000000e0: 59a6 bdb9 c0a0 4aba 4fd3 95ba 7314 14ba
000000f0: 31b5 1cba 3da7 a2b9 0608 3cba e092 05bb
00000100: a52d 01bb 0090 d4ba d2b5 36bb 64dd e4ba
00000110: f608 23bb 28d6 23bb 37d3 20bb e911 33bb
00000120: 60e8 11ba 08cf ceb9 f65f f8b9 2869 f836
00000130: 423a 1bba d49a 1337 52b5 34b9 ea38 6eb9
00000140: ff32 1eba ca87 c9b7 01b2 0a38 7f57 8439
00000150: 622d 063a f8a5 6db9 fae6 b538 db1c d4b9
00000160: 22dd e236 fb5d e2b9 6ca6 31ba 1562 0fba
00000170: 50a1 1dba 9ad4 10ba 2b52 45ba ceec 78b7
00000180: 3eae 1aba f785 90ba 4773 0fba f4a6 17bb
00000190: a816 16bb 19a9 27bb a8a6 b1ba 6bdf 18bb
000001a0: 3a92 1bbb 6008 27bb f1ca e9ba 9690 23bb
000001b0: 7a4d 04bb 2ad6 e6ba dc17 09bb 9957 1ebb
000001c0: 5626 11bb 1f02 04bb 4a10 34bb f490 0bbb
000001d0: 3f36 27bb 7e94 7cba 21b5 04ba 431b 54ba
000001e0: a27c 35ba 4622 ddb8 3585 10ba 8e06 3eba
000001f0: 807e 4aba 58ab 90b7 2900 5eba 861c 7dba
00000200: a48d 86ba 6cee 96ba 1097 16ba 8944 8fba
00000210: 20c9 85ba 0c67 2cba 4acc 4aba 0ed5 cdb8
00000220: 96ef a039 07d1 d3b9 1e46 9539 ac80 6737
00000230: 406b 78b9 8cdc 00ba 418c 89b9 7fa7 7939
00000240: 1621 3fb9 3e2e 2b39 292f 83b9 b23f 0ab9
00000250: dfad 6ab9 422a 3b3a 638b 18ba ab17 2cba
00000260: 62f0 acb9 5848 04b7 469f e0b9 4b15 4fba
00000270: 248f c4b8 6fcd b1b9 7337 4fba 1c66 b1b8
00000280: d7f5 84b9 c472 6db9 0011 c4ba c62a c3ba
00000290: 97dd e6ba 9a4a dfba a215 a7ba 4d50 b4ba
000002a0: 6c2a cfba b1e7 c3ba 2af9 d0ba 21b4 6339
000002b0: ecc0 fc39 1487 31ba 9f1c 03b9 cb92 12b9
000002c0: 5ed6 6db9 96b7 6d39 585b 1736 742a d7b9
000002d0: 505a 45ba 7a45 6bb9 8e8f 2db9 3491 34ba
000002e0: ec18 2d38 b0de 92b9 0084 6fba 74d7 5cb9
000002f0: b2a2 43ba e8ea 56ba 1761 a2b9 4e06 5638
00000300: 7880 5939 1dfa de39 ee6c 8539 31f8 58b9
00000310: 00d0 8d39 ae18 4fb9 439e 43b9 0597 9138
00000320: 1d81 c838 6b6c 23b9 6d4f f337 82c6 5bb8
00000330: eb67 ebb9 f36f 16b7 81ce 8bb9 de1e 17b9
00000340: 3cf5 73b6 b133 c439 0a5b 6f39 3639 f3b9
00000350: a6ea 3439 5e5f 85b9 65b9 bb39 5142 3ab8
00000360: b00c 86b9 8faa cab8 fdc9 22b8 7233 95b9
00000370: 16fe 17ba 4255 e8b9 78d1 3eba 43a6 c4b9
00000380: db75 43ba 6a37 3bba f417 00ba 1409 e8b9
00000390: 29c6 31ba 51b7 eab9 4540 0bba 23fe 7aba
000003a0: dadc 7bba 32f1 4aba 1c16 19ba 8f56 36b9
000003b0: b682 30ba ef8d 02ba 2647 3cb9 f6ec 9cba
000003c0: 2eb8 21ba a96e ceb9 60fa 07ba d9b1 82b9
000003d0: c029 03ba 7055 53ba 4870 28ba f82d 5cba
000003e0: 3ed7 72b9 ac2a 42ba 22ab 48b9 c4e2 c237
000003f0: f68a 0cba 0ca1 e2b9 fa79 47ba 0aea 2cba
-0.00054998946 -0.00048378384 -0.0005744991 -4.870867e-05 -0.0004558217 0.0003226164 -0.0001507197 -0.0001471673
-0.00061805884 2.561113e-05 0.00042445093 -5.6158216e-05 -2.3089106e-05 0.00022823174 8.3695646e-05 -0.00066933973
-0.00013739296 0.00028667948 -0.00041285428 0.00020128203 -8.10972e-05 -0.000439527 0.0002613034 0.00018865678
-0.0004745127 0.00018639622 -0.00061579555 -0.00014857244 -0.00041131303 0.00017475145 -0.0006364674 0.0003254845
9.994039e-05 -0.00028801803 -2.1182384e-05 -6.336687e-05 -0.00077483983 -0.0007183653 -0.0005888799 -0.0008600259
-0.00065725745 -0.0003146312 -0.0011593341 -0.000663418 -0.0009565945 -0.0024226478 -0.002468114 -0.0022778767
-0.0026648096 -0.0026567916 -0.002591516 -0.0028339112 -0.003043137 -0.002970029 -0.00066204026 -0.00049366336
-0.00036172828 -0.0007729642 -0.0011430773 -0.0005648799 -0.00059779274 -0.0003102365 -0.00071728264 -0.0020381734
-0.0019711044 -0.0016217232 -0.002787937 -0.0017460999 -0.0024877167 -0.0024999473 -0.0024539956 -0.0027323908
-0.00055659376 -0.00039445632 -0.00047373743 7.4032178e-06 -0.0005921462 8.7979315e-06 -0.00017233685 -0.00022718651
-0.00060348207 -2.4024299e-05 3.3067543e-05 0.00025242192 0.0005118457 -0.0002266391 8.673775e-05 -0.0004045729
6.761068e-06 -0.000431761 -0.0006776813 -0.00054696325 -0.0006013112 -0.0005524844 -0.00075271976 -1.4837087e-05
-0.0005900598 -0.0011026253 -0.0005472195 -0.0023140283 -0.0022901688 -0.0025582968 -0.0013553696 -0.0023326527
-0.002373828 -0.002548717 -0.001783697 -0.0024958006 -0.0020187781 -0.0017611433 -0.0020918762 -0.00241611
-0.0022148094 -0.0020142866 -0.002747553 -0.0021296116 -0.002551451 -0.0009635164 -0.00050623907 -0.00080912205
-0.0006923174 -0.00010544485 -0.00055130135 -0.00072489015 -0.00077245384 -1.7245926e-05 -0.0008468652 -0.00096554344
-0.0010265601 -0.0011515147 -0.0005744556 -0.0010930459 -0.0010207035 -0.00065766345 -0.000773613 -9.814846e-05
0.00030696084 -0.00040400794 0.00028471736 1.3798632e-05 -0.00023691077 -0.00049156765 -0.00026235174 0.00023808888
-0.00018227505 0.00016325057 -0.00025021404 -0.00013184434 -0.00022380751 0.0007139781 -0.000581911 -0.0006564806
-0.00032985496 -7.884657e-06 -0.00042843277 -0.0007899596 -9.37267e-05 -0.0003391313 -0.0007904686 -8.459037e-05
-0.00025360167 -0.00022644835 -0.001495868 -0.0014890067 -0.0017613646 -0.0017035783 -0.0012747536 -0.0013756842
-0.0015805489 -0.0014946369 -0.0015943397 0.0002171551 0.00048208924 -0.00067721424 -0.00012503796 -0.0001397833
-0.0002268194 0.00022670472 2.2553922e-06 -0.00041039626 -0.0007528411 -0.00022437228 -0.00016552044 -0.0006888092
4.1269624e-05 -0.00028013205 -0.0009136796 -0.00021061098 -0.0007462903 -0.0008198456 -0.00030971385 5.1027448e-05
0.00020742591 0.0004252949 0.00025448896 -0.00020691824 0.00027048588 -0.00019750252 -0.00018655606 6.9422684e-05
9.5607924e-05 -0.0001558528 2.9004843e-05 -5.2398544e-05 -0.00044900118 -8.966762e-06 -0.00026666003 -0.00014411981
-3.6352567e-06 0.00037422546 0.00022826731 -0.00046391197 0.00017253551 -0.0002543879 0.0003580555 -4.4407618e-05
-0.00025567925 -9.6638796e-05 -3.8811926e-05 -0.00028457824 -0.00057980546 -0.0004431401 -0.0007279138 -0.00037507908
-0.00074562215 -0.0007141741 -0.0004886382 -0.00044257252 -0.00067815423 -0.0004476854 -0.0005312006 -0.00095746125
-0.00096077996 -0.00077416294 -0.00058397814 -0.00017389118 -0.00067333446 -0.0004980256 -0.00017955582 -0.0011972475
-0.00061691075 -0.0003937383 -0.000518715 -0.0002492804 -0.00050034747 -0.00080617424 -0.00064254226 -0.0008399184
-0.00023159102 -0.00074068713 -0.00019137238 2.3232198e-05 -0.0005361283 -0.00043226068 -0.00076094235 -0.0006596154

momentum_buffer f4 [64]
00000000: 89f5 a6ba a0ca 253c fbd4 b2b9 85d8 823b
00000010: f8b5 15b9 5b41 c1b8 869e d639 ae5f 263c
00000020: da7c d039 7348 9e38 501b 96bb d07d 9038
00000030: e73b 1b3c a989 35b8 94af 9fb9 1154 eb3c
00000040: 2ec4 823c 5380 073c 4e98 2e3a 8828 16bb
00000050: ce7d d2bc b311 e53b 945f ac3b 91be 10bc
00000060: 5dc2 643c 29e2 d8bc ab14 a8b9 a6d7 f6bc
00000070: ca94 51b9 6ad0 a2bc 36d1 a3bb 93ed 4d3a
00000080: b1d7 08bc 1aba 2cba 46cc 1e3b bd3f a53c
00000090: 196a 103a 9449 85b8 fc45 3ab9 4678 f4bc
000000a0: f5dc 1bbb 5338 8b3a 6a77 92bb 15fd 0bbd
000000b0: 41d5 b3b6 6a77 503c 0619 633c 65e4 8b3c
000000c0: 63a2 86b9 3d7e 82bb a119 e0bc 7ae6 3b39
000000d0: ee90 193b 33db 3cbc ffbd 913a 8003 96bb
000000e0: 5d9e 4c3a 1ed2 5ab9 a1f5 8539 2051 27b8
000000f0: de96 e9ba 8e01 91b9 5297 033c f768 b23c
-0.001273797 0.01011911 -0.00034109488 0.0039930963 -0.00014277536 -9.2151306e-05 0.0004093537 0.010154648
0.00039765873 7.547522e-05 -0.0045808926 6.8898895e-05 0.009474731 -4.328197e-05 -0.0003045766 0.02872661
0.015962686 0.008270341 0.00066602684 -0.0022912342 -0.025694754 0.0069906353 0.0052604172 -0.008834497
0.013962355 -0.026475029 -0.00032058856 -0.030132126 -0.00019987221 -0.01987477 -0.004999305 0.0007855531
-0.008352206 -0.00065890106 0.0024230643 0.020171994 0.0005508974 -6.355639e-05 -0.00017764413 -0.029842507
-0.0023782824 0.0010621644 -0.0044698017 -0.034176905 -5.3594417e-06 0.012723783 0.0138609465 0.01707668
-0.0002567946 -0.003982334 -0.02735597 0.00017919569 0.0023432332 -0.011526871 0.0011119245 -0.004578054
0.00078055804 -0.00020868375 0.00025550745 -3.9891456e-05 -0.0017821451 -0.00027657714 0.008031683 0.021778567

momentum_buffer f4 [1, 64]
00000000: 6082 2d3c 92f7 053d f153 1e3b b11b f03c
00000010: 1481 4337 e7b5 24b8 d187 153c 0271 0f3d
00000020: f93d d03a 28f6 cc3a 6998 d73d 4f37 1039
00000030: 0290 f63c e571 9939 1538 623b c088 133d
00000040: 985a 0f3d f7c6 f33d d974 ad3b 4ac3 633d
00000050: 1c5a 8b3e 2b2c 513d 0736 343c b411 233e
00000060: 70d5 223d ebaf 973e b675 243a f29a 653e
00000070: e328 b238 546f 783e 3a32 0f3e 5da6 8d3c
00000080: 6c0b 8f3d a831 063d b89f 3a3b 5612 6c3d
00000090: 79b3 ae3c 6dad a038 2b82 4eba 5022 7a3e
000000a0: 61f0 a53d 0cb8 633b 5323 d33d dad4 8d3e
000000b0: 946a 1039 a959 743c 8456 d13d 3ab5 c83c
000000c0: ec15 f6b9 71f5 a83d 26d2 9d3e a0f1 063b
000000d0: f892 973c af3c 0e3e 3f68 253b 8ca0 bd3d
000000e0: 3e6d 5a3a d0ca 65b9 0140 c03a 78b9 fc3a
000000f0: 3bee 323c 4be7 e2ba 5e41 f63c b0c4 423d
0.010590166 0.032706805 0.002415892 0.02931008 1.1652959e-05 -3.9270057e-05 0.009126619 0.035019882
0.001588761 0.0015637325 0.10527117 0.00013753514 0.030097965 0.00029267292 0.003451829 0.036019087
0.034998506 0.11903184 0.0052934703 0.055606164 0.27217185 0.051067512 0.010999209 0.15924722
0.03975433 0.29626402 0.0006273644 0.22422388 8.495317e-05 0.24261218 0.13984004 0.017291242
0.069846004 0.0327622 0.0028476547 0.057634674 0.021325814 7.6616976e-05 -0.0007877673 0.24427152
0.08102489 0.0034747152 0.10309472 0.27701455 0.00013772614 0.014913955 0.1022158 0.024500478
-0.0004693711 0.08249939 0.30824393 0.0020590797 0.018502697 0.13890336 0.0025239137 0.092591375
0.00083323184 -0.00021914695 0.0014667512 0.0019281348 0.010921056 -0.0017311362 0.030060466 0.047550857

bn0.weight f4 [3]
00000000: 8439 923f c4ab 863f 85ba 8c3f
1.1423802 1.0521169 1.0994421

bn0.bias f4 [3]
00000000: 885a 63bc 9880 2abe 87ff c13c
-0.013876565 -0.16650617 0.023681415

bn0.running_mean f4 [3]
00000000: 14bc f93e a211 e53e ddd6 cf3e
0.48776305 0.44740015 0.40593615

bn0.running_var f4 [3]
00000000: 43ea 843d d395 763d 6d65 793d
0.064899944 0.060201477 0.060887743

conv1.weight f4 [32, 3, 5, 5]
00000000: 96af 853d 1c23 ad3b b8d7 5fbd 9f50 be3d
00000010: 0d58 f7ba 84ff b03c 8129 263d 333a a03d
00000020: 4deb 68bd 8e12 5f3d 58ba 233d c510 e93d
00000030: eaca 6abc c868 f9bc 5810 3f3d 9b10 c03b
00000040: ec57 b33b d209 213d 7255 683c a692 df3d
00000050: 259d d0bc 78e0 40bc 1016 a83c 6d90 503d
00000060: 5b33 ce3c c2d9 7dbc c842 6dbc 3765 273b
00000070: ed10 2f3d cc51 99bd c167 94bd 7d07 2dbc
00000080: 4e92 0cbd 927e 4fbd 4dfe d7bc 60da 94bd
00000090: c758 4dbc 3da1 b53b 3096 f33c 195b 81bd
000000a0: 3df3 353d e0a5 8ebd dca5 943b 9a0c 8abd
000000b0: 0f7e d23a c233 68bd 464c 40bd 653a b6bd
000000c0: cb70 babd a308 85bd 530c eebb 85ad ecbc
000000d0: 143e 84bc 4dc7 73bd 168e 063d 9bed 72bb
000000e0: eb12 97b9 0fd0 9fbc 7018 fcbc 637c 87bd
000000f0: 4829 1f3d 787b 6e3b acf5 3b3d 7e0f f4bc
00000100: 38c1 04bd dfeb 90bc 839a cd3c 8762 363d
00000110: a117 793d b6db 053e 7a18 c63c 8df9 86bc
00000120: 6d5e f2bc ec53 e1bd 3da6 18bd d408 a23d
00000130: 75df 59bd d730 10bd 029a 9c3c fed2 e73b
00000140: 0422 a43b 268e c43c 2900 4d3d f0ab 37bd
00000150: 2a74 60bc 5f60 96bd 479e 873d ee5b 3e3c
00000160: 82f8 83bd 305a 33bb c426 183d f9bd be3d
00000170: 078a 87bd b701 79bd a843 473c f6bd 8f3c
00000180: 9a06 443d a033 ddbc 1aa7 183b 567e dfbc
00000190: e674 533d 8c28 7d3c 12f8 df3d c991 01bc
000001a0: 97b5 febd 70c8 9bbc 0667 863c 8c40 5d3d
000001b0: 3097 8abc d4ae 1fbb 347d 5e3d 2c5d 8dbd
000001c0: 1ea7 4fbd b41d f7bb d0e6 003d 68b6 223d
000001d0: dd9c cf3c 3201 483d 33b5 2ebd e512 713d
000001e0: 22f1 763d ed14 48bd 3f96 0ebd 47d3 653c
000001f0: c637 0dbc 1498 193d c286 613b 3f1d 043c
00000200: 934e 48bd 0d90 fd3c 6e78 043d 1523 c2bc
00000210: ad7a e7bc 2c19 663b fcf9 c3bd c4ac 503d
00000220: 3602 44bc 4193 a0bd a344 12bd 04d9 9c3c
00000230: 02b8 c83d af6c e93b c2d1 9e3c c6e9 ccbc
00000240: 6ff6 603b 5e02 0bbb e9f7 c3bb 25af 423d
00000250: 1a4b a1bd 93aa dfbc 48e1 91bd efb5 8c3b
00000260: 924c dabc ce62 31bd 9c80 29bd 2de3 1d3b
00000270: 1a35 3a3d b0b0 9abc 9020 3a3c 6920 893c
00000280: d6b2 b8bd f9d4 32bd 64bb f8bb a7c9 21bc
00000290: 144a 84bc fa52 9c3d 4e26 5aba d337 8e3d
000002a0: 9530 0dbd 4c87 d4bb 5af6 363d e244 95bd
000002b0: da41 c53d fcc6 bbbd 6f47 2abd 2a5b 18bc
000002c0: 8a01 ccbd 95ee 923c 2adb a73c 5476 91bc
000002d0: 5df2 7a3b 8007 b03b fe52 07bc bcc7 1abd
000002e0: 8dbd 883d 4074 54bd ba00 d83c 3438 043d
000002f0: a9f3 83bc 61c7 733c bea9 b93a 6aec dabc
00000300: f35f be3d 5b1d a3bd 198b d93c 07fb 813d
00000310: 8ce7 cabc be11 c73c ad68 963d 9651 c0bd
00000320: a8e5 353c 7e92 0f3d e16a b63d 51f6 983b
00000330: 1ba8 b1bc 2e51 423c 7c43 173b 891e 34bd
00000340: 3cdf 56bd 56c3 ba3b 5edc b9bd 7d43 853d
00000350: 038d 8d3d 4ce9 bcba 5522 f3bc a497 abbc
00000360: e756 2d3d ae73 40bd b5de 62bc 16ff 7dbd
00000370: 195e ffbc 9389 44bd 7652 10bc 9b9c c23c
00000380: 1bac fdbc 872e 183e a1d4 2bbd f313 3bbd
00000390: 4eac f93d 6cac bebd 2ee8 fb3c a9d3 abbd
000003a0: 457a 24bd 5cd9 aabd 03fc 5f3d 564e b53c
000003b0: de4e 193d 88f7 e5bb 29eb a63c f827 85bd
000003c0: 633f 72bc 16cd 503d 8396 acbd c007 03bd
000003d0: 314a bebc 1829 d63d f389 883c af31 bfbb
000003e0: f29f 453d 2abc a7bd c0dd fb3c 6718 98bc
000003f0: e2ae bebc 48d1 963b 2c16 393d 037a 6f3c
0.06527631 0.0052837264 -0.054649085 0.09292721 -0.0018870846 0.021606214 0.040566925 0.078236006
-0.056865025 0.054461055 0.039972633 0.11380152 -0.014330605 -0.030445471 0.046646446 0.0058613545
0.0054731276 0.039316006 0.014180528 0.10916643 -0.025465557 -0.0117722675 0.020518333 0.050918985
0.025170973 -0.015493812 -0.014481254 0.0025542506 0.04274075 -0.07486305 -0.07246352 -0.010560867
-0.034319215 -0.050657816 -0.026366377 -0.07268214 -0.012533373 0.0055429027 0.0297347 -0.063162036
0.044421423 -0.06965232 0.0045363735 -0.06740685 0.0016059297 -0.056689985 -0.04694774 -0.088978566
-0.09103545 -0.06495788 -0.0072646528 -0.028891334 -0.016142882 -0.05951624 0.032850347 -0.0037067893
-0.0002881506 -0.01950839 -0.030773371 -0.06615522 0.03885773 0.003638951 0.045888588 -0.029792544
-0.03241083 -0.017690597 0.025098091 0.044527557 0.06081355 0.13072094 0.024181593 -0.016476417
-0.029586041 -0.11002335 -0.037267912 0.0791184 -0.05319162 -0.035202827 0.019116405 0.007074713
0.005008938 0.023993563 0.05004898 -0.044841707 -0.013699571 -0.073426 0.06621986 0.011618597
-0.064438835 -0.0027366988 0.037146345 0.09313578 -0.066181235 -0.06079265 0.012162127 0.017546635
0.04785786 -0.027002156 0.002329296 -0.027281921 0.051625155 0.015451562 0.109359875 -0.007908293
-0.12436979 -0.019016474 0.016406547 0.054016635 -0.016917795 -0.002436568 0.05431862 -0.06902537
-0.050696485 -0.0075413827 0.03147012 0.039724737 0.025343353 0.048829265 -0.042653274 0.05885591
0.060288556 -0.04884808 -0.034811255 0.014027423 -0.008619254 0.03749855 0.0034412597 0.008063613
-0.04890306 0.030952478 0.032341413 -0.023698369 -0.028256739 0.0035110218 -0.09569165 0.050946012
-0.011963418 -0.078405865 -0.03570999 0.01914645 0.09800722 0.007123552 0.01938713 -0.025013816
0.0034326573 -0.0021211128 -0.005980481 0.047530312 -0.078756526 -0.027303016 -0.07123047 0.004294149
-0.02664784 -0.043307118 -0.041382417 0.0024091706 0.045460798 -0.01888308 0.011360303 0.016739087
-0.09018485 -0.043660138 -0.007590698 -0.009874738 -0.016148604 0.07633014 -0.0008321748 0.069442414
-0.03447016 -0.006485855 0.044668533 -0.07288529 0.09631701 -0.09168813 -0.04157203 -0.009299079
-0.09961231 0.01793603 0.020490248 -0.017756619 0.0038291432 0.005371988 -0.008259533 -0.037788138
0.06676779 -0.051868677 0.026367534 0.032280162 -0.016107397 0.014879079 0.0014164967 -0.02672406
0.092956446 -0.079645835 0.026555585 0.06346708 -0.024768613 0.024300452 0.07344184 -0.09390561
0.011102118 0.035051815 0.08907104 0.004668035 -0.021686604 0.011860175 0.0023080995 -0.043974433
-0.052458987 0.0056995554 -0.09075235 0.06507013 0.069116615 -0.001441279 -0.029679457 -0.020946331
0.042319205 -0.04698532 -0.013847043 -0.062010847 -0.031172799 -0.047982763 -0.008808723 0.023756316
-0.030965855 0.14861499 -0.041950826 -0.045673322 0.12191068 -0.093102306 0.03075036 -0.0838998
-0.040155668 -0.08342239 0.054683696 0.02213208 0.03742873 -0.0070180334 0.020375805 -0.06501764
-0.01478562 0.050976835 -0.08427145 -0.031989813 -0.023228737 0.10457057 0.016667342 -0.00583478
0.04824824 -0.08190186 0.030745387 -0.018566323 -0.02327675 0.004602585 0.04518716 0.014616492

conv1.bias f4 [32]
00000000: bda2 50bd a598 52bd 4cef 52bd a4ab 3f3d
00000010: e24b 1b3c 986b c53d bc67 3e3d d70e 303d
00000020: 24e4 533d 5956 173b 2774 c43d 836c 95bd
00000030: 1eea 0f3e 75a3 e93d ef4b 9d3d 395b c53d
00000040: 5d61 ed3d 3a00 e73d 48c2 053d 5ed9 2abe
00000050: c9f1 523d 3e85 3c3e b5ae fbbc 4a7c 533d
00000060: 470f 71bd 3a7d 6abc bfde e6bd a0db c73d
00000070: 7061 1c3d ce39 183d 6f84 e8bd 32c8 823d
-0.05093645 -0.051415104 -0.051497743 0.04679455 0.009478541 0.096396625 0.046485648 0.042982902
0.051731244 0.0023092239 0.09592467 -0.072960876 0.14054152 0.1140813 0.07680499 0.0963654
0.11590836 0.1127934 0.032655984 -0.16684482 0.051500116 0.18410203 -0.030722955 0.051632203
-0.05885246 -0.014312083 -0.11272954 0.09758687 0.03817886 0.0371645 -0.11353385 0.063858405

conv2.weight f4 [32, 32, 3, 3]
00000000: 9e4b 923d f59b e6bc fcdc 90bd e104 4dbe
00000010: 033f 1ebe cef6 a83c 01cf bebd 5994 ab3c
00000020: 7609 973d dfa5 8cbd 5004 953d 6bb5 0fbd
00000030: e3a8 ff3c c879 e73d 06cf cc3b 03b9 a53d
00000040: 23e1 6b3d fb49 dd3d 5820 1f3d 625c dd3b
00000050: c002 b5bd 6634 263e da1a 69bd 7474 9a3d
00000060: 5c91 ce3c 0206 243e e5df eb3c d87f 383d
00000070: 6059 9bbd 5efd bfbc a33e 503e c1ea 37bc
00000080: 49c0 653d 829f 9c3d ec16 113e e462 03be
00000090: c639 7b3d 4191 ec3d 8efc 4e3e 93c6 513d
000000a0: 801e 653c b7d0 593a 3330 7fbd d26e 573e
000000b0: 5882 82bd a0ad b2bd 78b2 593e 32d7 5ebe
000000c0: 8532 72bd 867f 873d 74b8 da3c 5ad4 eb3d
000000d0: 9771 4d3d 1252 9bbd cdd1 fb3d 2518 d3bd
000000e0: 9425 cf3a 7fd8 3a3d 2d76 aabd 9d68 9bbd
000000f0: 6d52 36bc 49dc a73d 0eed 0c3e b81e c33c
00000100: b91a ef3d 9495 153e f2e6 8e3d e8b3 63bd
00000110: c6be 373d dbd5 50bc d516 0e3e 0c73 c7bc
00000120: c202 383e 9a35 aebd af6b 5c3d 7cd7 f93c
00000130: e6ae 35bc cc8e b6bd 97bc fabd 036d 85bb
00000140: 6a02 983b fe16 573d da64 073e ca88 81bd
00000150: 515d 313c a44a d53d 8925 1f3d ffef 19bd
00000160: bb41 99bd ef43 d53c b761 6b3d e578 3e3c
00000170: f2e4 4e3c 3e93 573d cb1c 273a fa41 7f3c
00000180: 6880 8e3d 5896 463d 65a6 29be 6339 fb3a
00000190: 351b 613d dabb ee3d 616e 983d c5b4 003e
000001a0: 94f4 c4bd 53ea 503c dd70 0ebe ec4e 153c
000001b0: 7fac 1b3d 530b 053d ba7a 49bb b6ba 053d
000001c0: 0cfb a6bc e634 bd3c ec93 5dbd a295 b3bd
000001d0: 141a 13bd 002f bcbc 515c 19bd 4c39 60bd
000001e0: 375d a3bb c7ab ec3c 1bb4 afbd a156 b6bc
000001f0: b511 54bd cdd1 e23c dc3f 143d 85b2 25bd
00000200: e101 b63b 37c8 35bd dc08 05bd 5c9c 2a3e
00000210: fbaa fa3d d584 173e c836 163d 0c9e 82bd
00000220: d492 203b ede3 023d 3ef1 9e3d 82b9 c8bd
00000230: 5a73 b3bc 3f7c 1bbb 07ef 0cbe cee2 01be
00000240: c1b2 16be a235 3f3c ffb8 b8bd d207 26bc
00000250: 0c72 f93d 6f30 363e e55a 9fbd 009a aebc
00000260: 962e dcbd 7f68 2f3e 7d45 4f3d 8fe2 ccbd
00000270: 8397 483d 63c6 303d c608 19bd 71ac d8ba
00000280: bcab 90bc 2c8e ce3c cd3a b8bd 7aef f5bd
00000290: c438 9f3d b39b 04be 9939 a03d 662d 74be
000002a0: c8a7 bdbd 7057 4cbd 7021 dc3d b4bf b9bc
000002b0: 1414 483d aeb4 0f3c 24b6 36be 188e 783d
000002c0: 4347 51bd 9f54 c239 c85a d23c 001a 3cbb
000002d0: 1833 29bd 55cb 323d 5f9e 943d 6e5e a0bd
000002e0: 1cad 0fbe 2850 06bd 6fc2 a73d 3777 fbbd
000002f0: 0591 5cbd d46c d1bd 2b45 873d dfc7 4c3d
00000300: dda3 433c acaf 24bc 2056 a23d 9e38 f03d
00000310: 600e 7dbc 6065 fe3c fb36 6abd d7e8 2a3c
00000320: 2ed8 f83d 9659 353b 3317 183d a9e0 90bd
00000330: bd50 36bc 1d71 e1bd 97a8 f63d 580d c93d
00000340: dba9 193e 8648 cb3c 0c65 803d dbf7 bfbd
00000350: b8b2 633d f7a8 a33d 458c e53d d226 1fbc
00000360: f759 803c 8119 50bd 47c6 87bd 0317 03be
00000370: f9df 893d 1afd 4cbd 3c6f 6b3c 49ca 533d
00000380: 891e c03d f837 063d 6153 063e 419e 813b
00000390: d073 63bd 739c 83bd 8254 ae3d 5b95 823b
000003a0: 41f2 423e 67b7 8ebd d687 adbd ff98 47be
000003b0: 67b7 dcbb 4311 f1bc dbea 37bd e8db b73c
000003c0: 7eea d4bd efce 3ebe c22a 663c 519e 983c
000003d0: 6b6c 963d d81d 0cbe db67 a9bd c099 b1bd
000003e0: d8b8 973d 127b 81bd fda0 81bd d0a1 dbbc
000003f0: 6fae a93d 67f3 09bc 21d7 12bc be4a 283d
0.07143329 -0.028150538 -0.070733994 -0.20021392 -0.15453725 0.020625498 -0.093168266 0.020944761
0.073748514 -0.06867575 0.07276213 -0.035085123 0.031208461 0.11302525 0.006250265 0.08091929
0.057587754 0.10805126 0.038849205 0.0067553977 -0.08838415 0.16230926 -0.056910373 0.07541743
0.025215797 0.16017917 0.028793285 0.045043796 -0.07585406 -0.023436245 0.20336394 -0.011225403
0.05609158 0.07647611 0.141689 -0.12830693 0.061334394 0.115511425 0.2021353 0.051214766
0.013984323 0.0008308994 -0.062301826 0.21038368 -0.06372517 -0.087245226 0.21259487 -0.21761778
-0.05913021 0.0661612 0.026699282 0.11515112 0.050157156 -0.07584013 0.12295876 -0.103073396
0.0015804046 0.045616623 -0.083233215 -0.07588313 -0.01112805 0.08196313 0.13762304 0.023818359
0.11675019 0.14607841 0.06977643 -0.055591494 0.04485967 -0.0127463 0.13875897 -0.02434685
0.17969802 -0.085063174 0.053813633 0.030498259 -0.011089062 -0.08913955 -0.12243002 -0.004071833
0.0046389597 0.05251216 0.13222066 -0.063249186 0.010825471 0.10414627 0.038854156 -0.037582394
-0.0748324 0.02603337 0.057466235 0.011625503 0.012627827 0.052630655 0.0006374835 0.015579695
0.06958085 0.048483223 -0.1656738 0.0019166883 0.054957587 0.116569236 0.07442928 0.12568958
-0.09616962 0.01275118 -0.13910241 0.009113055 0.038006302 0.032481503 -0.0030743317 0.032648765
-0.02038338 0.023096513 -0.054096147 -0.087687746 -0.035913542 -0.02297163 -0.037441555 -0.054742143
-0.0049854773 0.028890504 -0.08579274 -0.022258105 -0.0517747 0.027687931 0.036193714 -0.040453453
0.005554423 -0.044380393 -0.032479152 0.16661209 0.12239643 0.14796765 0.036673337 -0.06377801
0.002450158 0.03195565 0.07760857 -0.09801008 -0.02190559 -0.002372518 -0.13763057 -0.12684175
-0.14716627 0.011670502 -0.0901966 -0.0101337 0.12179956 0.17791913 -0.07781009 -0.021313667
-0.10751073 0.17129706 0.05060338 -0.1000415 0.048972618 0.043157946 -0.037361883 -0.0016530884
-0.017660014 0.025214277 -0.0899559 -0.12008567 0.07774499 -0.1295002 0.07823486 -0.23845443
-0.09260517 -0.049888074 0.10748565 -0.022674419 0.048847273 0.008771105 -0.17842919 0.060682386
-0.05109335 0.0003706561 0.025678053 -0.002870202 -0.041308492 0.043650944 0.072567694 -0.07830511
-0.1403088 -0.032791287 0.08191382 -0.12278598 -0.05384924 -0.102258354 0.066049896 0.0499953
0.0119409235 -0.010051649 0.07926583 0.11729549 -0.015445322 0.031054199 -0.05718134 0.01043149
0.12150608 0.0027671806 0.0371315 -0.070741005 -0.011127648 -0.11007903 0.12043875 0.09816998
0.15006201 0.024814855 0.06269273 -0.093734466 0.05559036 0.07991212 0.11208395 -0.009713845
0.015667899 -0.050805572 -0.06629615 -0.12801747 0.067321725 -0.050046064 0.014369782 0.051706586
0.09380824 0.03276822 0.13117744 0.003955633 -0.05553037 -0.06426325 0.08512212 0.0039850897
0.19037725 -0.06968575 -0.08473174 -0.19491957 -0.0067357305 -0.029427176 -0.04490171 0.022443727
-0.10396288 -0.18633626 0.01404828 0.018630179 0.07344898 -0.1368326 -0.08271762 -0.086719036
0.07408303 -0.06322302 -0.06329534 -0.026810557 0.08285224 -0.008419848 -0.008962424 0.041086905

conv2.bias f4 [32]
00000000: bead 9c3d 1083 473d 208f 003d e63a 143c
00000010: 640f 663d 17ce d33d 47c6 4d3c d824 d33c
00000020: 3eb8 cd3c 870f 273d dd31 ae3d e045 13bb
00000030: 7de4 f7bc f958 f73c e472 ac3d 7ec1 a53c
00000040: 5108 d73c d7d7 bebc d3fc cdbc f9de fc3c
00000050: e7d0 63bd 124a 903d 8eee 6b3d 4009 cc3c
00000060: 7cdf 6e3c 88c5 833d 24ed a5bc 182f 993d
00000070: 5e7b ebbc 52e5 063c bc95 9a3c e2c2 0f3d
0.07650326 0.048708975 0.031386495 0.009047246 0.05616702 0.10342043 0.01255948 0.025774404
0.025112268 0.040786292 0.085056044 -0.0022472069 -0.030260319 0.030193793 0.08420351 0.020233866
0.026249083 -0.02329628 -0.02514497 0.03086804 -0.055619147 0.07045378 0.05760055 0.024906754
0.01457965 0.064341605 -0.020254679 0.074796855 -0.02874535 0.008233385 0.018870227 0.035097964
