Ratio_Reverse_wo_GRL/checkpoint_step_0001.pth (torch_old, 541547 bytes, 24 tensors)

momentum_buffer f4 [3]
00000000: 94f5 46be f753 00be 7041 45bb
-0.19429618 -0.1253203 -0.0030098818

momentum_buffer f4 [3]
00000000: eab0 69bd 4ecd 66bd 6832 3bbd
-0.057053484 -0.056348138 -0.045702368

momentum_buffer f4 [32, 3, 5, 5]
00000000: 7fb9 033d 1ecc 013d 5ca2 023d d9dd 093d
00000010: 3e9b 083d 28c1 f33c e291 fe3c cb28 013d
00000020: 8109 fa3c ec9e 043d 9324 ef3c 7a92 fa3c
00000030: 21e6 f53c 3f7f f63c a57b 073d 970c ec3c
00000040: a625 e63c a5de eb3c fb50 fd3c 9a4c 103d
00000050: b2eb ea3c 158c e13c fc72 ec3c 5b79 043d
00000060: b902 133d 3ae3 613c 788a 573c a683 5e3c
00000070: 21bd 6d3c ea97 633c fa63 373c 65cb 473c
00000080: 8486 473c f2c0 3b3c 4012 4f3c 9e39 323c
00000090: e07e 3c3c d318 3a3c 99a0 373c 8879 563c
000000a0: dad3 433c cc18 1f3c ae43 223c f48e 373c
000000b0: 7bb6 793c d75d 453c 4200 213c b499 203c
000000c0: 62f9 4b3c 9ae7 843c b120 7bbb a16f a4bb
000000d0: 5599 a5bb 02bf a1bb 919c 92bb 6f70 b5bb
000000e0: 96cd abbb 1866 bcbb 17d3 e3bb a336 cdbb
000000f0: 2a86 a8bb 6670 adbb 71e3 bcbb a74c e4bb
00000100: dcb8 a2bb 83eb 98bb 695c cebb 848c debb
00000110: f9c2 b6bb 6a00 ffba 7f8b 7bbb 7b2b d7bb
00000120: 18a0 e3bb dbbc aebb 8fe4 e1ba 9b0b 65bb
00000130: 7e85 87bb 6aa5 83bb 8a10 5bbb 5af3 24bb
00000140: 6448 62bb ea85 62bb 63c1 4dbb d950 51bb
00000150: 8b86 0bbb 0b7d 60bb f0bb 31bb 40cb 1bbb
00000160: a4a1 1fbb d2d5 e2ba fab8 0abb f57d e2ba
00000170: 4e15 f4ba 23ba d0ba f9d0 9fba 5860 eaba
00000180: 3950 d8ba 162b d7ba 2c3c 9dba 1e26 7bba
00000190: 703c 3cbb 5c41 45bb 8a2e 3bbb 8c75 4bbb
000001a0: 50b3 42bb 83c7 3cbb 0a93 32bb 3efb 31bb
000001b0: 3df8 35bb 210d 02bb 81d5 05bb 32f7 25bb
000001c0: 6e74 10bb ea7c f1ba 2a63 c2ba 729b a4ba
000001d0: a032 8eba dc0d 33ba 5f82 8eba 325a 51ba
000001e0: a98f 2eba 7a82 91ba c4b9 84ba aa2f 1fba
000001f0: 96cc 0cba e2e4 993a 11a3 ae3a e476 9f3a
00000200: 2c9b a83a e570 213b 0cf5 d23a 4587 d63a
00000210: d711 db3a 7b11 0f3b 32f9 1f3b 3ec5 0b3b
00000220: f625 163b 857b 203b 6036 3d3b 29e8 5e3b
00000230: 06bf 493b ed77 4f3b 47d5 763b f66e 733b
00000240: f227 763b cf90 4d3b c839 643b 6ce4 823b
00000250: 2942 6e3b b993 8a3b 2a95 903c c020 923c
00000260: d62f 8f3c 6d8f 8d3c 5f0f 8e3c 58d6 943c
00000270: 3a34 943c a775 903c 74f7 8f3c d9ed 8e3c
00000280: a10a 903c 50b7 8d3c 547c 8c3c f821 8b3c
00000290: c90d 8a3c 2457 963c fe00 903c 4467 903c
000002a0: 7ebf 8b3c 3fb0 8c3c 0688 963c 4a30 8f3c
000002b0: 3e55 923c a713 893c c6f6 8b3c e9cc 713c
000002c0: 19fa 673c d4d6 6e3c eee8 6c3c d613 6b3c
000002d0: 80af 723c 3093 6e3c 26a2 6b3c ae7c 653c
000002e0: 8b6c 6c3c bc77 6b3c b2fe 693c a56d 653c
000002f0: 5710 5f3c d21a 613c 5d43 6c3c 6c87 643c
00000300: 0f49 6a3c 002e 5c3c 2820 663c c9db 723c
00000310: 00c6 673c 633e 653c 9edb 673c 9c6d 5d3c
00000320: 2338 4d3c fcee 4a3c e324 4b3c b386 413c
00000330: bf17 403c 88e2 483c 46d5 413c 90a2 3a3c
00000340: e0ec 353c d29f 383c 2ae5 3b3c 3cee 3e3c
00000350: b3d2 383c 5d7c 303c f929 2d3c 3186 3c3c
00000360: 7d33 3a3c 071d 2d3c 1a19 303c acfc 2c3c
00000370: c193 3b3c de03 343c de3d 2f3c 1a99 303c
00000380: f164 2f3c 74b6 a83c 2c82 a63c 6b5d a63c
00000390: 6220 a73c 202d 9c3c f93a a43c 4835 a13c
000003a0: 3968 a23c 43b7 9c3c 041d a03c 8af4 a53c
000003b0: 2ca4 a23c 57bb a03c 9d34 a23c 35e9 9f3c
000003c0: 62e6 a93c 3c82 a83c 5aa2 a03c cdc5 a53c
000003d0: 278d a83c 74e1 b43c 133a af3c 565c aa3c
000003e0: 592a ac3c 3d0b a83c 9ab8 b33c f469 b63c
000003f0: 6688 b43c 5018 ae3c 6a95 ac3c 901c b53c
0.032159325 0.031688802 0.03189312 0.033658836 0.033351175 0.02975519 0.031075422 0.031533044
0.03052211 0.032378122 0.029192245 0.030587424 0.03001696 0.030089973 0.0330769 0.028814597
0.028094124 0.028792689 0.030922404 0.035229303 0.028676841 0.027532617 0.028863423 0.032342296
0.03589127 0.013787085 0.013155572 0.013581192 0.014510424 0.0138912 0.01119327 0.012194489
0.012178067 0.011459576 0.0126386285 0.010877995 0.011504859 0.011358458 0.011207723 0.013090499
0.011952365 0.009710502 0.009903831 0.011203516 0.015241261 0.012046299 0.009826722 0.009802271
0.012449594 0.016223717 -0.0038319046 -0.00501819 -0.005053679 -0.0049361 -0.0044742306 -0.005537085
-0.0052430136 -0.005749475 -0.006952654 -0.0062626167 -0.0051429467 -0.00529294 -0.005764418 -0.0069671455
-0.0049658846 -0.004666747 -0.0062976372 -0.006791653 -0.005577442 -0.001945508 -0.0038382707 -0.0065664626
-0.006946575 -0.005332572 -0.0017234253 -0.0034949544 -0.0041357866 -0.0040175216 -0.0033426606 -0.0025169463
-0.0034528011 -0.0034564682 -0.0031395785 -0.0031939058 -0.002128991 -0.003425422 -0.0027120076 -0.002377227
-0.002435782 -0.0017306155 -0.0021167384 -0.001727997 -0.0018622072 -0.0015924614 -0.0012193016 -0.0017881496
-0.00165034 -0.0016416039 -0.0011996082 -0.000958057 -0.0028722547 -0.0030098772 -0.0028561675 -0.0031045405
-0.002970893 -0.0028805442 -0.0027248287 -0.0027157809 -0.002776637 -0.0019844251 -0.0020421448 -0.0025324342
-0.0022042054 -0.0018424068 -0.0014830579 -0.0012558533 -0.0010848828 -0.00068303733 -0.0010872594 -0.00079861574
-0.000665898 -0.0011101507 -0.0010126163 -0.0006072471 -0.0005371062 0.0011741186 0.0013323744 0.001216617
0.0012863628 0.002463394 0.0016094758 0.0016367218 0.0016713691 0.0021830488 0.0024410007 0.0021327282
0.002291081 0.0024487686 0.0028871521 0.003401289 0.0030784025 0.0031657175 0.0037663744 0.0037144995
0.003756043 0.003136683 0.003482448 0.003994515 0.0036355352 0.0042290357 0.017649252 0.017837882
0.017478865 0.017280305 0.017341314 0.018168613 0.01809131 0.017634226 0.01757405 0.017447399
0.017583193 0.017299324 0.017149128 0.016983971 0.016852276 0.018352099 0.017578598 0.017627366
0.017059084 0.017173884 0.018375408 0.01747908 0.017862912 0.016733004 0.017085444 0.014758327
0.014158749 0.014577586 0.014459832 0.014347991 0.01481235 0.014561459 0.014381921 0.014006777
0.014430176 0.014371809 0.0142819155 0.014003192 0.013614736 0.013739305 0.0144203575 0.013948303
0.014299645 0.013438702 0.014045753 0.014822909 0.014146328 0.013991925 0.014151482 0.013514902
0.012525591 0.01238608 0.012398931 0.0118119 0.0117244115 0.0122610405 0.0118306335 0.011391297
0.011103839 0.011268573 0.011468211 0.011653479 0.011280703 0.010771838 0.010569089 0.011506603
0.011364815 0.010566003 0.010748172 0.010558289 0.0114488015 0.01098725 0.010695903 0.01077869
0.010705219 0.020594813 0.020325743 0.020308217 0.020401184 0.019064486 0.020047652 0.019678727
0.019825088 0.019130355 0.019545086 0.020258207 0.019853674 0.01962058 0.019800479 0.019520381
0.020739738 0.020569913 0.019608665 0.02023592 0.02057512 0.02208016 0.021389997 0.020795982
0.021016287 0.020513171 0.02193861 0.02226732 0.022037696 0.021251827 0.02106734 0.022108346

momentum_buffer f4 [32]
00000000: d8bc 843c 3f84 4ebb 1181 2abc ce37 8cbc
00000010: 264b 2fbd 10da 84bc 6e0e 81bc 70e1 c8bc
00000020: a60f 063c 4de2 19bd 22d0 27bd 9e98 44bc
00000030: 94d5 f0bb 808b 36bc 770a 8bbd 5802 d83b
00000040: a551 20bd 72d3 16bc c721 53bd c17f 0f3b
00000050: 2434 6f3c fe35 c4bc 0771 91bc 0e72 ba3c
00000060: e4e9 aebc 306d 673a 5d0f 15bd 8730 21bd
00000070: 404f 1d3c 446e 483c a2e4 0b3c 5f15 60bc
0.016203329 -0.003151193 -0.010406748 -0.017116453 -0.042796277 -0.016217262 -0.01575395 -0.02452156
0.008182442 -0.037569333 -0.040969975 -0.011999277 -0.0073496792 -0.011141658 -0.067891054 0.0065920763
-0.039140362 -0.009205686 -0.051545884 0.0021896216 0.014599834 -0.023951527 -0.017754091 0.022759464
-0.021351762 0.0008828221 -0.036391605 -0.03935292 0.009601414 0.012233321 0.008538397 -0.01367697

momentum_buffer f4 [32, 32, 3, 3]
00000000: d8b7 19b9 2069 34ba 6ba2 7fba d114 c6ba
00000010: 7ab8 abba 4b32 04ba f7d8 7bba 7a99 d0b9
00000020: 0640 4eb9 ac51 05bb a19f a1ba 50dc e3ba
00000030: 90b3 cdba 44e8 8fba 785f ccba 9499 a9ba
00000040: fd60 b4ba 2f72 85ba fc74 0fbb 2a16 1bbb
00000050: 1fb6 3abb af2d beba cad9 2bbb 2493 00bb
00000060: 82d8 09bb a1f4 c0ba 027e 10bb b045 85bb
00000070: df32 9dbb 5127 97bb 1440 58bb 1d06 94bb
00000080: c56c 8bbb 9ebb 7fbb dc79 74bb 68ed a8bb
00000090: 60ec 2bbb de48 07bb 9449 cdba 4f2e 31bb
000000a0: 2c75 27bb ea25 21bb 2b40 5cbb d033 d7ba
000000b0: cc8a 35bb c7f0 adbb 2e55 78bb ef90 cabb
000000c0: 99c7 a6bb 1ea4 94bb b7e9 a1bb ca42 86bb
000000d0: e88e 95bb 2cd1 b3bb c1c7 b4ba bee3 23bb
000000e0: f44a 07bb 5d75 e3ba 4ea2 1dbb 1dd5 21bb
000000f0: a289 02bb 3a09 ccba 044e b6ba f69a 16bb
00000100: f7f5 dbba ce6e b6ba 3c8e 06bb 3804 1fbb
00000110: 5a92 deba a601 24bb 1cec b9ba a8e0 00bb
00000120: 65e3 13bb edd9 66bb 92ff 3fbb d452 3cbb
00000130: 7f06 49bb 2a21 6dbb 40ab 6bbb a6ca 45bb
00000140: 1b3c 4ebb c079 e8ba 2826 aeba 36dc 1ebb
00000150: b66a fdba 843c c1ba fc04 fdba 76e9 0cbb
00000160: 482a 1abb 0bb4 02bb 762b 23bb 7db0 2ebb
00000170: 5542 27bb 7c41 20bb 32e4 26bb 3352 18bb
00000180: 5720 19bb 8a74 0fbb 02eb 49bb 9761 aaba
00000190: fc71 5cba 2a4e 9cb9 3aa2 72ba 2508 d8b9
000001a0: 3d8a a4ba 13a6 a8ba c6af f1ba 5f18 56ba
000001b0: 2dde 2bbb 7c95 2ebb 6812 40bb 24bc 28bb
000001c0: 3e5e 3dbb 8406 35bb 9f27 42bb 40b8 51bb
000001d0: 15f2 47bb fc2e e3ba 7602 edba cf52 06bb
000001e0: 57bd c0ba c4bb b1ba 060f 0fbb c480 c6ba
000001f0: ed2b e0ba 0378 c7ba 087b adbb 94bc b5bb
00000200: d0c4 a5bb f161 bdbb fa96 b0bb 70ec 82bb
00000210: 7102 a3bb 1d94 8dbb f908 8ebb 2dde 59bb
00000220: a585 46bb c812 43bb 1e0c 22bb 8633 5ebb
00000230: 6cde 4dbb 9654 32bb 2d54 62bb 6720 6cbb
00000240: e95e 57bb 2358 28bb 793a 49bb 4cb0 2abb
00000250: 20f1 fcba 9bf6 cfba 1c1c 39bb ee10 26bb
00000260: dde8 3fbb 3ec3 bbbb 8a91 cdbb 15ca f0bb
00000270: 6845 c7bb 1c2d cbbb 499c e5bb afa6 c8bb
00000280: d867 d1bb 70fb d9bb cefc 3cbb fd48 4ebb
00000290: 092b 0fbb 8034 3bbb c91e f0ba bda5 67bb
000002a0: 8842 29bb 2b73 12bb 0f90 baba 3ea9 ebb9
000002b0: 8c8a 4fb9 90e2 a6b9 a9c8 9aba f0c1 8336
000002c0: 37bf fbb9 8aaa 9cb9 f54a 36b9 4e48 55b9
000002d0: 5ae9 64bb 9ab5 4fbb 12b9 58bb 197b 60bb
000002e0: 4739 80bb 96ee 72bb 2c81 27bb 1364 76bb
000002f0: 3a1f 74bb ec9b c3bb 9686 aabb b064 b4bb
00000300: fc97 aebb c700 b7bb c84b afbb 3b7e 9abb
00000310: d57d b6bb 008c b5bb cfa5 a1bb 1fa7 92bb
00000320: d2c6 85bb 841a 91bb a9d6 8bbb 54bb a5bb
00000330: 8af6 90bb 86a2 a3bb b3f8 86bb af72 04bc
00000340: cc55 fdbb 65f1 0bbc c0d3 06bc 24b7 13bc
00000350: 9739 0abc 63e8 01bc 5e3f 01bc 0b07 0fbc
00000360: b3dd 04bb 2e4e 24bb ab9c 21bb 0781 31bb
00000370: 8127 e9ba 3247 13bb f278 01bb 03b0 e1ba
00000380: eaeb aaba 94ec 04bb 7b83 c4ba 8767 0dbb
00000390: 156c 20bb 3614 22bb 3d4f e4ba 6332 06bb
000003a0: f039 8cba 94ce 20bb 5b3c 86bb 5e29 99bb
000003b0: 11bf 72bb 18c2 6ebb f101 6abb 9cb6 4fbb
000003c0: 8b97 81bb d6e2 83bb fd8d 35bb 3a87 bdbb
000003d0: c021 b0bb 7183 d5bb 1c8d cdbb 572f cabb
000003e0: c2ac b0bb ea1b c6bb c454 c2bb f312 bebb
000003f0: ca6b f1bb 1af1 febb 0b6a 02bc 7a64 edbb
-0.00014659704 -0.000688212 -0.000975168 -0.0015112405 -0.0013101243 -0.00050428946 -0.00096072204 -0.000397872
-0.00019669542 -0.002034287 -0.0012330898 -0.0017384384 -0.0015693773 -0.0010979255 -0.0015592417 -0.0012939447
-0.0013761815 -0.0010181124 -0.0021889796 -0.0023664334 -0.00284899 -0.0014509464 -0.0026222342 -0.0019618953
-0.002103359 -0.0014721343 -0.0022047763 -0.0040671453 -0.004797324 -0.004612841 -0.0032997178 -0.0045173303
-0.0042549097 -0.003902174 -0.003730408 -0.005155254 -0.002623342 -0.0020642797 -0.0015662187 -0.0027035659
-0.0025552018 -0.002458925 -0.0033607583 -0.001641864 -0.0027701138 -0.005308244 -0.0037892568 -0.006181828
-0.005089712 -0.004536166 -0.004941191 -0.0040973173 -0.004564155 -0.0054875817 -0.0013792441 -0.002500757
-0.002064404 -0.0017353703 -0.002405304 -0.0024693676 -0.0019918461 -0.0015566715 -0.0013908749 -0.0022980548
-0.0016781677 -0.001391852 -0.0020531556 -0.002426399 -0.0016980872 -0.0025025397 -0.0014184746 -0.0019665156
-0.0022565958 -0.0035225109 -0.002929662 -0.0028735893 -0.0030674038 -0.0036183097 -0.0035960227 -0.0030180602
-0.003146893 -0.001773648 -0.0013286518 -0.0024240143 -0.001933417 -0.0014742767 -0.0019303854 -0.0021501458
-0.0023523737 -0.001994374 -0.002489773 -0.0026655488 -0.0025521715 -0.0024453094 -0.0025465605 -0.0023242354
-0.0023365223 -0.002188953 -0.0030810242 -0.0012999055 -0.0008409319 -0.00029812875 -0.0009255741 -0.000412048
-0.0012553405 -0.0012866877 -0.0018439225 -0.0008167084 -0.0026224956 -0.0026639393 -0.0029307846 -0.0025746906
-0.0028895284 -0.0027622292 -0.0029625667 -0.003200069 -0.0030509282 -0.0017332728 -0.0018082398 -0.0020496135
-0.0014704865 -0.0013559987 -0.0021829023 -0.0015144576 -0.0017102935 -0.0015218261 -0.0052942075 -0.005546162
-0.0050588623 -0.005779498 -0.0053890916 -0.0039954707 -0.0049746563 -0.004320635 -0.0043345657 -0.0033244
-0.003029206 -0.0029765833 -0.002472646 -0.0033905222 -0.0031413091 -0.0027211062 -0.0034535036 -0.0036030055
-0.0032862967 -0.00256873 -0.0030705018 -0.0026045023 -0.0019297935 -0.0015866341 -0.0028245514 -0.002533968
-0.0029283084 -0.005730062 -0.006273453 -0.007348309 -0.006081272 -0.006200446 -0.007007156 -0.006123386
-0.006390553 -0.006652288 -0.0028837207 -0.003147661 -0.002184572 -0.0028565228 -0.0018319722 -0.003534659
-0.002582701 -0.0022346477 -0.0014233607 -0.00044948788 -0.00019792671 -0.0003183079 -0.0011809069 3.9266815e-06
-0.00048016917 -0.000298817 -0.00017384796 -0.00020340199 -0.0034929127 -0.0031693936 -0.0033069295 -0.003425306
-0.003913078 -0.0037068478 -0.002555917 -0.003759627 -0.0037250058 -0.005969515 -0.005204032 -0.005505167
-0.0053281765 -0.0055848095 -0.00534961 -0.004714755 -0.0055691996 -0.005540371 -0.004933096 -0.004475489
-0.004082539 -0.0044282097 -0.004267533 -0.0050577316 -0.004423921 -0.0049937395 -0.0041190027 -0.008083983
-0.007731175 -0.00854144 -0.008229196 -0.009015832 -0.008436582 -0.0079289405 -0.007888643 -0.0087297065
-0.0020273745 -0.0025071013 -0.0024660032 -0.0027084963 -0.0017788262 -0.0022472856 -0.0019755927 -0.0017218593
-0.0013040279 -0.0020282613 -0.0014992798 -0.00215766 -0.0024478484 -0.0024731285 -0.0017418634 -0.002047681
-0.0010698419 -0.0024537193 -0.0040965504 -0.004674121 -0.0037040154 -0.0036431607 -0.0035706724 -0.0031694537
-0.003954833 -0.0040248437 -0.002770304 -0.0057839425 -0.005375117 -0.006515913 -0.006272925 -0.006170194
-0.005391688 -0.006045808 -0.005930515 -0.0058005988 -0.007367586 -0.0077802064 -0.007959853 -0.0072446438

momentum_buffer f4 [32]
00000000: a146 90bc d658 b4bb eeaa e3bb 229d a439
00000010: 5d4e c13b 90de dbba be23 bcbb 4e1d 1cbc
00000020: a7fe 9cbc 1ca5 bf3a eeab cabb 1d60 3fbd
00000030: eaf9 4dbd d31a 90bc 0282 03bd aa5a 5abc
00000040: 0a26 19bd fc0e 59bc 72f5 06bd ff41 b1bb
00000050: 6e84 0dba 5324 18bd 8232 333a e25f a33b
00000060: 253f 0fbd 9e1b 07bc 11a5 4db9 4357 94bc
00000070: dcb5 18b9 fb79 24bc 34e4 343c 8075 56bd
-0.017611803 -0.005503754 -0.0069478666 0.0003139759 0.005899234 -0.0016774703 -0.0057415655 -0.009528471
-0.019164396 0.001462135 -0.0061850464 -0.04672252 -0.050287165 -0.017590916 -0.032106407 -0.01332728
-0.037389793 -0.013248201 -0.03294892 -0.0054094787 -0.00053984567 -0.037144016 0.00068358344 0.0049857954
-0.03497233 -0.008246331 -0.00019611816 -0.018108016 -0.00014563598 -0.010038848 0.011040736 -0.05235815

momentum_buffer f4 [64, 32, 3, 3]
00000000: 7847 e33a b683 d03a 5867 bc3a 36a6 b83a
00000010: 5c00 e23a 3658 a93a 0e01 c13a dc00 d83a
00000020: 691f 9e3a bd51 3e3a a948 2a3a 7950 5739
00000030: 52b2 623a 7362 9b39 a4be c139 45ba 413a
00000040: 8248 593a df56 5a3a 8953 8c3a 8427 683a
00000050: b8b4 923a 4695 123a 2b3a 313a b21a 803a
00000060: e448 9139 cf92 013a 975f 9d3a bd7b ef38
00000070: 5189 8b39 a6e2 1b39 d320 f139 35a5 5339
00000080: 1c23 353a e7b5 27b9 df40 4638 6f9c d6b8
00000090: 8753 b13a cdc5 783a fd71 8a3a 5c10 733a
000000a0: e819 443a 1805 f339 c2b1 9e3a 778e 993a
000000b0: 1a24 233a 0e17 1f3b cffa 223b 355b 643a
000000c0: e4ea 533b d522 063b b0ec 023b 0a76 0b3b
000000d0: 9e9c f93a 5f82 c63a e177 1e3a 166d 953a
000000e0: 4ebb a13a 58e4 ac3a 8c67 cb3a 7058 143b
000000f0: cbf1 993a eede f93a e0f2 fa3a 4ddb 87b9
00000100: 9184 4c38 007e 8239 a461 a4b9 a18e bb39
00000110: 0db6 9439 115e 9339 f5c9 43b9 4622 e739
00000120: aeda f93a d574 b63a 80fe 3e3a e31f db3a
00000130: df44 dd3a 2e2c e73a 3274 033b 2d74 f03a
00000140: d2c3 833a 172e 003b 9c3a 953a d2c4 5b3a
00000150: aeec bd3a 3621 b23a bf42 1e3a ae2c bc3a
00000160: 0d36 dd3a b647 8e3a a87c 353b bdbf 1a3b
00000170: e3ad 073b 42a8 063b 65ab f03a 7c05 fe3a
00000180: 2eee 0a3b de19 073b ca1a f93a d886 8c3a
00000190: 6cf2 d33a 8e0d 973a c646 843a 1a52 673a
000001a0: 7bae e63a 2e1e b23a 11f7 043b 9b5c 933a
000001b0: 725d e03a 636d dc3a 94f6 1f3b 8c35 073b
000001c0: d440 f53a 2b41 263b ff34 f73a a19f 2a3b
000001d0: 6196 263b 29c7 f53a f43a 073b 2d87 193b
000001e0: 2b08 8e3a 3c1c f33a d6c4 093b ee2d 1a3b
000001f0: bf58 133b 67e1 0e3b 4484 583b 807a 713b
00000200: 739b 783b 3b06 613b 0c09 593b fb08 753b
00000210: 5aa8 923b 47e5 803b 9308 5b3b 867e 7c3a
00000220: 7668 d739 9f00 f938 17be d038 3c0d d539
00000230: a5c3 8f39 a397 ab39 4499 0539 3818 fe39
00000240: 7d89 9f3b a277 843b b778 833b 7d90 a63b
00000250: afb6 9c3b 70fd 833b 1f81 a23b ac48 993b
00000260: 16f4 783b 9292 7f3b 9e82 193b bfa0 323b
00000270: 8a73 433b b592 3c3b 6afd 183b 5c64 343b
00000280: f45d 353b 5426 1c3b eb1f 453a 1bf2 103a
00000290: 93be 7539 95c5 623a e065 173a a419 6c3a
000002a0: 7a37 a739 2c46 9239 7547 ef39 5e26 abb8
000002b0: 68d8 1c38 4b96 9d39 b810 2fb9 a42d f839
000002c0: f4fe 9639 d79a f5b7 acf5 fe39 0bc4 18b9
000002d0: ac12 cf39 2a91 8138 d655 9d39 8a42 ce38
000002e0: 3cb2 beb6 f0cc 80b9 24c3 013a 54fc 9d37
000002f0: 8511 9eb9 0688 b43a 1b6c 053b 1bd1 403b
00000300: 641c 0f3b 25df 113b 3d69 573b 32d4 e53a
00000310: 285c 1d3b b6f0 4b3b d2be 1439 594e c6b9
00000320: 2b3b 4bb8 55f0 1bb9 fc0a 4539 bc12 51b9
00000330: 89a2 0e39 a482 54b5 75e0 6037 52e9 423b
00000340: 3815 3f3b b8dd 313b 36af 743b 541d 283b
00000350: 3cbd 323b 541f 533b fcd2 3e3b 8aff 263b
00000360: 2cae 303b c6ab 543b 594e 4f3b 69bc 4e3b
00000370: 1879 283b d5e9 413b 8fe8 243b c0aa 553b
00000380: e545 523b 5c21 163b 0d4a 0c3b f0c6 cc3a
00000390: 6430 f83a 2557 d63a cff3 a03a 288a 123b
000003a0: c364 063b 4007 013b a224 00ba af14 0fba
000003b0: bcd1 62b9 389b 8239 56d5 17b9 5ad3 e1b9
000003c0: 92f7 e1b9 4ec5 223a 6c48 6bb9 d8ba d4b9
000003d0: ecc0 d938 28ad 7739 bf78 9c39 b85b 80ba
000003e0: e846 54b7 3c33 9139 97a1 85b9 2a57 a638
000003f0: 3b85 a338 4b4f 6b36 1249 b5b9 52a0 25ba
0.0017340025 0.0015908394 0.001437406 0.0014087621 0.0017242539 0.0012919966 0.0014725046 0.0016479748
0.0012063804 0.0007260105 0.00064958126 0.00020533976 0.00086477876 0.00029637254 0.00036953867 0.0007390122
0.00082886976 0.0008328985 0.0010706048 0.0008855986 0.0011192774 0.00055917015 0.0006760682 0.0009773581
0.00027710863 0.00049428357 0.0012006637 0.00011419456 0.00026614455 0.00014866385 0.00045991558 0.00020184072
0.0006909834 -0.00015994125 4.7267295e-05 -0.00010233453 0.0013528921 0.0009489924 0.0010562536 0.0009272152
0.0007480667 0.00046352367 0.0012107419 0.0011715431 0.0006223336 0.0024275216 0.0024868732 0.00087111007
0.003233605 0.002046754 0.0019977503 0.0021280074 0.0019043868 0.0015145055 0.0006045085 0.0011400308
0.0012339146 0.001319061 0.001551853 0.002263572 0.0011745034 0.0019063631 0.0019145869 -0.00025912598
4.8760852e-05 0.0002488941 -0.00031353266 0.00035773686 0.00028364398 0.0002810811 -0.00018671884 0.0004408529
0.0019062364 0.0013920317 0.0007285848 0.0016717877 0.0016881487 0.0017637068 0.0020058271 0.001834517
0.0010052866 0.0019558722 0.0011385265 0.00083835155 0.0014490092 0.001359022 0.00060371676 0.0014356577
0.001687707 0.0010855112 0.002769271 0.002361282 0.002070301 0.0020547067 0.0018361626 0.0019380297
0.0021199095 0.0020614783 0.0019005176 0.0010721339 0.001617027 0.0011524425 0.0010091893 0.0008824185
0.0017599607 0.0013589317 0.0020288865 0.0011242809 0.0017117693 0.0016817268 0.0024408447 0.0020631282
0.0018711337 0.0025368433 0.0018860399 0.0026035088 0.0025419223 0.0018751371 0.0020634504 0.0023426518
0.0010836174 0.0018547843 0.0021021864 0.0023525911 0.0022483317 0.002180183 0.003303782 0.0036846697
0.0037934452 0.003433599 0.0033116965 0.0037389386 0.0044756355 0.003933582 0.0033421859 0.00096318906
0.00041085825 0.00011873361 9.95362e-05 0.00040636386 0.00027420852 0.0003272864 0.00012740964 0.000484647
0.004868685 0.0040425817 0.004012193 0.0050831423 0.00478252 0.004028015 0.00495924 0.0046778526
0.0037987283 0.0038997275 0.0023423801 0.0027256457 0.0029823505 0.0028773968 0.0023344406 0.002752564
0.0027674409 0.0023826556 0.000751971 0.00055292406 0.00023436015 0.0008650658 0.00057753734 0.00090065063
0.00031894055 0.00027899572 0.00045638872 -8.161062e-05 3.7394842e-05 0.0003005735 -0.00016695529 0.0004733625
0.00028800184 -2.9278379e-05 0.00048629695 -0.00014568881 0.00039496028 6.178238e-05 0.00030009326 9.835239e-05
-5.6831905e-06 -0.00024566753 0.00049500377 1.8833358e-05 -0.00030149161 0.0013773448 0.0020358625 0.0029421512
0.002183699 0.0022258249 0.0032869123 0.0017534553 0.0024011228 0.0031118817 0.00014185466 -0.00037823876
-4.8454076e-05 -0.00014871483 0.00018791476 -0.00019938772 0.00013602724 -7.916626e-07 1.3403701e-05 0.002974112
0.0029156934 0.0027140211 0.003733588 0.0025652247 0.0027273437 0.0032214718 0.0029117456 0.0025481903
0.0026959283 0.0032451018 0.0031632392 0.0031545407 0.0025706943 0.0029588838 0.002516303 0.0032602996
0.0032085117 0.0022908067 0.0021406442 0.0015623253 0.001893532 0.0016352875 0.0012279692 0.002236018
0.0020506836 0.001968816 -0.0004888271 -0.0005458099 -0.00021631172 0.0002491118 -0.00014479956 -0.00043072813
-0.00043099798 0.000620921 -0.00022438326 -0.00040575 0.00010383301 0.00023620261 0.00029844602 -0.0009792959
-1.2652694e-05 0.00027694728 -0.0002548813 7.9317324e-05 7.797262e-05 3.5063883e-06 -0.00034577452 -0.000631814

momentum_buffer f4 [64]
00000000: c2dd ea3b aa27 f2b8 cbae 5f3b f27a ddba
00000010: 8a42 253c c417 cfbc 81a1 e9bc af88 3cbc
00000020: 0189 ffba 8b49 a0bb e267 1ebc 94f5 3abd
00000030: 9c95 a9ba 5023 24bb 846c d93b 1d85 6d3c
00000040: 7fa6 16bc 581b a3bc c662 ddbc 61bc f3bb
00000050: 92d7 0e3c 6f95 ac3c 5034 24b8 593e 203c
00000060: 5033 06bc 1ad6 193b 4f34 413b bad4 31bc
00000070: 8990 80bc e8e8 023b 717d 4bb9 d6f3 8aba
00000080: 7a1b 003d 706c a6bc eb60 b7bc 1e4d a73c
00000090: d8f2 b337 9e69 1ebc 6ee3 98bb f823 6339
000000a0: 25d2 8ebd 82d2 a9bb d018 103c 6668 9ab8
000000b0: 2a5b 49bc f86f ad3b dad3 6cba e07e 6c3b
000000c0: 8326 82ba a0e9 33b9 74a7 81bc 5b68 583c
000000d0: da98 20bb 2696 ecbc 565d 1cba 820a 2fbc
000000e0: d209 19bd 0c1d 3dbb a5a1 10ba cfb6 93ba
000000f0: ecc0 d4bc 0c84 343c c2fe 1dbd f917 86bb
0.007167549 -0.00011546847 0.0034131284 -0.0016897602 0.010086665 -0.025279887 -0.028519394 -0.011507197
-0.0019495786 -0.0048915795 -0.009668322 -0.045644358 -0.0012938264 -0.0025045462 0.0066352505 0.014497069
-0.009194969 -0.0199105 -0.027024638 -0.007438228 0.008718388 0.02106735 -3.9149367e-05 0.00978049
-0.008190945 0.0023473562 0.0029480641 -0.010853941 -0.01569392 0.0019975249 -0.00019406319 -0.0010601233
0.031276204 -0.020315379 -0.022385081 0.020422515 2.1451546e-05 -0.009668736 -0.0046657836 0.00021661806
-0.06973676 -0.005182565 0.008794978 -7.362738e-05 -0.012289802 0.0052928887 -0.0009034254 0.0036086366
-0.000992969 -0.00017157802 -0.015826918 0.013208474 -0.002450517 -0.02888019 -0.0005964836 -0.010683658
-0.03736288 -0.0028856425 -0.0005517251 -0.0011269691 -0.025970899 0.011017811 -0.038573034 -0.004092213

momentum_buffer f4 [64, 64, 3, 3]
00000000: ba93 2339 e463 6639 d0e3 3639 aece 303a
00000010: 3027 2839 9a75 863a c5c6 0c3a 8453 cd39
00000020: 8cc3 cdb8 cd74 1038 e8fa e139 476e 82b8
00000030: e996 4ab7 1d1e 7839 bc19 b038 b980 30ba
00000040: 3b6e 12b9 ca10 9839 729f 883a d259 023b
00000050: 77fb d03a e226 4b3a 5012 ed3a b8e1 f93a
00000060: 57b0 423a 907a cc3a a2ac 743a 86d5 c6b8
00000070: 1ee2 98b9 bd99 c739 32a8 1aba d975 e239
00000080: 2646 8d39 28a5 65b9 b22a 8438 4604 1a38
00000090: 41fa 053b 4063 f93a ce53 323b 84b9 063b
000000a0: c60d fe3a 1312 303b 8fc4 023b 3216 0e3b
000000b0: 160b 023b e10c 3a3b 412b 2e3b 7260 543b
000000c0: 3cc4 263b 2001 173b 4618 353b dcbe 1f3b
000000d0: b671 eb3a 39a9 103b c6d9 af3b 8e81 b43b
000000e0: d9c8 b73b 491f b53b af42 a23b cfaf ad3b
000000f0: 5a85 ca3b eca8 ce3b e516 b73b 6d26 e73b
00000100: 2276 df3b 2a00 f33b 1b4f cf3b a64a f03b
00000110: 3098 d63b 1c92 ef3b 7360 ef3b 754d e23b
00000120: eb50 a33a 849f a53a 4bb8 883a 2407 f73a
00000130: 40f6 943a 1c2d c83a 5f7c e13a d23b d83a
00000140: 20ed 813a 4bf9 b13a 9775 913a 24cc 973a
00000150: 1adf e53a aa18 3d3a 71c5 5c3a 6403 423a
00000160: 3cca 823a 0a2a df39 2a64 80b9 e416 fdb8
00000170: 7829 7337 184c 9838 d741 41b9 9a42 363a
00000180: 79f2 8439 76ff c4b9 1aad 6939 fe39 f13b
00000190: 2f04 fc3b 7493 0e3c 1e25 023c abbd e63b
000001a0: 6234 063c 0646 f03b 6ef1 033c 303c 083c
000001b0: 0c94 7539 5f98 013a d61e 6d39 2ea7 4cb8
000001c0: 2c9f 8938 0010 8839 d789 6fb9 daf7 a139
000001d0: 106b 5fb9 405e c2b9 a8bd f438 a5ec bb38
000001e0: 8b7b 59b8 adac e639 4913 8339 4e13 1a38
000001f0: 54d6 d6b8 0a73 513a 5df9 4d3a 92dc 283a
00000200: 66c3 4f3a 8f69 123a cdc0 863a d055 2f3a
00000210: 977f 6e3a 90b4 8c3a 71d1 8d3a c9a0 fc39
00000220: 3b88 a33a 0da5 2f3a a7b3 793a 25a2 693a
00000230: 2212 673a 63a8 9639 9ee4 253a 5dba af3a
00000240: cb92 6a3a a359 a23a df05 6a3a e31f 963a
00000250: aead 883a 51f5 fb3a 95fb 1d3a b0a4 f639
00000260: 7d7b 3f3a 12c2 073b 8482 cd3a 738b 9c3a
00000270: 53cc f03a 07c8 bf3a 3032 853a ff12 003b
00000280: ba3e d73a 7940 df3a 963a 093c 4c0a 0c3c
00000290: d4e0 0b3c aad4 053c 6264 113c 838a 153c
000002a0: f0a3 123c 3dcc 133c 4cf6 163c 08e7 7f37
000002b0: d9f3 d539 d42d 36ba 9226 a7b9 5554 6eb9
000002c0: 531a 58b9 0d5d 3e39 110c 7938 a517 86b9
000002d0: 8649 8f39 b2fa 6d3a 9c5c b43a 134c ba39
000002e0: 96c7 983a b3f2 9d3a 1061 e239 7c19 a13a
000002f0: cec8 673a a8e8 7b39 1834 413a 3357 b13a
00000300: 19fd b83a a4dc bd3a b369 b03a bfbc 863a
00000310: ff00 b83a 784b 693a aa5a 46b9 98bf 9538
00000320: 8d4a cc38 4009 27b9 708d f237 7fc1 63b8
00000330: c2d9 efb9 4fb4 28b7 768e 8eb9 2ef1 9c39
00000340: 070d 003a 76f5 813a 5c0a 393a f441 9437
00000350: b59b 483a 5c28 7939 a5e7 783a 7105 1b3a
00000360: 8dee 6cb9 be84 23b8 d84f 4f39 c4ad 8d38
00000370: 5cbe 82b9 f169 08b9 d74a 3bb9 1fed 0039
00000380: ab82 ceb9 a077 8839 f429 033a 3dbc 323a
00000390: e4dc 5139 a414 003a e2cc 1b3a 2819 57b7
000003a0: 782e b5b7 8f47 c139 2085 2cb9 32af 8c39
000003b0: 8361 16b9 a6e9 a838 e67f df39 bd19 12ba
000003c0: c115 1738 12c4 b039 4409 8339 0aee f33a
000003d0: f048 cb3a 7be3 8d3a 2284 8f3a cf14 803a
000003e0: ee2b c73a af51 8b3a 84a5 e13a d4fc 013b
000003f0: 344e 973b 0c7c a73b 5cb2 9d3b e479 893b
0.00015599924 0.00021971721 0.0001744174 0.0006744665 0.00016036327 0.0010258437 0.0005370195 0.0003916287
-9.811585e-05 3.4441055e-05 0.00043102284 -6.219424e-05 -1.2075275e-05 0.00023662341 8.3971274e-05 -0.00067330484
-0.00013964709 0.00029004208 0.0010423495 0.0019889963 0.0015944083 0.00077496294 0.0018087123 0.0019064462
0.00074267894 0.0015600491 0.00093335856 -9.4811476e-05 -0.0002916017 0.00038070782 -0.0005899697 0.00043193882
0.0002694588 -0.00021900667 6.302203e-05 3.672044e-05 0.0020443352 0.0019026771 0.0027210596 0.0020557353
0.0019382767 0.0026866242 0.0019953584 0.002168071 0.0019843034 0.0028389024 0.0026576074 0.0032406119
0.0025446555 0.0023041442 0.0027632876 0.0024375236 0.0017962966 0.002207352 0.005366537 0.005508608
0.0056086597 0.005527411 0.004951797 0.005300499 0.0061804475 0.006306758 0.005587446 0.0070541413
0.0068195025 0.007415791 0.006326569 0.0073331175 0.006548904 0.0073111188 0.007305199 0.0069062063
0.0012460029 0.001263604 0.00104309 0.0018846733 0.0011364892 0.0015272233 0.0017203203 0.001649732
0.0009912588 0.0013578323 0.0011097667 0.0011581224 0.0017537803 0.0007213453 0.0008421755 0.0007401018
0.0009978483 0.00042565196 -0.0002448869 -0.00012068244 1.4493584e-05 7.2620984e-05 -0.00018430442 0.00069526734
0.00025357658 -0.00037574366 0.00022285097 0.0073616495 0.0076909284 0.008702148 0.00794342 0.007041653
0.0081912 0.007332566 0.008053167 0.008315131 0.00023420173 0.00049436645 0.00022613569 -4.879309e-05
6.562317e-05 0.00025951862 -0.00022844166 0.00030892977 -0.00021306821 -0.00037072785 0.00011670153 8.960933e-05
-5.185189e-05 0.00043997672 0.00025000636 3.673444e-05 -0.00010244237 0.00079898594 0.00078572874 0.0006441559
0.000792554 0.00055851875 0.0010280848 0.0006688507 0.0009097992 0.0010734964 0.0010819865 0.0004818498
0.0012476513 0.00067003147 0.00095253665 0.0008912406 0.00088146527 0.00028735687 0.0006328317 0.0013406981
0.00089482655 0.0012386333 0.00089272665 0.0011453595 0.0010427737 0.001922289 0.00060265634 0.00047043478
0.0007304473 0.002071504 0.0015679155 0.0011943415 0.001837144 0.0014631756 0.0010162052 0.0019542573
0.0016421892 0.0017032764 0.008375784 0.008547377 0.00853749 0.008168379 0.008874031 0.009127262
0.008950219 0.009020862 0.009213995 1.5252976e-05 0.00040808207 -0.0006949578 -0.0003188146 -0.00022728865
-0.00020609172 0.00018154476 5.9377464e-05 -0.00025576088 0.00027329865 0.0009078189 0.001376051 0.00035533364
0.0011656161 0.0012050479 0.00043178396 0.001229092 0.0008841873 0.00024023897 0.00073701283 0.0013530016
0.0014113515 0.0014485312 0.0013459235 0.0010279639 0.0014038383 0.00088994903 -0.00018916526 7.140561e-05
9.741364e-05 -0.00015929807 2.891451e-05 -5.4301225e-05 -0.00045747875 -1.0055562e-05 -0.00027190492 0.00029934332
0.0004884754 0.0009915072 0.00070587336 1.7673687e-05 0.00076525967 0.00023761526 0.0009494967 0.00059135916
-0.00022595581 -3.8985854e-05 0.00019770802 6.75577e-05 -0.0002493736 -0.00013009437 -0.0001786159 0.00012295366
-0.00039388737 0.0002602907 0.0005003505 0.0006818211 0.00020014081 0.0004885888 0.00059433107 -1.2820856e-05
-2.159852e-05 0.00036865144 -0.00016452791 0.00026833412 -0.0001434144 8.054385e-05 0.00042629166 -0.00055732933
3.6021465e-05 0.0003371542 0.0002499317 0.001861037 0.0015509408 0.0010825241 0.0010949413 0.0009771826
0.0015195587 0.0010629202 0.0017215465 0.0019834535 0.004617477 0.005111223 0.004812522 0.0041954387

momentum_buffer f4 [64]
00000000: da15 2a3c 5e05 84bc 5220 c8b7 0ba0 23bc
00000010: a523 47b8 b0a2 b3b8 0a28 6e3a 6163 52bc
00000020: 8f4e 813a 5603 5038 efca 093c 9d99 8d38
00000030: 8025 d6bc 31b9 60b9 2e24 193b 5713 61bd
00000040: 71a6 afbc e173 0cbc 5bcb 01bc ea4c c23a
00000050: 8c1d e83c 31be 6abc c5c7 14bc 0cca a93b
00000060: 7383 bcbc e004 f23c 9e6b d0b8 6665 533c
00000070: 7578 54b9 c93b a63c 5c2d 0e3c 987a 2aba
00000080: 286e 793c 507a 7fb9 72bc fbba eff2 3fbd
00000090: 3637 763b d75d 2b3a 22a8 6ab9 122a 633c
000000a0: 8521 85bb da1d 8d3b 36fa a53c 3ed0 ea3c
000000b0: dae5 6ab8 fac1 08bd 7017 b3bc 9284 18bd
000000c0: c567 6439 26b9 16ba bfa8 803c 59a2 aab7
000000d0: f26b af3b c17f 1c3c d7e9 19bb 20d6 853b
000000e0: 7231 533b bcb7 0e3b c8c4 d4b9 9c9c 393c
000000f0: ab5e 763a dc4f 343b 4776 bebc e0c4 01bd
0.010381186 -0.01611584 -2.3856908e-05 -0.009986888 -4.7478494e-05 -8.565688e-05 0.0009084946 -0.012841077
0.0009865331 4.959417e-05 0.0084102 6.7520166e-05 -0.026140928 -0.00021431294 0.0023367512 -0.054950085
-0.02144167 -0.00857255 -0.007922019 0.0014823948 0.028334402 -0.014327572 -0.009080832 0.0051815566
-0.023011899 0.02954334 -9.938258e-05 0.012902593 -0.00020262769 0.02029218 0.008677807 -0.0006503253
0.015224017 -0.0002436426 -0.0019205941 -0.04686254 0.003756953 0.00065371156 -0.00022378613 0.013865011
-0.0040628337 0.004306537 0.020260911 0.02866375 -5.6004013e-05 -0.033388115 -0.021861762 -0.037235804
0.00021782432 -0.0005749635 0.015705464 -2.0341178e-05 0.0053534443 0.009551943 -0.0023485327 0.0040843636
0.0032225517 0.0021776995 -0.00040582404 0.0113288425 0.0009398262 0.002751342 -0.023249758 -0.031681895

momentum_buffer f4 [1, 64]
00000000: 0082 13bc e1e2 2fbe 1c1b 1db9 3401 51bc
00000010: cdb3 91b9 adb5 4ab8 92ed a03d b767 afbd
00000020: a46f 963a 62ae 823a c791 133d aa31 0a39
00000030: c4c8 34be a999 8b39 8b2d 98b9 9c15 93be
00000040: 2745 3bbd bef9 263d d140 0abc ee0f a43d
00000050: 8f40 2c3e 2091 0e3e dd1c 12bc 4e38 d03d
00000060: a322 a6bd 347d 723e 76c1 b0b9 0635 883e
00000070: 5bc6 68b6 8608 603e ac99 03bd 9056 1bbd
00000080: 2875 69bc 574f 993c f0a7 2739 eba4 62be
00000090: 5c2c 903c 721a 26ba 8846 62b9 1b08 7e3e
000000a0: 1ce4 463c 4205 f43c 52fe b53d 5a0a ab3e
000000b0: 868f e9b9 522e 62be 80b6 9b3a 0599 20be
000000c0: 8794 56ba 211d 983c ec8c 883e 1842 f1b9
000000d0: fc96 b4bd cfa4 053e e633 14bb 3d52 4dbd
000000e0: da47 c3bb 6f2d 4ebd aacc a0ba 4c46 09bd
000000f0: 3835 49bb e865 43bb 20a3 c4bd 74b2 25be
-0.009003162 -0.17176391 -0.00014982786 -0.0127566345 -0.00027790517 -4.832975e-05 0.07857813 -0.08564704
0.0011477363 0.0009970183 0.036027696 0.00013179207 -0.17654711 0.00026626632 -0.0002902563 -0.28727424
-0.045720246 0.040765516 -0.008438305 0.08010851 0.16821502 0.13922548 -0.008918014 0.10166989
-0.08112075 0.23680574 -0.00033713476 0.26602954 -3.4686152e-06 0.21878251 -0.032128975 -0.03792435
-0.014249124 0.01871459 0.00015988923 -0.22133224 0.017599277 -0.0006336338 -0.00021579314 0.2480778
0.012139346 0.029787663 0.088863984 0.33406335 -0.00044548156 -0.22087982 0.0011879951 -0.15683372
-0.00081855844 0.018568577 0.26670015 -0.00046016346 -0.088178605 0.1305115 -0.0022613942 -0.050127257
-0.005959493 -0.050336298 -0.0012268026 -0.033514306 -0.0030701887 -0.002981538 -0.09601426 -0.16181356

bn0.weight f4 [3]
00000000: 961b 813f 6459 813f 89aa 7f3f
1.0086544 1.0105405 0.9986959

bn0.bias f4 [3]
00000000: 620d b7b7 f0a7 0b3c a6db 3f3b
-2.1821532e-05 0.008523926 0.0029275208

bn0.running_mean f4 [3]
00000000: 14bc f93e a211 e53e ddd6 cf3e
0.48776305 0.44740015 0.40593615

bn0.running_var f4 [3]
00000000: 43ea 843d d395 763d 6d65 793d
0.064899944 0.060201477 0.060887743

conv1.weight f4 [32, 3, 5, 5]
00000000: 4e1b 673d f8ad 36bc a17a 8abd 62f3 b63d
00000010: a91d e2bb eac8 71bb 7b4d 8c3c f9a1 783d
00000020: 523c 98bd 2942 2d3d 68b4 6b3c 531d b53d
00000030: c125 1fbd 12f5 58bd d2b2 063d 4a26 4ebc
00000040: acee a5bc 8d35 803c 8b7c d2bb 357d cd3d
00000050: 385d 0abd 9cb4 d6bc eb44 5e3c 2301 573d
00000060: 3b6a 093d 5800 3c3b 248c 12bb bc95 9e3c
00000070: f4a0 883d a836 59bd ba3d 8ebd bdef abbb
00000080: 7f78 c4bc 1b12 1dbd a0cb 2fbc d7bc 8dbd
00000090: 5cd9 26bc b9df 2c3c 182d 173d 2dab 4fbd
000000a0: a655 773d 04dc 84bd 2252 193c 52e7 7dbd
000000b0: a262 953c ee3e edbc 49ab e2bc f260 8abd
000000c0: ccef 82bd d1c1 f3bc 1c82 413c a32c 94bc
000000d0: 2c4b 73bb 0af6 2cbd 6c32 583d f94c 073b
000000e0: fc84 bd3b f92d 3abc a83f b6bc aa11 5ebd
000000f0: 9da7 313d 1b6a a73b c2f6 453d 8cf3 e1bc
00000100: 1d03 b5bc 167b e2bb 5659 db3c 8f4f 353d
00000110: 3bd3 813d ef3d 163e 834a 403d 490f 87bb
00000120: a389 81bc 5ffa b9bd b4c5 dabb 88e4 793d
00000130: 9395 7abd f6a3 18bd d320 703c 0bc0 1e3c
00000140: a6f1 98bc bbf3 3c3c 3d35 473d 0aa2 46bd
00000150: 1b23 0bbc 0d07 d0bd 2182 513d 4772 6a3c
00000160: 7dd1 7fbd c8e3 b53b 1002 a33c e8d0 b33d
00000170: 2d4c 60bd 1b0f 4ebd 4576 d13c 1afa f1ba
00000180: ebe3 193d 4799 c7bc 33e6 e73b a7d9 80bc
00000190: 0104 2e3d b090 853c bd5f ee3d d786 a8bb
000001a0: f3b2 ecbd 7868 0cbd a8bf 3a3c 5109 723d
000001b0: 6a82 5cbc cd80 223c 873e 183d 3c10 a0bd
000001c0: b96e 2dbd 2214 d43a a057 3e3d 3ab2 043d
000001d0: 74d5 e43c 302f 8e3d 3c70 cebc b36a a23d
000001e0: 7e54 523d 55ca 54bd 65d2 cdbc 38b7 d13c
000001f0: b8bc 193c 971f ac3c ab2e 19bb 5301 103c
00000200: a84b 47bd cb3a 2a3d e2d9 283c ca8e 12bd
00000210: 1193 e8bc aa38 d63b 7096 adbd 225e d43c
00000220: a870 dbbc f4e8 97bd 14b4 e1bc 13cf 0a3d
00000230: 2d95 ac3d 5221 383b 11aa 113d 2c68 05bc
00000240: 6a1d ba3c 6624 93bc 9f27 6dbc 01ce 5c3d
00000250: 33cf 90bd 0e8d 30bc 4b3d 95bd 2202 af3b
00000260: 2090 cebc 1750 30bd 58ef 26bd 929d e73a
00000270: 992a 3b3d 4572 87bc 007b 5e3c 293b 8f3c
00000280: ff23 c1bd 3f08 48bd f24c 27bc 7fe6 35bc
00000290: 05f4 96bc f200 993d 6497 50bb c433 8c3d
000002a0: 8286 10bd 67fe dcbb db84 2d3d 6a1b 97bd
000002b0: 7872 c63d c916 c3bd f5eb 2ebd 3d11 60bc
000002c0: b9a4 d5bd 2753 7a3c 790d 873c 739c b5bc
000002d0: 4451 2cba c663 343a 9135 30bc 3275 2bbd
000002e0: ad68 803d bc15 73bd d1c7 923c 4d1f ce3c
000002f0: 855e bcbc ce5d f53b 8703 bebb 4164 0cbd
00000300: d0f4 b13d f10c b2bd 95d4 ac3c 28ce 693d
00000310: 23f8 f1bc 01e5 973c fe8f 893d 6d21 cfbd
00000320: 069c 863c eb5f 2a3d a2f9 c43d 5625 153c
00000330: 1d22 90bc 50fc 893c 5d9d d43b 83fc 1dbd
00000340: 00cf 44bd 7acb 193c fb1a b7bd d5c0 873d
00000350: b70e 923d 3232 9b3a 0766 e7bc 2c99 a4bc
00000360: 4cd3 343d ff02 41bd a985 36bc 57db 73bd
00000370: 0757 00bd 1e73 39bd 3ddf eebb c38c cd3c
00000380: f81c e9bc 95b6 0c3e b2fc 05bd 7fe9 fdbc
00000390: b617 0b3e bb70 a9bd 543f 613c 1858 a8bd
000003a0: 2bce ebbc c728 94bd 54e4 863d cd29 573c
000003b0: bfda 273d d5a4 c83b b54d 193d ea7b 52bd
000003c0: 85fb c9bc 4714 513d b410 aebd d3f9 c4bc
000003d0: fba8 5bbc 0fe4 b93d e6f3 423c a756 55bc
000003e0: 1744 443d 7a7b a0bd b028 713c 4822 61bc
000003f0: a256 5cbc 2cfa 2f3c 7387 513d 481e a2bb
0.056422524 -0.011149876 -0.06761671 0.0893314 -0.0069005084 -0.0036893436 0.01712679 0.060701344
-0.0743338 0.042299423 0.014386274 0.08843484 -0.038854364 -0.052968092 0.03288538 -0.012582371
-0.02025541 0.015650535 -0.006423538 0.10033647 -0.033780307 -0.026209168 0.013566236 0.05249132
0.033548575 0.0028686728 -0.0022361362 0.019358508 0.06671324 -0.05303064 -0.06945367 -0.005247085
-0.023983238 -0.038347345 -0.0107297 -0.06920784 -0.010183658 0.0105513865 0.03690824 -0.050700355
0.060384415 -0.06487277 0.009357961 -0.061988182 0.018235508 -0.028960671 -0.027669566 -0.06756772
-0.06393394 -0.029755505 0.011810806 -0.01808769 -0.0037123663 -0.04222683 0.05278246 0.0020645245
0.0057836752 -0.0113635 -0.02224715 -0.054216065 0.04337274 0.0051090843 0.04833103 -0.027581953
-0.022096211 -0.0069116456 0.026775997 0.044265326 0.06339117 0.14672063 0.04694606 -0.004121695
-0.0158127 -0.090809576 -0.0066764 0.06100896 -0.0611778 -0.03726574 0.014656263 0.009689341
-0.018669914 0.011532719 0.048634756 -0.048494376 -0.0084922565 -0.10157595 0.05114949 0.014309472
-0.062455643 0.0055508353 0.019898444 0.0878008 -0.054760147 -0.050307374 0.02556909 -0.0018461377
0.037570875 -0.02436508 0.0070770024 -0.015728785 0.042484287 0.016304344 0.116393544 -0.0051430273
-0.11557569 -0.034279317 0.0113982335 0.059090916 -0.0134588275 0.009918404 0.037169006 -0.078155965
-0.04234192 0.0016180316 0.046470284 0.032396533 0.027933814 0.06942594 -0.025200002 0.079305075
0.05135011 -0.05195077 -0.025124738 0.02560006 0.009383373 0.021011157 -0.0023373764 0.008789378
-0.048656136 0.041559976 0.010305854 -0.035780706 -0.02839044 0.0065375166 -0.08475959 0.025923792
-0.026787117 -0.07417479 -0.027551688 0.033888888 0.084268905 0.0028096032 0.03556258 -0.008142512
0.022719104 -0.017961692 -0.014474778 0.053907398 -0.0707077 -0.010775818 -0.07287081 0.0053408304
-0.025215209 -0.04304513 -0.0407556 0.0017670861 0.04569492 -0.01653398 0.01357913 0.017484264
-0.09430694 -0.04883599 -0.010211216 -0.011102318 -0.018426904 0.074708834 -0.0031828517 0.06845811
-0.035284527 -0.0067441943 0.04236303 -0.07378276 0.09689802 -0.0952583 -0.042705495 -0.013675985
-0.10431809 0.015278614 0.016485916 -0.022169327 -0.0006573389 0.00068813225 -0.010754959 -0.041859813
0.06269965 -0.0593469 0.017917546 0.02516141 -0.02299429 0.007487989 -0.0057987603 -0.034275297
0.086892724 -0.086938746 0.02109746 0.05708137 -0.029537266 0.018541815 0.067169175 -0.10113797
0.01643182 0.04159538 0.09617926 0.00910314 -0.017594391 0.016843945 0.0064884857 -0.038570892
-0.048048973 0.0093868915 -0.08940693 0.06628577 0.07131713 0.0011840521 -0.028246893 -0.02009257
0.04414682 -0.047121998 -0.0111402655 -0.05953535 -0.031332996 -0.0452758 -0.0072897957 0.025091534
-0.028456196 0.13741525 -0.032711692 -0.030995129 0.13583264 -0.08273455 0.013748009 -0.082199275
-0.028784832 -0.0723434 0.06586519 0.013132525 0.040980097 0.006123165 0.037427623 -0.051387705
-0.024656067 0.05104473 -0.084992796 -0.024044907 -0.013406987 0.09076702 0.01189897 -0.013021148
0.047916498 -0.07836051 0.014719173 -0.013741083 -0.013448389 0.010740798 0.051154565 -0.0049474575

conv1.bias f4 [32]
00000000: e377 82bd 623e 8bbc cc6b 7abd 2bb5 123d
00000010: b9ab 823d d670 fa3c 004e 313c e4a7 483b
00000020: 916d 063d 6b68 4bbd 06ab e03d 7255 b4bd
00000030: a94a cb3d f248 be3d 54e3 903d 9c9b e63d
00000040: 135d f03d ab6d 9a3d 12fc 81bb 626c ccbd
00000050: 6bd2 273d c488 df3d 85da 67bd 4f38 943d
00000060: 06c0 9abd e585 33bc 636f d2bd c1cd db3d
00000070: 1a5a bdbb 3f85 813d 3942 a3bd f754 733d
-0.06370523 -0.01699752 -0.06113796 0.035817306 0.0638041 0.030571382 0.010821819 0.0030617649
0.032819334 -0.049660128 0.1097012 -0.0880536 0.0992635 0.09291257 0.070746094 0.11260149
0.117365025 0.07540449 -0.0039668167 -0.0998161 0.040972155 0.10914758 -0.05660488 0.072373025
-0.07556157 -0.010957216 -0.102751516 0.10732604 -0.005778563 0.06324243 -0.07971615 0.0594072

conv2.weight f4 [32, 32, 3, 3]
00000000: 3e0b 893d aa84 15bd 4ac6 a7bd 7790 54be
00000010: b7bd 27be b65a 3d3c f2fb c6bd fcb6 813c
00000020: 47b8 883d 7760 a4bd b900 843d 78b6 2dbd
00000030: 0d66 ae3c d84d d73d c550 44ba 613b 943d
00000040: 3888 493d f61b d33d 3776 203d 06f5 8b3b
00000050: 41d0 bebd 79e8 283e 8775 76bd 577d 963d
00000060: 6aea dd3c a2b7 253e d411 e23c 4f44 183d
00000070: 940e b1bd fcac fbbc 2d0d 4b3e 53a8 acbc
00000080: 2a94 4b3d a58a 8f3d 0aea 093e 6b8e 0cbe
00000090: 57fb 3b3d 747c d23d 71c6 473e e843 133d
000000a0: 9fad 4bba b6b6 21bc d480 a1bd eaa5 4b3e
000000b0: 98f4 99bd fdf4 c1bd a802 533e eaad 6ebe
000000c0: d41c 86bd 0df2 6b3d 69c9 783c f370 e83d
000000d0: 968b 303d b1c2 b2bd b24f fc3d 0722 e0bd
000000e0: 4d54 a3bb 2be8 3b3d bd2f b5bd 0980 aabd
000000f0: 6e11 0cbc 1186 a83d bbd7 0b3e 93cc 5c3c
00000100: ba2e e33d 727e 123e 4dc6 7f3d bb03 7bbd
00000110: a4a5 323d c261 aabc 2f83 0c3e 8e6c d0bc
00000120: b64c 383e 1985 bbbd 3f9c 3e3d d4d4 f43c
00000130: 9ebf 76bc b69e c7bd b63d ffbd 7864 e4bb
00000140: 2ff4 83ba 9a2e 6a3d 9b6e 0a3e d504 89bd
00000150: cb32 8b3c 64e6 dd3d e2d4 1c3d 6699 eabc
00000160: 97da 8fbd 6b70 e93c 61c4 463d 8c79 663b
00000170: aec5 9a3b 19f5 393d 8e19 adbb bc48 223c
00000180: ac68 813d 95ac 343d 42ff 31be 1179 a0bb
00000190: 1810 523d c466 ee3d 42ae 913d 96aa 003e
000001a0: e168 c7bd 6fa0 2d3c 15be 10be 135f 393c
000001b0: a181 1b3d bab4 f03c 0197 12bc 8eda 0b3d
000001c0: 5c2f bdbc 63cc 983c 3718 50bd 8a77 b5bd
000001d0: aa6b 1dbd 22e5 15bd 1ed3 52bd 250e 91bd
000001e0: 6a81 86bc 4c33 913c a3fe cebd b7c6 04bd
000001f0: 51d4 80bd f9d1 773c 7f22 a33b 898f 95bd
00000200: 6eaf a4bc 018f 98bd 0657 81bd f461 153e
00000210: 7e29 c23d 1511 f63d 7803 683c 82b3 5ebd
00000220: 3cb2 f13b 27b5 133d 0e66 b83d 2728 c0bd
00000230: 65aa 95bc b126 3a3c 7bb3 06be 19ed fbbd
00000240: 491c 18be 2d40 2d3c f4ab c0bd 0312 27bc
00000250: 0bcd f83d ff57 353e 1e50 9fbd 5b20 bbbc
00000260: 4f71 e5bd cf88 2a3e 0360 2c3d 9ada e7bd
00000270: 23b9 323d 20bb 103d e3ff 49bd 6889 5cbb
00000280: 9ce7 b9bc 47d8 903c 4e07 c6bd 144f 03be
00000290: 49e8 8c3d 5418 09be 588d 9c3d 14e8 7fbe
000002a0: d6c8 c3bd fafa 57bd 5464 d13d 8833 afbc
000002b0: 9795 4e3d cc86 113c 89c7 35be 8281 843d
000002c0: 7cd7 4bbd 73bf bc3b 417c fc3c be4e 5e3a
000002d0: 8b9f 33bd a683 273d 19ad 893d bdab a1bd
000002e0: cd66 13be 9e64 1cbd 729c ae3d f688 ffbd
000002f0: 46a9 6ebd efb6 e1bd e2f7 713d f3b9 293d
00000300: b13d cc3b eb5a 97bc a79e 903d c0a9 eb3d
00000310: 90b0 b9bc a6d5 ba3c 6d2e 83bd 80ca 233a
00000320: b5be e23d bd5f 83ba e582 f03c a493 abbd
00000330: ea2c 29bc 4e65 edbd 292d ea3d 4055 b93d
00000340: 94de 113e b214 733c 1005 5d3d c54f dabd
00000350: b42b 363d 5a04 963d 99b0 d43d ddc5 a9bc
00000360: a796 973c b598 4dbd 1ff6 88bd a36f 00be
00000370: db0f 933d 3e26 46bd 698b a13c a207 683d
00000380: bef2 c93d 14a9 213d a2b7 0d3e 7f20 043c
00000390: 6a2a 50bd 843f 79bd fae4 b73d 7497 0f3c
000003a0: e5d3 493e 21c2 8bbd 0486 96bd 5c79 3cbe
000003b0: ad47 e93b 7892 72bc 2165 eabc 0962 243d
000003c0: 06a1 bbbd 3523 31be 01a4 ff3c 175f 623c
000003d0: 7fe7 8b3d 11bd 16be 44f8 b7bd 2e25 c3bd
000003e0: cf00 873d c051 95bd 963c 98bd a2a8 21bd
000003f0: 9edd 9e3d 6ac6 a6bc 003c c0bc ae96 163d
0.066915974 -0.03650347 -0.081921175 -0.20758234 -0.16380964 0.011557272 -0.097160235 0.015834324
0.06675773 -0.08026212 0.0644545 -0.042410344 0.021288896 0.105128944 -0.0007488842 0.07237888
0.049202174 0.103080675 0.03917524 0.0042711524 -0.09317065 0.16494931 -0.060170677 0.073481254
0.027089316 0.16183332 0.027596392 0.03717452 -0.08645359 -0.030722134 0.19829245 -0.021076357
0.049701847 0.07008866 0.13468185 -0.13726203 0.045893993 0.10277644 0.19509293 0.035953432
-0.0007769707 -0.009870222 -0.078859 0.1988751 -0.07517356 -0.09470556 0.20606482 -0.2330853
-0.06548467 0.057603884 0.015184739 0.11349668 0.04310187 -0.08728541 0.12319888 -0.1094399
-0.0049844147 0.04587571 -0.08846996 -0.08325202 -0.008549077 0.08228696 0.13656513 0.013476509
0.11092897 0.14306048 0.062444974 -0.061282855 0.043615 -0.020798568 0.13721918 -0.025442388
0.17998013 -0.09156246 0.046535727 0.02988664 -0.015060334 -0.097470686 -0.12462942 -0.0069699846
-0.0010067279 0.05717335 0.13518755 -0.06690375 0.016991993 0.10834959 0.03828896 -0.0286376
-0.070241146 0.028495988 0.048527125 0.0035167662 0.0047232723 0.04539976 -0.0052825874 0.009905037
0.06318793 0.0441099 -0.1738253 -0.0048972447 0.05128488 0.11640695 0.07113315 0.12565073
-0.09736801 0.010597332 -0.1413501 0.011314171 0.03796542 0.029383052 -0.008947135 0.034143977
-0.023093872 0.018652147 -0.050804343 -0.08860691 -0.038432755 -0.03659547 -0.05147087 -0.07082776
-0.016419131 0.017724656 -0.10107162 -0.03241607 -0.06290496 0.015125745 0.0049784775 -0.07302768
-0.020103183 -0.07449151 -0.063154265 0.14588147 0.0948057 0.12014977 0.014160983 -0.05437041
0.0073759835 0.036061432 0.090038404 -0.093826585 -0.018269727 0.011361764 -0.13154404 -0.12301082
-0.1485454 0.010574383 -0.094077975 -0.010197165 0.12148484 0.17709349 -0.07778953 -0.022842577
-0.112032525 0.16653751 0.04208375 -0.11320992 0.04363359 0.035334706 -0.0493163 -0.0033651236
-0.022693448 0.017681254 -0.09669362 -0.12823135 0.068802424 -0.13388187 0.07644147 -0.24990875
-0.09559791 -0.052729584 0.10224214 -0.021386877 0.05043563 0.008882236 -0.17751898 0.06470014
-0.04976605 0.005760127 0.030820968 0.00084803614 -0.043853324 0.040897034 0.06722469 -0.078940846
-0.14394684 -0.038181894 0.08525933 -0.12477295 -0.0582669 -0.1102122 0.05907429 0.0414371
0.00623294 -0.01847597 0.070615105 0.115069866 -0.0226672 0.022806954 -0.064053394 0.00062481314
0.11071531 -0.0010023039 0.02935929 -0.083777696 -0.01032565 -0.11591588 0.11434395 0.09049463
0.14245063 0.014836477 0.053959906 -0.10659746 0.044475272 0.07325049 0.10385246 -0.020724231
0.018504454 -0.05019446 -0.06687569 -0.12542586 0.071807586 -0.048376314 0.019719796 0.056647904
0.098607525 0.039467886 0.13839582 0.008064388 -0.0508217 -0.06085159 0.08979221 0.008764137
0.19709738 -0.068241365 -0.0734978 -0.1840567 0.00711914 -0.014805429 -0.028612675 0.040132556
-0.09161572 -0.17298587 0.031206133 0.0138166165 0.06831264 -0.1472056 -0.089829 -0.09528576
0.06591951 -0.07290983 -0.07433431 -0.03946746 0.07757114 -0.020358283 -0.02346611 0.036764793

conv2.bias f4 [32]
00000000: 68e6 143d 0d0c 163c a5f4 003d 4111 4e3c
00000010: 94f1 3a3d 44f0 563d 62c4 7e3c 63bd 043d
00000020: c86c ad3c 78d4 d63c b64c 4e3d c4e2 9cbc
00000030: e7fd 0cbd 34f7 0f3d 0c45 5a3d 9242 843c
00000040: 03ca a6bc 76f4 5ebd 5ce1 06bd 3d3e c53c
00000050: c282 67bd b391 7e3d 4441 473d 5004 283d
00000060: 50d5 5fba 73d6 573d 21a3 9ebc 3fb5 333d
00000070: c915 f1bc 91c6 1b3c e2b3 c73c e58f 9bba
0.036352545 0.009158147 0.03148331 0.012577356 0.045640543 0.05247523 0.015549751 0.032407176
0.021170035 0.02622436 0.050366126 -0.019151099 -0.034421828 0.03514786 0.053288504 0.016145024
-0.020359999 -0.054432355 -0.032929763 0.02407753 -0.056521185 0.06215067 0.048646227 0.041019738
-0.0008538561 0.05269475 -0.019364895 0.04387402 -0.029429333 0.009507791 0.024377767 -0.0011868445
