Ratio_Reverse_wo_GRL/checkpoint_step_0150.pth (torch_old, 541547 bytes, 24 tensors)

momentum_buffer f4 [3]
000000 8c 9f b7 be 6b 7c 5f 3e 17 5e 97 bd
       -0.35863912 0.21824805 -0.07390993

momentum_buffer f4 [3]
000000 6e 63 30 3e 8a 2d 16 be 88 66 44 bd
       0.1722543 -0.1466581 -0.047949344

momentum_buffer f4 [32, 3, 5, 5]
000000 aa 32 f4 3b 00 49 a7 3a 90 0c e0 3a 47 40 fa 3b
       0.0074523287 0.0012762845 0.0017093588 0.007637057
000010 57 23 42 3b 18 d5 46 bb 52 43 d2 ba b6 5d c0 ba
       0.0029623115 -0.0030339416 -0.0016041792 -0.0014676366
000020 4e df 6e bb 86 b2 d7 bb ca e9 d5 bb a7 27 b1 bb
       -0.0036449018 -0.006582561 -0.006528114 -0.0054063383
000030 14 0d d6 bb fe 6a bc bb 9c 23 b1 bb ca 6a a9 bb
       -0.0065323208 -0.005750059 -0.0054058563 -0.005170201
000040 da 04 1c bc 34 fc f6 bb ca 1f 25 bb 0a 60 ca 3a
       -0.009522641 -0.007537389 -0.002519595 0.0015439999
000050 6c ba 83 3a ea 47 8a bb 54 33 8a 3a 8a 5a 19 3c
       0.0010050065 -0.0042199986 0.0010543861 0.009359965
000060 54 90 3c 3c 64 66 03 bd 9c e8 22 bd 1c ab 25 bd
       0.01150902 -0.03208007 -0.039772615 -0.040446386
000070 60 59 14 bd 69 21 27 bd da 0f 30 bd dc 28 34 bd
       -0.036218047 -0.040803347 -0.042983867 -0.04398428
000080 87 57 3b bd a5 62 44 bd b0 9d 50 bd f1 19 3c bd
       -0.04573777 -0.047945637 -0.050931633 -0.045923177
000090 76 af 45 bd 7e ad 4f bd 28 73 4f bd ce be 4f bd
       -0.048263036 -0.050702564 -0.05064693 -0.050719075
0000a0 c3 b6 2d bd 86 24 52 bd 18 2b 57 bd 89 29 4a bd
       -0.042410623 -0.051304363 -0.05253133 -0.049356017
0000b0 ee f4 36 bd 3e 1d 10 bd 95 58 36 bd 0f 43 34 bd
       -0.044667177 -0.035184138 -0.044518072 -0.044009265
0000c0 73 7e 1b bd 04 c7 0d bd a6 e5 93 3c 1d 9a 06 3c
       -0.03796239 -0.034613624 0.01805384 0.008215454
0000d0 68 74 86 3b 18 2b bb 3b e7 aa 17 3b 57 7a 04 3c
       0.004103232 0.0057119243 0.0023142637 0.008085809
0000e0 65 d7 b4 3b 80 f5 59 39 7e 57 9f bb 54 fa fb bb
       0.005518841 0.00020786189 -0.004862725 -0.0076897535
0000f0 bc c4 6d 3b 68 42 88 b9 58 b7 b9 bb 29 bf 04 bc
       0.0036280593 -0.00025989418 -0.005667608 -0.008102217
000100 85 39 d1 bb fa 9f 24 3b 8b 55 ef bb f5 8d 34 bc
       -0.0063850307 0.0025119768 -0.0073038987 -0.011020173
000110 b8 18 fa bb a2 c4 e5 b9 08 c7 df 3b e0 34 a6 bb
       -0.0076323412 -0.00043824787 0.0068291463 -0.005072221
000120 80 fc cd bb c0 47 d9 b8 f6 b7 d9 3b a2 ae 84 bd
       -0.006286204 -0.00010360731 0.0066442443 -0.06478621
000130 bd ea 47 bd 10 07 19 bd 4a a5 0f bd 26 53 d1 bc
       -0.04880785 -0.03736025 -0.03506974 -0.025552344
000140 8c 32 88 bd 29 73 4b bd b2 69 05 bd b8 17 ea bc
       -0.06650266 -0.049670372 -0.032571502 -0.028575763
000150 9e cd 9b bc 1c 9b 90 bd 60 85 53 bd f4 f2 db bc
       -0.019018944 -0.07060835 -0.05164087 -0.026849248
000160 73 0b ba bc 4d 2f 93 bc 0c 40 89 bd 22 25 4c bd
       -0.022710538 -0.01796689 -0.06701669 -0.0498401
000170 44 13 c9 bc fb d5 9f bc 95 c2 84 bc ca cf 84 bd
       -0.02454532 -0.019511214 -0.016206065 -0.06484945
000180 94 1e 54 bd e6 5c 09 bd bd 96 dd bc d8 23 92 bc
       -0.051786974 -0.03353586 -0.027049417 -0.017839357
000190 39 e8 2e bd ff 1e de bc ec d9 67 bc 8b 32 24 bc
       -0.042701934 -0.02711439 -0.014151078 -0.010021816
0001a0 40 05 6b 3a 8b 05 39 bd f0 b9 ea bc 34 78 29 bc
       0.0008965321 -0.0451713 -0.028653115 -0.0103436
0001b0 50 61 83 bb e1 6d e6 3b 04 ad 47 bd ed 45 fe bc
       -0.0040094033 0.0070321416 -0.048748985 -0.031039203
0001c0 2c 48 a8 bb e8 57 bf 3a 65 17 f5 3b d7 70 39 bd
       -0.0051355567 0.0014598342 0.0074795955 -0.045273628
0001d0 dd 38 e9 bc 68 2b f4 ba c6 b7 89 3b b4 38 11 3c
       -0.028469497 -0.0018628659 0.0042028157 0.008863617
0001e0 e6 03 2f bd ee 50 fb bc 4c a2 3c bc 48 57 6d bb
       -0.042728327 -0.030678239 -0.011513304 -0.0036215354
0001f0 60 ce cf 3b b4 40 a7 bd e5 27 86 bd 90 4c 4f bd
       0.0063417405 -0.08166638 -0.06550578 -0.050610125
000200 33 e7 2b bd 99 e1 e6 bc 3a 65 ad bd 51 ba 89 bd
       -0.041968536 -0.028183745 -0.08466573 -0.0672499
000210 a2 b6 3a bd 29 b8 0a bd b1 45 b3 bc 94 f1 b4 bd
       -0.04558433 -0.033867035 -0.021883817 -0.0883514
000220 fc 2b 8c bd 42 cf 1d bd 09 88 de bc 33 bb a5 bc
       -0.06844327 -0.038527735 -0.027164476 -0.020230865
000230 99 ac aa bd 47 93 85 bd 13 49 0d bd db a8 c2 bc
       -0.08333702 -0.065222315 -0.034493517 -0.023762157
000240 64 19 9a bc e5 41 a2 bd 50 f2 86 bd 76 4f 34 bd
       -0.018810935 -0.07922725 -0.06589186 -0.044021092
000250 6a 0f 09 bd 94 8a b6 bc cb 36 97 3b 74 15 d3 3b
       -0.033461966 -0.022282876 0.004614686 0.0064417664
000260 d0 60 f3 3b 7d 70 d7 3b 05 12 d4 3b 85 ed a3 3b
       0.0074273124 0.006574689 0.0064718747 0.00500268
000270 10 04 c7 3b 12 c4 01 3c 44 76 f3 3b 66 c0 de 3b
       0.0060734823 0.007920282 0.00742987 0.006797838
000280 86 b6 2d 3b 9f f8 31 3b 0f 3c 8e 3b f5 bc a6 3b
       0.0026506498 0.0027156246 0.0043406556 0.0050884434
000290 08 b4 a9 3b fb b6 25 3b e0 03 62 3b 0e cf 92 3b
       0.005178932 0.0025286067 0.0034487173 0.0044802492
0002a0 ac 00 a6 3b 31 7a c3 3b 70 ec e0 3a ec 17 8e 3b
       0.005065998 0.005965494 0.0017160308 0.004336348
0002b0 ec 32 a6 3b 34 bf 62 3b 2c 2e ac 3b 87 62 f2 3b
       0.0050719883 0.003459883 0.0052545276 0.0073969993
0002c0 ae 56 07 3c 82 75 21 3c 61 03 15 3c 35 15 0f 3c
       0.008260412 0.009854676 0.009095044 0.0087330835
0002d0 21 6d f2 3b ac 09 03 3c 94 07 21 3c ca f7 13 3c
       0.007398263 0.007997911 0.009828467 0.0090312455
0002e0 47 c2 12 3c 47 d5 a8 3b be db a6 3b fc ea cd 3b
       0.008957452 0.0051523778 0.0050921133 0.006284116
0002f0 12 68 dd 3b 05 5c eb 3b 4f 86 8f 3b 08 1a ab 3b
       0.006756791 0.0071826004 0.0043800245 0.005221609
000300 5b 70 ce 3b e8 71 d6 3b 8b f8 03 3c 0b a2 86 3b
       0.006300015 0.0065443404 0.008054863 0.0041086725
000310 8a c6 d7 3b 8b 06 da 3b 95 7e d1 3b a2 59 ef 3b
       0.006584947 0.006653612 0.0063932636 0.0073043862
000320 60 5c a4 3b eb 86 ca 3b 03 31 eb 3b 3d 0f d3 3b
       0.005015895 0.0061806343 0.0071774735 0.0064410255
000330 c6 bc d3 3b 0b 63 a1 3b a9 26 a5 3b 33 4b d6 3b
       0.0064617125 0.004925137 0.005040009 0.006539726
000340 9e 8f d5 3b 64 c0 d7 3b da 6c 33 3b 4f 78 29 3b
       0.0065173646 0.006584214 0.0027378113 0.0025859063
000350 c7 4f 70 3b a6 14 a2 3b c8 3a b8 3b fe 62 d3 3a
       0.0036668645 0.004946309 0.0056222416 0.0016127524
000360 60 de 29 3b b5 92 2c 3b cd cf a2 3b 06 17 cf 3b
       0.00259199 0.0026332561 0.0049686194 0.0063198833
000370 92 ed 4d 3a 61 05 62 3b a6 28 66 3b 77 85 84 3b
       0.000785553 0.003448807 0.0035119443 0.0040442306
000380 2b a7 c6 3b fd 4f cf bb 22 1b 49 3c 0e f6 90 3c
       0.0060624084 -0.006326674 0.012274535 0.017695453
000390 7f c1 8b 3c b8 d1 5e 3c 33 d4 11 bc a8 3b fd 3b
       0.01706004 0.0135998055 -0.00890069 0.007728059
0003a0 4c 34 84 3c ce 20 96 3c 84 51 86 3c fe b9 aa bb
       0.016138218 0.01832619 0.016396292 -0.0052101603
0003b0 51 c7 df 3b e7 33 82 3c 3e 47 ab 3c 7b 5f a2 3c
       0.0068291803 0.01589389 0.020907994 0.01982092
0003c0 9a 60 a4 bb be ef a3 3b b6 c2 06 3c af ac 84 3c
       -0.0050163986 0.0050029447 0.008225134 0.016195623
0003d0 92 01 95 3c 82 ab d9 bb 26 16 46 3b 48 c7 70 3b
       0.018189225 -0.00664276 0.0030225604 0.0036739875
0003e0 de be 18 3c e2 ab 52 3c 96 1a 3e 3c c4 e0 f6 3c
       0.00932285 0.012858363 0.011603018 0.030136473
0003f0 14 85 15 3d 30 3f 14 3d 8a ce 0c 3d 66 83 19 3c
       0.036503866 0.036193073 0.03437666 0.009369707

momentum_buffer f4 [32]
000000 6c cf d0 3d c2 b4 3a bd ae 90 3a bc 16 fa 1a bd
       0.101958126 -0.04558254 -0.011387033 -0.037836157
000010 a0 a5 f8 bd b4 9b 3e 3d ce f7 b2 3b 8f 0b 06 bd
       -0.121409655 0.04653521 0.0054616695 -0.032725867
000020 86 10 4d 3e ec 0e 0e 3e 8e f9 29 bd 9d 6c 7c 3d
       0.20025834 0.1387288 -0.04149776 0.06162702
000030 f0 e7 e4 3d 6c 53 54 bd 42 83 0a be 21 80 89 3c
       0.11177051 -0.05183737 -0.13526633 0.01678473
000040 b4 23 5c bc d7 7c 50 bc df 0a 86 bd b3 8f 38 be
       -0.013436247 -0.012725077 -0.06545042 -0.18023567
000050 53 b7 4d bc f9 ed ad bc 2c 60 9f 3c 07 80 08 bd
       -0.012555915 -0.021231638 0.019455038 -0.03332522
000060 f8 7c c8 3c 8e e2 1b bd 36 ee c9 3d 62 8b b5 bd
       0.024473652 -0.038057856 0.09859888 -0.08864476
000070 8a e7 14 3d 26 74 52 bd 1b af 91 bd 0e 02 3b bd
       0.036353625 -0.0513803 -0.07113477 -0.045656256

momentum_buffer f4 [32, 32, 3, 3]
000000 42 81 66 bc 7a 32 84 bc 76 d3 94 bc 2f 6c 6a bc
       -0.014068903 -0.01613735 -0.018167239 -0.01430802
000010 4c bf 82 bc e7 4a 8c bc de 5d 60 bc ce 9f 77 bc
       -0.015960358 -0.01712556 -0.013694255 -0.015113784
000020 50 d9 8a bc b8 78 83 bc 89 d8 61 bc fc 14 3d bc
       -0.016949326 -0.016048774 -0.013784536 -0.011540648
000030 fc 41 80 bc e8 ec 64 bc b8 3a 3f bc 51 d0 79 bc
       -0.015656464 -0.0139724985 -0.0116717145 -0.01524742
000040 76 23 6a bc 90 88 37 bc 6c 6d de bb f5 26 05 bc
       -0.014290681 -0.011201993 -0.0067879464 -0.008126964
000050 3a 81 0f bc ea 16 ca bb 6e 38 0c bc 3e 27 05 bc
       -0.008758837 -0.0061672824 -0.008558376 -0.008127032
000060 30 84 ba bb fc 1c d3 bb 6f 8c ef bb 30 cc 6b bc
       -0.0056920275 -0.006442664 -0.007310442 -0.014391944
000070 77 af 71 bc 5f df 35 bc 04 6a 5e bc 6c ff 72 bc
       -0.014751307 -0.011100619 -0.013575081 -0.014831405
000080 43 48 37 bc 3e bb 5f bc ec a6 63 bc 86 d7 43 bc
       -0.011186662 -0.013655482 -0.013894778 -0.01195324
000090 8a a7 ee bc 29 fa db bc fb 20 b6 bc 4a ed ec bc
       -0.029132623 -0.026852684 -0.022232523 -0.028921742
0000a0 c6 cc e2 bc 0a dd be bc 5e fd ec bc 9a d0 d8 bc
       -0.027685534 -0.023298759 -0.028929409 -0.026466656
0000b0 9f c5 bd bc 62 88 99 bc da bb 95 bc ab e6 ab bc
       -0.023165522 -0.01874179 -0.018278051 -0.020984014
0000c0 d4 93 97 bc db ad 9c bc 21 6b a2 bc 6b b2 89 bc
       -0.018503107 -0.01912587 -0.019826474 -0.01680871
0000d0 34 9b 96 bc e5 08 a1 bc 6e 92 b0 bc fa 29 c9 bc
       -0.018384553 -0.019657562 -0.021554198 -0.024556149
0000e0 a2 48 cb bc f9 db a8 bc 23 a6 c2 bc d2 bb cb bc
       -0.024814907 -0.020612704 -0.02376086 -0.024869833
0000f0 34 66 91 bc 39 e5 a5 bc c2 09 af bc 92 85 89 bd
       -0.01774893 -0.020250903 -0.021366958 -0.0671493
000100 5c d4 84 bd 6a 07 81 bd 82 04 86 bd 0e 8e 81 bd
       -0.06485817 -0.06300242 -0.065438285 -0.06325923
000110 42 07 77 bd 08 c5 85 bd 66 63 79 bd fe 09 70 bd
       -0.060309656 -0.06531721 -0.06088581 -0.05860328
000120 bb 90 27 bc ee 8e 69 bc 3a c4 8a bc ae c5 0d bc
       -0.0102273775 -0.0142552685 -0.016939271 -0.008653088
000130 3a 49 3c bc 61 93 7a bc 8c 92 22 bc 06 84 3a bc
       -0.011492068 -0.015293927 -0.009922635 -0.011384016
000140 09 82 66 bc 3a c0 9d bc 55 b9 b1 bc 06 03 cd bc
       -0.014069089 -0.0192567 -0.021694819 -0.025025856
000150 38 11 87 bc cd af 9f bc ef 45 b8 bc 9b 95 64 bc
       -0.016487703 -0.019493008 -0.022494284 -0.013951684
000160 49 61 8d bc b6 28 9d bc 83 41 14 bd 6b e1 0e bd
       -0.017258303 -0.019184452 -0.03619529 -0.034882944
000170 81 7c 0e bd e3 0f 0e bd 92 64 06 bd 94 97 05 bd
       -0.034786705 -0.03468312 -0.032810755 -0.03261526
000180 d9 ac 09 bd b4 33 ff bc b4 2f 05 bd b0 cb e2 bc
       -0.033612106 -0.031152584 -0.032516196 -0.027685016
000190 74 1e da bc 99 d0 cd bc 6c f7 d6 bc b2 d9 cc bc
       -0.02662585 -0.025123881 -0.026241027 -0.025006149
0001a0 90 72 cb bc 2c 72 c4 bc b6 a2 c5 bc a0 b7 b9 bc
       -0.024834901 -0.023980223 -0.024125438 -0.022670567
0001b0 c2 70 c2 bc c1 05 d4 bc 22 78 de bc f8 54 b7 bc
       -0.023735408 -0.02588165 -0.027156893 -0.022379383
0001c0 c4 16 cf bc 3c a3 d7 bc 04 cd ab bc 79 95 c3 bc
       -0.02527941 -0.026322953 -0.020971783 -0.023874985
0001d0 70 6f cb bc 15 74 03 bd 6e c9 02 bd 31 80 07 bd
       -0.024833411 -0.032093126 -0.03193038 -0.033081237
0001e0 d0 df f6 bc e8 39 f3 bc 78 03 02 bd 02 52 ed bc
       -0.030136019 -0.029690698 -0.03174159 -0.028969768
0001f0 17 4e ea bc be 13 f7 bc 0e 8c 90 bd cc 8e 8f bd
       -0.02860169 -0.030160781 -0.07057963 -0.07009658
000200 18 ac 84 bd a4 29 8f bd 35 2f 8e bd d0 47 7f bd
       -0.06478137 -0.06990364 -0.06942598 -0.062324345
000210 b0 b1 8d bd a8 b4 8c bd 3f 0f 7f bd b5 a5 44 bc
       -0.06918657 -0.06870395 -0.0622704 -0.012002398
000220 44 4b 76 bc aa 1f 75 bc 38 52 35 bc 0e 58 78 bc
       -0.015032593 -0.014961163 -0.011066966 -0.015157713
000230 b0 0d 7b bc 91 33 15 bc e2 0e 55 bc b6 e8 65 bc
       -0.015323088 -0.009106533 -0.013004037 -0.014032533
000240 f4 16 7e bc 32 4c 83 bc 8a 77 88 bc 84 38 7d bc
       -0.015508402 -0.016027544 -0.016658563 -0.015455369
000250 e9 d6 85 bc 8e 57 87 bc c4 2c 5f bc c2 25 78 bc
       -0.016337829 -0.016521242 -0.013621513 -0.015145721
000260 38 e0 85 bc 4a e9 ac bc 5f 1d b8 bc 3c ec bb bc
       -0.016342267 -0.021107335 -0.022474943 -0.022939794
000270 cc f7 a7 bc 80 8d b1 bc 34 54 b9 bc 55 f8 8b bc
       -0.020503901 -0.021673918 -0.022623159 -0.017086187
000280 e6 a2 9b bc d8 19 a1 bc d8 79 c9 bc 57 78 c8 bc
       -0.018998574 -0.019665644 -0.024594232 -0.024471445
000290 1f 57 dc bc 1f be b2 bc 24 fc a4 bc 9a 0f d3 bc
       -0.026897011 -0.021819172 -0.020139761 -0.025764275
0002a0 ed af aa bc f4 10 9e bc 5c e9 bb bc a2 26 4a bc
       -0.020835841 -0.019295193 -0.022938423 -0.012338312
0002b0 52 fd 52 bc 26 bd 59 bc 9a 90 40 bc 2a e5 3b bc
       -0.012877779 -0.013289725 -0.011753226 -0.011468211
0002c0 0b 84 4c bc 0f 11 13 bc b7 2a 22 bc c7 a3 2c bc
       -0.012482653 -0.008976235 -0.009897879 -0.010537094
0002d0 69 b6 95 bc bd b5 96 bc c6 42 a4 bc 7f a3 84 bc
       -0.018275457 -0.018397206 -0.020051371 -0.016191242
0002e0 82 86 8d bc df 96 9a bc 4a 6e 72 bc 5d 46 85 bc
       -0.017276052 -0.018870769 -0.014796803 -0.016268903
0002f0 c6 9e 94 bc 97 5c 96 bc d0 13 8b bc c9 cd 88 bc
       -0.018142115 -0.018354697 -0.01697722 -0.016699689
000300 c2 85 8e bc 59 6c 90 bc b0 85 8a bc 94 a3 82 bc
       -0.017397765 -0.01762979 -0.01690945 -0.01594714
000310 5c cc 8b bc 2f 85 89 bc 4d 17 b8 bc 86 ba cb bc
       -0.01706522 -0.01678714 -0.022472048 -0.024869215
000320 1c 45 d0 bc a6 1f a6 bc 37 4d be bc 10 cf d2 bc
       -0.025423579 -0.020278763 -0.023230178 -0.0257335
000330 b6 f3 85 bc 00 18 a7 bc e9 a3 b0 bc 84 1a a3 bc
       -0.016351562 -0.020397186 -0.021562533 -0.019910105
000340 0c 0e a2 bc 70 b4 a2 bc 66 f9 a5 bc 2c 34 b4 bc
       -0.019782089 -0.01986143 -0.020260524 -0.021997534
000350 20 ec aa bc 7c 17 9b bc 61 5c a5 bc 1a 3b a9 bc
       -0.020864546 -0.018932097 -0.020185651 -0.020658065
000360 47 0d a0 bb 2c d9 be bb 66 9d d7 bb 89 6e 5a bb
       -0.0048843953 -0.0058242287 -0.0065800427 -0.0033330044
000370 6d 03 40 bb cf 0e 8b bb 1c db 1e bb 02 89 27 bb
       -0.0029298917 -0.0042437087 -0.0024239486 -0.002556384
000380 5f ff 33 bb 79 1b 24 3b 8f 8c 1f 3b 82 f0 91 3a
       -0.0027465445 0.002504079 0.0024345254 0.0011134299
000390 51 9d da 3a d8 ef 50 3a f1 ea 60 3a 4a 9b c1 3a
       0.0016678964 0.000797031 0.0008579931 0.0014771011
0003a0 f8 bf df 3a 7d 48 c1 b9 02 9e 8c bc 3f 69 90 bc
       0.0017070761 -0.00036865837 -0.017165188 -0.01762831
0003b0 2f b0 8b bc 95 70 86 bc 1d 79 82 bc cc 8b 7e bc
       -0.017051784 -0.016411105 -0.015926892 -0.01553626
0003c0 5d 2b 90 bc 46 9e 8b bc 1f 28 80 bc 2d c3 51 bc
       -0.017598802 -0.017043244 -0.015644131 -0.012802881
0003d0 e6 86 66 bc ee fd 93 bc e0 bd 5f bc 59 05 80 bc
       -0.014070248 -0.018065419 -0.01365611 -0.01562755
0003e0 df b9 95 bc f6 0f 82 bc 14 1f 92 bc f1 1b af bc
       -0.018277107 -0.015876751 -0.017837085 -0.021375628
0003f0 42 7c 94 bc 4c 25 ab bc 13 61 b2 bc fa 67 95 bc
       -0.018125657 -0.020891808 -0.021774804 -0.018238056

momentum_buffer f4 [32]
000000 5a e5 b7 bd e1 a0 0e 3e 34 f1 35 bb 92 7e d0 3a
       -0.08979292 0.13928558 -0.0027762176 0.0015906862
000010 0f 73 9e 3c 2a b5 a8 3d 00 f2 3f 38 e0 ae 59 3c
       0.019341974 0.08237679 4.576333e-05 0.013286322
000020 55 86 05 bd 35 bb 7a 3d e2 dd 9c bc 02 b2 e2 bd
       -0.032598812 0.06121369 -0.01914877 -0.110691085
000030 36 96 c0 bd 09 f2 02 bd 6e dd e5 3c 17 9f 64 bc
       -0.094036505 -0.031969104 0.028059687 -0.013953946
000040 c7 fd 11 bd 98 81 23 3d 29 8d 2f bd 36 f5 ec 3b
       -0.03564241 0.039918512 -0.04285923 0.00723138
000050 7c 2c ec b9 b2 ca c5 bc 3b 18 b4 3c 78 4d 0f bd
       -0.0004504657 -0.024144504 0.02198421 -0.03498599
000060 0a 96 1f bd 23 ab 1c bb 14 33 8e 39 1c 38 f1 3d
       -0.038961448 -0.0023905716 0.00027122407 0.1177828
000070 01 d3 c6 b9 fa e3 93 bc f3 29 81 3c d7 eb 00 be
       -0.00037922713 -0.018053044 0.015767073 -0.12589966

momentum_buffer f4 [64, 32, 3, 3]
000000 8e 95 e7 ba 5b d3 b3 ba 36 73 67 ba 10 81 07 bb
       -0.0017668472 -0.0013719605 -0.00088291185 -0.0020676292
000010 40 52 a2 ba ce 06 8c ba 13 ba f3 ba b2 ca 95 ba
       -0.0012384132 -0.001068318 -0.0018594883 -0.0011428206
000020 35 39 86 ba 67 90 0f ba 26 37 f1 b9 06 f5 23 ba
       -0.0010240438 -0.0005476535 -0.0004600819 -0.0006254468
000030 c5 ad d0 b9 c3 d9 53 ba e8 ef ec b9 89 0b 03 ba
       -0.0003980232 -0.000808146 -0.00045192172 -0.0004998972
000040 74 c4 a8 b9 da b1 a4 b8 c8 ae f2 38 b0 54 7a b8
       -0.00032189826 -7.853257e-05 0.00011572015 -5.9683516e-05
000050 04 6c 98 39 d6 e5 a7 b9 ba 06 4f b9 de 7b 37 39
       0.00029072177 -0.00032023963 -0.00019743564 0.00017498384
000060 b2 82 11 ba d5 6e a2 b9 c0 9d f0 39 44 95 3a b8
       -0.0005550786 -0.00030981624 0.000458939 -4.448487e-05
000070 fc e7 b9 38 84 6d a2 b8 2c 33 a0 39 8c ff 27 38
       8.864698e-05 -7.745161e-05 0.00030555704 4.00539e-05
000080 3b 13 f7 39 f6 56 93 b9 84 a3 b3 b8 a8 91 91 b9
       0.0004712584 -0.00028102816 -8.565842e-05 -0.00027765078
000090 d2 d5 c3 b9 88 0c 28 ba 57 db ad b9 b0 da 27 ba
       -0.00037352607 -0.00064105587 -0.00033160552 -0.00064031314
0000a0 79 6a 3d ba 7e a9 61 ba a9 5f a7 b9 f2 61 87 b9
       -0.00072256435 -0.0008608325 -0.00031923995 -0.00025822181
0000b0 42 f0 34 ba 40 d6 05 ba 40 97 80 38 71 29 8e ba
       -0.0006902256 -0.0005105473 6.131688e-05 -0.0010846091
0000c0 e7 22 98 39 a8 11 99 b9 22 6c f8 38 9b 1f 52 ba
       0.00029017703 -0.0002919559 0.00011845703 -0.0008015574
0000d0 d7 d1 04 ba 9a e8 db b9 a8 90 a3 ba 7c 99 60 ba
       -0.0005066669 -0.00041944237 -0.0012479024 -0.0008567793
0000e0 36 5e a7 ba ec 93 fe b9 da 5c da b9 65 f5 8f b9
       -0.0012769166 -0.00048556866 -0.0004164938 -0.0002745792
0000f0 8c 30 30 ba b4 24 0f b9 66 c2 30 ba a8 64 cb b9
       -0.0006721101 -0.00013651216 -0.0006742835 -0.00038794172
000100 2c bd 18 b9 88 e6 81 b9 e2 f8 dc b9 9c 6a 3d 39
       -0.00014566322 -0.00024776557 -0.00042147102 0.0001806416
000110 c9 a6 39 b9 88 4e fa 38 7e 2c bf b9 c7 df 7a b7
       -0.00017705107 0.000119355565 -0.00036463508 -1.4953263e-05
000120 e2 84 00 ba 5c f0 72 ba bf 87 ce ba 52 d2 06 ba
       -0.00049026136 -0.0009267384 -0.0015757008 -0.00051430345
000130 5f 4a fb b9 95 c6 cc b9 f2 b6 9f b9 77 b9 da b9
       -0.00047929861 -0.00039057867 -0.00030463148 -0.00041718382
000140 c5 a1 9f ba a6 36 0d b9 60 e2 55 ba 07 53 75 ba
       -0.0012178948 -0.00013467166 -0.00081590377 -0.00093583803
000150 66 24 1d ba 34 4a 10 ba b3 b1 8d ba ea 24 f9 b9
       -0.00059944985 -0.0005504221 -0.0010810405 -0.00047520484
000160 c0 40 fe b8 54 9d 08 ba 62 48 83 ba 14 e5 96 ba
       -0.000121237244 -0.0005211432 -0.0010016079 -0.0011512362
000170 b1 af 9c ba ed ff d4 ba fd fa d1 ba 2c c8 a7 ba
       -0.0011954216 -0.0016250588 -0.0016020235 -0.0012800745
000180 88 8e c8 ba 7f 13 b3 ba 72 e4 ab ba 78 f4 86 ba
       -0.0015301267 -0.0013662426 -0.0013114347 -0.0010296246
000190 28 79 22 ba 0c 20 a2 ba d2 9e 8a ba 6c c9 a4 ba
       -0.0006197863 -0.001236917 -0.0010575897 -0.0012572235
0001a0 46 83 14 ba 1a 18 3d ba bf ba 25 b9 ac 46 98 ba
       -0.0005665313 -0.0007213369 -0.00015805195 -0.0011617742
0001b0 5a 15 a5 b8 b2 4f 10 ba 64 bc fc b8 ac bc ac 39
       -7.87179e-05 -0.00055050396 -0.00012051387 0.00032946968
0001c0 a1 ab 9a b9 d8 20 c7 38 9a 04 1b 39 b9 81 dd 39
       -0.00029501042 9.495177e-05 0.00014783666 0.00042249056
0001d0 fe 50 18 39 d2 4d fa b8 fa c1 8c b8 b5 6d 46 39
       0.00014526022 -0.00011935424 -6.711851e-05 0.0001892362
0001e0 8f 40 4c ba 89 63 f4 b8 bb 2f f3 38 fb c1 94 39
       -0.00077916024 -0.000116533665 0.000115960334 0.00028373286
0001f0 48 06 ef 38 6c e1 8d 38 84 47 09 bb cc d8 ef ba
       0.00011397578 6.765392e-05 -0.0020947168 -0.0018298863
000200 ef 65 e7 ba 28 0e 03 bb 2f 7c 10 bb 43 47 e6 ba
       -0.001765428 -0.0019997451 -0.0022046675 -0.0017568845
000210 e9 3e 79 ba b2 ab c9 ba 8c c3 03 bb f3 73 94 3a
       -0.00095079705 -0.0015386252 -0.0020105569 0.001132606
000220 61 29 27 3a 52 59 be 39 86 85 c9 39 d6 86 3f 3a
       0.00063767104 0.00036306173 0.0003843719 0.0007306164
000230 5a 4f 25 3a ca c4 36 3a e6 e0 03 3a 6d cf 66 3a
       0.0006306075 0.0006972073 0.0005030766 0.00088047126
000240 43 55 18 bb 76 62 2b bb fc 31 ef ba 84 14 05 bb
       -0.002324418 -0.0026151217 -0.001824915 -0.0020306418
000250 56 ad ef ba 14 97 e4 ba 84 a5 03 bb 53 59 e6 ba
       -0.0018285911 -0.0017440044 -0.0020087669 -0.0017574228
000260 fa 74 ee ba 8f 58 23 ba ab 49 fa ba a4 45 9b ba
       -0.0018192821 -0.0006231153 -0.0019095441 -0.0011846316
000270 bf 5a bf ba ad 5e ae ba a6 f0 c1 ba fc 97 de ba
       -0.0014599188 -0.0013303362 -0.001479645 -0.0016982551
000280 06 23 be ba 3a 06 c0 ba bc 39 11 ba 67 92 3b ba
       -0.0014506287 -0.0014650293 -0.0005539914 -0.00071552995
000290 36 29 71 ba 5e 41 f3 b9 24 03 4a ba 74 c9 da b9
       -0.00091995613 -0.00046397274 -0.00077061565 -0.00041730294
0002a0 42 ab 6a ba 68 c7 85 ba 92 61 62 ba d8 09 82 b9
       -0.0008951911 -0.0010206522 -0.0008635755 -0.00024802866
0002b0 9d 03 f1 b8 e6 9e 64 38 6e bc b4 b9 50 4e 96 39
       -0.000114924485 5.450742e-05 -0.00034472666 0.00028668577
0002c0 30 d8 b1 37 ba f3 09 b9 00 4c b5 39 5e ee bf b9
       2.1200714e-05 -0.00013156133 0.00034579635 -0.00036607956
0002d0 5a 90 c7 39 17 5d 6d 38 de f2 99 39 f2 1d d3 38
       0.00038063788 5.65919e-05 0.00029363384 0.00010066842
0002e0 18 d6 76 b5 a8 7b 75 b9 11 c8 fc 39 41 dd 62 37
       -9.195369e-07 -0.00023411086 0.00048214247 1.3522164e-05
0002f0 66 63 9c b9 58 fd cf ba a1 b9 a4 ba f8 e9 83 ba
       -0.00029828696 -0.0015868349 -0.0012567529 -0.0010064235
000300 0a 42 56 ba 72 d7 8b ba e1 9f 27 ba 4a c0 a5 ba
       -0.0008173293 -0.0010669066 -0.0006394368 -0.0012645808
000310 ae 95 67 ba 70 a2 40 ba 2c 97 e1 39 2c 34 b2 b8
       -0.00088342547 -0.0007348424 0.00043027976 -8.497419e-05
000320 a1 e7 62 39 b5 10 4d 39 c4 1d 0b 3a 33 f6 00 39
       0.00021639328 0.00019556547 0.00053068646 0.00012298748
000330 5d 03 d9 39 54 63 8d 39 19 84 85 39 9c 66 79 ba
       0.0004139197 0.0002696762 0.00025466157 -0.0009513886
000340 08 0e 42 ba e3 fd 3d ba 6e c8 a6 b8 30 d1 76 ba
       -0.00074026035 -0.000724761 -7.95283e-05 -0.00094153266
000350 88 23 20 ba 41 77 2d ba bc 5d 39 ba da 61 64 ba
       -0.000610881 -0.00066171965 -0.00070711575 -0.0008712091
000360 08 04 81 ba 54 b9 2a ba 8c db 67 ba 40 1f 00 ba
       -0.000984312 -0.00065126014 -0.0008844666 -0.0004887469
000370 56 b5 a7 ba bd e4 8a ba 51 01 6f ba 6e 35 da b9
       -0.0012795131 -0.0010596734 -0.00091173226 -0.00041620008
000380 73 12 28 ba fc 57 80 39 c0 1a 59 b8 f7 3f a9 b9
       -0.00064114406 0.00024479616 -5.1761745e-05 -0.0003228185
000390 80 81 d8 36 ad 67 b2 b9 76 91 d5 b9 c8 ae 86 39
       6.4523774e-06 -0.0003402805 -0.00040734903 0.00025688694
0003a0 10 ab ac b7 05 a5 66 39 62 f3 f9 b9 b5 58 0d ba
       -2.0583655e-05 0.00021995984 -0.00047674315 -0.00053919415
0003b0 e7 ed 6a b9 5d a3 87 39 99 eb 0a b9 61 53 df b9
       -0.00022404605 0.00025870922 -0.00013248473 -0.00042595997
0003c0 01 27 cf b9 42 9d 26 3a fc 26 58 b9 fa bd d6 b9
       -0.00039511177 0.00063558307 -0.00020613888 -0.00040958804
0003d0 3c 87 9a 38 92 ca 88 39 91 6e a7 39 a0 5b 76 ba
       7.3684816e-05 0.00026090868 0.000319351 -0.00093978085
0003e0 c2 58 8a 38 c7 6b fe 39 87 ea 55 b8 2f e9 c1 39
       6.596885e-05 0.00048526956 -5.1001578e-05 0.00036985564
0003f0 79 ac a0 38 f4 dc af 36 87 71 b2 b9 a1 0f 23 ba
       7.66152e-05 5.2411287e-06 -0.0003403539 -0.00062202854

momentum_buffer f4 [64]
000000 9d b4 d4 ba 50 b4 7b b9 ee f0 1b 3b 50 d1 97 b7
       -0.0016228143 -0.00024004397 0.0023794728 -1.8098071e-05
000010 d6 aa b4 3c 0a a0 30 bc dc 5b 6d bc ce 5d 2b 3c
       0.022054117 -0.010780344 -0.014487233 0.0104593765
000020 b7 6b b7 ba 0b 7e 36 39 04 ef ed 3c 54 f3 24 bd
       -0.0013993894 0.00017403827 0.029044636 -0.04027112
000030 c3 f8 2f 3d 42 39 b7 3b 6b 45 02 3a 70 56 a4 3a
       0.042961847 0.0055915425 0.00049694505 0.0012537967
000040 ef 84 fa 3a ae 33 8c bc 89 5b 9d bc b6 ca 63 39
       0.0019113104 -0.017114487 -0.019208686 0.00021723923
000050 42 01 a0 3c 7d b4 cf 3a ec 22 d9 b7 22 c8 a6 3a
       0.01953185 0.0015846636 -2.5884678e-05 0.0012724439
000060 82 a2 fd 3c 02 4b f9 3c d6 24 6c 3b ac 7a 76 bb
       0.030961279 0.030431274 0.0036032698 -0.003760974
000070 69 6a a2 bb c8 36 ce bc 5a a6 14 3b ab a5 11 3a
       -0.0049565327 -0.025172606 0.002268216 0.00055559975
000080 54 0d 47 3d dc b7 be bb 10 40 f4 bc 78 80 50 3c
       0.048596695 -0.0058202576 -0.029815704 0.012725942
000090 db 57 54 b9 0a ba 02 bc 70 b0 ac 3c c2 05 91 39
       -0.00020250624 -0.0079789255 0.021080226 0.00027660845
0000a0 70 94 42 bd 70 34 80 bc 88 59 04 3a 92 bb a1 3a
       -0.047504842 -0.015650004 0.00050487416 0.0012339226
0000b0 44 a3 ef ba 1e bb 56 3b b8 76 42 3c a4 be 6a 3c
       -0.001828291 0.003276534 0.011869125 0.014327679
0000c0 e0 2d 13 b8 7c 3a f0 ba 9c b0 34 3d e4 c9 a8 3b
       -3.5090256e-05 -0.0018327977 0.04411374 0.0051510204
0000d0 fc e7 49 ba a1 c8 35 bd 61 07 84 bb ba 90 86 bc
       -0.000770211 -0.044380788 -0.0040292 -0.016426433
0000e0 be 66 be bc 4a cb 3c bb f3 b7 31 3a 53 ff 50 ba
       -0.02324235 -0.0028807693 0.0006779425 -0.00079726166
0000f0 96 d9 8f bc 51 fc 18 3d 68 59 5e bd a3 e9 2a b8
       -0.017559808 0.037350003 -0.054284483 -4.074875e-05

momentum_buffer f4 [64, 64, 3, 3]
000000 c9 28 a6 b9 95 45 08 b9 a5 91 90 b9 6c 99 58 39
       -0.00031692375 -0.00012995892 -0.00027574334 0.0002065652
000010 cb 97 94 b8 db a8 33 3a 76 d5 e3 38 d2 70 7a 39
       -7.0854636e-05 0.00068534695 0.00010863964 0.00023883887
000020 cc 49 8b b9 47 37 c4 37 54 13 dc 39 2e 24 7a b8
       -0.0002656713 2.3390761e-05 0.0004197607 -5.963834e-05
000030 4e a3 9b b7 a0 ee 72 39 28 8b b4 38 8f 9d 2e ba
       -1.8553485e-05 0.00023167813 8.608989e-05 -0.00066610513
000040 d2 29 0d b9 41 8f 97 39 e9 f6 c5 b9 d4 38 7f 39
       -0.00013462387 0.00028907697 -0.0003775873 0.00024339865
000050 5c 82 57 b8 ca 82 d6 b9 5f 68 a0 39 66 45 63 39
       -5.13814e-05 -0.00040914706 0.0003059534 0.0002167426
000060 55 af e1 b9 de c3 6a 39 21 e5 18 ba d9 60 02 b9
       -0.00043045977 0.00022388945 -0.0005832483 -0.00012433845
000070 4d 1b cc b9 04 53 54 39 ad ea 21 ba 72 12 b7 39
       -0.00038930253 0.00020248821 -0.0006176632 0.00034918223
000080 7c 71 06 39 22 e2 8e b9 7e b3 0a b6 af cc 29 b8
       0.00012821512 -0.00027252833 -2.066808e-06 -4.0483366e-05
000090 24 2a 4f 3a 4a 46 e0 3a 3d d9 2a 3b 06 44 42 3a
       0.0007902703 0.0017110792 0.0026069426 0.0007410649
0000a0 02 33 ed 3a ca b0 3e 3b 53 35 18 3a af d7 f6 3a
       0.0018096867 0.0029097074 0.0005806286 0.0018832589
0000b0 f7 b8 13 3b 02 40 e1 3a 6e a0 23 3b 8e 24 4a 3b
       0.0022540668 0.0017185214 0.002496745 0.0030844542
0000c0 e6 1f d5 3a d6 70 24 3b fe dc 42 3b 6e 38 af 3a
       0.0016260117 0.002509167 0.0029733772 0.0013368258
0000d0 be 31 00 3b 55 09 1c 3b 32 06 01 3a 92 70 1d 3a
       0.0019560899 0.0023809273 0.00049218826 0.0006005849
0000e0 8a 10 3f 3a b8 f7 dd 39 06 bf 35 b8 d2 7f fa 39
       0.0007288536 0.0004233697 -4.3331667e-05 0.0004777895
0000f0 ce 9b 13 3a 7e 83 46 3a ae 63 84 39 04 70 09 3b
       0.00056308217 0.00075726944 0.0002525127 0.0020971308
000100 fb d0 4c 3b a4 10 89 3b de 47 cc 3a d6 e7 65 3b
       0.0031252492 0.004182892 0.0015585383 0.0035080812
000110 e2 0f 5e 3b 8e 7d 03 3b fe 2f 3a 3b 26 37 4b 3b
       0.0033883979 0.002006385 0.0028409953 0.0031008213
000120 c0 6f 04 ba 19 54 b6 b9 0e 52 dd b9 b1 ba 8f 38
       -0.00050520524 -0.00034776403 -0.0004221354 6.853545e-05
000130 8f c7 0b ba ab a3 9d 38 26 c7 df b8 e9 da 2a b9
       -0.0005332166 7.516829e-05 -0.00010670563 -0.00016294014
000140 d6 af 0c ba a2 05 de b7 88 73 06 38 ee 5c 83 39
       -0.0005366778 -2.6467085e-05 3.2055686e-05 0.00025055505
000150 38 eb 05 3a 5a 32 70 b9 88 a2 b5 38 d8 88 d5 b9
       0.00051085977 -0.00022906941 8.6610264e-05 -0.00040728482
000160 f3 5e 8e 35 77 f9 e3 b9 43 d3 11 3a 8d 9f 95 3a
       1.0607458e-06 -0.0004348268 0.00055627915 0.0011415348
000170 ce d1 a8 3a 2e 67 3b 3a f1 02 6a 3a c8 a7 f5 3a
       0.001287991 0.0007148859 0.000892683 0.0018742019
000180 b3 ee 31 3a e8 9f f3 39 7f b8 a3 3a 58 2c 5c 3b
       0.0006787583 0.0004646771 0.0012490897 0.0033595767
000190 fa bd 8e 3b 51 4f 8b 3b 9e a2 95 3b bb 92 96 3b
       0.004356143 0.0042513986 0.0045665046 0.0045951284
0001a0 a0 bd 99 3b 4a 35 57 3b 24 40 a5 3b 2e 56 8e 3b
       0.0046917945 0.003283816 0.0050430465 0.0043437695
0001b0 5a 62 4c b8 54 29 36 3a fe 2e 45 3a cb 26 c0 b9
       -4.8728987e-05 0.00069489074 0.0007521956 -0.00036649997
0001c0 74 05 98 39 8f b6 68 3a 66 dc 24 ba 1e ea d1 39
       0.00028995762 0.0008877301 -0.00062889454 0.00040038017
0001d0 54 b1 ae 39 56 6b fd 38 1b 2d 80 3a d7 8d 81 3a
       0.00033319986 0.00012083973 0.0009779067 0.000988419
0001e0 e0 0f eb 39 86 02 b6 3a 7d bf aa 3a a3 85 e4 39
       0.0004483452 0.001388625 0.0013027039 0.00043587116
0001f0 c8 7b 3e 3a 5e 32 ed 3a e8 e6 cc b8 82 4d 8f 38
       0.00072663696 0.0018096676 -9.770488e-05 6.833208e-05
000200 1e ec a1 39 45 74 b3 b9 2a 25 0d 3a a7 15 b6 39
       0.00030884234 -0.00034228168 0.0005384261 0.00034729877
000210 d9 ee 40 b9 ce 0f ed 39 6b bd 30 3a 6e ef 19 39
       -0.00018399525 0.00045215938 0.00067420927 0.00014680412
000220 e2 84 0f 3a 27 fe 67 b9 59 e4 0b 3a f8 ed 8a 39
       0.0005474818 -0.00022124556 0.00053364557 0.00026498712
000230 ad f7 01 b8 3f b2 88 b9 3c 8f 20 b8 de 70 d8 39
       -3.0986663e-05 -0.00026072745 -3.828037e-05 0.00041282823
000240 90 94 71 39 0d 9a 65 3a 38 46 34 3a d8 8b a0 39
       0.00023038895 0.0008758612 0.00068769185 0.0003062177
000250 cb 65 fc 39 91 e9 cf 3a 5c b6 f4 b8 24 c5 c6 37
       0.00048141027 0.0015862455 -0.00011668794 2.369524e-05
000260 5e c6 01 3a 46 13 b4 3a c6 02 5f 3a 2f ff 82 39
       0.00049505185 0.0013738654 0.0008507188 0.0002498566
000270 5d 08 b0 3a 78 67 82 3a 28 06 96 39 39 06 af 3a
       0.0013430227 0.0009949049 0.00028614816 0.0013353295
000280 29 cc 8d 3a 50 b6 64 3a f2 06 fe 3a f7 ca 0a 3b
       0.0010818291 0.00087246764 0.0019380732 0.0021178105
000290 1e 25 ff 3a 7c cf f5 3a 1c 43 22 3b d0 61 22 3b
       0.0019466018 0.0018753852 0.0024759239 0.002477754
0002a0 9a 82 fc 3a 92 04 0d 3b b6 1e 0c 3b e4 80 99 39
       0.0019264997 0.0021517617 0.002138061 0.00029278465
0002b0 2d dd 0f 3a 84 64 30 ba 60 39 13 b8 e7 68 b0 b8
       0.0005487975 -0.0006728845 -3.5100966e-05 -8.4118736e-05
0002c0 c1 54 70 b9 fd b1 a9 39 3a b8 92 38 39 cf d0 b9
       -0.00022919757 0.00032366803 6.9961374e-05 -0.00039827244
0002d0 28 e4 96 38 65 5d 82 3a 35 35 b7 3a 22 a9 4f 39
       7.195055e-05 0.0009946047 0.0013977649 0.00019804065
0002e0 df 37 a4 3a 98 7e a4 3a 86 17 92 38 87 eb 85 3a
       0.0012528858 0.0012549935 6.966204e-05 0.0010217287
0002f0 a7 e3 3d 3a 05 c6 43 ba 73 2a 6b b9 24 d8 f3 38
       0.00072437007 -0.0007468167 -0.0002242716 0.00011627402
000300 cc 3b 9d 39 26 e3 09 3a b1 4e b3 39 04 0c 08 b9
       0.00029989926 0.0005259983 0.0003420017 -0.00012974447
000310 e1 67 b5 39 cb 6b 11 b9 d3 98 43 b9 4e 49 91 38
       0.00034600406 -0.00013868434 -0.0001865358 6.927793e-05
000320 7e 92 c8 38 dd a5 23 b9 27 7f f1 37 a9 c2 5b b8
       9.5640295e-05 -0.0001560668 2.8788649e-05 -5.239496e-05
000330 43 67 eb b9 7b 89 19 b7 e5 db 8b b9 fd e3 8a 38
       -0.0004489963 -9.15152e-06 -0.0002667598 6.622819e-05
000340 7a 4c 14 39 91 53 04 3a 86 1d f9 39 af 14 9b b9
       0.0001414287 0.0005047853 0.00047514978 -0.00029579314
000350 6f 0f ac 39 4c b3 c6 b7 19 ed 0b 3a de 8e b5 38
       0.00032817895 -2.3686931e-05 0.00053377595 8.657364e-05
000360 e7 bd 09 3a cf d5 b2 3a ac 59 01 3b 68 2b 00 3a
       0.0005254433 0.0013644042 0.0019737286 0.00048892805
000370 f3 25 50 3a 20 a2 bb 3a ea 84 e3 38 ee dd 7b 3a
       0.0007940225 0.0014315285 0.00010848961 0.000960796
000380 08 e5 85 3a fe d7 fd 38 0b d0 1a 3a 44 4b 73 3a
       0.0010215351 0.00012104212 0.00059056346 0.000928093
000390 9f 31 1c 39 ca 7b 1c 3a 4a 65 51 3a 7c 2c dc b8
       0.00014895805 0.0005969374 0.00079878105 -0.00010498703
0003a0 e8 fc 3f 38 cc 4a 04 3a 2f 9a d6 b9 08 88 5f 36
       4.5773486e-05 0.0005046546 -0.00040932136 3.330877e-06
0003b0 a6 76 fe b9 52 77 97 b9 72 32 14 38 70 81 82 ba
       -0.00048535055 -0.00028889865 3.533293e-05 -0.0009956788
0003c0 0f 88 d8 b9 04 06 23 b9 be 49 99 b9 2c c4 6f 38
       -0.00041300102 -0.00015547132 -0.00029237376 5.716474e-05
0003d0 06 11 43 b9 84 a8 f4 b9 b7 f4 9b b9 a0 5f 00 ba
       -0.00018602991 -0.0004666486 -0.0002974623 -0.0004897062
0003e0 4e 05 2b 39 f6 ec b8 b9 9a 67 2a 39 02 ec f3 39
       0.00016309807 -0.00035271765 0.00016251058 0.0004652441
0003f0 2b 2f 04 3a e4 84 3b 3a 22 ef c7 39 48 24 fe 39
       0.0005042429 0.0007153286 0.00038134406 0.00048473687

momentum_buffer f4 [64]
000000 e9 48 09 3b df fd 30 bc 16 75 98 b8 9c 8b 80 bb
       0.0020948 -0.010802715 -7.269734e-05 -0.0039228927
000010 4f fa e7 b8 bf f3 c0 b8 6a 80 fd b9 ba cb 2e bc
       -0.00011061562 -9.200675e-05 -0.00048351596 -0.010668689
000020 86 fb 04 b9 8e 1a 8b 38 5f ce 31 3b b5 a6 90 38
       -0.00012682201 6.632983e-05 0.0027131063 6.897507e-05
000030 05 ff 15 bc c8 fd ff b7 08 71 58 39 08 86 c7 bc
       -0.00915504 -3.0516545e-05 0.00020641473 -0.024355903
000040 de a1 84 bc 3b 37 cf bb 74 ab ce 39 99 8a e8 3a
       -0.016190466 -0.0063237227 0.00039419124 0.0017741501
000050 cf 21 74 3c 90 b4 d3 bb f7 af b1 bb 98 bf c8 3b
       0.014900639 -0.0064607337 -0.005422588 0.0061263554
000060 dc 62 2b bc e8 8e 7b 3c 67 cd bb b9 13 cb 79 3c
       -0.010460582 0.015353896 -0.00035820456 0.015246171
000070 8b 38 51 b9 58 f6 38 3c 34 de 93 3b b3 06 95 ba
       -0.00019952857 0.011289202 0.0045125727 -0.0011369794
000080 85 b7 c0 3b b1 1c 15 3a 6d 82 7e ba 74 ed 88 bc
       0.0058812522 0.0005688174 -0.0009708766 -0.016714789
000090 82 ce 5b b9 3a fe 07 39 21 90 b9 b9 cc ae 7d 3c
       -0.00020962398 0.0001296931 -0.00035393334 0.015483569
0000a0 4a ef c3 3a 09 c4 8e ba 19 51 69 3b aa 7c 8a 3c
       0.0014948633 -0.0010892163 0.0035601316 0.016905148
0000b0 39 41 8a b6 06 5f 7c bc eb 9f 31 bc d9 b6 58 bc
       -4.1203134e-06 -0.015403515 -0.01084135 -0.013227188
0000c0 64 33 53 b9 c9 6d 0e 3b bc 8c 80 3c f8 73 65 38
       -0.00020141673 0.0021732918 0.015692107 5.470586e-05
0000d0 f8 02 35 bb 5a 08 ed 3b 0a 02 eb ba 13 c2 1a 3b
       -0.0027620178 0.0072336616 -0.0017929685 0.0023614212
0000e0 12 78 b7 39 6c 1b 65 b9 5b 28 85 b8 8c bb a2 39
       0.0003499394 -0.00021849357 -6.349451e-05 0.0003103878
0000f0 ff 19 5c 3a 3a c5 bb 3a 64 2d 1f bc 57 9a 94 bc
       0.00083962077 0.0014325746 -0.009715412 -0.018140001

momentum_buffer f4 [1, 64]
000000 00 1e b6 b7 99 25 b2 bd c6 a5 60 ba ee ff 16 bd
       -2.171006e-05 -0.086985774 -0.0008569624 -0.036865167
000010 2a 03 f3 b8 56 a1 27 b8 55 a7 4e 3a 52 83 bb bd
       -0.00011587732 -3.996616e-05 0.0007883211 -0.09155907
000020 2d 0d 1d 3a e2 6c 79 3a 0a 90 2a bd c3 56 07 39
       0.0005991038 0.0009514821 -0.041641273 0.00012906925
000030 de 75 6c bd dc 03 ac 39 4c 99 84 3a dc 37 2a be
       -0.057729594 0.00032809272 0.0010116487 -0.16622871
000040 51 7c 0a be 28 d8 d1 bd 76 49 86 3b 49 77 b0 bc
       -0.13523985 -0.10246307 0.0040981127 -0.021541255
000050 92 5d 89 bc ca 12 82 bd 84 b2 07 bd b8 2e a8 bc
       -0.01676825 -0.0635124 -0.03312923 -0.02053009
000060 53 6f b6 bd ba c8 02 bd 26 e5 3f 3a 98 23 5f 3b
       -0.08907952 -0.03192971 0.00073202176 0.0034048315
000070 84 15 a3 36 05 a6 06 bd 03 90 09 bd 13 05 05 bd
       4.8602833e-06 -0.032873172 -0.033584606 -0.032475542
000080 f7 3a 22 bc 17 cf ec bb db 4d 25 ba 29 47 06 be
       -0.009901754 -0.0072268355 -0.0006305852 -0.13113083
000090 30 4d ea bc d1 69 50 b9 45 8b 54 bb 90 79 c8 ba
       -0.028601259 -0.00019875845 -0.0032431644 -0.0015295018
0000a0 54 b4 0b bc 1f 90 1e bb ea f4 47 bd 18 3f 8f bb
       -0.00852688 -0.002419479 -0.048817553 -0.004371535
0000b0 19 b2 77 39 79 76 a3 bd 0e 87 f0 bd 45 4e c4 bd
       0.00023622102 -0.07981581 -0.1174451 -0.09585241
0000c0 0d 62 10 ba 1c 02 86 bc 46 c6 8e bc aa 91 ce 3a
       -0.0005507775 -0.016358428 -0.017428529 0.0015759964
0000d0 0c 67 3a bd 64 35 77 bc 74 64 1e bb 9b 17 a4 bc
       -0.04550843 -0.015088413 -0.0024168761 -0.020030787
0000e0 dc be 36 3b 5c ee 36 ba 5a 04 e7 ba 34 c5 66 3a
       0.0027884757 -0.00069782673 -0.0017625198 0.0008803189
0000f0 09 9a 87 ba 87 55 0a bc 00 e7 5a bd de 0f 28 be
       -0.0010345589 -0.008443243 -0.053442955 -0.16412303

bn0.weight f4 [3]
000000 ab 37 92 3f 80 aa 86 3f 43 b9 8c 3f
       1.1423239 1.0520782 1.0994037

bn0.bias f4 [3]
000000 80 b3 62 bc 34 7c 2a be cb f0 c1 3c
       -0.013836741 -0.16648942 0.02367439

bn0.running_mean f4 [3]
000000 14 bc f9 3e a2 11 e5 3e dd d6 cf 3e
       0.48776305 0.44740015 0.40593615

bn0.running_var f4 [3]
000000 43 ea 84 3d d3 95 76 3d 6d 65 79 3d
       0.064899944 0.060201477 0.060887743

conv1.weight f4 [32, 3, 5, 5]
000000 25 ab 85 3d 6e d2 ac 3b 2c de 5f bd c2 4f be 3d
       0.06526784 0.0052741086 -0.05465524 0.09292556
000010 c2 38 f8 ba e0 de b0 3c 08 1c 26 3d 60 35 a0 3d
       -0.0018937814 0.02159065 0.040554076 0.078226805
000020 0f f4 68 bd 1c 06 5f 3d d0 a7 23 3d 6d 08 e9 3d
       -0.056873377 0.054449186 0.03995496 0.1137856
000030 f0 04 6b bc 08 82 f9 bc bf 01 3f 3d ca 97 bf 3b
       -0.014344439 -0.030457512 0.046632525 0.005846952
000040 dd d3 b2 3b f0 fb 20 3d 77 2a 68 3c cc 8c df 3d
       0.005457385 0.039302766 0.014170281 0.10915527
000050 71 ad d0 bc 80 03 41 bc 06 0f a8 3c 78 91 50 3d
       -0.025473328 -0.01178062 0.020514976 0.05091998
000060 fb 2e ce 3c 9c df 7d bc 9d 4f 6d bc 3f 65 27 3b
       0.025168886 -0.015495207 -0.014484313 0.0025542525
000070 4a 15 2f 3d e7 51 99 bd 28 6c 94 bd b1 23 2d bc
       0.042744912 -0.07486325 -0.07247192 -0.0105675915
000080 57 96 0c bd 1f 81 4f bd 40 09 d8 bc d4 df 94 bd
       -0.034323063 -0.05066025 -0.026371598 -0.07269254
000090 be 83 4d bc 3e 5b b5 3b 1c 89 f3 3c 4f 5f 81 bd
       -0.012543617 0.0055345586 0.029728465 -0.06317007
0000a0 19 ed 35 3d 87 aa 8e bd be 66 94 3b 32 0f 8a bd
       0.044415567 -0.06966119 0.0045288494 -0.067411795
0000b0 50 d1 d1 3a 1b 32 68 bd 9f 4c 40 bd 08 39 b6 bd
       0.0016007815 -0.05668841 -0.04694807 -0.088975966
0000c0 93 6d ba bd 55 06 85 bd 07 d6 ed bb 0b a5 ec bc
       -0.09102931 -0.06495348 -0.00725818 -0.028887292
0000d0 c0 31 84 bc cd bd 73 bd 2b 94 06 3d bf f0 72 bb
       -0.016137004 -0.05950718 0.032856148 -0.0037069765
0000e0 7b 8b 96 b9 81 ca 9f bc a9 11 fc bc 31 7c 87 bd
       -0.0002871415 -0.019505741 -0.03077014 -0.066154845
0000f0 65 25 1f 3d 94 38 6e 3b ad f2 3b 3d d0 12 f4 bc
       0.03885402 0.003634964 0.04588573 -0.029794127
000100 a9 c3 04 bd ac ef 90 bc e8 8f cd 3c ef 5d 36 3d
       -0.03241316 -0.01769241 0.025093034 0.044523176
000110 5f 16 79 3d bb db 05 3e 89 22 c6 3c 10 f6 86 bc
       0.06081235 0.13072102 0.02418639 -0.016474754
000120 8e 55 f2 bc 91 4f e1 bd 89 9d 18 bd 21 06 a2 3d
       -0.029581811 -0.11001504 -0.037259612 0.07911325
000130 2e e0 59 bd ed 31 10 bd 0d 8e 9c 3c aa c2 e7 3b
       -0.05319231 -0.035203863 0.019110704 0.0070727663
000140 eb ef a3 3b 53 8a c4 3c b8 00 4d 3d 96 af 37 bd
       0.0050029657 0.02399174 0.050049514 -0.044845186
000150 cf 72 60 bc c1 64 96 bd 7a 9c 87 3d 3d 6a 3e 3c
       -0.0136992475 -0.07343436 0.066216424 0.011622009
000160 8b f8 83 bd 21 3f 33 bb 47 21 18 3d ac bd be 3d
       -0.0644389 -0.002735086 0.03714111 0.09313521
000170 90 86 87 bd 35 fe 78 bd 28 54 47 3c 39 b1 8f 3c
       -0.06617463 -0.060789306 0.0121660605 0.017540561
000180 55 03 44 3d f3 31 dd bc c2 99 18 3b ba 77 df bc
       0.04785474 -0.027001357 0.0023285006 -0.02727877
000190 e2 74 53 3d 0a 3a 7d 3c 6d fa df 3d ba 91 01 bc
       0.05162514 0.015455732 0.10936437 -0.007908279
0001a0 a1 b3 fe bd ee ca 9b bc 4d 6c 86 3c 09 46 5d 3d
       -0.12436605 -0.019017663 0.016409064 0.05402187
0001b0 31 93 8a bc e3 4b 1f bb 2f 7a 5e 3d c2 5c 8d bd
       -0.01691589 -0.0024306707 0.054315742 -0.06902458
0001c0 d5 9e 4f bd cc f1 f6 bb 66 ee 00 3d 89 b6 22 3d
       -0.050688583 -0.0075361487 0.031477354 0.03972486
0001d0 a7 a5 cf 3c c0 0d 48 3d 0e ac 2e bd fa 1c 71 3d
       0.025347544 0.048841238 -0.042644553 0.058865525
0001e0 9a f0 76 3d 60 13 48 bd 26 90 0e bd 3b e6 65 3c
       0.06028805 -0.048846602 -0.03480544 0.014031942
0001f0 c2 14 0d bc e2 91 19 3d 86 68 61 3b 91 18 04 3c
       -0.008610906 0.03749264 0.0034394576 0.008062498
000200 45 52 48 bd cf 93 fd 3c 96 70 04 3d 42 2b c2 bc
       -0.048906583 0.03095427 0.032333933 -0.023702268
000210 e4 7a e7 bc 02 09 66 3b 3a f8 c3 bd f9 a2 50 3d
       -0.028256841 0.0035100584 -0.0956883 0.050936673
000220 dd 17 44 bc 7d 91 a0 bd d0 41 12 bd a3 e3 9c 3c
       -0.01196858 -0.0784025 -0.035707295 0.019151514
000230 19 b5 c8 3d d0 5f e9 3b cc e1 9e 3c 4c dc cc bc
       0.09800167 0.0071220174 0.019394778 -0.02500739
000240 69 71 61 3b ee 61 0b bb 15 17 c4 bb 91 b0 42 3d
       0.0034399873 -0.0021268087 -0.005984197 0.047531668
000250 9b 4a a1 bd 1f 9f df bc 95 e1 91 bd 35 b8 8c 3b
       -0.07875558 -0.027297555 -0.071231045 0.00429442
000260 a0 4b da bc 84 63 31 bd 6d 81 29 bd 47 df 1d 3b
       -0.026647389 -0.043307796 -0.041383196 0.0024089382
000270 3b 35 3a 3d ee ae 9a bc 9c 20 3a 3c 13 1f 89 3c
       0.04546092 -0.018882241 0.011360314 0.01673845
000280 96 b3 b8 bd 13 d7 32 bd 99 c5 f8 bb ee ce 21 bc
       -0.09018628 -0.043662142 -0.007591915 -0.009875996
000290 70 4d 84 bc 55 52 9c 3d 3c 80 5a ba 60 37 8e 3d
       -0.016150206 0.07632891 -0.00083351484 0.06944156
0002a0 cf 31 0d bd f1 8f d4 bb 32 f4 36 3d 50 45 95 bd
       -0.03447133 -0.0064868857 0.044666477 -0.07288611
0002b0 8d 41 c5 3d 19 c8 bb bd 16 49 2a bd c6 53 18 bc
       0.096316434 -0.09169025 -0.041573606 -0.009297317
0002c0 8f 00 cc bd a2 f3 92 3c e0 dd a7 3c 27 74 91 bc
       -0.09961044 0.017938439 0.02049154 -0.017755581
0002d0 fc 11 7b 3b 1b 17 b0 3b 0f 48 07 bc 32 c6 1a bd
       0.003831028 0.005373848 -0.008256926 -0.03778667
0002e0 28 be 88 3d 79 73 54 bd 54 01 d8 3c f0 38 04 3d
       0.066768944 -0.051867936 0.02636782 0.032280862
0002f0 bd f2 83 bc bf c7 73 3c e5 ba b9 3a 0b eb da bc
       -0.016106958 0.014879166 0.0014170079 -0.026723405
000300 70 60 be 3d 30 1d a3 bd 9d 8c d9 3c 26 fb 81 3d
       0.09295738 -0.079645514 0.026556307 0.06346731
000310 93 e4 ca bc 11 14 c7 3c c0 68 96 3d 7b 51 c0 bd
       -0.024767196 0.02430156 0.07344198 -0.09390541
000320 19 e7 35 3c 23 93 0f 3d 46 6b b6 3d f5 f0 98 3b
       0.011102461 0.03505243 0.089071795 0.004667396
000330 b2 a9 b1 bc 37 53 42 3c 26 45 17 3b 05 1e 34 bd
       -0.021687362 0.01186066 0.0023081987 -0.04397394
000340 9c df 56 bd 4b bd ba 3b a3 dc b9 bd ee 42 85 3d
       -0.052459344 0.005698835 -0.09075286 0.065069064
000350 a7 8c 8d 3d 02 08 bd ba f8 24 f3 bc a6 99 ab bc
       0.06911593 -0.0014421942 -0.029680714 -0.020947289
000360 35 56 2d 3d e1 74 40 bd 66 e1 62 bc b9 ff 7d bd
       0.04231854 -0.046986464 -0.0138476845 -0.062011454
000370 20 61 ff bc be 89 44 bd b4 54 10 bc 16 9a c2 3c
       -0.031174242 -0.047982924 -0.008809257 0.023755115
000380 80 ad fd bc c9 2d 18 3e 17 d0 2b bd e5 0f 3b bd
       -0.03096652 0.14861216 -0.041946497 -0.045669455
000390 8f ac f9 3d d7 ac be bd c8 dd fb 3c ce d2 ab bd
       0.12191116 -0.0931031 0.030745402 -0.08389817
0003a0 1a 77 24 bd f1 d8 aa bd fb fb 5f 3d d9 4a b5 3c
       -0.040152647 -0.083421595 0.054683667 0.022130417
0003b0 01 51 19 3d 4e d6 e5 bb ee f1 a6 3c f4 26 85 bd
       0.037430767 -0.0070140725 0.020379033 -0.0650157
0003c0 db 43 72 bc d5 ce 50 3d c0 96 ac bd fc 06 03 bd
       -0.014786686 0.0509785 -0.08427191 -0.031989083
0003d0 7f 47 be bc ce 27 d6 3d 6f 8b 88 3c 32 46 bf bb
       -0.023227451 0.10456811 0.01666805 -0.0058372254
0003e0 8d 9d 45 3d 81 bc a7 bd c4 dd fb 3c f1 08 98 bc
       0.048245955 -0.08190251 0.030745395 -0.018558951
0003f0 4b a0 be bc a2 ed 96 3b 42 19 39 3d 04 76 6f 3c
       -0.023269793 0.0046059648 0.045190103 0.014615539

conv1.bias f4 [32]
000000 37 9d 50 bd 16 89 52 bd 98 f3 52 bd 68 a6 3f 3d
       -0.05093118 -0.051400267 -0.05150184 0.046789557
000010 ec e8 1b 3c 2a 62 c5 3d 9c 5c 3e 3d be fe 2f 3d
       0.009515982 0.09637864 0.046475038 0.04296755
000020 28 fa 53 3d 08 11 18 3b e5 72 c4 3d 40 74 95 bd
       0.05175224 0.002320351 0.09592227 -0.072975636
000030 38 e9 0f 3e c3 9c e9 3d 79 4c 9d 3d 23 59 c5 3d
       0.1405381 0.11406853 0.076806016 0.09636142
000040 c2 60 ed 3d 30 f8 e6 3d 34 b3 05 3d d9 d7 2a be
       0.11590721 0.11277807 0.032641605 -0.16683902
000050 05 eb 52 3d 9c 7d 3c 3e a3 b5 fb bc f8 79 53 3d
       0.051493663 0.18407291 -0.03072626 0.05162999
000060 ef 15 71 bd 7c 7d 6a bc 20 de e6 bd 1b e2 c7 3d
       -0.058858808 -0.014312144 -0.11272836 0.09759923
000070 33 55 1c 3d 72 37 18 3d a1 82 e8 bd 3c c4 82 3d
       0.03816719 0.03716225 -0.113530405 0.06385085
