Ratio_Reverse_wo_GRL/checkpoint_step_0235.pth (torch_old, 541543 bytes, 24 tensors)

momentum_buffer f4 [3]
-0.11435708 0.13896619 -0.13396528
00000000: 0b34 eabd 274d 0e3e 322e 09be

momentum_buffer f4 [3]
0.2964061 -0.07548152 -0.2298095
00000000: 8ac2 973e 0e96 9abd 2e53 6bbe

momentum_buffer f4 [32, 3, 5, 5]
-0.052170046 -0.05279593 -0.04375892 -0.03684599 -0.042783715 -0.062158056 -0.06283188 -0.051431656
-0.042165827 -0.048400182 -0.06498633 -0.067838594 -0.060711857 -0.05137819 -0.057523668 -0.056921657
-0.059413105 -0.05503784 -0.050097473 -0.05992439 -0.04297223 -0.0416511 -0.035062727 -0.029004266
-0.04171621 -0.016514685 -0.01799713 -0.00997234 -0.0044654515 -0.010478571 -0.027148683 -0.029299082
-0.019432733 -0.009987146 -0.016204605 -0.03104828 -0.0357846 -0.029118491 -0.020014253 -0.026398325
-0.021546206 -0.026675865 -0.023966212 -0.019987628 -0.028995568 -0.007386286 -0.008248856 -0.0045505855
0.0004659593 -0.010660849 0.032725107 0.030689135 0.03725155 0.040765394 0.034749523 0.023089811
0.02061894 0.028868195 0.03655909 0.029230868 0.016888957 0.01131998 0.016848598 0.024811033
0.019125655 0.021422198 0.016053557 0.018158898 0.023520071 0.016042843 0.03351598 0.031014226
0.035166513 0.041644707 0.032870423 -0.018575205 -0.012389982 -0.013908893 -0.021962393 -0.012673974
-0.019880168 -0.012246314 -0.0102266 -0.019177292 -0.009367753 -0.021787832 -0.015366148 -0.010796562
-0.017642409 -0.006904967 -0.015396962 -0.00986678 -0.0072060674 -0.014297385 -0.0041748285 -0.019471688
-0.013331881 -0.011501461 -0.017069537 -0.005800914 -0.02609663 -0.020807216 -0.020934852 -0.027707858
-0.017948577 -0.028083643 -0.021434229 -0.018576419 -0.025499377 -0.014861196 -0.028578442 -0.024252584
-0.018915866 -0.023826715 -0.012573378 -0.021978848 -0.017488811 -0.013760231 -0.020300522 -0.009596469
-0.025692865 -0.020926276 -0.018483076 -0.02308055 -0.0116668865 -0.06142423 -0.055559326 -0.054172453
-0.057213802 -0.044080395 -0.06462958 -0.057274237 -0.051512945 -0.05380618 -0.041569047 -0.0656098
-0.059513614 -0.051042497 -0.051789753 -0.038721994 -0.057474468 -0.05212398 -0.045364857 -0.04811289
-0.036293797 -0.060163464 -0.05450043 -0.050048612 -0.052771557 -0.039567087 0.008539199 0.010290383
0.010542422 0.007729297 0.008306558 0.008640767 0.010062181 0.011004128 0.008436811 0.008294603
0.0063495273 0.007299795 0.008670086 0.0061352607 0.0055079274 0.007782948 0.0086610485 0.009633815
0.006440377 0.005375932 0.007874308 0.009301787 0.010329569 0.0057863984 0.0047066747 0.0062840483
0.00703598 0.007769048 0.0051013646 0.005377955 0.005765874 0.006762527 0.0076536187 0.004890167
0.0052015083 0.0035197497 0.0043897713 0.005282215 0.0026755217 0.0022448818 0.004117203 0.0049719457
0.005944054 0.0025898397 0.0020462405 0.004589663 0.005945763 0.006257982 0.0031816284 0.0011846285
-0.00030307146 0.00096598733 0.0012444621 -0.0018049502 -0.0015063575 -0.00077797775 6.200513e-06 0.00059444946
-0.0019458481 -0.0018113916 -0.0031765779 -0.0021416575 -0.0012864213 -0.0036779444 -0.00411979 -0.0031268508
-0.0019533453 -0.0018247577 -0.0035843598 -0.0044938084 -0.0033719079 -0.0016577966 -0.0011394852 -0.0037785624
-0.0048403647 0.038887583 0.0413393 0.035522163 0.032235168 0.034060873 0.036537595 0.039450005
0.03474155 0.030054694 0.03239821 0.04133553 0.043600485 0.03966234 0.034160875 0.032411046
0.039333288 0.042669464 0.036657043 0.031186733 0.02923048 0.033687912 0.03744335 0.03233755
0.027665518 0.026925385 0.019542033 0.022063231 0.017131489 0.013963334 0.01749826 0.018649783
00000000: 42b0 55bd 8c40 58bd 8e3c 33bd d2eb 16bd
00000010: fa3d 2fbd 7299 7ebd 00ae 80bd 00aa 52bd
00000020: 13b6 2cbd 453f 46bd 8e17 85bd f6ee 8abd
00000030: ffac 78bd f071 52bd f09d 6bbd af26 69bd
00000040: 285b 73bd 5c6f 61bd 0233 4dbd 4773 75bd
00000050: a603 30bd 589a 2abd ef9d 0fbd 5b9a edbc
00000060: 9ede 2abd ce49 87bc b86e 93bc 0763 23bc
00000070: ec52 92bb 50ae 2bbc ea66 debc a104 f0bc
00000080: 6531 9fbc 20a1 23bc 85bf 84bc f658 febc
00000090: df92 12bd e789 eebc eef4 a3bc 4d41 d8bc
000000a0: ab81 b0bc 5887 dabc ca54 c4bc 18bd a3bc
000000b0: 1d88 edbc a808 f2bb 3626 07bc 141d 95bb
000000c0: 004c f439 d7aa 2ebc c30a 063d c867 fb3c
000000d0: 1595 183d 9df9 263d 8455 0e3d d826 bd3c
000000e0: 0de9 a83c fe7c ec3c fcbe 153d 9375 ef3c
000000f0: b65a 8a3c 7077 393c 1206 8a3c 8240 cb3c
00000100: 68ad 9c3c 9b7d af3c c082 833c f8c1 943c
00000110: 2aad c03c 486c 833c 0d48 093d 8c11 fe3c
00000120: c30a 103d a493 2a3d 23a3 063d 072b 98bc
00000130: 5aff 4abc 20e2 63bc 7aea b3bc 80a6 4fbc
00000140: bcdb a2bc c4a4 48bc 788d 27bc b219 9dbc
00000150: 347b 19bc 657c b2bc 4cc2 7bbc 10e4 30bc
00000160: d086 90bc 1043 e2bb 8a43 7cbc 46a8 21bc
00000170: e020 ecbb 943f 6abc 00cd 88bb 1783 9fbc
00000180: f66d 5abc a070 3cbc 6ad5 8bbc 9815 bebb
00000190: 9ac8 d5bc e573 aabc 917f abbc 97fb e2bc
000001a0: e508 93bc ab0f e6bc d696 afbc 932d 98bc
000001b0: 12e4 d0bc 607c 73bc 561d eabc 5bad c6bc
000001c0: 72f5 9abc 3e30 c3bc 9200 4ebc fc0c b4bc
000001d0: b244 8fbc 9872 61bc 484d a6bc 823a 1dbc
000001e0: d879 d2bc 956d abbc d269 97bc 6c13 bdbc
000001f0: 7826 3fbc f997 7bbd 2d92 63bd efe3 5dbd
00000200: 0559 6abd a58d 34bd 835c 84bd 6498 6abd
00000210: 3dff 52bd de63 5cbd 4e44 2abd 6e5e 86bd
00000220: 8cc4 73bd f011 51bd 7e21 54bd f49a 1ebd
00000230: 596a 6bbd f47f 55bd 80d0 39bd 0612 45bd
00000240: cea8 14bd f76d 76bd d83b 5fbd c6ff 4cbd
00000250: fd26 58bd 1911 22bd ffe7 0b3c ff98 283c
00000260: 1fba 2c3c 0b46 fd3b 3b18 083c 0192 0d3c
00000270: d9db 243c a84a 343c 8d3a 0a3c 16e6 073c
00000280: b20f d03b 1e33 ef3b fa0c 0e3c 4c0a c93b
00000290: d87b b43b 1a08 ff3b 12e7 0d3c 26d7 1d3c
000002a0: cc09 d33b 9628 b03b 3e03 013c 8666 183c
000002b0: 5a3d 293c d49b bd3b 733a 9a3b 6bea cd3b
000002c0: 148e e63b 8093 fe3b 5929 a73b 8e39 b03b
000002d0: a8ef bc3b 3098 dd3b 35cb fa3b b23d a03b
000002e0: 6a71 aa3b 9aab 663b 12d8 8f3b 6e16 ad3b
000002f0: ce57 2f3b de1e 133b 9ae9 863b b4eb a23b
00000300: 57c6 c23b 4dba 293b 381a 063b e264 963b
00000310: add4 c23b c20f cd3b de82 503b 8945 9b3a
00000320: 90e5 9eb9 503a 7d3a 381d a33a 1494 ecba
00000330: f870 c5ba 34f1 4bba 000e d036 d4d4 1b3a
00000340: d40b ffba 376c edba 222e 50bb 0d5b 0cbb
00000350: 239d a8ba ab09 71bb 4eff 86bb daeb 4cbb
00000360: b203 00bb b52c efba 94e7 6abb cc40 93bb
00000370: 3afb 5cbb 6c4a d9ba c75a 95ba c2a1 77bb
00000380: ec9b 9ebb 9648 1f3d 6653 293d b07f 113d
00000390: 0609 043d 6a83 0b3d 72a8 153d 5496 213d
000003a0: 284d 0e3d 4335 f63c fcb3 043d 724f 293d
000003b0: 6c96 323d fa74 223d 46ec 0b3d 72c1 043d
000003c0: f11b 213d 2dc6 2e3d b225 163d 527b ff3c
000003d0: c274 ef3c 56fc 093d 335e 193d 6174 043d
000003e0: cca2 e23c a092 dc3c 9d16 a03c f3bd b43c
000003f0: 5657 8c3c 78c6 643c 8358 8f3c 6ec7 983c

momentum_buffer f4 [32]
-0.014923027 0.01841407 -0.0014628902 0.015565136 0.057662707 0.022756487 0.00047343597 -0.0085762665
0.06830041 0.0718302 -0.005966117 0.03226449 0.043739982 -0.017340284 -0.0152195515 -0.0023805788
-0.0099517135 0.0079357345 -0.020637209 -0.12719017 -0.016444275 0.013214581 0.010944527 0.004416492
0.0010509565 0.035553113 0.021811191 0.004882805 0.019918745 0.0059234165 -0.096624225 0.00046206824
00000000: b67f 74bc 1bd9 963c 73be bfba ea04 7f3c
00000010: bb2f 6c3d d06b ba3c 8037 f839 7883 0cbc
00000020: 16e1 8b3d b61b 933d 6b7f c3bb c527 043d
00000030: b228 333d 360d 8ebc 6d5b 79bc 7c03 1cbb
00000040: 830c 23bc e204 023c 5d0f a9bc 243e 02be
00000050: 25b6 86bc f881 583c ac50 333c 38b8 903b
00000060: 40c0 893a 24a0 113d 62ad b23c f0ff 9f3b
00000070: a32c a33c 3819 c23b ece2 c5bd c041 f239

momentum_buffer f4 [32, 32, 3, 3]
0.009202353 0.008125144 0.0069198515 0.008298233 0.00780142 0.007470833 0.008251766 0.008023292
0.0070360615 -0.0012122323 0.00028064707 0.0013575952 -0.00042805634 0.00072403904 0.0016796695 -0.00013761292
0.00040668633 0.0022494905 -0.00074749347 -0.0017604134 -0.002843525 -0.00045381906 -0.0024179202 -0.002374117
-0.00047059124 -0.0006803414 -0.0018699686 0.0036943634 0.003423149 0.0054598725 0.0046582567 0.0036485018
0.0058096666 0.0040433304 0.004350377 0.0048290277 -0.0028343447 -0.0013627711 0.0014637057 -0.001902529
-0.0011496682 0.0010466638 -0.002038341 0.00011377671 0.0012020095 0.002739986 0.00368207 0.0005852878
0.002663605 0.0028193593 0.0017457642 0.0034752153 0.0027952269 0.0014172187 -0.007916646 -0.010666952
-0.011482742 -0.00767945 -0.010218118 -0.011652408 -0.0061482773 -0.007828926 -0.009121448 -0.03435021
-0.03282406 -0.032514773 -0.031085161 -0.030504242 -0.029455792 -0.03010564 -0.027541813 -0.02791469
0.018183032 0.015636103 0.014483043 0.018614504 0.016966816 0.014642341 0.017167429 0.016117178
0.014485303 -0.0078014517 -0.009569993 -0.012300073 -0.006682546 -0.0085204 -0.010939914 -0.00492283
-0.0077782995 -0.009117609 -0.013218434 -0.012970777 -0.013282148 -0.011604845 -0.011188145 -0.011486884
-0.010446966 -0.009889383 -0.011626022 -0.0074671567 -0.0075002257 -0.0071996693 -0.0051650633 -0.0049833376
-0.0063182255 -0.0028248923 -0.003714968 -0.0033086492 -0.012600118 -0.01440596 -0.016195359 -0.011619916
-0.013970101 -0.015548878 -0.01070415 -0.013294984 -0.014640073 -0.014354283 -0.01431545 -0.015137315
-0.012979258 -0.012782329 -0.01432705 -0.011803921 -0.012200096 -0.013151535 -0.01766609 -0.017496532
-0.015042011 -0.015999602 -0.015720135 -0.012047501 -0.015522577 -0.015076048 -0.012440929 -0.0041229185
-0.006240685 -0.006855744 -0.0033760844 -0.0066922866 -0.0074041993 -0.0018176725 -0.0050531756 -0.006526691
-0.003054645 -0.0030150278 -0.003956276 -0.003207882 -0.0033735642 -0.003623244 -0.0020399783 -0.0026514386
-0.0037565967 -0.0019861003 -0.0027046883 -0.0038772714 -0.0020813178 -0.002474615 -0.0034196605 -0.00031609368
-0.0011770409 -0.0017420212 -0.0033197547 -0.0032794778 -0.004473805 -0.0020315628 -0.00074767903 -0.004982689
-0.0011924524 -0.0012683896 -0.0034117303 -0.014860442 -0.015297102 -0.015820514 -0.014431041 -0.014124929
-0.015168298 -0.01150245 -0.012431547 -0.013177846 -0.011631191 -0.011716444 -0.012825834 -0.010102674
-0.011373688 -0.012226108 -0.008686125 -0.010784773 -0.012014238 0.003105936 0.0042503923 0.0037889276
0.004122075 0.003997139 0.0038798042 0.0048865983 0.0039164964 0.00356527 -0.0036395853 -0.005009287
-0.0056419712 -0.002468518 -0.0041189124 -0.005998257 -0.00021071266 -0.0029048966 -0.0033266256 0.007165513
0.0076560155 0.0068809185 0.0064872187 0.0056951735 0.006167828 0.0067748735 0.0067118797 0.005916003
0.005957324 0.0055004684 0.0046442407 0.0070773824 0.0078764595 0.006358089 0.007808562 0.007621531
0.007053443 0.014774964 0.015313819 0.014373329 0.013926507 0.0137793515 0.014291486 0.013480221
0.014309614 0.012823138 0.009904865 0.00902721 0.009634011 0.012092247 0.011548529 0.011691347
0.011368627 0.010552116 0.011282873 0.05359476 0.05415742 0.051953875 0.05248401 0.05271935
0.05233602 0.04874357 0.04903295 0.04800726 -0.0019064918 -0.003953832 -0.004641502 -0.0027339119
00000000: 77c5 163c 531f 053c ecbf e23b 50f5 073c
00000010: 0ea3 ff3b e4cd f43b 6a32 073c 2074 033c
00000020: c38e e63b c4e3 9eba d023 9339 56f1 b13a
00000030: c06c e0b9 70cd 3d3a 5b28 dc3a 304c 10b9
00000040: 8438 d539 306c 133b 70f3 43ba acbd e6ba
00000050: 6f5a 3abb 90ee edb9 f875 1ebb 1397 1bbb
00000060: b0b9 f6b9 f058 32ba bc19 f5ba 221d 723b
00000070: e956 603b bbe8 b23b 4aa4 983b b41b 6f3b
00000080: 045f be3b ea7d 843b 9b8d 8e3b d23c 9e3b
00000090: 6ac0 39bb 039f b2ba d0d9 bf3a 485e f9ba
000000a0: 77b0 96ba 3630 893a b095 05bb 689b ee38
000000b0: bf8c 9d3a 5691 333b e24e 713b 006e 193a
000000c0: e08f 2e3b 00c5 383b 20d2 e43a 70c0 633b
000000d0: 2030 373b f8c1 b93a d2b4 01bc 70c4 2ebc
000000e0: 1c22 3cbc e5a3 fbbb e569 27bc bee9 3ebc
000000f0: 7d77 c9bb e544 00bc 2072 15bc ceb2 0cbd
00000100: 8672 06bd 362e 05bd 4fa6 febc 08e4 f9bc
00000110: 464d f1bc 1aa0 f6bc 5e9f e1bc 59ad e4bc
00000120: 95f4 943c 4917 803c 494a 6d3c 727d 983c
00000130: fefd 8a3c 6ee6 6f3c b5a2 8c3c 2c08 843c
00000140: c453 6d3c 52a3 ffbb 76cb 1cbc 3f86 49bc
00000150: 42f9 dabb 2699 0bbc 533d 33bc b14f a1bb
00000160: 1be1 febb 0662 15bc 2192 58bc 6283 54bc
00000170: 5e9d 59bc 3f22 3ebc 7b4e 37bc 7c33 3cbc
00000180: c029 2bbc 1407 22bc 127b 3ebc 0daf f4bb
00000190: 74c4 f5bb 34eb ebbb b13f a9bb 444b a3bb
000001a0: 1e09 cfbb d421 39bb d276 73bb ecd5 58bb
000001b0: ba70 4ebc fa06 6cbc 21ac 84bc 7661 3ebc
000001c0: dae2 64bc b9c0 7ebc 7660 2fbc 34d3 59bc
000001d0: ebdc 6fbc 3a2e 6bbc 598b 6abc 8002 78bc
000001e0: f4a6 54bc f96c 51bc 01bc 6abc 3c65 41bc
000001f0: e9e2 47bc 8979 57bc 7ab8 90bc e354 8fbc
00000200: c472 76bc 9911 83bc 83c7 80bc e262 45bc
00000210: 6852 7ebc 8701 77bc 0ad5 4bbc 8c19 87bb
00000220: a97e ccbb 26a6 e0bb 4c41 5dbb f84a dbbb
00000230: ed9e f2bb f83e eeba 1c95 a5bb dadd d5bb
00000240: 7030 48bb c697 45bb a6a3 81bb 543b 52bb
00000250: 0417 5dbb f273 6dbb 28b1 05bb c2c3 2dbb
00000260: 3c31 76bb 3c29 02bb 2441 31bb d219 7ebb
00000270: b866 08bb 262d 22bb 621c 60bb 60b9 a5b9
00000280: f046 9aba 8854 e4ba 3e90 59bb 82ec 56bb
00000290: ff98 92bb f823 05bb e4ff 43ba d345 a3bb
000002a0: 104c 9cba 1840 a6ba 5697 5fbb 3679 73bc
000002b0: b2a0 7abc 069a 81bc 2c70 6cbc 3f6c 67bc
000002c0: 7484 78bc c674 3cbc b0ad 4bbc e4e7 57bc
000002d0: c090 3ebc 54f6 3fbc 7223 52bc b085 25bc
000002e0: b458 3abc 0450 48bc 4050 0ebc 9eb2 30bc
000002f0: 5ed7 44bc f68c 4b3b e046 8b3b a84f 783b
00000300: 7912 873b 6ffa 823b 5044 7e3b c21f a03b
00000310: f455 803b 4ea7 693b 1c86 6ebb f224 a4bb
00000320: 49e0 b8bb dcc6 21bb f1f7 86bb 078d c4bb
00000330: c0f2 5cb9 1460 3ebb 8403 5abb aecc ea3b
00000340: 50df fa3b 5479 e13b bc92 d43b 949e ba3b
00000350: 7e1b ca3b c2ff dd3b 54ef db3b 08db c13b
00000360: a835 c33b 463d b43b b72e 983b 63e9 e73b
00000370: 440c 013c 8457 d03b f7de ff3b 09be f93b
00000380: 9220 e73b b112 723c d0e6 7a3c 1c7e 6b3c
00000390: 012c 643c cac2 613c d626 6a3c 25dc 5c3c
000003a0: df72 6a3c 2418 523c 0448 223c dde6 133c
000003b0: f9d7 1d3c 8f1e 463c 0b36 3d3c 108d 3f3c
000003c0: 7a43 3a3c c8e2 2c3c cddb 383c 2e86 5b3d
000003d0: 2cd4 5d3d 96cd 543d 79f9 563d 3ff0 573d
000003e0: 4b5e 563d 56a7 473d c6d6 483d 43a3 443d
000003f0: 40e3 f9ba 268f 81bb be17 98bb 6e2b 33bb

momentum_buffer f4 [32]
-0.027152522 0.041845903 -0.0027536345 0.002334503 0.010864987 0.03960708 0.0038048737 0.002773249
-0.026086237 0.026061427 0.0049148845 -0.037600074 -0.03140335 -0.009918268 0.019025616 -0.007363652
0.0009767395 0.032217957 0.000111263245 0.0033202008 -6.5645014e-05 -0.016920034 0.016750105 -0.001531709
-0.0067772544 0.00010660966 0.0009248437 0.07261838 -0.00031724884 -0.008960273 0.007439484 -0.044320796
00000000: f76e debc 9c66 2b3d 5276 34bb 76fe 183b
00000010: 0f03 323c 093b 223d 305b 793b 66bf 353b
00000020: ceb2 d5bc c67e d53c 0a0d a13b 8902 1abd
00000030: cda0 00bd 3b80 22bc 9cdb 9b3c ca4a f1bb
00000040: f005 803a faf6 033d 0056 e938 ba97 593b
00000050: e6aa 89b8 e29b 8abc 8437 893c a0c3 c8ba
00000060: bb13 debb a093 df38 3671 723a f2b8 943d
00000070: 6b54 a6b9 1cce 12bc eac6 f33b b989 35bd

momentum_buffer f4 [64, 32, 3, 3]
0.00016421697 0.00023576873 0.00045153277 -0.00022354277 0.00030870104 0.00022817287 -0.00014434708 0.00028526917
0.00020763355 0.00046175494 0.00058203086 0.0003673639 0.00071020954 0.0002911255 0.0005309192 0.0005800261
0.000751273 0.00090826023 0.00089262496 0.0007622322 0.0011051752 0.00048128027 0.0006473814 0.0010260434
0.00018707069 0.0004819308 0.001259338 2.0753862e-06 0.00015689651 2.2987519e-05 0.0003326223 8.006204e-05
0.0005456392 -0.0002619523 -5.2434436e-05 -0.00020794268 0.00014702635 -0.00018270034 2.1115062e-05 -0.00013492521
-0.00025800106 -0.000474006 0.00022491235 0.00022679692 -0.00029468385 -0.0003093172 0.00032416816 -0.0007726164
0.00051245233 -3.3591612e-05 0.00040622795 -0.0005400324 -0.00020799701 -9.004021e-05 0.0009881654 0.0012812742
0.0007505169 0.001775983 0.001771976 0.0018438033 0.0014753613 0.0019530142 0.0013588648 -0.00035126403
-0.000114200666 -0.00020900578 -0.00035514345 0.00023628032 -0.000119304976 0.00016578357 -0.00032697408 1.751578e-05
0.0033233315 0.0029591685 0.0023261118 0.0033891662 0.0035274532 0.0036206448 0.0034627847 0.0034605856
0.0026845997 0.0002098393 -0.00041741852 -0.00046561376 -0.00024093674 -0.00014584488 -0.0006087397 1.3859219e-05
0.00042382933 9.4548115e-05 0.0002946758 9.801219e-06 -0.00011683055 -0.0003568175 -0.00045790488 -0.00016266093
-0.00036333737 -0.0002967437 -0.00027374754 0.00032307708 0.000790533 0.0002377145 0.00028601039 0.00014671842
0.00093294214 0.0005512717 0.0011684033 0.00022873284 0.0015196152 0.0010188064 0.0014216873 0.0019951141
0.0013666716 0.0016960339 0.0018138667 0.0021099346 0.0017925507 0.00019796233 0.00019081599 0.00040031504
-0.00047155865 0.00013867528 0.0003380043 0.00052294537 0.0003125819 0.00022900339 0.00060756155 0.0009481594
0.0010236624 0.0007390161 0.00059319264 0.0010370208 0.001674776 0.0011262941 0.000607679 0.0014760175
0.0010404763 0.00084493693 0.00074584025 0.0011411294 0.0011123603 0.0010804433 0.0009284596 0.0013498169
0.00086162775 0.00051568437 0.0011280329 0.0011593654 0.0013324386 0.0012338724 0.0010085689 0.001173492
0.00094296347 0.0008337241 -0.00045126845 0.00022886677 1.39515905e-05 0.00016250278 -1.6087652e-05 -0.00039570412
-8.5969106e-05 -9.50664e-05 0.00033370036 4.6615787e-05 -0.00029337962 0.00041797003 -1.2304012e-05 0.00019943711
-5.1999697e-05 -0.00032423588 -0.0003220815 -0.00016937961 -7.103859e-05 0.00011907443 -0.00026880123 0.00034803498
0.00011855741 -4.06204e-06 0.00049044844 -0.00018430233 0.00038977832 6.0701746e-05 0.0002963732 0.00011630024
4.596211e-06 -0.00022712821 0.0004913601 1.8047815e-05 -0.0002961459 0.0010065748 0.0012998442 0.0015859917
0.0018030854 0.0015350513 0.002005647 0.001433684 0.0018195133 0.0020150407 0.0005903505 8.741145e-05
0.00039578145 0.00037233316 0.0007187122 0.00031495787 0.0005488024 0.00042138837 0.0004250427 0.0009947871
0.0011427936 0.0011454216 0.0019400658 0.0010224114 0.0013411641 0.0013390441 0.0012376966 0.0010636435
0.0009951846 0.0013596272 0.0010682945 0.0015386548 0.0007757445 0.00092940964 0.00112594 0.0016742464
0.0013642261 0.0015871522 0.0015209283 0.0013540684 0.0014310001 0.0012805851 0.0013045061 0.0016203417
0.0015247971 0.0018383117 -0.0004679545 -0.0005204702 -0.0002033463 0.0002720685 -0.00010883672 -0.0004038401
-0.00036028228 0.0006818435 -0.00015980145 3.6565572e-05 0.0005815719 0.0008474267 0.00079945975 -0.00043692932
0.00064113416 0.0009001831 0.00039697904 0.00085373915 7.67307e-05 5.107441e-06 -0.00034028981 -0.0006218569
00000000: a831 2c39 b038 7739 b4bb ec39 ce66 6ab9
00000010: 27d9 a139 b041 6f39 e05b 17b9 2e90 9539
00000020: 35b8 5939 b317 f239 6e93 183a bf9a c039
00000030: 5b2d 3a3a 34a2 9839 622d 0b3a e50c 183a
00000040: 14f1 443a 5018 6e3a 0cff 693a 89d0 473a
00000050: 87db 903a 5854 fc39 08b5 293a 4e7c 863a
00000060: 6828 4439 a8ab fc39 5f10 a53a dd46 0b36
00000070: 9684 2439 52d5 c037 cf63 ae39 fbe6 a738
00000080: 3a09 0f3a a456 89b9 0ced 5bb8 300b 5ab9
00000090: 162b 1a39 4093 3fb9 4020 b137 b67a 0db9
000000a0: 5144 87b9 0284 f8b9 73d6 6b39 56d0 6d39
000000b0: cc7f 9ab9 da2b a2b9 1df5 a939 6989 4aba
000000c0: 1856 063a b8e4 0cb8 fefa d439 f690 0dba
000000d0: c619 5ab9 f8d3 bcb8 5485 813a 6ef0 a73a
000000e0: 56be 443a 1ac8 e83a a641 e83a c6ab f13a
000000f0: e960 c13a 48fc ff3a f01b b23a dc29 b8b9
00000100: 047f efb8 9028 5bb9 8c32 bab9 04c2 7739
00000110: 5f33 fab8 30d6 2d39 b86d abb9 daee 9237
00000120: 40cc 593b 9cee 413b ae71 183b c61c 5e3b
00000130: d82c 673b 5748 6d3b e3ef 623b feca 623b
00000140: 1cf0 2f3b 4f08 5c39 f7d8 dab9 9f1d f4b9
00000150: f7a3 7cb9 f0ed 18b9 d493 1fba e484 6837
00000160: 6935 de39 2248 c638 b77e 9a39 ea6f 2437
00000170: ed02 f5b8 3c13 bbb9 f412 f0b9 f68f 2ab9
00000180: 517e beb9 4494 9bb9 c685 8fb9 ac62 a939
00000190: c63b 4f3a 0043 7939 aaf3 9539 6dd8 1939
000001a0: b090 743a 3883 103a 1c25 993a 01d8 6f39
000001b0: d32d c73a 7889 853a e957 ba3a 76c0 023b
000001c0: e421 b33a 744d de3a 44bf ed3a d446 0a3b
000001d0: 05f4 ea3a 1c94 4f39 c715 4839 60e1 d139
000001e0: 883b f7b9 5d69 1139 2b36 b139 4516 093a
000001f0: 08e2 a339 a120 7039 c444 1f3a e68d 783a
00000200: 692c 863a 88ba 413a 7c80 1b3a a5ec 873a
00000210: 2884 db3a 29a0 933a a64c 1f3a ee76 c13a
00000220: 9760 883a c27e 5d3a 7e84 433a f391 953a
00000230: 9ecc 913a a99d 8d3a de63 733a 57ec b03a
00000240: dcde 613a fe2e 073a 81da 933a d9f5 973a
00000250: 38a5 ae3a e3b9 a13a f531 843a dccf 993a
00000260: 3531 773a 478e 5a3a 3a98 ecb9 f5fb 6f39
00000270: a011 6a37 8265 2a39 f8f3 86b7 8276 cfb9
00000280: 504a b4b8 635e c7b8 81f4 ae39 5285 4338
00000290: bfd0 99b9 fd22 db39 546d 4eb7 fe1f 5139
000002a0: 401a 5ab8 34fe a9b9 0cdd a8b9 7e9b 31b9
000002b0: 8dfa 94b8 99b7 f938 e4ed 8cb9 7778 b639
000002c0: 06a2 f838 a84c 88b6 7091 003a 4841 41b9
000002d0: 295b cc39 019a 7e38 8a62 9b39 37e6 f338
000002e0: 2739 9a36 4429 6eb9 9ece 003a 6365 9737
000002f0: 0844 9bb9 0cef 833a 895f aa3a 0de1 cf3a
00000300: 8255 ec3a c633 c93a 2c71 033b 74ea bb3a
00000310: bc7c ee3a c60e 043b c0c1 1a3a aa50 b738
00000320: e380 cf39 b635 c339 f667 3c3a ee20 a539
00000330: 81dd 0f3a caed dc39 44d8 de39 8463 823a
00000340: cac9 953a f921 963a ce49 fe3a 6f02 863a
00000350: 00ca af3a dd82 af3a 353a a23a f469 8b3a
00000360: db70 823a 8535 b23a 0406 8c3a b0ac c93a
00000370: 555b 4b3a a0a3 733a 4794 933a 6372 db3a
00000380: d5cf b23a fe07 d03a e359 c73a ff7a b13a
00000390: 6590 bb3a 4ed9 a73a f6fb aa3a a561 d43a
000003a0: b3db c73a 81f3 f03a ca57 f5b9 2a70 08ba
000003b0: 5b39 55b9 6aa4 8e39 453f e4b8 80ba d3b9
000003c0: 45e4 bcb9 bebd 323a 6090 27b9 fc5d 1938
000003d0: a174 183a d825 5e3a d692 513a a913 e5b9
000003e0: c911 283a 44fa 6b3a a021 d039 77cd 5f3a
000003f0: 7bea a038 9660 ab36 ed68 b2b9 1c04 23ba

momentum_buffer f4 [64]
0.00094220333 -0.00018405607 0.0008977809 -0.0015670711 0.009491764 0.0018102115 0.0005534621 0.0031015805
-0.0023810419 9.408979e-05 0.016115297 -0.005506275 0.028624017 0.00050786557 0.00010433508 -0.0011500621
0.0001728097 -0.007794696 -0.0037967197 -0.0019588086 0.007643974 0.0006362879 -2.7542677e-05 0.000739538
0.012478111 0.015316052 -0.0020231048 -0.0030822984 -0.0047926744 -0.004240841 -0.0065568956 -0.0007844396
0.024030428 -0.002981707 -0.00778851 -0.006260928 -0.00046261598 -0.008917005 0.013084395 0.0005736175
-0.009021424 -0.0034970692 -0.00047070143 0.00046372833 0.00091684144 -0.00015033619 0.0038847975 0.0021049646
-6.644368e-05 -0.0014584336 0.017722307 -0.0007204589 -0.0008040938 -0.013366938 -0.0045696143 -0.0024609622
-0.0005917121 -0.0014338093 0.0005708599 0.00057795073 -0.0011914318 0.014106957 -0.007684826 -0.0005731127
00000000: 32fe 763a 2dff 40b9 0e59 6b3a 2e66 cdba
00000010: 5883 1b3c 9e44 ed3a 3616 113a e343 4b3b
00000020: 410b 1cbb 1252 c538 3a04 843c fc6d b4bb
00000030: ea7c ea3c 4822 053a 78ce da38 aebd 96ba
00000040: 4034 3539 a66a ffbb 63d2 78bb 5b5f 00bb
00000050: 4d7a fa3b 8fcc 263a 730b e7b7 8edd 413a
00000060: fe70 4c3c 2ef0 7a3c 1196 04bb 6300 4abb
00000070: de0b 9dbb c1f6 8abb 3adb d6bb daa2 4dba
00000080: 76db c43c be68 43bb c236 ffbb 7928 cdbb
00000090: 448b f2b9 a118 12bc ee5f 563c d25e 163a
000000a0: 98ce 13bc 162f 65bb 7ac8 f6b9 9020 f339
000000b0: 3058 703a 90a3 1db9 1698 7e3b 72f3 093b
000000c0: ae57 8bb8 e928 bfba 5f2e 913c 2edd 3cba
000000d0: d2c9 52ba 0001 5bbc b4bc 95bb 1848 21bb
000000e0: 201d 1bba a8ee bbba c2a5 153a 9e81 173a
000000f0: d129 9cba de20 673c fed0 fbbb f13c 16ba

momentum_buffer f4 [64, 64, 3, 3]
-0.00042045332 -0.00027712577 -0.00038342684 7.850952e-05 -0.0002528067 0.0005412932 -2.1987551e-05 3.0233161e-05
-0.00041839844 2.4301386e-05 0.00042333157 -5.8582467e-05 -1.7293964e-05 0.00023386125 8.678633e-05 -0.0006627139
-0.00013264654 0.00029003737 -0.00038373694 0.0002253595 -6.5742664e-05 -0.0004228139 0.0002839022 0.00019230168
-0.0004847868 0.00016658261 -0.00062920596 -0.00014080468 -0.00040117465 0.00017554332 -0.00062268507 0.00034231137
0.00010623911 -0.0002818077 -1.8239207e-05 -7.19283e-05 0.0007494678 0.0013644514 0.0021055723 0.00063998945
0.00135219 0.0023241898 0.0005116774 0.0014648925 0.0017149966 0.00082466146 0.0014083346 0.0020104002
0.0005788153 0.0012439294 0.00180459 0.00045753104 0.00082633516 0.0013328259 -8.625431e-05 3.0826588e-05
0.00018384008 -0.00012676883 -0.0005762035 -4.3061707e-05 3.681732e-05 0.00021043736 -0.00027142107 0.001444346
0.0021861198 0.003152316 0.0008276793 0.002500807 0.0023417962 0.0013383273 0.0019328663 0.0021562185
-0.00055699464 -0.00039604353 -0.00046561033 1.7602733e-05 -0.0005837034 2.519631e-05 -0.00016385368 -0.00022198303
-0.0005884996 -2.6372378e-05 3.0823343e-05 0.00024820113 0.0005094136 -0.00023019026 8.288254e-05 -0.00040786384
1.0481222e-06 -0.00043823413 0.00030600093 0.0006961606 0.00084841053 0.0004550104 0.00046867423 0.0014547091
0.0005368068 0.00020322176 0.0009353566 0.002115583 0.0028942076 0.0028388773 0.0030001462 0.0028126854
0.003088029 0.0018806495 0.003296642 0.0028706184 -0.00024072372 0.00036433767 0.00036692846 -0.0006054219
-7.2524126e-05 0.00047496593 -0.00077440287 0.00013678061 3.052858e-05 0.0002027657 0.0009894957 0.00092702644
0.00049665367 0.001386356 0.001244466 0.00054697983 0.0007632062 0.0017865655 8.4695304e-05 0.00013770637
0.00031366132 -0.00022214113 0.0005502376 0.00032265348 -2.3400353e-05 0.00054179656 0.00071798416 5.1128398e-05
0.00043019094 -0.0003168633 0.00041876573 0.00012320408 -0.00014707702 -0.0003708543 -0.00016240457 0.0003073193
6.673107e-05 0.0005935128 0.00039078947 0.00016053839 0.0002000927 0.0013052137 -0.00023389295 -0.00020744736
0.0002263731 0.00085852086 0.00037941744 -0.00012236036 0.00074583077 0.0004532292 -0.00013427783 0.00073407206
0.0004921653 0.00041687832 0.0010471444 0.0011708734 0.0010258963 0.0008550318 0.0014071412 0.0014353683
0.0008983095 0.0010956113 0.0010977067 0.00024160516 0.00048191013 -0.00074878737 -0.000116864656 -0.00017661064
-0.0003232874 0.00019870338 -6.3363856e-05 -0.0005271753 -0.00023633117 0.00052579335 0.0008966373 -0.00016093942
0.0007643575 0.0006940374 -0.00026113036 0.00058814744 0.00022403282 -0.0007614064 -0.00023646497 0.0001009714
0.00028276915 0.0005028901 0.00032163056 -0.00013463745 0.00033656 -0.0001437941 -0.00018686993 6.898901e-05
9.488141e-05 -0.00015739701 2.7716844e-05 -5.3633263e-05 -0.00045024048 -1.0080703e-05 -0.00026792721 -7.4099335e-06
8.8684195e-05 0.00045011746 0.00036869314 -0.0003607396 0.00025951752 -0.000116193165 0.00047423248 3.339572e-05
0.00042205318 0.001007316 0.0015665442 0.0004808028 0.0005433934 0.0010839384 0.00020056679 0.00084504497
0.0007610088 -3.401548e-05 0.0003734207 0.0006511463 3.7281716e-05 0.00045734088 0.000582729 -0.00016935935
-1.9828236e-05 0.00035665257 -0.0007406026 -0.00034197242 -0.0008480566 -0.0006407737 -0.00034619606 -0.001390702
-0.0007823743 -0.0005653822 -0.00071446324 0.00019374191 -2.1823253e-05 -0.0003171003 -0.00016485617 -0.00033557648
0.00031965866 -0.0002231671 0.00034869375 0.000635928 0.0002973742 0.00039798708 -1.6332393e-05 0.00016410624
00000000: 4a70 dcb9 314b 91b9 ae06 c9b9 7aa5 a438
00000010: 248b 84b9 92e5 0d3a e871 b8b7 389d fd37
00000020: 7d5c dbb9 d4da cb37 9af2 dd39 72b6 75b8
00000030: 8112 91b7 a738 7539 0e01 b638 fab9 2dba
00000040: 0917 0bb9 2810 9839 4d30 c9b9 7b4e 6c39
00000050: 53df 89b8 1fad ddb9 b5d8 9439 97a4 4939
00000060: fc2a feb9 aeac 2e39 4cf1 24ba f8a4 13b9
00000070: c054 d2b9 0d12 3839 b03b 23ba 4178 b339
00000080: b0cc de38 97bf 93b9 6600 99b7 36d8 96b8
00000090: ef77 443a 64d7 b23a a4fd 093b f7c4 273a
000000a0: f83b b13a 6f51 183b 1722 063a a301 c03a
000000b0: bdc9 e03a 182e 583a de97 b83a ebc0 033b
000000c0: a3bb 173a 580b a33a fe87 ec3a c7e0 ef39
000000d0: 6a9e 583a 37b2 ae3a 6ee3 b4b8 cc4b 0138
000000e0: 32c5 4039 40ed 04b9 5d0c 17ba 289d 34b8
000000f0: 4c6c 1a38 d9a8 5c39 854d 8eb9 3650 bd3a
00000100: 0145 0f3b 1697 4e3b 9ef8 583a 94e4 233b
00000110: d278 193b d06a af3a 3b58 fd3a 584f 0d3b
00000120: 4703 12ba 10a4 cfb9 291d f4b9 95a9 9337
00000130: ac03 19ba aa5c d337 23d0 2bb9 1ec4 68b9
00000140: 8a45 1aba 403a ddb7 5048 0138 fe20 8239
00000150: 2b8a 053a 3a5f 71b9 3ad1 ad38 8fd6 d5b9
00000160: 34ad 8c35 cac2 e5b9 c06e a039 8c7e 363a
00000170: de67 5e3a 768e ee39 64b8 f539 f0ab be3a
00000180: 7fb8 0c3a ed17 5539 b832 753a 98a5 0a3b
00000190: bfac 3d3b 750c 3a3b 1a9e 443b 0855 383b
000001a0: 8860 4a3b 2080 f63a 7a0c 583b fc20 3c3b
000001b0: c86a 7cb9 9304 bf39 4e60 c039 2db5 1eba
000001c0: 1818 98b8 d904 f939 4c01 4bba c46c 0f39
000001d0: d00b 0038 819d 5439 f7b1 813a b103 733a
000001e0: dd31 023a 63b6 b53a 5a1d a33a 3263 0f3a
000001f0: e711 483a 312b ea3a 729e b138 4665 1039
00000200: e972 a439 8eee 68b9 d23d 103a d129 a939
00000210: e04b c4b7 5a07 0e3a 1a37 3c3a b372 5638
00000220: 408b e139 ac20 a6b9 c98d db39 5830 0139
00000230: b038 1ab9 396f c2b9 254b 2ab9 b31f a139
00000240: f8f1 8b38 f895 1b3a e0e2 cc39 3256 2839
00000250: facf 5139 b413 ab3a 2941 75b9 3a86 59b9
00000260: 915e 6d39 5c0e 613a 8cec c639 dc4d 00b9
00000270: db83 433a 659f ed39 eecc 0cb9 be6e 403a
00000280: a704 013a 7690 da39 5640 893a fe77 993a
00000290: 5e77 863a 3624 603a d36f b83a f822 bc3a
000002a0: 887c 6b3a 9d9a 8f3a ede0 8f3a 6457 7d39
000002b0: e2a8 fc39 454a 44ba 3c15 f5b8 8f30 39b9
000002c0: e67e a9b9 085b 5039 36e2 84b8 2332 0aba
000002d0: aacf 77b9 65d5 093a 500c 6b3a d9c1 28b9
000002e0: 2a5f 483a 10f0 353a 53e8 88b9 e82d 1a3a
000002f0: 5aea 6a39 1e99 47ba 95f3 77b9 9cc0 d338
00000300: a240 9439 62d4 033a 86a0 a839 772d 0db9
00000310: 5274 b039 6fc7 16b9 84f2 43b9 31ae 9038
00000320: 12fb c638 f00a 25b9 7881 e837 47f4 60b8
00000330: 410e ecb9 4a20 29b7 9578 8cb9 d8a2 f8b6
00000340: f7fb b938 befd eb39 284d c139 a621 bdb9
00000350: da0f 8839 bbac f3b8 68a2 f839 6212 0c38
00000360: 0547 dd39 eb07 843a 8054 cd3a 4214 fc39
00000370: 8472 0e3a f012 8e3a 3d4f 5239 0286 5d3a
00000380: 707e 473a d8ab 0eb8 aec7 c339 b0b1 2a3a
00000390: f05e 1c38 41c7 ef39 48c2 183a 0e96 31b9
000003a0: d054 a6b7 19fd ba39 0025 42ba c34a b3b9
000003b0: 1d50 5eba 98f9 27ba a681 b5b9 3748 b6ba
000003c0: 4018 4dba 2836 14ba d14a 3bba 3327 4b39
000003d0: 1411 b7b7 7b40 a6b9 3edd 2cb9 50f0 afb9
000003e0: dc97 a739 f601 6ab9 e2d0 b639 68b4 263a
000003f0: e4e8 9b39 eca8 d039 8c01 89b7 ef13 2c39

momentum_buffer f4 [64]
0.0011825113 -0.0014420925 -0.00020358663 -0.00025916216 -0.000118199314 -9.2255184e-05 0.00053541985 -0.0026280442
6.8278285e-05 0.00010501885 -0.00026748993 6.9434456e-05 -0.002254186 1.5174714e-05 -0.00014626118 -0.0028491006
-0.003013234 -0.00012101494 0.0009093665 0.00052037445 0.0008120646 -0.00074330845 -0.0015180756 0.0021178236
0.0004704885 0.0052597406 -0.00040902413 0.0068149716 -0.00019919363 0.0033011488 0.0009065363 -6.0666265e-05
0.00020910316 0.00012019829 -0.00078274333 -0.0016323349 -7.97756e-06 7.68112e-05 -4.3353844e-05 0.009630857
-0.00018057865 -0.0010548275 0.00034846232 0.008141184 -1.3459776e-06 -0.0029762574 -0.00037486164 0.0013177526
-0.00019430922 0.00042984055 0.00813057 -0.001458324 -0.00018409315 -0.0006894671 -0.0010763626 -0.00037071592
-0.0016436973 -4.8480862e-05 0.00012346866 -5.7283316e-05 -0.00052002916 0.0004474408 -0.0027988148 -0.0029668137
00000000: 7ffe 9a3a 9804 bdba df79 55b9 28e0 87b9
00000010: c6e1 f7b8 2079 c1b8 6b5b 0c3a 443b 2cbb
00000020: a030 8f38 913d dc38 e43d 8cb9 579d 9138
00000030: f7ba 13bb e696 7e37 b05d 19b9 fab7 3abb
00000040: ad79 45bb 67c9 fdb8 8e62 6e3a bd69 083a
00000050: bce0 543a 96da 42ba 2afa c6ba 2fcb 0a3b
00000060: e6ab f639 e759 ac3b 4a72 d6b9 2050 df3b
00000070: a2de 50b9 1658 583b 9fa4 6d3a e873 7eb8
00000080: b442 5b39 f712 fc38 0431 4dba 12f4 d5ba
00000090: 5cd7 05b7 b315 a138 d6d6 35b8 beca 1d3c
000000a0: b659 3db9 2342 8aba d2b1 b639 9a62 053c
000000b0: 70a7 b4b5 500d 43bb 1489 c4b9 71b8 ac3a
000000c0: 7cbf 4bb9 395c e139 1536 053c 3c25 bfba
000000d0: 2109 41b9 5bbd 34ba bc14 8dba a65c c2b9
000000e0: 5471 d7ba ee57 4bb8 5e77 0139 7e43 70b8
000000f0: 9152 08ba 7d96 ea39 526c 37bb e06e 42bb

momentum_buffer f4 [1, 64]
0.0025952235 -0.012246513 0.00081768236 0.01592426 -7.5069554e-05 -3.4240424e-05 0.013223978 -0.027129602
0.0009991381 0.0035227146 0.012198052 5.2956744e-05 -0.014474776 0.0004204107 0.0020146796 -0.040722545
-0.045018036 0.008297823 0.0072426465 -0.0075332755 0.03352355 -0.0091255875 -0.012970408 0.0074830223
0.0068060933 0.0023123547 0.0011966361 0.022071492 -2.5294677e-05 0.0027170964 0.015481116 -0.000165225
0.020436857 0.00350498 -0.0008537936 -0.030485269 -0.01447317 2.6584312e-05 0.0022346973 0.01903551
0.027280342 -0.0023364425 0.0028893636 0.023273349 0.00025291517 -0.017691735 -0.018352482 -0.0002889242
-0.00053175987 0.005177237 0.013845436 0.008441861 0.0026926934 0.029239144 0.00047777256 0.023675205
0.014111333 0.0057889065 0.00013470743 0.0028608288 0.006768428 -0.003958414 -0.01807754 -0.04472068
00000000: a014 2a3b 99a5 48bc bc59 563a 9873 823c
00000010: a96e 9db8 609d 0fb8 62a9 583c e63e debc
00000020: 83f5 823a 58dd 663b 57da 473c df1d 5e38
00000030: 9c27 6dbc 926a dc39 b708 043b afcc 26bd
00000040: d564 38bd 98f3 073c b953 ed3b b2d9 f6bb
00000050: fd4f 093d 7d83 15bc d681 54bc 2434 f53b
00000060: a605 df3b e08a 173b 72d8 9c3a 46cf b43c
00000070: e82f d4b7 5011 323b 82a4 7d3c 4040 2db9
00000080: 326b a73c ceb3 653b 1ed1 5fba 3ebc f9bc
00000090: e020 6dbc 6001 df37 0074 123b 5cf0 9b3c
000000a0: 067b df3c 001f 19bb 7a5b 3d3b c0a7 be3c
000000b0: b399 8439 42ee 90bc f257 96bc c07a 97b9
000000c0: cd65 0bba d0a5 a93b f8d7 623c bb4f 0a3c
000000d0: e677 303b ee86 ef3c 8c7d fa39 81f2 c13c
000000e0: 3833 673c deb0 bd3b 4040 0d39 be7c 3b3b
000000f0: b0c9 dd3b 95b5 81bb 5917 94bc 082d 37bd

bn0.weight f4 [3]
1.142394 1.0521258 1.099444
00000000: f739 923f 0fac 863f 95ba 8c3f

bn0.bias f4 [3]
-0.013888735 -0.16651562 0.0236839
00000000: 948d 63bc 1283 2abe bd04 c23c

bn0.running_mean f4 [3]
0.48776305 0.44740015 0.40593615
00000000: 14bc f93e a211 e53e ddd6 cf3e

bn0.running_var f4 [3]
0.064899944 0.060201477 0.060887743
00000000: 43ea 843d d395 763d 6d65 793d

conv1.weight f4 [32, 3, 5, 5]
0.06527792 0.005285936 -0.0546482 0.09292651 -0.0018859684 0.021610728 0.0405702 0.07823798
-0.056863334 0.05446394 0.03997757 0.113805614 -0.014326772 -0.030442344 0.04664988 0.005865545
0.005477823 0.039319366 0.014183002 0.10916896 -0.025463965 -0.011770451 0.020518228 0.050917313
0.025170218 -0.015494406 -0.014481177 0.0025532136 0.042738277 -0.074863866 -0.07246153 -0.010559296
-0.034318727 -0.05065786 -0.026365355 -0.0726795 -0.012530434 0.005545067 0.029736068 -0.06316031
0.04442269 -0.0696501 0.0045382474 -0.06740609 0.0016067997 -0.056691565 -0.046948586 -0.088980354
-0.091038555 -0.06496034 -0.0072682044 -0.028893895 -0.016146075 -0.0595204 0.032847367 -0.0037077465
-0.00028952837 -0.019510373 -0.030775491 -0.06615616 0.038858116 0.0036395006 0.045888636 -0.029792907
-0.032410927 -0.017690921 0.025099104 0.044528224 0.060813114 0.13072018 0.024178762 -0.016477996
-0.02958862 -0.11002706 -0.03727189 0.07912131 -0.053190157 -0.035201095 0.019119797 0.0070769857
0.005012602 0.02399546 0.050050136 -0.04483926 -0.013698301 -0.073421665 0.06622217 0.011618614
-0.06443733 -0.002735929 0.03714925 0.09313688 -0.0661823 -0.06079263 0.0121618975 0.01754987
0.047859915 -0.027001416 0.0023308108 -0.02728197 0.051626008 0.015450983 0.10935936 -0.007907228
-0.12437 -0.019015182 0.016406568 0.054015763 -0.016917521 -0.002437854 0.054320358 -0.06902479
-0.05069842 -0.007542413 0.03146853 0.039725393 0.02534262 0.04882589 -0.042655557 0.058853395
0.06028941 -0.048847903 -0.034812585 0.0140264835 -0.008621618 0.037501365 0.0034429014 0.008064996
-0.04890108 0.030952701 0.03234478 -0.023696145 -0.028255893 0.0035123085 -0.09569193 0.050949983
-0.011960531 -0.07840634 -0.035710156 0.01914538 0.098009855 0.00712488 0.019384982 -0.025015453
0.0034306012 -0.002118253 -0.0059784246 0.047530435 -0.07875612 -0.027304292 -0.071230456 0.004294369
-0.02664769 -0.0433066 -0.04138188 0.0024096037 0.045461025 -0.018883107 0.011360622 0.016739607
-0.09018481 -0.043659337 -0.0075899526 -0.009873998 -0.016147763 0.07633014 -0.0008313259 0.06944242
-0.034469523 -0.0064850976 0.044669207 -0.0728853 0.096317 -0.091688044 -0.041571245 -0.009299549
-0.099612385 0.01793535 0.020489952 -0.017756803 0.0038285716 0.0053714383 -0.008260314 -0.0377885
0.06676774 -0.05186874 0.026367567 0.032280046 -0.016107375 0.014879208 0.0014164671 -0.026724113
0.09295645 -0.07964585 0.026555518 0.063467085 -0.024768952 0.024300216 0.073441826 -0.093905635
0.011102184 0.035051808 0.08907106 0.004668467 -0.02168617 0.011860179 0.00230823 -0.04397443
-0.05245865 0.005700023 -0.090752326 0.065070145 0.06911663 -0.0014407428 -0.029678848 -0.020945825
0.042319484 -0.046984926 -0.013846625 -0.062010415 -0.031172141 -0.047982577 -0.0088083595 0.023756905
-0.030965421 0.1486152 -0.04195121 -0.045673557 0.12191158 -0.09310093 0.03075327 -0.083899245
-0.040155623 -0.08342166 0.054684814 0.022133818 0.037429087 -0.007018342 0.020375747 -0.065017335
-0.0147840185 0.050977245 -0.08427023 -0.03198904 -0.02322805 0.1045724 0.016668128 -0.005832673
0.04825012 -0.08190049 0.030746317 -0.018568143 -0.023278486 0.0046021505 0.045187056 0.014617809
00000000: 6eb0 853d a535 ad3b cad6 5fbd 4150 be3d
00000010: 9932 f7ba fb08 b13c f02c 263d 3c3b a03d
00000020: 87e9 68bd 9515 5f3d 85bf 233d eb12 e93d
00000030: d6ba 6abc 3962 f9bc f213 3f3d c233 c03b
00000040: 4f7f b33b 580d 213d d25f 683c fa93 df3d
00000050: ce99 d0bc dad8 40bc d815 a83c ac8e 503d
00000060: c631 ce3c 40dc 7dbc 7542 6dbc d153 273b
00000070: 550e 2f3d 3a52 99bd b666 94bd e600 2dbc
00000080: cb91 0cbd 9e7e 4fbd 28fc d7bc fdd8 94bd
00000090: 734c 4dbc 65b3 b53b 0e99 f33c 315a 81bd
000000a0: 91f4 353d b6a4 8ebd 94b5 943b 340c 8abd
000000b0: 409b d23a 6a35 68bd 294d 40bd 553b b6bd
000000c0: 6c72 babd ed09 85bd 1e2a eebb e4b2 ecbc
000000d0: c644 84bc aacb 73bd f68a 063d aafd 72bb
000000e0: d7cb 97b9 38d4 9fbc e21c fcbc e17c 87bd
000000f0: b029 1f3d b084 6e3b b9f5 3b3d 4110 f4bc
00000100: 52c1 04bd 8dec 90bc a39c cd3c 3a63 363d
00000110: 2c17 793d 83db 053e 8a12 c63c ddfc 86bc
00000120: d563 f2bc de55 e1bd 69aa 18bd 5a0a a23d
00000130: ecdd 59bd 062f 10bd 1fa1 9c3c 0fe6 e73b
00000140: c140 a43b 2092 c43c 5f01 4d3d 5fa9 37bd
00000150: d76e 60bc 195e 96bd 7d9f 873d 005c 3e3c
00000160: b8f7 83bd 464d 33bb d029 183d 8cbe be3d
00000170: 968a 87bd b101 79bd b242 473c bfc4 8f3c
00000180: c208 443d 1332 ddbc 84c0 183b 707e dfbc
00000190: cb75 533d 1f26 7d3c cdf7 df3d 518d 01bc
000001a0: b3b5 febd bac5 9bbc 1167 863c a23f 5d3d
000001b0: 9d96 8abc 67c4 1fbb 067f 5e3d de5c 8dbd
000001c0: 25a9 4fbd 5926 f7bb 25e5 003d 18b7 223d
000001d0: 549b cf3c a8fd 473d 98b7 2ebd 4210 713d
000001e0: 07f2 763d bd14 48bd a497 0ebd 56cf 653c
000001f0: b041 0dbc 089b 193d 4da2 613b 0c23 043c
00000200: 804c 48bd 8590 fd3c f67b 043d 6b1e c2bc
00000210: e778 e7bc c22e 663b 21fa c3bd eeb0 503d
00000220: 1af6 43bc 8193 a0bd d044 12bd c6d6 9c3c
00000230: 64b9 c83d d377 e93b 41cd 9e3c 35ed ccbc
00000240: f0d3 603b 63d2 0abb a9e6 c3bb 46af 423d
00000250: e34a a1bd 40ad dfbc 46e1 91bd c7b7 8c3b
00000260: 424c dabc 4362 31bd 0c80 29bd 71ea 1d3b
00000270: 5735 3a3d bfb0 9abc e721 3a3c 8021 893c
00000280: d0b2 b8bd 22d4 32bd 23b5 f8bb 8dc6 21bc
00000290: 5048 84bc fa52 9c3d 56ed 59ba d437 8e3d
000002a0: ea2f 0dbd f180 d4bb 0ff7 363d e344 95bd
000002b0: d941 c53d f1c6 bbbd 9c46 2abd 235d 18bc
000002c0: 9401 ccbd 28ed 923c 8bda a73c b776 91bc
000002d0: c6e8 7a3b e402 b03b 4556 07bc 1dc8 1abd
000002e0: 86bd 883d 5174 54bd cc00 d83c 1538 043d
000002f0: 9df3 83bc ecc7 733c c0a8 b93a 87ec dabc
00000300: f45f be3d 5d1d a3bd f58a d93c 08fb 813d
00000310: 42e8 cabc 3f11 c73c ab68 963d 9951 c0bd
00000320: efe5 353c 7c92 0f3d e36a b63d f1f9 983b
00000330: 32a7 b1bc 3251 423c ac45 173b 881e 34bd
00000340: e2de 56bd 42c7 ba3b 5bdc b9bd 7f43 853d
00000350: 058d 8d3d 4ed7 bcba 0e21 f3bc 9496 abbc
00000360: 3257 2d3d 4473 40bd f4dc 62bc a2fe 7dbd
00000370: b85c ffbc 6189 44bd f050 10bc d79d c23c
00000380: 32ab fdbc 952e 183e 08d5 2bbd 3214 3bbd
00000390: c7ac f93d b3ab bebd 48ee fb3c 5ed3 abbd
000003a0: 397a 24bd fad8 aabd 2ffd 5f3d fb51 b53c
000003b0: 3e4f 193d 1ffa e5bb 0aeb a63c cf27 85bd
000003c0: ab38 72bc 84cd 503d df95 acbd f106 03bd
000003d0: c048 bebc 0e2a d63d 998b 883c 0220 bfbb
000003e0: eba1 453d 72bb a7bd b3df fb3c 381c 98bc
000003f0: 86b2 bebc a3cd 963b 1016 393d 897f 6f3c

conv1.bias f4 [32]
-0.050938994 -0.051420145 -0.051496595 0.046796273 0.009465373 0.09640337 0.04648965 0.04298882
0.051722717 0.0023051335 0.09592608 -0.07295654 0.14054257 0.11408634 0.07680632 0.09636688
0.11590853 0.112797186 0.032661613 -0.1668478 0.05150124 0.1841098 -0.030721525 0.051632952
-0.0588502 -0.01431207 -0.112731494 0.097582035 0.038183656 0.037165843 -0.11353612 0.06386072
00000000: 68a5 50bd ee9d 52bd 18ee 52bd 73ad 3f3d
00000010: a714 1b3c 216f c53d ee6b 3e3d 0b15 303d
00000020: 33db 533d b911 173b e574 c43d 3d6a 95bd
00000030: 64ea 0f3e 19a6 e93d a24c 9d3d 005c c53d
00000040: 7461 ed3d 3602 e73d 2fc8 053d 26da 2abe
00000050: f7f2 523d 4887 3c3e b5ab fbbc 137d 533d
00000060: e80c 71bd 2c7d 6abc c5df e6bd 17d9 c73d
00000070: 7766 1c3d 363b 183d a085 e8bd 69c9 823d

conv2.weight f4 [32, 32, 3, 3]
0.07143326 -0.02815025 -0.0707336 -0.20021392 -0.15453725 0.020625843 -0.093168214 0.020944938
0.073748745 -0.06867575 0.07276213 -0.03508471 0.03120997 0.11302525 0.0062510655 0.08091929
0.057588458 0.10805126 0.03884861 0.0067549953 -0.08838417 0.16230926 -0.056910608 0.07541733
0.025215046 0.16017917 0.028792756 0.04504464 -0.07585361 -0.02343606 0.20336394 -0.011224452
0.056091852 0.07647652 0.141689 -0.12830693 0.06133702 0.11551239 0.2021353 0.051217247
0.013986643 0.00083261007 -0.062299278 0.21038368 -0.06372465 -0.087244645 0.21259487 -0.21761778
-0.059129287 0.06616186 0.026700271 0.11515151 0.050158035 -0.07583946 0.12295876 -0.10307293
0.001580773 0.045616355 -0.08323278 -0.075882606 -0.011128745 0.081962936 0.13762304 0.02381924
0.11675074 0.14607887 0.06977647 -0.055591486 0.044859435 -0.012746356 0.13875857 -0.024347508
0.17969802 -0.08506352 0.053813823 0.030496964 -0.011089784 -0.08913979 -0.12243058 -0.0040723756
0.0046389084 0.052511994 0.13222083 -0.06324842 0.010824732 0.104146145 0.038854614 -0.037583325
-0.07483262 0.026033377 0.057467 0.011626297 0.012628812 0.052630916 0.0006377535 0.015580166
0.06958089 0.0484831 -0.16567378 0.0019156612 0.054956634 0.11656862 0.07442826 0.12568958
-0.096170366 0.012749138 -0.13910241 0.009111193 0.038006168 0.032481723 -0.003073857 0.03264832
-0.020383297 0.023096692 -0.054096717 -0.0876876 -0.03591347 -0.022969952 -0.03743976 -0.054740038
-0.004984113 0.02889181 -0.08579149 -0.022257118 -0.051773585 0.02768951 0.036197856 -0.040449534
0.0055578477 -0.044376638 -0.03247556 0.16661349 0.12239988 0.1479698 0.036675744 -0.06377932
0.0024489833 0.031954687 0.07760708 -0.09801092 -0.021906419 -0.0023748996 -0.1376306 -0.12684175
-0.14716622 0.011670184 -0.09019672 -0.010133933 0.12179942 0.17791921 -0.07781052 -0.021314044
-0.1075109 0.171297 0.05060312 -0.10004144 0.04897235 0.04315766 -0.03736205 -0.0016539843
-0.017660707 0.02521362 -0.08995522 -0.12008494 0.077746086 -0.1295002 0.0782352 -0.23845443
-0.09260488 -0.04988709 0.107486315 -0.022676162 0.0488458 0.008769989 -0.17842923 0.0606805
-0.05109473 0.00036784488 0.025675936 -0.002872128 -0.041307963 0.043651637 0.0725681 -0.07830509
-0.1403088 -0.03279046 0.081913725 -0.122785866 -0.053848505 -0.10225774 0.06605022 0.049995556
0.011941466 -0.010051134 0.0792661 0.11729573 -0.015444779 0.031054558 -0.057180956 0.010432073
0.1215067 0.0027671924 0.03713185 -0.070740156 -0.011128342 -0.110079065 0.12043873 0.09817072
0.15006204 0.024815336 0.06269361 -0.09373339 0.05559099 0.07991283 0.112084724 -0.009713084
0.015667366 -0.050805703 -0.06629615 -0.12801747 0.067321725 -0.050046265 0.014368749 0.051706307
0.09380824 0.032768033 0.13117744 0.0039550937 -0.0555305 -0.06426325 0.08512212 0.003984574
0.19037725 -0.06968575 -0.08473287 -0.19491959 -0.0067373156 -0.029429222 -0.044903807 0.022441674
-0.10396426 -0.1863363 0.014046106 0.018629463 0.07344822 -0.13683298 -0.082717985 -0.08671943
0.07408272 -0.0632229 -0.06329523 -0.026809994 0.08285231 -0.008419332 -0.008961871 0.04108705
00000000: 9a4b 923d 5a9b e6bc c7dc 90bd e104 4dbe
00000010: 033f 1ebe 87f7 a83c face bebd b894 ab3c
00000020: 9509 973d dfa5 8cbd 5004 953d fcb4 0fbd
00000030: 0dac ff3c c879 e73d bdd5 cc3b 03b9 a53d
00000040: e0e1 6b3d fb49 dd3d b81f 1f3d 0259 dd3b
00000050: c202 b5bd 6634 263e 191b 69bd 6774 9a3d
00000060: c98f ce3c 0206 243e c9de eb3c ba80 383d
00000070: 2359 9bbd fbfc bfbc a33e 503e c4e6 37bc
00000080: 92c0 653d b99f 9c3d ec16 113e e462 03be
00000090: 873c 7b3d c391 ec3d 8efc 4e3e 2dc9 513d
000000a0: 3c28 653c 8443 5a3a 872d 7fbd d26e 573e
000000b0: 1282 82bd 52ad b2bd 78b2 593e 32d7 5ebe
000000c0: 8d31 72bd df7f 873d 87ba da3c 8ed4 eb3d
000000d0: 8372 4d3d b851 9bbd cdd1 fb3d e617 d3bd
000000e0: f131 cf3a 37d8 3a3d f375 aabd 5768 9bbd
000000f0: 5755 36bc 2fdc a73d 0eed 0c3e 9120 c33c
00000100: 031b ef3d b395 153e f7e6 8e3d e6b3 63bd
00000110: 87be 373d 18d6 50bc ba16 0e3e 6d74 c7bc
00000120: c202 383e c835 aebd e26b 5c3d c5d4 f93c
00000130: edb1 35bc ec8e b6bd e2bc fabd 9071 85bb
00000140: fc01 983b d116 573d e664 073e 6388 81bd
00000150: 375a 313c 934a d53d 0426 1f3d f9f0 19bd
00000160: d841 99bd f343 d53c 8462 6b3d 397c 3e3c
00000170: 14e9 4e3c 8493 573d ea2e 273a f443 7f3c
00000180: 6d80 8e3d 3796 463d 63a6 29be ec16 fb3a
00000190: 351a 613d 87bb ee3d d86d 983d c5b4 003e
000001a0: f8f4 c4bd c3e1 503c dd70 0ebe 1d47 153c
000001b0: 5bac 1b3d 8e0b 053d c372 49bb 3fba 053d
000001c0: dffa a6bc 4635 bd3c 8594 5dbd 8e95 b3bd
000001d0: 011a 13bd 7b2b bcbc 6f5a 19bd 1737 60bd
000001e0: c551 a3bb 84ae ec3c 73b3 afbd 8f54 b6bc
000001f0: 8a10 54bd 1cd5 e23c 3444 143d 69ae 25bd
00000200: 9b1e b63b 47c4 35bd 1805 05bd ba9c 2a3e
00000210: caac fa3d 6585 173e 4e39 163d bb9e 82bd
00000220: 1f7f 203b ebe2 023d 76f0 9e3d f3b9 c8bd
00000230: 1775 b3bc 34a4 1bbb 09ef 0cbe cee2 01be
00000240: beb2 16be 4d34 3f3c 0fb9 b8bd cc08 26bc
00000250: f971 f93d 7430 363e 1f5b 9fbd ca9a aebc
00000260: ad2e dcbd 7b68 2f3e 3845 4f3d 87e2 ccbd
00000270: 3b97 483d 16c6 303d f308 19bd 81ca d8ba
00000280: 30ad 90bc cb8c ce3c 713a b8bd 18ef f5bd
00000290: 5739 9f3d b39b 04be c739 a03d 662d 74be
000002a0: a1a7 bdbd 6856 4cbd c921 dc3d 5cc3 b9bc
000002b0: 8912 483d 00b0 0f3c 27b6 36be 1e8c 783d
000002c0: b548 51bd 4edb c039 5756 d23c 503a 3cbb
000002d0: 8a32 29bd 0fcc 323d 969e 943d 6b5e a0bd
000002e0: 1cad 0fbe 4a4f 06bd 62c2 a73d 2877 fbbd
000002f0: 4090 5cbd 826c d1bd 5645 873d 24c8 4c3d
00000300: 23a6 433c 83ad 24bc 4456 a23d be38 f03d
00000310: 190c 7dbc 2166 fe3c 9436 6abd 49eb 2a3c
00000320: 81d8 f83d c959 353b 9117 183d 37e0 90bd
00000330: a653 36bc 2271 e1bd 95a8 f63d bb0d c93d
00000340: dda9 193e 8849 cb3c 8265 803d 4bf7 bfbd
00000350: 61b3 633d 56a9 a33d ad8c e53d a123 1fbc
00000360: d958 803c a419 50bd 47c6 87bd 0317 03be
00000370: f9df 893d 50fd 4cbd e76a 6b3c fec9 533d
00000380: 891e c03d c637 063d 6153 063e bb99 813b
00000390: f373 63bd 739c 83bd 8254 ae3d 0891 823b
000003a0: 41f2 423e 67b7 8ebd 6d88 adbd 0099 47be
000003b0: b3c4 dcbb 8d15 f1bc 0eed 37bd 9ad7 b73c
000003c0: 37eb d4bd f1ce 3ebe a321 663c d19c 983c
000003d0: 056c 963d f21d 0cbe 0c68 a9bd f599 b1bd
000003e0: aeb8 973d 027b 81bd eea0 81bd a2a0 dbbc
000003f0: 79ae a93d 3df1 09bc d0d4 12bc e54a 283d

conv2.bias f4 [32]
0.076506756 0.048709985 0.0313865 0.009047231 0.056167472 0.10342305 0.012557554 0.025774514
0.025113195 0.040786993 0.08505682 -0.0022428539 -0.030258466 0.030194644 0.084205374 0.020234585
0.0262538 -0.023293575 -0.02514355 0.030867966 -0.055619147 0.07045437 0.057600845 0.024906607
0.0145807555 0.064341605 -0.020254679 0.07479713 -0.02874535 0.008234227 0.018869944 0.035100684
00000000: 93af 9c3d 1f84 473d 218f 003d d63a 143c
00000010: dd0f 663d 77cf d33d 33be 4d3c 1325 d33c
00000020: 30ba cd3c 4310 273d 4532 ae3d d8fc 12bb
00000030: 9ae0 f7bc c25a f73c de73 ac3d 00c3 a53c
00000040: 3612 d73c 2bd2 bebc d9f9 cdbc d1de fc3c
00000050: e7d0 63bd 614a 903d ddee 6b3d f108 cc3c
00000060: 1fe4 6e3c 88c5 833d 24ed a5bc 3d2f 993d
00000070: 5e7b ebbc dae8 063c 2495 9a3c bcc5 0f3d
